inference/SyGuS/model_checkpoints/cpu=False_cross_valid=5_data_weight=best_dropout=0_edge_sets=[AST_Back-AST_Data]_epochs=25_mode=cat_no_jump=True_pool_type=attention_time_steps=2_track=None_1673294822.pt (torch, 502627 bytes, 21 tensors)

gats.0.att f4 [1, 5, 67]
0	0xb79fa26e	-1.9029914e-05
1	0x34c9094a	3.7445926e-07
2	0x3a1c2cc9	0.0005957601
3	0x35c710c1	1.4831531e-06
4	0x3809774a	3.2774442e-05
5	0x38590c65	5.1748375e-05
6	0xb5aac275	-1.2722581e-06
7	0x38fd2459	0.000120707504
8	0x3811b08d	3.473512e-05
9	0xb39faf0c	-7.435855e-08
10	0x3606fc9b	2.0114592e-06
11	0x33492fe9	4.6842533e-08
12	0x38072254	3.221848e-05
13	0x3a77f3ab	0.00094586116
14	0x370736b1	8.059361e-06
15	0xbc2ff052	-0.010738449
16	0x3219c7d9	8.951212e-09
17	0x36ac1abc	5.1291117e-06
18	0x3b929a73	0.004473978
19	0x36142b9e	2.2079107e-06
20	0x3a52ca76	0.0008041033
21	0xb66ae879	-3.5004034e-06
22	0x3a0868d5	0.00052036095
23	0x2f93cd77	2.6885136e-10
24	0xb809e87f	-3.2879874e-05
25	0x3571354c	8.9857053e-07
26	0x3a205adb	0.0006117054
27	0x39c6d016	0.0003792054
28	0x3827eda4	4.0037223e-05
29	0x3a084925	0.00051988877
30	0x3b91f1ce	0.004453874
31	0xb6a48931	-4.903552e-06
32	0x327bbabe	1.4652583e-08
33	0x3a3592de	0.0006926487
34	0xb71fedfe	-9.53255e-06
35	0x33ace800	8.051575e-08
36	0xb694e8cd	-4.4378453e-06
37	0x38590d60	5.1749288e-05
38	0x2e850959	6.0498e-11
39	0x338151a3	6.02188e-08
40	0x343e1d03	1.7705683e-07
41	0xb90e670c	-0.00013580563
42	0x3718be94	9.104278e-06
43	0x351d0fc3	5.8509994e-07
44	0x341f269f	1.4822079e-07
45	0xb2c76a78	-2.3215065e-08
46	0x3106b178	1.9600446e-09
47	0x3a0486cd	0.0005055487
48	0x38fd7110	0.000120850396
49	0xac12a814	-2.084115e-12
50	0xb87fd8e3	-6.099873e-05
51	0xb912c433	-0.00013996735
52	0xb990c426	-0.00027611962
53	0x331dfb8c	3.678319e-08
54	0x31fa5594	7.2856867e-09
55	0xb7418e80	-1.1536875e-05
56	0x379947de	1.8272487e-05
57	0xb555e61d	-7.968354e-07
58	0x38c207e4	9.2521106e-05
59	0xb579390f	-9.284276e-07
60	0xb737e128	-1.0960073e-05
61	0xb778969d	-1.4817019e-05
62	0xb9a80ca9	-0.0003205289
63	0x3a0da792	0.0005403693
64	0x33faa6a2	1.16718425e-07
65	0xb81cbd3c	-3.7369537e-05
66	0xb22f839d	-1.0216266e-08
67	0xb79af98b	-1.8474433e-05
68	0x34db068c	4.0796692e-07
69	0x3a1ce61e	0.0005985218
70	0x35cb7e2a	1.5161397e-06
71	0x3812bd55	3.498544e-05
72	0x385ef23c	5.3154523e-05
73	0xb5b85262	-1.3733045e-06
74	0x3901aa23	0.0001236578
75	0x3818d10b	3.643431e-05
76	0xb445d262	-1.8423592e-07
77	0x360c8661	2.0939844e-06
78	0x3350f7e4	4.865423e-08
79	0x380c5e55	3.3466455e-05
80	0x3a7a9aaf	0.0009559793
81	0x370c92fa	8.378871e-06
82	0xbc4c2983	-0.012461069
83	0x31187f72	2.2191355e-09
84	0x36d0a382	6.217918e-06
85	0x3b935b8d	0.0044969977
86	0x361e9547	2.3630726e-06
87	0x3a51cdbc	0.0008003374
88	0xb5e82f9f	-1.7299207e-06
89	0x3a073344	0.00051574805
90	0x2f944ba1	2.697478e-10
91	0xb810e106	-3.4541845e-05
92	0x357e3177	9.4694354e-07
93	0x3a1efb87	0.0006064702
94	0x39c2a5b7	0.0003712603
95	0x3833eacc	4.2895597e-05
96	0x3a08b0d7	0.00052143395
97	0x3b927b5a	0.004470271
98	0xb6e1e073	-6.731652e-06
99	0x3285a01f	1.5556052e-08
100	0x3a3ce1b4	0.0007205263
101	0xb72fca36	-1.0477894e-05
102	0x339a4834	7.1843175e-08
103	0xb69dd8b3	-4.7041917e-06
104	0x3866552e	5.4915603e-05
105	0x2e86c492	6.1285324e-11
106	0x334b9797	4.740249e-08
107	0x342afbf4	1.5924144e-07
108	0xb9194452	-0.00014616668
109	0x370fed0e	8.578658e-06
110	0x3590bea5	1.0784321e-06
111	0x33afa583	8.179179e-08
112	0xb37a9fca	-5.8352988e-08
113	0x31142fac	2.1563933e-09
114	0x3a06ae0e	0.00051376305
115	0x3905ebee	0.00012771759
116	0xac14a80b	-2.1125348e-12
117	0xb88fde0d	-6.8601315e-05
118	0xb918ba99	-0.00014565363
119	0xb98b24a7	-0.00026539454
120	0x33241880	3.8206508e-08
121	0x32022f65	7.577772e-09
122	0xb73289b1	-1.0641686e-05
123	0x379faf41	1.9035886e-05
124	0xb5746b30	-9.105306e-07
125	0x38c6f12a	9.486296e-05
126	0xb5815eb4	-9.638811e-07
127	0xb721ea74	-9.650936e-06
128	0xb78464ea	-1.5782618e-05
129	0xb99ffe59	-0.00030516347
130	0x3a0d1739	0.00053821836
131	0x3404bdd0	1.2362511e-07
132	0xb8259c13	-3.948442e-05
133	0xb2191261	-8.909951e-09
134	0xb7a097e9	-1.9144225e-05
135	0x34d37a6e	3.9390892e-07
136	0x3a1e3e3b	0.0006036495
137	0x35c98eea	1.501726e-06
138	0x38106183	3.442309e-05
139	0x385fae53	5.3329695e-05
140	0xb5b2b522	-1.331475e-06
141	0x3901ee8d	0.00012391266
142	0x381797f2	3.6142716e-05
143	0xb41143cb	-1.352884e-07
144	0x360aa211	2.0657938e-06
145	0x334f21aa	4.822656e-08
146	0x380dace2	3.377803e-05
147	0x3a7b8f84	0.00095962756
148	0x370a6c83	8.250706e-06
149	0xbc2e79c5	-0.010649149
150	0x321f9d14	9.2907335e-09
151	0x36c5743b	5.8845885e-06
152	0x3b93c794	0.0045098756
153	0x361c0361	2.3247778e-06
154	0x3a546e34	0.000810358
155	0xb62f5aa6	-2.6129796e-06
156	0x3a09bd2d	0.00052543246
157	0x2f94db09	2.7076677e-10
158	0xb80db7dc	-3.3788252e-05
159	0x3580e7e0	9.604228e-07
160	0x3a229871	0.0006202525
161	0x39c6d91a	0.00037927256
162	0x3831acac	4.23609e-05
163	0x3a0a6997	0.00052800163
164	0x3b92e9cb	0.0044834367
165	0xb6c11649	-5.7544426e-06
166	0x3282f846	1.5246894e-08
167	0x3a3b004d	0.00071335287
168	0xb726fd24	-9.95331e-06
169	0x33b5feed	8.47484e-08
170	0xb69a8965	-4.6055525e-06
171	0x386517c8	5.4620003e-05
172	0x2e85d818	6.086526e-11
173	0x3385035e	6.1939076e-08
174	0x3435f783	1.6946983e-07
175	0xb91555e5	-0.00014241746
176	0x3721bab4	9.639818e-06
177	0x3565527f	8.5429195e-07
178	0x33f2416e	1.1280905e-07
179	0xb33053d3	-4.105443e-08
180	0x311002c5	2.0956332e-09
181	0x3a06a370	0.00051360484
182	0x390284b7	0.00012447206
183	0xac144c05	-2.1074264e-12
184	0xb88bfe5d	-6.675415e-05
185	0xb9187e10	-0.00014542812
186	0xb98e78b5	-0.00027174284
187	0x33221455	3.7737056e-08
188	0x3200ace2	7.48989e-09
189	0xb73d5022	-1.1283935e-05
190	0x379eae7c	1.8916318e-05
191	0xb56c460f	-8.80188e-07
192	0x38c901dc	9.584773e-05
193	0xb57de12c	-9.457751e-07
194	0xb72d67ba	-1.0335754e-05
195	0xb78157e9	-1.5418935e-05
196	0xb9a63c82	-0.0003170707
197	0x3a0f6023	0.00054693426
198	0x3402225a	1.211969e-07
199	0xb8243aca	-3.91554e-05
200	0xb228ad58	-9.818301e-09
201	0xb79563e4	-1.78087e-05
202	0x34df368f	4.1576683e-07
203	0x3a1a0a80	0.00058761984
204	0x35afd35c	1.310003e-06
205	0x3812b7a0	3.4980127e-05
206	0x3859a1cf	5.1887528e-05
207	0xb5b7fbd0	-1.370785e-06
208	0x38ff2e94	0.000121680234
209	0x381585df	3.5649045e-05
210	0xb464f898	-2.1324593e-07
211	0x360aadc8	2.0664756e-06
212	0x331dfe86	3.67859e-08
213	0x38062ec3	3.199164e-05
214	0x3a754281	0.0009355918
215	0x3710e9fa	8.637546e-06
216	0xbc8b1056	-0.016975563
217	0x3119079b	2.2268754e-09
218	0x36af4043	5.2228875e-06
219	0x3b90f97b	0.0044242716
220	0x3620fc2a	2.3988637e-06
221	0x3a4cc797	0.00078117236
222	0xb57ca9c5	-9.412436e-07
223	0x3a027ea6	0.00049779785
224	0x2f929529	2.666323e-10
225	0xb8157a6b	-3.563838e-05
226	0x357e41fa	9.471838e-07
227	0x3a193905	0.00058449834
228	0x39bb2723	0.0003569658
229	0x38325f0a	4.252702e-05
230	0x3a05261f	0.0005079228
231	0x3b8fa0ff	0.004383206
232	0xb6ff1611	-7.602161e-06
233	0x32866939	1.5647503e-08
234	0x3a3c824c	0.00071910466
235	0xb731b3e8	-1.059191e-05
236	0x33ab00e7	7.962972e-08
237	0xb69fcbc7	-4.762292e-06
238	0x38622e75	5.3925865e-05
239	0x2ed725ff	9.7838175e-11
240	0x3349f244	4.70193e-08
241	0x34210892	1.4997411e-07
242	0xb9197899	-0.00014636143
243	0x36e66659	6.866449e-06
244	0x35ac70af	1.2847794e-06
245	0x337f07d9	5.937895e-08
246	0xb39970b2	-7.145117e-08
247	0x311631af	2.1856115e-09
248	0x3a04c3d3	0.00050645805
249	0x39067156	0.00012821457
250	0xac13d656	-2.1008937e-12
251	0xb88f32a9	-6.8282076e-05
252	0xb9173e6a	-0.00014423733
253	0xb986a04b	-0.000256779
254	0x33248e9f	3.831394e-08
255	0x32384cd2	1.07276765e-08

gats.0.bias f4 [67]
0	0x39e0f02f	0.0004290356
1	0xb7bd496d	-2.2564747e-05
2	0xbb1c5330	-0.0023853295
3	0x3576c310	9.1925995e-07
4	0x393e5e25	0.00018154884
5	0xb7500efe	-1.2401257e-05
6	0x36198c1d	2.2880333e-06
7	0x3adb13b0	0.0016714241
8	0x3a18c0fc	0.0005827097
9	0xb62d79ca	-2.58499e-06
10	0xb9742637	-0.0002328389
11	0xb648bb00	-2.991117e-06
12	0x3a799b5d	0.0009521747
13	0xbc0033bc	-0.007824834
14	0x38b50b5d	8.632869e-05
15	0x3c232224	0.00995687
16	0xb81109a8	-3.4579687e-05
17	0x3a2289a6	0.0006200321
18	0xbd4c05ac	-0.049810097
19	0x37145053	8.840189e-06
20	0xbb07fe9a	-0.002075112
21	0x39677794	0.00022074423
22	0xbbd59de4	-0.006519066
23	0xb5691936	-8.683595e-07
24	0x3a016fa6	0.00049375964
25	0xb79583d9	-1.782358e-05
26	0xbc03f949	-0.00805504
27	0xbac67add	-0.0015142817
28	0x3a4bead8	0.000777883
29	0xbbab406d	-0.005226186
30	0xbd66ca55	-0.056345303
31	0x39998b26	0.00029286108
32	0x34e89cad	4.3327364e-07
33	0x3b94d1b2	0.004541599
34	0xb9010fd2	-0.00012308292
35	0x37870829	1.6097054e-05
36	0xb961cb55	-0.00021533419
37	0x3afad32d	0.0019136422
38	0xb60e9ef1	-2.1252165e-06
39	0xb76ae969	-1.4001832e-05
40	0x36bf21d1	5.6961803e-06
41	0x3b0f9526	0.0021908968
42	0xb8ed6753	-0.00011320286
43	0xb7ac270c	-2.052218e-05
44	0xb7e2113e	-2.6949328e-05
45	0xb5f11531	-1.7962067e-06
46	0xb766c474	-1.3754809e-05
47	0xbba267be	-0.0049562147
48	0x3a462b0c	0.0007559515
49	0xb694cdc5	-4.4346984e-06
50	0x39e3205f	0.00043320932
51	0x3af61c4d	0.0018776745
52	0x3c1bd908	0.0095121935
53	0xb67cfa44	-3.76966e-06
54	0xb70b7a3a	-8.313504e-06
55	0x39f358db	0.00046414774
56	0x3af13041	0.0018401222
57	0x350b858c	5.197587e-07
58	0x3af59468	0.0018736245
59	0xb8a94b79	-8.072606e-05
60	0x3a061497	0.00051147625
61	0xb89bdd6e	-7.4322204e-05
62	0x3c060a49	0.008181163
63	0xbb96a7c1	-0.0045976345
64	0xb7eeee97	-2.8482913e-05
65	0x39eb6e02	0.00044904655
66	0xb6882dda	-4.0584537e-06

gats.0.lin_l.weight f4 [335, 67]
0	0xb8076083	-3.227639e-05
1	0x38ebfcef	0.00011252786
2	0x396738d9	0.00022051054
3	0x39894f65	0.0002618983
4	0x34707982	2.2395946e-07
5	0xb767af7d	-1.3809532e-05
6	0x0000b141	6.3587e-41
7	0x3924414a	0.00015664581
8	0x0b3f29ef	3.681681e-32
9	0x80000144	-4.54e-43
10	0x3a22599b	0.0006193162
11	0x3982ef63	0.0002497389
12	0x00005f48	3.418e-41
13	0xb9165850	-0.00014338014
14	0x8000a432	-5.8902e-41
15	0xb89bd056	-7.4297815e-05
16	0xb9b7b437	-0.0003503875
17	0x33068e7b	3.132889e-08
18	0x3a0a9c62	0.0005287585
19	0x396ff0d4	0.00022882532
20	0x00003554	1.913e-41
21	0x80009a42	-5.5337e-41
22	0x00009769	5.4316e-41
23	0x80005107	-2.9067e-41
24	0x80009598	-5.3664e-41
25	0x0000b08a	6.333e-41
26	0x0000b109	6.3508e-41
27	0x800003ea	-1.404e-42
28	0x8000a087	-5.7586e-41
29	0x00008533	4.7783e-41
30	0x8000aec1	-6.269e-41
31	0x00008afc	4.9858e-41
32	0x800002c8	-9.98e-43
33	0x8000a69f	-5.9772e-41
34	0x8000b273	-6.4016e-41
35	0x80008074	-4.608e-41
36	0x800082a1	-4.6861e-41
37	0x000029ea	1.5036e-41
38	0x80004eb7	-2.8238e-41
39	0x8000b21c	-6.3894e-41
40	0x000012a7	6.691e-42
41	0x000002e0	1.031e-42
42	0x00004fe3	2.8658e-41
43	0x80007289	-4.1087e-41
44	0x80007b96	-4.4334e-41
45	0x80009f18	-5.7072e-41
46	0x0000a7ea	6.0236e-41
47	0x8000995d	-5.5016e-41
48	0x0000201a	1.1516e-41
49	0x800060a8	-3.4674e-41
50	0x00007d4f	4.4952e-41
51	0x0000a7d9	6.0212e-41
52	0x00009620	5.3855e-41
53	0x00004c86	2.7451e-41
54	0x8000a57c	-5.9365e-41
55	0x0000901e	5.17e-41
56	0x80001ad3	-9.623e-42
57	0x800098c1	-5.4798e-41
58	0x8000916f	-5.2172e-41
59	0x0000ab2d	6.1406e-41
60	0x00000bc0	4.215e-42
61	0x8000b312	-6.4238e-41
62	0x0000b023	6.3186e-41
63	0x000019ff	9.326e-42
64	0x800067f2	-3.7289e-41
65	0x80009b69	-5.575e-41
66	0xb904703e	-0.00012630314
67	0x00001740	8.34e-42
68	0x000041d2	2.3612e-41
69	0xb56ef987	-8.902502e-07
70	0xb46de05e	-2.215397e-07
71	0xb4385fdb	-1.7171207e-07
72	0x0000441b	2.4432e-41
73	0x0000749f	4.1836e-41
74	0xb6df8ccc	-6.662309e-06
75	0x80009693	-5.4016e-41
76	0x80008832	-4.8858e-41
77	0xb4969f00	-2.8055365e-07
78	0xb3909c2e	-6.7339315e-08
79	0x8000ac4a	-6.1806e-41
80	0xb38f06c4	-6.660187e-08
81	0x8000b325	-6.4265e-41
82	0xb4b8d108	-3.442476e-07
83	0xb55176f8	-7.803169e-07
84	0x00006164	3.4937e-41
85	0xb706e27b	-8.039754e-06
86	0xb2f1e74b	-2.8161272e-08
87	0x8000a340	-5.8563e-41
88	0x80001665	-8.034e-42
89	0x00008638	4.8149e-41
90	0x0000b08d	6.3334e-41
91	0x80008688	-4.8261e-41
92	0x8000b241	-6.3945e-41
93	0x00004225	2.3728e-41
94	0x000062db	3.5463e-41
95	0x0000a969	6.0773e-41
96	0x80003922	-2.0495e-41
97	0x0000ab07	6.1353e-41
98	0x80009fa2	-5.7265e-41
99	0x8000997b	-5.5058e-41
100	0x80000382	-1.258e-42
101	0x0000aff5	6.3121e-41
102	0x000040ac	2.32e-41
103	0x80007b6d	-4.4277e-41
104	0x00008c39	5.0302e-41
105	0x0000a85e	6.0399e-41
106	0x000018d8	8.912e-42
107	0x8000210f	-1.1859e-41
108	0x80009e53	-5.6796e-41
109	0x800009af	-3.474e-42
110	0x0000836c	4.7145e-41
111	0x0000453b	2.4835e-41
112	0x8000b19a	-6.3711e-41
113	0x800020a9	-1.1716e-41
114	0x0000b209	6.3867e-41
115	0x8000b2ce	-6.4143e-41
116	0x00003823	2.0138e-41
117	0x8000b22d	-6.3917e-41
118	0x00001658	8.015e-42
119	0x8000aff7	-6.3124e-41
120	0x0000952f	5.3517e-41
121	0x800089e6	-4.9469e-41
122	0x0000ae97	6.2631e-41
123	0x800006f4	-2.494e-42
124	0x00008dc8	5.0862e-41
125	0x80009976	-5.5051e-41
126	0x80002825	-1.4401e-41
127	0x80001c6d	-1.0197e-41
128	0x0000a8f6	6.0612e-41
129	0x00006169	3.4944e-41
130	0x80009bba	-5.5864e-41
131	0x0000910d	5.2034e-41
132	0x80009479	-5.3262e-41
133	0x00005be7	3.2968e-41
134	0x3878c76a	5.9313526e-05
135	0x384549f3	4.703733e-05
136	0x3c9cd515	0.019144574
137	0x3c652a1e	0.013987092
138	0xbae4a5e5	-0.001744446
139	0x3987ad51	0.00025878337
140	0x8000af8e	-6.2977e-41
141	0xbaa865a4	-0.0012847674
142	0x13a160e8	4.073767e-27
143	0x0000b27b	6.4027e-41
144	0x39b9cd30	0.00035438826
145	0xbb009de3	-0.0019625358
146	0x0000b147	6.3595e-41
147	0x39b0bc1c	0.00033709488
148	0x0000ad36	6.2136e-41
149	0x39320984	0.00016978948
150	0xbaf88194	-0.0018959516
151	0xb91cf274	-0.0001496764
152	0xbbeb66c6	-0.0071838824
153	0xb897266f	-7.2074e-05
154	0x8000a9f5	-6.0969e-41
155	0x00009ed6	5.698e-41
156	0x8000b203	-6.3859e-41
157	0x0000288f	1.455e-41
158	0x80005eb2	-3.397e-41
159	0x0000a71a	5.9945e-41
160	0x00001e76	1.0927e-41
161	0x0000a9b9	6.0885e-41
162	0x8000b268	-6.4e-41
163	0x0000a37d	5.8649e-41
164	0x00008339	4.7074e-41
165	0x80000fc2	-5.653e-42
166	0x80003046	-1.7317e-41
167	0x8000398c	-2.0644e-41
168	0x0000743e	4.17e-41
169	0x0000ae73	6.258e-41
170	0x8000a3db	-5.878e-41
171	0x00004ecd	2.8268e-41
172	0x0000795b	4.3534e-41
173	0x80004563	-2.4891e-41
174	0x80003936	-2.0523e-41
175	0x0000095c	3.358e-42
176	0x8000552e	-3.0557e-41
177	0x00004443	2.4488e-41
178	0x000035ce	1.9301e-41
179	0x0000a9f1	6.0963e-41
180	0x8000a863	-6.0406e-41
181	0x8000acea	-6.203e-41
182	0x80004aa7	-2.678e-41
183	0x00000de1	4.979e-42
184	0x0000b036	6.3213e-41
185	0x8000b376	-6.4378e-41
186	0x00006d15	3.9131e-41
187	0x800082c4	-4.691e-41
188	0x00009713	5.4195e-41
189	0x0000a345	5.857e-41
190	0x800039ae	-2.0692e-41
191	0x00001b0d	9.704e-42
192	0x0000654b	3.6337e-41
193	0x80008531	-4.778e-41
194	0x8000b280	-6.4034e-41
195	0x00003049	1.7321e-41
196	0x0000a9c5	6.0902e-41
197	0x000094b9	5.3352e-41
198	0x8000b224	-6.3905e-41
199	0x800003c3	-1.35e-42
200	0x3923673a	0.00015583346
201	0xb742097e	-1.1565511e-05
202	0xb729949a	-1.0107784e-05
203	0xb80f6b3e	-3.4193734e-05
204	0xb7c824fe	-2.3859084e-05
205	0xb815500c	-3.5598918e-05
206	0xb6deeb6d	-6.6435227e-06
207	0x000070f5	4.0521e-41
208	0x368ebe9f	4.254121e-06
209	0x8000aac1	-6.1255e-41
210	0x0000a9a3	6.0854e-41
211	0xb82f9794	-4.186442e-05
212	0xb7c8f1c4	-2.3954439e-05
213	0x00008ac9	4.9787e-41
214	0xb8492e19	-4.7965066e-05
215	0x80000d5e	-4.795e-42
216	0xb84550e3	-4.704379e-05
217	0xb4b4ea44	-3.3698063e-07
218	0x32aea04c	2.032916e-08
219	0xb7790af7	-1.48441095e-05
220	0xb8549cec	-5.0690884e-05
221	0x0000b024	6.3187e-41
222	0x80001ca4	-1.0274e-41
223	0x8000b003	-6.3141e-41
224	0x80009891	-5.473e-41
225	0x00009690	5.4012e-41
226	0x00004f84	2.8525e-41
227	0x00004977	2.6354e-41
228	0x80009ea8	-5.6915e-41
229	0x0000a7e6	6.023e-41
230	0x00000008	1.1e-44
231	0x8000b2c0	-6.4123e-41
232	0x00006289	3.5348e-41
233	0x8000b1ff	-6.3853e-41
234	0x8000218a	-1.2032e-41
235	0x00008b55	4.9983e-41
236	0x0000b276	6.402e-41
237	0x8000a700	-5.9908e-41
238	0x0000add9	6.2365e-41
239	0x8000af6b	-6.2928e-41
240	0x00000661	2.288e-42
241	0x8000139f	-7.039e-42
242	0x800003f0	-1.413e-42
243	0x00001d25	1.0455e-41
244	0x80000034	-7.3e-44
245	0x0000b059	6.3262e-41
246	0x8000808d	-4.6115e-41
247	0x0000a02c	5.7459e-41
248	0x8000b23d	-6.394e-41
249	0x8000903e	-5.1744e-41
250	0x80009ec1	-5.695e-41
251	0x80008a72	-4.9665e-41
252	0x0000486f	2.5984e-41
253	0x0000808b	4.6113e-41
254	0x0000a255	5.8234e-41
255	0x0000ab70	6.15e-41

gats.0.lin_l.bias f4 [335]
0	0x39dc7292	0.00042047031
1	0xb7b434dd	-2.1482289e-05
2	0x3ba9b156	0.005178611
3	0xb7104238	-8.598487e-06
4	0x3984836a	0.00025274913
5	0x39e9d2b2	0.00044598203
6	0xb6bdacea	-5.652769e-06
7	0x3b1e719c	0.0024176603
8	0x3a6ba49f	0.0008989069
9	0xb7b52df5	-2.1598282e-05
10	0xb95d9c6f	-0.00021134478
11	0xb74b04da	-1.21008725e-05
12	0x3a9472cd	0.0011325717
13	0x3c22baf3	0.0099322675
14	0x37014651	7.705371e-06
15	0xbd8aaceb	-0.06771263
16	0xb5edee43	-1.7727219e-06
17	0x3a3f33ae	0.00072937727
18	0x3d5482e9	0.05188266
19	0xb797d596	-1.8100061e-05
20	0x3bb2b8cc	0.0054541584
21	0x3904dedc	0.00012671523
22	0x3c0bf0dc	0.008541312
23	0xb59c8379	-1.1661169e-06
24	0x39c0a84a	0.0003674648
25	0xb72ef1f2	-1.04275405e-05
26	0x3c15fb21	0.009154112
27	0x3b4eaea0	0.003153719
28	0x3a989ba3	0.0011643063
29	0x3bef5d14	0.007304797
30	0x3d63231b	0.0554534
31	0x38ec102d	0.0001125637
32	0xb700d05c	-7.677907e-06
33	0x3baf3dce	0.005347944
34	0xb6c75b66	-5.9413023e-06
35	0xb79cd362	-1.8695082e-05
36	0xb88e9445	-6.798705e-05
37	0x3b0daed0	0.002161909
38	0xb48046a6	-2.389326e-07
39	0xb7621dfc	-1.3477631e-05
40	0xb77f10b5	-1.5203074e-05
41	0xb8328e5f	-4.25711e-05
42	0x38f23753	0.00011549764
43	0xb73cff74	-1.12651505e-05
44	0xb7fc0c08	-3.0046343e-05
45	0xb6a8d4c3	-5.031559e-06
46	0xb694f152	-4.438837e-06
47	0x3bd8f925	0.006621497
48	0x3a84f346	0.0010143302
49	0xb3d2d1f6	-9.817079e-08
50	0x391a5a40	0.00014720205
51	0x3a0a6988	0.00052800076
52	0x3bd3cdc1	0.0064637368
53	0xb6a06ebd	-4.781263e-06
54	0xb64242e4	-2.8947188e-06
55	0x39520fb4	0.0002003301
56	0x3b0682df	0.0020524783
57	0xb6c6dae0	-5.9263402e-06
58	0x3b2515ee	0.0025190073
59	0x3727c0a0	9.998825e-06
60	0x3994027f	0.0002823062
61	0x367fd512	3.8121984e-06
62	0x3bb07068	0.0053844936
63	0x3bf07884	0.0073385853
64	0xb74e33c3	-1.22906085e-05
65	0x39ba3a35	0.00035520052
66	0xb6f64710	-7.339644e-06
67	0x39dc7f2f	0.0004205643
68	0xb7b434de	-2.148229e-05
69	0x3ba9a4c9	0.0051771146
70	0xb70fef21	-8.579141e-06
71	0x39849aff	0.00025292483
72	0x39e8e7fa	0.00044423324
73	0xb6bb571a	-5.5831742e-06
74	0x3b1e762c	0.0024179323
75	0x3a6bd2b5	0.00089959364
76	0xb7b527fa	-2.1595497e-05
77	0xb95db328	-0.00021142943
78	0xb74b047b	-1.2100786e-05
79	0x3a946d39	0.0011324055
80	0x3c22b9fa	0.009932036
81	0x3702f701	7.806114e-06
82	0xbd873091	-0.0660106
83	0xb5f1ca1d	-1.8014722e-06
84	0x3a3f4f98	0.0007297932
85	0x3d55bcdf	0.052182075
86	0xb799b507	-1.8323319e-05
87	0x3bb26daa	0.005445202
88	0x3905996e	0.00012741025
89	0x3c0bdafd	0.008536098
90	0xb59c8379	-1.1661169e-06
91	0x39c0a008	0.00036740326
92	0xb72ecc40	-1.0418764e-05
93	0x3c163b07	0.009169347
94	0x3b4e759d	0.0031503208
95	0x3a9938e1	0.0011689925
96	0x3befe095	0.0073204734
97	0x3d64dd4c	0.055875108
98	0x38eb3824	0.0001121613
99	0xb700d05c	-7.677907e-06
100	0x3baf5a20	0.00535132
101	0xb6a70eb3	-4.978699e-06
102	0xb79c83a1	-1.8657944e-05
103	0xb88e7302	-6.7925095e-05
104	0x3b0da95b	0.0021615836
105	0xb480440a	-2.3891363e-07
106	0xb76f2e87	-1.4256343e-05
107	0xb77f10b5	-1.5203074e-05
108	0xb8246129	-3.9191134e-05
109	0x38f001a7	0.000114443996
110	0xb7403359	-1.1456047e-05
111	0xb7fc0c08	-3.0046343e-05
112	0xb6a8d4c3	-5.031559e-06
113	0xb694f152	-4.438837e-06
114	0x3bd8eb36	0.006619836
115	0x3a8504ae	0.0010148489
116	0xb3d2d22d	-9.817118e-08
117	0x391a961c	0.00014742505
118	0x3a0cb9f8	0.00053682877
119	0x3bd403d0	0.006470181
120	0xb6a06ebd	-4.781263e-06
121	0xb64240bb	-2.894593e-06
122	0x3951e3d3	0.00020016664
123	0x3b068b85	0.0020529937
124	0xb6c6975f	-5.9184817e-06
125	0x3b252d1c	0.002520389
126	0x37256f48	9.860676e-06
127	0x3993f394	0.00028219505
128	0x3679c329	3.721749e-06
129	0x3bb1927d	0.005419074
130	0x3bf116bb	0.007357446
131	0xb74e33c3	-1.22906085e-05
132	0x39ba3bf7	0.00035521362
133	0xb6f646f9	-7.3396336e-06
134	0x39dc8cca	0.00042066566
135	0xb7b434dc	-2.1482287e-05
136	0x3ba99648	0.0051753856
137	0xb711210e	-8.65037e-06
138	0x39848790	0.00025278004
139	0x39e98a2a	0.00044544163
140	0xb6bdacea	-5.652769e-06
141	0x3b1e74ce	0.0024178508
142	0x3a6ba197	0.00089886173
143	0xb7b52df5	-2.1598282e-05
144	0xb95d8825	-0.0002112692
145	0xb74b04da	-1.21008725e-05
146	0x3a94664d	0.0011321992
147	0x3c22ca3b	0.009935911
148	0x36ff0acc	7.600849e-06
149	0xbdae126a	-0.08499606
150	0xb5edee43	-1.7727219e-06
151	0x3a3f2b22	0.0007292499
152	0x3d5524ab	0.052036922
153	0xb797fc5f	-1.8118122e-05
154	0x3bb28e58	0.0054490976
155	0x3904e4c9	0.0001267373
156	0x3c0c1795	0.008550544
157	0xb59c8379	-1.1661169e-06
158	0x39c0d251	0.00036777792
159	0xb72efd2f	-1.0430157e-05
160	0x3c15e712	0.00914933
161	0x3b4ea10a	0.0031529092
162	0x3a98df0e	0.0011663155
163	0x3bef92ab	0.0073111854
164	0x3d63bcd8	0.055600017
165	0x38eb4352	0.000112182126
166	0xb700d05c	-7.677907e-06
167	0x3baf411d	0.0053483383
168	0xb6c5d652	-5.8960077e-06
169	0xb79cc0a8	-1.8686362e-05
170	0xb88e5b4d	-6.788094e-05
171	0x3b0dac2d	0.0021617517
172	0xb480461a	-2.3892864e-07
173	0xb7621dfc	-1.3477631e-05
174	0xb77f10b5	-1.5203074e-05
175	0xb82f5012	-4.1797823e-05
176	0x38f24298	0.00011551863
177	0xb73d0212	-1.126576e-05
178	0xb7fc0c08	-3.0046343e-05
179	0xb6a8d4c3	-5.031559e-06
180	0xb694f152	-4.438837e-06
181	0x3bd9c620	0.006645933
182	0x3a84e4e3	0.0010139014
183	0xb3d2d208	-9.8170915e-08
184	0x391b2b77	0.00014798144
185	0x3a0d761d	0.00053963234
186	0x3bd3c305	0.006462457
187	0xb6a06ebd	-4.781263e-06
188	0xb6421e0a	-2.8925738e-06
189	0x39520315	0.00020028309
190	0x3b06755a	0.0020516724
191	0xb6c6ac97	-5.920952e-06
192	0x3b2527d7	0.0025200748
193	0x37292070	1.0080737e-05
194	0x399415a7	0.00028244892
195	0x365a25e7	3.2506593e-06
196	0x3bb0ae3d	0.0053918646
197	0x3bf10be0	0.007356152
198	0xb74e33c3	-1.22906085e-05
199	0x39ba808f	0.00035572468
200	0xb6f64710	-7.339644e-06
201	0x39dc236a	0.00041988055
202	0xb7b434e1	-2.1482296e-05
203	0x3ba9b96e	0.0051795756
204	0xb71a2688	-9.188087e-06
205	0x3983ebd4	0.00025161973
206	0x39e866c4	0.00044327055
207	0xb6bcba30	-5.6245117e-06
208	0x3b1ea73e	0.002420857
209	0x3a6b741c	0.000898184
210	0xb7b557fa	-2.1617849e-05
211	0xb95db555	-0.00021143754
212	0xb749e3e1	-1.2033591e-05
213	0x3a940588	0.0011293152
214	0x3c221c47	0.009894437
215	0x3703b79f	7.850961e-06
216	0x3b8ef644	0.0043628532
217	0xb5f1ca5c	-1.8014794e-06
218	0x3a3f5a01	0.00072994834
219	0x3d52b63a	0.051443316
220	0xb7972ec3	-1.8022378e-05
221	0x3bb27180	0.005445659
222	0x3905ef96	0.00012773121
223	0x3c0bc647	0.00853116
224	0xb59c8379	-1.1661169e-06
225	0x39c0d5d6	0.00036780414
226	0xb72e5960	-1.0392017e-05
227	0x3c159772	0.009130346
228	0x3b4e3844	0.0031466642
229	0x3a988a5a	0.0011637912
230	0x3befcf13	0.0073183863
231	0x3d611edf	0.05496108
232	0x38e9ba2e	0.000111449845
233	0xb700d05c	-7.677907e-06
234	0x3baf72ff	0.005354285
235	0xb6aad8e5	-5.0916447e-06
236	0xb79c7162	-1.8649447e-05
237	0xb88f492b	-6.8324e-05
238	0x3b0da782	0.0021614735
239	0xb4809437	-2.3949698e-07
240	0xb76f2e87	-1.4256343e-05
241	0xb77f10b5	-1.5203074e-05
242	0xb834e4b4	-4.312834e-05
243	0x38ee5473	0.00011364454
244	0xb73ba0bc	-1.11834925e-05
245	0xb7fc0c08	-3.0046343e-05
246	0xb6a8d4c3	-5.031559e-06
247	0xb694f152	-4.438837e-06
248	0x3bd9a1d3	0.0066416054
249	0x3a84a9c6	0.0010121397
250	0xb3d2d1d6	-9.817056e-08
251	0x391af32c	0.00014777173
252	0x3a10928a	0.0005515
253	0x3bd3dd00	0.0064655542
254	0xb6a06ebd	-4.781263e-06
255	0xb6420f9c	-2.8917339e-06

gats.0.lin_r.weight f4 [335, 67]
0	0x0000b295	6.4063e-41
1	0x8000b29e	-6.4076e-41
2	0x2a20b749	1.4274445e-13
3	0x8000b1ad	-6.3738e-41
4	0x2db42e14	2.0484094e-11
5	0x8000599b	-3.2144e-41
6	0x00002099	1.1694e-41
7	0x0000b093	6.3343e-41
8	0x000007e6	2.833e-42
9	0x0000b2a9	6.4091e-41
10	0x0000b209	6.3867e-41
11	0x8000b24d	-6.3962e-41
12	0x80006cd8	-3.9046e-41
13	0xa3fb2e94	-2.7233201e-17
14	0x800082a7	-4.6869e-41
15	0x00006372	3.5674e-41
16	0x800029a5	-1.4939e-41
17	0x80004ac7	-2.6825e-41
18	0x80004b7c	-2.7079e-41
19	0x80007d01	-4.4843e-41
20	0x00008df7	5.0927e-41
21	0x8000b290	-6.4056e-41
22	0x80002f1f	-1.6904e-41
23	0x8000af6f	-6.2934e-41
24	0x0000aff2	6.3117e-41
25	0x0000b2e7	6.4178e-41
26	0x00007dff	4.5199e-41
27	0x8000aff2	-6.3117e-41
28	0x000086a8	4.8306e-41
29	0x00002f1c	1.69e-41
30	0x80008932	-4.9216e-41
31	0x00000f86	5.569e-42
32	0x8000aa8f	-6.1185e-41
33	0x80002182	-1.202e-41
34	0x0000b069	6.3284e-41
35	0x000091fd	5.2371e-41
36	0x000088eb	4.9117e-41
37	0x0000562f	3.0917e-41
38	0x80000924	-3.279e-42
39	0x0000669d	3.6811e-41
40	0x8000a296	-5.8325e-41
41	0x00008615	4.81e-41
42	0x8000a9af	-6.0871e-41
43	0x80000154	-4.76e-43
44	0x80009de8	-5.6646e-41
45	0x00001f90	1.1322e-41
46	0x0000b155	6.3615e-41
47	0x80008daa	-5.082e-41
48	0x0000b17b	6.3668e-41
49	0x80002120	-1.1883e-41
50	0x00000ba7	4.18e-42
51	0x000042b6	2.3931e-41
52	0x0000008a	1.93e-43
53	0x800097d3	-5.4464e-41
54	0x8000ae64	-6.256e-41
55	0x00003506	1.9021e-41
56	0x80001fa6	-1.1353e-41
57	0x8000b13b	-6.3578e-41
58	0x0000a1bc	5.802e-41
59	0x8000b2c1	-6.4125e-41
60	0x0000597a	3.2098e-41
61	0x8000689e	-3.753e-41
62	0x00003de5	2.2204e-41
63	0x80005c4a	-3.3107e-41
64	0x80007618	-4.2364e-41
65	0x0000af76	6.2944e-41
66	0x8000b083	-6.332e-41
67	0x00005cc1	3.3274e-41
68	0x8000af4e	-6.2887e-41
69	0x00003b05	2.1172e-41
70	0x00009801	5.4529e-41
71	0x80006980	-3.7846e-41
72	0x8000b146	-6.3594e-41
73	0x0000addf	6.2373e-41
74	0x80006086	-3.4626e-41
75	0x800077af	-4.2934e-41
76	0x800082a0	-4.686e-41
77	0x0000b1cc	6.3782e-41
78	0x0000a8bd	6.0532e-41
79	0x0000ae3b	6.2502e-41
80	0x00007ee3	4.5518e-41
81	0x80006e04	-3.9466e-41
82	0x0000aa5d	6.1115e-41
83	0x800039af	-2.0693e-41
84	0x80000913	-3.255e-42
85	0x80000f0d	-5.399e-42
86	0x8000afdc	-6.3086e-41
87	0x80007815	-4.3077e-41
88	0x0000736a	4.1403e-41
89	0x80009d33	-5.6392e-41
90	0x0000ad55	6.218e-41
91	0x0000ac1b	6.174e-41
92	0x8000b102	-6.3498e-41
93	0x80009c77	-5.6129e-41
94	0x0000a715	5.9938e-41
95	0x00006b27	3.8439e-41
96	0x800042c5	-2.3952e-41
97	0x8000ab04	-6.1349e-41
98	0x8000b311	-6.4237e-41
99	0x000013a8	7.051e-42
100	0x00009e27	5.6734e-41
101	0x0000424c	2.3783e-41
102	0x0000b1c0	6.3765e-41
103	0x00009f79	5.7208e-41
104	0x8000ad7f	-6.2239e-41
105	0x8000071b	-2.549e-42
106	0x80001b4c	-9.792e-42
107	0x8000729b	-4.1113e-41
108	0x80000068	-1.46e-43
109	0x00007744	4.2784e-41
110	0x80007ce7	-4.4807e-41
111	0x00009afa	5.5595e-41
112	0x00005e5c	3.385e-41
113	0x000090ce	5.1946e-41
114	0x0000af82	6.296e-41
115	0x8000a9d4	-6.0923e-41
116	0x00002871	1.4508e-41
117	0x00004dc0	2.7891e-41
118	0x800044f8	-2.4741e-41
119	0x80006b1e	-3.8426e-41
120	0x80006797	-3.7161e-41
121	0x8000a4b3	-5.9083e-41
122	0x8000ae49	-6.2522e-41
123	0x800035a8	-1.9248e-41
124	0x0000ae4f	6.253e-41
125	0x00003724	1.9781e-41
126	0x80002805	-1.4356e-41
127	0x80000a6d	-3.74e-42
128	0x80005bdf	-3.2957e-41
129	0x0000a722	5.9956e-41
130	0x0000b0fe	6.3493e-41
131	0x8000afa3	-6.3007e-41
132	0x0000af94	6.2986e-41
133	0x00001a91	9.53e-42
134	0x000045f0	2.5089e-41
135	0x000064b2	3.6123e-41
136	0x379595d0	1.7831946e-05
137	0xb608a73e	-2.0362927e-06
138	0x380f66fd	3.4189772e-05
139	0x000029a5	1.4939e-41
140	0x0000b0be	6.3403e-41
141	0x000092d1	5.2668e-41
142	0x00009708	5.418e-41
143	0x80000cb6	-4.56e-42
144	0x0000234d	1.2664e-41
145	0x00000863	3.009e-42
146	0x0000a10e	5.7776e-41
147	0xb775bd3b	-1.4647197e-05
148	0x800018f2	-8.949e-42
149	0xb6b5cc0c	-5.4179745e-06
150	0x36e76307	6.8958648e-06
151	0x00004158	2.3441e-41
152	0x000094b4	5.3345e-41
153	0x00001178	6.267e-42
154	0x000027da	1.4296e-41
155	0x8000089a	-3.086e-42
156	0x80005abe	-3.2552e-41
157	0x8000157a	-7.704e-42
158	0x0000099c	3.447e-42
159	0x8000ad93	-6.2267e-41
160	0x8000b06f	-6.3292e-41
161	0x80002438	-1.2993e-41
162	0x0000ae3d	6.2505e-41
163	0x0000acbf	6.197e-41
164	0x80007999	-4.3621e-41
165	0x0000b11d	6.3536e-41
166	0x80008718	-4.8463e-41
167	0x8000252f	-1.3339e-41
168	0x0000068f	2.353e-42
169	0x8000aeee	-6.2753e-41
170	0x80000aac	-3.828e-42
171	0x80005be6	-3.2967e-41
172	0x0000b104	6.3501e-41
173	0x00004e1e	2.8023e-41
174	0x80005474	-3.0296e-41
175	0x0000b25f	6.3987e-41
176	0x8000976b	-5.4319e-41
177	0x00003e0a	2.2255e-41
178	0x0000a9f7	6.0972e-41
179	0x00001787	8.44e-42
180	0x80000b0d	-3.964e-42
181	0x80001310	-6.838e-42
182	0x00009f11	5.7062e-41
183	0x80009377	-5.29e-41
184	0x000031a8	1.7813e-41
185	0x800099eb	-5.5215e-41
186	0x80008996	-4.9357e-41
187	0x00005245	2.9513e-41
188	0x00002c1c	1.5823e-41
189	0x0000b12e	6.356e-41
190	0x0000b023	6.3186e-41
191	0x80008156	-4.6397e-41
192	0x00009e16	5.671e-41
193	0x000093e7	5.3057e-41
194	0x0000b294	6.4062e-41
195	0x0000af75	6.2942e-41
196	0x80006bba	-3.8645e-41
197	0x800073c3	-4.1527e-41
198	0x800053a5	-3.0006e-41
199	0x0000a1e1	5.8071e-41
200	0x0000b224	6.3905e-41
201	0x80008b53	-4.998e-41
202	0x0000ae3d	6.2505e-41
203	0x2c2d4551	2.4623257e-12
204	0x0000a050	5.7509e-41
205	0x000072ca	4.1179e-41
206	0x0000b20a	6.3868e-41
207	0x00004f73	2.8501e-41
208	0x000006fc	2.506e-42
209	0x00000c59	4.43e-42
210	0x8000b33c	-6.4297e-41
211	0x00006e9b	3.9678e-41
212	0x00008421	4.7399e-41
213	0x0000b126	6.3549e-41
214	0x00003837	2.0166e-41
215	0x800061a6	-3.503e-41
216	0x0000303f	1.7307e-41
217	0x0000634b	3.562e-41
218	0x00002a35	1.5141e-41
219	0x0000b26b	6.4004e-41
220	0x8000aeba	-6.268e-41
221	0x000070ca	4.0461e-41
222	0x000070d0	4.047e-41
223	0x80002b40	-1.5515e-41
224	0x0000356b	1.9163e-41
225	0x000083ab	4.7234e-41
226	0x000034d8	1.8957e-41
227	0x0000afed	6.311e-41
228	0x8000a4ef	-5.9167e-41
229	0x00000008	1.1e-44
230	0x000066a8	3.6826e-41
231	0x00007bce	4.4413e-41
232	0x00006ecb	3.9745e-41
233	0x8000937e	-5.291e-41
234	0x80000acc	-3.873e-42
235	0x80002c88	-1.5975e-41
236	0x80000e8c	-5.218e-42
237	0x80001cba	-1.0305e-41
238	0x800063fd	-3.5869e-41
239	0x0000b389	6.4405e-41
240	0x8000b19b	-6.3713e-41
241	0x80003dea	-2.221e-41
242	0x00001536	7.609e-42
243	0x8000b12f	-6.3561e-41
244	0x80009efc	-5.7033e-41
245	0x8000b299	-6.4069e-41
246	0x80008b9c	-5.0082e-41
247	0x0000a3a0	5.8698e-41
248	0x80009451	-5.3206e-41
249	0x80004cc3	-2.7537e-41
250	0x800051b0	-2.9304e-41
251	0x0000a6c1	5.982e-41
252	0x00007c25	4.4535e-41
253	0x00008017	4.595e-41
254	0x8000ae40	-6.2509e-41
255	0x0000b251	6.3968e-41

gats.0.lin_r.bias f4 [335]
0	0x2ef0895a	1.0938335e-10
1	0x80000672	-2.312e-42
2	0x37c045c9	2.292068e-05
3	0x2c2d4551	2.4623257e-12
4	0x354b7513	7.579376e-07
5	0xb793f666	-1.7638504e-05
6	0x000095d6	5.3751e-41
7	0xb7bd4de0	-2.256682e-05
8	0xb6bce2b4	-5.6292283e-06
9	0x80004ab6	-2.6801e-41
10	0x000025e6	1.3595e-41
11	0x80006a24	-3.8076e-41
12	0xb713071c	-8.763538e-06
13	0x38d58310	0.00010181044
14	0xb2a6afcb	-1.9404885e-08
15	0x3a31bd80	0.0006780252
16	0x0000116d	6.251e-42
17	0x2f96418b	2.7331412e-10
18	0x388c2806	6.683175e-05
19	0xa7183847	-2.1124745e-15
20	0xb83d2172	-4.509226e-05
21	0xac58bc5f	-3.0800013e-12
22	0xb8510f06	-4.9843475e-05
23	0x000049b3	2.6438e-41
24	0x353f6e02	7.1313127e-07
25	0x80007f07	-4.5569e-41
26	0xb59c595f	-1.1648916e-06
27	0x37d1cbd8	2.5009664e-05
28	0xb71e312e	-9.428984e-06
29	0xb84ec852	-4.930079e-05
30	0x3888ecdc	6.529104e-05
31	0xabfa5499	-1.7787049e-12
32	0x8000244b	-1.302e-41
33	0xb76d1272	-1.4130595e-05
34	0x32816a89	1.5066023e-08
35	0x8000252e	-1.3338e-41
36	0x2891aab1	1.617226e-14
37	0x34eee5ef	4.4498253e-07
38	0x8000807b	-4.609e-41
39	0x00008e6c	5.1091e-41
40	0x00002e3f	1.659e-41
41	0xb726c96a	-9.941266e-06
42	0x35a20e7a	1.2074154e-06
43	0x80003390	-1.8497e-41
44	0x0000462c	2.5173e-41
45	0x8000828b	-4.683e-41
46	0x0000211c	1.1877e-41
47	0xb80526d7	-3.1745843e-05
48	0xb7b5313c	-2.1599808e-05
49	0x80009159	-5.2141e-41
50	0x35d119ce	1.5579224e-06
51	0xb6f2c0f7	-7.234626e-06
52	0xb754b7fa	-1.267902e-05
53	0x00001d56	1.0524e-41
54	0x80000adf	-3.9e-42
55	0x2e4c7e01	4.6496144e-11
56	0xb53be879	-7.000122e-07
57	0x80002438	-1.2993e-41
58	0xb7f5e73e	-2.9313956e-05
59	0x2b1079a6	5.13279e-13
60	0x2c3d65eb	2.6915091e-12
61	0x32115d16	8.461276e-09
62	0xb78f41cf	-1.7077573e-05
63	0xb8282765	-4.009101e-05
64	0x0000218c	1.2034e-41
65	0xb6e172cf	-6.718888e-06
66	0x8000318a	-1.7771e-41
67	0x2eda8a54	9.938064e-11
68	0x800079e6	-4.3729e-41
69	0x371487e3	8.853126e-06
70	0x2c2d4551	2.4623257e-12
71	0xb6cef79c	-6.168104e-06
72	0xb7958780	-1.7825281e-05
73	0x00008986	4.9334e-41
74	0xb753de72	-1.2628372e-05
75	0xb6b205ba	-5.30548e-06
76	0x80005086	-2.8886e-41
77	0x00002986	1.4896e-41
78	0x80008f1c	-5.1338e-41
79	0xb6d64ebe	-6.386864e-06
80	0x3910609f	0.00013768904
81	0xb206052f	-7.801005e-09
82	0x3a1f73f9	0.000608265
83	0x8000ae3c	-6.2504e-41
84	0x35a4751c	1.2253035e-06
85	0x39ba2a0a	0.00035508006
86	0x2921292f	3.5784902e-14
87	0xb82fede9	-4.1944822e-05
88	0xad2039a9	-9.10775e-12
89	0xb84c9bf1	-4.8782622e-05
90	0x80007de1	-4.5157e-41
91	0x36459d17	2.9446726e-06
92	0x00009011	5.1681e-41
93	0x3729e7c0	1.01271435e-05
94	0x385c7027	5.2556537e-05
95	0xb617d60a	-2.262534e-06
96	0xb82d676d	-4.1342737e-05
97	0x39b2240e	0.00033977668
98	0xacd3ab88	-6.0160245e-12
99	0x80002464	-1.3054e-41
100	0xb8cc25d4	-9.734524e-05
101	0x32e4232b	2.6558686e-08
102	0x800048ff	-2.6186e-41
103	0x2a113caa	1.2899634e-13
104	0xb7655b49	-1.3670718e-05
105	0x800063fb	-3.5866e-41
106	0x0000353d	1.9098e-41
107	0x0000223e	1.2284e-41
108	0xb76ce9b6	-1.4121111e-05
109	0x35a15512	1.2020193e-06
110	0x80003750	-1.9842e-41
111	0x00000791	2.714e-42
112	0x00008cf9	5.0571e-41
113	0x80006ddd	-3.9412e-41
114	0xb84e8383	-4.9236707e-05
115	0xb5f15b4c	-1.798247e-06
116	0x00009c6f	5.6118e-41
117	0x37520763	1.2518695e-05
118	0xb7a5549a	-1.9708928e-05
119	0xb756cd42	-1.2803184e-05
120	0x80009c04	-5.5968e-41
121	0x80003bed	-2.1497e-41
122	0x2e3bd845	4.2710963e-11
123	0xb5486229	-7.464865e-07
124	0x80002323	-1.2605e-41
125	0xb7ac8825	-2.0567395e-05
126	0x2b830470	9.309341e-13
127	0x2b825bbd	9.262518e-13
128	0x334aa446	4.7181196e-08
129	0xb78fc5c3	-1.7139018e-05
130	0xb7856ef8	-1.590651e-05
131	0x00005406	3.0142e-41
132	0xb75e3412	-1.3244355e-05
133	0x80001850	-8.722e-42
134	0x2ec840d5	9.1064635e-11
135	0x80001b8a	-9.879e-42
136	0x353c0ae3	7.00513e-07
137	0x2c2d4551	2.4623257e-12
138	0xb64fb008	-3.0947867e-06
139	0xb7948b3a	-1.7707807e-05
140	0x80007d4a	-4.4945e-41
141	0xb7921610	-1.741483e-05
142	0xb69d80ff	-4.6939817e-06
143	0x80005086	-2.8886e-41
144	0x00002ada	1.5372e-41
145	0x80005751	-3.1323e-41
146	0xb6d01c47	-6.202175e-06
147	0x38dad554	0.000104347855
148	0xb21f7970	-9.28263e-09
149	0x3a1f6b8d	0.0006081395
150	0x00004f71	2.8498e-41
151	0x2f892fc4	2.4954094e-10
152	0x398def5d	0.00027071955
153	0xa7c41be0	-5.443115e-15
154	0xb867da67	-5.5278095e-05
155	0xac782315	-3.5262394e-12
156	0xb856e9e7	-5.1239414e-05
157	0x80007de1	-4.5157e-41
158	0x3655ab22	3.1839086e-06
159	0x80000439	-1.515e-42
160	0xb79e4b65	-1.8870176e-05
161	0x385c0d60	5.2464544e-05
162	0xb64dc2cd	-3.066077e-06
163	0xb856101e	-5.1036586e-05
164	0x396d51ae	0.0002263251
165	0xac296b25	-2.4075822e-12
166	0x8000142d	-7.238e-42
167	0xb8b08cca	-8.418558e-05
168	0x32c746af	2.3198792e-08
169	0x80007c3d	-4.4568e-41
170	0x29cf79ae	9.213755e-14
171	0xb7428708	-1.15947405e-05
172	0x8000ac1b	-6.174e-41
173	0x00008e6c	5.1091e-41
174	0x00002a2c	1.5128e-41
175	0xb7aba9f3	-2.0463927e-05
176	0x34fe54c5	4.7372865e-07
177	0x80003390	-1.8497e-41
178	0x00000791	2.714e-42
179	0x00006969	3.7814e-41
180	0x800070cb	-4.0462e-41
181	0xb81b0706	-3.696142e-05
182	0xb7a55be3	-1.971232e-05
183	0x00005994	3.2135e-41
184	0x376bbe1d	1.4051356e-05
185	0xb7dc003f	-2.6226158e-05
186	0xb7937c7b	-1.7581731e-05
187	0x00008d91	5.0784e-41
188	0x80003d61	-2.2019e-41
189	0x2e360323	4.1384795e-11
190	0xb604e250	-1.9801264e-06
191	0x80001444	-7.27e-42
192	0xb7bcf0c0	-2.2523454e-05
193	0x2b532ba1	7.5022806e-13
194	0x2b936aa4	1.0474577e-12
195	0x32515286	1.2184165e-08
196	0xb7e8f97a	-2.7772727e-05
197	0xb80a8e78	-3.303445e-05
198	0x00004a9a	2.6762e-41
199	0xb7267d49	-9.923541e-06
200	0x80001850	-8.722e-42
201	0x2e3d2e00	4.301448e-11
202	0x800004cb	-1.72e-42
203	0x36eb0cf3	7.0050532e-06
204	0x2c2d4551	2.4623257e-12
205	0xb6ceae79	-6.1595897e-06
206	0xb7a7cdbd	-2.0003756e-05
207	0x00008139	4.6356e-41
208	0xb7800d52	-1.5264992e-05
209	0xb6e9ff60	-6.9736707e-06
210	0x80005086	-2.8886e-41
211	0x80003c02	-2.1527e-41
212	0x8000b14e	-6.3605e-41
213	0xb6d50c31	-6.349314e-06
214	0x390d4cdb	0.00013475439
215	0xb2ac06ff	-2.0026617e-08
216	0x3a786161	0.000947496
217	0x8000950d	-5.347e-41
218	0x2f5789bf	1.9603073e-10
219	0x39688404	0.00022174424
220	0x2a92d5be	2.6083123e-13
221	0xb7ab36c8	-2.0410298e-05
222	0xad13fa77	-8.411597e-12
223	0xb87186aa	-5.7584293e-05
224	0x80007de1	-4.5157e-41
225	0x362a32c7	2.536153e-06
226	0x00009011	5.1681e-41
227	0xb75e4cd1	-1.3250116e-05
228	0x38445b40	4.6815025e-05
229	0xb67fcea6	-3.8118246e-06
230	0xb86b4abe	-5.6097975e-05
231	0x392e5818	0.0001662675
232	0x35424fcc	7.238675e-07
233	0x80001a29	-9.384e-42
234	0xb89e0bf7	-7.536256e-05
235	0x32e42337	2.6558707e-08
236	0x800048ff	-2.6186e-41
237	0x2a17817c	1.3456418e-13
238	0xb74966bc	-1.2004453e-05
239	0x800063fb	-3.5866e-41
240	0x0000353d	1.9098e-41
241	0x000020c0	1.1748e-41
242	0x361aa137	2.3041628e-06
243	0x35a13c2c	1.2012947e-06
244	0x8000434f	-2.4146e-41
245	0x0000021b	7.55e-43
246	0x0000716b	4.0687e-41
247	0x800070cb	-4.0462e-41
248	0xb8711c91	-5.7485482e-05
249	0x35ecf4b0	1.7654584e-06
250	0x000028cd	1.4637e-41
251	0x37235993	9.736413e-06
252	0xb7cf4cfc	-2.4712172e-05
253	0xb734d0bd	-1.0777437e-05
254	0x00003a7a	2.0977e-41
255	0x80003d09	-2.1895e-41

gats.0.lin_edge.weight f4 [335, 1]
0	0xad556b84	-1.21315215e-11
1	0x00007d8a	4.5035e-41
2	0x3836c628	4.357673e-05
3	0x2c2d4551	2.4623257e-12
4	0x3643dca6	2.9185699e-06
5	0xb70e1faf	-8.4712365e-06
6	0x80009bb8	-5.5861e-41
7	0xb5eb1f56	-1.7517984e-06
8	0x351c965e	5.833334e-07
9	0x00007c75	4.4647e-41
10	0x800003c3	-1.35e-42
11	0x80004317	-2.4067e-41
12	0xb53b1ff6	-6.970944e-07
13	0x38ee1f0a	0.00011354506
14	0xafb58779	-3.3019967e-10
15	0x394c457c	0.00019480841
16	0x8000350c	-1.903e-41
17	0x2ce1a79b	6.4134926e-12
18	0x3910cec4	0.00013809936
19	0x137f0f8c	3.219319e-27
20	0xb75acf40	-1.3042067e-05
21	0x2c0a33a5	1.9639648e-12
22	0x3848c1c5	4.7864178e-05
23	0x000049b3	2.6438e-41
24	0xb60ea9d6	-2.1258506e-06
25	0x8000ab7b	-6.1516e-41
26	0x380b9223	3.3276283e-05
27	0x3868c803	5.5499386e-05
28	0x368d6db9	4.214901e-06
29	0x384cda51	4.8840713e-05
30	0x39063c9b	0.00012801813
31	0xad764519	-1.3998824e-11
32	0x0000960b	5.3825e-41
33	0x3789c8a2	1.64251e-05
34	0xaed2fdc9	-9.594776e-11
35	0x0000adfb	6.2412e-41
36	0x800dcb6a	-1.266833e-39
37	0x371038e4	8.596315e-06
38	0x0000699a	3.7883e-41
39	0x00001b1b	9.724e-42
40	0x00002a94	1.5274e-41
41	0xb71541ca	-8.89641e-06
42	0x2d11f193	8.295936e-12
43	0x80003390	-1.8497e-41
44	0x800022eb	-1.2526e-41
45	0x80003126	-1.7631e-41
46	0x80001de5	-1.0724e-41
47	0x38573801	5.1312152e-05
48	0xb597bf4e	-1.1306054e-06
49	0x00000b54	4.064e-42
50	0xb5ab02c3	-1.2741297e-06
51	0xb68a2f60	-4.1182357e-06
52	0xb78fdd07	-1.7149852e-05
53	0x80002900	-1.4708e-41
54	0x0000045a	1.561e-42
55	0xaa94fec2	-2.6466855e-13
56	0xb5a86fc7	-1.2549507e-06
57	0x0000365a	1.9498e-41
58	0xb707364e	-8.059271e-06
59	0x000048f1	2.6166e-41
60	0xad6a7878	-1.33281094e-11
61	0xad81c456	-1.4752793e-11
62	0xb807131b	-3.22043e-05
63	0x38541bb9	5.0570558e-05
64	0x80003eaf	-2.2487e-41
65	0xb651d50c	-3.1267436e-06
66	0x00007e81	4.5381e-41
67	0xad938221	-1.6769754e-11
68	0x00007da7	4.5076e-41
69	0x37fa1e4f	2.9816436e-05
70	0x2c2d4551	2.4623257e-12
71	0x35dd168f	1.6472349e-06
72	0xb6c123e8	-5.7560283e-06
73	0x800000b7	-2.56e-43
74	0x37597f15	1.29637965e-05
75	0x36a01412	4.770708e-06
76	0x00007c75	4.4647e-41
77	0x0000888a	4.8981e-41
78	0x80004196	-2.3528e-41
79	0x353449b3	6.716247e-07
80	0x39119215	0.00013882697
81	0x31cfd971	6.049213e-09
82	0x391c6455	0.00014914696
83	0x00007b27	4.4179e-41
84	0x2d87fc96	1.5459894e-11
85	0x39aa8221	0.0003252188
86	0x2ae04358	3.9837122e-13
87	0xb78ced1f	-1.6799719e-05
88	0x2c615a95	3.2024706e-12
89	0x37df1fa8	2.6598413e-05
90	0x80007de1	-4.5157e-41
91	0xb58c7d3a	-1.0467259e-06
92	0x00002071	1.1638e-41
93	0x37ec6b2c	2.8183298e-05
94	0x38a434d3	7.829969e-05
95	0x36dfceee	6.6700077e-06
96	0x3800b0d0	3.0682248e-05
97	0x399ca471	0.00029877157
98	0xae45d09f	-4.4977907e-11
99	0x00005fe5	3.44e-41
100	0xb83dea1e	-4.527915e-05
101	0xaedd3c84	-1.0060666e-10
102	0x00005dc2	3.3634e-41
103	0x800e02f6	-1.286759e-39
104	0x35995c3e	1.1426234e-06
105	0x00005978	3.2095e-41
106	0x8000a3bb	-5.8735e-41
107	0x00003791	1.9933e-41
108	0xb797c870	-1.8093939e-05
109	0x2d690169	1.324483e-11
110	0x000025f5	1.3616e-41
111	0x00006804	3.7314e-41
112	0x000077e4	4.3009e-41
113	0x800070a9	-4.0415e-41
114	0x37daadd1	2.6068565e-05
115	0x37be2a0e	2.2669348e-05
116	0x0000a821	6.0313e-41
117	0x370de069	8.4565045e-06
118	0xb786ffc0	-1.6093138e-05
119	0xb7c41157	-2.3373095e-05
120	0x0000282e	1.4414e-41
121	0x000020b1	1.1727e-41
122	0xaad1932d	-3.7227982e-13
123	0xb604fa3e	-1.9815193e-06
124	0x00002c13	1.5811e-41
125	0xb2adc473	-2.0229185e-08
126	0x00004b6d	2.7058e-41
127	0xadbde7c1	-2.1589732e-11
128	0xad579548	-1.2254482e-11
129	0xb807ff69	-3.2424377e-05
130	0x38294444	4.0356317e-05
131	0x000015cd	7.82e-42
132	0xb71044b5	-8.599066e-06
133	0x80004dcf	-2.7912e-41
134	0xad935ba0	-1.6752655e-11
135	0x00007d92	4.5046e-41
136	0x37d7cfbe	2.5726735e-05
137	0x2c2d4551	2.4623257e-12
138	0x3619a4a2	2.2894606e-06
139	0xb6c1c22d	-5.7744533e-06
140	0x00005777	3.1376e-41
141	0x36dd08c7	6.587335e-06
142	0x365763e8	3.209565e-06
143	0x00007c75	4.4647e-41
144	0x80002a3c	-1.5151e-41
145	0x80004465	-2.4535e-41
146	0x352585e0	6.1662104e-07
147	0x38e2e029	0.00010818273
148	0x31b29747	5.19768e-09
149	0x39245845	0.00015673142
150	0x00003835	2.0163e-41
151	0x2d1722d0	8.591086e-12
152	0x39829ee5	0.00024913918
153	0x2a4a3ed9	1.7963009e-13
154	0xb7f8a285	-2.9639583e-05
155	0x2c5aec37	3.1110789e-12
156	0x3801b270	3.092218e-05
157	0x80007de1	-4.5157e-41
158	0xb52000a3	-5.960557e-07
159	0x00002071	1.1638e-41
160	0x374b5aa8	1.212085e-05
161	0x38aabf30	8.141843e-05
162	0x36da097d	6.498011e-06
163	0x37f7ac1f	2.9524845e-05
164	0x39713ad8	0.00023005472
165	0xade739cb	-2.6287325e-11
166	0x0000961f	5.3853e-41
167	0xb80e3d67	-3.3912624e-05
168	0xaedd3dd4	-1.0060899e-10
169	0x00005dc2	3.3634e-41
170	0x800e031f	-1.286817e-39
171	0x3677a434	3.6901447e-06
172	0x00005faf	3.4325e-41
173	0x00001b1b	9.724e-42
174	0x000028cd	1.4637e-41
175	0xb7794121	-1.4856721e-05
176	0xb5434300	-7.274066e-07
177	0x80003390	-1.8497e-41
178	0x00006804	3.7314e-41
179	0x0000960f	5.3831e-41
180	0x800070d6	-4.0478e-41
181	0x3812e698	3.502387e-05
182	0x36e37a1c	6.7793426e-06
183	0x000001ae	6.03e-43
184	0x36f7037c	7.3615793e-06
185	0xb78598b6	-1.5925947e-05
186	0xb7c31fd1	-2.3260627e-05
187	0x00006b2f	3.845e-41
188	0x00002244	1.2292e-41
189	0xaabf8244	-3.4018806e-13
190	0xb60aab3c	-2.0663274e-06
191	0x80005d4a	-3.3466e-41
192	0xb6257230	-2.4653382e-06
193	0x000054dc	3.0442e-41
194	0xadb181cd	-2.0180213e-11
195	0xad579dcb	-1.2256372e-11
196	0xb828600e	-4.014378e-05
197	0x380cf996	3.3611046e-05
198	0x800012a1	-6.683e-42
199	0xb6f12c8a	-7.1875447e-06
200	0x80004dcf	-2.7912e-41
201	0xae0061d6	-2.9190726e-11
202	0x00006a3a	3.8107e-41
203	0x37dcad4b	2.630674e-05
204	0x2c2d4551	2.4623257e-12
205	0x35dd41e9	1.6484965e-06
206	0xb70fd316	-8.5726115e-06
207	0x8000684a	-3.7412e-41
208	0x3730804a	1.0520287e-05
209	0x365174ec	3.1211484e-06
210	0x00007c75	4.4647e-41
211	0x000070ae	4.0422e-41
212	0x80002fb7	-1.7117e-41
213	0x3533beef	6.696054e-07
214	0x39179585	0.00014456183
215	0x30232623	5.935325e-10
216	0x39051ee9	0.00012695383
217	0x000064ee	3.6207e-41
218	0x2d2b5f2e	9.741359e-12
219	0x397bf0f6	0.0002402699
220	0x2b6ed660	8.485209e-13
221	0x365f4f74	3.3275837e-06
222	0x2c7ba8e0	3.576299e-12
223	0x37b642cc	2.1727195e-05
224	0x80007de1	-4.5157e-41
225	0xb594493f	-1.1048177e-06
226	0x00002071	1.1638e-41
227	0x37c81923	2.3853563e-05
228	0x389c92e8	7.466023e-05
229	0x36e6b975	6.876124e-06
230	0x37d684f2	2.5572695e-05
231	0x39690bdb	0.00022225028
232	0x3552dfe6	7.855691e-07
233	0x80007d9d	-4.5062e-41
234	0xb7a579cc	-1.9726249e-05
235	0xaedd3dc8	-1.0060891e-10
236	0x00005dc2	3.3634e-41
237	0x800e02f7	-1.28676e-39
238	0x36729041	3.6144777e-06
239	0x00005978	3.2095e-41
240	0x8000a3bb	-5.8735e-41
241	0x00003791	1.9933e-41
242	0xb727cb20	-1.0001269e-05
243	0x2d12ff19	8.355782e-12
244	0x0000281b	1.4387e-41
245	0x00006c4b	3.8848e-41
246	0x00009470	5.325e-41
247	0x800070d6	-4.0478e-41
248	0x37cceb4f	2.442827e-05
249	0x37d6f4ef	2.5624844e-05
250	0x80003929	-2.0505e-41
251	0x37184222	9.075304e-06
252	0xb7a90436	-2.014833e-05
253	0xb7af56f9	-2.0902125e-05
254	0x00009fc7	5.7317e-41
255	0x00002096	1.169e-41
