inference/SyGuS/model_checkpoints/SyGuS_model_8.pt (torch, 502627 bytes, 21 tensors)

gats.0.att f4 [1, 5, 67]
000000 32 c8 7b b2 4d 81 73 b8 e2 55 f6 b3 52 46 84 b3
       -1.4655642e-08 -5.8056135e-05 -1.147089e-07 -6.15952e-08
000010 b6 66 53 34 9d 97 09 b9 56 72 e6 b3 18 9f 97 b3
       1.9688272e-07 -0.00013121818 -1.0731007e-07 -7.0604244e-08
000020 6f e5 b2 36 12 24 d4 b1 d5 f7 ca b2 a7 37 73 38
       5.331523e-06 -6.1741128e-09 -2.3628596e-08 5.7987545e-05
000030 62 2d 81 06 68 d8 95 b8 10 11 b2 38 ca 6f a3 38
       4.859109e-35 -7.1451825e-05 8.4908796e-05 7.793268e-05
000040 35 b9 90 37 c7 57 c0 b3 df 08 d3 b3 3a 85 df 28
       1.7252381e-05 -8.956663e-08 -9.827067e-08 2.4815751e-14
000050 1c 3d 0c 39 5e eb 99 b2 42 bd 68 36 56 de b2 b8
       0.00013374205 -1.7918577e-08 3.4680857e-06 -8.529115e-05
000060 6f cc 46 ac 21 cf 5c b8 1b 2f 4e b4 8b 27 0d b9
       -2.8250976e-12 -5.264499e-05 -1.9202382e-07 -0.00013461539
000070 01 af 80 b7 8b 91 75 30 45 05 72 b0 9b 80 d3 34
       -1.5340282e-05 8.933731e-10 -8.8046576e-10 3.9395385e-07
000080 8e bd 3c 2e f1 82 6f b8 88 dd 0c b9 6d 09 f5 38
       4.291461e-11 -5.710399e-05 -0.00013433967 0.00011684266
000090 8f a9 42 b2 17 92 0c 39 48 03 38 b3 f6 46 55 38
       -1.1330839e-08 0.00013405863 -4.2843823e-08 5.0849245e-05
0000a0 c7 16 bd b2 1e 18 a2 b5 4e 2b e4 b3 85 80 83 b1
       -2.2012854e-08 -1.207696e-06 -1.06249544e-07 -3.8272128e-09
0000b0 71 37 58 b5 fc 6b ef b7 07 5f 8b a6 10 c8 0d b9
       -8.054695e-07 -2.8541304e-05 -9.67082e-16 -0.00013521337
0000c0 d2 52 4d b2 dc 45 c9 b8 86 84 a8 b3 1a 0e d2 b8
       -1.1951402e-08 -9.597439e-05 -7.8472155e-08 -0.00010016207
0000d0 4c 8e 8b b3 40 25 05 39 99 f1 c7 b3 83 bc c8 b3
       -6.4985755e-08 0.00012697745 -9.310606e-08 -9.347516e-08
0000e0 4d a6 d2 32 ac 25 75 b4 1e b3 06 b4 04 ba cd 38
       2.4522842e-08 -2.2831108e-07 -1.2544885e-07 9.80981e-05
0000f0 00 c5 27 37 4b 31 ca b3 78 cd 87 b8 2b b2 00 80
       9.999843e-06 -9.415324e-08 -6.475573e-05 -6.3915e-41
000100 61 89 16 b4 d9 c4 dc b3 28 54 8b b8 80 26 7c b2
       -1.4019817e-07 -1.0280355e-07 -6.643712e-05 -1.4677084e-08
000110 8c bb 73 b8 c0 88 f6 b3 a2 63 84 b3 5f 85 54 34
       -5.811038e-05 -1.1480142e-07 -6.164852e-08 1.9792559e-07
000120 95 a7 09 b9 82 a3 e6 b3 98 c3 97 b3 3b 5a b3 36
       -0.00013127767 -1.07399515e-07 -7.067064e-08 5.34512e-06
000130 d7 4c d4 b1 9a fb ca b2 12 68 73 38 64 84 81 06
       -6.1787477e-09 -2.363031e-08 5.8032638e-05 4.871894e-35
000140 33 05 96 b8 c4 23 b2 38 d6 7e a3 38 9c f1 90 37
       -7.153526e-05 8.494363e-05 7.796071e-05 1.7278646e-05
000150 dd 81 c0 b3 83 3e d3 b3 83 58 f6 28 41 3d 0c 39
       -8.964319e-08 -9.836824e-08 2.7349872e-14 0.0001337426
000160 86 14 9a b2 8f 58 69 36 08 0a b3 b8 30 ed 46 ac
       -1.7937293e-08 3.4771253e-06 -8.5372536e-05 -2.8269158e-12
000170 2b 14 5d b8 82 5e 4e b4 2e 41 0d b9 cd f1 80 b7
       -5.270929e-05 -1.9219627e-07 -0.00013471089 -1.5371386e-05
000180 9e 74 75 30 a0 1b 72 b0 a9 c9 d3 34 9d 01 3e 2e
       8.9296204e-10 -8.8078345e-10 3.944854e-07 4.320243e-11
000190 47 c6 6f b8 ba e0 0c b9 83 1a f5 38 c2 df 42 b2
       -5.71667e-05 -0.00013435158 0.000116874486 -1.1343163e-08
0001a0 94 9a 0c 39 71 1d 38 b3 01 54 55 38 07 2d bd b2
       0.00013409025 -4.2867615e-08 5.0861392e-05 -2.2022972e-08
0001b0 a8 91 a2 b5 d3 5f e4 b3 3d a3 83 b1 42 4a 58 b5
       -1.2112332e-06 -1.0634508e-07 -3.83116e-09 -8.057433e-07
0001c0 ad a0 ef b7 5c 98 11 a7 b7 bd 0d b9 12 a9 4d b2
       -2.856584e-05 -2.0205387e-15 -0.00013517482 -1.1971013e-08
0001d0 7e 6c c9 b8 40 ad a8 b3 7f 44 d2 b8 a5 a9 8b b3
       -9.604635e-05 -7.8546236e-08 -0.00010026339 -6.50355e-08
0001e0 40 2a 05 39 10 23 c8 b3 0a ee c8 b3 66 e5 d2 32
       0.00012699608 -9.3196036e-08 -9.356525e-08 2.4551536e-08
0001f0 20 52 75 b4 b9 c1 06 b4 19 d7 cd 38 75 9e 28 37
       -2.284728e-07 -1.2550198e-07 9.815227e-05 1.0050474e-05
000200 7c 61 ca b3 7b ce 87 b8 57 7f 00 80 69 ab 16 b4
       -9.42409e-08 -6.4757616e-05 -4.5681e-41 -1.4032197e-07
000210 a4 f7 dc b3 40 76 8b b8 7e 12 7c b2 03 a9 73 b8
       -1.0289594e-07 -6.650062e-05 -1.4672535e-08 -5.809312e-05
000220 67 3f f6 b3 b4 2e 84 b3 83 32 55 34 e4 a4 09 b9
       -1.14668005e-07 -6.155224e-08 1.9855547e-07 -0.00013126765
000230 b6 56 e6 b3 80 8f 97 b3 77 4d b3 36 53 1c d4 b1
       -1.0725982e-07 -7.057588e-08 5.343634e-06 -6.173232e-09
000240 c5 ab ca b2 7e 58 73 38 fe 8f 81 06 b4 f3 95 b8
       -2.3594007e-08 5.801813e-05 4.8735984e-35 -7.150267e-05
000250 03 06 b2 38 4e 64 a3 38 31 cc 90 37 2d 53 c0 b3
       8.488821e-05 7.791129e-05 1.7261222e-05 -8.955826e-08
000260 9c fe d2 b3 7a 42 eb 28 da 3b 0c 39 eb f8 99 b2
       -9.8252e-08 2.611907e-14 0.00013373737 -1.7924739e-08
000270 2c bd 69 36 56 05 b3 b8 db 88 46 ac 28 07 5d b8
       3.4829818e-06 -8.536379e-05 -2.8213462e-12 -5.269717e-05
000280 07 2c 4e b4 5f 36 0d b9 7f ee 80 b7 4b e9 74 30
       -1.9201262e-07 -0.00013467063 -1.5369847e-05 8.909821e-10
000290 28 cb 71 b0 d4 a2 d3 34 52 8c 3e 2e 61 bd 6f b8
       -8.796399e-10 3.9420286e-07 4.3325628e-11 -5.7158413e-05
0002a0 54 e6 0c b9 a6 f5 f4 38 d2 6e 42 b2 05 96 0c 39
       -0.00013437244 0.00011680582 -1.1317484e-08 0.00013407327
0002b0 96 06 38 b3 a6 30 55 38 d2 d6 bc b2 25 99 a2 b5
       -4.284683e-08 5.0828465e-05 -2.198377e-08 -1.2114511e-06
0002c0 0f 30 e4 b3 3b 75 83 b1 92 67 58 b5 fa 8a ef b7
       -1.0625819e-07 -3.8259294e-09 -8.0616985e-07 -2.8555736e-05
0002d0 17 6e cd a6 19 c3 0d b9 19 84 4d b2 73 63 c9 b8
       -1.4254572e-15 -0.00013519487 -1.1962606e-08 -9.602951e-05
0002e0 d2 84 a8 b3 2d 84 d2 b8 fa 78 8b b3 fc 21 05 39
       -7.8472695e-08 -0.000100382 -6.4946974e-08 0.00012696529
0002f0 44 e1 c7 b3 f8 aa c8 b3 26 d3 d2 32 55 38 75 b4
       -9.307635e-08 -9.344325e-08 2.4543237e-08 -2.2837897e-07
000300 fa c8 06 b4 4f be cd 38 ff f9 28 37 f7 1f ca b3
       -1.2552837e-07 9.8106095e-05 1.0071787e-05 -9.4121724e-08
000310 0d df 87 b8 0a 93 00 80 56 86 16 b4 1a c9 dc b3
       -6.478848e-05 -5.2748e-41 -1.401871e-07 -1.02811285e-07
000320 34 6d 8b b8 82 ad 7b b2 33 a4 73 b8 91 8d f6 b3
       -6.648377e-05 -1.4649574e-08 -5.8088637e-05 -1.14810184e-07
000330 9d 7a 84 b3 32 fd 52 34 1d ab 09 b9 d1 b2 e6 b3
       -6.169032e-08 1.9649886e-07 -0.00013129083 -1.0742736e-07
000340 2c d4 97 b3 7a ff b2 36 82 17 d4 b1 c5 0f cb b2
       -7.070079e-08 5.3345548e-06 -6.1726846e-09 -2.3639481e-08
000350 86 44 73 38 cc 5a 81 06 0e fe 95 b8 a2 18 b2 38
       5.7999532e-05 4.865782e-35 -7.152195e-05 8.4922896e-05
000360 4a 4b a3 38 af b5 90 37 0c 7b c0 b3 76 48 d3 b3
       7.786469e-05 1.725074e-05 -8.963079e-08 -9.838634e-08
000370 51 99 a8 28 d0 39 0c 39 df f2 99 b2 5e ee 68 36
       1.8718237e-14 0.00013372977 -1.792199e-08 3.4709442e-06
000380 d7 fe b2 b8 36 46 48 ac 10 0b 5d b8 3f 57 4e b4
       -8.535169e-05 -2.8460684e-12 -5.270081e-05 -1.9216985e-07
000390 b1 24 0d b9 d2 df 80 b7 5d 73 75 30 9c 65 72 b0
       -0.00013460476 -1.5363014e-05 8.929442e-10 -8.818348e-10
0003a0 55 72 d3 34 c3 4d 3c 2e 14 b1 6f b8 c3 f2 0c b9
       3.9385e-07 4.2815317e-11 -5.7146957e-05 -0.00013441876
0003b0 f6 ff f4 38 f5 28 43 b2 55 93 0c 39 69 f2 37 b3
       0.00011682503 -1.1359806e-08 0.00013406326 -4.282848e-08
0003c0 92 38 55 38 6f 45 bd b2 c1 40 a2 b5 93 4b e4 b3
       5.0835843e-05 -2.203407e-08 -1.2088786e-06 -1.0630824e-07
0003d0 4c be 83 b1 80 1f 58 b5 5e 90 ef b7 53 f9 5b 25
       -3.834236e-09 -8.051211e-07 -2.8558246e-05 1.9079696e-16
0003e0 28 d1 0d b9 42 5e 4d b2 0b 5f c9 b8 8a aa a8 b3
       -0.00013524725 -1.1954002e-08 -9.60213e-05 -7.8541305e-08
0003f0 a6 12 d2 b8 ef bb 8b b3 f6 20 05 39 42 32 c8 b3
       -0.00010017054 -6.506877e-08 0.00012696147 -9.3223676e-08

gats.0.bias f4 [67]
000000 51 2f 06 b7 bc 54 5d 39 e8 0c e7 b8 59 78 fd b8
       -7.998039e-06 0.00021107768 -0.00011017342 -0.000120863966
000010 b6 48 b1 38 fd 3a 86 3b c7 9b 2a b9 51 74 0b b9
       8.453561e-05 0.0040963874 -0.00016270495 -0.00013299404
000020 6f 22 4e 39 c9 40 a0 b7 45 31 e8 b9 54 12 eb 3a
       0.00019658518 -1.9103654e-05 -0.00044287197 0.0017934539
000030 f0 29 a0 b8 3a ff e7 b9 e8 83 23 3b 02 0e 37 3b
       -7.637206e-05 -0.00044249912 0.0024950448 0.0027931933
000040 bf 38 94 39 fb 2f 48 b9 32 76 1d b9 fb fa 5a b7
       0.0002827104 -0.0001909136 -0.00015016718 -1.30522485e-05
000050 39 b0 c7 3b 97 9a 2a b8 85 de fd 38 e4 05 46 bb
       0.0060940054 -4.067513e-05 0.000121054276 -0.0030215913
000060 dd 14 14 b8 35 be 7c ba de 3f 40 b9 69 f9 ea 3b
       -3.530538e-05 -0.000964138 -0.00018334339 0.0071708453
000070 25 06 a4 b8 95 32 95 b6 2b 2f 9f b8 8c 28 83 39
       -7.821274e-05 -4.4464346e-06 -7.5904965e-05 0.00025016477
000080 96 f1 26 b8 f3 a9 73 ba a7 05 d4 39 15 40 28 3b
       -3.980248e-05 -0.0009295039 0.00040440002 0.0025672961
000090 93 01 e7 b8 c1 e8 ce 3b 55 0e c9 b8 43 28 91 39
       -0.000110152316 0.0063143675 -9.5870964e-05 0.00027686552
0000a0 c3 18 58 b8 46 38 82 39 37 c9 4a b9 19 cd c7 b8
       -5.1521474e-05 0.0002483746 -0.0001933918 -9.527262e-05
0000b0 fc 53 bb 38 9d 0d 7c 3a 53 9c c4 b8 2b 64 cb bb
       8.932498e-05 0.00096150656 -9.375126e-05 -0.0062070093
0000c0 18 cb a9 b7 5a db 67 bb 92 ea 25 b9 b0 2b 28 ba
       -2.0240943e-05 -0.0035378546 -0.0001582301 -0.00064152014
0000d0 6f ee 28 b9 45 7a c4 3b 17 c0 0a b9 43 6c ee b8
       -0.00016110552 0.005996021 -0.00013232265 -0.0001136889
0000e0 05 77 a1 b7 98 6c c5 b7 d3 34 b2 b6 6f 8e 92 3a
       -1.9248118e-05 -2.3534798e-05 -5.310963e-06 0.0011181365
0000f0 0a dd f3 38 19 a1 17 b9 f5 2f 68 3a 7b 84 00 80
       0.00011628315 -0.00014460496 0.0008857244 -4.7525e-41
000100 fa 38 3c b9 1f 3a 5e b9 56 00 07 ba
       -0.00017950303 -0.00021193222 -0.00051498914

gats.0.lin_l.weight f4 [335, 67]
000000 dd e3 a8 8a f8 97 00 80 41 0d 7c b6 28 fe 3e b4
       -1.6263524e-32 -5.4516e-41 -3.755864e-06 -1.778759e-07
000010 7f 81 01 b5 1d d1 88 11 e9 46 00 00 82 bb 17 b7
       -4.8244686e-07 2.1585893e-28 2.5438e-41 -9.043959e-06
000020 5f 42 00 00 c2 0e 00 80 c8 c1 89 b3 e7 3c 2f b7
       2.381e-41 -5.294e-42 -6.414808e-08 -1.0444993e-05
000030 8c 6b 00 80 f3 99 73 b5 ec 70 00 80 78 bb 30 b6
       -3.858e-41 -9.074858e-07 -4.0509e-41 -2.6335165e-06
000040 1c cd 93 b6 bb 00 00 00 f6 42 91 b6 5e cd 08 b3
       -4.4048193e-06 2.62e-43 -4.329132e-06 -3.1851748e-08
000050 2c 18 00 80 d5 72 00 80 ec 50 00 80 7b 49 00 00
       -8.671e-42 -4.1194e-41 -2.9029e-41 2.636e-41
000060 3f 4a 00 00 b1 3d 00 80 54 50 00 80 4b 59 00 00
       2.6634e-41 -2.2131e-41 -2.8816e-41 3.2032e-41
000070 f4 42 00 00 e4 19 00 80 4b a9 00 80 58 5e 00 00
       2.4018e-41 -9.288e-42 -6.0731e-41 3.3844e-41
000080 a4 48 00 00 c0 18 00 80 e6 3d 00 80 a2 69 00 80
       2.6059e-41 -8.879e-42 -2.2205e-41 -3.7894e-41
000090 ac 7a 00 80 2a 9c 00 80 47 4f 00 80 2b 18 00 80
       -4.4006e-41 -5.6021e-41 -2.844e-41 -8.67e-42
0000a0 ea 49 00 80 5b 48 00 80 e2 38 00 80 a3 3d 00 00
       -2.6515e-41 -2.5956e-41 -2.0406e-41 2.2111e-41
0000b0 43 2b 00 80 ee 45 00 00 c8 48 00 80 d7 6d 00 00
       -1.552e-41 2.5086e-41 -2.6109e-41 3.9403e-41
0000c0 65 4e 00 00 b4 4e 00 80 0a 3e 00 00 11 2d 00 80
       2.8123e-41 -2.8233e-41 2.2255e-41 -1.6167e-41
0000d0 06 35 00 80 74 62 00 00 f7 4d 00 00 9a 4d 00 80
       -1.9021e-41 3.5318e-41 2.7969e-41 -2.7838e-41
0000e0 06 51 00 80 24 50 00 00 64 50 00 80 f7 1c 00 80
       -2.9066e-41 2.8749e-41 -2.8839e-41 -1.039e-41
0000f0 36 6c 00 80 7e 3f 00 80 a6 29 00 00 7d 3c 00 00
       -3.8819e-41 -2.2777e-41 1.494e-41 2.1699e-41
000100 37 95 00 80 f6 31 00 00 1b ed ae ac e1 86 ed b7
       -5.3528e-41 1.7923e-41 -4.9717014e-12 -2.831541e-05
000110 c3 f0 cd b8 03 b6 39 3b b4 de 31 3a a1 7c 4e ba
       -9.820007e-05 0.0028337247 0.00067851995 -0.00078768475
000120 84 77 08 b9 04 64 00 00 70 1f 24 b8 39 bf ae 36
       -0.00013014494 3.5879e-41 -3.9129925e-05 5.2078653e-06
000130 99 35 00 00 36 86 57 3a bd f0 c4 38 48 0e 00 00
       1.9227e-41 0.0008221598 9.390849e-05 5.123e-42
000140 17 7a c8 b9 77 18 00 80 c8 07 4b 39 0e d8 b5 b8
       -0.00038237937 -8.776e-42 0.00019362487 -8.670996e-05
000150 03 94 00 80 79 06 d4 b9 85 e2 d5 39 cf 0e 00 80
       -5.3097e-41 -0.00040440614 0.00040795296 -5.312e-42
000160 3e 3f 00 00 6c 17 00 00 e3 13 00 00 44 60 00 80
       2.2687e-41 8.402e-42 7.134e-42 -3.4534e-41
000170 9f 1b 00 80 9d 4b 00 00 88 4e 00 00 0a 60 00 00
       -9.909e-42 2.7125e-41 2.8172e-41 3.4452e-41
000180 ff 3c 00 00 90 44 00 00 f9 38 00 00 93 84 00 80
       2.1881e-41 2.4596e-41 2.0438e-41 -4.7559e-41
000190 a6 3c 00 80 c5 95 00 00 92 71 00 00 1a 4f 00 80
       -2.1757e-41 5.3727e-41 4.0741e-41 -2.8376e-41
0001a0 bb 30 00 00 ac 38 00 80 d6 01 00 80 ad 6e 00 80
       1.7481e-41 -2.033e-41 -6.59e-43 -3.9703e-41
0001b0 2e 3a 00 00 3f 3e 00 80 5d 3a 00 00 1d 4d 00 80
       2.0871e-41 -2.233e-41 2.0937e-41 -2.7663e-41
0001c0 b0 74 00 00 cc 62 00 00 2d 3f 00 00 ca 46 00 80
       4.186e-41 3.5442e-41 2.2663e-41 -2.5394e-41
0001d0 52 6c 00 80 41 34 00 00 d3 5f 00 80 85 4e 00 80
       -3.8858e-41 1.8745e-41 -3.4375e-41 -2.8168e-41
0001e0 c2 79 00 00 73 7d 00 80 b3 a3 00 80 c1 4b 00 80
       4.3678e-41 -4.5003e-41 -5.8724e-41 -2.7175e-41
0001f0 80 51 00 80 1c 51 00 00 98 03 00 00 a7 4a 00 80
       -2.9237e-41 2.9097e-41 1.289e-42 -2.678e-41
000200 24 3c 00 00 98 43 00 00 09 35 00 80 b8 68 00 00
       2.1574e-41 2.4248e-41 -1.9025e-41 3.7566e-41
000210 07 0c 00 00 5f 10 6d b9 b0 1d 00 80 8a 2a 00 80
       4.315e-42 -0.0002260818 -1.065e-41 -1.526e-41
000220 d0 78 39 b6 de 28 ef b5 3c d0 2b 95 22 18 00 00
       -2.763747e-06 -1.7818782e-06 -3.4697443e-26 8.657e-42
000230 e9 46 00 00 05 5c 66 9b a5 4a 00 80 de 38 00 00
       2.5438e-41 -1.9054887e-22 -2.6777e-41 2.04e-41
000240 d6 3e 46 b6 b3 05 71 9b ce 51 00 80 73 cd 6e 8a
       -2.9540874e-06 -1.9936894e-22 -2.9346e-41 -1.1497924e-32
000250 33 16 00 80 13 ce a9 92 0f d0 06 1a 40 48 00 80
       -7.964e-42 -1.0716201e-27 2.787862e-23 -2.5918e-41
000260 18 a4 6c 9a 34 50 3a b6 e4 4f 00 80 c5 5b 00 00
       -4.893621e-23 -2.7762844e-06 -2.866e-41 3.2921e-41
000270 11 06 00 80 da 23 00 80 4a 59 00 80 af 53 00 80
       -2.176e-42 -1.2861e-41 -3.2031e-41 -3.002e-41
000280 dd 49 00 00 66 96 00 00 a9 45 00 80 32 0e 00 00
       2.6497e-41 5.3953e-41 -2.499e-41 5.092e-42
000290 0d 30 00 80 d3 3e 00 00 c7 3f 00 00 63 50 00 80
       -1.7237e-41 2.2537e-41 2.2879e-41 -2.8837e-41
0002a0 7a 43 00 00 9c 4c 00 00 c3 57 00 80 57 10 00 00
       2.4206e-41 2.7482e-41 -3.1483e-41 5.862e-42
0002b0 fb 4c 00 80 34 48 00 80 fc 3b 00 80 8b 4c 00 80
       -2.7615e-41 -2.5902e-41 -2.1518e-41 -2.7458e-41
0002c0 dd 50 00 00 3c 41 00 80 31 6d 00 00 a7 69 00 00
       2.9008e-41 -2.3402e-41 3.917e-41 3.7901e-41
0002d0 22 26 00 00 c6 4c 00 80 b3 5f 00 00 b5 4b 00 00
       1.368e-41 -2.7541e-41 3.433e-41 2.7159e-41
0002e0 72 1e 00 00 23 4a 00 00 58 40 00 00 56 1a 00 80
       1.0922e-41 2.6595e-41 2.3082e-41 -9.448e-42
0002f0 1d 44 00 80 b2 50 00 80 a2 42 00 80 81 3d 00 00
       -2.4434e-41 -2.8948e-41 -2.3903e-41 2.2063e-41
000300 f2 5d 00 00 af 05 00 80 ea 3e 00 80 19 28 00 00
       3.3701e-41 -2.039e-42 -2.257e-41 1.4384e-41
000310 bc 70 00 00 f2 1a 00 80 c9 37 00 00 46 45 00 00
       4.0441e-41 -9.666e-42 2.0012e-41 2.485e-41
000320 76 61 00 80 5d 71 00 00 02 46 00 80 ee 81 eb b6
       -3.4962e-41 4.0667e-41 -2.5114e-41 -7.0186716e-06
000330 58 e1 7b b6 e4 6c 20 80 52 b2 00 00 c4 9e 00 00
       -3.7533082e-06 -2.977798e-39 6.3969e-41 5.6954e-41
000340 f5 80 aa 8e 01 49 00 00 30 4f 00 00 78 32 58 b7
       -4.2032417e-30 2.6189e-41 2.8407e-41 -1.2886354e-05
000350 d9 25 4c 8c fe 49 00 00 98 af d8 87 d9 58 00 80
       -1.5726978e-31 2.6543e-41 -3.2603273e-34 -3.1873e-41
000360 46 3d a0 88 04 66 00 80 24 b3 00 00 18 f5 96 89
       -9.644055e-34 -3.6596e-41 6.4264e-41 -3.634167e-33
000370 94 86 eb b6 57 96 00 00 1e 59 00 00 83 1a 00 80
       -7.0192127e-06 5.3932e-41 3.1969e-41 -9.51e-42
000380 c4 3a 00 00 6e 50 00 80 61 12 00 80 0f 88 00 80
       2.1081e-41 -2.8853e-41 -6.593e-42 -4.8809e-41
000390 5e 4c 00 80 3d 2b 00 80 a6 74 00 80 6f 37 00 80
       -2.7395e-41 -1.5511e-41 -4.1846e-41 -1.9886e-41
0003a0 91 10 00 80 9d 33 00 00 52 42 00 00 91 3c 00 00
       -5.943e-42 1.8515e-41 2.3791e-41 2.1727e-41
0003b0 c3 44 00 80 50 2d 00 80 fc 3b 00 80 98 9e 00 80
       -2.4667e-41 -1.6255e-41 -2.1518e-41 -5.6893e-41
0003c0 b0 00 00 00 3c 4c 00 80 3e 5c 00 00 1a 2c 00 00
       2.47e-43 -2.7348e-41 3.309e-41 1.582e-41
0003d0 c9 34 00 80 e7 26 00 80 3e 4b 00 80 12 4c 00 00
       -1.8936e-41 -1.3956e-41 -2.6992e-41 2.7289e-41
0003e0 88 4d 00 00 42 67 00 00 8b 40 00 80 a9 18 00 00
       2.7813e-41 3.7042e-41 -2.3154e-41 8.846e-42
0003f0 e1 60 00 00 38 4b 00 00 ab 3d 00 80 4b 4e 00 80
       3.4754e-41 2.6983e-41 -2.2122e-41 -2.8086e-41

gats.0.lin_l.bias f4 [335]
000000 7c f5 f8 b7 1d fb 01 3a ed f2 a3 b5 53 26 8b b7
       -2.9678216e-05 0.0004958378 -1.2215147e-06 -1.6587937e-05
000010 fc bf b8 38 09 24 01 3c 53 85 08 b7 42 1a 0f b7
       8.8095636e-05 0.007882127 -8.137274e-06 -8.529578e-06
000020 d2 b3 c1 b8 02 7c 17 37 33 1c 87 b8 88 e8 d1 ba
       -9.236451e-05 9.029174e-06 -6.442554e-05 -0.0016014734
000030 8d ce c5 8e 22 bf c7 39 8b 77 83 3a 8c 24 a4 b9
       -4.876315e-30 0.00038098643 0.0010030133 -0.00031307747
000040 40 a1 b4 38 7b 36 d0 b7 99 8a 0b b6 46 bb b5 b5
       8.613104e-05 -2.4820902e-05 -2.0793289e-06 -1.3540055e-06
000050 31 fb 86 3b 5d 57 87 b7 f3 18 7c 39 23 9f d5 3a
       0.0041193 -1.6133936e-05 0.00024041887 0.0016298037
000060 2e 48 7a b6 67 9a 25 38 c8 05 58 b7 64 ea 20 3c
       -3.7294917e-06 3.9482864e-05 -1.2875949e-05 0.009821508
000070 79 3d 3d 38 8f 3f de b6 bc e9 68 b6 f8 05 83 39
       4.5118362e-05 -6.6235148e-06 -3.4706745e-06 0.00024990714
000080 8d 07 68 b6 48 42 37 39 2c 82 ae 3b e1 77 2c 3b
       -3.457509e-06 0.00017476932 0.0053255763 0.002631657
000090 c1 71 4a b7 33 b2 31 3b ad 11 00 37 f9 d6 3c ba
       -1.2066624e-05 0.0027114272 7.63351e-06 -0.0007203664
0000a0 a8 19 ee b7 c1 15 84 39 17 c0 f0 b6 e6 16 a3 b5
       -2.8383758e-05 0.0002519321 -7.1749196e-06 -1.2151111e-06
0000b0 e1 cf cb 38 c4 78 6f 3a 46 ab 05 33 6d de 7c 3b
       9.718515e-05 0.0009135122 3.1122248e-08 0.0038584725
0000c0 7e 30 fe b7 68 54 1c 3b a7 a2 11 b7 74 2b 66 3a
       -3.030174e-05 0.002385402 -8.680544e-06 0.0008780279
0000d0 a4 e5 10 b8 a9 71 3c 3b 20 21 8a b7 98 6a 92 b7
       -3.4546145e-05 0.002875427 -1.6466307e-05 -1.7454193e-05
0000e0 21 3c 98 b7 e8 00 d4 b7 33 c4 d8 b7 cf 28 c5 3a
       -1.8147812e-05 -2.5272791e-05 -2.5840569e-05 0.0015042069
0000f0 4e 43 1a 39 73 22 8d b7 89 4d cb 3a 80 a4 00 00
       0.00014711657 -1.6824551e-05 0.0015510778 5.9011e-41
000100 3d ea 86 b7 a4 fd 8e b7 05 0f 8b 39 7c f5 f8 b7
       -1.608312e-05 -1.704583e-05 0.00026523336 -2.9678216e-05
000110 3d f8 01 3a ed f2 a3 b5 53 26 8b b7 fe bf b8 38
       0.000495795 -1.2215147e-06 -1.6587937e-05 8.809565e-05
000120 bb 26 01 3c 53 85 08 b7 42 1a 0f b7 3e 97 c1 b8
       0.007882769 -8.137274e-06 -8.529578e-06 -9.231128e-05
000130 d5 81 17 37 05 1c 87 b8 a6 48 d1 ba 8d ce c5 8e
       9.03053e-06 -6.442521e-05 -0.0015967085 -4.876315e-30
000140 0b d9 c7 39 bc 9b 83 3a 71 2f aa b9 6d 67 b5 38
       0.00038117947 0.0010040919 -0.00032460273 8.650017e-05
000150 7b 36 d0 b7 99 8a 0b b6 46 bb b5 b5 27 4c 87 3b
       -2.4820902e-05 -2.0793289e-06 -1.3540055e-06 0.004128951
000160 5d 57 87 b7 3b 1c 7c 39 5d 9c d5 3a 2e 48 7a b6
       -1.6133936e-05 0.0002404311 0.001629721 -3.7294917e-06
000170 73 78 26 38 c8 05 58 b7 be 53 21 3c 79 3d 3d 38
       3.968966e-05 -1.2875949e-05 0.009846626 4.5118362e-05
000180 8f 3f de b6 bc e9 68 b6 f8 05 83 39 8d 07 68 b6
       -6.6235148e-06 -3.4706745e-06 0.00024990714 -3.457509e-06
000190 34 3c 37 39 dc 40 ae 3b da 6f 2c 3b c1 71 4a b7
       0.00017474667 0.0053177904 0.0026311786 -1.2066624e-05
0001a0 3b e2 31 3b ad 11 00 37 18 26 3d ba a8 19 ee b7
       0.00271429 7.63351e-06 -0.0007215454 -2.8383758e-05
0001b0 c1 15 84 39 17 c0 f0 b6 e6 16 a3 b5 15 d1 cb 38
       0.0002519321 -7.1749196e-06 -1.2151111e-06 9.718739e-05
0001c0 d3 78 6f 3a 2e b1 05 33 2e 8e 7d 3b 7e 30 fe b7
       0.00091351307 3.112762e-08 0.0038689482 -3.030174e-05
0001d0 04 54 1c 3b a7 a2 11 b7 88 cf 66 3a a4 e5 10 b8
       0.0023853788 -8.680544e-06 0.0008804728 -3.4546145e-05
0001e0 61 29 3c 3b 20 21 8a b7 98 6a 92 b7 21 3c 98 b7
       0.0028711187 -1.6466307e-05 -1.7454193e-05 -1.8147812e-05
0001f0 e8 00 d4 b7 33 c4 d8 b7 77 c3 c5 3a eb 51 1a 39
       -2.5272791e-05 -2.5840569e-05 0.001508816 0.00014717101
000200 73 22 8d b7 63 3b cb 3a 80 a4 00 00 3d ea 86 b7
       -1.6824551e-05 0.001550537 5.9011e-41 -1.608312e-05
000210 a4 fd 8e b7 8c ce 8a 39 7c f5 f8 b7 d2 fe 01 3a
       -1.704583e-05 0.000264753 -2.9678216e-05 0.00049589307
000220 ed f2 a3 b5 53 26 8b b7 fe bf b8 38 4f 20 01 3c
       -1.2215147e-06 -1.6587937e-05 8.809565e-05 0.007881238
000230 53 85 08 b7 42 1a 0f b7 b0 ab c1 b8 4f 7a 17 37
       -8.137274e-06 -8.529578e-06 -9.2349364e-05 9.028779e-06
000240 ca 1b 87 b8 1d b7 d0 ba 8d ce c5 8e a7 97 c7 39
       -6.442478e-05 -0.0015923713 -4.876315e-30 0.00038069228
000250 16 32 83 3a a8 e6 a4 b9 7b 21 b5 38 7b 36 d0 b7
       0.0010009434 -0.0003145237 8.636989e-05 -2.4820902e-05
000260 99 8a 0b b6 46 bb b5 b5 54 3d 87 3b 5d 57 87 b7
       -2.0793289e-06 -1.3540055e-06 0.004127184 -1.6133936e-05
000270 8b 14 7c 39 67 9d d5 3a 2e 48 7a b6 52 03 26 38
       0.00024040246 0.001629752 -3.7294917e-06 3.9580576e-05
000280 c8 05 58 b7 45 45 21 3c 79 3d 3d 38 8f 3f de b6
       -1.2875949e-05 0.009843175 4.5118362e-05 -6.6235148e-06
000290 bc e9 68 b6 f8 05 83 39 8d 07 68 b6 07 51 37 39
       -3.4706745e-06 0.00024990714 -3.457509e-06 0.00017482425
0002a0 55 fd ae 3b fb eb 2c 3b c1 71 4a b7 81 d9 32 3b
       0.005340258 0.0026385773 -1.2066624e-05 0.0027290287
0002b0 ad 11 00 37 79 e3 3c ba a8 19 ee b7 c1 15 84 39
       7.63351e-06 -0.0007205527 -2.8383758e-05 0.0002519321
0002c0 17 c0 f0 b6 e6 16 a3 b5 29 d2 cb 38 45 78 6f 3a
       -7.1749196e-06 -1.2151111e-06 9.71894e-05 0.0009135048
0002d0 fe ad 05 33 db 63 7f 3b 7e 30 fe b7 43 53 1c 3b
       3.112472e-08 0.003896943 -3.030174e-05 0.0023853339
0002e0 a7 a2 11 b7 ca a4 68 3a a4 e5 10 b8 c6 aa 3c 3b
       -8.680544e-06 0.0008874653 -3.4546145e-05 0.0028788312
0002f0 20 21 8a b7 98 6a 92 b7 21 3c 98 b7 e8 00 d4 b7
       -1.6466307e-05 -1.7454193e-05 -1.8147812e-05 -2.5272791e-05
000300 33 c4 d8 b7 e2 f5 c5 3a 81 4d 1a 39 73 22 8d b7
       -2.5840569e-05 0.0015103186 0.00014715457 -1.6824551e-05
000310 9d 58 cb 3a 80 a4 00 00 3d ea 86 b7 a4 fd 8e b7
       0.001551408 5.9011e-41 -1.608312e-05 -1.704583e-05
000320 bd ec 8a 39 7c f5 f8 b7 3b f7 01 3a ed f2 a3 b5
       0.00026497795 -2.9678216e-05 0.00049577997 -1.2215147e-06
000330 53 26 8b b7 fc bf b8 38 cb 17 01 3c 53 85 08 b7
       -1.6587937e-05 8.8095636e-05 0.007879208 -8.137274e-06
000340 42 1a 0f b7 42 93 c1 b8 3d 7a 17 37 01 1c 87 b8
       -8.529578e-06 -9.230386e-05 9.028762e-06 -6.442518e-05
000350 56 52 d1 ba 8d ce c5 8e e3 ea c7 39 52 55 84 3a
       -0.0015969973 -4.876315e-30 0.00038131242 0.0010096228
000360 df 81 ac b9 1f f5 b4 38 7b 36 d0 b7 99 8a 0b b6
       -0.00032903158 8.628726e-05 -2.4820902e-05 -2.0793289e-06
000370 46 bb b5 b5 56 75 87 3b 5d 57 87 b7 73 04 7c 39
       -1.3540055e-06 0.0041338606 -1.6133936e-05 0.0002403425
000380 11 a1 d5 3a 2e 48 7a b6 19 2e 25 38 c8 05 58 b7
       0.0016298612 -3.7294917e-06 3.9381997e-05 -1.2875949e-05
000390 b6 1e 21 3c 79 3d 3d 38 8f 3f de b6 bc e9 68 b6
       0.009833982 4.5118362e-05 -6.6235148e-06 -3.4706745e-06
0003a0 f8 05 83 39 8d 07 68 b6 03 48 37 39 0d eb ad 3b
       0.00024990714 -3.457509e-06 0.00017479066 0.0053075613
0003b0 97 81 2c 3b c1 71 4a b7 de e8 31 3b ad 11 00 37
       0.0026322359 -1.2066624e-05 0.0027146856 7.63351e-06
0003c0 ac e8 3c ba a8 19 ee b7 ab 15 84 39 17 c0 f0 b6
       -0.00072063017 -2.8383758e-05 0.00025193146 -7.1749196e-06
0003d0 e6 16 a3 b5 61 d1 cb 38 0a 76 6f 3a e5 ac 05 33
       -1.2151111e-06 9.718794e-05 0.00091347157 3.1123722e-08
0003e0 db ff 7b 3b 7e 30 fe b7 76 52 1c 3b a7 a2 11 b7
       0.0038452062 -3.030174e-05 0.0023852861 -8.680544e-06
0003f0 a9 20 65 3a a4 e5 10 b8 69 3c 3c 3b 20 21 8a b7
       0.00087405235 -3.4546145e-05 0.002872253 -1.6466307e-05

gats.0.lin_r.weight f4 [335, 67]
000000 2c b2 00 80 6a 6b 00 80 d5 2c 00 80 54 59 00 80
       -6.3916e-41 -3.8533e-41 -1.6083e-41 -3.2045e-41
000010 25 53 00 00 39 23 00 80 e6 0b 00 00 ff 31 00 80
       2.9827e-41 -1.2636e-41 4.268e-42 -1.7935e-41
000020 30 4b 00 00 6f 4b 00 00 d8 3d 00 00 17 24 00 80
       2.6972e-41 2.706e-41 2.2185e-41 -1.2947e-41
000030 46 6d 00 00 be 4d 00 80 a7 6d 00 80 44 27 00 80
       3.92e-41 -2.7889e-41 -3.9336e-41 -1.4086e-41
000040 8a 18 00 80 4b 5d 00 80 05 39 00 80 09 49 00 80
       -8.803e-42 -3.3467e-41 -2.0455e-41 -2.62e-41
000050 c2 09 00 00 49 44 00 00 7a 08 00 00 76 4f 00 80
       3.5e-42 2.4496e-41 3.041e-42 -2.8505e-41
000060 4a 53 00 00 6d 22 00 80 69 4b 00 80 05 04 00 80
       2.9878e-41 -1.235e-41 -2.7052e-41 -1.442e-42
000070 93 97 00 80 1e 4f 00 00 34 1d 00 00 84 55 00 00
       -5.4375e-41 2.8382e-41 1.0476e-41 3.0677e-41
000080 42 03 00 00 72 44 00 80 60 88 00 80 43 50 00 80
       1.169e-42 -2.4554e-41 -4.8922e-41 -2.8792e-41
000090 d3 5d 00 80 22 4e 00 00 9c 98 00 80 be 26 00 00
       -3.3658e-41 2.8029e-41 -5.4746e-41 1.3898e-41
0000a0 48 49 00 00 26 4c 00 00 6f 19 00 80 0b 1b 00 00
       2.6288e-41 2.7317e-41 -9.124e-42 9.701e-42
0000b0 a9 51 00 80 80 4c 00 00 f3 00 00 00 cc 1e 00 80
       -2.9294e-41 2.7443e-41 3.4e-43 -1.1048e-41
0000c0 36 29 00 00 31 0d 00 00 ed 07 00 80 9c 36 00 80
       1.4784e-41 4.732e-42 -2.843e-42 -1.959e-41
0000d0 a5 50 00 80 8e 8b 00 00 93 28 00 00 58 3d 00 80
       -2.893e-41 5.0063e-41 1.4555e-41 -2.2006e-41
0000e0 c9 26 00 00 61 46 00 00 8c 32 00 80 93 4b 00 00
       1.3913e-41 2.5247e-41 -1.8133e-41 2.7111e-41
0000f0 0e 3c 00 00 e3 75 00 00 19 13 00 80 05 4d 00 80
       2.1544e-41 4.229e-41 -6.851e-42 -2.763e-41
000100 27 4a 00 80 f6 6c 00 00 23 38 00 00 32 9b 00 00
       -2.6601e-41 3.9088e-41 2.0138e-41 5.5674e-41
000110 45 1a 00 80 03 2d 00 80 4b 4e 00 00 54 5e 00 80
       -9.424e-42 -1.6147e-41 2.8086e-41 -3.3839e-41
000120 16 42 00 00 bf 96 00 80 37 2f 00 00 f6 50 00 80
       2.3707e-41 -5.4078e-41 1.6937e-41 -2.9043e-41
000130 03 1e 00 00 ec 5c 00 00 52 4f 00 80 22 54 00 00
       1.0766e-41 3.3334e-41 -2.8455e-41 3.0181e-41
000140 3f 1a 00 80 79 02 00 00 a5 0c 00 00 52 2a 00 00
       -9.415e-42 8.87e-43 4.536e-42 1.5182e-41
000150 4f 45 00 00 57 1d 00 00 26 b2 00 80 d7 52 00 00
       2.4863e-41 1.0525e-41 -6.3908e-41 2.9717e-41
000160 67 49 00 80 57 5e 00 80 d3 29 00 80 47 0b 00 00
       -2.6332e-41 -3.3843e-41 -1.5004e-41 4.046e-42
000170 3d 41 00 00 d2 44 00 00 85 1a 00 80 25 3f 00 80
       2.3403e-41 2.4688e-41 -9.513e-42 -2.2652e-41
000180 f6 49 00 80 c2 43 00 80 24 44 00 00 ff 20 00 00
       -2.6532e-41 -2.4307e-41 2.4444e-41 1.1837e-41
000190 ec 16 00 80 36 24 00 80 b8 50 00 80 e6 03 00 00
       -8.223e-42 -1.299e-41 -2.8956e-41 1.398e-42
0001a0 5b 3a 00 80 54 24 00 80 91 42 00 00 5d 6c 00 80
       -2.0934e-41 -1.3032e-41 2.388e-41 -3.8873e-41
0001b0 8a 4f 00 00 71 0f 00 80 2b 1f 00 80 d2 67 00 80
       2.8533e-41 -5.54e-42 -1.1181e-41 -3.7244e-41
0001c0 94 6e 00 80 1e 70 00 00 47 48 00 00 fc 3c 00 00
       -3.9668e-41 4.022e-41 2.5928e-41 2.1877e-41
0001d0 e6 31 00 00 ee 97 00 80 1a 17 00 00 b3 3d 00 80
       1.79e-41 -5.4502e-41 8.287e-42 -2.2134e-41
0001e0 f5 13 00 00 0e 13 00 80 a7 51 00 00 f3 65 00 00
       7.159e-42 -6.836e-42 2.9291e-41 3.6572e-41
0001f0 c2 59 00 00 bb 4e 00 00 59 5c 00 00 6b 23 00 00
       3.2199e-41 2.8243e-41 3.3128e-41 1.2706e-41
000200 f7 68 00 00 10 71 00 80 70 10 00 00 73 3a 00 00
       3.7654e-41 -4.0559e-41 5.897e-42 2.0968e-41
000210 7b 62 00 80 f6 0d 00 00 2f 62 00 80 6a 6b 00 80
       -3.5328e-41 5.008e-42 -3.5222e-41 -3.8533e-41
000220 01 01 00 80 3f 4c 00 00 fe 76 00 80 4a 6c 00 00
       -3.6e-43 2.7352e-41 -4.2686e-41 3.8847e-41
000230 73 34 00 00 41 51 00 80 e1 0b 00 00 ba 61 00 00
       1.8815e-41 -2.9148e-41 4.261e-42 3.5058e-41
000240 2c 7c 00 80 96 63 00 00 be 3e 00 80 45 45 00 80
       -4.4544e-41 3.5725e-41 -2.2508e-41 -2.4849e-41
000250 56 6b 00 80 b3 52 00 00 70 2b 00 80 a4 68 00 00
       -3.8505e-41 2.9667e-41 -1.5582e-41 3.7538e-41
000260 51 28 00 00 39 4c 00 80 96 72 00 00 f4 62 00 00
       1.4463e-41 -2.7344e-41 4.1106e-41 3.5498e-41
000270 a0 40 00 00 e2 95 00 80 89 07 00 80 3f 61 00 00
       2.3183e-41 -5.3768e-41 -2.703e-42 3.4885e-41
000280 0d 2e 00 80 5d 6a 00 00 a3 43 00 00 eb 6b 00 00
       -1.652e-41 3.8156e-41 2.4263e-41 3.8714e-41
000290 b6 50 00 80 58 30 00 00 ac 3a 00 00 41 11 00 00
       -2.8954e-41 1.7342e-41 2.1048e-41 6.19e-42
0002a0 32 80 00 00 94 4c 00 00 a5 a9 00 00 f9 17 00 00
       4.5988e-41 2.7471e-41 6.0857e-41 8.6e-42
0002b0 df a7 00 00 46 5c 00 00 74 40 00 00 c6 72 00 80
       6.0221e-41 3.3101e-41 2.3121e-41 -4.1173e-41
0002c0 0f 42 00 00 09 1d 00 00 86 49 00 80 28 9c 00 80
       2.3697e-41 1.0416e-41 -2.6375e-41 -5.6018e-41
0002d0 80 5e 00 00 cd 5b 00 00 f8 14 00 00 e8 99 00 00
       3.39e-41 3.2932e-41 7.522e-42 5.5211e-41
0002e0 02 45 00 80 ce 3c 00 00 97 2d 00 80 5f 1a 00 00
       -2.4755e-41 2.1813e-41 -1.6355e-41 9.46e-42
0002f0 64 4c 00 80 d3 3b 00 00 fd 2b 00 80 4a 36 00 00
       -2.7404e-41 2.1461e-41 -1.578e-41 1.9475e-41
000300 3a 31 00 00 4f 0c 00 80 18 23 00 80 00 01 00 80
       1.7659e-41 -4.415e-42 -1.2589e-41 -3.59e-43
000310 f4 13 00 80 4f 62 00 00 56 4f 00 80 63 45 00 00
       -7.158e-42 3.5266e-41 -2.846e-41 2.4891e-41
000320 35 56 00 80 05 4d 00 80 db 4d 00 80 4e 62 00 80
       -3.0925e-41 -2.763e-41 -2.7929e-41 -3.5265e-41
000330 27 5a 00 80 a1 43 00 80 32 47 00 80 5c 35 00 00
       -3.234e-41 -2.426e-41 -2.554e-41 1.9142e-41
000340 f9 3f 00 80 e2 61 00 00 5e 43 00 00 24 8b 00 00
       -2.2949e-41 3.5114e-41 2.4167e-41 4.9914e-41
000350 5a 8b 00 00 91 36 00 00 fd 4c 00 00 87 7b 00 80
       4.999e-41 1.9575e-41 2.7618e-41 -4.4313e-41
000360 ea 53 00 80 73 45 00 80 10 62 00 00 9b 59 00 00
       -3.0103e-41 -2.4914e-41 3.5178e-41 3.2144e-41
000370 e1 a0 00 00 0a 38 00 80 e6 3c 00 80 bd 36 00 00
       5.7712e-41 -2.0103e-41 -2.1846e-41 1.9636e-41
000380 b2 42 00 00 b0 74 00 80 b0 42 00 00 11 2f 00 00
       2.3926e-41 -4.186e-41 2.3923e-41 1.6884e-41
000390 0d 91 00 80 2d 3a 00 00 dd 0a 00 80 f3 03 00 80
       -5.2034e-41 2.087e-41 -3.897e-42 -1.417e-42
0003a0 a4 28 00 80 73 3b 00 00 ea 30 00 00 7e 4c 00 00
       -1.4579e-41 2.1326e-41 1.7547e-41 2.744e-41
0003b0 cd 72 00 00 8f 0c 00 80 46 07 00 00 d3 3d 00 00
       4.1183e-41 -4.505e-42 2.609e-42 2.2178e-41
0003c0 2b 11 00 80 83 a1 00 80 e9 1b 00 00 e7 19 00 80
       -6.159e-42 -5.794e-41 1.0012e-41 -9.292e-42
0003d0 6c 4b 00 80 27 41 00 00 83 4e 00 80 21 50 00 80
       -2.7056e-41 2.3372e-41 -2.8165e-41 -2.8745e-41
0003e0 96 40 00 80 ef 48 00 80 90 3e 00 80 90 55 00 80
       -2.3169e-41 -2.6164e-41 -2.2443e-41 -3.0694e-41
0003f0 6e 4d 00 00 cd 27 00 00 7d 7f 00 80 38 7d 00 80
       2.7777e-41 1.4278e-41 -4.5734e-41 -4.492e-41

gats.0.lin_r.bias f4 [335]
000000 d5 2c 00 80 03 2d 00 80 c0 4c 00 00 24 8b 00 00
       -1.6083e-41 -1.6147e-41 2.7533e-41 4.9914e-41
000010 6e 2d 00 00 fb 0b 00 80 ca 4e 00 00 77 4a 00 00
       1.6297e-41 -4.298e-42 2.8264e-41 2.6713e-41
000020 d4 40 00 80 48 2b 00 00 41 24 00 80 29 68 00 80
       -2.3256e-41 1.5526e-41 -1.3005e-41 -3.7366e-41
000030 e2 8d 00 00 d8 49 00 00 6e 5f 00 00 63 9a 00 80
       5.0898e-41 2.649e-41 3.4234e-41 -5.5384e-41
000040 fd 46 00 80 19 4a 00 80 17 34 00 80 40 18 00 00
       -2.5466e-41 -2.6581e-41 -1.8686e-41 8.699e-42
000050 ed 79 00 80 03 35 00 00 c7 1a 00 80 0b 68 00 80
       -4.3739e-41 1.9017e-41 -9.606e-42 -3.7324e-41
000060 3b 90 00 00 66 4a 00 00 6a 4a 00 00 ed 41 00 00
       5.174e-41 2.6689e-41 2.6695e-41 2.365e-41
000070 d3 02 00 80 7a 6a 00 00 a3 3c 00 00 fc 63 00 00
       -1.013e-42 3.8197e-41 2.1752e-41 3.5868e-41
000080 2e 4a 00 80 ca 49 00 80 f3 50 00 80 f6 48 00 80
       -2.661e-41 -2.647e-41 -2.9039e-41 -2.6173e-41
000090 3b 90 00 00 9e 53 00 80 b1 4b 00 80 70 3a 00 80
       5.174e-41 -2.9996e-41 -2.7153e-41 -2.0963e-41
0000a0 b7 2b 00 00 f2 36 00 80 d5 2c 00 00 37 73 00 00
       1.5682e-41 -1.971e-41 1.6083e-41 4.1331e-41
0000b0 01 50 00 00 b2 8a 00 80 be 4d 00 80 41 59 00 80
       2.87e-41 -4.9755e-41 -2.7889e-41 -3.2018e-41
0000c0 c5 69 00 80 f3 50 00 80 3b 90 00 80 35 81 00 80
       -3.7943e-41 -2.9039e-41 -5.174e-41 -4.6351e-41
0000d0 99 40 00 80 b6 57 00 00 46 41 00 00 2c 6f 00 00
       -2.3173e-41 3.1465e-41 2.3416e-41 3.9881e-41
0000e0 b6 85 00 00 0e 39 00 00 f1 7a 00 00 a5 4d 00 80
       4.7966e-41 2.0467e-41 4.4103e-41 -2.7854e-41
0000f0 ce 4c 00 00 d5 62 00 80 3b 90 00 00 7d 11 00 80
       2.7552e-41 -3.5454e-41 5.174e-41 -6.274e-42
000100 7d 11 00 80 d7 a1 00 80 b8 67 00 80 d5 2c 00 80
       -6.274e-42 -5.8057e-41 -3.7207e-41 -1.6083e-41
000110 03 2d 00 80 c0 4c 00 00 24 8b 00 00 6e 2d 00 00
       -1.6147e-41 2.7533e-41 4.9914e-41 1.6297e-41
000120 06 1d 00 00 ca 4e 00 00 77 4a 00 00 28 45 00 00
       1.0412e-41 2.8264e-41 2.6713e-41 2.4809e-41
000130 60 51 00 80 41 24 00 80 29 68 00 80 17 4d 00 00
       -2.9192e-41 -1.3005e-41 -3.7366e-41 2.7655e-41
000140 1a 44 00 80 6e 5f 00 00 63 9a 00 80 fd 46 00 80
       -2.443e-41 3.4234e-41 -5.5384e-41 -2.5466e-41
000150 bc 0c 00 00 03 4d 00 80 40 18 00 00 ed 79 00 80
       4.568e-42 -2.7627e-41 8.699e-42 -4.3739e-41
000160 fa 47 00 00 c7 1a 00 80 0b 68 00 80 8c 53 00 00
       2.582e-41 -9.606e-42 -3.7324e-41 2.9971e-41
000170 66 4a 00 00 7d 0b 00 00 ed 41 00 00 79 64 00 00
       2.6689e-41 4.121e-42 2.365e-41 3.6043e-41
000180 7a 6a 00 00 a3 3c 00 00 fc 63 00 00 2e 4a 00 80
       3.8197e-41 2.1752e-41 3.5868e-41 -2.661e-41
000190 ca 49 00 80 f3 50 00 80 f6 48 00 80 3b 90 00 00
       -2.647e-41 -2.9039e-41 -2.6173e-41 5.174e-41
0001a0 53 4b 00 80 b1 4b 00 80 70 3a 00 80 61 3b 00 00
       -2.7021e-41 -2.7153e-41 -2.0963e-41 2.1301e-41
0001b0 f2 36 00 80 d5 2c 00 00 5a 50 00 80 01 50 00 00
       -1.971e-41 1.6083e-41 -2.8825e-41 2.87e-41
0001c0 b2 8a 00 80 be 4d 00 80 43 1c 00 00 34 72 00 00
       -4.9755e-41 -2.7889e-41 1.0138e-41 4.0968e-41
0001d0 f3 50 00 80 3b 90 00 80 35 81 00 80 99 40 00 80
       -2.9039e-41 -5.174e-41 -4.6351e-41 -2.3173e-41
0001e0 3a 4b 00 80 47 5a 00 80 2c 6f 00 00 2d 45 00 00
       -2.6986e-41 -3.2385e-41 3.9881e-41 2.4816e-41
0001f0 6a 0f 00 00 19 46 00 80 a5 4d 00 80 ce 4c 00 00
       5.53e-42 -2.5146e-41 -2.7854e-41 2.7552e-41
000200 d5 62 00 80 3b 90 00 00 7d 11 00 80 7d 11 00 80
       -3.5454e-41 5.174e-41 -6.274e-42 -6.274e-42
000210 d7 a1 00 80 59 4f 00 00 d5 2c 00 80 03 2d 00 80
       -5.8057e-41 2.8465e-41 -1.6083e-41 -1.6147e-41
000220 c0 4c 00 00 24 8b 00 00 6e 2d 00 00 8a 41 00 80
       2.7533e-41 4.9914e-41 1.6297e-41 -2.3511e-41
000230 ca 4e 00 00 77 4a 00 00 63 87 00 00 48 2b 00 00
       2.8264e-41 2.6713e-41 4.8568e-41 1.5526e-41
000240 41 24 00 80 29 68 00 80 17 4d 00 00 2f 3e 00 00
       -1.3005e-41 -3.7366e-41 2.7655e-41 2.2307e-41
000250 6e 5f 00 00 63 9a 00 80 fd 46 00 80 0e 04 00 80
       3.4234e-41 -5.5384e-41 -2.5466e-41 -1.455e-42
000260 bc 01 00 00 40 18 00 00 ed 79 00 80 5f 4b 00 00
       6.22e-43 8.699e-42 -4.3739e-41 2.7038e-41
000270 ef 3d 00 00 0b 68 00 80 3b 90 00 00 66 4a 00 00
       2.2218e-41 -3.7324e-41 5.174e-41 2.6689e-41
000280 19 a9 00 00 ed 41 00 00 d8 1d 00 80 7a 6a 00 00
       6.0661e-41 2.365e-41 -1.0706e-41 3.8197e-41
000290 a3 3c 00 00 fc 63 00 00 2e 4a 00 80 10 12 00 80
       2.1752e-41 3.5868e-41 -2.661e-41 -6.48e-42
0002a0 f3 50 00 80 f6 48 00 80 3b 90 00 00 d7 86 00 80
       -2.9039e-41 -2.6173e-41 5.174e-41 -4.8371e-41
0002b0 b1 4b 00 80 70 3a 00 80 b3 6d 00 00 f2 36 00 80
       -2.7153e-41 -2.0963e-41 3.9353e-41 -1.971e-41
0002c0 d5 2c 00 00 37 73 00 00 01 50 00 00 b2 8a 00 80
       1.6083e-41 4.1331e-41 2.87e-41 -4.9755e-41
0002d0 90 3a 00 00 11 8b 00 80 34 72 00 00 f3 50 00 80
       2.1008e-41 -4.9888e-41 4.0968e-41 -2.9039e-41
0002e0 3b 90 00 80 35 81 00 80 99 40 00 80 e9 44 00 80
       -5.174e-41 -4.6351e-41 -2.3173e-41 -2.472e-41
0002f0 47 5a 00 80 2c 6f 00 00 92 51 00 00 fd 9a 00 00
       -3.2385e-41 3.9881e-41 2.9262e-41 5.56e-41
000300 f1 7a 00 00 a5 4d 00 80 ce 4c 00 00 d5 62 00 80
       4.4103e-41 -2.7854e-41 2.7552e-41 -3.5454e-41
000310 3b 90 00 00 7d 11 00 80 7d 11 00 80 d7 a1 00 80
       5.174e-41 -6.274e-42 -6.274e-42 -5.8057e-41
000320 b5 63 00 00 d5 2c 00 80 03 2d 00 80 c0 4c 00 00
       3.5768e-41 -1.6083e-41 -1.6147e-41 2.7533e-41
000330 24 8b 00 00 6e 2d 00 00 5c 44 00 00 ca 4e 00 00
       4.9914e-41 1.6297e-41 2.4523e-41 2.8264e-41
000340 77 4a 00 00 f1 4d 00 80 d4 1a 00 80 41 24 00 80
       2.6713e-41 -2.796e-41 -9.624e-42 -1.3005e-41
000350 29 68 00 80 c3 51 00 00 d8 49 00 00 6e 5f 00 00
       -3.7366e-41 2.933e-41 2.649e-41 3.4234e-41
000360 63 9a 00 80 fd 46 00 80 0e 04 00 80 bc 01 00 00
       -5.5384e-41 -2.5466e-41 -1.455e-42 6.22e-43
000370 40 18 00 00 ed 79 00 80 8e 68 00 00 ef 3d 00 00
       8.699e-42 -4.3739e-41 3.7507e-41 2.2218e-41
000380 0b 68 00 80 33 89 00 80 66 4a 00 00 a3 ad 00 80
       -3.7324e-41 -4.9218e-41 2.6689e-41 -6.2289e-41
000390 ed 41 00 00 d8 1d 00 80 7a 6a 00 00 32 45 00 80
       2.365e-41 -1.0706e-41 3.8197e-41 -2.4823e-41
0003a0 fc 63 00 00 2e 4a 00 80 ca 49 00 80 f3 50 00 80
       3.5868e-41 -2.661e-41 -2.647e-41 -2.9039e-41
0003b0 f6 48 00 80 3b 90 00 00 b4 97 00 80 b1 4b 00 80
       -2.6173e-41 5.174e-41 -5.4421e-41 -2.7153e-41
0003c0 70 3a 00 80 d0 28 00 80 f2 36 00 80 d5 2c 00 00
       -2.0963e-41 -1.4641e-41 -1.971e-41 1.6083e-41
0003d0 37 73 00 00 01 50 00 00 b2 8a 00 80 29 9e 00 00
       4.1331e-41 2.87e-41 -4.9755e-41 5.6737e-41
0003e0 0c 48 00 80 34 72 00 00 f3 50 00 80 3b 90 00 80
       -2.5846e-41 4.0968e-41 -2.9039e-41 -5.174e-41
0003f0 35 81 00 80 99 40 00 80 77 1c 00 80 5b 21 00 80
       -4.6351e-41 -2.3173e-41 -1.0211e-41 -1.1966e-41

gats.0.lin_edge.weight f4 [335, 1]
000000 d5 2c 00 80 03 2d 00 80 cd 18 00 80 1c 5d 00 00
       -1.6083e-41 -1.6147e-41 -8.897e-42 3.3401e-41
000010 ed 41 00 00 e1 62 00 80 7e 1d 00 80 49 99 00 80
       2.365e-41 -3.5471e-41 -1.058e-41 -5.4988e-41
000020 d7 29 00 80 4c 44 00 80 c8 3a 00 80 1f 1f 00 00
       -1.501e-41 -2.45e-41 -2.1087e-41 1.1164e-41
000030 0f 65 00 00 c0 1c 00 80 f4 6d 00 00 7a 48 00 80
       3.6253e-41 -1.0314e-41 3.9444e-41 -2.6e-41
000040 e7 26 00 80 25 3f 00 80 1f 46 00 00 29 42 00 80
       -1.3956e-41 -2.2652e-41 2.5155e-41 -2.3734e-41
000050 c4 43 00 00 0f 36 00 00 25 66 00 80 af 36 00 80
       2.431e-41 1.9393e-41 -3.6643e-41 -1.9617e-41
000060 3b 90 00 00 48 4f 00 00 30 1c 00 80 ed 41 00 00
       5.174e-41 2.8441e-41 -1.0112e-41 2.365e-41
000070 ae 4e 00 80 a5 4d 00 80 a3 3c 00 00 a8 80 00 80
       -2.8225e-41 -2.7854e-41 2.1752e-41 -4.6153e-41
000080 6d 44 00 00 0f 41 00 80 5e 77 00 00 63 45 00 80
       2.4547e-41 -2.3339e-41 4.2821e-41 -2.4891e-41
000090 85 4b 00 80 60 38 00 00 cc 51 00 00 ec 1a 00 80
       -2.7091e-41 2.0224e-41 2.9343e-41 -9.658e-42
0000a0 00 73 00 80 5c 50 00 80 d5 2c 00 00 2a b2 00 00
       -4.1254e-41 -2.8828e-41 1.6083e-41 6.3913e-41
0000b0 0d 45 00 00 fa 4b 00 00 5f 41 00 00 d0 4a 00 80
       2.4771e-41 2.7255e-41 2.3451e-41 -2.6838e-41
0000c0 d6 2d 00 00 f2 48 00 00 3b 90 00 80 35 81 00 80
       1.6443e-41 2.6168e-41 -5.174e-41 -4.6351e-41
0000d0 d5 3b 00 80 d7 41 00 00 31 5d 00 80 37 37 00 80
       -2.1464e-41 2.3619e-41 -3.3431e-41 -1.9807e-41
0000e0 f0 2e 00 80 4c 0b 00 80 d8 3a 00 00 26 9d 00 80
       -1.6838e-41 -4.053e-42 2.1109e-41 -5.6374e-41
0000f0 93 9c 00 80 7c 41 00 80 3b 90 00 00 b7 7d 00 00
       -5.6168e-41 -2.3491e-41 5.174e-41 4.5098e-41
000100 7e 49 00 00 35 81 00 00 d0 4e 00 00 d5 2c 00 80
       2.6364e-41 4.6351e-41 2.8273e-41 -1.6083e-41
000110 03 2d 00 80 cd 18 00 80 11 85 00 80 ed 41 00 00
       -1.6147e-41 -8.897e-42 -4.7735e-41 2.365e-41
000120 6e 79 00 00 7e 1d 00 80 49 99 00 80 55 0d 00 80
       4.3561e-41 -1.058e-41 -5.4988e-41 -4.783e-42
000130 3c 0d 00 00 c8 3a 00 80 1f 1f 00 00 2d 01 00 80
       4.748e-42 -2.1087e-41 1.1164e-41 -4.22e-43
000140 c0 1c 00 80 f4 6d 00 00 7a 48 00 80 e7 26 00 80
       -1.0314e-41 3.9444e-41 -2.6e-41 -1.3956e-41
000150 25 3f 00 80 4b 21 00 80 29 42 00 80 c4 43 00 00
       -2.2652e-41 -1.1943e-41 -2.3734e-41 2.431e-41
000160 4f 3b 00 80 25 66 00 80 af 36 00 80 75 1f 00 80
       -2.1276e-41 -3.6643e-41 -1.9617e-41 -1.1285e-41
000170 48 4f 00 00 f8 4c 00 80 ed 41 00 00 ce 3b 00 00
       2.8441e-41 -2.7611e-41 2.365e-41 2.1454e-41
000180 a5 4d 00 80 a3 3c 00 00 a8 80 00 80 6d 44 00 00
       -2.7854e-41 2.1752e-41 -4.6153e-41 2.4547e-41
000190 0f 41 00 80 5e 77 00 00 63 45 00 80 85 4b 00 80
       -2.3339e-41 4.2821e-41 -2.4891e-41 -2.7091e-41
0001a0 ff 48 00 80 d9 7d 00 00 ec 1a 00 80 ab 13 00 80
       -2.6186e-41 4.5146e-41 -9.658e-42 -7.056e-42
0001b0 98 02 00 00 d5 2c 00 00 00 7b 00 00 0d 45 00 00
       9.3e-43 1.6083e-41 4.4124e-41 2.4771e-41
0001c0 fa 4b 00 00 5f 41 00 00 f1 4d 00 00 05 3f 00 00
       2.7255e-41 2.3451e-41 2.796e-41 2.2607e-41
0001d0 f2 48 00 00 3b 90 00 80 35 81 00 80 d5 3b 00 80
       2.6168e-41 -5.174e-41 -4.6351e-41 -2.1464e-41
0001e0 d5 4c 00 00 15 5e 00 80 37 37 00 80 cd 61 00 00
       2.7562e-41 -3.375e-41 -1.9807e-41 3.5084e-41
0001f0 df 49 00 00 8c 12 00 80 09 60 00 80 93 9c 00 80
       2.65e-41 -6.653e-42 -3.4451e-41 -5.6168e-41
000200 7c 41 00 80 3b 90 00 00 d3 a5 00 00 35 3a 00 00
       -2.3491e-41 5.174e-41 5.9487e-41 2.0881e-41
000210 35 81 00 00 50 3e 00 80 d5 2c 00 80 03 2d 00 80
       4.6351e-41 -2.2354e-41 -1.6083e-41 -1.6147e-41
000220 cd 18 00 80 22 09 00 80 ed 41 00 00 6e 79 00 00
       -8.897e-42 -3.276e-42 2.365e-41 4.3561e-41
000230 7e 1d 00 80 49 99 00 80 46 3a 00 80 4c 44 00 80
       -1.058e-41 -5.4988e-41 -2.0905e-41 -2.45e-41
000240 c8 3a 00 80 1f 1f 00 00 2d 01 00 80 e9 54 00 80
       -2.1087e-41 1.1164e-41 -4.22e-43 -3.046e-41
000250 f4 6d 00 00 7a 48 00 80 e7 26 00 80 25 3f 00 80
       3.9444e-41 -2.6e-41 -1.3956e-41 -2.2652e-41
000260 5f b0 00 00 29 42 00 80 c4 43 00 00 a2 1a 00 00
       6.327e-41 -2.3734e-41 2.431e-41 9.554e-42
000270 dc 62 00 00 af 36 00 80 3b 90 00 00 48 4f 00 00
       3.5464e-41 -1.9617e-41 5.174e-41 2.8441e-41
000280 dc 44 00 00 ed 41 00 00 7d 51 00 00 a5 4d 00 80
       2.4702e-41 2.365e-41 2.9232e-41 -2.7854e-41
000290 a3 3c 00 00 a8 80 00 80 6d 44 00 00 de 30 00 80
       2.1752e-41 -4.6153e-41 2.4547e-41 -1.753e-41
0002a0 df ac 00 80 63 45 00 80 85 4b 00 80 4d 50 00 00
       -6.2014e-41 -2.4891e-41 -2.7091e-41 2.8806e-41
0002b0 bc 91 00 80 fd 1d 00 00 83 64 00 80 71 54 00 00
       -5.228e-41 1.0758e-41 -3.6057e-41 3.0292e-41
0002c0 d5 2c 00 00 2a b2 00 00 0d 45 00 00 fa 4b 00 00
       1.6083e-41 6.3913e-41 2.4771e-41 2.7255e-41
0002d0 5f 41 00 00 e2 31 00 00 05 3f 00 00 f2 48 00 00
       2.3451e-41 1.7895e-41 2.2607e-41 2.6168e-41
0002e0 3b 90 00 80 35 81 00 80 d5 3b 00 80 ee 35 00 80
       -5.174e-41 -4.6351e-41 -2.1464e-41 -1.9346e-41
0002f0 15 5e 00 80 37 37 00 80 87 37 00 80 a1 6c 00 80
       -3.375e-41 -1.9807e-41 -1.992e-41 -3.8969e-41
000300 d8 3a 00 00 09 60 00 80 93 9c 00 80 7c 41 00 80
       2.1109e-41 -3.4451e-41 -5.6168e-41 -2.3491e-41
000310 3b 90 00 00 5d 2f 00 00 85 4c 00 00 35 81 00 00
       5.174e-41 1.6991e-41 2.745e-41 4.6351e-41
000320 62 5b 00 00 d5 2c 00 80 03 2d 00 80 cd 18 00 80
       3.2782e-41 -1.6083e-41 -1.6147e-41 -8.897e-42
000330 5c 66 00 00 ed 41 00 00 24 50 00 80 7e 1d 00 80
       3.672e-41 2.365e-41 -2.8749e-41 -1.058e-41
000340 49 99 00 80 35 b3 00 00 05 00 00 00 c8 3a 00 80
       -5.4988e-41 6.4287e-41 7e-45 -2.1087e-41
000350 1f 1f 00 00 2e 02 00 80 c0 1c 00 80 f4 6d 00 00
       1.1164e-41 -7.82e-43 -1.0314e-41 3.9444e-41
000360 7a 48 00 80 e7 26 00 80 25 3f 00 80 5f b0 00 00
       -2.6e-41 -1.3956e-41 -2.2652e-41 6.327e-41
000370 29 42 00 80 c4 43 00 00 53 8e 00 80 dc 62 00 00
       -2.3734e-41 2.431e-41 -5.1056e-41 3.5464e-41
000380 af 36 00 80 97 7a 00 00 48 4f 00 00 7d 37 00 80
       -1.9617e-41 4.3977e-41 2.8441e-41 -1.9905e-41
000390 ed 41 00 00 7d 51 00 00 a5 4d 00 80 a4 2c 00 00
       2.365e-41 2.9232e-41 -2.7854e-41 1.6014e-41
0003a0 a8 80 00 80 6d 44 00 00 0f 41 00 80 5e 77 00 00
       -4.6153e-41 2.4547e-41 -2.3339e-41 4.2821e-41
0003b0 63 45 00 80 85 4b 00 80 4d 50 00 00 cc 51 00 00
       -2.4891e-41 -2.7091e-41 2.8806e-41 2.9343e-41
0003c0 05 46 00 00 20 18 00 80 4e 8e 00 80 d5 2c 00 00
       2.5118e-41 -8.654e-42 -5.105e-41 1.6083e-41
0003d0 2a b2 00 00 0d 45 00 00 fa 4b 00 00 26 29 00 00
       6.3913e-41 2.4771e-41 2.7255e-41 1.4761e-41
0003e0 f2 94 00 80 05 3f 00 00 f2 48 00 00 3b 90 00 80
       -5.3432e-41 2.2607e-41 2.6168e-41 -5.174e-41
0003f0 35 81 00 80 d5 3b 00 80 d5 4c 00 00 15 5e 00 80
       -4.6351e-41 -2.1464e-41 2.7562e-41 -3.375e-41
