inference/SyGuS/model_checkpoints/SyGuS_model_7.pt (torch, 502627 bytes, 21 tensors)

gats.0.att f4 [1, 5, 67]
00000000: 0de7 d3b7 3dec 3535 fbf5 9c35 8d43 0080
00000010: 6f66 cbb6 1a2d 4b33 df23 0000 31a4 7c38
00000020: e9c1 9424 8d46 4735 715a 9a35 a976 a9b7
00000030: 73ad c0b8 069f 0000 eb33 022e 5f36 9cb6
00000040: 888b c728 5433 c6b5 2c78 33b4 11e6 b9a7
00000050: 01af 9137 ea6b 3629 ad8f d0b7 9b8b 0000
00000060: aa79 3f37 366b 1399 9dac 0080 dd9d dfb8
00000070: 86a6 49b9 638e 88b4 1948 af34 e45f 1dbb
00000080: 1bda 41b5 1ac9 10b8 acf0 ccb2 23f5 2b33
00000090: 4c02 0080 46c4 b2b5 2efb 1e33 20ba a5b7
000000a0: b12b 9131 5540 0000 e830 7db7 60b8 15b4
000000b0: 312a ac31 dc07 5331 fe0d 4ca9 e102 51b9
000000c0: 3823 0080 f1b5 5f32 0126 afb6 c1ab c633
000000d0: 441e aa31 0d38 0080 866d abb7 04b1 4535
000000e0: 4318 9137 5f31 52ac 0faf 5137 ef39 f5b7
000000f0: d1a4 3f31 ba58 4137 7e09 1338 62f0 19b7
00000100: d437 7db6 6d57 e88a ae53 4437 65dc d3b7
00000110: 52e2 3535 3bd4 9c35 b642 0080 2c61 cbb6
00000120: 31eb 4a33 e35c 0080 a40b 7d38 1bcf 9aa2
00000130: 62af 4635 265a 9a35 cf89 a9b7 de9f c0b8
00000140: 339c 0000 1184 012e 913b 9cb6 a54a a7a7
00000150: 7e72 c7b5 7195 33b4 a9ce 47a7 8997 9137
00000160: fdea bba8 23c7 d0b7 8a89 0000 e97f 3f37
00000170: 7906 1399 a6aa 0080 f5bf e3b8 b7b3 49b9
00000180: 05b3 88b4 5d44 af34 1302 1ebb a7e9 3db5
00000190: ac55 13b8 160b ccb2 cc5b 2a33 3905 0080
000001a0: f051 b2b5 45f7 1e33 24b9 a5b7 2075 8b31
000001b0: bb80 0000 b319 7db7 f4d0 15b4 d123 ac31
000001c0: 0a01 4131 a74b 44a9 b15e 55b9 7c16 0080
000001d0: 7b83 5f32 ee24 afb6 7b91 c433 21cc a931
000001e0: c334 0080 8b69 abb7 c994 4535 6906 9137
000001f0: fe01 59ac fb31 5737 ae36 f5b7 f196 3f31
00000200: c8a9 4137 c42e 1438 5281 17b7 36ee 7db6
00000210: 3675 e88a ae6e 4437 14e6 d3b7 f6c6 3535
00000220: 2119 9d35 1942 0080 66c1 ccb6 ffcb 4a33
00000230: 0f62 0000 32df 7c38 de74 e4a3 0fc7 4735
00000240: 5133 9a35 0687 a9b7 0ca5 c0b8 ea9f 0000
00000250: 08aa 002e 955a 9db6 f58e 0ba9 a1dd c2b5
00000260: 5a7a 33b4 a873 2b27 f07d 9137 d514 b5a9
00000270: a157 d0b7 fd88 0000 a4c3 3f37 3a6b 1299
00000280: b9a8 0080 9bd6 e2b8 245a 4bb9 6192 88b4
00000290: 6216 af34 a346 1dbb 1e32 43b5 2f50 12b8
000002a0: 2679 cbb2 95c7 2a33 a401 0080 3d8f b2b5
000002b0: 3ed5 1e33 21c4 a5b7 aeda 8c31 fb33 0000
000002c0: 9318 7db7 d2c6 15b4 c1e8 ab31 2b73 5731
000002d0: 0486 46a9 f1ca 52b9 231b 0080 e47f 5f32
000002e0: 74d8 aeb6 fbc4 c433 5ba2 a931 b436 0080
000002f0: 3173 abb7 4c5e 4535 d02c 9137 a6bc 66ac
00000300: cf42 5937 de04 f5b7 eb58 3f31 69c9 4037
00000310: 3bdc 0e38 2dbe 17b7 014d 7fb6 d037 e88a
00000320: eb60 4437 7afb d3b7 80e0 3535 6411 9d35
00000330: b842 0080 9de9 ccb6 5d16 4b33 5d30 0080
00000340: f8b1 7c38 be25 3424 c6a5 4735 8b46 9a35
00000350: ef75 a9b7 7aa2 c0b8 f09f 0000 ed88 012e
00000360: 9300 9db6 f032 0527 aa84 c5b5 0170 33b4
00000370: 3052 3427 b584 9137 1573 01a8 df67 d0b7
00000380: e387 0000 85bf 3f37 0b95 1299 4ea8 0080
00000390: b67f e0b8 f42f 48b9 a891 88b4 2f34 af34
000003a0: f77a 1dbb dbb4 43b5 794f 0fb8 a55a ccb2
000003b0: 68db 2b33 7602 0080 caa9 b2b5 efec 1e33
000003c0: c6be a5b7 a651 9131 5633 0080 4b14 7db7
000003d0: dda9 15b4 a60e ac31 77bb 5231 3d76 36a9
000003e0: 6111 4cb9 951c 0080 88bf 5f32 45fa aeb6
000003f0: 9148 c633 90fc a931 0a38 0080 767b abb7
-2.5260751e-05 6.7771526e-07 1.1694495e-06 -2.4233e-41 -6.0617963e-06 4.730564e-08 1.2868e-41 6.0234397e-05
6.4513265e-17 7.423594e-07 1.1500216e-06 -2.0201625e-05 -9.187581e-05 5.7047e-41 2.960469e-11 -4.655492e-06
2.215395e-14 -1.4767088e-06 -1.6714392e-07 -5.1597253e-15 1.736684e-05 4.050572e-14 -2.4862436e-05 5.0081e-41
1.1412814e-05 -7.621373e-24 -6.1922e-41 -0.00010662873 -0.00019230889 -2.5435574e-07 3.2648748e-07 -0.0024013454
-7.221549e-07 -3.4519566e-05 -2.385817e-08 4.003699e-08 -8.24e-43 -1.3319157e-06 3.701569e-08 -1.9756204e-05
4.2250226e-09 2.3078e-41 -1.5091362e-05 -1.3943782e-07 5.0106554e-09 3.0709009e-09 -4.5309236e-14 -0.00019932866
-1.2634e-41 1.3021677e-08 -5.2198307e-06 9.251335e-08 4.951092e-09 -2.0107e-41 -2.043579e-05 7.364581e-07
1.7296645e-05 -2.9870201e-12 1.249813e-05 -2.9233253e-05 2.7887845e-09 1.1524355e-05 3.505637e-05 -9.175479e-06
-3.7732434e-06 -2.2373673e-32 1.1701994e-05 -2.525579e-05 6.7757094e-07 1.1684673e-06 -2.3931e-41 -6.0611837e-06
4.7245695e-08 -3.3321e-41 6.033074e-05 -4.1961065e-18 7.4015963e-07 1.1500131e-06 -2.0210542e-05 -9.185051e-05
5.6034e-41 2.9448503e-11 -4.6560967e-06 -4.643274e-15 -1.4859977e-06 -1.672504e-07 -2.7728828e-15 1.7355911e-05
-2.086308e-14 -2.4888262e-05 4.934e-41 1.1414269e-05 -7.601029e-24 -6.1217e-41 -0.00010859958 -0.00019235803
-2.5462228e-07 3.264603e-07 -0.0024110123 -7.0747996e-07 -3.512732e-05 -2.3753767e-08 3.9664698e-08 -1.874e-42
-1.328588e-06 3.7012132e-08 -1.9755746e-05 4.058748e-09 4.618e-41 -1.5085959e-05 -1.3952723e-07 5.0099307e-09
2.8085787e-09 -4.358636e-14 -0.00020348538 -8.066e-42 1.3010204e-08 -5.2197056e-06 9.153424e-08 4.941754e-09
-1.8927e-41 -2.0433936e-05 7.360473e-07 1.7288332e-05 -3.083866e-12 1.2826636e-05 -2.9231738e-05 2.7879958e-09
1.1543227e-05 3.5329504e-05 -9.030411e-06 -3.7838595e-06 -2.2384877e-32 1.170828e-05 -2.5260299e-05 6.771728e-07
1.1704725e-06 -2.3711e-41 -6.1021883e-06 4.7217323e-08 3.5177e-41 6.028935e-05 -2.4769305e-17 7.4422945e-07
1.1488829e-06 -2.0209245e-05 -9.186016e-05 5.7366e-41 2.925485e-11 -4.6895098e-06 -3.0988196e-14 -1.4518629e-06
-1.6715185e-07 2.3793715e-15 1.7343991e-05 -8.0416285e-14 -2.4836338e-05 4.9142e-41 1.1430038e-05 -7.569677e-24
-6.0526e-41 -0.00010816493 -0.00019393169 -2.543848e-07 3.2612576e-07 -0.0023998402 -7.271609e-07 -3.488379e-05
-2.3687402e-08 3.9762728e-08 -5.89e-43 -1.3303721e-06 3.6981184e-08 -1.9760862e-05 4.0993973e-09 1.8647e-41
-1.5085697e-05 -1.3949037e-07 5.003216e-09 3.1352083e-09 -4.4081072e-14 -0.00020102762 -9.735e-42 1.3009387e-08
-5.2108026e-06 9.162792e-08 4.937005e-09 -1.9624e-41 -2.0438429e-05 7.352544e-07 1.7306214e-05 -3.2789687e-12
1.2949763e-05 -2.9208542e-05 2.7844702e-09 1.1490986e-05 3.4060544e-05 -9.04458e-06 -3.8042783e-06 -2.2361782e-32
1.1705076e-05 -2.5270263e-05 6.7754445e-07 1.1702473e-06 -2.3934e-41 -6.10687e-06 4.728496e-08 -1.735e-41
6.024723e-05 3.9063247e-17 7.437451e-07 1.1494425e-06 -2.0201287e-05 -9.185537e-05 5.7375e-41 2.945282e-11
-4.6790315e-06 1.848507e-15 -1.4716254e-06 -1.6711421e-07 2.5024572e-15 1.7347144e-05 -7.185893e-15 -2.4843901e-05
4.8747e-41 1.1429079e-05 -7.578122e-24 -6.0376e-41 -0.0001070494 -0.0001909135 -2.5437953e-07 3.263426e-07
-0.0024029592 -7.290634e-07 -3.416787e-05 -2.3789946e-08 4.001359e-08 -8.83e-43 -1.3311449e-06 3.700273e-08
-1.9758369e-05 4.2293378e-09 -1.8416e-41 -1.50847e-05 -1.3938502e-07 5.007524e-09 3.0665583e-09 -4.0514673e-14
-0.0001946143 -1.0253e-41 1.30238575e-08 -5.2147393e-06 9.233293e-08 4.9472604e-09 -2.0103e-41 -2.044228e-05

gats.0.bias f4 [67]
00000000: e64e 0e39 8c38 24b7 d88e a5b7 4285 e9b6
00000010: f685 b239 c230 80b7 8d0c 0000 4e0d c239
00000020: 9751 68b8 44cd a5b7 5c96 8337 a4a9 1e39
00000030: bd01 cdba 6867 42b8 0529 3fb6 798c 9d39
00000040: f95c bcb5 b6bf a339 49dc 6eb8 7e01 28b6
00000050: 20b1 0439 5bb8 10b8 a641 8239 a5b7 63b8
00000060: e564 4038 13b7 c5b5 7f1f 55b8 cf1b aebb
00000070: 34b6 07bd cfa8 39b7 565d 6037 d8a9 93bd
00000080: 9562 8e38 f261 e637 0c2e ceb7 f562 f6b7
00000090: c34e 0000 0c19 43bb 933d ecb6 a22c 2239
000000a0: 26cc 2537 5134 0000 c494 0438 2b3b 3db7
000000b0: adf7 d2b7 76f9 ccb6 8385 7ab7 a785 813b
000000c0: cf58 49b7 16ef 2e37 8894 0db8 c622 e2b7
000000d0: de85 32b7 032f 05b7 83e8 023a bd78 65b6
000000e0: f1de 233a e6b3 50b7 e841 893c 64b2 8639
000000f0: 1457 22b7 90fe df39 6289 773b 2425 7a3b
00000100: 6ce9 603a 4d2d 94b7 828f 83b6
0.00013571567 -9.788328e-06 -1.973605e-05 -6.9594544e-06 0.00034050614 -1.5281494e-05 4.502e-42 0.00037012476
-5.5389097e-05 -1.9765117e-05 1.5686433e-05 0.0001513125 -0.0015640777 -4.634951e-05 -2.8485094e-06 0.00030050034
-1.403415e-06 0.00031232618 -5.694878e-05 -2.503482e-06 0.00012654485 -3.450397e-05 0.00024844444 -5.429205e-05
4.5870333e-05 -1.4730925e-06 -5.081249e-05 -0.0053133736 -0.033132747 -1.1066163e-05 1.3373172e-05 -0.072101295
6.78945e-05 2.7463746e-05 -2.4578556e-05 -2.9371566e-05 2.8254e-41 -0.0029769568 -7.0405163e-06 0.00015466151
9.882298e-06 1.8768e-41 3.16098e-05 -1.1279054e-05 -2.5149284e-05 -6.108715e-06 -1.4932247e-05 0.0039527
-1.2001211e-05 1.0426875e-05 -3.375535e-05 -2.6957492e-05 -1.0640795e-05 -7.9383635e-06 0.00049937534 -3.4193938e-06
0.00062511774 -1.2439652e-05 0.01675506 0.00025691383 -9.676227e-06 0.00042723538 0.0037771096 0.003816911
0.00085797044 -1.766407e-05 -3.9208107e-06

gats.0.lin_l.weight f4 [335, 67]
00000000: 8a4d 2638 f2d1 4239 c246 dc37 6f79 0439
00000010: 9f5b 8f39 1ca9 2a39 7569 5e35 6273 3638
00000020: 7a55 0000 7713 0080 926f a3b8 805f cab8
00000030: 0b25 0000 e699 f6b8 a74e 0080 c170 e0b6
00000040: adf9 efb9 3a14 32b1 9add 3b39 e2e7 5e38
00000050: 6b4e 0000 ab4d 0080 9a3e 0080 b96e 0000
00000060: 4922 0080 785c 0080 bb5c 0000 914c 0080
00000070: ac43 0000 b74b 0080 9d0e 0000 0f47 0000
00000080: 4e2e 0080 c8a0 0080 6c38 0080 4330 0000
00000090: d726 0000 1643 0080 4c4c 0000 a005 0000
000000a0: 7452 0080 b240 0080 0323 0000 c519 0000
000000b0: 5849 0080 de48 0000 ac06 0000 e73b 0000
000000c0: ec05 0000 dd4e 0000 2648 0000 ad45 0080
000000d0: ad4e 0000 e34d 0080 e741 0000 4128 0000
000000e0: a84e 0080 bf5b 0080 5627 0000 3b45 0000
000000f0: ff41 0000 245e 0080 5f0a 0000 d35f 0000
00000100: a442 0080 702e 0000 49f4 1238 9d72 0080
00000110: 1046 0000 d104 8ab6 8613 2cb6 23c1 b7b6
00000120: 83aa 0000 d05f 0180 55bf bbb6 168c 0080
00000130: 9e25 0000 dcff 4437 9811 86b6 9150 0000
00000140: ea47 30b4 cf4b 0080 d042 38b5 1f62 c6b6
00000150: b84b 0000 f6bf 80b7 5180 7e35 c945 0080
00000160: 898d 0080 5c2c 0080 a278 0080 fc4c 0080
00000170: 7751 0080 913e 0000 a34f 0080 ae5b 0080
00000180: 6e13 0000 db4b 0000 9605 0000 9f07 0080
00000190: 4f50 0000 e249 0080 2946 0000 862c 0000
000001a0: 8244 0000 4644 0000 8002 0080 3512 0080
000001b0: 5e4e 0000 3253 0080 4b1c 0080 904c 0080
000001c0: a572 0080 9d4d 0080 b942 0000 669c 0080
000001d0: f44b 0080 b651 0000 7d12 0000 374c 0000
000001e0: b929 0080 561e 0000 d646 0000 f734 0000
000001f0: ca4a 0080 6d41 0080 584e 0080 0c8b 0000
00000200: 5e6e 0000 353d 0000 698e 0080 5608 0080
00000210: bb90 0080 760f 54a5 78b8 b1b6 49a6 beb5
00000220: d803 9cb7 4a18 8bb7 f092 08b8 13f0 0ab7
00000230: d05f 0180 627c bb37 7458 0000 9e29 0000
00000240: 8a59 a635 97d2 1c37 2550 0000 d9b5 acb6
00000250: b94a 0080 a8cf 5cb7 d6b1 1b37 d973 f831
00000260: 8ced 04b8 1376 7cb7 2433 0000 c350 0000
00000270: 7125 0080 7d53 0000 531b 0080 a448 0080
00000280: fe46 0080 dd77 0000 3363 0080 2e4e 0080
00000290: 3e3a 0080 c42c 0000 ad41 0000 974e 0000
000002a0: f84f 0080 b042 0000 9e45 0080 d226 0000
000002b0: af24 0080 9b07 0000 6d09 0080 3540 0000
000002c0: f94c 0000 306c 0000 7f4f 0000 a846 0080
000002d0: af06 0080 e95c 0000 4a4d 0080 a966 0080
000002e0: 7d57 0000 d83d 0000 6b5b 0000 5a5f 0080
000002f0: 8e13 0080 dc64 0080 b749 0080 210a 0000
00000300: c14d 0000 1121 0080 cc8b 0000 1479 0000
00000310: 2541 0000 4f57 0000 ad4b 0000 0314 0080
00000320: 09b8 dfb6 ab5a 0000 b464 0080 641c 0000
00000330: a080 0080 fd86 0080 4f5e 0080 d05f 0180
00000340: bf92 0080 3b12 0000 b23f 0000 7a3e 6d83
00000350: 8a7e 0000 1150 0000 be6d 0000 b417 0000
00000360: c664 0000 6ba0 0080 b12c 0000 2c50 0000
00000370: 7322 0000 5f4e 0080 f44d 0080 d94a 0000
00000380: 474f 0000 e9b0 0080 864e 0000 ea3e 0000
00000390: b435 0000 9e76 0000 3e8c 0080 1d07 0000
000003a0: e835 0000 8b0a 0000 279e 0080 0117 0000
000003b0: ba32 0080 55a6 0000 0b4d 0080 d36a 0000
000003c0: d33c 0080 776f 0000 7213 0000 a45e 0080
000003d0: 7c4f 0000 3150 0080 5450 0080 2b17 0080
000003e0: cf40 0000 4e3d 0000 4056 0000 0f6d 0080
000003f0: 2262 0080 6e82 0080 415e 0080 d010 0000
3.9649698e-05 0.00018579492 2.6258993e-05 0.00012633739 0.00027343348 0.00016275462 8.2854905e-07 4.349964e-05
3.0663e-41 -6.983e-42 -7.793227e-05 -9.649899e-05 1.3289e-41 -0.0001175886 -2.8215e-41 -6.6888465e-06
-0.00045771655 -2.5913907e-09 0.00017916263 5.3144882e-05 2.8131e-41 -2.7862e-41 -2.2457e-41 3.972e-41
-1.2299e-41 -3.3172e-41 3.3265e-41 -2.7467e-41 2.4276e-41 -2.7161e-41 5.242e-42 2.5491e-41
-1.6611e-41 -5.7677e-41 -2.024e-41 1.7313e-41 1.3933e-41 -2.4066e-41 2.737e-41 2.018e-42
-2.9579e-41 -2.3208e-41 1.256e-41 9.244e-42 -2.6311e-41 2.614e-41 2.393e-42 2.1489e-41
2.124e-42 2.8291e-41 2.5882e-41 -2.4995e-41 2.8224e-41 -2.794e-41 2.3641e-41 1.444e-41
-2.8217e-41 -3.2912e-41 1.4111e-41 2.4835e-41 2.3675e-41 -3.3771e-41 3.72e-42 3.4375e-41
-2.3906e-41 1.6659e-41 3.503662e-05 -4.1115e-41 2.5134e-41 -4.113281e-06 -2.5641361e-06 -5.476309e-06
6.1168e-41 -1.26207e-40 -5.5953083e-06 -5.0253e-41 1.3495e-41 1.1742082e-05 -3.9955594e-06 2.8902e-41
-1.641744e-07 -2.7195e-41 -6.8642566e-07 -5.9122826e-06 2.7163e-41 -1.5348178e-05 9.48091e-07 -2.5034e-41
-5.0773e-41 -1.5913e-41 -4.3275e-41 -2.7617e-41 -2.9224e-41 2.2445e-41 -2.8568e-41 -3.2888e-41
6.97e-42 2.7212e-41 2.004e-42 -2.734e-42 2.8809e-41 -2.6504e-41 2.5169e-41 1.5972e-41
2.4576e-41 2.4492e-41 -8.97e-43 -6.531e-42 2.8113e-41 -2.9845e-41 -1.015e-41 -2.7465e-41
-4.1127e-41 -2.7842e-41 2.3936e-41 -5.6105e-41 -2.7247e-41 2.9312e-41 6.632e-42 2.7341e-41
-1.4967e-41 1.0882e-41 2.5411e-41 1.9e-41 -2.6829e-41 -2.347e-41 -2.8104e-41 4.988e-41
3.9592e-41 2.1957e-41 -5.1087e-41 -2.99e-42 -5.192e-41 -1.8393307e-16 -5.296486e-06 -1.4204498e-06
-1.8598439e-05 -1.6581402e-05 -3.2561773e-05 -8.281338e-06 -1.26207e-40 2.2350057e-05 3.1731e-41 1.493e-41
1.2394023e-06 9.347356e-06 2.875e-41 -5.1471693e-06 -2.6805e-41 -1.3161371e-05 9.280126e-06 7.2309203e-09
-3.1692485e-05 -1.5047862e-05 1.8346e-41 2.8972e-41 -1.3431e-41 2.995e-41 -9.802e-42 -2.6059e-41
-2.5467e-41 4.2999e-41 -3.5586e-41 -2.8046e-41 -2.0893e-41 1.6059e-41 2.356e-41 2.8193e-41
-2.8687e-41 2.3923e-41 -2.4974e-41 1.3926e-41 -1.316e-41 2.728e-42 -3.381e-42 2.3033e-41
2.7613e-41 3.881e-41 2.8518e-41 -2.5347e-41 -2.398e-42 3.333e-41 -2.7726e-41 -3.6828e-41
3.1385e-41 2.2185e-41 3.2795e-41 -3.4206e-41 -7.015e-42 -3.6182e-41 -2.6444e-41 3.634e-42
2.7893e-41 -1.1862e-41 5.015e-41 4.3435e-41 2.337e-41 3.132e-41 2.7147e-41 -7.179e-42
-6.6673424e-06 3.2526e-41 -3.6125e-41 1.0185e-41 -4.6142e-41 -4.8425e-41 -3.3832e-41 -1.26207e-40
-5.2643e-41 6.54e-42 2.285e-41 -6.971976e-37 4.5394e-41 2.8722e-41 3.9368e-41 8.503e-42
3.615e-41 -5.7547e-41 1.6032e-41 2.876e-41 1.2358e-41 -2.8114e-41 -2.7964e-41 2.685e-41
2.844e-41 -6.3463e-41 2.8169e-41 2.257e-41 1.9265e-41 4.2552e-41 -5.031e-41 2.552e-42
1.9338e-41 3.782e-42 -5.6734e-41 8.252e-42 -1.8197e-41 5.9669e-41 -2.7638e-41 3.8321e-41
-2.182e-41 3.9986e-41 6.976e-42 -3.395e-41 2.8514e-41 -2.8767e-41 -2.8816e-41 -8.311e-42
2.3249e-41 2.1992e-41 3.094e-41 -3.9123e-41 -3.5203e-41 -4.679e-41 -3.3812e-41 6.031e-42

gats.0.lin_l.bias f4 [335]
00000000: a8e1 3a38 e6c5 79b7 af87 3934 af98 468a
00000010: 399c 8c38 c018 5fb7 fc1c 0000 d450 21ba
00000020: d7b3 4db2 bd76 5f36 7ecb 58b7 65cd a038
00000030: b4eb 8c3a bab7 3485 f534 cfb5 978f 65b9
00000040: b428 5eb4 04d2 ef39 8434 eab6 6519 d6b3
00000050: 2fdc 133a 76af 2db5 cf7d 153a 77df 3c85
00000060: c1f5 1f39 107d 95a6 fdf3 1c8a 86c3 123c
00000070: 6880 bb3c 94ea 6cb7 d6ee 8db7 b0fb a23d
00000080: 6828 dd37 e5a7 bd3b dc7f d935 42b8 9db7
00000090: cfa0 0000 1b8c b4b8 eebf c8b6 4a2b 8538
000000a0: 1d08 acb7 0606 0080 58d3 8d38 a743 42b7
000000b0: 7b5d cbb6 47b9 0eb7 9511 95b3 b591 ff3c
000000c0: 11a3 0000 a54c 79b7 3f51 fb36 71bb e3b7
000000d0: 8390 6cb5 39f4 0682 1b11 e639 2fa6 05b7
000000e0: 5235 003a 95f0 eeb5 a2fe 133b 194f f739
000000f0: 2701 b6b6 c6e9 a139 86d7 373c dfc5 003b
00000100: 831b 3b3a 14e2 2892 9a98 1ab7 c1d6 3a38
00000110: e6c5 79b7 af87 3934 af98 468a 4582 8c38
00000120: c018 5fb7 1c00 0000 3ab7 21ba d7b3 4db2
00000130: 4854 5f36 7ecb 58b7 5daf a038 1eed 8c3a
00000140: bab7 3485 f534 cfb5 43c0 65b9 b428 5eb4
00000150: 0ad1 ef39 8434 eab6 4219 d6b3 05b5 133a
00000160: 76af 2db5 4484 153a 77df 3c85 95f1 1f39
00000170: 107d 95a6 fdf3 1c8a 81d6 123c b367 bb3c
00000180: 56df 6cb7 d6ee 8db7 c318 a33d 6828 dd37
00000190: 6bd2 bd3b dc7f d935 42b8 9db7 cfa0 0000
000001a0: 688b b4b8 eebf c8b6 e329 8538 1d08 acb7
000001b0: 0606 0080 ebd0 8d38 a743 42b7 7b5d cbb6
000001c0: 76bf 0eb7 9511 95b3 c68e ff3c 11a3 0000
000001d0: a54c 79b7 3f51 fb36 71bb e3b7 8390 6cb5
000001e0: 39f4 0682 9c0f e639 2fa6 05b7 8535 003a
000001f0: 95f0 eeb5 b800 163b 414e f739 2701 b6b6
00000200: 5ace a139 59b3 373c 2994 003b e112 3b3a
00000210: 14e2 2892 9a98 1ab7 03e5 3a38 e6c5 79b7
00000220: af87 3934 af98 468a 3da8 8c38 c018 5fb7
00000230: fc1c 0000 9508 21ba d7b3 4db2 bd76 5f36
00000240: 7ecb 58b7 4a9e a038 bff2 8c3a bab7 3485
00000250: f534 cfb5 efb6 65b9 b428 5eb4 7cd1 ef39
00000260: 8434 eab6 4219 d6b3 1b75 133a 76af 2db5
00000270: 077b 153a 77df 3c85 f1f2 1f39 107d 95a6
00000280: fdf3 1c8a 2cac 123c 83c2 bb3c 56df 6cb7
00000290: d6ee 8db7 97e7 a23d 6828 dd37 a3bd bd3b
000002a0: dc7f d935 42b8 9db7 cfa0 0000 1b8c b4b8
000002b0: eebf c8b6 4a2b 8538 1d08 acb7 0606 0080
000002c0: 58d3 8d38 a743 42b7 7b5d cbb6 79b6 0eb7
000002d0: 9511 95b3 02fd fe3c 11a3 0000 a54c 79b7
000002e0: 3f51 fb36 71bb e3b7 8390 6cb5 39f4 0682
000002f0: 2010 e639 2fa6 05b7 4835 003a 95f0 eeb5
00000300: 2761 173b 3754 f739 2701 b6b6 efe1 a139
00000310: 2cf0 373c 8d8e 003b ec10 3b3a 14e2 2892
00000320: 9a98 1ab7 e4e6 3a38 e6c5 79b7 af87 3934
00000330: af98 468a 65ab 8c38 c018 5fb7 fc1c 0000
00000340: 1e10 21ba d7b3 4db2 bd76 5f36 7ecb 58b7
00000350: 7cbf a038 5af3 8c3a bab7 3485 f534 cfb5
00000360: a5bc 65b9 b428 5eb4 e9d1 ef39 8434 eab6
00000370: 3119 d6b3 1e6d 133a 76af 2db5 e479 153a
00000380: 77df 3c85 68f6 1f39 107d 95a6 fdf3 1c8a
00000390: 110b 133c 30de bb3c 56df 6cb7 d6ee 8db7
000003a0: bd3a a33d 6828 dd37 aedc bd3b dc7f d935
000003b0: 42b8 9db7 cfa0 0000 248c b4b8 eebf c8b6
000003c0: a92b 8538 1d08 acb7 0606 0080 58d3 8d38
000003d0: a743 42b7 7b5d cbb6 47b9 0eb7 9511 95b3
000003e0: 2a5e ff3c 11a3 0000 a54c 79b7 3f51 fb36
000003f0: 71bb e3b7 8390 6cb5 39f4 0682 8a10 e639
4.4556014e-05 -1.4887633e-05 1.7278829e-07 -9.56207e-33 6.704819e-05 -1.3297598e-05 1.0398e-41 -0.0006153707
-1.1973461e-08 3.3298704e-06 -1.29219825e-05 7.667652e-05 0.0010751397 -8.4973046e-36 -1.5438114e-06 -0.00021892633
-2.0690169e-07 0.00045742106 -6.979857e-06 -9.969771e-08 0.0005640415 -6.470285e-07 0.0005702646 -8.8807615e-36
0.00015254972 -1.037285e-15 -7.557016e-33 0.008957749 0.022888377 -1.4121313e-05 -1.6919726e-05 0.07958162
2.6364069e-05 0.005787837 1.6204972e-06 -1.880166e-05 5.7687e-41 -8.6091655e-05 -5.982808e-06 6.3499974e-05
-2.0507776e-05 -2.161e-42 6.76277e-05 -1.1579053e-05 -6.060754e-06 -8.506998e-06 -6.941551e-08 0.031197408
5.8497e-41 -1.4859402e-05 7.489841e-06 -2.7147793e-05 -8.8127143e-07 -9.914854e-38 0.00043881763 -7.96611e-06
0.0004890758 -1.78024e-06 0.0022582193 0.00047170444 -5.424157e-06 0.00030882488 0.011220818 0.001964919
0.00071375835 -5.3290116e-28 -9.214646e-06 4.454586e-05 -1.4887633e-05 1.7278829e-07 -9.56207e-33 6.699985e-05
-1.3297598e-05 3.9e-44 -0.00061689655 -1.1973461e-08 3.3278648e-06 -1.29219825e-05 7.6620585e-05 0.0010751819
-8.4973046e-36 -1.5438114e-06 -0.00021910765 -2.0690169e-07 0.0004574138 -6.979857e-06 -9.969746e-08 0.0005634579
-6.470285e-07 0.0005703608 -8.8807615e-36 0.00015253418 -1.037285e-15 -7.557016e-33 0.0089622745 0.022876596
-1.4118696e-05 -1.6919726e-05 0.07963707 2.6364069e-05 0.005792906 1.6204972e-06 -1.880166e-05 5.7687e-41
-8.609035e-05 -5.982808e-06 6.349736e-05 -2.0507776e-05 -2.161e-42 6.762318e-05 -1.1579053e-05 -6.060754e-06
-8.5084375e-06 -6.941551e-08 0.03119601 5.8497e-41 -1.4859402e-05 7.489841e-06 -2.7147793e-05 -8.8127143e-07
-9.914854e-38 0.00043880648 -7.96611e-06 0.00048907875 -1.78024e-06 0.0022888612 0.00047169815 -5.424157e-06
0.00030862057 0.011212193 0.001961956 0.0007136297 -5.3290116e-28 -9.214646e-06 4.455914e-05 -1.4887633e-05
1.7278829e-07 -9.56207e-33 6.707057e-05 -1.3297598e-05 1.0398e-41 -0.00061429414 -1.1973461e-08 3.3298704e-06
-1.29219825e-05 7.658878e-05 0.0010753496 -8.4973046e-36 -1.5438114e-06 -0.0002190729 -2.0690169e-07 0.0004574171
-6.979857e-06 -9.969746e-08 0.0005625055 -6.470285e-07 0.00057022314 -8.8807615e-36 0.00015253924 -1.037285e-15
-7.557016e-33 0.008952182 0.022919899 -1.4118696e-05 -1.6919726e-05 0.079543285 2.6364069e-05 0.0057904287
1.6204972e-06 -1.880166e-05 5.7687e-41 -8.6091655e-05 -5.982808e-06 6.3499974e-05 -2.0507776e-05 -2.161e-42
6.76277e-05 -1.1579053e-05 -6.060754e-06 -8.506345e-06 -6.941551e-08 0.031126503 5.8497e-41 -1.4859402e-05
7.489841e-06 -2.7147793e-05 -8.8127143e-07 -9.914854e-38 0.00043881033 -7.96611e-06 0.0004890752 -1.78024e-06
0.0023098679 0.00047174256 -5.424157e-06 0.00030876647 0.011226695 0.0019616217 0.00071360054 -5.3290116e-28
-9.214646e-06 4.456089e-05 -1.4887633e-05 1.7278829e-07 -9.56207e-33 6.707645e-05 -1.3297598e-05 1.0398e-41
-0.0006144064 -1.1973461e-08 3.3298704e-06 -1.29219825e-05 7.665061e-05 0.0010753677 -8.4973046e-36 -1.5438114e-06
-0.00021909417 -2.0690169e-07 0.00045742028 -6.979857e-06 -9.969734e-08 0.00056238647 -6.470285e-07 0.0005702062
-8.8807615e-36 0.00015255215 -1.037285e-15 -7.557016e-33 0.008974806 0.022933096 -1.4118696e-05 -1.6919726e-05
0.07970188 2.6364069e-05 0.0057941293 1.6204972e-06 -1.880166e-05 5.7687e-41 -8.609172e-05 -5.982808e-06
6.3500665e-05 -2.0507776e-05 -2.161e-42 6.76277e-05 -1.1579053e-05 -6.060754e-06 -8.506998e-06 -6.941551e-08
0.03117283 5.8497e-41 -1.4859402e-05 7.489841e-06 -2.7147793e-05 -8.8127143e-07 -9.914854e-38 0.0004388134

gats.0.lin_r.weight f4 [335, 67]
00000000: 7841 0080 a250 0080 fa05 0080 d08e 0000
00000010: 0837 0000 df4d 0000 8f5f 0080 e951 0080
00000020: ed3b 0000 1b86 0080 2678 0080 547b 0080
00000030: 4847 0080 824f 0080 9c49 0080 d52c 0000
00000040: fe84 0000 f9a0 0080 2783 0000 a045 0080
00000050: 8945 0080 a048 0080 7f4b 0000 ca56 0080
00000060: cc8f 0000 b54a 0000 492a 0000 9f4b 0080
00000070: 1147 0000 a15b 0080 874c 0000 224d 0000
00000080: fe6e 0080 233e 0080 fa43 0000 ff40 0080
00000090: 8c12 0080 1c4d 0000 201d 0080 ee4b 0080
000000a0: 7745 0000 611b 0000 694b 0000 7837 0080
000000b0: 3c9b 0000 2717 0080 0c21 0000 598a 0080
000000c0: 7e46 0080 c48e 0000 7772 0080 a836 0000
000000d0: 0282 0080 bf4e 0000 3b0e 0080 997e 0000
000000e0: aa41 0000 3091 0000 d206 0080 0993 0080
000000f0: f478 0080 ff5c 0000 ed4d 0000 8f4d 0080
00000100: f63d 0080 fd7c 0080 d23e 0000 0a3c 0000
00000110: 017f 0080 d594 0000 f0aa 0080 fb74 0000
00000120: 592d 0080 474e 0080 4684 0000 c82b 0080
00000130: e95e 0080 a195 0000 ab7a 0080 3552 0000
00000140: 1e5f 0080 0a4a 0080 b036 0000 da51 0080
00000150: 6e7b 0000 2321 0080 3c41 0080 4b64 0000
00000160: d944 0080 ff43 0080 cfab 0080 c34d 0000
00000170: f81a 0080 f305 0000 f207 0080 d53b 0000
00000180: d24c 0080 e34c 0000 a96b 0080 c324 0080
00000190: 4920 0080 4294 0000 2d21 0080 07a1 0000
000001a0: 2e46 0000 a642 0080 bc7d 0080 e58e 0000
000001b0: 2e70 0000 866f 0080 4a4d 0080 1b4f 0000
000001c0: be7c 0000 f32f 0000 ce60 0080 544d 0000
000001d0: 1b4d 0080 954e 0000 224d 0000 646b 0000
000001e0: 3407 0000 5d51 0000 c846 0080 1827 0080
000001f0: e199 0000 f708 0000 c74b 0000 5016 0000
00000200: 2c45 0000 7848 0080 1707 0080 2546 0080
00000210: 353d 0000 4b9f 0000 cc09 0080 af1b 0080
00000220: e172 0080 e041 0000 634e 0080 c84c 0080
00000230: 7d73 0000 0b46 0080 0b05 0000 e517 0080
00000240: 4f3c 0000 ba08 0000 ef36 0000 8c2f 0000
00000250: ad17 0000 d33d 0080 d52c 0000 f9a0 0080
00000260: 3a3a 0080 133a 0080 1392 0000 3d3f 0000
00000270: c319 0000 9130 0000 4724 0080 874b 0000
00000280: c940 0000 af49 0080 9022 0080 0c4c 0080
00000290: 6149 0000 a390 0080 174c 0080 0f29 0080
000002a0: 7377 0000 8d18 0000 894d 0000 f04f 0000
000002b0: bd3f 0080 a46f 0000 2f44 0080 4342 0000
000002c0: 5a1c 0000 dd4f 0080 198f 0000 de24 0080
000002d0: 244f 0000 033b 0000 4f3c 0000 ee0c 0080
000002e0: d751 0000 6a6d 0000 b64b 0080 413c 0080
000002f0: cb6a 0000 e03b 0080 6e50 0080 3c7b 0000
00000300: 2c46 0080 5444 0080 2e4e 0080 953d 0080
00000310: 7836 0000 c439 0080 6403 0000 af7b 0000
00000320: f56c 0000 9244 0080 f68c 0080 153f 0080
00000330: 3539 0080 71b2 0000 894c 0000 7930 0000
00000340: 9198 0000 8840 0000 3350 0080 77a1 0000
00000350: a471 0000 203e 0000 ad0f 0080 ae40 0000
00000360: d599 0080 cc39 0000 ab46 0000 ee49 0080
00000370: a360 0000 7f3a 0080 fb25 0080 7890 0080
00000380: b42c 0000 e23b 0000 c65f 0080 812c 0080
00000390: 1e4e 0000 4c72 0000 7c4c 0000 d34b 0080
000003a0: cd67 0000 a841 0080 5e30 0080 9206 0080
000003b0: b807 0080 2a04 0080 4150 0080 1b79 0000
000003c0: 2418 0080 2768 0080 4041 0000 0f46 0000
000003d0: 8827 0000 0844 0080 cd3e 0000 db11 0000
000003e0: 4f43 0080 7616 0000 ad13 0000 d791 0080
000003f0: f54c 0000 1942 0000 8049 0080 2f5f 0080
-2.3486e-41 -2.8926e-41 -2.144e-42 5.1231e-41 1.9741e-41 2.7935e-41 -3.428e-41 -2.9384e-41
2.1497e-41 -4.8108e-41 -4.3101e-41 -4.4242e-41 -2.5571e-41 -2.8522e-41 -2.6406e-41 1.6083e-41
4.7709e-41 -5.7746e-41 4.7049e-41 -2.4977e-41 -2.4945e-41 -2.6053e-41 2.7083e-41 -3.1134e-41
5.1585e-41 2.68e-41 1.5169e-41 -2.7128e-41 2.5494e-41 -3.287e-41 2.7453e-41 2.767e-41
-3.9816e-41 -2.229e-41 2.4385e-41 -2.3316e-41 -6.653e-42 2.7662e-41 -1.0448e-41 -2.7238e-41
2.4919e-41 9.822e-42 2.7052e-41 -1.9898e-41 5.5688e-41 -8.305e-42 1.1855e-41 -4.963e-41
-2.5288e-41 5.1215e-41 -4.1062e-41 1.9607e-41 -4.6638e-41 2.8249e-41 -5.105e-42 4.5415e-41
2.3556e-41 5.2083e-41 -2.447e-42 -5.2746e-41 -4.339e-41 3.3361e-41 2.7955e-41 -2.7823e-41
-2.2227e-41 -4.4837e-41 2.2536e-41 2.1538e-41 -4.556e-41 5.3391e-41 -6.1321e-41 4.1965e-41
-1.6268e-41 -2.808e-41 4.7451e-41 -1.5706e-41 -3.4047e-41 5.3677e-41 -4.4005e-41 2.949e-41
-3.4122e-41 -2.656e-41 1.9618e-41 -2.9363e-41 4.4278e-41 -1.1887e-41 -2.3402e-41 3.5978e-41
-2.4698e-41 -2.4392e-41 -6.1633e-41 2.7896e-41 -9.675e-42 2.134e-42 -2.85e-42 2.1464e-41
-2.7558e-41 2.7582e-41 -3.8621e-41 -1.3188e-41 -1.1582e-41 5.3185e-41 -1.1901e-41 5.7766e-41
2.5176e-41 -2.3909e-41 -4.5105e-41 5.1261e-41 4.0242e-41 -4.0007e-41 -2.7726e-41 2.8378e-41
4.4749e-41 1.7201e-41 -3.4727e-41 2.774e-41 -2.766e-41 2.819e-41 2.767e-41 3.8524e-41
2.584e-42 2.9188e-41 -2.5392e-41 -1.4024e-41 5.5201e-41 3.216e-42 2.7184e-41 8.004e-42
2.4814e-41 -2.5997e-41 -2.543e-42 -2.5163e-41 2.1957e-41 5.7144e-41 -3.514e-42 -9.931e-42
-4.1211e-41 2.3631e-41 -2.812e-41 -2.7544e-41 4.143e-41 -2.5127e-41 1.809e-42 -8.572e-42
2.1635e-41 3.13e-42 1.9706e-41 1.7057e-41 8.493e-42 -2.2178e-41 1.6083e-41 -5.7746e-41
-2.0888e-41 -2.0833e-41 5.2402e-41 2.2686e-41 9.242e-42 1.7422e-41 -1.3014e-41 2.7094e-41
2.324e-41 -2.6433e-41 -1.2399e-41 -2.728e-41 2.6323e-41 -5.1886e-41 -2.7296e-41 -1.4729e-41
4.285e-41 8.807e-42 2.7814e-41 2.8676e-41 -2.2865e-41 4.0049e-41 -2.446e-41 2.377e-41
1.017e-41 -2.865e-41 5.1334e-41 -1.3225e-41 2.839e-41 2.117e-41 2.1635e-41 -4.638e-42
2.9359e-41 3.925e-41 -2.716e-41 -2.1615e-41 3.831e-41 -2.1479e-41 -2.8853e-41 4.4208e-41
-2.5173e-41 -2.4512e-41 -2.8046e-41 -2.2091e-41 1.954e-41 -2.0722e-41 1.216e-42 4.437e-41
3.9086e-41 -2.4598e-41 -5.0567e-41 -2.263e-41 -2.0522e-41 6.4013e-41 2.7456e-41 1.7389e-41
5.473e-41 2.315e-41 -2.877e-41 5.7923e-41 4.0767e-41 2.2286e-41 -5.623e-42 2.3203e-41
-5.5185e-41 2.0734e-41 2.5351e-41 -2.6521e-41 3.4667e-41 -2.0984e-41 -1.3625e-41 -5.1826e-41
1.6036e-41 2.1482e-41 -3.4357e-41 -1.5965e-41 2.8023e-41 4.1002e-41 2.7437e-41 -2.72e-41
3.7237e-41 -2.3553e-41 -1.7351e-41 -2.357e-42 -2.769e-42 -1.494e-42 -2.879e-41 4.3444e-41
-8.66e-42 -3.7363e-41 2.3407e-41 2.5132e-41 1.4181e-41 -2.4405e-41 2.2529e-41 6.405e-42
-2.4146e-41 8.057e-42 7.058e-42 -5.2317e-41 2.7607e-41 2.3711e-41 -2.6367e-41 -3.4145e-41

gats.0.lin_r.bias f4 [335]
00000000: fa05 0080 1165 0000 2c20 0000 841c 0000
00000010: 2d10 0080 5829 0080 7fa7 0080 52cc 9799
00000020: fa8f 0080 ce68 0000 e451 0080 4a7b 0000
00000030: 53bb e835 8126 0000 dcb2 0080 659c 0000
00000040: d397 0080 1b11 0000 ed11 0000 614b 0000
00000050: 2d5b 0000 2e15 0000 a25f 0000 7f47 0080
00000060: b479 0000 b83f 0080 f495 0080 e504 93b5
00000070: 2cc3 48b7 dc8a 0080 8711 0000 6f99 5b39
00000080: 3374 0080 3b2d 0080 646a 0080 240a 0080
00000090: 32a7 0000 3a27 0080 b967 0080 6085 0080
000000a0: d64b 0080 6392 0000 ad3c 0080 ae1d 0000
000000b0: e746 0000 e529 0080 7c86 0080 32bc 94b7
000000c0: 413a 0000 fe2f 0000 3643 0000 9b3e 0080
000000d0: e442 0000 806e 0080 9742 0080 a11a 0000
000000e0: f715 0080 520c 0080 9084 0080 7352 0080
000000f0: 568c 0000 ee0a 0000 a182 0080 59a3 0080
00000100: 3507 0000 0936 0080 34af 0080 fa05 0080
00000110: 1165 0000 2c20 0000 841c 0000 2d10 0080
00000120: e030 0080 7fa7 0080 52cc 9799 fa8f 0080
00000130: ce68 0000 e451 0080 7b34 0080 7abb e835
00000140: 8126 0000 908e 0080 dba0 0000 4e48 0080
00000150: 1b11 0000 9c1c 0080 fd2b 0000 5951 0000
00000160: 2e15 0000 a25f 0000 7f47 0080 b479 0000
00000170: 844d 0080 f495 0080 b4db a7b6 18c3 48b7
00000180: dc8a 0080 8711 0000 d3ca 5739 3374 0080
00000190: a129 0080 646a 0080 920e 0080 32a7 0000
000001a0: 3a27 0080 b967 0080 3ca1 0000 2f41 0080
000001b0: 6392 0000 ad3c 0080 ae1d 0000 434a 0000
000001c0: e529 0080 f38a 0000 f759 9cb7 8354 0000
000001d0: fe2f 0000 3643 0000 9b3e 0080 e442 0000
000001e0: e54a 0000 9742 0080 410d 0000 f715 0080
000001f0: 520c 0080 6289 0080 9a6e 0000 568c 0000
00000200: da0a 0000 6b90 0080 78a3 0080 3507 0000
00000210: 0936 0080 34af 0080 fa05 0080 1165 0000
00000220: 2c20 0000 841c 0000 3110 0080 f91a 0080
00000230: 0b44 0080 52cc 9799 fa8f 0080 ce68 0000
00000240: e451 0080 7b34 0080 7abb e835 8126 0000
00000250: f63c 0080 619f 0000 486a 0000 ad1f 0000
00000260: ea58 0080 e53d 0000 4f47 0000 2e15 0000
00000270: a25f 0000 7f47 0080 b479 0000 fd8e 0080
00000280: f495 0080 35b2 78b6 a8e0 3bb7 dc8a 0080
00000290: 8711 0000 35c2 6539 3374 0080 de30 0080
000002a0: e121 0000 920e 0080 32a7 0000 3a27 0080
000002b0: b967 0080 77ac 0000 a30e 0080 6392 0000
000002c0: 6048 0080 ae1d 0000 15a2 0080 bf41 0000
000002d0: fe7c 0000 7db2 9cb7 413a 0000 c84c 0080
000002e0: cd4e 0000 9b3e 0080 e442 0000 d28f 0080
000002f0: 9742 0080 a11a 0000 f715 0080 520c 0080
00000300: 1693 0080 9a6e 0000 568c 0000 9103 0000
00000310: a294 0080 8ea6 0080 3507 0000 0936 0080
00000320: 34af 0080 fa05 0080 1165 0000 2c20 0000
00000330: 841c 0000 2d10 0080 e030 0080 7fa7 0080
00000340: 52cc 9799 fa8f 0080 ce68 0000 e451 0080
00000350: 7b34 0080 7abb e835 8126 0000 1765 0080
00000360: 619f 0000 486a 0000 1b11 0000 db7b 0000
00000370: fd2b 0000 9b5c 0000 2e15 0000 a25f 0000
00000380: 7f47 0080 b479 0000 df7c 0080 f495 0080
00000390: 5f42 93b5 faf9 51b7 dc8a 0080 8711 0000
000003a0: 1ee6 5b39 3374 0080 263d 0080 646a 0080
000003b0: fb48 0080 32a7 0000 3a27 0080 b967 0080
000003c0: 666d 0000 7a47 0080 6392 0000 ad3c 0080
000003d0: ae1d 0000 e746 0000 e529 0080 7c86 0080
000003e0: 22e0 86b7 413a 0000 2923 0080 3643 0000
000003f0: 9b3e 0080 e442 0000 7c2f 0080 9742 0080
-2.144e-42 3.6256e-41 1.1541e-41 1.023e-41 -5.803e-42 -1.4831e-41 -6.0086e-41 -1.5695558e-23
-5.1649e-41 3.7597e-41 -2.9377e-41 4.4228e-41 1.7339866e-06 1.3813e-41 -6.4163e-41 5.6104e-41
-5.4464e-41 6.136e-42 6.43e-42 2.7041e-41 3.2708e-41 7.598e-42 3.4307e-41 -2.5648e-41
4.3659e-41 -2.2858e-41 -5.3793e-41 -1.0953778e-06 -1.1966371e-05 -4.9813e-41 6.288e-42 0.00020942626
-4.1684e-41 -1.6226e-41 -3.8166e-41 -3.638e-42 5.9978e-41 -1.4072e-41 -3.7209e-41 -4.7846e-41
-2.7205e-41 5.2514e-41 -2.1766e-41 1.0647e-41 2.5435e-41 -1.5029e-41 -4.8244e-41 -1.773061e-05
2.0898e-41 1.7216e-41 2.4111e-41 -2.2459e-41 2.3996e-41 -3.964e-41 -2.3888e-41 9.553e-42
-7.88e-42 -4.42e-42 -4.7554e-41 -2.9577e-41 5.0343e-41 3.921e-42 -4.6861e-41 -5.8598e-41
2.585e-42 -1.9384e-41 -6.2851e-41 -2.144e-42 3.6256e-41 1.1541e-41 1.023e-41 -5.803e-42
-1.7533e-41 -6.0086e-41 -1.5695558e-23 -5.1649e-41 3.7597e-41 -2.9377e-41 -1.8826e-41 1.733991e-06
1.3813e-41 -5.1142e-41 5.7704e-41 -2.5938e-41 6.136e-42 -1.0263e-41 1.578e-41 2.9182e-41
7.598e-42 3.4307e-41 -2.5648e-41 4.3659e-41 -2.7807e-41 -5.3793e-41 -5.0025646e-06 -1.1966353e-05
-4.9813e-41 6.288e-42 0.00020579556 -4.1684e-41 -1.4934e-41 -3.8166e-41 -5.227e-42 5.9978e-41
-1.4072e-41 -3.7209e-41 5.784e-41 -2.3383e-41 5.2514e-41 -2.1766e-41 1.0647e-41 2.664e-41
-1.5029e-41 4.9846e-41 -1.8638542e-05 3.0317e-41 1.7216e-41 2.4111e-41 -2.2459e-41 2.3996e-41
2.6867e-41 -2.3888e-41 4.755e-42 -7.88e-42 -4.42e-42 -4.9284e-41 3.9676e-41 5.0343e-41
3.893e-42 -5.1807e-41 -5.8642e-41 2.585e-42 -1.9384e-41 -6.2851e-41 -2.144e-42 3.6256e-41
1.1541e-41 1.023e-41 -5.808e-42 -9.676e-42 -2.4409e-41 -1.5695558e-23 -5.1649e-41 3.7597e-41
-2.9377e-41 -1.8826e-41 1.733991e-06 1.3813e-41 -2.1869e-41 5.7174e-41 3.8127e-41 1.1363e-41
-3.1896e-41 2.2204e-41 2.5581e-41 7.598e-42 3.4307e-41 -2.5648e-41 4.3659e-41 -5.1295e-41
-5.3793e-41 -3.705861e-06 -1.1198375e-05 -4.9813e-41 6.288e-42 0.0002191149 -4.1684e-41 -1.753e-41
1.2153e-41 -5.227e-42 5.9978e-41 -1.4072e-41 -3.7209e-41 6.1869e-41 -5.25e-42 5.2514e-41
-2.5963e-41 1.0647e-41 -5.8144e-41 2.3585e-41 4.4839e-41 -1.8679764e-05 2.0898e-41 -2.7544e-41
2.8268e-41 -2.2459e-41 2.3996e-41 -5.1593e-41 -2.3888e-41 9.553e-42 -7.88e-42 -4.42e-42
-5.2764e-41 3.9676e-41 5.0343e-41 1.28e-42 -5.332e-41 -5.9749e-41 2.585e-42 -1.9384e-41
-6.2851e-41 -2.144e-42 3.6256e-41 1.1541e-41 1.023e-41 -5.803e-42 -1.7533e-41 -6.0086e-41
-1.5695558e-23 -5.1649e-41 3.7597e-41 -2.9377e-41 -1.8826e-41 1.733991e-06 1.3813e-41 -3.6264e-41
5.7174e-41 3.8127e-41 6.136e-42 4.4431e-41 1.578e-41 3.322e-41 7.598e-42 3.4307e-41
-2.5648e-41 4.3659e-41 -4.4795e-41 -5.3793e-41 -1.097167e-06 -1.2515573e-05 -4.9813e-41 6.288e-42
0.00020971193 -4.1684e-41 -2.1936e-41 -3.8166e-41 -2.618e-41 5.9978e-41 -1.4072e-41 -3.7209e-41
3.9245e-41 -2.5641e-41 5.2514e-41 -2.1766e-41 1.0647e-41 2.5435e-41 -1.5029e-41 -4.8244e-41
-1.6078415e-05 2.0898e-41 -1.2613e-41 2.4111e-41 -2.2459e-41 2.3996e-41 -1.7034e-41 -2.3888e-41

gats.0.lin_edge.weight f4 [335, 1]
00000000: fa05 0080 716b 0080 db06 0000 bf3f 0080
00000010: a24f 0080 129c 0000 ac5a 0080 3a6b 0000
00000020: f340 0000 d94f 0000 ab6a 0080 3b7d 0000
00000030: f1c8 eb35 9a3c 0000 ab4c 0000 87ac 0080
00000040: 25a5 0000 3e8e 0000 4f59 0080 4e8c 0000
00000050: 7252 0000 8321 0000 ef22 0000 cd45 0000
00000060: 5a19 0080 f938 0080 2179 0000 8ffb 69b5
00000070: 04bd a836 eb53 0080 d611 0080 72fe 2339
00000080: de68 0000 5b8c 0000 347e 0000 ba81 0080
00000090: 1e18 0080 7e0f 0000 5186 0000 d1a5 0000
000000a0: 9765 0080 5951 0080 e148 0080 123e 0080
000000b0: 1485 0000 f13f 0000 6e48 0080 8f21 2fb7
000000c0: 017f 0000 637c 0080 a045 0080 fb7d 0000
000000d0: e546 0000 0e68 0080 f19e 0000 9b4e 0080
000000e0: c080 0000 6308 0080 cb61 0000 3e11 0080
000000f0: 5289 0000 10a9 0080 a397 0080 51b0 0080
00000100: 9e84 0080 cc49 0080 4797 0080 fa05 0080
00000110: 716b 0080 db06 0000 bf3f 0080 a24f 0080
00000120: 129c 0000 ac5a 0080 3a6b 0000 f340 0000
00000130: d94f 0000 ab6a 0080 3b7d 0000 f1c8 eb35
00000140: e54d 0000 8829 0000 87ac 0080 f1b1 0000
00000150: 3e8e 0000 539b 0080 0797 0000 ab4f 0000
00000160: 8321 0000 ef22 0000 7183 0000 5a19 0080
00000170: 785c 0080 2179 0000 443f 94b6 c9bd a836
00000180: eb53 0080 d611 0080 be95 2239 de68 0000
00000190: e67b 0000 347e 0000 ba81 0080 1e18 0080
000001a0: 7e0f 0000 5186 0000 0a35 0000 244d 0000
000001b0: 5951 0080 e148 0080 123e 0080 1485 0000
000001c0: f13f 0000 1079 0080 7bed 3eb7 e18c 0000
000001d0: 637c 0080 a045 0080 fb7d 0000 e546 0000
000001e0: 5a83 0000 f19e 0000 1c34 0000 c080 0000
000001f0: 6308 0080 b463 0000 ef22 0000 5289 0000
00000200: 4dae 0080 2390 0080 709f 0080 9e84 0080
00000210: cc49 0080 4797 0080 fa05 0080 716b 0080
00000220: db06 0000 bf3f 0080 8440 0080 4f86 0000
00000230: be1e 0080 3a6b 0000 f340 0000 d94f 0000
00000240: ab6a 0080 3b7d 0000 f1c8 eb35 1d8b 0000
00000250: 2161 0000 87ac 0080 463c 0080 b88f 0000
00000260: c541 0000 0a88 0000 ab4f 0000 8321 0000
00000270: ef22 0000 2d05 0080 5a19 0080 f958 0000
00000280: 2179 0000 6c7f 51b6 7a9c 9f36 eb53 0080
00000290: d611 0080 3d0a 2a39 de68 0000 b67b 0000
000002a0: 5b02 0000 ba81 0080 1e18 0080 7e0f 0000
000002b0: 5186 0000 cd3d 0000 8240 0080 5951 0080
000002c0: e148 0080 123e 0080 1485 0000 f13f 0000
000002d0: 1079 0080 9aeb 40b7 017f 0000 637c 0080
000002e0: a045 0080 fb7d 0000 e546 0000 9e44 0000
000002f0: f19e 0000 9b4e 0080 c080 0000 6308 0080
00000300: 8360 0000 ef22 0000 5289 0000 aaa9 0080
00000310: 7f93 0080 709f 0080 9e84 0080 cc49 0080
00000320: 4797 0080 fa05 0080 716b 0080 db06 0000
00000330: bf3f 0080 ae4f 0080 129c 0000 ac5a 0080
00000340: 3a6b 0000 f340 0000 d94f 0000 ab6a 0080
00000350: 3b7d 0000 f1c8 eb35 7d85 0080 ed54 0000
00000360: 87ac 0080 463c 0080 3e8e 0000 185e 0080
00000370: 0a88 0000 b443 0000 8321 0000 ef22 0000
00000380: db49 0080 5a19 0080 9e43 0080 2179 0000
00000390: 58fb 69b5 e12c a136 eb53 0080 d611 0080
000003a0: a9d8 2339 de68 0000 378c 0000 347e 0000
000003b0: b04b 0080 1e18 0080 7e0f 0000 5186 0000
000003c0: d449 0000 6a0d 0000 5951 0080 e148 0080
000003d0: 123e 0080 1485 0000 f13f 0000 6e48 0080
000003e0: 13c9 23b7 017f 0000 637c 0080 a045 0080
000003f0: fb7d 0000 e546 0000 c8a8 0000 f19e 0000
-2.144e-42 -3.8543e-41 2.459e-42 -2.2868e-41 -2.8567e-41 5.5987e-41 -3.2527e-41 3.8466e-41
2.33e-41 2.8644e-41 -3.8265e-41 4.4924e-41 1.7567346e-06 2.174e-41 2.7503e-41 -6.1891e-41
5.9243e-41 5.1027e-41 -3.2038e-41 5.0332e-41 2.9576e-41 1.2022e-41 1.2532e-41 2.504e-41
-9.094e-42 -2.0438e-41 4.3453e-41 -8.716533e-07 5.0287945e-06 -3.0104e-41 -6.398e-42 0.0001563968
3.7619e-41 5.035e-41 4.5273e-41 -4.6537e-41 -8.652e-42 5.558e-42 4.8184e-41 5.9484e-41
-3.6444e-41 -2.9182e-41 -2.6144e-41 -2.2267e-41 4.774e-41 2.2938e-41 -2.5983e-41 -1.0438626e-05
4.556e-41 -4.4622e-41 -2.4977e-41 4.5193e-41 2.5432e-41 -3.7328e-41 5.7017e-41 -2.8198e-41
4.6187e-41 -3.009e-42 3.5082e-41 -6.185e-42 4.9261e-41 -6.0648e-41 -5.4397e-41 -6.325e-41
-4.7574e-41 -2.6473e-41 -5.4268e-41 -2.144e-42 -3.8543e-41 2.459e-42 -2.2868e-41 -2.8567e-41
5.5987e-41 -3.2527e-41 3.8466e-41 2.33e-41 2.8644e-41 -3.8265e-41 4.4924e-41 1.7567346e-06
2.7943e-41 1.4899e-41 -6.1891e-41 6.3833e-41 5.1027e-41 -5.572e-41 5.4178e-41 2.858e-41
1.2022e-41 1.2532e-41 4.7152e-41 -9.094e-42 -3.3172e-41 4.3453e-41 -4.418109e-06 5.028884e-06
-3.0104e-41 -6.398e-42 0.00015505307 3.7619e-41 4.4446e-41 4.5273e-41 -4.6537e-41 -8.652e-42
5.558e-42 4.8184e-41 1.9027e-41 2.7673e-41 -2.9182e-41 -2.6144e-41 -2.2267e-41 4.774e-41
2.2938e-41 -4.3429e-41 -1.1380175e-05 5.0538e-41 -4.4622e-41 -2.4977e-41 4.5193e-41 2.5432e-41
4.712e-41 5.7017e-41 1.8693e-41 4.6187e-41 -3.009e-42 3.5767e-41 1.2532e-41 4.9261e-41
-6.2527e-41 -5.1707e-41 -5.7195e-41 -4.7574e-41 -2.6473e-41 -5.4268e-41 -2.144e-42 -3.8543e-41
2.459e-42 -2.2868e-41 -2.3144e-41 4.8181e-41 -1.1028e-41 3.8466e-41 2.33e-41 2.8644e-41
-3.8265e-41 4.4924e-41 1.7567346e-06 4.9904e-41 3.4843e-41 -6.1891e-41 -2.1622e-41 5.1557e-41
2.3594e-41 4.8802e-41 2.858e-41 1.2022e-41 1.2532e-41 -1.857e-42 -9.094e-42 3.1917e-41
4.3453e-41 -3.1217596e-06 4.7567855e-06 -3.0104e-41 -6.398e-42 0.00016216277 3.7619e-41 4.4379e-41
8.45e-43 -4.6537e-41 -8.652e-42 5.558e-42 4.8184e-41 2.217e-41 -2.3141e-41 -2.9182e-41
-2.6144e-41 -2.2267e-41 4.774e-41 2.2938e-41 -4.3429e-41 -1.1498947e-05 4.556e-41 -4.4622e-41
-2.4977e-41 4.5193e-41 2.5432e-41 2.4615e-41 5.7017e-41 -2.8198e-41 4.6187e-41 -3.009e-42
3.4622e-41 1.2532e-41 4.9261e-41 -6.0864e-41 -5.2912e-41 -5.7195e-41 -4.7574e-41 -2.6473e-41
-5.4268e-41 -2.144e-42 -3.8543e-41 2.459e-42 -2.2868e-41 -2.8584e-41 5.5987e-41 -3.2527e-41
3.8466e-41 2.33e-41 2.8644e-41 -3.8265e-41 4.4924e-41 1.7567346e-06 -4.7887e-41 3.0466e-41
-6.1891e-41 -2.1622e-41 5.1027e-41 -3.3754e-41 4.8802e-41 2.4287e-41 1.2022e-41 1.2532e-41
-2.6494e-41 -9.094e-42 -2.4256e-41 4.3453e-41 -8.716502e-07 4.8033985e-06 -3.0104e-41 -6.398e-42
0.00015625604 3.7619e-41 5.03e-41 4.5273e-41 -2.7152e-41 -8.652e-42 5.558e-42 4.8184e-41
2.6485e-41 4.812e-42 -2.9182e-41 -2.6144e-41 -2.2267e-41 4.774e-41 2.2938e-41 -2.5983e-41
-9.762373e-06 4.556e-41 -4.4622e-41 -2.4977e-41 4.5193e-41 2.5432e-41 6.0547e-41 5.7017e-41

gats.1.att f4 [1, 5, 67]
00000000: fe6d 89b0 95db 99b0 ab15 42af eef4 4325
00000010: b276 0db5 635a 5034 86f4 2a25 7046 3d80
00000020: 85f0 478a 046d 9ea4 88ac 3831 d282 f2af
00000030: 30a9 0080 7ff0 94b0 e3ea afb0 b5b4 a81e
00000040: ce5a 7634 dd01 7325 e894 86a2 9cb1 0000
00000050: 288c 0080 7683 6e36 4597 2a31 8069 0000
00000060: ec23 0100 688c f495 5043 0080 21b1 00a6
00000070: 1ccb b032 e703 90b4 ee38 ae32 050d 3523
00000080: 25d5 cdaf 0a98 148c 5d90 f9a3 8264 9932
00000090: 580e 2630 c316 739b 9a4c 1f34 31c5 a6ae
000000a0: ec51 f1af efa6 07a6 6066 0000 7d0f 25b0
000000b0: 0faf b722 9eb8 6a8c 4458 0080 8238 37ae
000000c0: 228e 16b1 bf96 0aaf ad79 0000 64c7 3f32
000000d0: c3e6 ae2f b88c 81b0 916a dfb5 96c3 c911
000000e0: 2fe0 9334 3fcf 3b34 488f 0000 04fe 4f30
000000f0: 2c79 0080 f621 5f34 387b 0000 20c8 1131
00000100: 6e92 f131 42c5 b793 5841 02b1 8c62 89b0
00000110: 3fce 99b0 0105 42af a4ed 3c25 ab48 0db5
00000120: a353 5034 1978 5525 acf1 8b00 565d 188d
00000130: 24ea 81a4 04a1 3831 786c f2af 143e 0000
00000140: 0fe3 94b0 ca7c b0b0 6004 45a0 074f 7634
00000150: a909 d3a4 3190 9d22 ac74 0080 a877 0080
00000160: 1770 6e36 e794 2a31 4c05 0000 287b 6000
00000170: e4cd bd96 1409 0000 b432 1524 7ebc b032
00000180: 998e 90b4 2022 ae32 4c24 1ea2 8dc5 cdaf
00000190: 14b5 338d 5470 5e24 f458 9932 e007 2630
000001a0: 8efe be9c 9049 1f34 31bf a6ae a03f f1af
000001b0: 5448 06a6 500e 0000 763d 20b0 836a cba2
000001c0: 5946 c38b 1471 0080 7d22 37ae e785 16b1
000001d0: 8b0d 06af 517d 0080 bbb8 3f32 8221 af2f
000001e0: 1083 81b0 e189 deb5 2f44 9111 0acf 9334
000001f0: c482 3b34 c4af 0000 1fe9 4f30 007a 0000
00000200: df0d 5f34 801a 0000 3ebd 1131 c980 f131
00000210: 5489 6014 bd36 02b1 1b5b 89b0 86c7 99b0
00000220: 06f6 41af 3a86 4325 5562 0db5 a03d 5034
00000230: e10e 5225 4c78 d880 d3a4 ad0d 4e96 1024
00000240: 3d92 3831 3965 f2af 9835 0080 b5dd 94b0
00000250: 85e7 b0b0 adba 771f 3139 7634 1adf e324
00000260: bdab caa2 5c4b 0000 f849 0000 b436 6e36
00000270: f581 2a31 f405 0080 58de 0000 a523 2d16
00000280: d885 0080 46bb 06a5 cab2 b032 d9dd 8fb4
00000290: c910 ae32 31f8 b823 17bb cdaf 88f8 ab0d
000002a0: b313 e524 8a50 9932 99f5 2530 55fb d79c
000002b0: 9a3c 1f34 9fb0 a6ae b931 f1af 69ca c9a5
000002c0: 5c84 0080 d52a 22b0 385a dd22 243d f58b
000002d0: 0c80 0080 7f29 37ae 9a78 16b1 43e4 04af
000002e0: a39f 0080 27ae 3f32 cdb5 ae2f 487b 81b0
000002f0: 6830 dfb5 2a49 9c11 81ce 9334 c433 3b34
00000300: e8a3 0000 19d9 4f30 4c1e 0000 89f9 5e34
00000310: 1029 0000 7db1 1131 1c72 f131 7574 c114
00000320: 4a30 02b1 ac76 89b0 0de6 99b0 6f21 42af
00000330: 3a85 4025 f96c 0db5 3057 5034 757f ea24
00000340: 5cb9 0e80 cf24 958d 6d94 e322 06b2 3831
00000350: 6193 f2af 7860 0000 09fb 94b0 de6a afb0
00000360: 7e43 3c1f 276b 7634 dbbb fca3 3c29 ea21
00000370: d068 0080 c46e 0000 b88d 6e36 3ca4 2a31
00000380: 8873 0080 fc60 1480 b18d 2596 bc03 0080
00000390: 1adc fe25 42d6 b032 3078 90b4 4a4e ae32
000003a0: b714 8223 93e0 cdaf f776 738d 4d9c 8e24
000003b0: 8f6e 9932 1118 2630 5d8b 069c f75b 1f34
000003c0: 59d5 a6ae d861 f1af 0c7e 17a6 7803 0080
000003d0: c0e6 21b0 a458 4c22 2ea9 968b 0c35 0080
000003e0: b93e 37ae 7676 16b1 15a4 03af 2c2f 0000
000003f0: 57d3 3f32 85da ae2f 0a95 81b0 604a dfb5
-9.999324e-10 -1.1194624e-09 -1.7651895e-10 1.6996539e-16 -5.269932e-07 1.9404392e-07 1.4827997e-16 -5.627233e-39
-9.626738e-33 -6.870626e-17 2.6873597e-09 -4.4112497e-10 -6.0693e-41 -1.083677e-09 -1.2799685e-09 1.786243e-20
2.294357e-07 2.1077522e-16 -3.6478433e-18 6.3714e-41 -5.0279e-41 3.5541284e-06 2.4824243e-09 3.7846e-41
1.04722e-40 -9.877234e-26 -2.4147e-41 -4.4648975e-16 2.058146e-08 -2.682493e-07 2.0282155e-08 9.814787e-18
-3.744073e-10 -1.1447258e-31 -2.7057774e-17 1.785725e-08 6.041083e-10 -2.0107844e-22 1.4835896e-07 -7.583834e-11
-4.3895854e-10 -4.706377e-16 3.6725e-41 -6.004866e-10 4.97876e-18 -1.808226e-31 -3.1664e-41 -4.165957e-11
-2.1908666e-09 -1.2604583e-10 4.3649e-41 1.1162999e-08 3.1814382e-10 -9.42598e-10 -1.664581e-06 3.1832748e-28
2.7544e-07 1.7491128e-07 5.14e-41 7.566714e-10 -4.3468e-41 2.0780848e-07 4.4203e-41 2.1214035e-09
7.0306703e-09 -4.6390206e-27 -1.8954633e-09 -9.996071e-10 -1.1190834e-09 -1.7645975e-10 1.6386916e-16 -5.263234e-07
1.9401936e-07 1.8515496e-16 1.285183e-38 -4.6950965e-31 -5.634148e-17 2.686705e-09 -4.4096615e-10 2.227e-41
-1.0832951e-09 -1.2841153e-09 -1.6687997e-19 2.2939285e-07 -9.152303e-17 4.2707604e-18 -4.1854e-41 -4.2925e-41
3.5530009e-06 2.4822897e-09 1.9e-42 8.860388e-39 -3.0664532e-25 3.257e-42 3.2352172e-17 2.0574813e-08
-2.6925844e-07 2.0271784e-08 -2.1432208e-18 -3.742965e-10 -5.53766e-31 4.8233722e-17 1.7851995e-08 6.040164e-10
-1.2638946e-21 1.4834791e-07 -7.5827684e-11 -4.3882853e-10 -4.658861e-16 5.134e-42 -5.8295e-10 -5.5136034e-18
-7.5217115e-32 -4.0565e-41 -4.1640014e-11 -2.1903988e-09 -1.219204e-10 -4.4955e-41 1.1159666e-08 3.1856123e-10
-9.423236e-10 -1.6580417e-06 2.2918988e-28 2.7531524e-07 1.7463304e-07 6.3053e-41 7.5637446e-10 4.3765e-41
2.077354e-07 9.506e-42 2.1207849e-09 7.0286643e-09 1.1336193e-26 -1.8948605e-09 -9.993956e-10 -1.1188923e-09
-1.7640653e-10 1.6959032e-16 -5.2669685e-07 1.9393929e-07 1.8219638e-16 -1.9879622e-38 1.0701628e-30 3.1352336e-17
2.685865e-09 -4.4091467e-10 -1.9226e-41 -1.083143e-09 -1.2871487e-09 5.24587e-20 2.2931341e-07 9.8823506e-17
-5.4934045e-18 2.7034e-41 2.6535e-41 3.5496605e-06 2.4812128e-09 -2.136e-42 7.9762e-41 1.3986076e-25
-4.8014e-41 -1.1686098e-16 2.05704e-08 -2.679724e-07 2.0263899e-08 2.0054433e-17 -3.7422218e-10 1.059852e-30
9.934629e-17 1.784817e-08 6.0375666e-10 -1.4292474e-21 1.4830076e-07 -7.58018e-11 -4.3872975e-10 -3.50051e-16
-4.7482e-41 -5.8996125e-10 5.9997693e-18 -9.446256e-32 -4.5935e-41 -4.164624e-11 -2.1896427e-09 -1.2086425e-10
-5.7267e-41 1.1157261e-08 3.1779593e-10 -9.421024e-10 -1.6628883e-06 2.465755e-28 2.7531135e-07 1.7434564e-07
5.8798e-41 7.5614676e-10 1.0868e-41 2.0766142e-07 1.473e-41 2.1201167e-09 7.026996e-09 1.9533954e-26
-1.894494e-09 -1.000179e-09 -1.11976e-09 -1.7656075e-10 1.6698484e-16 -5.268517e-07 1.9403228e-07 1.01697244e-16
-1.352191e-39 -9.191695e-31 6.1685625e-18 2.6876719e-09 -4.4124263e-10 3.4606e-41 -1.0839766e-09 -1.2763299e-09
3.9866377e-20 2.2949517e-07 -2.7401455e-17 1.5867371e-18 -3.76e-41 3.9735e-41 3.5547255e-06 2.4831612e-09
-4.1445e-41 -1.871501e-39 -1.3373304e-25 -1.34e-42 4.4211123e-16 2.058653e-08 -2.6909538e-07 2.0291868e-08
1.4103401e-17 -3.7448852e-10 -7.5023355e-31 6.184747e-17 1.786182e-08 6.042465e-10 -4.4517004e-22 1.4841486e-07
-7.586704e-11 -4.3907167e-10 -5.2559474e-16 -1.244e-42 -5.8899374e-10 2.7694081e-18 -5.803245e-32 -1.903e-41
-4.166509e-11 -2.189521e-09 -1.1972674e-10 1.6922e-41 1.1165716e-08 3.1805683e-10 -9.428345e-10 -1.6636441e-06

gats.1.bias f4 [67]
00000000: 594f 4a37 c312 5337 33b7 3237 f7fb a0b5
00000010: 4523 543b 26d2 243a 5fcb b136 24f3 94b6
00000020: 96b4 0fb7 ecfa 49b7 9df3 b038 2878 f2b7
00000030: e845 24b6 188a 0436 809e f839 b296 bab7
00000040: ee31 ae39 c931 80b8 67ac 2eb7 931b 5fa1
00000050: f476 0080 7eba 973b a83b 2939 d95a bfaf
00000060: 3a0c d6b7 24ba 03b5 6c2b 0080 fef0 80b7
00000070: 0029 c638 6de2 dc3b 352d d839 9e2a c4b5
00000080: c483 acb6 b44d c5b7 a2ce 4fb8 9196 0339
00000090: 3243 0139 0c73 36b7 b3b7 8c3a e884 30b7
000000a0: a738 d6b7 ba5b 9bb6 b36b 4ab8 c0f7 163a
000000b0: 756b 30b7 7ca8 ccb5 958d b6b7 ae20 2eb7
000000c0: 67c3 ab39 f258 4438 0010 c1b5 a84c 6c39
000000d0: cf28 fbb6 7118 9b37 aea9 de3b aa54 ddb8
000000e0: 608f 8939 3963 3d3b e383 b8b7 9c31 3b38
000000f0: 568f 54b8 d949 b63a 8013 07b7 d13b a338
00000100: 8a4d c238 ed97 2fb8 a22f b637
1.2058613e-05 1.2580948e-05 1.0652281e-05 -1.199426e-06 0.0032369655 0.0006287418 5.2986866e-06 -4.439049e-06
-8.56551e-06 -1.2038956e-05 8.4377105e-05 -2.89046e-05 -2.4478595e-06 1.9749914e-06 0.00047420338 -2.22431e-05
0.00033225067 -6.112789e-05 -1.0411349e-05 -7.5591833e-19 -4.2672e-41 0.004630386 0.0001613932 -3.480725e-10
-2.5516481e-05 -4.9072173e-07 -1.5577e-41 -1.537101e-05 9.4490126e-05 0.0067408592 0.00041232412 -1.4615541e-06
-5.141339e-06 -2.3520413e-05 -4.9545088e-05 0.00012549224 0.00012327431 -1.0874832e-05 0.0010735899 -1.0521362e-05
-2.5537169e-05 -4.6300383e-06 -4.8260856e-05 0.00057589635 -1.0515437e-05 -1.524822e-06 -2.176202e-05 -1.0378817e-05
0.00032761248 4.681288e-05 -1.4384277e-06 0.0002253527 -7.4851337e-06 1.8488821e-05 0.0067951297 -0.00010553871
0.000262375 0.0028898253 -2.1995924e-05 4.4630477e-05 -5.067823e-05 0.0013907506 -8.051167e-06 7.783587e-05
9.265084e-05 -4.1864743e-05 2.1718271e-05
