inference/SyGuS/model_checkpoints/SyGuS_model_1.pt (torch, 502627 bytes, 21 tensors)

gats.0.att f4 [1, 5, 67]
0	0xb8483fe0	-4.7743204e-05
1	0x38c4107e	9.34908e-05
2	0xb7307d57	-1.05196e-05
3	0xb8b8aa68	-8.805544e-05
4	0xbe19f642	-0.15035346
5	0x398b19dc	0.00026531413
6	0xbe770f17	-0.2412685
7	0x37f6dcaf	2.9428249e-05
8	0xbb869555	-0.0041071572
9	0x3a53d5fe	0.00080808986
10	0xb8643e36	-5.4417374e-05
11	0xba0de81f	-0.0005413312
12	0xb70afb22	-8.283912e-06
13	0xba809a81	-0.0009811671
14	0x3844f446	4.695754e-05
15	0xbaa71ea6	-0.0012750223
16	0xbb6e6ab9	-0.003637953
17	0xb7aed4d5	-2.0841524e-05
18	0x3aeb09e5	0.0017932026
19	0xbb7c1507	-0.0038464682
20	0x3a4a42f7	0.0007715667
21	0xbab1b0e3	-0.0013556745
22	0x3a55908e	0.00081468455
23	0x36fbca27	7.5039165e-06
24	0xb7118b42	-8.675097e-06
25	0xbaae8007	-0.0013313302
26	0x39be5219	0.00036300792
27	0xb9752f40	-0.00023382623
28	0x3670a183	3.58568e-06
29	0x38ab4e33	8.168481e-05
30	0x368a879b	4.128507e-06
31	0x3975f6ae	0.00023456916
32	0x36cb7ba4	6.064265e-06
33	0xba7a34fe	-0.00095446396
34	0xba8159b4	-0.0009868653
35	0x392206dc	0.00015452079
36	0xb8bf02ce	-9.108112e-05
37	0x3a7b3c8c	0.00095839123
38	0x3a43b38c	0.0007465414
39	0xb77ea497	-1.5177901e-05
40	0x399cfa0a	0.00029940932
41	0xbb46c9aa	-0.0030332603
42	0xb9737ed4	-0.00023221533
43	0xb5a3cf6b	-1.2204813e-06
44	0xba78a1bb	-0.0009484549
45	0x39f977eb	0.00047582327
46	0x39216471	0.00015391574
47	0xb9fe4c70	-0.00048503606
48	0x3949a995	0.00019232028
49	0xba2cc5c6	-0.000659075
50	0xb9fc5746	-0.0004813021
51	0x39e7e14b	0.0004422761
52	0xba7d6aba	-0.00096670876
53	0xb81c79ea	-3.730684e-05
54	0xb6e09078	-6.6925386e-06
55	0x3a05fcd3	0.0005111221
56	0x39e528c2	0.0004370865
57	0x37d73d21	2.5658463e-05
58	0xb723483b	-9.732375e-06
59	0x3abc79ce	0.0014379562
60	0xba9b1671	-0.001183225
61	0xba603c7e	-0.0008553936
62	0xb8d9b7c8	-0.00010381598
63	0x3a1e89a5	0.00060477323
64	0x37379cb4	1.0944135e-05
65	0x3b08f36a	0.002089704
66	0x37a3934d	1.9499706e-05
67	0xb6549c34	-3.1681384e-06
68	0x3a335cac	0.0006842117
69	0xb805f3a7	-3.193659e-05
70	0x3a1ee377	0.00060611166
71	0xbe38232e	-0.1798217
72	0x3a2cd4c1	0.0006592982
73	0xbe337330	-0.1752441
74	0xb7c4d515	-2.3464245e-05
75	0xbb6350cb	-0.0034685608
76	0xb94c9d64	-0.00019513589
77	0xbac3df6c	-0.0014943904
78	0xb7122bad	-8.712447e-06
79	0xb967d930	-0.00022110785
80	0xb9beca4e	-0.00036390353
81	0xbaa14fca	-0.0012307104
82	0xba83fbc4	-0.0010069539
83	0xbb401824	-0.0029311264
84	0x3832395f	4.2491938e-05
85	0xb995e6b0	-0.0002859137
86	0xbb56e335	-0.0032789235
87	0x3a2b5d86	0.00065370684
88	0x3979ce19	0.00023823268
89	0x3a38ccab	0.0007049541
90	0xba8ace88	-0.0010590116
91	0x3a0cc34b	0.0005369677
92	0xba441da4	-0.00074812234
93	0xb8848bd1	-6.320293e-05
94	0xb9e5120f	-0.00043691738
95	0xb6bbc869	-5.596365e-06
96	0xb9965b56	-0.0002867828
97	0x370e1002	8.467587e-06
98	0x39ca7cd4	0.00038621447
99	0xb90008b8	-0.00012210279
100	0xba9147b6	-0.0011083994
101	0xbab67343	-0.0013919849
102	0x37256572	9.858386e-06
103	0x3a327c79	0.0006808709
104	0x3b3e7078	0.0029058736
105	0x39d097dc	0.00039785996
106	0x3afd2edc	0.0019316333
107	0x3753370c	1.2589397e-05
108	0xbb351675	-0.0027631794
109	0xb6a1faec	-4.827385e-06
110	0xb8c818c2	-9.541355e-05
111	0xbb91968b	-0.004442995
112	0x3a2b60c8	0.0006537554
113	0x3a366d57	0.0006959042
114	0xb9c6470a	-0.0003781843
115	0xba58c951	-0.00082697446
116	0xb9a3228a	-0.00031115516
117	0x3598f69f	1.1396659e-06
118	0x3a8c9c47	0.0010727727
119	0xb9bbf052	-0.00035846472
120	0x37de8ed6	2.6530975e-05
121	0x37dc3870	2.6252324e-05
122	0x39039f5d	0.00012552501
123	0xb9dc8f49	-0.00042068426
124	0x37e35019	2.7097807e-05
125	0xb87aacbd	-5.976552e-05
126	0x3a9d422b	0.0011997869
127	0x3a2393aa	0.000623996
128	0x39e2e81e	0.0004327902
129	0xb7f016be	-2.862082e-05
130	0x3a69888c	0.00089085917
131	0x381e3956	3.7723534e-05
132	0x3b4bb5af	0.0031083634
133	0xb93599c7	-0.00017318792
134	0xba5e2e3c	-0.00084755174
135	0x391334ee	0.0001403873
136	0xb61de5a4	-2.3528492e-06
137	0x3a305d2b	0.00067277503
138	0xbdc73f1f	-0.09728836
139	0x39176493	0.00014437949
140	0xbe54452b	-0.2072951
141	0xba88faae	-0.0010450685
142	0xbb46fe0d	-0.0030363828
143	0x3a984e54	0.0011620023
144	0x39550336	0.00020314459
145	0x3a49858f	0.0007687443
146	0xb8a948d6	-8.072115e-05
147	0xb79fff09	-1.9073037e-05
148	0xb8723c91	-5.7753703e-05
149	0xba864593	-0.0010244123
150	0xbb34c742	-0.0027584587
151	0xba6e5c9b	-0.0009092779
152	0x3b1b7d75	0.0023725901
153	0xbb906d60	-0.0044075698
154	0x39f0b20e	0.00045909028
155	0xbace05e4	-0.0015718308
156	0x3a5e1675	0.0008471974
157	0xb7a6bfa5	-1.9877984e-05
158	0xb8565845	-5.1103783e-05
159	0xba694934	-0.0008899153
160	0xbaabc7e5	-0.0013105838
161	0xba3b97c1	-0.0007156097
162	0xb9ae04ef	-0.00033191542
163	0x39e84330	0.00044300547
164	0x3895a9e5	7.136519e-05
165	0xb9d02cd1	-0.00039706242
166	0xba1e313c	-0.0006034558
167	0xba96a440	-0.0011493042
168	0xb8c04279	-9.167655e-05
169	0xb7ad7d8e	-2.0681673e-05
170	0xb756b6b4	-1.2797933e-05
171	0x3b3fe7a5	0.0029282358
172	0x3a3ec5fc	0.0007277427
173	0xb6cff86b	-6.1980004e-06
174	0xb9fb4fa7	-0.00047933796
175	0xbaa6c453	-0.0012723304
176	0xb9cafcfa	-0.00038716925
177	0xb8c54538	-9.406585e-05
178	0xba13f446	-0.00056440046
179	0xb7952ed1	-1.7783985e-05
180	0x3a706959	0.00091709715
181	0x3ab75cc6	0.0013989441
182	0x37968c28	1.7946659e-05
183	0xba44051e	-0.0007477569
184	0xb81f10bf	-3.792415e-05
185	0x394c2098	0.00019467098
186	0xba07b681	-0.00051770365
187	0xba9f1f50	-0.0012140069
188	0x39614432	0.00021483077
189	0x3894f2f0	7.1024406e-05
190	0xbac63297	-0.0015121278
191	0x3544ccb1	7.3313555e-07
192	0xb76b69de	-1.4031741e-05
193	0xb9011c05	-0.00012312837
194	0xb9877680	-0.00025837496
195	0xb9f1ded0	-0.0004613311
196	0x37690077	1.38879905e-05
197	0xb9cb2abe	-0.00038751023
198	0xbab9c16a	-0.0014172022
199	0x3adbe188	0.0016775588
200	0x39b4d001	0.0003448725
201	0x37ad4f7e	2.0660224e-05
202	0x392a6fc5	0.00016254101
203	0xb8bccbe5	-9.002517e-05
204	0xb9d1118b	-0.00039876657
205	0xbe37576a	-0.1790444
206	0x388bee6e	6.6724475e-05
207	0xbe543a6e	-0.20725414
208	0x381e1338	3.7688034e-05
209	0xbb6a720a	-0.003577354
210	0x3b42f470	0.0029747747
211	0xb9215b20	-0.00015388103
212	0x385f5290	5.3244235e-05
213	0x3828f74f	4.0284645e-05
214	0x39e0f4db	0.0004290704
215	0xb83cee2f	-4.504452e-05
216	0xbae32296	-0.0017329033
217	0xbb595183	-0.0033160157
218	0xb9b5451c	-0.000345745
219	0x3a525ed3	0.0008024994
220	0xbb876f55	-0.004133145
221	0x3a827a98	0.0009954749
222	0xba8089df	-0.0009806714
223	0x3abda677	0.0014469166
224	0x378b66a2	1.6617883e-05
225	0xbac97740	-0.0015370622
226	0x3ae2c8ce	0.0017302276
227	0xb9dd13ad	-0.00042167064
228	0xba08f4b2	-0.0005224451
229	0x3a2dcfea	0.0006630408
230	0x394526bc	0.00018801814
231	0x388e5daa	6.788534e-05
232	0x39ce71d1	0.00039376182
233	0xb990beac	-0.00027607882
234	0xba9afcc7	-0.0011824601
235	0xb769d78c	-1.3938068e-05
236	0xb728b416	-1.005551e-05
237	0xba1f0b66	-0.0006067067
238	0xba61bfb6	-0.0008611636
239	0xb95f9e91	-0.00021326008
240	0x39964b00	0.0002866611
241	0xb9c86800	-0.0003822446
242	0xbb83b1ad	-0.0040189833
243	0xb9814837	-0.00024658602
244	0x3a5bfeed	0.0008392174
245	0x39530a7c	0.00020126434
246	0x3965f80a	0.00021931544
247	0x3a092afe	0.00052325416
248	0xb99f33e4	-0.00030365505
249	0x3a0be941	0.0005337187
250	0xba0e03af	-0.0005417419
251	0xb829f87a	-4.052415e-05
252	0x35d42772	1.5806711e-06
253	0xbaaa70a1	-0.0013003537
254	0xbac693b9	-0.0015150226
255	0xb992ee5c	-0.00028024882

gats.0.bias f4 [67]
0	0xb96609d2	-0.00021938168
1	0xb9992dd7	-0.00029216587
2	0xb98d34ea	-0.0002693304
3	0x38f99dc8	0.00011902634
4	0xbc09ea42	-0.008417668
5	0xb8ff9564	-0.00012187174
6	0x3dca53a8	0.098792374
7	0xb916b86a	-0.00014373814
8	0x3bc940e7	0.00614177
9	0x3aaf3a40	0.00133688
10	0xb9271740	-0.00015935022
11	0xb9629914	-0.00021610066
12	0xb908994c	-0.00013027078
13	0xb6942573	-4.4151034e-06
14	0xb93a8e19	-0.00017791278
15	0xbb0fb53f	-0.00219281
16	0xba887e3d	-0.0010413599
17	0xb991e9cc	-0.00027830747
18	0x3abbcdd8	0.0014328314
19	0x3b846749	0.004040633
20	0xb938621d	-0.00017584157
21	0x3a5fdd98	0.0008539795
22	0x3a1f5678	0.00060782535
23	0xb9bda2ea	-0.0003617027
24	0xb8ddc1ea	-0.000105742205
25	0x3ab5305d	0.0013823617
26	0x37d6fc44	2.5628258e-05
27	0xba2e057c	-0.00066383905
28	0xb88d3795	-6.733757e-05
29	0x3800d1b5	3.0712883e-05
30	0xb77aad24	-1.4941474e-05
31	0x391b7354	0.00014824915
32	0xb9b27954	-0.00034041202
33	0xba57723a	-0.000821862
34	0xba2fe17f	-0.0006709322
35	0xb9fdc508	-0.0004840272
36	0x393f90fa	0.00018269187
37	0x3af22697	0.0018474635
38	0x3a484e7b	0.0007641089
39	0x38924ae3	6.975771e-05
40	0xb95b47c7	-0.00020912207
41	0xbab966c8	-0.0014145011
42	0x38053237	3.1756437e-05
43	0x383ca5dc	4.497716e-05
44	0x39d8e00c	0.00041365658
45	0x386bc69a	5.621333e-05
46	0xb98dbb84	-0.00027033326
47	0x3abb7b9f	0.001430381
48	0xb99b2cca	-0.00029597274
49	0x3ab5ebfd	0.0013879534
50	0xb9eaf707	-0.00044816008
51	0xb9c55f08	-0.00037645572
52	0xb9c2604f	-0.0003707432
53	0x39e044c8	0.00042775855
54	0xb9721d0c	-0.00023089739
55	0xb9acfbc9	-0.0003299399
56	0xb82b0ca1	-4.078134e-05
57	0xb7fafa23	-2.9918801e-05
58	0x38a6eaa3	7.959201e-05
59	0xb9f5f979	-0.00046915913
60	0xb9365935	-0.00017390105
61	0x3a8a8ca9	0.0010570484
62	0xba089cba	-0.00052113424
63	0xb8bab78a	-8.903358e-05
64	0xba0e5320	-0.00054292567
65	0xb7e11286	-2.6830716e-05
66	0xb92256b0	-0.00015481818

gats.0.lin_l.weight f4 [335, 67]
0	0x80000934	-3.301e-42
1	0x926b97fe	-7.434027e-28
2	0xb83368ba	-4.277446e-05
3	0xb6884cc2	-4.0620516e-06
4	0x369588fe	4.456494e-06
5	0x00006e06	3.9469e-41
6	0x80007c76	-4.4648e-41
7	0x39811c08	0.00024625682
8	0x0000ac91	6.1905e-41
9	0x00004591	2.4956e-41
10	0x38171297	3.601852e-05
11	0xb858fecd	-5.1735715e-05
12	0x00001a95	9.536e-42
13	0x3899645c	7.314302e-05
14	0x8000a94f	-6.0736e-41
15	0xb81b4b08	-3.7024758e-05
16	0xb70d303b	-8.415484e-06
17	0x8000d0ae	-7.486e-41
18	0xb8927293	-6.9831636e-05
19	0x3786e428	1.6080288e-05
20	0x00004a17	2.6578e-41
21	0x0000c5a2	7.0897e-41
22	0x000050a7	2.8933e-41
23	0x8000ae52	-6.2534e-41
24	0x8000432c	-2.4097e-41
25	0x8000a82d	-6.033e-41
26	0x8000d3b0	-7.5939e-41
27	0x80001909	-8.981e-42
28	0x0000987e	5.4704e-41
29	0x00000720	2.556e-42
30	0x0000c6fa	7.138e-41
31	0x00004814	2.5857e-41
32	0x0000acb7	6.1958e-41
33	0x8000bdd5	-6.8099e-41
34	0x000042bf	2.3944e-41
35	0x8000b3e2	-6.453e-41
36	0x0000ca02	7.2467e-41
37	0x00007da1	4.5067e-41
38	0x0000c82e	7.1811e-41
39	0x0000bbf7	6.7429e-41
40	0x0000996d	5.5039e-41
41	0x80004331	-2.4104e-41
42	0x000018b0	8.856e-42
43	0x800068bf	-3.7576e-41
44	0x0000b8a6	6.624e-41
45	0x8000d2fd	-7.5688e-41
46	0x8000c480	-7.0491e-41
47	0x0000ca60	7.2598e-41
48	0x0000d4e6	7.6374e-41
49	0x8000d2c7	-7.5613e-41
50	0x000013d8	7.119e-42
51	0x80003349	-1.8398e-41
52	0x80009d67	-5.6465e-41
53	0x0000b533	6.5002e-41
54	0x0000d325	7.5744e-41
55	0x8000bf5f	-6.8651e-41
56	0x00003301	1.8297e-41
57	0x0000bc51	6.7555e-41
58	0x80004329	-2.4093e-41
59	0x8000a469	-5.8979e-41
60	0x0000d185	7.5161e-41
61	0x8000350a	-1.9027e-41
62	0x8000aa20	-6.103e-41
63	0x8000c3d4	-7.025e-41
64	0x000056c4	3.1126e-41
65	0x80002476	-1.308e-41
66	0x2ce4e4ac	6.5055374e-12
67	0x000079d6	4.3706e-41
68	0x33aa8ec2	7.9422094e-08
69	0x383c0abc	4.483269e-05
70	0x38a5e57c	7.910558e-05
71	0x39e79fca	0.00044178806
72	0x34af23a6	3.2622228e-07
73	0x80003bdc	-2.1473e-41
74	0xb99aff4e	-0.00029563386
75	0x0000278b	1.4185e-41
76	0x0000d473	7.6212e-41
77	0x380bb492	3.330835e-05
78	0xb9e1cdb3	-0.00043068602
79	0x0000c996	7.2315e-41
80	0xb8dc3983	-0.0001050113
81	0x00003fd4	2.2897e-41
82	0xb96835e3	-0.00022145319
83	0x391bf22f	0.00014872172
84	0x2f0734ca	1.2296933e-10
85	0x39e0b842	0.00042861892
86	0xb72f7a04	-1.0459222e-05
87	0x0000d3ad	7.5935e-41
88	0x8000c813	-7.1773e-41
89	0x80000b49	-4.048e-42
90	0x800005d1	-2.087e-42
91	0x8000a9d2	-6.092e-41
92	0x80009098	-5.187e-41
93	0x800016c9	-8.174e-42
94	0x00003445	1.8751e-41
95	0x00003852	2.0204e-41
96	0x0000ae39	6.25e-41
97	0x0000358c	1.9209e-41
98	0x80004343	-2.4129e-41
99	0x00009f15	5.7068e-41
100	0x80009fed	-5.737e-41
101	0x0000d245	7.543e-41
102	0x000011c9	6.38e-42
103	0x8000058b	-1.988e-42
104	0x8000d322	-7.574e-41
105	0x80000563	-1.932e-42
106	0x000023b4	1.2808e-41
107	0x8000c589	-7.0862e-41
108	0x8000699b	-3.7884e-41
109	0x8000d570	-7.6567e-41
110	0x00009d28	5.6377e-41
111	0x8000d0b9	-7.4876e-41
112	0x000099ea	5.5214e-41
113	0x00000348	1.177e-42
114	0x8000af49	-6.288e-41
115	0x8000bd4b	-6.7906e-41
116	0x800028b7	-1.4606e-41
117	0x0000b94b	6.647e-41
118	0x0000b910	6.6388e-41
119	0x80005973	-3.2088e-41
120	0x80003981	-2.0629e-41
121	0x8000ba84	-6.6909e-41
122	0x8000bdd2	-6.8095e-41
123	0x00008b3d	4.9949e-41
124	0x8000a082	-5.758e-41
125	0x00008e0c	5.0957e-41
126	0x000027f8	1.4338e-41
127	0x8000b255	-6.3973e-41
128	0x0000277d	1.4166e-41
129	0x8000ca9f	-7.2687e-41
130	0x0000795b	4.3534e-41
131	0x00005392	2.998e-41
132	0x0000c817	7.1779e-41
133	0xb491d6ef	-2.716474e-07
134	0x0000cb19	7.2858e-41
135	0x91c81296	-3.156589e-28
136	0x37458f0c	1.1775421e-05
137	0x3789e6d9	1.643917e-05
138	0xb7226f0e	-9.681809e-06
139	0xaeb34033	-8.1513817e-11
140	0x8000b32e	-6.4278e-41
141	0x3750ff8d	1.2457266e-05
142	0x800038c9	-2.037e-41
143	0x0000d269	7.5481e-41
144	0x385966b1	5.183247e-05
145	0xb6cdd216	-6.1339333e-06
146	0x0000a4b9	5.9091e-41
147	0x35cb99d1	1.5169445e-06
148	0x80008331	-4.7063e-41
149	0x37e33b20	2.7088041e-05
150	0xb6ff2bcb	-7.6046904e-06
151	0x80006c85	-3.893e-41
152	0x36703f21	3.5799533e-06
153	0x37f1cd23	2.8824963e-05
154	0x8000d4c5	-7.6327e-41
155	0x0000c9df	7.2418e-41
156	0x000035dd	1.9323e-41
157	0x0000c3d3	7.0248e-41
158	0x80009f77	-5.7205e-41
159	0x00001394	7.023e-42
160	0x8000bb0f	-6.7104e-41
161	0x0000bd47	6.79e-41
162	0x0000091e	3.27e-42
163	0x8000be71	-6.8318e-41
164	0x00000a4d	3.695e-42
165	0x000064d8	3.6176e-41
166	0x80001a1b	-9.365e-42
167	0x80004550	-2.4865e-41
168	0x8000d161	-7.5111e-41
169	0x0000d40e	7.6071e-41
170	0x8000b8de	-6.6318e-41
171	0x00007e51	4.5314e-41
172	0x0000af28	6.2834e-41
173	0x80000f18	-5.415e-42
174	0x000019f3	9.309e-42
175	0x0000a06c	5.7549e-41
176	0x0000cfd0	7.4549e-41
177	0x80007d50	-4.4954e-41
178	0x00000547	1.893e-42
179	0x800096a5	-5.4041e-41
180	0x0000968d	5.4007e-41
181	0x80005a14	-3.2314e-41
182	0x00008bbd	5.0129e-41
183	0x0000086c	3.021e-42
184	0x00009e03	5.6684e-41
185	0x8000ceee	-7.4232e-41
186	0x00000de7	4.987e-42
187	0x80001108	-6.11e-42
188	0x800006ce	-2.441e-42
189	0x8000572b	-3.127e-41
190	0x0000cf51	7.4371e-41
191	0x0000518c	2.9254e-41
192	0x0000ccee	7.3515e-41
193	0x800077b8	-4.2947e-41
194	0x000028da	1.4655e-41
195	0x0000b2ae	6.4098e-41
196	0x0000cf31	7.4326e-41
197	0x0000c9cc	7.2391e-41
198	0x00009c92	5.6167e-41
199	0x8000bc82	-6.7624e-41
200	0x000056e4	3.117e-41
201	0x8000ca79	-7.2634e-41
202	0xa73220de	-2.472028e-15
203	0x37c2e991	2.3235365e-05
204	0xb6c9ce77	-6.0143025e-06
205	0xb8085dd6	-3.251232e-05
206	0x0000308e	1.7418e-41
207	0x0000a59f	5.9414e-41
208	0xb8a3698f	-7.7921075e-05
209	0x8000836e	-4.7148e-41
210	0x000098bb	5.479e-41
211	0xb802a5aa	-3.1148702e-05
212	0x3875084f	5.842029e-05
213	0x8000c86c	-7.1898e-41
214	0x36916618	4.333222e-06
215	0x800057df	-3.1522e-41
216	0x37be99fe	2.2721473e-05
217	0xb8e7aadb	-0.00011046763
218	0x0000aefd	6.2774e-41
219	0x39094b41	0.00013093372
220	0x36fe7f7e	7.584632e-06
221	0x80008355	-4.7113e-41
222	0x800027a5	-1.4222e-41
223	0x0000cc9d	7.3401e-41
224	0x80002582	-1.3455e-41
225	0x800004ad	-1.677e-42
226	0x000018a8	8.845e-42
227	0x80003695	-1.958e-41
228	0x0000640e	3.5893e-41
229	0x8000ca99	-7.2678e-41
230	0x80005267	-2.956e-41
231	0x8000abf3	-6.1684e-41
232	0x0000c991	7.2308e-41
233	0x80000954	-3.346e-42
234	0x80005eb7	-3.3977e-41
235	0x00008189	4.6468e-41
236	0x80003860	-2.0224e-41
237	0x8000a9ce	-6.0914e-41
238	0x8000472d	-2.5533e-41
239	0x8000901a	-5.1694e-41
240	0x80005afe	-3.2642e-41
241	0x80004b1a	-2.6941e-41
242	0x800071de	-4.0848e-41
243	0x00000790	2.713e-42
244	0x00002945	1.4805e-41
245	0x800010fa	-6.09e-42
246	0x8000a5a0	-5.9415e-41
247	0x0000cea3	7.4127e-41
248	0x800018fd	-8.964e-42
249	0x8000d660	-7.6903e-41
250	0x00002963	1.4847e-41
251	0x80003515	-1.9042e-41
252	0x000017d3	8.547e-42
253	0x80002727	-1.4045e-41
254	0x0000443f	2.4482e-41
255	0x8000d2f6	-7.5679e-41

gats.0.lin_l.bias f4 [335]
0	0xb92c5266	-0.00016433894
1	0xb92c12b7	-0.0001641017
2	0xb94d6c32	-0.0001959063
3	0xb9a3170f	-0.00031106963
4	0xbd4e6ee6	-0.05039873
5	0x36e1d1c2	6.7299416e-06
6	0xbcb1d744	-0.021709092
7	0xb98a7080	-0.0002640523
8	0x3c159896	0.009130618
9	0x3acba82a	0.0015537788
10	0xb9a5ba2d	-0.00031609964
11	0x3994c969	0.00028378822
12	0xb8d8d297	-0.00010338908
13	0x38d225a2	0.0001002059
14	0x38a27ea0	7.748348e-05
15	0x39edcd5c	0.00045357167
16	0x3a653ac1	0.0008744412
17	0xb97da7e7	-0.00024190509
18	0x38a32c5e	7.78071e-05
19	0x3b965bb0	0.0045885667
20	0xb9424010	-0.00018525147
21	0x3ac1151e	0.0014731025
22	0x391a638b	0.00014723667
23	0xb80d5c08	-3.370273e-05
24	0xb9188f0e	-0.00014549142
25	0x3adb6959	0.001673977
26	0xba371f43	-0.00069855544
27	0xba0e1483	-0.00054199266
28	0xb96eafef	-0.00022762989
29	0xb9bf73c6	-0.00036516617
30	0xb8ef8d37	-0.000114227114
31	0x383ab5f4	4.4515313e-05
32	0xb7fd9f7c	-3.0234216e-05
33	0xb904d47d	-0.00012667659
34	0x39eeb2df	0.00045528167
35	0xb9809612	-0.00024525874
36	0xb99f555c	-0.0003039044
37	0x3a1857cd	0.0005811423
38	0x388d68df	6.742938e-05
39	0xb946be58	-0.0001895366
40	0x398483e1	0.0002527526
41	0x3a4d19cb	0.0007823973
42	0xb9f02f98	-0.00045811827
43	0xb97df3f6	-0.00024218843
44	0x3a0607b5	0.0005112843
45	0xba055383	-0.00050859916
46	0xb70dc1bc	-8.449362e-06
47	0x3a50e8a1	0.0007969235
48	0xb9ad1910	-0.00033015804
49	0x3aae7175	0.0013308959
50	0x393ced72	0.00018017532
51	0xb884dba5	-6.3351625e-05
52	0xb89830b3	-7.256996e-05
53	0x39946986	0.0002830738
54	0xb830e182	-4.217169e-05
55	0x37e2ff08	2.7060058e-05
56	0x39a874cc	0.00032130477
57	0xb9c1f263	-0.0003699242
58	0xb940af6d	-0.00018375898
59	0x3a045466	0.0005047977
60	0x39c79be0	0.00038072374
61	0x3addf95d	0.0016935278
62	0xb9e7e305	-0.00044228896
63	0xba2fda95	-0.00067082915
64	0xb98575b5	-0.00025455435
65	0xb9c4646b	-0.0003745885
66	0x39f81a10	0.00047321664
67	0xb861edc1	-5.3865606e-05
68	0xb9b073ed	-0.00033655707
69	0xb930aceb	-0.00016849085
70	0xb9e4298a	-0.00043518498
71	0xbcb2037b	-0.021730175
72	0x390fec7e	0.00013725643
73	0xbdcc28c0	-0.0996871
74	0xb98a9898	-0.00026435102
75	0x3c1ba76c	0.009500366
76	0x3ab37b07	0.0013693281
77	0x39c15c4d	0.00036880598
78	0xb906c696	-0.00012853215
79	0xb904357c	-0.00012608425
80	0xb9888d03	-0.00026045003
81	0xba23622b	-0.0006232585
82	0x39eba3e9	0.00044944815
83	0x3a92deea	0.001120535
84	0xb989aff3	-0.0002626177
85	0x393fff34	0.0001831025
86	0x3b95e3d6	0.0045742793
87	0xb9a1990d	-0.00030822345
88	0x3a93d582	0.001127884
89	0xb992d7e9	-0.00028008156
90	0xba58e452	-0.00082737685
91	0xb9e69776	-0.00043981866
92	0x3ac37491	0.0014912059
93	0x39b82301	0.00035121295
94	0xb9e82607	-0.0004427882
95	0xb95392d9	-0.00020177233
96	0xb9e0c6b7	-0.00042872663
97	0xb98c4ac8	-0.00026758597
98	0x38d52105	0.00010162782
99	0xb99c43d3	-0.00029805172
100	0xb927b570	-0.00015993952
101	0x38b829d0	8.781592e-05
102	0xb8e2ff88	-0.00010824116
103	0xb9dbac2a	-0.00041899207
104	0x3a9c603d	0.0011930537
105	0x39a9dbfd	0.00032398096
106	0xb9d428b9	-0.00040466132
107	0x384db68b	4.9045815e-05
108	0x3a1dbdf1	0.0006017378
109	0x389b0e5d	7.393651e-05
110	0xb96b426f	-0.00022436095
111	0xba3cbec9	-0.000720006
112	0xb9bee88a	-0.0003641288
113	0xba2bc04e	-0.0006551788
114	0x3a295d2a	0.0006460721
115	0xb91a1f81	-0.0001469832
116	0x3aaa7aea	0.0013006602
117	0xb96bc757	-0.00022485606
118	0x39a17d1d	0.0003080153
119	0x389fe9f9	7.6252916e-05
120	0x39c2cc76	0.000371549
121	0x38caaad4	9.66393e-05
122	0xb9b30ff8	-0.00034153438
123	0xba321f32	-0.00067948096
124	0xb99705ac	-0.0002880519
125	0xb97126f2	-0.0002299806
126	0xb9ad01b7	-0.0003299841
127	0xbaad8cce	-0.0013240816
128	0x3b091768	0.0020918492
129	0xb9c98707	-0.0003843831
130	0xb6c112cf	-5.754038e-06
131	0xb6cc3ec4	-6.0869806e-06
132	0xba5a802f	-0.0008335141
133	0x394a523a	0.00019294853
134	0x39bceaa4	0.00036032975
135	0xb90f8d06	-0.00013690078
136	0xb9231540	-0.00015552808
137	0xb9e022b9	-0.0004275048
138	0xbda5790d	-0.08079729
139	0xb8aa40c2	-8.118294e-05
140	0xbb6ddcaa	-0.0036294856
141	0x3924f897	0.00015732866
142	0x3bca2783	0.006169261
143	0x3acd915a	0.0015683577
144	0xba0adf0c	-0.0005297519
145	0xb9a71838	-0.00031870767
146	0x38fde5da	0.00012106793
147	0x37f88273	2.9624649e-05
148	0xb9d7ffaf	-0.00041198495
149	0x3a0629b2	0.00051179074
150	0x3a9ebcdf	0.0012110731
151	0xb8094fc3	-3.273763e-05
152	0x39e06850	0.00042802328
153	0x39f75941	0.0004717801
154	0xb97bf5d4	-0.00024028803
155	0x3aad59c9	0.0013225611
156	0x395f9d6c	0.00021325581
157	0x38199037	3.6612353e-05
158	0xb92c8871	-0.00016454027
159	0x3abec7cf	0.0014555397
160	0xb960de2c	-0.0002144507
161	0xb9c90f99	-0.0003834933
162	0x37392f81	1.103792e-05
163	0xb9d61523	-0.0004083301
164	0xb99a47ce	-0.00029426668
165	0xb9ff070b	-0.00048642638
166	0x399ed625	0.00030295659
167	0xb676c72b	-3.6772788e-06
168	0xb919f078	-0.00014680799
169	0xb90b6e06	-0.0001329706
170	0xb93289ac	-0.0001702669
171	0x3a5073e9	0.0007951842
172	0x39e73bfa	0.0004410444
173	0xb9310a01	-0.00016883762
174	0xb9acdf6a	-0.00032972853
175	0x3839ce83	4.4299766e-05
176	0x39248d56	0.0001569291
177	0xb9780656	-0.00023653483
178	0x398e9425	0.00027194727
179	0x37bbdd17	2.239509e-05
180	0xba799a71	-0.000952161
181	0x3a4ae5b2	0.0007739916
182	0xb94c9d83	-0.00019513634
183	0x3aadb3d7	0.0013252449
184	0xb9502a77	-0.00019852245
185	0xb9c82308	-0.00038173073
186	0xb8f53819	-0.000116929594
187	0x3a25d1de	0.0006325523
188	0xb98247cb	-0.00024849022
189	0xb8e335ff	-0.00010834261
190	0x39ad51b0	0.00033057993
191	0xb99a65b7	-0.00029448952
192	0x37ce69e4	2.4606423e-05
193	0xb9457735	-0.00018831792
194	0xb912311b	-0.00013941938
195	0x3b0a6a63	0.002112054
196	0xb981c389	-0.00024750482
197	0xb9996ffb	-0.00029265866
198	0x39fae27c	0.0004785246
199	0xba544071	-0.0008096761
200	0x393281be	0.00017023736
201	0x3801f3b4	3.0982963e-05
202	0xb9835d65	-0.0002505585
203	0xb999f6ef	-0.00029366414
204	0xb9d8bcab	-0.000413393
205	0xbc57eea1	-0.013179452
206	0xb944ffb0	-0.00018787268
207	0xbd5baf2e	-0.05363386
208	0xb988449c	-0.0002599106
209	0x3c09c0f8	0.008407824
210	0x3afd8434	0.0019341768
211	0xb9e053f9	-0.00042787174
212	0xb80f3847	-3.414627e-05
213	0xb9ff1d95	-0.0004865943
214	0x39e4ff04	0.0004367755
215	0xb94079ad	-0.00018355875
216	0x3a3a5dee	0.00071093335
217	0x3a84a2eb	0.0010119354
218	0xba204d57	-0.000611504
219	0x39baeb58	0.0003565203
220	0x3b965f65	0.0045890086
221	0xb9bb38e4	-0.00035709806
222	0x3a9cb76e	0.0011956522
223	0xba4d7628	-0.0007837736
224	0xb89bfb8e	-7.437832e-05
225	0x3991d493	0.00027814935
226	0x3b004214	0.0019570636
227	0x38013ecf	3.081449e-05
228	0xb913b352	-0.00014085814
229	0x394204b6	0.00018503037
230	0xb9e4a513	-0.0004361054
231	0xb9b3249a	-0.0003416881
232	0xb9df09ef	-0.00042541276
233	0x397094e5	0.00022943651
234	0xba176043	-0.0005774537
235	0xb7fb45c7	-2.9954024e-05
236	0xb971d3be	-0.00023062431
237	0xb920957c	-0.00015314476
238	0x3a8521bf	0.0010157152
239	0xb86c4470	-5.6330522e-05
240	0xba134a0d	-0.00056186394
241	0xb9ec63ee	-0.0004508788
242	0x3a36c32d	0.00069718325
243	0xb88165a4	-6.1701314e-05
244	0x3918d276	0.00014574252
245	0x3a058b10	0.0005094269
246	0x3826d97e	3.978004e-05
247	0xba88e859	-0.0010445222
248	0x3a4359da	0.00074520486
249	0xb8e7add4	-0.000110473164
250	0x3aab1819	0.0013053446
251	0xb9748f89	-0.00023323124
252	0xb943cc6a	-0.000186728
253	0xb8674e8a	-5.5147837e-05
254	0xb6dc03a2	-6.556934e-06
255	0xb96b440c	-0.00022436696

gats.0.lin_r.weight f4 [335, 67]
0	0x8000a6dd	-5.9859e-41
1	0x00009888	5.4718e-41
2	0x0000b7ef	6.5983e-41
3	0x8000c5d1	-7.0963e-41
4	0x0000cac9	7.2746e-41
5	0x00000aa3	3.816e-42
6	0x00009532	5.3521e-41
7	0xb79c7338	-1.8650302e-05
8	0x0000ceed	7.4231e-41
9	0x0000d169	7.5122e-41
10	0xb2bc35b8	-2.1910509e-08
11	0xb6857e8e	-3.978442e-06
12	0x0000b96c	6.6517e-41
13	0xb8866364	-6.408131e-05
14	0x0000ab3a	6.1425e-41
15	0x39051888	0.00012693007
16	0xb8f8e02d	-0.000118673175
17	0x00006dec	3.9433e-41
18	0x308b6888	1.0143291e-09
19	0x00001235	6.531e-42
20	0x0000babc	6.6988e-41
21	0x0000a35c	5.8602e-41
22	0x8000ac0a	-6.1716e-41
23	0x000008be	3.136e-42
24	0x000003e5	1.397e-42
25	0x8000c606	-7.1037e-41
26	0x80004e21	-2.8027e-41
27	0x8000d447	-7.6151e-41
28	0x8000717a	-4.0708e-41
29	0x000054e8	3.0459e-41
30	0x0000b26d	6.4007e-41
31	0x8000d65c	-7.6898e-41
32	0x0000a950	6.0738e-41
33	0x0000cf18	7.4291e-41
34	0x00008db7	5.0838e-41
35	0x8000cb05	-7.283e-41
36	0x8000cb1a	-7.2859e-41
37	0x800016cd	-8.18e-42
38	0x0000cb40	7.2912e-41
39	0x000005a6	2.026e-42
40	0x0000ce4a	7.4003e-41
41	0x80001943	-9.062e-42
42	0x0000d339	7.5772e-41
43	0x00009b93	5.581e-41
44	0x00002612	1.3657e-41
45	0x8000641d	-3.5914e-41
46	0x8000a534	-5.9264e-41
47	0x8000d275	-7.5498e-41
48	0x80000555	-1.913e-42
49	0x800046e9	-2.5438e-41
50	0x8000c95b	-7.2233e-41
51	0x00006077	3.4605e-41
52	0x0000d2c0	7.5603e-41
53	0x8000b8c7	-6.6286e-41
54	0x00000862	3.007e-42
55	0x8000d293	-7.554e-41
56	0x80000611	-2.176e-42
57	0x800000e8	-3.25e-43
58	0x0000bbf9	6.7432e-41
59	0x80009c5e	-5.6094e-41
60	0x00003948	2.0549e-41
61	0x8000d452	-7.6166e-41
62	0x0000ab49	6.1446e-41
63	0x8000721c	-4.0935e-41
64	0x00000f39	5.461e-42
65	0x000095fb	5.3803e-41
66	0x00000c62	4.442e-42
67	0x8000bb0c	-6.71e-41
68	0x2f1b76af	1.4139333e-10
69	0x2ee287cb	1.0301412e-10
70	0x0000d2a8	7.5569e-41
71	0x00005ccf	3.3293e-41
72	0x0000574c	3.1316e-41
73	0x8000c8a3	-7.1975e-41
74	0x80000e5e	-5.154e-42
75	0x0000cfd9	7.4562e-41
76	0x8000c804	-7.1752e-41
77	0xb197601d	-4.405605e-09
78	0xb897781b	-7.2226125e-05
79	0x00001aa3	9.555e-42
80	0xb8c752ee	-9.504506e-05
81	0x0000c617	7.1061e-41
82	0x35e6fcda	1.7209925e-06
83	0x3848b718	4.7854235e-05
84	0x00003a63	2.0945e-41
85	0x38015b5f	3.0841093e-05
86	0x0000baf2	6.7063e-41
87	0x0000ca5f	7.2597e-41
88	0x00009f39	5.7118e-41
89	0x0000ad9c	6.228e-41
90	0x00009f78	5.7207e-41
91	0x000095e6	5.3773e-41
92	0x8000355b	-1.914e-41
93	0x00004c1b	2.7301e-41
94	0x80000903	-3.233e-42
95	0x8000cedd	-7.4209e-41
96	0x8000cefc	-7.4252e-41
97	0x000096d1	5.4103e-41
98	0x000016bd	8.157e-42
99	0x80000b69	-4.093e-42
100	0x00009821	5.4574e-41
101	0x0000c8c7	7.2025e-41
102	0x0000abd7	6.1645e-41
103	0x0000bd65	6.7942e-41
104	0x8000c976	-7.227e-41
105	0x00004309	2.4048e-41
106	0x0000c7ca	7.1671e-41
107	0x80006d87	-3.9291e-41
108	0x0000c6f4	7.1371e-41
109	0x8000b943	-6.646e-41
110	0x80009964	-5.5026e-41
111	0x8000b49e	-6.4793e-41
112	0x80008a69	-4.9652e-41
113	0x0000789a	4.3264e-41
114	0x8000c828	-7.1803e-41
115	0x0000d385	7.5879e-41
116	0x8000abb5	-6.1597e-41
117	0x8000a5f1	-5.9529e-41
118	0x80002142	-1.193e-41
119	0x800066ba	-3.6851e-41
120	0x0000afb2	6.3028e-41
121	0x00002881	1.453e-41
122	0x80001868	-8.755e-42
123	0x000093c6	5.3011e-41
124	0x00003f42	2.2693e-41
125	0x00009bad	5.5846e-41
126	0x8000d0e7	-7.494e-41
127	0x0000c6e4	7.1349e-41
128	0x80003776	-1.9896e-41
129	0x80001c4d	-1.0152e-41
130	0x0000243e	1.3001e-41
131	0x8000d15c	-7.5104e-41
132	0x0000c3ed	7.0285e-41
133	0x800093c9	-5.3015e-41
134	0x8000ac59	-6.1827e-41
135	0x80001810	-8.632e-42
136	0x00003101	1.7579e-41
137	0x00006943	3.7761e-41
138	0x0000c2be	6.986e-41
139	0x0000845f	4.7486e-41
140	0x800014eb	-7.504e-42
141	0x80006d75	-3.9266e-41
142	0x8000a860	-6.0402e-41
143	0x800009dd	-3.538e-42
144	0x00007ad3	4.4061e-41
145	0x802dfb64	-4.222779e-39
146	0x8000d24e	-7.5443e-41
147	0x36408105	2.8685329e-06
148	0x0000d63f	7.6857e-41
149	0x36d115fc	6.2312447e-06
150	0x34078739	1.2622048e-07
151	0x00009f40	5.7128e-41
152	0x8000b095	-6.3346e-41
153	0x8000b603	-6.5294e-41
154	0x0000ac3f	6.179e-41
155	0x0000ab27	6.1398e-41
156	0x0000ccf0	7.3518e-41
157	0x8000960c	-5.3827e-41
158	0x800097ba	-5.4429e-41
159	0x80006701	-3.6951e-41
160	0x8000ab1f	-6.1387e-41
161	0x80009abe	-5.5511e-41
162	0x0000c992	7.231e-41
163	0x0000d1fa	7.5325e-41
164	0x000087d9	4.8733e-41
165	0x00006290	3.5358e-41
166	0x80000627	-2.207e-42
167	0x0000731b	4.1292e-41
168	0x8000d05f	-7.475e-41
169	0x8000cbd7	-7.3124e-41
170	0x8000ac14	-6.173e-41
171	0x0000aca8	6.1937e-41
172	0x8000413c	-2.3402e-41
173	0x00009436	5.3168e-41
174	0x0000c810	7.1769e-41
175	0x0000a246	5.8213e-41
176	0x0000cad1	7.2757e-41
177	0x0000a0ed	5.7729e-41
178	0x80001d1a	-1.044e-41
179	0x0000bbd9	6.7387e-41
180	0x00003877	2.0256e-41
181	0x8000427a	-2.3847e-41
182	0x80007a11	-4.3789e-41
183	0x0000ce96	7.4109e-41
184	0x80002a78	-1.5235e-41
185	0x80005dc4	-3.3637e-41
186	0x80009d37	-5.6398e-41
187	0x800021f9	-1.2187e-41
188	0x000069f9	3.8016e-41
189	0x8000a45a	-5.8958e-41
190	0x00007bc7	4.4403e-41
191	0x80004850	-2.5941e-41
192	0x00003d6d	2.2035e-41
193	0x0000a292	5.8319e-41
194	0x80009b14	-5.5632e-41
195	0x0000ae0b	6.2435e-41
196	0x8000a92b	-6.0686e-41
197	0x0000b6fb	6.5641e-41
198	0x00002cc3	1.6057e-41
199	0x80008d90	-5.0783e-41
200	0x00003f04	2.2606e-41
201	0x8000ac59	-6.1827e-41
202	0x8000c965	-7.2247e-41
203	0x800045e5	-2.5073e-41
204	0x800032fd	-1.8291e-41
205	0x8000854f	-4.7822e-41
206	0x0000ac85	6.1888e-41
207	0x0000429d	2.3896e-41
208	0x8860d277	-6.765495e-34
209	0x0000acfb	6.2054e-41
210	0x80004868	-2.5974e-41
211	0x2e2c1982	3.9130928e-11
212	0xb4e584d2	-4.2751213e-07
213	0x0000d37f	7.587e-41
214	0xb7af0ebb	-2.0868485e-05
215	0x0000c7d9	7.1692e-41
216	0xb736bcb9	-1.0891986e-05
217	0xb90fcb60	-0.00013713306
218	0x8000caeb	-7.2793e-41
219	0xb4f2d31c	-4.5229615e-07
220	0x0000615e	3.4929e-41
221	0x000037c5	2.0006e-41
222	0x800068ce	-3.7597e-41
223	0x8000b2e5	-6.4175e-41
224	0x8000d507	-7.642e-41
225	0x800013b2	-7.065e-42
226	0x800059cb	-3.2212e-41
227	0x000067e5	3.727e-41
228	0x8000c9fd	-7.246e-41
229	0x80003b22	-2.1213e-41
230	0x80006703	-3.6954e-41
231	0x0000d0f4	7.4958e-41
232	0x0000d5a3	7.6638e-41
233	0x0000d149	7.5077e-41
234	0x8000a05c	-5.7526e-41
235	0x80002af6	-1.5411e-41
236	0x8000c8b1	-7.1995e-41
237	0x8000b59d	-6.515e-41
238	0x00008e05	5.0947e-41
239	0x8000d6a7	-7.7003e-41
240	0x0000d385	7.5879e-41
241	0x8000d050	-7.4728e-41
242	0x80004464	-2.4534e-41
243	0x80001f22	-1.1168e-41
244	0x00005254	2.9534e-41
245	0x8000d55c	-7.6539e-41
246	0x0000bba2	6.731e-41
247	0x80008d00	-5.0581e-41
248	0x000048db	2.6136e-41
249	0x8000af22	-6.2826e-41
250	0x00009e5a	5.6806e-41
251	0x8000ae57	-6.2541e-41
252	0x800092fa	-5.2725e-41
253	0x8000be44	-6.8254e-41
254	0x0000a370	5.863e-41
255	0x800023fa	-1.2906e-41

gats.0.lin_r.bias f4 [335]
0	0x37bc468b	2.2444196e-05
1	0xb8778eaa	-5.9022255e-05
2	0x3782080f	1.550096e-05
3	0xb8e09f39	-0.0001071081
4	0xba9e451c	-0.001207504
5	0xb996a77c	-0.00028735015
6	0x3b9cc037	0.004783656
7	0x36c8c9e3	5.983967e-06
8	0xb91cb20e	-0.0001494365
9	0xb943cbb9	-0.00018672542
10	0xb84c86d0	-4.8762944e-05
11	0x395ae501	0.0002087541
12	0x37abc678	2.0477208e-05
13	0xb888024f	-6.485415e-05
14	0x396bf747	0.00022503464
15	0x39c0dcc6	0.00036785583
16	0x39161715	0.00014313713
17	0x36f7ded2	7.3871133e-06
18	0x3a81b6f8	0.0009896448
19	0xb9cbd4ee	-0.00038877822
20	0x3802a66b	3.1149404e-05
21	0xb9498a1f	-0.00019220308
22	0x3a096d3b	0.0005242412
23	0xb6d28e9c	-6.2750896e-06
24	0xb8b13dc2	-8.451521e-05
25	0xb911b84e	-0.00013896936
26	0xb8858f32	-6.3686064e-05
27	0xb8e506d5	-0.000109208435
28	0xb7672eed	-1.3779599e-05
29	0x398b9682	0.00026624283
30	0x3686a204	4.0123723e-06
31	0xb89d96ee	-7.514456e-05
32	0xb7eb4502	-2.8046317e-05
33	0xb8363d14	-4.3449065e-05
34	0x3a3a5f0d	0.00071095006
35	0xb8eb0bfd	-0.00011207906
36	0xb900a459	-0.00012268256
37	0xb947a4e5	-0.00019039547
38	0xba307a85	-0.0006732124
39	0x3755e814	1.2749824e-05
40	0x39a91db4	0.00032256322
41	0x39cdb80d	0.00039237775
42	0xb9074433	-0.0001290001
43	0xb8597f45	-5.185536e-05
44	0x39256c2f	0.00015775928
45	0xb886beae	-6.425135e-05
46	0xb86fca79	-5.7170608e-05
47	0x394fbc14	0.00019811123
48	0x391d6f05	0.00015014045
49	0xb9b8e55a	-0.00035266095
50	0x395590de	0.0002036723
51	0x39f55d25	0.0004679944
52	0x391935cf	0.00014611262
53	0xb827ccae	-4.0006526e-05
54	0xb8be88f1	-9.085413e-05
55	0x39dd0fc8	0.00042164163
56	0x39d7c3e8	0.00041153957
57	0xb83dcbd9	-4.525096e-05
58	0xb76ad664	-1.3997404e-05
59	0x39f7ba5f	0.00047250369
60	0x39ecec9b	0.00045189713
61	0x38fd2db9	0.000120724966
62	0xb8f2af36	-0.00011572095
63	0xb9562b46	-0.00020424751
64	0x37ad40a0	2.06533e-05
65	0x3ad1755a	0.0015980408
66	0x392b2396	0.00016321088
67	0x372ec1a3	1.0416293e-05
68	0x39d38b6c	0.00040348934
69	0xb84f387b	-4.9405247e-05
70	0xb99bc3b1	-0.00029709705
71	0x3d1cc79f	0.03827631
72	0x3a314eae	0.00067637383
73	0x3b71d027	0.003689775
74	0xb8169e76	-3.5910365e-05
75	0x3986df85	0.00025725007
76	0xb8fd5048	-0.00012078934
77	0x3a295b66	0.0006460458
78	0xb8a80e6b	-8.01355e-05
79	0xb956f046	-0.00020498139
80	0xb969e17e	-0.00022304614
81	0xb8240b57	-3.9111208e-05
82	0x38ba8d05	8.895438e-05
83	0x392b028b	0.00016308778
84	0x392cadbe	0.00016467922
85	0xbab61a39	-0.0013893313
86	0xb92e39ee	-0.00016615514
87	0x37cdb673	2.4522864e-05
88	0xb92bd841	-0.00016388392
89	0x3979530e	0.00023777431
90	0xba249c54	-0.0006279398
91	0xb9b91e9a	-0.0003530875
92	0xb868dd52	-5.551923e-05
93	0xb97d8470	-0.00024177297
94	0xb86344c6	-5.4185068e-05
95	0x36e7e0fa	6.910527e-06
96	0xb989e8d3	-0.00026304144
97	0x36a57e68	4.932099e-06
98	0xb99b5bed	-0.00029632394
99	0xb9658062	-0.00021886968
100	0x38aa6eb0	8.126849e-05
101	0x39f20347	0.0004616028
102	0xb7c032dd	-2.2911869e-05
103	0xb97a8f53	-0.0002389525
104	0x3a874db1	0.0010322836
105	0x39d826f7	0.00041227762
106	0x3a844b54	0.001009325
107	0xb825ae80	-3.950158e-05
108	0xba29d761	-0.00064789323
109	0x38bbe6fb	8.959878e-05
110	0xb786c824	-1.6067243e-05
111	0x3ae92722	0.0017788152
112	0xb9d2b6c9	-0.00040190507
113	0x3a8b955b	0.001064937
114	0x397bd0f4	0.00024015066
115	0x39b5446f	0.00034573997
116	0xba2e18a7	-0.0006641247
117	0x383ed5df	4.5498713e-05
118	0x39e6f7b9	0.00044053586
119	0xb902af60	-0.00012463098
120	0xb91306fe	-0.00014021617
121	0x38c29d92	9.2799906e-05
122	0x3898e4e2	7.2905576e-05
123	0x381adac4	3.6920203e-05
124	0x38025f17	3.1082975e-05
125	0x38632324	5.4153745e-05
126	0x39cad3d7	0.00038686275
127	0xb91dc075	-0.00015044383
128	0x38864d9b	6.404073e-05
129	0xb825fe4b	-3.9575894e-05
130	0x3a7e6025	0.00097036577
131	0x38a2353b	7.734677e-05
132	0x3acf1ac0	0.0015800819
133	0xba03aa03	-0.0005022587
134	0x39e81103	0.00044263163
135	0x399e229b	0.00030161891
136	0x3689a428	4.1020285e-06
137	0xb92f7c79	-0.0001673567
138	0xba8475a2	-0.0010105858
139	0xb91d9d6f	-0.00015031335
140	0x3c66e38d	0.014092338
141	0x3a03bbe5	0.0005025252
142	0xb9af91f3	-0.00033487342
143	0x38365f29	4.3480806e-05
144	0xb98109db	-0.0002461214
145	0xb9a1a765	-0.00030833032
146	0x39c45061	0.0003744392
147	0xb6d59828	-6.365608e-06
148	0xb79fdb0d	-1.905628e-05
149	0x393d2096	0.00018036584
150	0x3985d1a5	0.00025523934
151	0x39b35a7b	0.00034208954
152	0x3aa626e1	0.0012676382
153	0xba874d5f	-0.0010322741
154	0x39b3fab4	0.0003432833
155	0x38bebce8	9.0950925e-05
156	0x3a3cbd80	0.00071998686
157	0x3664e4e0	3.410787e-06
158	0xb8671be4	-5.5100667e-05
159	0xb62020df	-2.3860991e-06
160	0x3a30fda6	0.0006751664
161	0x39e8a5a3	0.00044373897
162	0x39b2fa19	0.00034137143
163	0x39281bd4	0.00016032095
164	0xb979334d	-0.00023765602
165	0xb981a483	-0.00024727368
166	0x39bfb35e	0.00036563998
167	0x3a433050	0.0007445859
168	0xb8d8e6b6	-0.00010342656
169	0xb91438db	-0.0001413556
170	0xb7f4947b	-2.9156208e-05
171	0x3a9bc8f9	0.0011885456
172	0xb802d088	-3.1188625e-05
173	0x38001072	3.0532894e-05
174	0xb9807c37	-0.0002450661
175	0x3a4d5c9e	0.00078339304
176	0x39989037	0.00029099148
177	0xb969edc7	-0.0002230919
178	0xb9381a56	-0.00017557418
179	0x38b5bfee	8.666502e-05
180	0xb8d4e610	-0.000101518
181	0x39ce94b3	0.0003940217
182	0x3903e97a	0.0001258011
183	0x3a037b6a	0.00050156435
184	0xb8e69a5c	-0.00010996006
185	0xb8b60aa5	-8.680419e-05
186	0x3722ebd7	9.710863e-06
187	0x392ec99b	0.00016669037
188	0xb9b1187e	-0.0003377832
189	0xb93813d7	-0.00017554998
190	0x3a55b071	0.0008151597
191	0x38a9b210	8.091715e-05
192	0xb81589da	-3.5652753e-05
193	0xb985dfb1	-0.000255344
194	0xb8d01340	-9.9217985e-05
195	0x377746f3	1.4738866e-05
196	0xb7516edd	-1.2483183e-05
197	0x39b468ee	0.00034410454
198	0x3a39b720	0.00070844777
199	0x3ab60b07	0.0013888784
200	0xb95356fe	-0.00020154935
201	0x39b4627f	0.0003440566
202	0x389564b0	7.123628e-05
203	0xb981a872	-0.000247303
204	0xb943fe2f	-0.0001869134
205	0x3d054412	0.03253562
206	0x3823c595	3.904624e-05
207	0x3b437bb3	0.002982837
208	0x3892ce5a	7.0002585e-05
209	0xb9a9c6eb	-0.00032382397
210	0xb9df5371	-0.00042596043
211	0xb950f4ca	-0.00019927617
212	0x3737283a	1.0917016e-05
213	0xb80d2708	-3.365337e-05
214	0x38dd4202	0.00010550396
215	0xb857ae53	-5.1422347e-05
216	0x378de71b	1.6916127e-05
217	0x39adf6e7	0.00033181088
218	0xb96088d4	-0.00021413277
219	0x38d6beb6	0.00010239838
220	0x3828f5b0	4.0283136e-05
221	0x394530bf	0.00018805543
222	0xb8bc755a	-8.986397e-05
223	0xb96e8ec6	-0.00022750636
224	0xb8583595	-5.1548315e-05
225	0x3a12038e	0.00055699877
226	0x399f11dd	0.00030340152
227	0x39d63bba	0.0004086176
228	0xb833dd6e	-4.2883148e-05
229	0x3a0e4fe6	0.0005428776
230	0xb9172366	-0.00014413669
231	0xb90872c5	-0.00013012726
232	0x388ee3de	6.813531e-05
233	0x398c7c0f	0.00026795312
234	0x3991d732	0.00027816888
235	0xb8789072	-5.9262333e-05
236	0xb7c6c2bc	-2.369412e-05
237	0x398d3d1a	0.0002693914
238	0xba8b3657	-0.0010621053
239	0x3982b758	0.00024932134
240	0x38850b65	6.3440566e-05
241	0xb9c6327c	-0.00037803117
242	0x3a61a7cf	0.0008608074
243	0x39796b6b	0.00023786507
244	0x3a1a4c2c	0.0005885984
245	0xb7b2dc98	-2.1321976e-05
246	0xb9b05696	-0.00033633847
247	0x38f55f3d	0.0001170025
248	0xbaa61a08	-0.0012672553
249	0x3a0d8e2c	0.00053999084
250	0xb9eff8ae	-0.00045770913
251	0x38823d50	6.2103034e-05
252	0xb73c36ce	-1.1218433e-05
253	0xb8a4aa3d	-7.851839e-05
254	0xb920265b	-0.00015273078
255	0xb93c12db	-0.00017936101

gats.0.lin_edge.weight f4 [335, 1]
0	0xb8c81812	-9.5412266e-05
1	0x39aad2d9	0.0003258202
2	0x37187b78	9.088653e-06
3	0xb8c36795	-9.317618e-05
4	0xbe27516f	-0.16339658
5	0xb977450f	-0.00023581482
6	0xbe70ae10	-0.235039
7	0x383750f1	4.3705983e-05
8	0xbaf060b0	-0.0018339362
9	0xba677af0	-0.000883027
10	0x36e8cc86	6.9379485e-06
11	0xb9bd58d6	-0.00036115077
12	0x37baf57d	2.2287242e-05
13	0x3a4713a8	0.00075941766
14	0x381b2420	3.6988524e-05
15	0x3a4b7350	0.00077610184
16	0xba98960d	-0.0011641398
17	0xb69b00c4	-4.619449e-06
18	0x3a47dcf9	0.0007624175
19	0xbaf65cdd	-0.0018795986
20	0xba1b8393	-0.0005932387
21	0x3a9c84ff	0.0011941491
22	0xb9cbb155	-0.000388513
23	0x371adb72	9.230209e-06
24	0xb8b891ab	-8.8009365e-05
25	0x3aaf5aaf	0.0013378466
26	0xb8eeb5c4	-0.00011382581
27	0x39541fe4	0.00020229776
28	0xb690b2b9	-4.3123405e-06
29	0x36beba04	5.6840963e-06
30	0x37367c05	1.0876921e-05
31	0xb9815172	-0.0002466548
32	0x389f7d1b	7.6050135e-05
33	0x37d5ab81	2.5471441e-05
34	0xb91ac008	-0.00014758122
35	0xb97ca896	-0.00024095396
36	0x375efd6c	1.32912355e-05
37	0xba10de07	-0.0005526249
38	0x3a8c1870	0.0010688435
39	0xb76920dc	-1.3895533e-05
40	0x3a1b1866	0.00059164164
41	0x392ae2bf	0.00016296933
42	0xb80de6a6	-3.3831828e-05
43	0x38d58766	0.000101818514
44	0x3a53cc2a	0.0008079434
45	0xb9f19b07	-0.00046082606
46	0xb9d2085d	-0.00040060552
47	0xba53022a	-0.00080493337
48	0x39754ac1	0.00023392869
49	0xb93a5aeb	-0.00017772212
50	0x3a247ac6	0.0006274398
51	0x3a0c337c	0.0005348248
52	0x3817aaeb	3.6160385e-05
53	0xb957604b	-0.0002053987
54	0xb8090034	-3.2663535e-05
55	0x399cde53	0.00029920283
56	0x392c6ea8	0.00016444421
57	0x38c9ad18	9.616668e-05
58	0xb720f787	-9.594375e-06
59	0x3a82e8ac	0.0009987555
60	0x3a87d187	0.0010362127
61	0x399e42ab	0.0003018578
62	0xb7406862	-1.1468395e-05
63	0xb9f7f976	-0.00047297374
64	0x378cf9b4	1.6805578e-05
65	0x39a8c095	0.00032186942
66	0x39b996d3	0.00035398323
67	0x37704cd9	1.4323007e-05
68	0x3a71a4d1	0.000921798
69	0xb75749b1	-1.2832156e-05
70	0xb9d3b4f6	-0.00040379883
71	0xbe38a6fc	-0.1803245
72	0xb991d53d	-0.0002781543
73	0xbe327499	-0.17427291
74	0x387536f9	5.846375e-05
75	0xbaba1f9c	-0.0014200094
76	0x39790038	0.00023746572
77	0x3aae11e4	0.0013280478
78	0xb79c8c57	-1.8662e-05
79	0x391310dd	0.00014025295
80	0x3995e717	0.0002859167
81	0xba5c3b63	-0.00084011833
82	0x3a3168f4	0.00067676534
83	0xba133605	-0.00056156545
84	0x3989dee5	0.00026296746
85	0xba45e380	-0.0007548854
86	0xba8a13af	-0.0010534431
87	0xb94428bb	-0.0001870719
88	0xb98abd40	-0.00026462413
89	0xb9bee904	-0.00036413234
90	0x3a4a8872	0.00077260204
91	0x3a31df08	0.00067852484
92	0x3a5a089c	0.0008317323
93	0xb88c2f2f	-6.684509e-05
94	0x398ee8bd	0.00027257754
95	0x36bb099e	5.574154e-06
96	0x39263233	0.00015849694
97	0x3728b519	1.0055745e-05
98	0xb9aa3e37	-0.0003247128
99	0x38817ff7	6.175035e-05
100	0xb81dc7a9	-3.7617665e-05
101	0xba7bd1c3	-0.0009606147
102	0x37579f34	1.2852066e-05
103	0xba4c0498	-0.0007782667
104	0x3a9e2067	0.00120641
105	0x37953b18	1.7789702e-05
106	0x3b0218bb	0.0019851166
107	0xb7d6bb9a	-2.5598147e-05
108	0x38e6de77	0.00011008692
109	0xb8f5cc34	-0.00011720546
110	0x38387651	4.397921e-05
111	0x3b54b12e	0.003245424
112	0x3a05cad7	0.0005103773
113	0x3a46ef3f	0.0007588751
114	0xba2c3703	-0.00065694767
115	0xb841635f	-4.6107332e-05
116	0xba5f1e45	-0.00085112854
117	0x37759b9c	1.4639369e-05
118	0xba1d1c8e	-0.00059933297
119	0xb7665365	-1.3728485e-05
120	0xb90fbeea	-0.00013708664
121	0x39396ca6	0.0001768345
122	0xb8d2eda7	-0.000100578465
123	0x394545ec	0.00018813432
124	0xb799db86	-1.8341245e-05
125	0x388709a7	6.4390995e-05
126	0xba8de11f	-0.0010824538
127	0x3a42c965	0.0007430523
128	0x3a299616	0.0006469203
129	0x370ecc67	8.511451e-06
130	0x3aa1217f	0.0012293308
131	0x39303abe	0.00016806551
132	0x3b256380	0.0025236309
133	0xb9d50fe7	-0.00040638374
134	0x3a49a7eb	0.0007692563
135	0x38e11dc2	0.00010734379
136	0x353d04ce	7.041498e-07
137	0x398eef25	0.00027262527
138	0xbdd79770	-0.10526931
139	0xb9386752	-0.00017586097
140	0xbe44f779	-0.19235028
141	0x3a752d95	0.00093528006
142	0xba934a16	-0.0011237289
143	0xba80c065	-0.0009822963
144	0x38e4f290	0.00010917068
145	0xba5064f3	-0.0007949613
146	0x39586a8c	0.00020639057
147	0xb8c6e971	-9.4848576e-05
148	0x373c2940	1.12152775e-05
149	0x3a48bc93	0.0007657494
150	0xba6e4433	-0.0009089142
151	0x3a3a32b7	0.0007102894
152	0x3a5077c8	0.0007952419
153	0xba6b32fb	-0.0008972135
154	0x38837f1a	6.270241e-05
155	0x3ac2a9bb	0.0014851609
156	0xb9f62340	-0.0004694704
157	0x368ba028	4.1611675e-06
158	0xb7bf648f	-2.28158e-05
159	0x3a448bf3	0.00074976607
160	0x3ac5aff5	0.0015082347
161	0x39f907ed	0.00047498886
162	0x39baccbe	0.0003562923
163	0xb9da2487	-0.00041607415
164	0xb9229b57	-0.00015507393
165	0xb9afb027	-0.00033509845
166	0x3a1424f0	0.0005651256
167	0x3843b95e	4.666426e-05
168	0xb6e48739	-6.8106715e-06
169	0xb8270fa2	-3.9830462e-05
170	0xb7abcd9b	-2.0480531e-05
171	0x3ab8d13b	0.0014100441
172	0xba038971	-0.0005017734
173	0xb801f362	-3.0982665e-05
174	0x38bb9e8e	8.946388e-05
175	0x398dbe32	0.00027035322
176	0x39a4316c	0.0003131734
177	0x3893180c	7.013985e-05
178	0x39837bd8	0.00025078538
179	0xb8cf5ad2	-9.887446e-05
180	0xb99b58ba	-0.0002963001
181	0xba3c42c0	-0.00071815774
182	0xb75a23b1	-1.3002123e-05
183	0x383c3ce7	4.4879413e-05
184	0xb8cd7922	-9.7977245e-05
185	0xb9017ebd	-0.00012349612
186	0xb90db93b	-0.00013515812
187	0x3a928e48	0.0011181319
188	0xb9ab7ba5	-0.00032707784
189	0xb8af089c	-8.346254e-05
190	0x3abb1e4e	0.0014275999
191	0x38087f7e	3.2543663e-05
192	0x38be6335	9.078385e-05
193	0x38ee5039	0.00011363667
194	0xb7e3cac5	-2.715493e-05
195	0x385db3b2	5.285786e-05
196	0x36092cf7	2.0440764e-06
197	0x39daf719	0.00041764302
198	0x3abba45d	0.0014315952
199	0x38fab825	0.000119552285
200	0x39861384	0.00025573012
201	0x39ad44b3	0.00033048316
202	0xb6423253	-2.8937545e-06
203	0x37d899f2	2.5820893e-05
204	0x398d21fc	0.00026918936
205	0xbe3d2c73	-0.18473987
206	0xb911d3f6	-0.00013907239
207	0xbe51ea85	-0.20499618
208	0x389be603	7.433819e-05
209	0xbae83556	-0.0017716091
210	0x3b5783f7	0.0032885054
211	0x38f83b68	0.00011836627
212	0x376b90e8	1.404083e-05
213	0xb79a44d9	-1.839029e-05
214	0x3a0fd315	0.0005486471
215	0x3818048d	3.6243862e-05
216	0xb94e51de	-0.00019676189
217	0xbaa9861d	-0.0012933646
218	0x39308eda	0.00016837884
219	0x399deb2d	0.00030120593
220	0xbb059ca7	-0.0020387562
221	0xba38e5af	-0.00070532685
222	0x3a6630af	0.0008781058
223	0x3ac92bce	0.0015348138
224	0xb8012450	-3.0789815e-05
225	0x3abdd9af	0.001448443
226	0x3b0771d5	0.0020667214
227	0x3a039ccc	0.0005020618
228	0x38f30f14	0.000115899515
229	0x3a58d0e8	0.00082708756
230	0xb965ac1f	-0.00021903262
231	0xb8e77bbc	-0.00011037986
232	0x396e73e0	0.00022740616
233	0x3764a626	1.36285435e-05
234	0x39ca5ee9	0.00038599156
235	0xb915fba9	-0.00014303498
236	0x3932cd55	0.00017051895
237	0x3a5014b0	0.0007937653
238	0xba41afdb	-0.000738857
239	0xb94a32ba	-0.00019283118
240	0x39e55d2b	0.000437477
241	0x3952a937	0.00020090198
242	0xb9f0cdf3	-0.0004592981
243	0x39965965	0.00028676834
244	0x3aa1905c	0.0012326348
245	0xb95ae8d1	-0.00020876831
246	0xb9b5f8cd	-0.0003470838
247	0xb9e45b13	-0.00043555404
248	0xba396a4b	-0.0007073029
249	0xb95ed792	-0.00021251876
250	0xb87c5b8a	-6.0166734e-05
251	0xb76c568d	-1.4086848e-05
252	0x38006018	3.0607072e-05
253	0x39e40f49	0.00043498937
254	0x3a9d3e2a	0.0011996676
255	0x38b3f23a	8.580503e-05
