inference/SyGuS/model_checkpoints/SyGuS_model_4.pt (torch, 502627 bytes, 21 tensors)

gats.0.att f4 [1, 5, 67]
0	0x80000224	-7.68e-43
1	0x3958bf65	0.00020670665
2	0x00008e09	5.0953e-41
3	0xb956aa6e	-0.0002047212
4	0xb4e43654	-4.2507838e-07
5	0x000d3016	1.211111e-39
6	0x8706ce9b	-1.0141755e-34
7	0xb61b753f	-2.3165046e-06
8	0x80005463	-3.0272e-41
9	0x997a6652	-1.29453605e-23
10	0x80001042	-5.832e-42
11	0x3882c765	6.236023e-05
12	0x3911de64	0.00013911125
13	0x800083e2	-4.731e-41
14	0xb6a135c0	-4.8044312e-06
15	0x3588318a	1.0147207e-06
16	0x000060fe	3.4794e-41
17	0x85541b6d	-9.9732294e-36
18	0x80008a0a	-4.9519e-41
19	0xb9b355ba	-0.00034205412
20	0x04ba55b8	4.380711e-36
21	0x38603015	5.345054e-05
22	0xb7332484	-1.0677733e-05
23	0x36c277b0	5.795584e-06
24	0xb88b4c2d	-6.642225e-05
25	0x3a1d69a6	0.00060048176
26	0x392b4ba1	0.00016336005
27	0xb690c8be	-4.314904e-06
28	0xb960e672	-0.00021448152
29	0x0604b433	2.495883e-35
30	0xb5c437f1	-1.4619419e-06
31	0x35e32b1f	1.6925368e-06
32	0xbaa9e8c0	-0.0012963042
33	0xb9b4d9e5	-0.0003449462
34	0x8c508664	-1.6064179e-31
35	0x3916dab9	0.00014386595
36	0x00210420	3.032051e-39
37	0x39048402	0.00012637678
38	0xb97f2b4c	-0.00024334824
39	0x00008572	4.7871e-41
40	0xbaedc8e7	-0.0018141539
41	0xba2fb7f7	-0.0006703133
42	0x80006d7d	-3.9277e-41
43	0x3ab095a4	0.0013472331
44	0x393bc3c9	0.00017906645
45	0x3619bc5d	2.2908418e-06
46	0xb6b57c0f	-5.4086627e-06
47	0xb9e8c53e	-0.00044397445
48	0x39138d0a	0.00014071554
49	0xbaa43804	-0.0012528901
50	0xba071ac9	-0.00051538326
51	0xb74e2ee9	-1.2289479e-05
52	0x000076f5	4.2674e-41
53	0x80008310	-4.7016e-41
54	0x3a8d727c	0.0010791565
55	0x00001990	9.17e-42
56	0x3683a6da	3.9235283e-06
57	0xb941eb0d	-0.00018493478
58	0xb6712922	-3.593574e-06
59	0xb63c58a5	-2.806578e-06
60	0xbb3a30f5	-0.0028410528
61	0x80001ef0	-1.1098e-41
62	0x00004126	2.3371e-41
63	0xbb22762b	-0.0024789672
64	0x361a0f46	2.2956679e-06
65	0x3530b0b6	6.582226e-07
66	0x0000adc8	6.2341e-41
67	0x80003478	-1.8822e-41
68	0x39581585	0.00020607382
69	0x00008c43	5.0316e-41
70	0xb9567069	-0.00020450506
71	0xb4de3c1d	-4.139446e-07
72	0x000d33ac	1.212398e-39
73	0x8704f773	-1.0003295e-34
74	0xb61abaa5	-2.305643e-06
75	0x800053d7	-3.0076e-41
76	0x9979af80	-1.290844e-23
77	0x80000938	-3.307e-42
78	0x3882a03c	6.228729e-05
79	0x3911ccf0	0.00013904623
80	0x00007bc4	4.4399e-41
81	0xb6a0965f	-4.785877e-06
82	0x3586e470	1.0050262e-06
83	0x0000609a	3.4654e-41
84	0x85534bf8	-9.9351256e-36
85	0x80004546	-2.485e-41
86	0xb9b27f45	-0.0003404563
87	0x04ba4d3c	4.379932e-36
88	0x385fb461	5.3335334e-05
89	0xb732e03f	-1.0661838e-05
90	0x36c214ad	5.7840575e-06
91	0xb88b42b1	-6.640459e-05
92	0x3a1d0346	0.00059895625
93	0x392ae901	0.00016299264
94	0xb691688f	-4.333509e-06
95	0xb96187b9	-0.00021508233
96	0x06049c47	2.4941255e-35
97	0xb5c329d4	-1.4540806e-06
98	0x35e47e31	1.702405e-06
99	0xbaa986a0	-0.0012933798
100	0xb9b456c8	-0.00034396932
101	0x8c4bb16c	-1.5691942e-31
102	0x3916c8b2	0.0001437988
103	0x00210398	3.03186e-39
104	0x39041073	0.00012594629
105	0xb97ef035	-0.00024312812
106	0x0000428a	2.387e-41
107	0xbaed9543	-0.0018126148
108	0xba2f34dd	-0.00066835975
109	0x80007190	-4.0739e-41
110	0x3aaddd17	0.0013264742
111	0x393b11a7	0.00017840286
112	0x3619866f	2.2877027e-06
113	0xb6b57192	-5.4074417e-06
114	0xb9e89128	-0.00044358638
115	0x3913483c	0.00014045922
116	0xbaa3f980	-0.001251027
117	0xba067d4e	-0.0005130366
118	0xb74dfa21	-1.227719e-05
119	0x800066c6	-3.6868e-41
120	0x80003340	-1.8385e-41
121	0x3a8ce6c7	0.0010749929
122	0x000014d4	7.472e-42
123	0x36837fb1	3.9189695e-06
124	0xb941c75b	-0.0001848018
125	0xb6715617	-3.596191e-06
126	0xb63c3c71	-2.8049365e-06
127	0xbb39add0	-0.002833236
128	0x80001f04	-1.1126e-41
129	0x80009ac6	-5.5522e-41
130	0xbb2280b5	-0.0024795954
131	0x36192c55	2.2824581e-06
132	0x3530b03c	6.5821564e-07
133	0x80006176	-3.4962e-41
134	0x800017d4	-8.548e-42
135	0x39579845	0.00020560723
136	0x00008c3a	5.0304e-41
137	0xb956bcb1	-0.00020478923
138	0xb4e0ab15	-4.184773e-07
139	0x000d305c	1.21121e-39
140	0x8704d643	-9.993542e-35
141	0xb61a915f	-2.3032405e-06
142	0x80005949	-3.203e-41
143	0x997a3cd5	-1.2936982e-23
144	0x000004b0	1.682e-42
145	0x3882a74a	6.230043e-05
146	0x3911a685	0.00013890311
147	0x00008b8b	5.0059e-41
148	0xb6a0a38f	-4.7874123e-06
149	0x3587bf34	1.0113931e-06
150	0x000060fc	3.4791e-41
151	0x85538221	-9.945073e-36
152	0x00005df4	3.3704e-41
153	0xb9b22dd4	-0.0003398495
154	0x04ba4b42	4.3797503e-36
155	0x3860a937	5.3563355e-05
156	0xb7328db5	-1.06426205e-05
157	0x36c28aa3	5.79779e-06
158	0xb88b2487	-6.63484e-05
159	0x3a1cf358	0.0005987189
160	0x392b0248	0.0001630868
161	0xb691a55d	-4.3405876e-06
162	0xb960d00a	-0.00021439805
163	0x06049d31	2.4941927e-35
164	0xb5c27cc0	-1.4490433e-06
165	0x35e36fff	1.6945413e-06
166	0xbaa98605	-0.0012933618
167	0xb9b4e8c4	-0.000345057
168	0x8c4c43b1	-1.5735958e-31
169	0x3916d2b4	0.00014383608
170	0x002110ea	3.036639e-39
171	0x3902cd30	0.00012474204
172	0xb97efcc2	-0.00024317487
173	0x80000db3	-4.914e-42
174	0xbaed9adf	-0.001812782
175	0xba2f2d98	-0.0006682514
176	0x80007885	-4.3234e-41
177	0x3aae9284	0.0013318812
178	0x393b5187	0.00017864081
179	0x3619612c	2.2855338e-06
180	0xb6b56417	-5.4058723e-06
181	0xb9e8af3c	-0.00044381048
182	0x39137d27	0.00014065635
183	0xbaa40769	-0.0012514415
184	0xba06f4a7	-0.00051481504
185	0xb74e143b	-1.2283267e-05
186	0x000000ca	2.83e-43
187	0x000086e4	4.839e-41
188	0x3a8d31b5	0.001077226
189	0x00001796	8.461e-42
190	0x36837881	3.9181327e-06
191	0xb941df9d	-0.00018489217
192	0xb6710404	-3.5914136e-06
193	0xb63d28be	-2.818691e-06
194	0xbb3a0109	-0.0028381965
195	0x80001eb8	-1.102e-41
196	0x80000df0	-5e-42
197	0xbb22f19f	-0.0024863256
198	0x3619907a	2.2882873e-06
199	0x3530ba96	6.583663e-07
200	0x0000700e	4.0198e-41
201	0x8000360a	-1.9386e-41
202	0x3958453a	0.00020625154
203	0x00008ac2	4.9777e-41
204	0xb956d219	-0.00020486898
205	0xb4e5adf2	-4.2781136e-07
206	0x000d2dba	1.210265e-39
207	0x87085f86	-1.0259575e-34
208	0xb61b03fc	-2.309912e-06
209	0x800052e4	-2.9736e-41
210	0x9979142d	-1.2877073e-23
211	0x80008058	-4.6041e-41
212	0x3882effb	6.243583e-05
213	0x39120208	0.00013924402
214	0x0000a22b	5.8175e-41
215	0xb6a0e29e	-4.7947533e-06
216	0x3588455c	1.0152976e-06
217	0x00006156	3.4918e-41
218	0x8555ff85	-1.00621434e-35
219	0x0000864c	4.8177e-41
220	0xb9b27e7c	-0.00034045044
221	0x04b9d43d	4.36882e-36
222	0x386119cb	5.3668202e-05
223	0xb73324db	-1.06778125e-05
224	0x36c30c3c	5.812877e-06
225	0xb88b6a2d	-6.647813e-05
226	0x3a1d7f14	0.0006008011
227	0x392b6de7	0.00016348773
228	0xb691756e	-4.3350074e-06
229	0xb961ef4d	-0.00021546819
230	0x06049ed0	2.4943118e-35
231	0xb5c4769a	-1.4637656e-06
232	0x35e3fb60	1.6985978e-06
233	0xbaa9b900	-0.0012948811
234	0xb9b53df8	-0.0003456918
235	0x8c5210e6	-1.6182897e-31
236	0x3917047c	0.00014402153
237	0x0020e6ba	3.021505e-39
238	0x3904749d	0.00012631943
239	0xb97f4cb3	-0.00024347268
240	0x0000a8da	6.0573e-41
241	0xbaedbec3	-0.0018138516
242	0xba2f809d	-0.0006694885
243	0x8000763e	-4.2417e-41
244	0x3ab0a7e1	0.0013477766
245	0x393bdb59	0.00017915423
246	0x361a2337	2.2968286e-06
247	0xb6b56d83	-5.406969e-06
248	0xb9e9013a	-0.00044442137
249	0x3913b51d	0.00014086482
250	0xbaa4686c	-0.0012543327
251	0xba07189b	-0.0005153508
252	0xb74e63d0	-1.2301796e-05
253	0x8000557f	-3.067e-41
254	0x80008b16	-4.9895e-41
255	0x3a8d9b56	0.001080374

gats.0.bias f4 [67]
0	0x912a8b1e	-1.3453504e-28
1	0x3ae0c532	0.0017148613
2	0x8000ac5b	-6.183e-41
3	0x3aabfe04	0.0013121967
4	0x3958f3ef	0.00020690238
5	0xae5490e5	-4.833191e-11
6	0xb758b0ff	-1.2915813e-05
7	0x39091f25	0.0001307694
8	0x00005c63	3.3142e-41
9	0xa40e985e	-3.0920402e-17
10	0x80000036	-7.6e-44
11	0x39e5f5cb	0.00043861414
12	0x3b19114b	0.0023356255
13	0x00004f33	2.8411e-41
14	0x3957f5a5	0.00020595508
15	0x39385ffc	0.00017583364
16	0xb7c083c0	-2.2949534e-05
17	0xb7dabd39	-2.6075739e-05
18	0xb79ec76a	-1.8927927e-05
19	0xb8c55900	-9.4102696e-05
20	0x8f65ed97	-1.133633e-29
21	0x3a58da35	0.00082722615
22	0x3a2a8eda	0.0006506272
23	0x398a3ff0	0.00026369048
24	0x3a4d4f57	0.0007831952
25	0x3c33d96f	0.010977133
26	0x3af4daa8	0.0018680887
27	0x38a72bbe	7.971328e-05
28	0xb94220d9	-0.00018513518
29	0xb7a45edb	-1.9594494e-05
30	0x392e7857	0.00016638763
31	0x394b086d	0.00019362727
32	0xbbc1b3fa	-0.0059113475
33	0xbb1dfe8d	-0.0024108023
34	0x956bd137	-4.7622913e-26
35	0x3abe6720	0.0014526583
36	0xaf610b2a	-2.0467597e-10
37	0x3b0a7c06	0.0021131053
38	0xba46e0d2	-0.00075866014
39	0x00002854	1.4467e-41
40	0xbc6d1dd5	-0.014472445
41	0xb990bdee	-0.0002760733
42	0x00002cf2	1.6123e-41
43	0x3d99e429	0.07514221
44	0x3b08071b	0.0020756188
45	0x38f172c7	0.000115131545
46	0x384d97af	4.9017075e-05
47	0xbb6a6ee8	-0.0035771672
48	0x3ade15e4	0.001694378
49	0xbc83bdd5	-0.01608173
50	0xbaec72b5	-0.0018039556
51	0x396e2911	0.00022712747
52	0x00009cd4	5.626e-41
53	0xb7a35f23	-1.9475416e-05
54	0x3c9bae1b	0.019003918
55	0xb80e26ba	-3.3891505e-05
56	0x39a4915f	0.00031388827
57	0x3a86a429	0.0010272312
58	0x3a06ffb5	0.00051497977
59	0x39eed3c7	0.00045552684
60	0xbd82d317	-0.063879184
61	0x871f8d57	-1.2003367e-34
62	0x896b1f76	-2.8301889e-33
63	0xbdf98637	-0.121838026
64	0x38a8fe64	8.058248e-05
65	0xb5eb0099	-1.7509038e-06
66	0x85501a15	-9.7849035e-36

gats.0.lin_l.weight f4 [335, 67]
0	0x0000483a	2.591e-41
1	0x80009e74	-5.6842e-41
2	0x800077c0	-4.2958e-41
3	0x8000229a	-1.2413e-41
4	0x8000520c	-2.9433e-41
5	0x00001e07	1.0772e-41
6	0x8000006b	-1.5e-43
7	0x0000afbe	6.3044e-41
8	0x8000ac3f	-6.179e-41
9	0x80000014	-2.8e-44
10	0x800030e8	-1.7544e-41
11	0x800035ba	-1.9273e-41
12	0x0000037b	1.249e-42
13	0x800090f0	-5.1994e-41
14	0x80001e95	-1.0971e-41
15	0x80008704	-4.8434e-41
16	0x80009e0a	-5.6694e-41
17	0x0000a7ba	6.0169e-41
18	0x80008556	-4.7832e-41
19	0x00009608	5.3821e-41
20	0x80006ece	-3.9749e-41
21	0x000019d3	9.264e-42
22	0x00003eed	2.2574e-41
23	0x800043e8	-2.436e-41
24	0x00001113	6.125e-42
25	0x0000091d	3.269e-42
26	0x800005e3	-2.112e-42
27	0x000004dd	1.745e-42
28	0x00000131	4.27e-43
29	0x800002d5	-1.016e-42
30	0x800011e3	-6.417e-42
31	0x800034df	-1.8967e-41
32	0x00000183	5.42e-43
33	0x0000004a	1.04e-43
34	0x800014ea	-7.503e-42
35	0x00007c38	4.4561e-41
36	0x80004fd5	-2.8638e-41
37	0x0000082d	2.933e-42
38	0x80000461	-1.571e-42
39	0x8000127e	-6.634e-42
40	0x00002918	1.4742e-41
41	0x80004526	-2.4806e-41
42	0x000000a2	2.27e-43
43	0x00000224	7.68e-43
44	0x00003332	1.8365e-41
45	0x80009d29	-5.6378e-41
46	0x80000141	-4.5e-43
47	0x000051e9	2.9384e-41
48	0x80008d19	-5.0616e-41
49	0x80000d56	-4.784e-42
50	0x80000268	-8.63e-43
51	0x8000a9b5	-6.088e-41
52	0x00009e12	5.6705e-41
53	0x80001062	-5.877e-42
54	0x00000214	7.45e-43
55	0x00001ee4	1.1081e-41
56	0x80000477	-1.602e-42
57	0x0000474d	2.5578e-41
58	0x800006ff	-2.51e-42
59	0x8000439b	-2.4252e-41
60	0x000041e0	2.3631e-41
61	0x80000068	-1.46e-43
62	0x00000b78	4.114e-42
63	0x80002209	-1.221e-41
64	0x0000a7e0	6.0222e-41
65	0x00001dee	1.0737e-41
66	0x8000009c	-2.19e-43
67	0xb7f5d1cf	-2.9303976e-05
68	0x3a82cb34	0.0009978772
69	0xbab1e8dc	-0.0013573426
70	0xbb04a95a	-0.0020242543
71	0x3c168dc4	0.009189073
72	0x3a42b5e4	0.00074276165
73	0x00007c32	4.4553e-41
74	0xbaf2a9c5	-0.001851373
75	0xb681e78e	-3.871456e-06
76	0x00000346	1.174e-42
77	0x3acab575	0.0015465455
78	0xb9b40c3a	-0.00034341385
79	0x8000028d	-9.15e-43
80	0xba4b6901	-0.0007759482
81	0x80000f42	-5.473e-42
82	0xbb945f2d	-0.0045279474
83	0xbb2da100	-0.0026493669
84	0x800010e5	-6.06e-42
85	0x3b90f912	0.0044242227
86	0x3a946a8e	0.001132326
87	0x0000ae56	6.254e-41
88	0x000079b7	4.3663e-41
89	0x80000f24	-5.431e-42
90	0x8000161a	-7.929e-42
91	0x800001a1	-5.84e-43
92	0x8000013e	-4.46e-43
93	0x8000416f	-2.3473e-41
94	0x8000005d	-1.3e-43
95	0x000040d0	2.325e-41
96	0x80003580	-1.9192e-41
97	0x80006b41	-3.8475e-41
98	0x80006978	-3.7835e-41
99	0x00002683	1.3815e-41
100	0x000068be	3.7574e-41
101	0x8000a85e	-6.0399e-41
102	0x000019a5	9.2e-42
103	0x80004130	-2.3385e-41
104	0x80003bfd	-2.152e-41
105	0x80005b8c	-3.2841e-41
106	0x00000ee4	5.342e-42
107	0x800017e8	-8.576e-42
108	0x80000ebf	-5.29e-42
109	0x80001ae0	-9.641e-42
110	0x000069e6	3.7989e-41
111	0x00000961	3.365e-42
112	0x00001f22	1.1168e-41
113	0x800069db	-3.7974e-41
114	0x80001183	-6.282e-42
115	0x0000003b	8.3e-44
116	0x00000f64	5.521e-42
117	0x0000038b	1.271e-42
118	0x80007c54	-4.46e-41
119	0x800001fd	-7.13e-43
120	0x80002f2e	-1.6925e-41
121	0x0000102d	5.803e-42
122	0x00001399	7.03e-42
123	0x00001fac	1.1362e-41
124	0x80005257	-2.9538e-41
125	0x0000109c	5.958e-42
126	0x80000374	-1.239e-42
127	0x800041c0	-2.3587e-41
128	0x00008385	4.718e-41
129	0x00000061	1.36e-43
130	0x80000a3a	-3.669e-42
131	0x00000fcb	5.665e-42
132	0x00000519	1.829e-42
133	0x37c1a830	2.3085711e-05
134	0x80007faa	-4.5797e-41
135	0x00007fa8	4.5794e-41
136	0x00001cd0	1.0336e-41
137	0x80008b4b	-4.9969e-41
138	0x80000613	-2.179e-42
139	0x80000613	-2.179e-42
140	0x00008a12	4.953e-41
141	0x00007d0b	4.4857e-41
142	0x0000110b	6.114e-42
143	0x0000028a	9.11e-43
144	0x00005702	3.1213e-41
145	0x00001e98	1.0975e-41
146	0x00000757	2.633e-42
147	0x00009087	5.1847e-41
148	0x00006100	3.4797e-41
149	0x8000a69f	-5.9772e-41
150	0x80007fd4	-4.5856e-41
151	0x0000001f	4.3e-44
152	0x80001d57	-1.0525e-41
153	0x0000a704	5.9914e-41
154	0x80000296	-9.28e-43
155	0x8000a8a1	-6.0493e-41
156	0x800018ed	-8.942e-42
157	0x000036a6	1.9604e-41
158	0x8000407b	-2.3131e-41
159	0x000039ab	2.0687e-41
160	0x00006b36	3.846e-41
161	0x80001906	-8.977e-42
162	0x800031f5	-1.7921e-41
163	0x800043fa	-2.4385e-41
164	0x00001c1e	1.0087e-41
165	0x8000038b	-1.271e-42
166	0x00007e3b	4.5283e-41
167	0x80003596	-1.9223e-41
168	0x80003801	-2.009e-41
169	0x0000033a	1.157e-42
170	0x80000beb	-4.275e-42
171	0x0000025f	8.5e-43
172	0x80007398	-4.1467e-41
173	0x00000ab0	3.834e-42
174	0x00000628	2.208e-42
175	0x8000784e	-4.3157e-41
176	0x8000305e	-1.7351e-41
177	0x00003ee7	2.2565e-41
178	0x000002cf	1.008e-42
179	0x000019df	9.281e-42
180	0x00007d25	4.4893e-41
181	0x00002c98	1.5997e-41
182	0x00002a73	1.5228e-41
183	0x0000482a	2.5888e-41
184	0x8000542d	-3.0197e-41
185	0x00001183	6.282e-42
186	0x0000215d	1.1968e-41
187	0x000085ef	4.8046e-41
188	0x80002161	-1.1974e-41
189	0x8000438a	-2.4228e-41
190	0x000001d5	6.57e-43
191	0x0000102b	5.8e-42
192	0x00009c16	5.5993e-41
193	0x00000ac8	3.868e-42
194	0x800026d8	-1.3935e-41
195	0x80001079	-5.909e-42
196	0x00000344	1.171e-42
197	0x00000304	1.082e-42
198	0x800002d6	-1.017e-42
199	0x8000388b	-2.0284e-41
200	0x80007965	-4.3548e-41
201	0x3835d176	4.334884e-05
202	0xb9aba661	-0.00032739624
203	0x3b909fb6	0.0044135703
204	0x3b3a3193	0.0028410896
205	0x3a06877a	0.0005131882
206	0xb79d3eca	-1.8745097e-05
207	0x8000860d	-4.8088e-41
208	0x399045a5	0.0002751771
209	0x36bce883	5.6299045e-06
210	0x80004477	-2.456e-41
211	0x3a839b48	0.0010040784
212	0x3aa16359	0.0012312933
213	0x000005b4	2.046e-42
214	0x3995029b	0.00028421436
215	0x80003619	-1.9407e-41
216	0x3ac309ce	0.0014880241
217	0x3a866635	0.0010253849
218	0x80000354	-1.194e-42
219	0x3a66d618	0.0008805706
220	0x3a1b42cd	0.0005922735
221	0x0000444e	2.4503e-41
222	0x80006455	-3.5992e-41
223	0x000007dc	2.82e-42
224	0x80005134	-2.913e-41
225	0x00001845	8.706e-42
226	0x0000773f	4.2777e-41
227	0x00000297	9.29e-43
228	0x800010b6	-5.995e-42
229	0x800002df	-1.03e-42
230	0x00007539	4.2052e-41
231	0x00001111	6.122e-42
232	0x800002f8	-1.065e-42
233	0x0000457e	2.4929e-41
234	0x000020f2	1.1819e-41
235	0x00000243	8.11e-43
236	0x80000022	-4.8e-44
237	0x80002196	-1.2048e-41
238	0x0000546d	3.0286e-41
239	0x8000441f	-2.4437e-41
240	0x00000288	9.08e-43
241	0x80005ab4	-3.2538e-41
242	0x8000978c	-5.4365e-41
243	0x80006257	-3.5278e-41
244	0x80001797	-8.462e-42
245	0x800065c3	-3.6505e-41
246	0x80003317	-1.8328e-41
247	0x80004b6b	-2.7055e-41
248	0x000007c9	2.793e-42
249	0x80003835	-2.0163e-41
250	0x800002d4	-1.015e-42
251	0x800009ff	-3.586e-42
252	0x80003dc2	-2.2155e-41
253	0x000009c9	3.51e-42
254	0x0000078e	2.71e-42
255	0x000069d7	3.7968e-41

gats.0.lin_l.bias f4 [335]
0	0x80191870	-2.304654e-39
1	0xba984bb2	-0.0011619239
2	0x00006f28	3.9875e-41
3	0x3afb7371	0.0019184184
4	0x394aeec5	0.0001935317
5	0x8354b8db	-6.2513404e-37
6	0x8acae906	-1.9539546e-32
7	0x3903e14a	0.0001257706
8	0x800037d5	-2.0029e-41
9	0x1dea82d4	6.2074557e-21
10	0x0000aa6c	6.1136e-41
11	0x3992c960	0.00027997326
12	0x3aa62ba7	0.0012677804
13	0x000085e2	4.8028e-41
14	0x3923e783	0.00015631136
15	0x38e2ad0f	0.000108087545
16	0x80006526	-3.6285e-41
17	0x8af12892	-2.3222717e-32
18	0x801502de	-1.929574e-39
19	0x3ab70e39	0.0013966031
20	0x886e0f2b	-7.163835e-34
21	0x39ad033d	0.00032999544
22	0x370d053b	8.405473e-06
23	0x390ecc9a	0.00013618395
24	0x3a1d569b	0.000600198
25	0x3bbbbbfe	0.0057291975
26	0x399164aa	0.00027731556
27	0xb7118aa6	-8.674955e-06
28	0x3994a2c4	0.0002835003
29	0x891811d4	-1.8304717e-33
30	0x3903fa8e	0.00012586472
31	0x393d9454	0.00018079701
32	0x3c02c29c	0.007980969
33	0x3b136693	0.002249156
34	0x91e5b844	-3.6243392e-28
35	0x3aab026a	0.0013046984
36	0x8637d671	-3.457602e-35
37	0xb9c41c3b	-0.00037405067
38	0x39c468d8	0.00037462148
39	0x800050ef	-2.9034e-41
40	0x3c68741e	0.014187841
41	0x3b1b7cce	0.0023725512
42	0x0000982b	5.4588e-41
43	0x3d0b24e6	0.033970736
44	0xba9bb3f5	-0.0011879193
45	0x38dd4ce6	0.00010552425
46	0x3897e5ef	7.2430696e-05
47	0x3b3e94b6	0.0029080338
48	0x3a888965	0.0010416923
49	0x3c713092	0.014721053
50	0x3b3c5a9c	0.002874053
51	0x393fee76	0.00018304013
52	0x000053c4	3.005e-41
53	0x80406fba	-5.917552e-39
54	0x3ad07d8a	0.0015906554
55	0x84422d2e	-2.2825336e-36
56	0x396a5469	0.00022347424
57	0x3abf8921	0.0014613011
58	0x392c145e	0.00016410786
59	0x39c34e20	0.00037251506
60	0x3d63f0f2	0.055649705
61	0x00003038	1.7298e-41
62	0x80ce8116	-1.896442e-38
63	0x3e01767d	0.12642856
64	0x381612de	3.578036e-05
65	0x35f9c280	1.8608553e-06
66	0x80006716	-3.698e-41
67	0x80191870	-2.304654e-39
68	0xba98bafe	-0.0011652408
69	0x00006f28	3.9875e-41
70	0x3afb6d9f	0.001918245
71	0x394aef40	0.00019353349
72	0x8354b8db	-6.2513404e-37
73	0x8acae906	-1.9539546e-32
74	0x3903df6f	0.00012576369
75	0x800037d5	-2.0029e-41
76	0x1dea82d4	6.2074557e-21
77	0x80004bc9	-2.7187e-41
78	0x3992bc8e	0.00027987774
79	0x3aa62f9e	0.0012678986
80	0x000085e2	4.8028e-41
81	0x3923e67a	0.0001563075
82	0x38e2a8b8	0.00010807946
83	0x80006526	-3.6285e-41
84	0x8af12892	-2.3222717e-32
85	0x801502de	-1.929574e-39
86	0x3ab714ae	0.0013967955
87	0x886e0f2b	-7.163835e-34
88	0x39ad031f	0.00032999457
89	0x370f1c8b	8.53011e-06
90	0x390e8f87	0.00013595643
91	0x3a1d46db	0.0005999633
92	0x3bbc0f25	0.00573911
93	0x399140f4	0.0002770495
94	0xb7121268	-8.706564e-06
95	0x3994f006	0.0002840759
96	0x891811d4	-1.8304717e-33
97	0x3903f933	0.00012585967
98	0x393d904d	0.00018078201
99	0x3c02d35b	0.007984961
100	0x3b132288	0.0022451002
101	0x91e5b844	-3.6243392e-28
102	0x3aab040b	0.001304747
103	0x8637d671	-3.457602e-35
104	0xb9c3313e	-0.00037229987
105	0x39c4999b	0.00037498478
106	0x800050ef	-2.9034e-41
107	0x3c684441	0.014176429
108	0x3b1b1a41	0.0023666772
109	0x0000982b	5.4588e-41
110	0x3d0b145c	0.033954963
111	0xba9bd91d	-0.0011890266
112	0x38dd4d41	0.00010552491
113	0x3897e6bb	7.243218e-05
114	0x3b3ed77c	0.0029120138
115	0x3a889087	0.0010419049
116	0x3c7132d8	0.014721595
117	0x3b3f7638	0.002921475
118	0x393ff45e	0.00018306213
119	0x000053c4	3.005e-41
120	0x80406810	-5.914802e-39
121	0x3acf995c	0.0015838551
122	0x84422d2e	-2.2825336e-36
123	0x396a57f3	0.00022348743
124	0x3abf8fda	0.0014615015
125	0x392c1442	0.00016410745
126	0x39c34a43	0.00037248628
127	0x3d6427d9	0.055702064
128	0x00003038	1.7298e-41
129	0x80ce8116	-1.896442e-38
130	0x3e019276	0.12653527
131	0x38161294	3.578009e-05
132	0x35f9c280	1.8608553e-06
133	0x80006716	-3.698e-41
134	0x80191870	-2.304654e-39
135	0xba9a37a4	-0.001176585
136	0x00006f28	3.9875e-41
137	0x3afb6b98	0.0019181846
138	0x394aef31	0.00019353327
139	0x8354b8db	-6.2513404e-37
140	0x8acae906	-1.9539546e-32
141	0x3903e0c6	0.00012576868
142	0x800037d5	-2.0029e-41
143	0x1dea82d4	6.2074557e-21
144	0x800032f1	-1.8274e-41
145	0x3992dc2c	0.0002801133
146	0x3aa63b03	0.0012682382
147	0x000085e2	4.8028e-41
148	0x3923e776	0.00015631117
149	0x38e2ac1f	0.0001080858
150	0x80006526	-3.6285e-41
151	0x8af12892	-2.3222717e-32
152	0x801502de	-1.929574e-39
153	0x3ab702db	0.0013962643
154	0x886e0f2b	-7.163835e-34
155	0x39ad0622	0.000330017
156	0x371069f0	8.607734e-06
157	0x390e91fd	0.0001359656
158	0x3a1d462b	0.00059995305
159	0x3bbbd5c2	0.005732269
160	0x399149f7	0.00027711663
161	0xb710297b	-8.592727e-06
162	0x3994d525	0.00028387565
163	0x891811d4	-1.8304717e-33
164	0x3903fade	0.00012586589
165	0x393d9084	0.00018078281
166	0x3c02c947	0.007982559
167	0x3b1334aa	0.002246181
168	0x91e5b844	-3.6243392e-28
169	0x3aab039f	0.0013047344
170	0x8637d671	-3.457602e-35
171	0xb9c19e65	-0.00036929842
172	0x39c4a69f	0.00037508176
173	0x800050ef	-2.9034e-41
174	0x3c68766f	0.014188393
175	0x3b1af9f0	0.002364751
176	0x0000982b	5.4588e-41
177	0x3d0b0c89	0.0339475
178	0xba9c59d5	-0.0011928628
179	0x38dd4d43	0.00010552492
180	0x3897e619	7.2431e-05
181	0x3b3e9a8b	0.0029083814
182	0x3a8890a1	0.0010419079
183	0x3c715631	0.014730022
184	0x3b3cdf1f	0.0028819514
185	0x393fee5a	0.00018303972
186	0x000053c4	3.005e-41
187	0x80406fba	-5.917552e-39
188	0x3ad40f31	0.0016178844
189	0x84422d2e	-2.2825336e-36
190	0x396a5ac3	0.0002234979
191	0x3abf951d	0.0014616583
192	0x392c1128	0.0001640959
193	0x39c34cac	0.00037250423
194	0x3d64008a	0.055664577
195	0x00003038	1.7298e-41
196	0x80ce8116	-1.896442e-38
197	0x3e01ad26	0.12663707
198	0x381612d0	3.5780307e-05
199	0x35f9c280	1.8608553e-06
200	0x80006716	-3.698e-41
201	0x80191870	-2.304654e-39
202	0xba997f95	-0.0011710996
203	0x00006f28	3.9875e-41
204	0x3afb6a63	0.0019181486
205	0x394aefa9	0.00019353502
206	0x8354b8db	-6.2513404e-37
207	0x8acae906	-1.9539546e-32
208	0x3903db19	0.00012574754
209	0x800037d5	-2.0029e-41
210	0x1dea82d4	6.2074557e-21
211	0x80007cb5	-4.4736e-41
212	0x3992d036	0.0002800242
213	0x3aa62c08	0.0012677917
214	0x000085e2	4.8028e-41
215	0x3923f245	0.00015635144
216	0x38e2a8e3	0.000108079774
217	0x80006526	-3.6285e-41
218	0x8af12892	-2.3222717e-32
219	0x801502de	-1.929574e-39
220	0x3ab6fefa	0.0013961487
221	0x886e0f2b	-7.163835e-34
222	0x39ad2205	0.00033022478
223	0x370d1361	8.408767e-06
224	0x390e9b81	0.00013600105
225	0x3a1d38ef	0.00059975585
226	0x3bbbc599	0.0057303426
227	0x399162aa	0.00027730066
228	0xb71117a8	-8.648181e-06
229	0x39946f66	0.00028311758
230	0x891811d4	-1.8304717e-33
231	0x3903ff38	0.0001258821
232	0x393d94e9	0.00018079918
233	0x3c02cec9	0.007983872
234	0x3b133740	0.0022463351
235	0x91e5b844	-3.6243392e-28
236	0x3aab02c5	0.001304709
237	0x8637d671	-3.457602e-35
238	0xb9c3abb2	-0.0003732122
239	0x39c4bd10	0.00037524896
240	0x800050ef	-2.9034e-41
241	0x3c685342	0.014180006
242	0x3b1b2db2	0.002367836
243	0x0000982b	5.4588e-41
244	0x3d0afa1b	0.033929925
245	0xba9b4a1e	-0.001184765
246	0x38dd4eb6	0.00010552762
247	0x3897e7ea	7.2434384e-05
248	0x3b3ebfa9	0.0029105938
249	0x3a887e11	0.0010413547
250	0x3c717318	0.014736913
251	0x3b3cc88b	0.0028806056
252	0x393fecb9	0.00018303366
253	0x000053c4	3.005e-41
254	0x80406fba	-5.917552e-39
255	0x3ad4d005	0.0016236311

gats.0.lin_r.weight f4 [335, 67]
0	0x8000265b	-1.376e-41
1	0x0000a001	5.7399e-41
2	0x8000429a	-2.3892e-41
3	0x800012db	-6.764e-42
4	0x80000d01	-4.665e-42
5	0x00000164	4.99e-43
6	0x000097e2	5.4485e-41
7	0x800052fe	-2.9772e-41
8	0x0000036f	1.232e-42
9	0x00000276	8.83e-43
10	0x80007bf8	-4.4472e-41
11	0x80006746	-3.7048e-41
12	0x0000060f	2.173e-42
13	0x8000426b	-2.3826e-41
14	0x0000147e	7.351e-42
15	0x8000ad1c	-6.21e-41
16	0x000009d5	3.527e-42
17	0x80000714	-2.539e-42
18	0x8000085f	-3.003e-42
19	0x0000014e	4.68e-43
20	0x00003c4a	2.1628e-41
21	0x0000a285	5.8301e-41
22	0x00009c15	5.5992e-41
23	0x80002ac5	-1.5343e-41
24	0x00000135	4.33e-43
25	0x800004e8	-1.76e-42
26	0x00002b02	1.5428e-41
27	0x00001b88	9.876e-42
28	0x00009705	5.4176e-41
29	0x00000481	1.616e-42
30	0x80003497	-1.8866e-41
31	0x00000abc	3.851e-42
32	0x0000011c	3.98e-43
33	0x000004df	1.747e-42
34	0x80000085	-1.86e-43
35	0x00000ae7	3.911e-42
36	0x00001efb	1.1114e-41
37	0x000001af	6.04e-43
38	0x80001001	-5.741e-42
39	0x00003c30	2.1591e-41
40	0x00003e84	2.2426e-41
41	0x0000013f	4.47e-43
42	0x000022c1	1.2467e-41
43	0x00006994	3.7874e-41
44	0x800002da	-1.023e-42
45	0x0000010b	3.74e-43
46	0x0000047b	1.607e-42
47	0x0000044f	1.546e-42
48	0x00003f03	2.2604e-41
49	0x0000101f	5.783e-42
50	0x8000160c	-7.909e-42
51	0x80005a92	-3.249e-41
52	0x80000817	-2.902e-42
53	0x000004ec	1.766e-42
54	0x00004de0	2.7936e-41
55	0x80005572	-3.0652e-41
56	0x800013f7	-7.162e-42
57	0x00005a36	3.2362e-41
58	0x8000065b	-2.28e-42
59	0x00006bcd	3.8672e-41
60	0x80005830	-3.1636e-41
61	0x0000459d	2.4973e-41
62	0x800012c3	-6.73e-42
63	0x00008dd4	5.0878e-41
64	0x80000759	-2.636e-42
65	0x80000919	-3.264e-42
66	0x00000b02	3.949e-42
67	0x80002a52	-1.5182e-41
68	0x000008e1	3.185e-42
69	0xb775bd3d	-1.4647198e-05
70	0x80001112	-6.124e-42
71	0x370d0560	8.405506e-06
72	0x350387f5	4.8999146e-07
73	0x00000635	2.227e-42
74	0x8bedbda0	-9.1574395e-32
75	0x00004357	2.4157e-41
76	0x0000ae01	6.2421e-41
77	0x355485f7	7.91711e-07
78	0x000052da	2.9722e-41
79	0x00005ab9	3.2545e-41
80	0xb5d57cb2	-1.5906028e-06
81	0x00000a7e	3.764e-42
82	0x8000951b	-5.3489e-41
83	0x8000597a	-3.2098e-41
84	0x80007fbe	-4.5825e-41
85	0x000059e2	3.2244e-41
86	0x00001da5	1.0634e-41
87	0x80001382	-6.998e-42
88	0x80001844	-8.705e-42
89	0x000053d5	3.0073e-41
90	0x0000006a	1.49e-43
91	0x8000060a	-2.166e-42
92	0x0000a8a2	6.0494e-41
93	0x80007777	-4.2856e-41
94	0x00001c12	1.007e-41
95	0x0000a479	5.9002e-41
96	0x00002c65	1.5926e-41
97	0x000024b3	1.3165e-41
98	0x80004bb6	-2.716e-41
99	0x80004902	-2.619e-41
100	0x80000254	-8.35e-43
101	0x80000a9a	-3.803e-42
102	0x00008d25	5.0633e-41
103	0x000044e9	2.472e-41
104	0x80002e60	-1.6636e-41
105	0x80000432	-1.505e-42
106	0x00006b03	3.8389e-41
107	0x80004686	-2.5299e-41
108	0x80003531	-1.9081e-41
109	0x80002e77	-1.6668e-41
110	0x800065ba	-3.6493e-41
111	0x00002c56	1.5905e-41
112	0x000048b4	2.6081e-41
113	0x800015e0	-7.847e-42
114	0x00006b54	3.8502e-41
115	0x00005a6b	3.2436e-41
116	0x00003ea4	2.2471e-41
117	0x00000356	1.197e-42
118	0x80000477	-1.602e-42
119	0x8000679b	-3.7167e-41
120	0x800011e7	-6.422e-42
121	0x80000057	-1.22e-43
122	0x8000a9c3	-6.0899e-41
123	0x800002f3	-1.058e-42
124	0x00001347	6.915e-42
125	0x80007190	-4.0739e-41
126	0x80007891	-4.3251e-41
127	0x80007af5	-4.4109e-41
128	0x0000568d	3.1049e-41
129	0x80006605	-3.6598e-41
130	0x800017a0	-8.475e-42
131	0x00003709	1.9743e-41
132	0x000083f3	4.7334e-41
133	0x0000ab9b	6.156e-41
134	0x8000040d	-1.453e-42
135	0x8000047f	-1.613e-42
136	0x800038f6	-2.0434e-41
137	0x00000d4f	4.774e-42
138	0x80009a70	-5.5402e-41
139	0x8000a7a6	-6.0141e-41
140	0x80006ef3	-3.9801e-41
141	0x00009eb6	5.6935e-41
142	0x000006c9	2.434e-42
143	0x80003d91	-2.2086e-41
144	0x80007b91	-4.4327e-41
145	0x80000895	-3.079e-42
146	0x0000641a	3.591e-41
147	0x000081db	4.6583e-41
148	0x80001625	-7.944e-42
149	0x00002a0b	1.5082e-41
150	0x800053e2	-3.0091e-41
151	0x8000345a	-1.878e-41
152	0x000011d6	6.398e-42
153	0x00008e26	5.0993e-41
154	0x80008aec	-4.9836e-41
155	0x800000e2	-3.17e-43
156	0x000041ed	2.365e-41
157	0x800087fc	-4.8782e-41
158	0x80000d26	-4.717e-42
159	0x000010bd	6.005e-42
160	0x000000bf	2.68e-43
161	0x800040ec	-2.329e-41
162	0x0000107a	5.91e-42
163	0x00001541	7.624e-42
164	0x80000354	-1.194e-42
165	0x80002158	-1.1961e-41
166	0x000002b2	9.67e-43
167	0x000060ab	3.4678e-41
168	0x00003eeb	2.2571e-41
169	0x0000697b	3.7839e-41
170	0x00004bfb	2.7257e-41
171	0x00000365	1.218e-42
172	0x8000540f	-3.0155e-41
173	0x80000fb2	-5.63e-42
174	0x00008c1e	5.0265e-41
175	0x80005306	-2.9783e-41
176	0x000029cb	1.4992e-41
177	0x000000e1	3.15e-43
178	0x8000070e	-2.531e-42
179	0x00009a9c	5.5463e-41
180	0x000001de	6.7e-43
181	0x800057d9	-3.1514e-41
182	0x0000460a	2.5125e-41
183	0x000007de	2.822e-42
184	0x00000072	1.6e-43
185	0x800031da	-1.7883e-41
186	0x80003cee	-2.1857e-41
187	0x00000080	1.8e-43
188	0x0000550a	3.0506e-41
189	0x00000369	1.223e-42
190	0x800001d7	-6.6e-43
191	0x8000254a	-1.3377e-41
192	0x000000e6	3.22e-43
193	0x00008403	4.7357e-41
194	0x80000b1c	-3.985e-42
195	0x80005179	-2.9227e-41
196	0x80009cf5	-5.6306e-41
197	0x8000238a	-1.2749e-41
198	0x000000a1	2.26e-43
199	0x00002e60	1.6636e-41
200	0x00000e0c	5.039e-42
201	0x00009d20	5.6366e-41
202	0x000056cc	3.1137e-41
203	0x37228035	9.685803e-06
204	0xa23794b3	-2.4879845e-18
205	0xb68e7328	-4.2453357e-06
206	0x0cd4bec5	3.2778587e-31
207	0x0000011e	4.01e-43
208	0x00002ce8	1.611e-41
209	0x800033ad	-1.8538e-41
210	0x80000072	-1.6e-43
211	0x80002c7e	-1.5961e-41
212	0x00000055	1.19e-43
213	0x000007b0	2.758e-42
214	0xb65ff7f8	-3.3373926e-06
215	0x00001a07	9.337e-42
216	0x0000170f	8.272e-42
217	0x0a2e8bca	8.404087e-33
218	0x000028b0	1.4596e-41
219	0x80007dac	-4.5083e-41
220	0x00000ac6	3.865e-42
221	0x00003c6d	2.1677e-41
222	0x80004c4a	-2.7367e-41
223	0x80002bbd	-1.569e-41
224	0x000000fb	3.52e-43
225	0x800001ae	-6.03e-43
226	0x00000daf	4.909e-42
227	0x80000068	-1.46e-43
228	0x80003aa3	-2.1035e-41
229	0x800047e1	-2.5785e-41
230	0x00001065	5.881e-42
231	0x800076dd	-4.264e-41
232	0x800014bd	-7.44e-42
233	0x8000116d	-6.251e-42
234	0x000011a2	6.325e-42
235	0x00000043	9.4e-44
236	0x0000325b	1.8064e-41
237	0x00000784	2.696e-42
238	0x80003dd0	-2.2174e-41
239	0x00000048	1.01e-43
240	0x000002e2	1.034e-42
241	0x8000567d	-3.1026e-41
242	0x800007f4	-2.853e-42
243	0x80001ec9	-1.1044e-41
244	0x00008663	4.8209e-41
245	0x00004179	2.3487e-41
246	0x800001a4	-5.89e-43
247	0x800001f7	-7.05e-43
248	0x00005fb4	3.4332e-41
249	0x00003535	1.9087e-41
250	0x00004307	2.4045e-41
251	0x00007148	4.0638e-41
252	0x0000443e	2.448e-41
253	0x80002f2e	-1.6925e-41
254	0x800001ad	-6.01e-43
255	0x00002735	1.4065e-41

gats.0.lin_r.bias f4 [335]
0	0x80009bd7	-5.5905e-41
1	0xb7229887	-9.6914655e-06
2	0x8000a220	-5.816e-41
3	0x35afdcf6	1.3102824e-06
4	0x80005b83	-3.2828e-41
5	0x80002bbe	-1.5692e-41
6	0x80005d57	-3.3484e-41
7	0x86cced9f	-7.7085424e-35
8	0x00000a07	3.597e-42
9	0x00007c37	4.456e-41
10	0x80000919	-3.264e-42
11	0x353a3d37	6.937948e-07
12	0xb642eb9e	-2.90454e-06
13	0x80002d24	-1.6193e-41
14	0x00005fa0	3.4304e-41
15	0x800002b6	-9.73e-43
16	0x80001e1e	-1.0804e-41
17	0x80002da5	-1.6374e-41
18	0x80005866	-3.1711e-41
19	0xb58675ad	-1.0018026e-06
20	0x00007cfd	4.4837e-41
21	0xb53fc349	-7.143722e-07
22	0x03c9b034	1.18541725e-36
23	0x84f39d3c	-5.7273422e-36
24	0xb63546a4	-2.701222e-06
25	0x38161712	3.5784273e-05
26	0x3661ae8f	3.362922e-06
27	0x000056eb	3.118e-41
28	0xb70b9876	-8.320543e-06
29	0x80001f66	-1.1264e-41
30	0x87b6aabe	-2.748467e-34
31	0x00004a17	2.6578e-41
32	0xb6d20834	-6.2594427e-06
33	0x3510eb28	5.398638e-07
34	0x800007cb	-2.796e-42
35	0xb653cb47	-3.1559773e-06
36	0x8000aaa6	-6.1217e-41
37	0xb618522c	-2.2697595e-06
38	0x36f095ec	7.1700106e-06
39	0x800009c6	-3.506e-42
40	0x39079d93	0.00012933304
41	0x383a4ad3	4.441554e-05
42	0x00004b82	2.7087e-41
43	0xb74992e5	-1.2014735e-05
44	0xb6cf8264	-6.18426e-06
45	0x00000c69	4.452e-42
46	0x0000acbe	6.1968e-41
47	0xb85db405	-5.2858162e-05
48	0xb67c0a8a	-3.755706e-06
49	0xb7afa746	-2.0939518e-05
50	0xb80383dc	-3.1355637e-05
51	0x00001e5c	1.0891e-41
52	0x00001ea2	1.0989e-41
53	0x8000401c	-2.2998e-41
54	0x38d43602	0.000101190075
55	0x00007c0a	4.4497e-41
56	0x80005687	-3.104e-41
57	0xb62e6dff	-2.5992047e-06
58	0x800053ab	-3.0014e-41
59	0x07d1c571	3.156287e-34
60	0x3982b6b4	0.00024931657
61	0x80007ba9	-4.4361e-41
62	0x80003a7d	-2.0982e-41
63	0x3937801e	0.00017499967
64	0x80008c73	-5.0384e-41
65	0x000066c3	3.6864e-41
66	0x00007201	4.0897e-41
67	0x00007d2a	4.49e-41
68	0xb719cebc	-9.167645e-06
69	0x8000a220	-5.816e-41
70	0x35ceb21e	1.5400035e-06
71	0x80005b83	-3.2828e-41
72	0x80002bbe	-1.5692e-41
73	0x80004e72	-2.8141e-41
74	0x86cced9f	-7.7085424e-35
75	0x0000420a	2.369e-41
76	0x00007b80	4.4303e-41
77	0x80006ad5	-3.8324e-41
78	0x353a3a34	6.9375096e-07
79	0xb652f7d3	-3.1436691e-06
80	0x80002d24	-1.6193e-41
81	0x00005fa0	3.4304e-41
82	0x800002b6	-9.73e-43
83	0x80001e1e	-1.0804e-41
84	0x80002da5	-1.6374e-41
85	0x800069f7	-3.8013e-41
86	0xb6893c4c	-4.0899376e-06
87	0x000088b1	4.9036e-41
88	0xb4b30775	-3.3346774e-07
89	0x03c9b034	1.18541725e-36
90	0x84f39d3c	-5.7273422e-36
91	0xb622d004	-2.4260962e-06
92	0x381ca23c	3.734439e-05
93	0x3659f8bd	3.2480305e-06
94	0x000056eb	3.118e-41
95	0xb7004c1d	-7.647116e-06
96	0x80001f66	-1.1264e-41
97	0x87b6aabe	-2.748467e-34
98	0x00004a17	2.6578e-41
99	0xb6de2260	-6.6201173e-06
100	0xb5aab6ca	-1.2719186e-06
101	0x0000a3b4	5.8726e-41
102	0xb65eba50	-3.3189026e-06
103	0x8000aaa6	-6.1217e-41
104	0xb61164cf	-2.1665362e-06
105	0x37048f97	7.901245e-06
106	0x800009c6	-3.506e-42
107	0x3902377d	0.00012418437
108	0x3833876d	4.280305e-05
109	0x00004b82	2.7087e-41
110	0xb7059384	-7.961764e-06
111	0xb6cf1374	-6.1713454e-06
112	0x80000a2c	-3.649e-42
113	0x0000acbe	6.1968e-41
114	0xb86603a7	-5.4839675e-05
115	0xb65f424d	-3.3268182e-06
116	0xb7c86bc7	-2.3892046e-05
117	0xb7f8208b	-2.9579058e-05
118	0x0000207d	1.1655e-41
119	0x00001ea2	1.0989e-41
120	0x8000401c	-2.2998e-41
121	0x38d543f9	0.00010169292
122	0x80007c31	-4.4551e-41
123	0x80005687	-3.104e-41
124	0xb6372a2f	-2.729368e-06
125	0x800053ab	-3.0014e-41
126	0x07d1c571	3.156287e-34
127	0x39827369	0.0002488152
128	0x80003c69	-2.1671e-41
129	0x000023ae	1.28e-41
130	0x3937f55d	0.00017543645
131	0x80008c73	-5.0384e-41
132	0x000066c3	3.6864e-41
133	0x00007201	4.0897e-41
134	0x0000818a	4.647e-41
135	0xb71d5868	-9.378513e-06
136	0x8000a220	-5.816e-41
137	0x3567d714	8.6367186e-07
138	0x80005b83	-3.2828e-41
139	0x80002bbe	-1.5692e-41
140	0x800093a2	-5.296e-41
141	0x86cced9f	-7.7085424e-35
142	0x0000420a	2.369e-41
143	0x00007b12	4.415e-41
144	0x8000032f	-1.142e-42
145	0x35969edb	1.1222104e-06
146	0xb6502b9a	-3.1019795e-06
147	0x80002d24	-1.6193e-41
148	0x00005fa0	3.4304e-41
149	0x800002b6	-9.73e-43
150	0x80001e1e	-1.0804e-41
151	0x80002da5	-1.6374e-41
152	0x800066a0	-3.6815e-41
153	0xb6bc81aa	-5.6179315e-06
154	0x0000811a	4.6313e-41
155	0xb53fc349	-7.143722e-07
156	0x03c9b034	1.18541725e-36
157	0x84f39d3c	-5.7273422e-36
158	0xb63546a4	-2.701222e-06
159	0x381afbfd	3.6951144e-05
160	0x365d1f10	3.2949647e-06
161	0x000056eb	3.118e-41
162	0xb70d9fa0	-8.4414205e-06
163	0x80001f66	-1.1264e-41
164	0x87b6aabe	-2.748467e-34
165	0x00004a17	2.6578e-41
166	0xb6e064f4	-6.6874727e-06
167	0x355f9ad9	8.3299307e-07
168	0x80003011	-1.7243e-41
169	0xb661eb71	-3.3664658e-06
170	0x8000aaa6	-6.1217e-41
171	0xb6627c9a	-3.3749152e-06
172	0x37040553	7.869053e-06
173	0x800009c6	-3.506e-42
174	0x39012842	0.00012317396
175	0x38344ca3	4.2986718e-05
176	0x00004b82	2.7087e-41
177	0xb7049bbc	-7.904073e-06
178	0xb6d4eb1c	-6.3454627e-06
179	0x8000931a	-5.277e-41
180	0x0000acbe	6.1968e-41
181	0xb8624040	-5.3942436e-05
182	0xb672c671	-3.6176318e-06
183	0xb7cbbf2e	-2.428851e-05
184	0xb7fd9f12	-3.0234023e-05
185	0x8000102b	-5.8e-42
186	0x00001ea2	1.0989e-41
187	0x8000401c	-2.2998e-41
188	0x38d28875	0.000100389974
189	0x80007c31	-4.4551e-41
190	0x80005687	-3.104e-41
191	0xb63a64e7	-2.7774893e-06
192	0x800053ab	-3.0014e-41
193	0x07d1c571	3.156287e-34
194	0x398424a7	0.0002520431
195	0x80002ecd	-1.6789e-41
196	0x80003a7d	-2.0982e-41
197	0x393ef78a	0.00018212027
198	0x80008c73	-5.0384e-41
199	0x000066c3	3.6864e-41
200	0x00007201	4.0897e-41
201	0x0000007e	1.77e-43
202	0xb71eb87d	-9.460488e-06
203	0x00006eeb	3.979e-41
204	0x35835f05	9.787915e-07
205	0x80005b83	-3.2828e-41
206	0x80002bbe	-1.5692e-41
207	0x8000afb4	-6.303e-41
208	0x05ab1011	1.6086665e-35
209	0x00000385	1.263e-42
210	0x0000a55f	5.9324e-41
211	0x00000b41	4.037e-42
212	0x353a41d7	6.938621e-07
213	0xb62dda11	-2.590594e-06
214	0x80002d24	-1.6193e-41
215	0x00005fa0	3.4304e-41
216	0x800002b6	-9.73e-43
217	0x80001e1e	-1.0804e-41
218	0x80002da5	-1.6374e-41
219	0x800066a0	-3.6815e-41
220	0xb69aa6b4	-4.6089644e-06
221	0x800085ca	-4.7994e-41
222	0xb53fc349	-7.143722e-07
223	0x03c9b034	1.18541725e-36
224	0x84f39d3c	-5.7273422e-36
225	0xb63546a4	-2.701222e-06
226	0x3816b271	3.5928973e-05
227	0x365a0843	3.248934e-06
228	0x000056eb	3.118e-41
229	0xb701e79e	-7.742927e-06
230	0x80001f66	-1.1264e-41
231	0x87b6aabe	-2.748467e-34
232	0x00004a17	2.6578e-41
233	0xb6ca2516	-6.0243865e-06
234	0x35e208b9	1.6840851e-06
235	0x800007fb	-2.863e-42
236	0xb6442f3a	-2.9233765e-06
237	0x8000aaa6	-6.1217e-41
238	0xb617d969	-2.2627303e-06
239	0x36efa15f	7.141541e-06
240	0x800009c6	-3.506e-42
241	0x3905618b	0.00012720206
242	0x3837f53d	4.3858996e-05
243	0x00004b82	2.7087e-41
244	0xb74cc8ae	-1.2206072e-05
245	0xb6cd3333	-6.1154365e-06
246	0x80009a4d	-5.5353e-41
247	0x0000acbe	6.1968e-41
248	0xb85895cd	-5.1637926e-05
249	0xb66dbe67	-3.542658e-06
250	0xb7ada2d6	-2.0699033e-05
251	0xb8049ae2	-3.16155e-05
252	0x00000260	8.52e-43
253	0x00001ea2	1.0989e-41
254	0x800033dd	-1.8605e-41
255	0x38d76a61	0.000102718135

gats.0.lin_edge.weight f4 [335, 1]
0	0x00007c39	4.4563e-41
1	0xb701c52e	-7.734909e-06
2	0x00004564	2.4893e-41
3	0x3764aa62	1.3629529e-05
4	0x000043fc	2.4388e-41
5	0x00002b58	1.5549e-41
6	0x80001bbd	-9.95e-42
7	0x05b9e66b	1.7481959e-35
8	0x80007a4e	-4.3875e-41
9	0x00009410	5.3115e-41
10	0x00008313	4.702e-41
11	0xb50e9a2c	-5.312347e-07
12	0xb67f21b7	-3.8017586e-06
13	0x80007e2b	-4.526e-41
14	0x000042bc	2.394e-41
15	0x00002a8f	1.5267e-41
16	0x0000497d	2.6363e-41
17	0x000000db	3.07e-43
18	0x80004334	-2.4108e-41
19	0xb8407fdd	-4.589545e-05
20	0x000044b0	2.464e-41
21	0xb53fc349	-7.143722e-07
22	0x8318ca5f	-4.4901096e-37
23	0x8570f03c	-1.132887e-35
24	0xb51f2636	-5.928772e-07
25	0x36ce7a83	6.1535407e-06
26	0x36137772	2.1974233e-06
27	0x0000ab77	6.151e-41
28	0x360bcdc9	2.0832397e-06
29	0x80006ab8	-3.8283e-41
30	0x066dd96c	4.4734482e-35
31	0x800030f4	-1.7561e-41
32	0xb7aff1c1	-2.0974201e-05
33	0xb83c66ff	-4.4918615e-05
34	0x00006dfb	3.9454e-41
35	0xb71a8176	-9.209258e-06
36	0x80006b4e	-3.8494e-41
37	0xb69c45ba	-4.6572795e-06
38	0x359541db	1.1120532e-06
39	0x00000302	1.079e-42
40	0x37874803	1.6126787e-05
41	0x3786cd4e	1.6069647e-05
42	0x8000a7bb	-6.017e-41
43	0x3773a777	1.452292e-05
44	0xb66fb181	-3.5717096e-06
45	0x000098f9	5.4876e-41
46	0x0000612c	3.4859e-41
47	0xb89870ba	-7.268922e-05
48	0xb6898df2	-4.099443e-06
49	0xb83a1275	-4.4363045e-05
50	0xb81da20c	-3.7582635e-05
51	0x00002701	1.3992e-41
52	0x00000bf3	4.287e-42
53	0x8000120d	-6.475e-42
54	0x38a6c6c5	7.9525205e-05
55	0x80000a24	-3.638e-42
56	0x800098ac	-5.4768e-41
57	0x37092926	8.175417e-06
58	0x0000325c	1.8066e-41
59	0x863db38d	-3.5678862e-35
60	0x388d5035	6.738344e-05
61	0x00007159	4.0661e-41
62	0x8000486c	-2.598e-41
63	0x383ced98	4.504397e-05
64	0x00008277	4.6802e-41
65	0x00000f56	5.501e-42
66	0x8000565b	-3.0979e-41
67	0x80008999	-4.9361e-41
68	0xb6f8f003	-7.418917e-06
69	0x00004564	2.4893e-41
70	0x37669288	1.3743185e-05
71	0x000043fc	2.4388e-41
72	0x00002b58	1.5549e-41
73	0x80007bff	-4.4481e-41
74	0x05b9e66b	1.7481959e-35
75	0x000002fc	1.07e-42
76	0x000042af	2.3922e-41
77	0x80007856	-4.3168e-41
78	0xb50e9a2c	-5.312347e-07
79	0xb687da6c	-4.048741e-06
80	0x80007e2b	-4.526e-41
81	0x000042bc	2.394e-41
82	0x00002a8f	1.5267e-41
83	0x0000497d	2.6363e-41
84	0x000000db	3.07e-43
85	0x800049f6	-2.6532e-41
86	0xb8475827	-4.7527396e-05
87	0x0000586a	3.1717e-41
88	0xb4b30775	-3.3346774e-07
89	0x8318ca5f	-4.4901096e-37
90	0x8570f03c	-1.132887e-35
91	0xb49da152	-2.9360905e-07
92	0x36fa424b	7.458298e-06
93	0x36036eb6	1.9584963e-06
94	0x0000ab77	6.151e-41
95	0x3618d206	2.2772015e-06
96	0x80006ab8	-3.8283e-41
97	0x066dd96c	4.4734482e-35
98	0x800030f4	-1.7561e-41
99	0xb7b268a7	-2.1267986e-05
100	0xb8419b98	-4.6159694e-05
101	0x80005c20	-3.3048e-41
102	0xb71e7f92	-9.447236e-06
103	0x80006b4e	-3.8494e-41
104	0xb6a0bf8d	-4.790671e-06
105	0x35bc786e	1.4042141e-06
106	0x00000302	1.079e-42
107	0x375d1c79	1.3179256e-05
108	0x3785f29e	1.5967813e-05
109	0x8000a7bb	-6.017e-41
110	0x37691043	1.38916685e-05
111	0xb640a924	-2.8708682e-06
112	0x800066ef	-3.6926e-41
113	0x0000612c	3.4859e-41
114	0xb89b85fd	-7.415933e-05
115	0xb67e9f70	-3.7941754e-06
116	0xb84031cb	-4.582274e-05
117	0xb8178ed7	-3.6134235e-05
118	0x00000d10	4.686e-42
119	0x00000bf3	4.287e-42
120	0x8000120d	-6.475e-42
121	0x38a775ab	7.985098e-05
122	0x80000a24	-3.638e-42
123	0x800098ac	-5.4768e-41
124	0x3701daa9	7.73991e-06
125	0x80000e1e	-5.064e-42
126	0x863db38d	-3.5678862e-35
127	0x388ac3d8	6.6168315e-05
128	0x00001d89	1.0595e-41
129	0x00008814	4.8816e-41
130	0x38393610	4.4157787e-05
131	0x00008277	4.6802e-41
132	0x00000f56	5.501e-42
133	0x8000565b	-3.0979e-41
134	0x00000fba	5.642e-42
135	0xb6fa0f17	-7.4523373e-06
136	0x00004564	2.4893e-41
137	0x37650442	1.3650455e-05
138	0x000043fc	2.4388e-41
139	0x00002b58	1.5549e-41
140	0x00007b6c	4.4275e-41
141	0x05b9e66b	1.7481959e-35
142	0x000002fc	1.07e-42
143	0x00001b62	9.823e-42
144	0x800002df	-1.03e-42
145	0xb50e9a2c	-5.312347e-07
146	0xb6878eee	-4.0399527e-06
147	0x80007e2b	-4.526e-41
148	0x000042bc	2.394e-41
149	0x00002a8f	1.5267e-41
150	0x0000497d	2.6363e-41
151	0x000000db	3.07e-43
152	0x8000355b	-1.914e-41
153	0xb847dff0	-4.7653855e-05
154	0x0000434c	2.4142e-41
155	0xb53fc349	-7.143722e-07
156	0x8318ca5f	-4.4901096e-37
157	0x8570f03c	-1.132887e-35
158	0xb51f2636	-5.928772e-07
159	0x36ed1f04	7.066761e-06
160	0x36084f19	2.031162e-06
161	0x0000ab77	6.151e-41
162	0x35bdc6fb	1.4139508e-06
163	0x80006ab8	-3.8283e-41
164	0x066dd96c	4.4734482e-35
165	0x800030f4	-1.7561e-41
166	0xb7ae0032	-2.0742507e-05
167	0xb83d9655	-4.520112e-05
168	0x80007bac	-4.4365e-41
169	0xb71eae81	-9.458164e-06
170	0x80006b4e	-3.8494e-41
171	0xb6b68667	-5.439669e-06
172	0x35b4e0ae	1.3476435e-06
173	0x00000302	1.079e-42
174	0x375e49e1	1.3249432e-05
175	0x3785c542	1.594669e-05
176	0x8000a7bb	-6.017e-41
177	0x37792cb0	1.4851961e-05
178	0xb65293e5	-3.1378524e-06
179	0x000098f9	5.4876e-41
180	0x0000612c	3.4859e-41
181	0xb89aa681	-7.374306e-05
182	0xb6830e81	-3.9057927e-06
183	0xb84106f9	-4.602128e-05
184	0xb8189bc1	-3.638468e-05
185	0x00000d10	4.686e-42
186	0x00000bf3	4.287e-42
187	0x8000120d	-6.475e-42
188	0x38a5a84a	7.8991594e-05
189	0x80000a24	-3.638e-42
190	0x800098ac	-5.4768e-41
191	0x37032f68	7.819246e-06
192	0x00002973	1.4869e-41
193	0x863db38d	-3.5678862e-35
194	0x388db0ee	6.75636e-05
195	0x00001a24	9.377e-42
196	0x8000486c	-2.598e-41
197	0x383c6b35	4.4922537e-05
198	0x00008277	4.6802e-41
199	0x00000f56	5.501e-42
200	0x8000565b	-3.0979e-41
201	0x800043b2	-2.4285e-41
202	0xb6ff0940	-7.600669e-06
203	0x00006412	3.5898e-41
204	0x3763a492	1.3568571e-05
205	0x000043fc	2.4388e-41
206	0x00002b58	1.5549e-41
207	0x000076eb	4.266e-41
208	0x05b9e66b	1.7481959e-35
209	0x00008830	4.8855e-41
210	0x00007ccb	4.4767e-41
211	0x800005c8	-2.074e-42
212	0xb50e9a2c	-5.312347e-07
213	0xb66e553b	-3.5514374e-06
214	0x80007e2b	-4.526e-41
215	0x000042bc	2.394e-41
216	0x00002a8f	1.5267e-41
217	0x0000497d	2.6363e-41
218	0x000000db	3.07e-43
219	0x80006b75	-3.8548e-41
220	0xb8431e69	-4.6519945e-05
221	0x80003dc1	-2.2153e-41
222	0xb53fc349	-7.143722e-07
223	0x8318ca5f	-4.4901096e-37
224	0x8570f03c	-1.132887e-35
225	0xb51f2636	-5.928772e-07
226	0x36cffbf8	6.1984138e-06
227	0x3612ef9e	2.189517e-06
228	0x0000ab77	6.151e-41
229	0x361de6d7	2.352919e-06
230	0x80006ab8	-3.8283e-41
231	0x066dd96c	4.4734482e-35
232	0x800030f4	-1.7561e-41
233	0xb7aa3ca3	-2.0293815e-05
234	0xb83916ee	-4.4128792e-05
235	0x8000004b	-1.05e-43
236	0xb7175b9e	-9.021633e-06
237	0x80006b4e	-3.8494e-41
238	0xb69c42b0	-4.6569257e-06
239	0x357ec6bd	9.4911576e-07
240	0x00000302	1.079e-42
241	0x37820ef3	1.5504169e-05
242	0x378722a2	1.6109381e-05
243	0x8000a7bb	-6.017e-41
244	0x376a5dcb	1.3969325e-05
245	0xb6659fcf	-3.421668e-06
246	0x00005ad0	3.2577e-41
247	0x0000612c	3.4859e-41
248	0xb897298e	-7.207981e-05
249	0xb682cf1b	-3.898412e-06
250	0xb8387941	-4.3981945e-05
251	0xb81d9b29	-3.757622e-05
252	0x80000ddc	-4.972e-42
253	0x00000bf3	4.287e-42
254	0x80001720	-8.296e-42
255	0x38aa9742	8.134406e-05
