inference/SyGuS/model_checkpoints/SyGuS_model_3.pt (torch, 502627 bytes, 21 tensors)

gats.0.att f4 [1, 5, 67]
000000 03 af 7e ba b3 e3 b1 38 51 5b 87 37 69 46 51 b6
       -0.000971541 8.48243e-05 1.6135777e-05 -3.118441e-06
000010 d0 5e 6b 33 f4 90 bd b6 9a b8 cf b8 13 03 0a ba
       5.4801433e-08 -5.6495137e-06 -9.904914e-05 -0.00052647403
000020 63 2e cf 35 2f 85 56 b6 54 4b 26 b8 98 96 98 ba
       1.5436202e-06 -3.1966008e-06 -3.964764e-05 -0.001164156
000030 07 10 0d 36 0c f9 f6 b5 54 af de b7 7a ba 79 b6
       2.1019966e-06 -1.840091e-06 -2.6546106e-05 -3.7212435e-06
000040 ca 0d 8e b6 86 03 50 b6 0d 2b 3f bc f2 1c 49 36
       -4.233535e-06 -3.0996466e-06 -0.011667979 2.9968182e-06
000050 2e 84 bc bb 54 bf e1 b6 1e 81 b5 38 61 b2 09 37
       -0.0057530617 -6.727796e-06 8.6548025e-05 8.207368e-06
000060 fa 49 9b b7 64 9d 08 39 33 db b8 36 21 85 ac 36
       -1.8511888e-05 0.00013028603 5.5091455e-06 5.1414977e-06
000070 de 83 a2 b9 40 bd c0 b8 49 93 1d b8 55 cd 44 b9
       -0.00030997297 -9.190524e-05 -3.7568887e-05 -0.00018768509
000080 1d 4d fa b8 09 30 25 b9 df 5a 03 b7 bd f3 49 b8
       -0.000119352924 -0.0001575352 -7.829366e-06 -4.8149133e-05
000090 eb 70 d6 b9 b7 d7 a2 34 dc ec 4c b9 a4 49 0f b7
       -0.0004090139 3.0331805e-07 -0.00019543193 -8.54061e-06
0000a0 e3 72 c9 b9 46 71 1d b9 4a b2 80 b6 8b fc 02 37
       -0.00038423305 -0.00015014884 -3.835453e-06 7.807404e-06
0000b0 97 f7 38 36 c7 7a ea b8 d3 0a 53 3a 3b c4 69 b4
       2.7562253e-06 -0.000111808586 0.0008050624 -2.1771204e-07
0000c0 2f ee 03 ba bf 38 57 b8 a9 94 8c ba 41 7b a5 b6
       -0.00050327455 -5.1312843e-05 -0.0010725457 -4.931732e-06
0000d0 7e a2 b9 b8 b9 da 90 b6 73 6e 04 ba 57 20 06 ba
       -8.851754e-05 -4.316997e-06 -0.00050518586 -0.00051165133
0000e0 65 6e d1 bb 95 40 9f b8 0d 02 be b5 5b 78 90 b7
       -0.006391334 -7.59374e-05 -1.41567e-06 -1.7222183e-05
0000f0 0c 71 a2 b6 cd 8e 1d b9 5d 02 89 b9 2e 87 7c 35
       -4.8411366e-06 -0.00015025884 -0.00026132437 9.407403e-07
000100 8b 80 86 38 20 ed 33 b9 36 40 24 bb 47 69 7e ba
       6.413561e-05 -0.00017159106 -0.0025062687 -0.00097050186
000110 fe 95 b1 38 2e 6d 87 37 71 54 51 b6 18 bf 67 33
       8.467956e-05 1.6144095e-05 -3.1192578e-06 5.3957677e-08
000120 4f 69 bd b6 f8 9e cf b8 63 31 0a ba 8e ef d1 35
       -5.6448985e-06 -9.9001394e-05 -0.00052716414 1.5641433e-06
000130 61 fe 53 b6 50 be 26 b8 b1 ad 98 ba ac 0b 0e 36
       -3.1589518e-06 -3.9754726e-05 -0.0011648444 2.1166443e-06
000140 4d e5 f6 b5 52 e5 dd b7 93 fc 7a b6 48 17 8e b6
       -1.8395164e-06 -2.6452039e-05 -3.739992e-06 -4.23464e-06
000150 5a aa 4f b6 14 28 3f bc 83 eb 48 36 08 f9 bc bb
       -3.0944561e-06 -0.01166727 2.9939408e-06 -0.0057669915
000160 47 be e1 b6 27 3d b6 38 7c 64 03 37 33 44 9b b7
       -6.7276737e-06 8.689827e-05 7.831604e-06 -1.8509198e-05
000170 54 ab 08 39 c0 d4 b8 36 28 95 ac 36 3c 71 a2 b9
       0.00013033795 5.5083947e-06 5.1433635e-06 -0.00030983414
000180 05 6e c0 b8 ac cf 1d b8 19 67 45 b9 71 cf f9 b8
       -9.175766e-05 -3.7625126e-05 -0.00018825791 -0.00011911884
000190 b2 4d 25 b9 01 89 03 b7 ac d5 49 b8 66 55 d6 b9
       -0.0001576457 -7.840107e-06 -4.8121132e-05 -0.00040880888
0001a0 57 11 a3 34 86 70 4c b9 34 5b 0f b7 36 55 c9 b9
       3.0373732e-07 -0.00019496874 -8.544699e-06 -0.00038401195
0001b0 fa e6 1b b9 33 f9 80 b6 b1 06 03 37 2d 94 3a 36
       -0.00014867997 -3.843708e-06 7.809766e-06 2.780241e-06
0001c0 1a 0e ea b8 8e 1c 53 3a 93 5b 6c b4 ba f8 03 ba
       -0.00011160616 0.0008053266 -2.2012527e-07 -0.00050343166
0001d0 da e9 56 b8 52 7f 8c ba 6f 9e a7 b6 4d ea b9 b8
       -5.1239367e-05 -0.0010719097 -4.995432e-06 -8.865129e-05
0001e0 0a 72 90 b6 d0 14 04 ba 89 f6 05 ba c4 e0 d0 bb
       -4.3048103e-06 -0.00050385017 -0.0005110284 -0.0063744504
0001f0 9d 29 9f b8 57 74 bc b5 00 3c 91 b7 30 79 a2 b6
       -7.589462e-05 -1.4040951e-06 -1.7313287e-05 -4.8420843e-06
000200 d3 27 1d b9 59 2f 89 b9 c2 d6 7e 35 e5 97 86 38
       -0.00014987522 -0.00026165953 9.493489e-07 6.4179105e-05
000210 4b c6 33 b9 6d be 23 bb 45 43 7e ba b4 80 b1 38
       -0.0001714464 -0.0024985329 -0.0009699355 8.4639905e-05
000220 62 5a 87 37 e1 30 51 b6 c4 20 40 33 55 8c bd b6
       1.6135342e-05 -3.1171878e-06 4.4733284e-08 -5.6489757e-06
000230 b7 c4 cf b8 6f ad 09 ba 1d 03 cb 35 03 1b 54 b6
       -9.90717e-05 -0.0005251979 1.5125585e-06 -3.1606185e-06
000240 99 b9 26 b8 19 71 98 ba 5b 04 0d 36 c9 bc f6 b5
       -3.9750335e-05 -0.0011630385 2.1013172e-06 -1.8383372e-06
000250 77 91 de b7 a5 52 78 b6 5c 00 8e b6 82 25 4f b6
       -2.65322e-05 -3.7002985e-06 -4.2319716e-06 -3.0867236e-06
000260 64 db 3e bc b1 df 48 36 13 5c bc bb 96 8d e1 b6
       -0.0116489865 2.9932528e-06 -0.005748281 -6.7220053e-06
000270 ea 33 b6 38 43 34 03 37 54 29 9b b7 3b c3 08 39
       8.688106e-05 7.820377e-06 -1.8496685e-05 0.000130427
000280 e5 da b8 36 3c 69 ac 36 b7 90 a2 b9 fe 95 c0 b8
       5.50911e-06 5.1382503e-06 -0.0003100687 -9.183212e-05
000290 13 c8 1d b8 11 7f 45 b9 7f fe f9 b8 75 41 25 b9
       -3.761805e-05 -0.0001883472 -0.00011920649 -0.00015760011
0002a0 8d 4d 03 b7 eb 21 4a b8 82 05 d6 b9 dd 02 a3 34
       -7.826265e-06 -4.819214e-05 -0.00040821364 3.03632e-07
0002b0 4c 73 4c b9 c1 1f 0f b7 32 5c c9 b9 eb ee 1b b9
       -0.00019497907 -8.5308575e-06 -0.00038406398 -0.00014870956
0002c0 dd 9c 80 b6 46 e7 02 37 2a fa 38 36 86 90 ea b8
       -3.8329586e-06 7.802451e-06 2.7563751e-06 -0.00011184909
0002d0 5d b6 52 3a 97 84 6d b4 9b 0f 04 ba b9 45 57 b8
       0.00080380385 -2.2120581e-07 -0.0005037726 -5.132493e-05
0002e0 3d 89 8c ba 48 26 a6 b6 1b a7 b9 b8 da 87 91 b6
       -0.0010722053 -4.951642e-06 -8.852613e-05 -4.337152e-06
0002f0 cc 0c 04 ba d6 02 06 ba 47 40 d1 bb 88 33 9f b8
       -0.0005037307 -0.0005112117 -0.0063858363 -7.591309e-05
000300 65 b5 c0 b5 56 39 91 b7 5b 58 a2 b6 06 62 1d b9
       -1.4357908e-06 -1.7312046e-05 -4.838262e-06 -0.00015009203
000310 06 2a 89 b9 a2 7d 7c 35 af 89 86 38 70 f7 32 b9
       -0.00026161986 9.4060135e-07 6.4152635e-05 -0.0001706758
000320 6d d8 23 bb 06 ae 7e ba 50 bc b1 38 51 6f 87 37
       -0.0025000826 -0.00097152626 8.475094e-05 1.614509e-05
000330 97 eb 4a b6 7a 20 6f 33 1f 55 bd b6 cd cd cf b8
       -3.0237477e-06 5.567606e-08 -5.6425483e-06 -9.9088626e-05
000340 6b 27 0a ba 1a 72 d3 35 ad fc 53 b6 fd 52 26 b8
       -0.0005270156 1.5753933e-06 -3.1588527e-06 -3.9654773e-05
000350 09 b8 98 ba 74 1a 0d 36 7d ac f6 b5 4f 72 de b7
       -0.0011651526 2.1026035e-06 -1.8378629e-06 -2.6517691e-05
000360 d4 e8 79 b6 af 16 8e b6 30 72 4f b6 2b 79 3f bc
       -3.7239415e-06 -4.2345705e-06 -3.091187e-06 -0.011686604
000370 63 d0 49 36 85 e1 bc bb f7 7f e1 b6 e0 65 b5 38
       3.007263e-06 -0.0057641887 -6.7204196e-06 8.649728e-05
000380 00 68 09 37 f2 41 9b b7 98 62 09 39 59 c8 b8 36
       8.190051e-06 -1.8508148e-05 0.00013102067 5.506951e-06
000390 f3 af ad 36 b3 b7 a1 b9 c5 78 c0 b8 35 3a 1e b8
       5.176285e-06 -0.0003084518 -9.1777685e-05 -3.7724345e-05
0003a0 73 b8 45 b9 c3 28 fa b8 1e 38 25 b9 7e 81 03 b7
       -0.00018856097 -0.000119285214 -0.00015756532 -7.838358e-06
0003b0 a5 44 48 b8 42 72 d6 b9 ed 14 a3 34 8f 66 4c b9
       -4.7747646e-05 -0.0004090239 3.0376341e-07 -0.00019493162
0003c0 7c 3e 0f b7 c8 2f c9 b9 f8 0e 1c b9 b5 93 80 b6
       -8.5380125e-06 -0.00038373307 -0.00014882896 -3.8318926e-06
0003d0 1a fa 02 37 66 98 3b 36 b6 7e e9 b8 c1 b7 52 3a
       7.806835e-06 2.795388e-06 -0.000111339075 0.0008038246
0003e0 82 78 6b b4 43 02 04 ba 67 19 57 b8 27 ad 8c ba
       -2.1929921e-07 -0.00050357374 -5.1283652e-05 -0.0010732756
0003f0 99 2f a5 b6 b3 a3 b9 b8 db bd 90 b6 65 1e 04 ba
       -4.9229243e-06 -8.851979e-05 -4.3136365e-06 -0.00050399295

gats.0.bias f4 [67]
000000 e0 40 18 bc 08 ca 00 3a 59 3d 6a 38 70 24 bc b7
       -0.009292811 0.00049129175 5.5847082e-05 -2.2428314e-05
000010 ee a2 eb b8 9b 6b 18 39 11 d5 aa b9 df 1d 04 3b
       -0.00011236021 0.00014535936 -0.00032583674 0.0020159406
000020 1e 8e b9 38 e3 0a cb 38 a5 34 23 3a c6 3b 16 bd
       8.847959e-05 9.681822e-05 0.0006225801 -0.0366781
000030 96 f1 15 b9 8e 7a d7 38 4e 54 32 b8 e9 f9 c3 35
       -0.00014299745 0.000102748265 -4.2517022e-05 1.4601366e-06
000040 f0 87 9f b8 3e aa 32 39 4a 69 10 be 69 df 04 b7
       -7.607031e-05 0.00017038823 -0.14102665 -7.91983e-06
000050 3f 7d 00 be 66 11 33 39 e8 a0 22 3a 07 89 43 38
       -0.12547778 0.00017077252 0.00062037865 4.661924e-05
000060 03 1d a5 b8 4c 61 8e 3a 77 9c 6c b8 64 db db 37
       -7.873217e-05 0.0010862737 -5.6412504e-05 2.6208996e-05
000070 69 66 e4 bc 89 c9 c6 b8 eb 3b 01 ba e9 75 bf b9
       -0.027880864 -9.4789146e-05 -0.0004929888 -0.0003651821
000080 fd 36 a0 b9 50 ca 9f 3a 7c 46 4f b9 79 07 ca ba
       -0.00030558548 0.0012191031 -0.00019767316 -0.0015413604
000090 5c 3f b4 bb ef 43 46 39 6e be 3b bb c2 e0 25 b9
       -0.005500717 0.00018908059 -0.002864744 -0.00015819355
0000a0 22 dd 77 ba 6c ed af b9 56 cf 0d 39 4b f3 ea b4
       -0.00094552536 -0.00033555494 0.00013524047 -4.3762915e-07
0000b0 c9 40 88 37 d7 c5 4e bb 0d 0b 68 3c bb b0 46 b7
       1.6242631e-05 -0.0031551027 0.014162791 -1.1842868e-05
0000c0 8f dd 8e 3a 43 cb 3d ba f9 b7 2d bb fd e6 ab b8
       0.001089977 -0.0007240066 -0.0026507361 -8.19694e-05
0000d0 a6 da 23 ba e6 23 e4 38 fd 76 26 bb e7 4a e2 b7
       -0.00062505377 0.00010878574 -0.0025400512 -2.6976179e-05
0000e0 03 05 ec bd 94 0b 77 b9 fe c0 9d 38 c3 e4 57 b9
       -0.115243934 -0.00023560069 7.522291e-05 -0.00020589218
0000f0 28 80 7d b7 cb 87 a7 ba 03 16 22 bb 7b cb a4 37
       -1.5109814e-05 -0.0012781558 -0.0024732358 1.9645076e-05
000100 f0 22 8d b9 c2 90 15 bb 3d 33 6c bd
       -0.00026919646 -0.0022821878 -0.057666052

gats.0.lin_l.weight f4 [335, 67]
000000 b4 72 88 3a 18 1f 5e 3a e1 60 ca 3c 1a 60 06 3d
       0.0010410161 0.0008473261 0.024704399 0.032806493
000010 c3 25 27 bc 9c fd 98 3a 30 a5 00 80 fd d4 3e bb
       -0.010201874 0.0011672261 -5.9258e-41 -0.002911865
000020 ee 52 00 00 1d 6c 00 00 a5 24 13 ba 73 ec 50 bb
       2.975e-41 3.8784e-41 -0.00056130654 -0.0031879216
000030 50 0d 00 80 39 c1 06 b8 80 3d 00 00 f9 b0 02 ba
       -4.776e-42 -3.2128042e-05 2.2062e-41 -0.00049854774
000040 6d 42 84 bb 33 2c 00 80 d2 b5 bc bb c5 00 a6 38
       -0.004036239 -1.5856e-41 -0.0057589794 7.91564e-05
000050 47 69 00 00 ca 65 00 00 57 c8 00 80 c8 2a 00 80
       3.7766e-41 3.6515e-41 -7.1868e-41 -1.5347e-41
000060 3d b5 00 80 3a bd 00 80 0b d0 00 80 5f d0 00 00
       -6.5016e-41 -6.7882e-41 -7.4632e-41 7.475e-41
000070 e7 8a 00 00 fd c6 00 80 cb ad 00 80 5b c8 00 00
       4.9829e-41 -7.1384e-41 -6.2345e-41 7.1874e-41
000080 78 d2 00 00 15 8a 00 80 07 66 00 80 b8 cb 00 80
       7.5502e-41 -4.9534e-41 -3.66e-41 -7.308e-41
000090 92 cd 00 80 0d 89 00 80 e5 64 00 00 50 d6 00 80
       -7.3745e-41 -4.9165e-41 3.6194e-41 -7.6881e-41
0000a0 38 ca 00 80 19 c9 00 00 b6 a0 00 00 f4 5b 00 80
       -7.2542e-41 7.214e-41 5.7652e-41 -3.2987e-41
0000b0 52 d6 00 80 b6 1a 00 80 b1 2f 00 00 ef bf 00 80
       -7.6884e-41 -9.582e-42 1.7108e-41 -6.8853e-41
0000c0 41 8b 00 80 ae c9 00 00 3c ba 00 00 7e a8 00 80
       -4.9955e-41 7.2349e-41 6.6808e-41 -6.0444e-41
0000d0 a7 94 00 00 cf 9e 00 00 b0 c3 00 00 d8 6d 00 00
       5.3326e-41 5.697e-41 7.02e-41 3.9405e-41
0000e0 16 d2 00 80 67 88 00 00 35 ab 00 00 3d 90 00 80
       -7.5365e-41 4.8932e-41 6.1418e-41 -5.1743e-41
0000f0 6d 64 00 00 7f be 00 00 df 1e 00 80 98 a4 00 00
       3.6026e-41 6.8337e-41 -1.1074e-41 5.9045e-41
000100 72 14 00 80 94 93 00 00 d5 9e 6d b8 36 64 00 80
       -7.334e-42 5.2941e-41 -5.6653127e-05 -3.5949e-41
000110 a3 8e 9b 38 d2 9f 75 39 d6 2b cb 39 77 41 4b 3a
       7.417544e-05 0.00023424558 0.00038751838 0.00077535905
000120 f9 cd 6f 37 19 d0 00 00 2d 9d a3 39 63 b7 00 00
       1.4293467e-05 7.4651e-41 0.00031206888 6.5787e-41
000130 97 ac 00 80 cc 27 26 b9 c1 1d 3c 39 49 be 00 80
       -6.1914e-41 -0.00015845819 0.00017940161 -6.8261e-41
000140 e5 41 27 39 64 76 00 80 4b 99 4a 39 cd 95 b5 39
       0.00015950909 -4.247e-41 0.00019321327 0.0003463462
000150 9c 32 00 80 74 c2 1b 3a 5f a9 33 38 85 2a 00 80
       -1.8155e-41 0.00059417565 4.2834665e-05 -1.5253e-41
000160 fd 16 00 80 c0 a5 00 80 ff 8c 00 00 d9 c9 00 00
       -8.247e-42 -5.946e-41 5.058e-41 7.2409e-41
000170 12 9b 00 80 79 29 00 80 75 ac 00 00 87 d2 00 80
       -5.5629e-41 -1.4878e-41 6.1866e-41 -7.5523e-41
000180 36 53 00 00 54 97 00 00 9d 7b 00 00 fa 38 00 80
       2.985e-41 5.4286e-41 4.4344e-41 -2.044e-41
000190 3f d1 00 80 6b 6e 00 80 33 6b 00 00 fc d5 00 80
       -7.5063e-41 -3.961e-41 3.8456e-41 -7.6763e-41
0001a0 ed 3d 00 00 13 37 00 80 09 d1 00 80 44 64 00 80
       2.2215e-41 -1.9757e-41 -7.4988e-41 -3.5969e-41
0001b0 9d a3 00 80 ce 84 00 80 28 77 00 80 62 cc 00 80
       -5.8693e-41 -4.7641e-41 -4.2745e-41 -7.3319e-41
0001c0 73 c7 00 00 9b 02 00 00 d6 c7 00 80 07 08 00 80
       7.1549e-41 9.35e-43 -7.1688e-41 -2.88e-42
0001d0 3e 74 00 80 1b 24 00 00 e3 c7 00 80 00 63 00 80
       -4.17e-41 1.2952e-41 -7.1706e-41 -3.5515e-41
0001e0 87 65 00 00 49 6c 00 80 5b bd 00 00 fb 71 00 00
       3.6421e-41 -3.8845e-41 6.7928e-41 4.0888e-41
0001f0 38 28 00 80 78 bb 00 00 35 bb 00 00 c5 a0 00 80
       -1.4428e-41 6.7251e-41 6.7157e-41 -5.7673e-41
000200 47 0d 00 00 83 d3 00 00 b1 81 00 00 d6 84 00 80
       4.763e-42 7.5876e-41 4.6525e-41 -4.7653e-41
000210 57 6b 00 80 37 47 8a 39 9b 3b 00 80 3b 81 00 80
       -3.8506e-41 0.0002637447 -2.1382e-41 -4.6359e-41
000220 49 3e 47 b9 44 8b 01 b9 9f 31 5d b9 9e a8 6d 0e
       -0.00019001322 -0.00012354279 -0.00021094688 2.9293692e-30
000230 be 2f 00 00 e6 93 a4 38 03 04 00 00 a3 d2 00 80
       1.7127e-41 7.8476776e-05 1.439e-42 -7.5562e-41
000240 0e 29 19 b9 e2 98 39 b8 07 a9 00 80 04 6d 09 b7
       -0.00014606511 -4.424982e-05 -6.0636e-41 -8.1912185e-06
000250 4e 94 00 00 f1 73 88 b8 35 82 8a b8 5c d4 00 80
       5.3202e-41 -6.506581e-05 -6.604606e-05 -7.618e-41
000260 cc ea ea b7 f6 c1 2a b9 50 0a 00 00 30 52 00 00
       -2.800431e-05 -0.0001628472 3.7e-42 2.9483e-41
000270 2e cc 00 80 59 70 00 00 1c cf 00 80 87 c9 00 80
       -7.3246e-41 4.0303e-41 -7.4297e-41 -7.2294e-41
000280 ae 30 00 80 f9 58 00 80 ee c9 00 00 82 35 00 80
       -1.7463e-41 -3.1917e-41 7.2439e-41 -1.9195e-41
000290 1f a6 00 80 df d1 00 00 1e 3a 00 80 b7 93 00 00
       -5.9593e-41 7.5288e-41 -2.0849e-41 5.299e-41
0002a0 82 ca 00 00 17 67 00 00 0d b3 00 80 26 ce 00 80
       7.2646e-41 3.6982e-41 -6.4231e-41 -7.3952e-41
0002b0 0a 1b 00 00 a1 bb 00 00 21 a0 00 00 37 7c 00 00
       9.7e-42 6.7309e-41 5.7443e-41 4.456e-41
0002c0 1d 25 00 80 ed 06 00 00 fd ae 00 00 8a ca 00 00
       -1.3314e-41 2.485e-42 6.2774e-41 7.2657e-41
0002d0 36 1a 00 80 46 18 00 00 04 bc 00 00 56 05 00 00
       -9.403e-42 8.708e-42 6.7447e-41 1.914e-42
0002e0 af af 00 00 51 bb 00 00 2a 74 00 80 c8 c8 00 80
       6.3023e-41 6.7196e-41 -4.1672e-41 -7.2027e-41
0002f0 f5 58 00 80 3f 77 00 80 5e c7 00 80 52 98 00 00
       -3.1912e-41 -4.2777e-41 -7.152e-41 5.4642e-41
000300 77 d0 00 00 3b bf 00 80 10 bf 00 80 09 72 00 80
       7.4783e-41 -6.86e-41 -6.854e-41 -4.0908e-41
000310 24 d4 00 80 9b 9d 00 00 b3 0d 00 80 08 cb 00 00
       -7.6102e-41 5.6538e-41 -4.914e-42 7.2834e-41
000320 f8 09 90 37 b1 86 00 80 40 ce 00 00 cf 43 ef 36
       1.717078e-05 -4.8318e-41 7.3989e-41 7.130649e-06
000330 d4 a5 70 36 88 c0 9e 31 db a4 9d 1d 91 40 00 00
       3.5859312e-06 4.6202935e-09 4.172801e-21 2.3162e-41
000340 1a 07 9f b4 c2 bf 00 80 d6 13 00 00 03 af 87 37
       -2.9621225e-07 -6.879e-41 7.116e-42 1.617475e-05
000350 99 70 e2 b2 bd 42 00 00 a8 36 31 a7 90 ad 00 80
       -2.6361066e-08 2.3941e-41 -2.4593314e-15 -6.2262e-41
000360 b8 00 1a ab 67 41 46 b1 fa 2e 00 80 61 4d 41 b4
       -5.471279e-13 -2.884997e-09 -1.6852e-41 -1.8002676e-07
000370 4e e4 80 36 b7 01 00 80 7f 9f 00 80 99 d1 00 80
       3.8412754e-06 -6.15e-43 -5.7216e-41 -7.519e-41
000380 d6 3c 00 80 60 ad 00 00 49 cf 00 80 e2 6e 00 80
       -2.1824e-41 6.2195e-41 -7.436e-41 -3.9777e-41
000390 f1 cd 00 80 fe 33 00 80 e1 2d 00 80 04 3a 00 00
       -7.3878e-41 -1.8651e-41 -1.6458e-41 2.0812e-41
0003a0 5f 5c 00 80 67 23 00 00 24 aa 00 80 d3 73 00 00
       -3.3137e-41 1.27e-41 -6.1035e-41 4.155e-41
0003b0 98 d2 00 00 a5 1a 00 00 ab 3e 00 80 16 6e 00 80
       7.5547e-41 9.558e-42 -2.2481e-41 -3.9491e-41
0003c0 c1 6f 00 00 11 6b 00 00 a9 21 00 00 47 38 00 80
       4.009e-41 3.8408e-41 1.2075e-41 -2.0189e-41
0003d0 b3 5b 00 80 e4 b3 00 80 7b be 00 80 81 d3 00 00
       -3.2895e-41 -6.4533e-41 -6.8332e-41 7.5873e-41
0003e0 55 ac 00 80 30 11 00 00 cd ab 00 00 cd cd 00 80
       -6.1821e-41 6.166e-42 6.163e-41 -7.3827e-41
0003f0 2e ca 00 00 c1 3c 00 00 9c 92 00 80 6e 23 00 00
       7.2528e-41 2.1794e-41 -5.2594e-41 1.271e-41

gats.0.lin_l.bias f4 [335]
000000 d5 36 0d 3c a9 0f 81 39 d4 d6 63 b9 e3 e1 10 b8
       0.00861903 0.00024616465 -0.00021728437 -3.454265e-05
000010 dc 62 95 b8 1b 78 f7 b9 03 bd 91 b8 72 08 d7 3b
       -7.123288e-05 -0.00047200997 -6.949345e-05 0.006562286
000020 3c 1d 49 b9 41 0f 2c b9 75 5b ec 39 2d 48 f1 3c
       -0.00019179744 -0.00016408881 0.00045081569 0.029453361
000030 9f cc 10 b8 25 d2 29 b9 73 d3 46 b9 d4 43 0a b9
       -3.4522844e-05 -0.00016195381 -0.00018961522 -0.00013185974
000040 0f e2 00 b9 83 b2 65 b9 40 25 10 3e 02 f0 8c b8
       -0.00012291245 -0.00021905643 0.1407671 -6.720425e-05
000050 59 6c ce 3d 64 c2 78 b9 95 9d be 39 37 f6 27 b9
       0.100792594 -0.00023723539 0.00036357032 -0.00016018083
000060 64 32 0c ba 36 d2 56 3a e4 ac 2e b9 2c ca 35 b9
       -0.0005348085 0.0008194776 -0.0001665834 -0.0001733682
000070 9c 64 97 3c 71 c6 3f 39 5a a9 a2 b9 c4 ee 10 3a
       0.018480591 0.00018289105 -0.00031025225 0.0005528743
000080 c2 e5 95 38 b2 a0 05 3b 95 e6 e2 37 cd 36 4f 39
       7.1476694e-05 0.0020389971 2.7048673e-05 0.00019761473
000090 1a 2b 91 3b d9 fc 56 b9 65 92 e3 3a 91 ec 46 b9
       0.004430187 -0.00020502823 0.0017362355 -0.0001897088
0000a0 bb 94 04 3b aa 32 5c b9 ce 15 99 b9 c3 2b 0b b9
       0.0020230252 -0.00020999709 -0.0002919868 -0.00013272376
0000b0 6a bf 9d b8 e6 64 83 3a db db 23 3c cc eb fb b8
       -7.521997e-05 0.0010024577 0.010001148 -0.00012012533
0000c0 e4 d1 51 3b 7d 16 9b b9 aa 69 d4 3b e3 29 8b b8
       0.0032015974 -0.0002958066 0.0064823227 -6.6358385e-05
0000d0 b2 76 8f b9 ba e0 20 b9 4b ac 3f 3b 7b 7e 74 3b
       -0.0002736352 -0.00015342506 0.0029246982 0.0037306834
0000e0 4e 49 bc 3d ab ae 11 b8 6c b0 0d b9 0b 4a 85 37
       0.09193669 -3.4733366e-05 -0.0001351253 1.5889314e-05
0000f0 d7 65 aa b8 1c 96 8f 39 b6 32 f6 3a eb 90 77 b8
       -8.125201e-05 0.00027386926 0.0018783424 -5.9024354e-05
000100 6b f0 a2 b9 24 2b 66 3a 23 30 3d 3d c6 f9 0c 3c
       -0.00031078173 0.0008780232 0.046188485 0.0086044725
000110 f9 01 81 39 5f d5 63 b9 fe e2 10 b8 aa 62 95 b8
       0.00024606267 -0.00021727894 -3.454368e-05 -7.123251e-05
000120 04 78 f7 b9 3e a6 91 b8 e1 85 d7 3b ad 27 49 b9
       -0.0004720093 -6.945104e-05 0.006577239 -0.00019183634
000130 67 12 2c b9 a7 63 ec 39 ea 89 f1 3c 77 e1 10 b8
       -0.00016410054 0.00045087675 0.029484708 -3.4542256e-05
000140 3c d2 29 b9 4d ce 46 b9 ed 2c 0a b9 09 e2 00 b9
       -0.00016195414 -0.00018959604 -0.00013177442 -0.00012291236
000150 d0 b5 65 b9 17 44 10 3e 87 12 8d b8 20 4e cf 3d
       -0.00021906872 0.14088474 -6.726855e-05 0.10122323
000160 97 c2 78 b9 e2 93 be 39 8c e8 27 b9 66 32 0c ba
       -0.00023723613 0.00036349805 -0.00016012992 -0.0005348086
000170 9a cf 56 3a a6 ac 2e b9 fe cb 35 b9 f4 7b 97 3c
       0.0008194387 -0.0001665825 -0.00017337498 0.018491723
000180 75 e7 3f 39 0e a5 a2 b9 20 ab 11 3a b6 c6 95 38
       0.00018301404 -0.00031022023 0.00055568106 7.1418865e-05
000190 0d a6 05 3b a4 08 e2 37 8d 55 4f 39 e6 16 91 3b
       0.0020393163 2.6945323e-05 0.00019772928 0.0044277785
0001a0 39 fd 56 b9 67 95 e3 3a 92 ec 46 b9 53 cc 04 3b
       -0.00020502963 0.0017363251 -0.00018970881 0.0020263388
0001b0 dd 26 5c b9 3f 15 99 b9 c3 2b 0b b9 34 a2 9d b8
       -0.00020995313 -0.00029198264 -0.00013272376 -7.516556e-05
0001c0 6f 6d 83 3a 90 f6 23 3c 87 ed fb b8 2c 85 51 3b
       0.0010027121 0.010007516 -0.000120128556 0.0031970246
0001d0 5d 1f 9b b9 0d d9 d3 3b 5c 3c 8b b8 6f a2 8f b9
       -0.0002958727 0.0064650835 -6.639279e-05 -0.00027396108
0001e0 25 e2 20 b9 c9 17 3f 3b 16 57 74 3b d1 c7 bb 3d
       -0.00015343034 0.0029158464 0.0037283353 0.09168971
0001f0 7f 89 11 b8 7f b2 0d b9 ca 56 85 37 ec 65 aa b8
       -3.4698747e-05 -0.00013513303 1.589525e-05 -8.125216e-05
000200 14 ba 8f 39 71 37 f6 3a 62 8e 77 b8 96 d9 a2 b9
       0.00027413724 0.0018784833 -5.9021993e-05 -0.00031061162
000210 79 32 66 3a 4d e5 3b 3d 00 29 0d 3c 69 fa 80 39
       0.0008781325 0.045872975 0.008615732 0.00024600633
000220 21 d4 63 b9 2f e3 10 b8 b3 5e 95 b8 1f 78 f7 b9
       -0.00021727431 -3.4543857e-05 -7.122513e-05 -0.00047201008
000230 0e d5 91 b8 fe 1e d7 3b 87 1f 49 b9 a1 19 2c b9
       -6.953823e-05 0.006564974 -0.00019180599 -0.00016412746
000240 1a 71 ec 39 07 52 f1 3c 2c dc 10 b8 75 d2 29 b9
       0.00045097695 0.029458059 -3.4537326e-05 -0.00016195497
000250 31 d8 46 b9 49 40 0a b9 2d e2 00 b9 62 b7 65 b9
       -0.00018963289 -0.00013184654 -0.00012291288 -0.00021907457
000260 d1 e7 0f 3e 7a f8 8c b8 83 69 ce 3d b1 c2 78 b9
       0.14053275 -6.7220026e-05 0.100787185 -0.00023723651
000270 3d 72 be 39 37 ea 27 b9 5f 32 0c ba 22 cb 56 3a
       0.00036324738 -0.00016013613 -0.0005348082 0.00081937213
000280 8b a8 2e b9 fa cb 35 b9 49 6b 97 3c 56 fa 3f 39
       -0.0001665672 -0.00017337492 0.018483775 0.00018308437
000290 ab a7 a2 b9 68 3b 11 3a ea 95 95 38 c8 9e 05 3b
       -0.0003102397 0.0005540163 7.132797e-05 0.002038883
0002a0 d4 e1 e1 37 3a fc 4e 39 38 2f 91 3b 03 fd 56 b9
       2.692725e-05 0.00019739653 0.0044306777 -0.00020502885
0002b0 b2 89 e3 3a 7e ec 46 b9 84 2f 05 3b 6d 22 5c b9
       0.0017359762 -0.00018970852 0.002032251 -0.0002099366
0002c0 04 16 99 b9 c3 2b 0b b9 e9 9a 9d b8 a6 66 83 3a
       -0.00029198837 -0.00013272376 -7.515198e-05 0.0010025098
0002d0 9c e3 23 3c 77 e9 fb b8 43 7f 51 3b 56 22 9b b9
       0.010002997 -0.00012012099 0.0031966723 -0.00029589486
0002e0 cc 75 d4 3b 66 41 8b b8 e7 a1 8f b9 d5 dd 20 b9
       0.006483769 -6.640218e-05 -0.00027395712 -0.00015341428
0002f0 eb 49 3f 3b e8 96 74 3b dc 65 bc 3d e4 38 12 b8
       0.0029188346 0.0037321392 0.09199116 -3.4862096e-05
000300 a3 a3 0d b9 5d 59 85 37 d9 65 aa b8 51 be 8f 39
       -0.00013507767 1.5896449e-05 -8.125202e-05 0.00027416882
000310 65 40 f6 3a eb 90 77 b8 0a fa a2 b9 75 2c 66 3a
       0.0018787502 -5.9024354e-05 -0.00031085341 0.00087804283
000320 99 9c 3c 3d 0f 1a 0d 3c 63 00 81 39 d8 d4 63 b9
       0.04604778 0.00861217 0.00024605085 -0.00021727697
000330 98 8a 11 b8 94 60 95 b8 01 78 f7 b9 0b c5 91 b8
       -3.469977e-05 -7.122863e-05 -0.0004720092 -6.950841e-05
000340 a6 26 d7 3b ca 4e 49 b9 2b 12 2c b9 7b 6b ec 39
       0.0065658865 -0.00019198205 -0.00016409966 0.00045093507
000350 3d 8c f1 3c 50 dc 10 b8 13 d4 29 b9 d6 c2 46 b9
       0.029485816 -3.4537457e-05 -0.000161961 -0.00018955334
000360 88 52 0a b9 0f e2 00 b9 ac b3 65 b9 2d 3a 10 3e
       -0.00013191451 -0.00012291245 -0.00021906075 0.14084692
000370 22 f8 8c b8 1a f3 ce 3d 7e c0 78 b9 56 8d be 39
       -6.7219386e-05 0.10104962 -0.00023722832 0.00036344928
000380 d5 fa 27 b9 64 32 0c ba 2e ca 56 3a c6 ac 2e b9
       -0.00016019803 -0.0005348085 0.0008193579 -0.00016658296
000390 67 d4 35 b9 c1 5f 97 3c a7 08 40 39 50 ad a2 b9
       -0.00017340631 0.018478276 0.0001831377 -0.00031028176
0003a0 09 63 11 3a 88 98 95 38 6c a1 05 3b 1f 4f e0 37
       0.00055460684 7.133285e-05 0.0020390404 2.6739724e-05
0003b0 71 4b 4f 39 78 1a 91 3b a4 fc 56 b9 ec 90 e3 3a
       0.00019769162 0.004428204 -0.00020502746 0.0017361916
0003c0 95 ec 46 b9 04 59 04 3b 52 e4 5b b9 ac 16 99 b9
       -0.00018970885 0.002019466 -0.00020970523 -0.00029199326
0003d0 c3 2b 0b b9 38 dd 9d b8 72 73 83 3a 81 12 24 3c
       -0.00013272376 -7.5275486e-05 0.0010028912 0.010014177
0003e0 91 ea fb b8 76 ec 51 3b 85 10 9b b9 a9 66 d4 3b
       -0.00012012304 0.003203181 -0.00029576212 0.0064819646
0003f0 45 33 8b b8 e7 72 8f b9 e0 e2 20 b9 9c 14 3f 3b
       -6.637586e-05 -0.00027360694 -0.00015343307 0.0029156571

gats.0.lin_r.weight f4 [335, 67]
000000 ff 3f 40 8e 0e 89 00 9e 09 00 fa 38 30 ba 6a 0e
       -2.369664e-30 -6.804606e-21 0.000119209355 2.8932373e-30
000010 2e 09 b9 38 9c e9 56 0e f6 37 00 00 6e 52 00 00
       8.823197e-05 2.6490015e-30 2.0075e-41 2.957e-41
000020 c8 70 00 00 06 d1 00 80 08 97 00 80 a7 c3 00 00
       4.0458e-41 -7.4983e-41 -5.418e-41 7.0187e-41
000030 9d 70 00 00 64 a4 00 80 a4 8f 00 00 c4 d3 00 00
       4.0398e-41 -5.8972e-41 5.1529e-41 7.5967e-41
000040 83 d8 85 a9 f5 ce 00 80 73 1e 5f 0f 77 30 c2 b7
       -5.943945e-14 -7.4242e-41 1.1000613e-29 -2.314917e-05
000050 af a0 00 00 d3 a3 00 00 fe 5d 00 00 b4 00 00 80
       5.7642e-41 5.8769e-41 3.3718e-41 -2.52e-43
000060 22 35 00 00 55 19 00 80 66 78 00 00 a8 c2 00 80
       1.906e-41 -9.087e-42 4.3191e-41 -6.983e-41
000070 c9 03 00 00 7c 2f 00 00 a1 af 00 80 59 b7 00 00
       1.358e-42 1.7034e-41 -6.3004e-41 6.5773e-41
000080 a7 b9 00 00 4a cf 00 00 c6 01 00 00 0b 82 00 00
       6.66e-41 7.4361e-41 6.36e-43 4.665e-41
000090 f6 c5 00 00 09 04 00 00 8b 0e 00 00 ce b2 00 00
       7.1015e-41 1.448e-42 5.217e-42 6.4143e-41
0000a0 b0 68 00 80 82 ba 00 00 06 14 00 00 71 23 00 80
       -3.7555e-41 6.6906e-41 7.183e-42 -1.2714e-41
0000b0 69 39 00 80 9f 24 00 80 1f 52 00 80 1f 84 00 80
       -2.0595e-41 -1.3137e-41 -2.946e-41 -4.7396e-41
0000c0 92 c9 00 00 6d 9d 00 80 e2 67 00 00 9e c2 00 80
       7.231e-41 -5.6474e-41 3.7266e-41 -6.9815e-41
0000d0 f4 bb 00 00 ce ae 00 00 82 3a 00 00 82 a2 00 80
       6.7425e-41 6.2708e-41 2.0989e-41 -5.8297e-41
0000e0 0d 62 00 80 05 af 00 00 bd 8f 00 00 e9 46 00 00
       -3.5174e-41 6.2785e-41 5.1564e-41 2.5438e-41
0000f0 b9 a8 00 00 ea 68 00 00 a5 cb 00 00 06 a0 00 00
       6.0526e-41 3.7636e-41 7.3054e-41 5.7406e-41
000100 8e 88 00 00 2b 37 00 00 c3 55 00 00 88 a6 00 00
       4.8987e-41 1.979e-41 3.0766e-41 5.974e-41
000110 1a c5 00 00 5d 63 92 ae d3 9c 00 00 16 34 a6 ab
       7.0707e-41 -6.656962e-11 5.6258e-41 -1.1809466e-12
000120 50 d0 00 80 05 ca 00 80 79 19 00 00 60 c4 00 00
       -7.4728e-41 -7.2471e-41 9.138e-42 7.0446e-41
000130 06 26 00 80 19 0c 00 00 61 1d 00 00 0a 96 00 00
       -1.364e-41 4.34e-42 1.0539e-41 5.3824e-41
000140 7f 29 00 80 52 81 00 80 59 cf 00 80 7f 9d 00 80
       -1.4886e-41 -4.6391e-41 -7.4382e-41 -5.6499e-41
000150 29 99 00 80 40 b7 00 80 84 7f 00 00 83 1f 00 80
       -5.4944e-41 -6.5738e-41 4.5744e-41 -1.1304e-41
000160 49 d0 00 80 1f 9a 00 00 32 58 00 80 18 67 00 80
       -7.4719e-41 5.5288e-41 -3.1639e-41 -3.6983e-41
000170 f9 98 00 00 46 54 00 80 28 0f 00 80 4f 23 00 00
       5.4876e-41 -3.0232e-41 -5.437e-42 1.2666e-41
000180 03 8c 00 00 0f 93 00 80 67 bf 00 80 d4 60 00 00
       5.0227e-41 -5.2755e-41 -6.8662e-41 3.4735e-41
000190 a3 37 00 00 56 c5 00 80 a0 9f 00 00 d4 44 00 00
       1.9959e-41 -7.0791e-41 5.7263e-41 2.4691e-41
0001a0 07 d5 00 00 de c8 00 00 15 82 00 00 ec 9c 00 80
       7.642e-41 7.2058e-41 4.6665e-41 -5.6293e-41
0001b0 43 94 00 00 1b 30 00 00 5f 09 00 00 04 5b 00 00
       5.3186e-41 1.7257e-41 3.362e-42 3.265e-41
0001c0 32 8f 00 00 56 bf 00 80 43 cf 00 80 35 26 00 00
       5.1369e-41 -6.8638e-41 -7.4351e-41 1.3706e-41
0001d0 ef 96 00 00 a9 03 00 80 f0 33 00 80 73 69 00 80
       5.4145e-41 -1.313e-42 -1.8632e-41 -3.7828e-41
0001e0 57 64 00 00 61 28 00 00 f2 24 00 80 45 bd 00 80
       3.5995e-41 1.4485e-41 -1.3253e-41 -6.7897e-41
0001f0 c8 19 00 00 fd d2 00 00 80 3f 00 80 71 46 00 80
       9.249e-42 7.5688e-41 -2.278e-41 -2.527e-41
000200 c8 35 00 80 84 2a 00 00 76 d1 00 80 9a 5c 00 80
       -1.9293e-41 1.5252e-41 -7.514e-41 -3.3219e-41
000210 cc cf 00 00 f9 cf 00 80 09 ca 00 80 ca c4 00 80
       7.4543e-41 -7.4607e-41 -7.2477e-41 -7.0595e-41
000220 98 57 00 80 c5 7b 00 80 05 c6 00 00 39 d0 00 00
       -3.1423e-41 -4.44e-41 7.1036e-41 7.4696e-41
000230 fd 26 00 80 8f 20 00 80 7e 3b 00 80 5c b0 00 00
       -1.3986e-41 -1.168e-41 -2.1342e-41 6.3266e-41
000240 40 b2 00 80 dc 65 00 80 82 82 00 00 7d 39 00 80
       -6.3944e-41 -3.654e-41 4.6817e-41 -2.0623e-41
000250 c0 c5 00 80 fc bd 00 00 36 7d 00 00 4d c8 00 80
       -7.094e-41 6.8154e-41 4.4917e-41 -7.1854e-41
000260 39 c2 00 80 16 6d 00 00 22 29 00 00 b2 c7 00 80
       -6.9674e-41 3.9133e-41 1.4756e-41 -7.1637e-41
000270 5b d5 00 00 3e cb 00 80 bc 77 00 00 cd ae 00 00
       7.6538e-41 -7.291e-41 4.2953e-41 6.2707e-41
000280 eb 13 00 00 e0 7e 00 80 72 72 00 00 21 c6 00 80
       7.145e-42 -4.5514e-41 4.1055e-41 -7.1075e-41
000290 be 82 00 80 7e c6 00 80 9e 1b 00 80 65 56 00 00
       -4.6901e-41 -7.1206e-41 -9.907e-42 3.0993e-41
0002a0 6e 33 00 00 cf 34 00 00 16 be 00 80 b5 8d 00 00
       1.845e-41 1.8944e-41 -6.819e-41 5.0835e-41
0002b0 1b ab 00 80 10 b9 00 80 17 27 00 00 75 9b 00 00
       -6.1381e-41 -6.6388e-41 1.4023e-41 5.5767e-41
0002c0 02 27 00 00 97 ae 00 00 62 d0 00 00 47 77 00 80
       1.3993e-41 6.2631e-41 7.4754e-41 -4.2789e-41
0002d0 d9 bd 00 00 ec d0 00 00 00 65 00 80 2e 72 00 00
       6.8105e-41 7.4947e-41 -3.6232e-41 4.096e-41
0002e0 0c 57 00 00 27 b7 00 80 6c af 00 80 f6 40 00 00
       3.1227e-41 -6.5703e-41 -6.293e-41 2.3304e-41
0002f0 7f ba 00 80 03 d1 00 80 7b b9 00 00 48 c8 00 00
       -6.6902e-41 -7.4979e-41 6.6538e-41 7.1847e-41
000300 0b 9d 00 80 52 04 00 80 f3 42 00 80 ce 76 00 00
       -5.6336e-41 -1.55e-42 -2.4017e-41 4.2619e-41
000310 a1 67 00 00 3e 77 00 80 88 b7 00 80 f1 73 00 00
       3.7175e-41 -4.2776e-41 -6.5839e-41 4.1592e-41
000320 c5 d4 00 00 d5 54 00 00 d5 d1 00 80 f2 c9 00 00
       7.6327e-41 3.0432e-41 -7.5274e-41 7.2444e-41
000330 dd 24 00 80 4b a4 00 80 34 c4 00 80 56 94 00 80
       -1.3224e-41 -5.8937e-41 -7.0384e-41 -5.3213e-41
000340 a0 62 00 80 7e d3 00 80 e5 d2 00 00 81 17 00 80
       -3.538e-41 -7.5869e-41 7.5655e-41 -8.432e-42
000350 dc c4 00 00 93 2c 00 80 78 82 00 80 c3 60 00 80
       7.062e-41 -1.599e-41 -4.6803e-41 -3.4712e-41
000360 70 d2 00 80 e2 d3 00 00 be 16 00 00 6b 5d 00 80
       -7.5491e-41 7.6009e-41 8.158e-42 -3.3512e-41
000370 7e 06 00 00 57 9c 00 80 48 73 00 80 56 be 00 00
       2.329e-42 -5.6084e-41 -4.1355e-41 6.828e-41
000380 8c cf 00 00 ac cf 00 00 5e d2 00 80 e5 c5 00 00
       7.4454e-41 7.4499e-41 -7.5466e-41 7.0991e-41
000390 cf 85 00 80 70 d0 00 80 2f c6 00 80 d1 d1 00 00
       -4.8001e-41 -7.4773e-41 -7.1095e-41 7.5268e-41
0003a0 3d 79 00 80 5f ca 00 80 f9 5e 00 00 ac 33 00 00
       -4.3492e-41 -7.2597e-41 3.407e-41 1.8536e-41
0003b0 e8 60 00 80 e8 c5 00 00 f1 d4 00 80 88 c6 00 00
       -3.4763e-41 7.0995e-41 -7.6389e-41 7.122e-41
0003c0 24 be 00 00 b0 23 00 80 e2 b1 00 00 99 94 00 00
       6.821e-41 -1.2802e-41 6.3812e-41 5.3307e-41
0003d0 f4 ce 00 00 5c ac 00 80 03 1e 00 80 2e d5 00 00
       7.4241e-41 -6.1831e-41 -1.0766e-41 7.6474e-41
0003e0 6b ae 00 00 79 2d 00 00 11 a1 00 80 71 c3 00 00
       6.257e-41 1.6313e-41 -5.778e-41 7.0111e-41
0003f0 44 7f 00 80 c5 23 00 80 47 06 00 00 0c 8a 00 80
       -4.5654e-41 -1.2832e-41 2.252e-42 -4.9522e-41

gats.0.lin_r.bias f4 [335]
000000 dc 75 0e 39 e9 20 ce 2e 8a 60 00 80 a1 67 00 00
       0.00013586081 9.3736414e-11 -3.4632e-41 3.7175e-41
000010 b1 0b 00 80 20 af 00 80 92 45 06 2f ea 58 8c 36
       -4.194e-42 -6.2823e-41 1.2211945e-10 4.182676e-06
000020 8a 73 1f 34 b5 3c 00 00 20 c8 64 2d 31 8a f6 38
       1.4850062e-07 2.1778e-41 1.3004736e-11 0.00011755934
000030 c1 29 00 80 85 37 00 00 88 79 7c 29 6e 03 00 00
       -1.4978e-41 1.9917e-41 5.6060652e-14 1.23e-42
000040 21 c6 00 00 42 77 00 80 7a 3d a1 b9 9e 2d 00 80
       7.1075e-41 -4.2782e-41 -0.00030754117 -1.6364e-41
000050 a6 96 6b 39 b6 83 00 80 39 df 33 32 97 b2 fe 2e
       0.00022467467 -4.7249e-41 1.0469926e-08 1.15823066e-10
000060 2f 0e 00 80 6d 77 e4 b6 85 c7 00 80 03 aa 00 80
       -5.088e-42 -6.8088325e-06 -7.1574e-41 -6.0989e-41
000070 77 5f c4 b7 2c 0d a8 a8 4f 0b 0d b4 8e ce f6 b6
       -2.3409475e-05 -1.865746e-14 -1.3135762e-07 -7.3554174e-06
000080 a8 b5 0a b4 cb e6 40 b6 ae 31 00 80 87 1a 39 b3
       -1.2918338e-07 -2.8744569e-06 -1.7822e-41 -4.3097796e-08
000090 9a eb 94 b7 fb 41 00 80 47 db 04 b7 80 77 00 80
       -1.7752685e-05 -2.367e-41 -7.918868e-06 -4.2869e-41
0000a0 ef 28 2b 37 40 4b 0a 36 dd cf 00 80 4a 44 00 80
       1.0201925e-05 2.0607404e-06 -7.4567e-41 -2.4497e-41
0000b0 f0 bf 00 80 bb 3e 25 af 35 9f 85 b6 c1 97 00 80
       -6.8854e-41 -1.5028949e-10 -3.982243e-06 -5.4439e-41
0000c0 04 24 08 37 b7 37 24 ad 8b c2 39 39 46 2b 00 80
       8.114617e-06 -9.334692e-12 0.00017715448 -1.5524e-41
0000d0 d9 f6 d4 35 48 b8 00 00 be 48 1b b7 c7 ee 39 b7
       1.5867073e-06 6.6108e-41 -9.255657e-06 -1.1082454e-05
0000e0 94 83 e1 38 7f 76 70 2d 50 d5 00 00 74 e8 00 23
       0.000107533444 1.3668732e-11 7.6522e-41 6.988118e-18
0000f0 4a 3e 00 00 02 52 8c b7 47 f3 ea b7 a9 73 00 00
       2.2345e-41 -1.6727488e-05 -2.8008259e-05 4.1491e-41
000100 08 8c 00 80 03 4c 53 b6 fe 29 c8 39 05 9f 0f 39
       -5.0234e-41 -3.1485695e-06 0.0003817826 0.00013696782
000110 09 90 1e 2f 8a 60 00 80 2b 94 00 00 e3 cc 00 80
       1.4421188e-10 -3.4632e-41 5.3153e-41 -7.35e-41
000120 b4 82 00 80 92 45 06 2f 98 8f 7d 36 8e 73 1f 34
       -4.6887e-41 1.2211945e-10 3.778352e-06 1.4850067e-07
000130 f4 45 00 00 be 58 64 2d ed 30 eb 38 34 cf 00 00
       2.5094e-41 1.2980004e-11 0.00011214786 7.433e-41
000140 28 70 00 80 f3 17 ed 28 bd 14 00 00 21 c6 00 00
       -4.0234e-41 2.6322672e-14 7.44e-42 7.1075e-41
000150 04 45 00 00 dd 5d 88 b9 97 13 00 80 cb c4 49 39
       2.4758e-41 -0.00026009875 -7.028e-42 0.00019242165
000160 7c 26 00 00 39 df 33 32 4a 09 16 30 2f 0e 00 80
       1.3806e-41 1.0469926e-08 5.458288e-10 -5.088e-42
000170 6d 77 e4 b6 6b 5d 00 80 03 aa 00 80 06 b9 c4 b7
       -6.8088325e-06 -3.3512e-41 -6.0989e-41 -2.3451179e-05
000180 ad e8 a6 a8 0d 1f 0d b4 d7 ae f0 b6 fb 4e ff b3
       -1.853061e-14 -1.3142945e-07 -7.1729114e-06 -1.1888729e-07
000190 11 fc 40 b6 65 08 00 80 9d cb 39 b3 f5 c6 71 b7
       -2.8756951e-06 -3.011e-42 -4.3258854e-08 -1.4411043e-05
0001a0 91 b3 00 80 62 95 0f b7 4c 06 00 00 97 4c 22 37
       -6.4416e-41 -8.558245e-06 2.259e-42 9.673785e-06
0001b0 b2 4b 5d b5 dd cf 00 80 4a 44 00 80 3e 6e 00 80
       -8.2439067e-07 -7.4567e-41 -2.4497e-41 -3.9547e-41
0001c0 5a 7b 22 af d1 db e2 b6 ae 43 00 80 23 46 0e 37
       -1.4777637e-10 -6.760915e-06 -2.4279e-41 8.4801895e-06
0001d0 17 e0 2d ad 15 8e 42 39 0f d3 00 80 16 b1 d5 35
       -9.883669e-12 0.00018554211 -7.5714e-41 1.5921275e-06
0001e0 48 b8 00 00 fb d0 52 b6 ea dc a2 b7 a9 28 ea 38
       6.6108e-41 -3.1414081e-06 -1.9414776e-05 0.00011165563
0001f0 a3 20 da 2d 50 d5 00 00 d4 01 0a a2 4a 3e 00 00
       2.4798224e-11 7.6522e-41 -1.8703455e-18 2.2345e-41
000200 29 70 8c b7 65 fd ea b7 3c 87 00 00 08 93 00 80
       -1.674153e-05 -2.801297e-05 4.8513e-41 -5.2745e-41
000210 57 e6 53 b6 e7 9e d6 39 2c 1c 0d 39 09 90 1e 2f
       -3.1575526e-06 0.00040935652 0.00013457303 1.4421188e-10
000220 2b b2 00 80 2b 94 00 00 b1 0b 00 80 09 93 00 00
       -6.3915e-41 5.3153e-41 -4.194e-42 5.2746e-41
000230 92 45 06 2f ef e4 2b 35 9a 73 1f 34 f4 45 00 00
       1.2211945e-10 6.4035606e-07 1.4850085e-07 2.5094e-41
000240 be 58 64 2d 06 cf e2 38 9c 59 00 00 36 18 00 00
       1.2980004e-11 0.00010815081 3.2146e-41 8.685e-42
000250 88 79 7c 29 57 3a 00 00 21 c6 00 00 42 77 00 80
       5.6060652e-14 2.0928e-41 7.1075e-41 -4.2782e-41
000260 1e dd a9 b9 c6 2b 00 00 d3 df 83 39 a6 3b 00 80
       -0.00032398937 1.5703e-41 0.0002515303 -2.1398e-41
000270 39 df 33 32 4a 09 16 30 2f 0e 00 80 6d 77 e4 b6
       1.0469926e-08 5.458288e-10 -5.088e-42 -6.8088325e-06
000280 6b 5d 00 80 03 aa 00 80 13 97 c4 b7 47 25 a8 a8
       -3.3512e-41 -6.0989e-41 -2.343537e-05 -1.8667913e-14
000290 93 fe 0c b4 0c 9f f0 b6 f5 4a ff b3 7e b4 40 b6
       -1.313113e-07 -7.171073e-06 -1.18879974e-07 -2.871529e-06
0002a0 52 13 00 80 dc 50 38 b3 34 91 83 b7 67 5f 00 00
       -6.931e-42 -4.291438e-08 -1.5684032e-05 3.4224e-41
0002b0 07 95 0f b7 82 9e 00 80 f3 2d 21 37 ea 56 5d b5
       -8.558162e-06 -5.6862e-41 9.607046e-06 -8.245539e-07
0002c0 dd cf 00 80 4a 44 00 80 3e 6e 00 80 3e 87 1c af
       -7.4567e-41 -2.4497e-41 -3.9547e-41 -1.4236165e-10
0002d0 a0 8b 6d b5 c1 97 00 80 08 10 0c 37 f6 92 28 ad
       -8.849256e-07 -5.4439e-41 8.348383e-06 -9.582326e-12
0002e0 f3 74 42 39 0f d3 00 80 17 b1 d5 35 48 b8 00 00
       0.00018544849 -7.5714e-41 1.5921277e-06 6.6108e-41
0002f0 3c ba 9d b6 06 70 a1 b7 d3 d7 e0 38 f5 18 a9 2d
       -4.700645e-06 -1.924486e-05 0.00010721353 1.9224159e-11
000300 50 d5 00 00 cb 58 00 a2 4a 3e 00 00 f4 88 8c b7
       7.6522e-41 -1.7394241e-18 2.2345e-41 -1.6753074e-05
000310 15 05 eb b7 a9 73 00 00 9c a7 00 80 92 d7 44 b6
       -2.801655e-05 4.1491e-41 -6.0127e-41 -2.9331754e-06
000320 f7 4f d5 39 b9 45 0f 39 e9 20 ce 2e 8a 60 00 80
       0.00040686104 0.00013663516 9.3736414e-11 -3.4632e-41
000330 a1 67 00 00 b1 0b 00 80 d2 9f 00 80 97 e1 ca 2e
       3.7175e-41 -4.194e-42 -5.7333e-41 9.225969e-11
000340 b8 65 ed 36 8a 73 1f 34 4c 84 00 00 f5 33 77 2d
       7.074992e-06 1.4850062e-07 4.7459e-41 1.4051861e-11
000350 4c 01 f6 38 d9 8e 00 00 3e cf 00 80 e0 bb 49 29
       0.00011730436 5.1244e-41 -7.4344e-41 4.479392e-14
000360 be 2b 00 00 21 c6 00 00 58 12 00 80 bf 26 8a b9
       1.5692e-41 7.1075e-41 -6.58e-42 -0.0002635028
000370 68 14 00 80 2f 89 5e 39 20 1f 00 00 39 df 33 32
       -7.32e-42 0.00021222675 1.1166e-41 1.0469926e-08
000380 97 b2 fe 2e 2f 0e 00 80 7e e0 e4 b6 6b 5d 00 80
       1.15823066e-10 -5.088e-42 -6.821064e-06 -3.3512e-41
000390 03 aa 00 80 2c 44 e7 b7 bd 9c 94 a8 c0 61 0d b4
       -6.0989e-41 -2.756909e-05 -1.6499275e-14 -1.316721e-07
0003a0 d8 b9 e9 b6 37 c1 0a b4 52 0e 41 b6 2f 14 00 80
       -6.965576e-06 -1.2922543e-07 -2.8767577e-06 -7.24e-42
0003b0 31 a8 33 b3 52 94 96 b7 94 1c 00 80 3d 44 0e b7
       -4.1829654e-08 -1.795046e-05 -1.0252e-41 -8.4797475e-06
0003c0 eb 40 00 80 0d 37 2b 37 d2 03 73 b5 dd cf 00 80
       -2.3288e-41 1.0205212e-05 -9.0530114e-07 -7.4567e-41
0003d0 4a 44 00 80 f0 bf 00 80 b4 fb 55 af 23 7d 41 b5
       -2.4497e-41 -6.8854e-41 -1.946166e-10 -7.20802e-07
0003e0 c1 97 00 80 a2 7d fe 36 e4 61 23 ad 00 b9 3e 39
       -5.4439e-41 7.5844155e-06 -9.287213e-12 0.0001818873
0003f0 19 58 00 80 88 d7 d5 35 48 b8 00 00 80 37 7b b5
       -3.1603e-41 1.5932465e-06 6.6108e-41 -9.358555e-07

gats.0.lin_edge.weight f4 [335, 1]
000000 f0 43 11 39 bb a6 96 ae 33 b4 00 80 3b 6d 00 00
       0.00013853586 -6.8508275e-11 -6.4643e-41 3.9185e-41
000010 41 60 00 80 0e 05 00 00 42 ff d2 25 ed 5a 2b b8
       -3.453e-41 1.813e-42 3.6602162e-16 -4.085426e-05
000020 56 13 73 29 42 cb 00 80 8c fb 65 2b 38 bb af 36
       5.397361e-14 -7.2915e-41 8.1706235e-13 5.2372015e-06
000030 73 c7 00 80 99 d6 00 80 06 1d 00 80 de 18 00 00
       -7.1549e-41 -7.6983e-41 -1.0412e-41 8.92e-42
000040 2b 5c 00 00 7f cc 00 00 b1 59 39 ba c0 8f 00 80
       3.3064e-41 7.336e-41 -0.0007070555 -5.1568e-41
000050 ba 00 88 36 51 72 00 00 74 d0 ed 31 dc 88 03 25
       4.0532004e-06 4.1009e-41 6.921306e-09 1.1408809e-16
000060 a2 42 00 80 f9 a0 94 ac ef 66 00 00 0e 6f 00 80
       -2.3903e-41 -4.2242846e-12 3.6926e-41 -3.9839e-41
000070 da fe 2f 37 c2 80 c7 29 67 05 e2 26 e4 e1 8c b6
       1.049015e-05 8.859711e-14 1.5683365e-15 -4.1986223e-06
000080 10 8e c7 a9 9c 25 80 b5 d3 17 00 00 2e 19 15 9e
       -8.862019e-14 -9.547689e-07 8.547e-42 -7.893201e-21
000090 b8 ce 01 b8 53 ce 00 00 79 38 cf b6 1f 35 00 80
       -3.094852e-05 7.4015e-41 -6.175655e-06 -1.9056e-41
0000a0 de fe e8 b6 00 77 f5 a8 ef 25 00 00 17 65 00 80
       -6.9438092e-06 -2.7252072e-14 1.3608e-41 -3.6264e-41
0000b0 48 a6 00 00 38 c1 00 28 30 7d 74 b7 6e 74 00 80
       5.965e-41 7.147325e-15 -1.4572681e-05 -4.1767e-41
0000c0 6d 3a 70 b8 a0 04 07 9a c3 f4 6e 38 4b 89 00 80
       -5.7274872e-05 -2.7921082e-23 5.6971574e-05 -4.9251e-41
0000d0 1c 1c 45 a8 d2 6d 00 80 ae 8b 8f b8 40 70 a7 b8
       -1.0941792e-14 -3.9396e-41 -6.844789e-05 -7.984089e-05
0000e0 de 74 1c b9 2e fc ea 25 3f 78 00 80 c2 c8 00 00
       -0.00014920856 4.0763413e-16 -4.3136e-41 7.2018e-41
0000f0 53 89 00 00 a5 4f 66 31 95 9c be 36 5a 0e 00 80
       4.9263e-41 3.3514678e-09 5.68067e-06 -5.148e-42
000100 f9 4b 00 80 96 ac e7 36 78 40 36 b9 a0 9a 10 39
       -2.7254e-41 6.904428e-06 -0.00017380889 0.00013790512
000110 bb a6 96 ae 9b 8b 00 00 ed 3b 00 00 41 60 00 80
       -6.8508275e-11 5.0081e-41 2.1497e-41 -3.453e-41
000120 d9 7a 00 80 5d 01 d3 25 eb b3 1b b8 56 13 73 29
       -4.407e-41 3.660359e-16 -3.712244e-05 5.397361e-14
000130 42 cb 00 80 8c fb 65 2b c6 7d 92 36 e9 06 00 80
       -7.2915e-41 8.1706235e-13 4.365781e-06 -2.479e-42
000140 13 06 00 00 9d 09 00 00 34 0b 00 80 2b 5c 00 00
       2.179e-42 3.449e-42 -4.019e-42 3.3064e-41
000150 0f 8f 00 80 9f 6b 3a ba df 8d 00 80 79 dd b1 b6
       -5.132e-41 -0.00071113737 -5.0894e-41 -5.300794e-06
000160 73 c7 00 00 74 d0 ed 31 00 5e 30 25 a2 42 00 80
       7.1549e-41 6.921306e-09 1.5297415e-16 -2.3903e-41
000170 f9 a0 94 ac d1 1a 00 80 0e 6f 00 80 57 3c 30 37
       -4.2242846e-12 -9.62e-42 -3.9839e-41 1.0504466e-05
000180 ae d4 c8 29 a2 08 e2 26 72 af 89 b6 e1 d7 d8 a9
       8.918678e-14 1.568424e-15 -4.1033427e-06 -9.629776e-14
000190 96 50 80 b5 ad 0d 00 80 96 ba 15 9e da 1a cb b7
       -9.560197e-07 -4.906e-42 -7.926579e-21 -2.421199e-05
0001a0 51 3d 00 00 ca 07 cf b6 1f 35 00 80 a9 1b e9 b6
       2.1996e-41 -6.1699875e-06 -1.9056e-41 -6.947161e-06
0001b0 5a de 8a a8 ef 25 00 00 17 65 00 80 1f 71 00 80
       -1.5417507e-14 1.3608e-41 -3.6264e-41 -4.058e-41
0001c0 0e e2 04 28 7d 0d 96 b7 6e 74 00 80 96 a9 6c b8
       7.37649e-15 -1.7887674e-05 -4.1767e-41 -5.6424724e-05
0001d0 01 be 07 19 db 3b 88 38 9f 6a 00 80 a4 1b 45 a8
       7.0177074e-24 6.496134e-05 -3.8248e-41 -1.094169e-14
0001e0 d2 6d 00 80 ab 34 80 b8 a0 4d a6 b8 bf fb 20 b9
       -3.9396e-41 -6.113326e-05 -7.9299556e-05 -0.00015352572
0001f0 2e 01 f3 a6 3f 78 00 80 3f d3 00 00 fe b0 00 00
       -1.6861832e-15 -4.3136e-41 7.5781e-41 6.3493e-41
000200 2b 35 69 31 52 a1 be 36 bf 52 00 00 b7 78 00 80
       3.3936185e-09 5.6812214e-06 2.9684e-41 -4.3304e-41
000210 a9 ba e7 36 39 dc 31 b9 39 10 0e 39 bb a6 96 ae
       6.9060666e-06 -0.00016962075 0.00013548219 -6.8508275e-11
000220 d1 92 00 00 23 98 00 80 41 60 00 80 e1 7a 00 80
       5.2668e-41 -5.4576e-41 -3.453e-41 -4.408e-41
000230 5d 01 d3 25 89 eb 3b b8 56 13 73 29 42 cb 00 80
       3.660359e-16 -4.4803634e-05 5.397361e-14 -7.2915e-41
000240 8c fb 65 2b 1f 34 66 b5 e9 06 00 80 fb af 00 80
       8.1706235e-13 -8.5757523e-07 -2.479e-42 -6.313e-41
000250 06 1d 00 80 34 0b 00 80 a6 5d 00 00 7f cc 00 00
       -1.0412e-41 -4.019e-42 3.3595e-41 7.336e-41
000260 6f 93 39 ba 21 c3 00 80 6e e2 ae 36 7a 9e 00 00
       -0.0007079159 -6.9999e-41 5.211964e-06 5.685e-41
000270 74 d0 ed 31 00 5e 30 25 a2 42 00 80 f9 a0 94 ac
       6.921306e-09 1.5297415e-16 -2.3903e-41 -4.2242846e-12
000280 d9 02 00 00 0e 6f 00 80 51 e5 2f 37 c2 80 c7 29
       1.022e-42 -3.9839e-41 1.0484205e-05 8.859711e-14
000290 63 eb e1 26 c4 ae 89 b6 33 d7 d8 a9 2a 8c 81 b5
       1.5676313e-15 -4.1032636e-06 -9.629658e-14 -9.652042e-07
0002a0 c3 0d 00 00 8b 47 3f 1d 7e 38 02 b8 af 3e 00 00
       4.937e-42 2.5315626e-21 -3.1047028e-05 2.2487e-41
0002b0 61 33 cf b6 b2 a3 00 80 a8 1b e9 b6 66 b5 8b a8
       -6.175062e-06 -5.8723e-41 -6.9471607e-06 -1.5510769e-14
0002c0 ef 25 00 00 17 65 00 80 1f 71 00 80 dc 16 e8 27
       1.3608e-41 -3.6264e-41 -4.058e-41 6.441772e-15
0002d0 ca c4 2c b7 6e 74 00 80 3c a1 6c b8 d4 d0 20 19
       -1.0297817e-05 -4.1767e-41 -5.6416946e-05 8.313979e-24
0002e0 a9 6f 88 38 9f 6a 00 80 b2 1b 45 a8 24 a3 00 00
       6.505784e-05 -3.8248e-41 -1.0941702e-14 5.8524e-41
0002f0 67 d7 80 b8 de 59 a6 b8 1c f3 1c b9 0f 2b 5a 26
       -6.1436374e-05 -7.932236e-05 -0.00014967885 7.56923e-16
000300 3f 78 00 80 3f d3 00 00 fe b0 00 00 4a 96 69 31
       -4.3136e-41 7.5781e-41 6.3493e-41 3.3991392e-09
000310 e6 ad be 36 5a 0e 00 80 e9 85 00 80 62 76 e5 36
       5.6826857e-06 -5.148e-42 -4.8038e-41 6.8385134e-06
000320 63 97 31 b9 01 a7 12 39 bb a6 96 ae 5f 84 00 80
       -0.00016936431 0.00013985859 -6.8508275e-11 -4.7486e-41
000330 3b 6d 00 00 5c 1e 00 80 0e 05 00 00 42 ff d2 25
       3.9185e-41 -1.0891e-41 1.813e-42 3.6602162e-16
000340 f1 12 31 b8 56 13 73 29 48 bf 00 80 8c fb 65 2b
       -4.221773e-05 5.397361e-14 -6.8619e-41 8.1706235e-13
000350 1a 7c 92 36 73 c7 00 80 12 cf 00 80 42 22 00 00
       4.3655864e-06 -7.1549e-41 -7.4283e-41 1.229e-41
000360 d6 13 00 00 2b 5c 00 00 7f cc 00 00 3a 88 39 ba
       7.116e-42 3.3064e-41 7.336e-41 -0.0007077489
000370 b4 d2 00 80 01 53 44 36 50 aa 00 00 74 d0 ed 31
       -7.5586e-41 2.925459e-06 6.1097e-41 6.921306e-09
000380 dc 88 03 25 a2 42 00 80 b9 d5 d2 ab bc 9b 00 00
       1.1408809e-16 -2.3903e-41 -1.4980717e-12 5.5867e-41
000390 0e 6f 00 80 42 86 2a 35 ae d4 c8 29 6f e2 06 27
       -3.9839e-41 6.3525306e-07 8.918678e-14 1.8718986e-15
0003a0 14 fe 8a b6 ae 39 c7 a9 5c 29 81 b5 ca 4c 00 00
       -4.142299e-06 -8.847381e-14 -9.623286e-07 2.7547e-41
0003b0 79 c4 83 9e 07 b3 01 b8 b5 6c 00 00 46 df ce b6
       -1.3951424e-20 -3.092273e-05 3.8997e-41 -6.165271e-06
0003c0 1f 35 00 80 b2 05 e9 b6 27 63 83 27 ef 25 00 00
       -1.9056e-41 -6.944604e-06 3.6467305e-15 1.3608e-41
0003d0 17 65 00 80 48 a6 00 00 88 e6 a8 27 4b 03 2a b7
       -3.6264e-41 5.965e-41 4.687931e-15 -1.0133556e-05
0003e0 6e 74 00 80 16 49 70 b8 ce 0e 06 9a 28 c0 72 38
       -4.1767e-41 -5.7288526e-05 -2.772251e-23 5.7876256e-05
0003f0 d5 d3 00 00 54 21 45 a8 24 a3 00 00 b4 0e 7e b8
       7.5991e-41 -1.0942924e-14 5.8524e-41 -6.0572012e-05
