inference/SyGuS/model_checkpoints/SyGuS_model_2.pt (torch, 502627 bytes, 21 tensors)

gats.0.att f4 [1, 5, 67]
00000000: 4b70 2cb8 8b91 0b39 0310 b237 0f4a 8cb8
00000010: 1612 3f37 e23a b8ba 1c24 5139 796d 2eb8
00000020: 721d 96b8 03b3 04ba 8522 63b9 28c2 71ba
00000030: d72d 453a ac64 0c37 d1d1 7e39 f7a4 7e36
00000040: 10f5 42bc e5e7 d1b6 52cc b438 da9a c4ba
00000050: d7b9 06ba 18a6 ab38 e6da 91b8 91d8 a7b6
00000060: ba26 2838 f412 023a 2d2c c5bb a981 c0b6
00000070: 5516 6837 6d2b 5438 e202 8937 85f5 a6b8
00000080: b541 9db8 ce1e cbb8 02bb 6eb9 23b5 8938
00000090: 1e76 123a 7968 9fb9 f152 9ab8 2dd7 9438
000000a0: 2ca5 af38 9094 e8b7 0ce7 cdb9 e018 da38
000000b0: 86d9 b6b7 8727 6839 392f 2438 3977 2f39
000000c0: 3b4a 9838 43cb 80b8 7e99 1bb8 86ed f1b7
000000d0: 9dee c036 1260 cbb8 7905 c537 da1c 9538
000000e0: b45a 76b8 7761 393a 641f 8ab8 4b7f 5938
000000f0: ee8d 8335 cb5e 5fbc 8855 8338 096c 6f38
00000100: c8ed 34b7 d3a6 b639 494e d8b8 6251 2cb8
00000110: 2d8e 0b39 b5b1 af37 6c0c b6b8 f543 3d37
00000120: 08aa beba 0422 6639 7b5e 8fb7 e8c7 94b8
00000130: 79c7 04ba 8bc6 51b9 6acd 6fba cead 443a
00000140: 09b5 7936 04f9 8639 da39 6137 6f33 43bc
00000150: 73f5 bab6 2e62 b438 2be5 c3ba e30a 04ba
00000160: 4185 8d38 bdb4 b0b8 da8c bf37 ed83 2838
00000170: ab3d 0c3a 4c26 c5bb ac42 c6b6 d323 9f37
00000180: e7d5 5438 d341 8337 f8ef a6b8 2bae 9eb8
00000190: 4043 cbb8 4645 6cb9 23c9 8a38 f68b 2b3a
000001a0: 7462 4039 6e9f 9ab8 4899 9438 88d0 8c38
000001b0: 6180 e1b7 eacf dab9 6f2c c938 bc9d b7b7
000001c0: 6db4 f338 9cfc 3538 5638 3439 1bdb b138
000001d0: 0626 80b8 8721 1bb8 90dd 85b8 500a 9a36
000001e0: b277 cbb8 7bb8 d537 cee1 9438 4a78 76b8
000001f0: fb00 473a e998 89b8 1f21 5438 09d2 8935
00000200: fd83 5fbc 9a49 8338 9bfe 6a38 b769 35b7
00000210: fc61 b039 a543 d8b8 fe32 2cb8 6e99 0b39
00000220: 6d32 b437 a5ea 99b8 9da4 4037 6395 baba
00000230: 250d 6839 4d16 1ab8 6416 96b8 2e0b 05ba
00000240: e2ba 4eb9 7e05 72ba f87a 453a 882e 2a37
00000250: 30a4 8039 13c6 7437 7905 43bc 0e8a d1b6
00000260: b44a b338 97b0 c4ba b7c5 07ba 9d39 9138
00000270: 9122 f2b8 79b2 acb8 a697 2738 6b73 073a
00000280: b877 c5bb 234e cab6 fbe7 7e37 d3f5 4c38
00000290: 99ab 23ba 09d1 a6b8 3e55 9eb8 e5e4 cbb8
000002a0: 578b 6cb9 ebcd 8938 bb14 273a 503e 5738
000002b0: 331f 9ab8 779a 9738 c696 a938 bdf6 44b8
000002c0: 8bd2 d5b9 a5b9 e438 e1d6 bcb7 3184 4539
000002d0: 6b34 beb6 63cc 3339 f129 ad38 bc42 7fb8
000002e0: 7510 1eb8 f52e 4ab8 a40c 0637 1d20 c9b8
000002f0: 187e b937 c031 9738 5b95 8dba 1041 3c3a
00000300: b17d 87b8 9508 5538 afc4 3d35 6a6c 5fbc
00000310: 6ebd 8338 7f8f 7038 b82c 36b7 2599 8f39
00000320: 365b d8b8 bb2a 2cb8 2eaf 0b39 9e2f b537
00000330: 9c3e 97b8 94b7 3b37 4a48 bcba 4fb6 6439
00000340: a107 f8b6 f42e 95b8 55ce 07ba 042c 45b9
00000350: 0b4b 72ba ad56 453a 7201 a5b6 226f 8239
00000360: 24fa 8337 8d49 43bc 815c ddb6 ed4b b338
00000370: 058f c8ba ecaa 17ba 84bb 8a38 7e64 beb8
00000380: a2ad acb8 fd17 2938 c052 0a3a cc9f c5bb
00000390: 99a9 bfb6 9796 d337 74ed 4c38 19cf 59ba
000003a0: 2b23 a7b8 300a 9bb8 dd47 cab8 581a 6fb9
000003b0: 1cab 8a38 ca74 2b3a 4cd5 80b9 800f 9ab8
000003c0: 0802 9238 b904 8138 89e0 59b8 5e72 dcb9
000003d0: 48d7 ec38 116a b3b7 2ee5 f038 f439 b1b6
000003e0: f2fa 3039 dc93 9438 0233 80b8 c013 1cb8
000003f0: 9fc1 8ab8 72a5 bfb6 7404 c5b8 0c73 c837
-4.1112577e-05 0.00013310292 2.122671e-05 -6.689515e-05 1.1388698e-05 -0.0014055634 0.00019945245 -4.1586787e-05
-7.158042e-05 -0.0005062075 -0.00021661267 -0.0009222352 0.0007521784 8.36809e-06 0.0002430149 3.7944972e-06
-0.011899248 -6.2556815e-06 8.6211265e-05 -0.0014999763 -0.00051393866 8.184853e-05 -6.954912e-05 -5.0021995e-06
4.009039e-05 0.00049619307 -0.006017229 -5.7371403e-06 1.3833477e-05 5.0585182e-05 1.6333015e-05 -7.9612284e-05
-7.498582e-05 -9.685532e-05 -0.00022767115 6.5664084e-05 0.0005587059 -0.00030404681 -7.358741e-05 7.0972696e-05
8.375416e-05 -2.7725735e-05 -0.0003927279 0.000103996834 -2.1797383e-05 0.00022139969 3.9144626e-05 0.00016733714
7.261751e-05 -6.141376e-05 -3.709783e-05 -2.8840044e-05 5.749824e-06 -9.697689e-05 2.3486778e-05 7.110248e-05
-5.8735444e-05 0.00070717133 -6.5862e-05 5.1855382e-05 9.801568e-07 -0.01363344 6.262498e-05 5.7082656e-05
-1.0784199e-05 0.0003483804 -0.000103142644 -4.108379e-05 0.00013309038 2.0944377e-05 -8.68075e-05 1.12811e-05
-0.0014546523 0.00021947181 -1.7090924e-05 -7.0944254e-05 -0.0005065124 -0.00020005756 -0.00091477355 0.00075027056
3.7209268e-06 0.00025744003 1.3424515e-05 -0.011914118 -5.571806e-06 8.601356e-05 -0.0014945617 -0.00050370226
6.7482244e-05 -8.425999e-05 2.2834563e-05 4.0177187e-05 0.00053497654 -0.0060165282 -5.9086215e-06 1.8970959e-05
5.074395e-05 1.5647069e-05 -7.9601945e-05 -7.5664684e-05 -9.6923206e-05 -0.0002253252 6.6178174e-05 0.0006543988
0.00018347224 -7.372988e-05 7.085741e-05 6.714562e-05 -2.6881871e-05 -0.00041735108 9.592703e-05 -2.188875e-05
0.0001162075 4.3389024e-05 0.00017187124 8.480829e-05 -6.110598e-05 -3.6986105e-05 -6.3832034e-05 4.590758e-06
-9.702089e-05 2.5477484e-05 7.099249e-05 -5.8763e-05 0.00075913937 -6.561151e-05 5.0575585e-05 1.0268424e-06
-0.013642308 6.260276e-05 5.6027067e-05 -1.0813054e-05 0.0003364234 -0.000103122824 -4.1055486e-05 0.0001331323
2.1481153e-05 -7.3393145e-05 1.1482419e-05 -0.0014235195 0.00022130141 -3.673723e-05 -7.156728e-05 -0.0005075213
-0.0001971531 -0.0009232386 0.00075332774 1.01436235e-05 0.00024536392 1.4589651e-05 -0.01190316 -6.244757e-06
8.5493e-05 -0.0015006241 -0.0005179303 6.92487e-05 -0.00011545898 -8.234842e-05 3.9957136e-05 0.000516704
-0.0060262345 -6.0291654e-06 1.5193592e-05 4.886633e-05 -0.00062435266 -7.954433e-05 -7.549905e-05 -9.722429e-05
-0.00022558622 6.571024e-05 0.00063736335 5.1318028e-05 -7.3491035e-05 7.2290124e-05 8.086632e-05 -4.6959834e-05
-0.00040783393 0.00010906466 -2.2511407e-05 0.00018836629 -5.6685435e-06 0.0001714691 8.257095e-05 -6.085889e-05
-3.7685462e-05 -4.8204285e-05 7.9899655e-06 -9.5904084e-05 2.2112436e-05 7.209508e-05 -0.0010801958 0.0007181326
-6.4607135e-05 5.079115e-05 7.06942e-07 -0.013636688 6.281851e-05 5.73541e-05 -1.0858457e-05 0.00027389187
-0.00010316672 -4.104779e-05 0.00013321333 2.1599055e-05 -7.211903e-05 1.1188811e-05 -0.0014364806 0.0002181169
-7.391864e-06 -7.113619e-05 -0.0005180587 -0.00018803781 -0.00092427497 0.00075278693 -4.9175515e-06 0.00024878333
1.5732898e-05 -0.011919391 -6.597082e-06 8.5495274e-05 -0.0015301412 -0.0005785662 6.61528e-05 -9.078624e-05
-8.233941e-05 4.031508e-05 0.0005276613 -0.006031012 -5.7119873e-06 2.5223284e-05 4.8858536e-05 -0.0008308753
-7.969731e-05 -7.3928735e-05 -9.645496e-05 -0.0002280263 6.6122244e-05 0.0006540535 -0.0002457298 -7.346179e-05
6.962201e-05 6.152079e-05 -5.1945946e-05 -0.0004204688 0.00011293456 -2.1387854e-05 0.0001148678 -5.2817577e-06
0.00016878152 7.084731e-05 -6.1130166e-05 -3.7211692e-05 -6.6164175e-05 -5.711504e-06 -9.3945215e-05 2.389543e-05

gats.0.bias f4 [67]
00000000: ff65 95ba b421 38ba 900a 6dba 1225 abb9
00000010: 9a95 b9ba a332 95bc ad5c ec3b ef76 ef39
00000020: 685e cabb 62d2 a3bb 5e99 23bb e730 483b
00000030: 42c6 223b 124b 9cb9 eb62 cd39 87f2 18bb
00000040: 29e1 abbd dbcb feba 416e 50bb 2453 a6bc
00000050: ea94 58bb e99c 22ba fd9e fdb9 119b a9b9
00000060: 2b18 7cba 2703 ecbb 4ddf b7b9 247a cfb8
00000070: 47b6 8db9 bb96 f1ba e817 ffb9 94a8 91ba
00000080: 15d4 763a 8966 4ebb 2dff 603b aa90 25bc
00000090: b19f 5a3b ecfb 1f3a d25d 64ba 47c9 603b
000000a0: 73f7 a1b9 8bcf b8b9 e76c 54bc 5d53 3d39
000000b0: 2e75 0cbb b880 6e3b 925c 94b9 8ed1 d139
000000c0: 9615 813b 25ca 36bb a9ab abba f49a b4ba
000000d0: 21c1 263b f5da c1bb 0602 f7ba 7906 2fbb
000000e0: 2334 cbb9 3cc1 efbb 03a5 e0b7 61a0 81bb
000000f0: 97f5 40bb 9a1a bdbd 8e9a 2cbb 9c0e 40bb
00000100: 16bc f6b9 4f56 633b b293 21bb
-0.0011398195 -0.0007024065 -0.00090424065 -0.0003264328 -0.0014158965 -0.018212622 0.0072131963 0.00045674245
-0.006175805 -0.004999445 -0.002496324 0.0030546726 0.002483741 -0.0002981057 0.00039174347 -0.0023337917
-0.08392555 -0.0019439416 -0.0031803998 -0.020303316 -0.0033047744 -0.0006203191 -0.00048374376 -0.00032349725
-0.00096166384 -0.007202524 -0.00035070852 -9.89328e-05 -0.00027029423 -0.0018431762 -0.00048655202 -0.0011112862
0.0009415758 -0.0031494221 0.0034331784 -0.010105291 0.0033359344 0.0006102908 -0.000871149 0.0034299658
-0.00030892677 -0.00035249846 -0.0129654175 0.000180555 -0.002143215 0.003639264 -0.0002829773 0.00040019717
0.003939341 -0.0027891484 -0.0013097423 -0.001377909 0.0025444704 -0.0059159943 -0.0018845208 -0.002670674
-0.00038758022 -0.0073167365 -2.677972e-05 -0.0039558862 -0.0029443258 -0.092335895 -0.002633724 -0.0029305583
-0.0004706091 0.0034688895 -0.0024654684

gats.0.lin_l.weight f4 [335, 67]
00000000: c90d 0000 a96c 0000 fc3b 64b8 61f8 0938
00000010: 76b6 8f38 4526 0080 26c1 0000 b3a8 a337
00000020: 4e3c 0000 f745 0000 982d 51b8 2a7c 3eb8
00000030: c988 0000 1027 8038 b14d 0080 f428 5538
00000040: 6afe 2db7 636c 0000 d050 65b8 62f8 1b38
00000050: 364c 0080 e03a 0080 828c 0080 7e91 0080
00000060: 0a5f 0080 f6c5 0000 6fb1 0080 6b7b 0000
00000070: b7c5 0080 3cd1 0000 b4c7 0080 d58d 0080
00000080: cc0b 0000 c2d5 0080 efac 0000 16ac 0000
00000090: 67cd 0080 b117 0000 08ca 0080 73a4 0080
000000a0: c546 0000 d82f 0080 df1b 0080 4bbc 0080
000000b0: ebbc 0000 aa32 0000 7669 0000 c6cf 0000
000000c0: bdbc 0000 ea4f 0000 2c9e 0080 3e75 0000
000000d0: 3b2f 0000 c592 0000 922f 0000 ca6f 0080
000000e0: 13aa 0080 0d48 0000 b29f 0080 4b52 0080
000000f0: ee87 0080 14ca 0000 3464 0080 e4af 0080
00000100: 88bc 0080 4236 0080 09d6 6838 b6c0 0080
00000110: 0724 0080 ca7b 2db6 c346 5eb6 aac7 8238
00000120: 15c5 0000 0b8c 0080 6628 0438 7430 0080
00000130: 0231 0000 3d3f a6b8 0174 9fb8 4317 0000
00000140: 9950 0138 69bc 0080 c11d 3ab8 8e13 7ab8
00000150: 24ce 0080 753f 1939 e1d5 e6b7 6dd0 0000
00000160: c260 0080 fa55 0080 93a1 0080 f01c 0000
00000170: c42b 0000 bb11 0000 72bc 0000 a37d 0000
00000180: 70d0 0000 d6ba 0000 18d4 0080 eb09 0080
00000190: d82f 0000 9b4f 0080 9c2e 0000 2923 0080
000001a0: eeca 0000 41be 0080 e72b 0000 3e8a 0080
000001b0: ad78 0080 0ccb 0000 ab12 0080 2922 0000
000001c0: 5878 0000 ff29 0000 a6c7 0080 28d4 0000
000001d0: 4874 0080 458a 0000 b11e 0080 2030 0000
000001e0: 0bbd 0000 1221 0000 fc9c 0080 ee93 0000
000001f0: 4e41 0080 9c3c 0000 0360 0000 ced6 0000
00000200: 4315 0000 4523 0080 4d1d 0080 12b7 0080
00000210: b492 0080 c7b6 8f38 984a 0080 65b2 0080
00000220: ed44 71b7 4fef df37 e390 7038 116b 0080
00000230: c5a8 0000 d1db 8eb7 1380 0000 d94f 0000
00000240: 769b c036 87ae 8eb8 c7a1 0000 d485 e737
00000250: 1823 0000 fca1 e837 af07 33b8 737c 0000
00000260: 50eb fd37 c74e e937 425e 0000 aa28 0000
00000270: d794 0080 618f 0000 fa74 0000 8d94 0000
00000280: 105d 0000 8249 0000 7042 0000 fb13 0000
00000290: f578 0080 9a59 0080 2573 0000 8ed0 0080
000002a0: af84 0080 2a32 0080 a2d0 0080 740e 0080
000002b0: e610 0080 da71 0080 cb05 0000 3e89 0080
000002c0: 5218 0000 7cbd 0080 43b2 0080 7404 0000
000002d0: fe9f 0000 4a40 0080 f087 0000 1b29 0080
000002e0: 2c16 0000 9d48 0080 66ca 0080 a782 0000
000002f0: ea95 0080 3f15 0080 7698 0080 b697 0000
00000300: 9f83 0080 6971 0000 9760 0000 a521 0000
00000310: d42c 0080 7310 0000 611f 0080 a872 0000
00000320: 85d3 7038 3946 89b7 00a5 14b3 16b6 27b9
00000330: 4155 7638 9f37 8239 5f3a 16b7 e269 0080
00000340: fa09 98b9 983b a297 129c 0000 ce61 cf39
00000350: 4ee0 2538 8f61 0080 b2d0 deb7 353f 0080
00000360: ae9a e2b8 45dd 16b9 2942 0000 0fef 6cb9
00000370: a933 8639 4bd1 0000 6b77 0000 8321 0000
00000380: f478 0000 d396 0000 945e 0080 1921 0080
00000390: 2ba1 0080 5303 0080 04ce 0080 410e 0000
000003a0: 138f 0000 e5cf 0000 ceaf 0080 5612 0080
000003b0: 398b 0080 3f2c 0000 4b83 0080 dbc7 0080
000003c0: 6b81 0000 8d97 0000 c834 0080 6673 0080
000003d0: d0d1 0080 bd04 0080 2e31 0080 c972 0080
000003e0: e550 0000 7d43 0000 c09c 0000 c81e 0000
000003f0: b49b 0080 cd7f 0000 db1f 0080 7f1d 0000
4.945e-42 3.898e-41 -5.44153e-05 3.2894666e-05 6.852757e-05 -1.3729e-41 6.9289e-41 1.950967e-05
2.1633e-41 2.5099e-41 -4.9871946e-05 -4.5415167e-05 4.9069e-41 6.1107916e-05 -2.787e-41 5.0821298e-05
-1.0370839e-05 3.8882e-41 -5.4673117e-05 3.7186204e-05 -2.734e-41 -2.112e-41 -5.0405e-41 -5.2193e-41
-3.4094e-41 7.1015e-41 -6.3651e-41 4.4274e-41 -7.0927e-41 7.5059e-41 -7.164e-41 -5.088e-41
4.232e-42 -7.6682e-41 6.2037e-41 6.1733e-41 -7.3684e-41 8.499e-42 -7.2475e-41 -5.8993e-41
2.5387e-41 -1.7163e-41 -9.998e-42 -6.7547e-41 6.7771e-41 1.8175e-41 3.7832e-41 7.4535e-41
6.7707e-41 2.8668e-41 -5.6741e-41 4.2059e-41 1.6943e-41 5.2651e-41 1.7065e-41 -4.0102e-41
-6.1011e-41 2.5847e-41 -5.7288e-41 -2.9521e-41 -4.8762e-41 7.2492e-41 -3.5946e-41 -6.3098e-41
-6.7632e-41 -1.9464e-41 5.5512446e-05 -6.9132e-41 -1.2924e-41 -2.5851064e-06 -3.3121767e-06 6.2360734e-05
7.07e-41 -5.0238e-41 3.1508876e-05 -1.7382e-41 1.758e-41 -7.927276e-05 -7.603318e-05 8.345e-42
3.083106e-05 -6.7589e-41 -4.4373566e-05 -5.9622856e-05 -7.395e-41 0.00014614857 -2.7517732e-05 7.4769e-41
-3.471e-41 -3.0843e-41 -5.7962e-41 1.0381e-41 1.57e-41 6.36e-42 6.7601e-41 4.507e-41
7.4773e-41 6.7024e-41 -7.6085e-41 -3.558e-42 1.7163e-41 -2.8557e-41 1.672e-41 -1.2613e-41
7.2797e-41 -6.825e-41 1.5749e-41 -4.9592e-41 -4.329e-41 7.284e-41 -6.697e-42 1.2254e-41
4.3171e-41 1.5065e-41 -7.162e-41 7.6107e-41 -4.1714e-41 4.9602e-41 -1.101e-41 1.7264e-41
6.7816e-41 1.1863e-41 -5.6315e-41 5.3067e-41 -2.3427e-41 2.1743e-41 3.4443e-41 7.7057e-41
7.627e-42 -1.2652e-41 -1.0511e-41 -6.5673e-41 -5.2627e-41 6.852816e-05 -2.6759e-41 -6.3996e-41
-1.4380767e-05 2.6695108e-05 5.7355395e-05 -3.8408e-41 6.0543e-41 -1.703008e-05 4.5944e-41 2.8644e-41
5.740144e-06 -6.803596e-05 5.8035e-41 2.7599664e-05 1.2589e-41 2.7731985e-05 -4.268408e-05 4.4644e-41
3.0269526e-05 2.7812448e-05 3.3813e-41 1.4588e-41 -5.3394e-41 5.1435e-41 4.1963e-41 5.329e-41
3.3385e-41 2.637e-41 2.3833e-41 7.168e-42 -4.3391e-41 -3.2143e-41 4.1306e-41 -7.4815e-41
-4.7598e-41 -1.7995e-41 -7.4843e-41 -5.185e-42 -6.062e-42 -4.0842e-41 2.078e-42 -4.9233e-41
8.724e-42 -6.7974e-41 -6.3948e-41 1.597e-42 5.7394e-41 -2.3063e-41 4.8765e-41 -1.4746e-41
7.954e-42 -2.6049e-41 -7.2607e-41 4.6869e-41 -5.3779e-41 -7.622e-42 -5.4693e-41 5.4424e-41
-4.7217e-41 4.0684e-41 3.465e-41 1.207e-41 -1.6081e-41 5.901e-42 -1.1257e-41 4.1131e-41
5.7417452e-05 -1.6364373e-05 -3.4609002e-08 -0.00015994193 5.873037e-05 0.00024836973 -8.954287e-06 -3.7984e-41
-0.00028999132 -1.0484048e-24 5.5987e-41 0.00039554987 3.9547966e-05 -3.4997e-41 -2.6561644e-05 -2.2674e-41
-0.00010805331 -0.00014387544 2.3734e-41 -0.0002259577 0.00025596961 7.508e-41 4.2839e-41 1.2022e-41
4.339e-41 5.4106e-41 -3.3928e-41 -1.1873e-41 -5.7816e-41 -1.193e-42 -7.3904e-41 5.113e-42
5.1325e-41 7.4579e-41 -6.3067e-41 -6.578e-42 -4.9944e-41 1.5873e-41 -4.7099e-41 -7.1695e-41
4.6426e-41 5.4366e-41 -1.8934e-41 -4.1397e-41 -7.5267e-41 -1.7e-42 -1.7642e-41 -4.1177e-41
2.902e-41 2.421e-41 5.6231e-41 1.1042e-41 -5.5856e-41 4.5846e-41 -1.1428e-41 1.0581e-41

gats.0.lin_l.bias f4 [335]
00000000: d2f2 2cba 339e 51b9 4dc7 e3b9 6959 5fb8
00000010: aa00 9aba ccb9 663c 10fc a53b 0b5c b23a
00000020: 815a 2dbb 3736 de3b d363 d33b 4ffc 113b
00000030: 2ac6 eb3b 20b2 ea38 7e64 833b ec86 8aba
00000040: baf1 c33d 6b00 94ba cf32 07bb 56b0 1f3c
00000050: 6109 353b 63a6 62ba 3433 5bb8 c760 adb8
00000060: b6ab 14ba 2da3 0b3b 57d1 82bc bb8e d6b7
00000070: f62f 7bb5 2e43 0aba 6353 1e39 0038 2bba
00000080: e328 703a 2eae ddba 7edb 463b 3d3f dbba
00000090: b085 7f3b 8372 943b 7150 98ba 05e6 b53b
000000a0: 9e8f 6238 0f6a 0fb9 f7e2 503b d1c0 b039
000000b0: 56fe cdba 0e74 873b 9325 3cb9 5db9 b63a
000000c0: eb75 d73b 075b 20bb c17c 69ba cc6e c039
000000d0: 8f9f d23a 0529 5ebb 291b 4eba 835d daba
000000e0: ae86 f438 6534 023b ca7c b1b9 f576 08bb
000000f0: bed3 26bb 5dd1 dc3d d672 f6ba 64e1 16bb
00000100: b12a adb9 65e7 783b 9800 9bba 4cf1 2cba
00000110: 939d 51b9 3da6 e3b9 6a9a 65b8 0527 9aba
00000120: d934 683c 2ba4 a63b a3c0 b73a 9654 2dbb
00000130: 380d df3b 1525 d13b 6634 103b 9c52 eb3b
00000140: 9c30 ed38 b061 823b f946 8dba a11d c43d
00000150: e9db 93ba c6af 07bb c38b 203c 5a61 353b
00000160: 1dd3 6dba fea8 55b8 a086 b6b8 7aa0 14ba
00000170: 4340 0c3b 3ec5 81bc d5c0 dcb7 f776 3237
00000180: 3155 0aba f77b 1639 6e38 2bba 36a1 6f3a
00000190: 9caf ddba a5d3 463b 3785 deba 2e4b 7f3b
000001a0: acf0 943b 6631 98ba fe5a b53b 8f75 5e38
000001b0: d420 21b9 2b74 503b 913c 8739 b802 ceba
000001c0: e2b7 873b d2e9 41b9 b3a7 b63a 0d4b da3b
000001d0: e772 20bb 47f3 6aba d8a2 c139 146f d23a
000001e0: 3026 5ebb 1b52 48ba ee41 daba 607d f438
000001f0: fd39 033b c787 b1b9 aca7 08bb e4d6 26bb
00000200: adbf dc3d 7a00 f7ba 0b2f 17bb b72a adb9
00000210: a688 7b3b 44f7 9aba c4f3 2cba 9fa0 51b9
00000220: 27a4 e3b9 6a1a 65b8 5ee7 99ba 6f7a 673c
00000230: b5c5 a53b d022 b63a 855b 2dbb a5b1 de3b
00000240: aacd d23b fd9d 0e3b 7f4c eb3b 85a2 ef38
00000250: 74b4 833b 7312 8cba 88bc c33d f044 93ba
00000260: 8762 07bb 1e4c 203c 5d36 333b ecc8 6cba
00000270: adf3 62b8 157e d5b8 af4f 14ba 6771 0d3b
00000280: b863 82bc 5ba8 dcb7 dfa8 ac36 2a8a 0aba
00000290: 73e2 1eb7 1838 2bba 4f0b 703a 85a7 ddba
000002a0: e9a7 463b 7974 deba 4a68 7e3b 975e 943b
000002b0: 9620 98ba 4a96 b53b 26c3 6738 daa9 1bb9
000002c0: 697f 513b 5f18 8339 a21a ceba 9076 873b
000002d0: 4883 31b9 45bb b63a 3af4 d83b ed64 20bb
000002e0: 7402 6bba cbc5 c039 932b d33a 0dd4 5ebb
000002f0: 60f6 4cba c4ee d9ba 2877 e238 5c92 003b
00000300: 3f5f b1b9 eeaf 08bb 9bd0 26bb d7c6 db3d
00000310: 8d7a f6ba 44cb 16bb 9b29 adb9 03e0 7a3b
00000320: 32db 9aba 5ded 2cba 44c5 51b9 4127 e3b9
00000330: 50cf 60b8 bd22 9aba b049 683c 527a a63b
00000340: 52a3 b33a 543f 2dbb 8b6d df3b c030 d33b
00000350: e2cd 0d3b 79fa eb3b 0a44 ea38 48b0 833b
00000360: cab5 8bba 9a64 c33d 23b9 94ba db6f 07bb
00000370: 66fc 203c 1c93 393b 0aa9 6bba bbc5 5fb8
00000380: e97e d5b8 6d9e 14ba d635 0c3b 9beb 80bc
00000390: a364 c6b7 dcf6 ba34 4c6f 0aba fbca 0f39
000003a0: a33d 2bba e2dc 703a f7ae ddba 7f58 473b
000003b0: 07e4 deba e976 7e3b 5858 953b 5d24 98ba
000003c0: 3fd9 b53b 56f9 6938 b171 22b9 34a9 4e3b
000003d0: a26a 7a39 860a ceba 0b7e 873b 7ce0 31b9
000003e0: 5d5a b63a aa65 d33b e96c 20bb 3d4a 6aba
000003f0: c643 d639 5422 d23a 0f07 5fbb 3745 4aba
-0.00065974623 -0.00019990727 -0.00043445305 -5.3250613e-05 -0.0011749465 0.014082383 0.0050654486 0.0013607753
-0.002645165 0.0067813653 0.006451109 0.0022275632 0.007195254 0.00011191168 0.0040097823 -0.0010568774
0.0956759 -0.0011291628 -0.002062965 0.009746632 0.0027623998 -0.00086460094 -5.2261355e-05 -8.267309e-05
-0.0005671339 0.0021306977 -0.015968962 -2.5577252e-05 -9.357458e-07 -0.0005274293 0.00015099118 -0.0006531477
0.0009161366 -0.0016912872 0.003034323 -0.001672722 0.0038989596 0.0045302524 -0.0011620653 0.005551102
5.4016353e-05 -0.00013677053 0.0031873563 0.00033712995 -0.0015716057 0.004133708 -0.00017943075 0.0013940741
0.006575336 -0.002446832 -0.00089068344 0.00036703644 0.0016069281 -0.0033898961 -0.00078623235 -0.0016659949
0.00011659913 0.0019867655 -0.00033853046 -0.0020822857 -0.0025455798 0.107821204 -0.0018802534 -0.0023022527
-0.0003302894 0.0037979719 -0.0011825738 -0.00065972353 -0.00019990494 -0.0004342067 -5.4741664e-05 -0.0011760896
0.014172756 0.0050854883 0.0014019202 -0.0026448122 0.0068069957 0.0063825944 0.0022003888 0.0071814787
0.00011310095 0.0039789304 -0.0010778598 0.09575964 -0.0011280748 -0.0020704134 0.009798947 0.0027676434
-0.0009072291 -5.0940544e-05 -8.703512e-05 -0.0005669665 0.0021400608 -0.015841123 -2.6315838e-05 1.0637325e-05
-0.0005276977 0.00014351295 -0.0006531541 0.0009141149 -0.0016913298 0.0030338552 -0.0016976957 0.0038954723
0.004545292 -0.0011611402 0.0055345288 5.303841e-05 -0.00015366386 0.0031807523 0.00025794332 -0.0015717363
0.0041417936 -0.00018493019 0.0013935476 0.006661779 -0.002448255 -0.0008962643 0.00036933157 0.0016054832
-0.0033897273 -0.0007641629 -0.0016651729 0.000116581796 0.0020023577 -0.00033861233 -0.0020851893 -0.0025457675
0.10778747 -0.0018844747 -0.0023068811 -0.00033028956 0.003838101 -0.0011822958 -0.0006597603 -0.00019991629
-0.00043419117 -5.4622455e-05 -0.0011741926 0.014128312 0.005058969 0.0013895873 -0.0026452255 0.006796079
0.0064332085 0.0021761649 0.00718075 0.0001142668 0.0040193144 -0.0010686651 0.09557444 -0.0011235755
-0.0020658092 0.009783773 0.0027345635 -0.0009032625 -5.410954e-05 -0.00010180116 -0.0005657626 0.0021582486
-0.01591669 -2.630444e-05 5.1456586e-06 -0.000528487 -9.470258e-06 -0.0006531491 0.00091569585 -0.0016910887
0.0030312485 -0.0016971967 0.0038819485 0.0045278776 -0.0011606391 0.0055415975 5.5256438e-05 -0.00014845227
0.0031966812 0.00025004425 -0.001572449 0.004134007 -0.00016928941 0.0013941309 0.006620911 -0.002447422
-0.0008964904 0.0003676846 0.0016111009 -0.0034000904 -0.0007818695 -0.0016626944 0.00010798714 0.0019618487
-0.00033831035 -0.0020856815 -0.0025453928 0.10731285 -0.0018804834 -0.002300934 -0.0003302813 0.0038280494
-0.0011814593 -0.0006596649 -0.0002000528 -0.0004332606 -5.3598837e-05 -0.001175962 0.014177725 0.0050804997
0.001370529 -0.0026435452 0.0068184785 0.0064450204 0.0021637608 0.0072014895 0.00011170663 0.004018817
-0.0010659036 0.095406726 -0.0011346679 -0.0020666036 0.0098258015 0.0028316444 -0.00089897274 -5.3351494e-05
-0.0001018027 -0.0005669359 0.0021394393 -0.015737345 -2.3650302e-05 3.4824814e-07 -0.0005280867 0.00013713159
-0.0006532317 0.00091881875 -0.0016913106 0.0030417738 -0.0017005213 0.00388282 0.0045576505 -0.0011607517
0.0055495794 5.578374e-05 -0.00015491877 0.0031533958 0.00023881582 -0.0015719689 0.0041348985 -0.00016963662
0.0013912428 0.0064513283 -0.0024478978 -0.0008937454 0.00040867756 0.0016031959 -0.0034031307 -0.00077160023

gats.0.lin_r.weight f4 [335, 67]
00000000: d58d 0000 f214 0080 1834 0080 a825 0080
00000010: 3fc5 0080 e887 0080 2dca 0000 2055 0000
00000020: 2e21 0000 83a6 0000 5ac4 0080 7fa8 0080
00000030: a197 0000 c190 0000 e66a 0000 4dcb 0000
00000040: 5421 0080 119d 0000 0bd0 0080 1dd3 0080
00000050: 31cb 0000 2f78 0080 cc99 0000 9b74 0000
00000060: aca2 0080 a95a 0080 3d55 0080 db63 0080
00000070: 799c 0000 3b54 0080 7238 0000 38b3 0080
00000080: 2904 0080 4390 0080 67bf 0080 e464 0000
00000090: dd22 0080 9292 0000 f10a 0080 1530 0080
000000a0: 7159 0080 0ebe 0000 05a7 0080 25cf 0000
000000b0: fac1 0000 e24b 0080 ff9a 0080 c090 0080
000000c0: 5e78 0000 0175 0080 540f 0000 1271 0080
000000d0: e37d 0000 eb14 0080 1f8f 0080 6fc4 0000
000000e0: d704 0080 431c 0000 fda3 0080 2d10 0080
000000f0: b749 0080 49b5 0080 c9b4 0000 f926 0000
00000100: 91cb 0000 202c 0080 4f95 0080 76d1 0000
00000110: 148d 0080 79c3 0080 1ad6 0080 ad81 0000
00000120: 6879 0080 260e 0080 a392 0000 8fd2 0000
00000130: 7dca 0080 3708 0000 cfcc 0000 3a7a 0000
00000140: b1d2 0080 5a2d 0000 478b 0000 f848 0080
00000150: b50a 0080 6cc4 0080 87ba 0080 02b6 0000
00000160: 2ac7 0080 6e55 0000 8a4f 0080 88bb 0000
00000170: e115 0000 8dd1 0000 8730 0080 19be 0000
00000180: f95a 0000 9a1d 0000 1336 0000 3f84 0080
00000190: d8ab 0000 7c90 0080 ea8a 0080 1222 0000
000001a0: dfbe 0000 87b1 0000 4440 0000 be28 0080
000001b0: 8c40 0080 d8c9 0080 a802 0000 7b67 0000
000001c0: d311 0080 4e52 0080 1c65 0000 028d 0000
000001d0: 4b83 0080 76d4 0080 dc7e 0000 2702 0000
000001e0: 8203 0000 f803 0080 26cc 0000 fea4 0080
000001f0: b8a2 0000 0b92 0080 83d1 0000 59be 0000
00000200: 908c 0080 3a90 0080 4e97 0000 9b1b 0080
00000210: 4100 0080 be4d 0080 0215 0080 3fa9 0000
00000220: 8129 0080 caad 0000 630a 0000 edd5 0080
00000230: 6bba 0080 ccba 0000 f733 0000 3187 0000
00000240: a934 0000 8544 0000 9200 0000 aac9 0000
00000250: 0cac 0000 bf26 0000 bac5 0000 7724 0000
00000260: 8313 0000 a395 0080 1405 0080 fd9d 0000
00000270: 2d21 0000 12c1 0000 3f3e 0000 7930 0080
00000280: 5660 0000 278b 0000 9587 0080 df65 0000
00000290: 411d 0000 f155 0000 193c 0000 4e7b 0080
000002a0: d5b8 0000 1974 0000 2a5e 0000 9d33 0080
000002b0: ee6e 0000 c31d 0080 045a 0000 edd0 0080
000002c0: 2528 0000 f90a 0000 6a0f 0000 c320 0000
000002d0: a0b1 0000 ca0f 0080 f6ad 0080 2ac8 0000
000002e0: 4bce 0080 c438 0080 4760 0080 0b72 0000
000002f0: 8ec9 0000 d531 0080 809e 0000 960f 0080
00000300: f080 0000 b705 0000 5fbe 0080 8120 0080
00000310: e81f 0080 a68d 0000 34a4 0080 5b75 0080
00000320: 7fbd 0000 e19e 0080 d798 0000 1165 acb7
00000330: c075 0080 c1e9 92b8 9539 0000 2dca 0000
00000340: 1f85 0080 f29d 0080 145f 0000 7c90 b5b5
00000350: bd64 0000 6c9c 0000 8106 0080 b721 0000
00000360: ae9e 0080 21a4 0000 6cd2 0000 e8dd 3680
00000370: a65b 0000 8600 0080 005d 0080 6249 0080
00000380: ab1b 0000 d111 0080 8d77 0000 b982 0000
00000390: c753 0000 9ea2 0080 2918 0000 a69f 0000
000003a0: 2075 0000 d460 0000 a824 0000 a306 0000
000003b0: 7c7d 0000 1a94 0000 823c 0080 9e83 0080
000003c0: 1f4c 0080 ffcb 0080 239e 0080 009e 0000
000003d0: 4d47 0000 138d 0080 d3bb 0080 be83 0000
000003e0: 6331 0080 bcc9 0000 7b18 0080 db08 0000
000003f0: db01 0000 6357 0080 1a36 0000 ae74 0000
5.088e-41 -7.514e-42 -1.8688e-41 -1.3509e-41 -7.0759e-41 -4.8754e-41 7.2527e-41 3.0537e-41
1.1903e-41 5.9733e-41 -7.0438e-41 -6.0445e-41 5.4394e-41 5.1928e-41 3.8348e-41 7.293e-41
-1.1956e-41 5.6345e-41 -7.4632e-41 -7.5733e-41 7.2891e-41 -4.3114e-41 5.5172e-41 4.183e-41
-5.8356e-41 -3.2523e-41 -3.0578e-41 -3.5821e-41 5.6132e-41 -3.0216e-41 2.0249e-41 -6.4292e-41
-1.492e-42 -5.1751e-41 -6.8662e-41 3.6193e-41 -1.2507e-41 5.258e-41 -3.925e-42 -1.7249e-41
-3.2086e-41 6.8179e-41 -5.9915e-41 7.431e-41 6.9586e-41 -2.7222e-41 -5.5602e-41 -5.1927e-41
4.318e-41 -4.1973e-41 5.499e-42 -4.0562e-41 4.516e-41 -7.504e-42 -5.1342e-41 7.0467e-41
-1.736e-42 1.0138e-41 -5.8828e-41 -5.803e-42 -2.6444e-41 -6.5033e-41 6.4853e-41 1.3981e-41
7.3026e-41 -1.5829e-41 -5.3562e-41 7.514e-41 -5.0609e-41 -7.0122e-41 -7.6805e-41 4.6519e-41
-4.3552e-41 -5.076e-42 5.2603e-41 7.5534e-41 -7.2639e-41 2.947e-42 7.3471e-41 4.3847e-41
-7.5582e-41 1.6269e-41 4.9963e-41 -2.6176e-41 -3.841e-42 -7.0463e-41 -6.6913e-41 6.5292e-41
-7.1447e-41 3.0646e-41 -2.8533e-41 6.7274e-41 7.849e-42 7.5173e-41 -1.7408e-41 6.8194e-41
3.2635e-41 1.0619e-41 1.9398e-41 -4.7441e-41 6.1646e-41 -5.1831e-41 -4.9833e-41 1.2222e-41
6.8472e-41 6.3685e-41 2.3054e-41 -1.4616e-41 -2.3155e-41 -7.2408e-41 9.53e-43 3.7122e-41
-6.394e-42 -2.9525e-41 3.6271e-41 5.0584e-41 -4.7099e-41 -7.6217e-41 4.5509e-41 7.72e-43
1.258e-42 -1.424e-42 7.3235e-41 -5.9188e-41 5.8372e-41 -5.239e-41 7.5159e-41 6.8284e-41
-5.0424e-41 -5.1739e-41 5.4278e-41 -9.903e-42 -9.1e-44 -2.7889e-41 -7.536e-42 6.0714e-41
-1.4889e-41 6.2344e-41 3.726e-42 -7.6742e-41 -6.6874e-41 6.701e-41 1.8641e-41 4.8498e-41
1.8891e-41 2.458e-41 2.05e-43 7.2343e-41 6.1719e-41 1.39e-41 7.0931e-41 1.3081e-41
7e-42 -5.368e-41 -1.822e-42 5.6676e-41 1.1901e-41 6.926e-41 2.233e-41 -1.7389e-41
3.4559e-41 4.9918e-41 -4.8638e-41 3.6544e-41 1.0494e-41 3.083e-41 2.1559e-41 -4.4233e-41
6.6305e-41 4.1648e-41 3.378e-41 -1.8515e-41 3.9794e-41 -1.0676e-41 3.2292e-41 -7.4948e-41
1.4401e-41 3.936e-42 5.53e-42 1.1753e-41 6.372e-41 -5.664e-42 -6.2405e-41 7.1805e-41
-7.4004e-41 -2.0364e-41 -3.4538e-41 4.0911e-41 7.2304e-41 -1.7876e-41 5.6859e-41 -5.591e-42
4.6254e-41 2.05e-42 -6.8292e-41 -1.166e-41 -1.1446e-41 5.0814e-41 -5.8905e-41 -4.2099e-41
6.7978e-41 -5.6995e-41 5.4829e-41 -2.055106e-05 -4.2241e-41 -7.0053626e-05 2.0657e-41 7.2527e-41
-4.7755e-41 -5.666e-41 3.4108e-41 -1.3527601e-06 3.6138e-41 5.6114e-41 -2.333e-42 1.2095e-41
-5.6924e-41 5.8878e-41 7.5485e-41 -5.038722e-39 3.2877e-41 -1.88e-43 -3.3362e-41 -2.6325e-41
9.925e-42 -6.391e-42 4.2887e-41 4.6894e-41 3.0054e-41 -5.8336e-41 8.667e-42 5.7271e-41
4.2017e-41 3.4735e-41 1.315e-41 2.381e-42 4.5015e-41 5.3129e-41 -2.1706e-41 -4.7215e-41
-2.7307e-41 -7.318e-41 -5.6729e-41 5.668e-41 2.5578e-41 -5.0608e-41 -6.7379e-41 4.726e-41
-1.7717e-41 7.2369e-41 -8.782e-42 3.177e-42 6.66e-43 -3.1348e-41 1.9408e-41 4.1857e-41

gats.0.lin_r.bias f4 [335]
00000000: 21b3 0000 a932 0080 12c0 0080 6e61 56b8
00000010: 9dfc 5cb2 e095 67b8 ba6d 8eb9 be0a 11b9
00000020: dcb0 4d35 7743 7e38 f36a a2b9 906e b039
00000030: 35f4 2039 c642 8435 ee0b fab8 5f4e 8eb4
00000040: ebc1 51b9 902c 0080 b684 2fb4 4117 02b8
00000050: 5c52 66b7 f7fd 91b8 0af2 8036 8ec1 92b8
00000060: b687 0080 8716 9bb7 3d6c 1639 ea5f 0000
00000070: 669d 8b36 7747 0080 e561 dd35 bdc2 0080
00000080: 0889 ec38 ae77 5531 2c0c 6cb8 2d20 2ca7
00000090: f785 5838 67c7 01b9 cbcb 7c31 4449 8cb8
000000a0: 29be 2ab8 7670 d2b7 f3d8 97b9 c290 10b9
000000b0: c3aa 0000 67ee 2435 9b00 080a 194a a0b8
000000c0: 1653 acb8 387d 6034 6151 cab0 6c9d 49b7
000000d0: a725 55b9 b5c8 0000 cb6f 51b8 7b17 b5ae
000000e0: b746 6838 e1c9 c039 b1a4 85b4 a225 33a9
000000f0: b1a4 55b7 d235 69b9 bfa5 66b2 b280 9db3
00000100: 0236 86a6 92ff b838 08a4 0080 3089 0000
00000110: 6366 0000 121b 0080 f677 a438 f12a 5db2
00000120: fe31 c738 aa01 94b9 bac7 01b9 8f27 3535
00000130: 91a5 8238 b879 98b8 3bb5 b639 2329 3939
00000140: ba40 88b2 7c0e 0bb8 ae55 20b5 72de 76b9
00000150: 8a96 0000 4ffe 2db4 1e5c 34b8 7477 52b8
00000160: 0ece a7b8 4243 d938 4677 8eb8 4f24 0080
00000170: 9918 45b9 8770 1939 8824 0080 3cae 2437
00000180: 8fc2 0080 922a 9fb7 bdc2 0080 e31b e238
00000190: ae77 5531 c0a1 14b8 1638 2ea7 047c 8938
000001a0: 52d6 26b7 cbcb 7c31 97ef 96b8 f924 13b8
000001b0: 4511 01b8 fe46 b6b9 fa9b e4b8 c3aa 0000
000001c0: ce59 e1b8 f50d 8b02 86e0 c4b7 28ec b5b8
000001d0: c6bf 6034 e8e8 23b2 ed5b 67b8 59a2 50b9
000001e0: 5ecc 0000 0d4d 5ab8 7b17 b5ae e041 6838
000001f0: a685 d539 166b 99b4 a225 33a9 b1a4 55b7
00000200: 282d 89b9 5404 64b2 2801 5ab3 ceea a9a6
00000210: 3af9 c238 0cbe 0080 bd49 0000 1a81 0080
00000220: 241e 0000 75d9 33b8 9814 32b2 04eb 58b9
00000230: 88be 8db9 ed2c bbb8 8c27 3535 5002 8038
00000240: c271 9ab8 c7aa b339 fdcd 1e39 cec9 f9b4
00000250: d40a bfb8 bfe5 20b5 649c c5ba 0c40 0000
00000260: ac23 27b4 817f c3b7 33ea b4b8 43b7 aab8
00000270: e8a1 24b9 7dda 49b5 2633 0000 89d5 25b9
00000280: 799c 1b39 95c6 0080 1877 6e36 c800 0000
00000290: 8175 9cb9 e070 0080 b5c1 e038 ae77 5531
000002a0: 7d9b 32b8 780f 2ca7 c518 5438 5ce4 55b7
000002b0: cbcb 7c31 876e aab8 e8ea a1b7 db52 dbb7
000002c0: 1358 a3b9 2c5b fdb8 c3aa 0000 0ca0 3d38
000002d0: fe9e a6ae 42ca 01b8 1c05 8bb8 9f7d 6034
000002e0: df59 0bb2 47ab 0db8 8a8a 60b9 2367 0000
000002f0: e8dc 5eb8 7b17 b5ae 17c6 1eb7 28f5 c939
00000300: 83e7 31b4 a225 33a9 b1a4 55b7 6186 60b9
00000310: 000c 59b2 b780 9db3 4806 b8a6 2e90 e438
00000320: be9f 0080 bd49 0000 1847 0000 8fa8 0080
00000330: a49a 38b8 dba4 43b3 be11 e4b7 644f 95b9
00000340: f2ff 03b9 3eb3 0135 348c 5738 d50a abb8
00000350: d50a b639 ffb0 3139 d934 6035 a6d9 bcb8
00000360: 07f0 48b5 a968 9aba c257 758b 7907 19b4
00000370: 27c3 3b38 0d55 38b9 eed3 a4b8 e566 48b8
00000380: 75da 49b5 9427 0080 17aa 4db9 821e 1b39
00000390: 39c4 0000 a2d3 7136 c00d 0080 5e80 0438
000003a0: e070 0080 a57e a938 ae77 5531 5e1e 89b8
000003b0: 0d6a 2fa7 6f4d 9438 f1d7 d7b8 cbcb 7c31
000003c0: 6550 b1b8 c4b6 20b6 74cf 1bb8 a041 afb9
000003d0: 903b e1b8 c1c9 0080 8cff d2b8 0d81 b6ae
000003e0: e528 63b8 184d a0b8 807d 6034 66b8 eeb1
000003f0: 57bd 56b8 ddab 47b9 642e 0000 45a5 50b8
6.426e-41 -1.8173e-41 -6.8902e-41 -5.1112314e-05 -1.2863123e-08 -5.5214274e-05 -0.00027166103 -0.0001383228
7.6625815e-07 6.062115e-05 -0.0003097873 0.0003365171 0.00015349763 9.8542e-07 -0.00011923151 -2.6506584e-07
-0.00020004033 -1.5986e-41 -1.6346425e-07 -3.1016072e-05 -1.3728244e-05 -6.9614434e-05 3.8428743e-06 -6.997875e-05
-4.8684e-41 -1.848793e-05 0.00014345437 3.4407e-41 4.1608464e-06 -2.5637e-41 1.6494274e-06 -6.9859e-41
0.00011278881 3.106361e-09 -5.627812e-05 -2.3887238e-15 5.1623178e-05 -0.00012376682 3.678667e-09 -6.689367e-05
-4.070826e-05 -2.508632e-05 -0.00028962604 -0.00013786837 6.1258e-41 6.144168e-07 6.548276e-33 -7.643196e-05
-8.217075e-05 2.090718e-07 -1.4720564e-09 -1.2017186e-05 -0.0002032729 7.2e-41 -4.99336e-05 -8.235098e-11
5.537897e-05 0.00036771505 -2.489301e-07 -3.9778626e-14 -1.27341345e-05 -0.00022240661 -1.3425448e-08 -7.334292e-08
-9.312757e-16 8.8214074e-05 -5.8843e-41 4.9214e-41 3.673e-41 -9.711e-42 7.842474e-05 -1.2873657e-08
9.498371e-05 -0.0002823 -0.00012376803 6.748532e-07 6.229722e-05 -7.270597e-05 0.00034848772 0.000176583
-1.5861918e-08 -3.3153672e-05 -5.9729325e-07 -0.00023543256 5.4003e-41 -1.6204397e-07 -4.3001135e-05 -5.017915e-05
-8.001561e-05 0.00010359894 -6.793304e-05 -1.3025e-41 -0.00018796547 0.00014633137 -1.3105e-41 9.815729e-06
-6.9794e-41 -1.89741e-05 -6.9859e-41 0.00010781714 3.106361e-09 -3.543659e-05 -2.4177755e-15 6.555769e-05
-9.944271e-06 3.678667e-09 -7.1971845e-05 -3.5081965e-05 -3.077208e-05 -0.00034766638 -0.0001090094 6.1258e-41
-0.000107455635 2.0432225e-37 -2.3469573e-05 -8.67474e-05 2.0931392e-07 -9.5408055e-09 -5.5160304e-05 -0.00019896905
7.3313e-41 -5.204701e-05 -8.235098e-11 5.537446e-05 0.00040726102 -2.8576386e-07 -3.9778626e-14 -1.27341345e-05
-0.0002616432 -1.3272331e-08 -5.0758132e-08 -1.1790375e-15 9.297063e-05 -6.8176e-41 2.6452e-41 -4.6313e-41
1.0812e-41 -4.287945e-05 -1.0365646e-08 -0.00020686915 -0.00027035573 -8.925223e-05 6.74853e-07 6.103946e-05
-7.364481e-05 0.0003426878 0.00015144791 -4.6526696e-07 -9.1096066e-05 -5.993897e-07 -0.0015076515 2.2976e-41
-1.5566064e-07 -2.3305185e-05 -8.626692e-05 -8.140367e-05 -0.00015700574 -7.519628e-07 1.8349e-41 -0.00015815174
0.00014840243 -7.1238e-41 3.5534085e-06 2.8e-43 -0.00029842186 -4.0492e-41 0.00010717233 3.106361e-09
-4.2583317e-05 -2.387818e-15 5.0567807e-05 -1.2748958e-05 3.678667e-09 -8.126819e-05 -1.9302082e-05 -2.6145417e-05
-0.00031155403 -0.00012080962 6.1258e-41 4.5210167e-05 -7.577049e-11 -3.0944364e-05 -6.628988e-05 2.0907326e-07
-8.111299e-09 -3.3776534e-05 -0.00021413915 3.6998e-41 -5.313466e-05 -8.235098e-11 -9.463655e-06 0.00038520363
-1.6568633e-07 -3.9778626e-14 -1.27341345e-05 -0.00021412365 -1.2633791e-08 -7.334295e-08 -1.2769267e-15 0.00010898743
-5.7305e-41 2.6452e-41 2.5504e-41 -6.0467e-41 -4.401304e-05 -4.555191e-08 -2.718798e-05 -0.00028478645
-0.0001258848 4.8317077e-07 5.139057e-05 -8.155933e-05 0.00034721816 0.00016945972 8.3523406e-07 -9.005079e-05
-7.485509e-07 -0.0011780459 -4.7251305e-32 -1.4251954e-07 4.4766024e-05 -0.00017579291 -7.8596044e-05 -4.7779544e-05
-7.519623e-07 -1.4198e-41 -0.00019613687 0.00014793317 7.0391e-41 3.6034985e-06 -4.933e-42 3.1590804e-05
-4.0492e-41 8.082137e-05 3.106361e-09 -6.5383254e-05 -2.4343619e-15 7.071613e-05 -0.00010292221 3.678667e-09
-8.454992e-05 -2.3948242e-06 -3.7148086e-05 -0.00033427496 -0.000107399304 -7.2376e-41 -0.0001006118 -8.299326e-11
-5.4159103e-05 -7.643754e-05 2.0907282e-07 -6.9476753e-09 -5.1197912e-05 -0.00019042143 1.6642e-41 -4.9744984e-05

gats.0.lin_edge.weight f4 [335, 1]
00000000: b7c2 0080 cf17 0000 a6bd 0080 928c e1b7
00000010: 7030 f331 884b 3fb8 083b 27b9 8149 8038
00000020: cca8 3e30 3f3c 9cb7 f75f 49b8 1fdb 9439
00000030: bdc8 f1b8 fa8c 9fb2 21f9 b938 460c beb1
00000040: 7a6b c2b9 485c 0000 a421 9930 412f c438
00000050: 7b97 a138 cd91 9bb8 799c 5038 48ca 16b8
00000060: ca92 0080 057a d936 b17a 53b8 0e97 0000
00000070: f1ab 1935 3437 0000 4074 0836 9b18 0080
00000080: e096 92b8 eb68 4ab2 02eb 3539 a9ab 06a9
00000090: 4694 ceb9 3726 de38 5693 eead d9d4 de38
000000a0: 7614 e7b6 13a1 e1b7 7b9c 9d38 81ca 0fb9
000000b0: dfc4 0080 a9cd 8a38 92f2 bd8f 677a c5b7
000000c0: 690d d138 a361 e0af 4abc 8d32 7ddf 3b39
000000d0: a985 3db9 56ac 0080 1378 72b8 c5d1 3dac
000000e0: a9a1 0037 28a2 f938 f794 6eb3 26b6 7828
000000f0: 7ffe 04b5 762a 81ba 6789 3232 4313 2832
00000100: f65e 3c99 38d0 67b9 cad2 0000 52ac 0080
00000110: cf17 0000 4e83 0080 9508 44b7 2ab4 f331
00000120: 4cd5 0839 d12d 31b9 c56e a838 52a8 3e30
00000130: d809 cdb7 3280 3139 56a9 9939 e6a5 f8b8
00000140: d164 56b1 6045 0539 09fe eeb3 ecd1 8eb9
00000150: 24a3 0000 0322 9930 be49 b538 7da4 7cb8
00000160: e1ec afb8 eaec 6939 8037 3ab8 2c21 0080
00000170: 3c20 84b8 3662 4fb8 9f79 0080 6698 2f35
00000180: ac3e 0000 3f1b 91b6 9b18 0080 9371 9eb8
00000190: eb68 4ab2 0e93 4139 59ac 06a9 7599 d5b9
000001a0: abb3 1239 5693 eead 66b7 de38 fe98 10b7
000001b0: 7dd6 0bb8 488d e937 5183 05b9 dfc4 0080
000001c0: 9d5c 93b6 044d 4d8a 13dd 2ab6 71f5 aa38
000001d0: a361 e0af 4391 9332 76d1 1d39 3bcc 3cb9
000001e0: 2157 0000 7b6a 79b8 c5d1 3dac 77a1 0037
000001f0: 0469 0e39 fe77 84b3 26b6 7828 7ffe 04b5
00000200: cb3b 4aba 6989 3232 589f 2432 f410 c799
00000210: 8c0c 6ab9 55b0 0000 b7c2 0080 cf17 0000
00000220: 375c 0080 646c 6cb7 d587 f431 3bd5 43b9
00000230: 73d4 26b9 2e98 fa38 cca8 3e30 cb3c b0b7
00000240: 911e 5f39 845e 9a39 a2ef ecb8 047f c3b3
00000250: 993e c938 04c3 d4b3 29d9 03ba 1f1c 6601
00000260: a421 9930 a42a c638 b667 afb8 7090 b1b8
00000270: 0782 47b8 91a3 1fb4 a1c6 0080 9860 19b8
00000280: dda6 49b8 decb 0000 5eda 5330 a931 0000
00000290: ebc7 e938 7b32 0000 cb21 afb8 eb68 4ab2
000002a0: 92b2 3c39 a9ab 06a9 d581 d4b9 08b6 1739
000002b0: 5693 eead 1aaa d238 8348 68b6 5780 f9b7
000002c0: a371 2338 f0ac f0b8 dfc4 0080 1152 a238
000002d0: bb70 a9ae 0e5f d1b6 d4b1 b138 a361 e0af
000002e0: 975d 7f32 ab40 1e39 06a1 3eb9 5186 0080
000002f0: 5a8b 7ab8 c5d1 3dac b616 0d3a c73a a838
00000300: 26ef 81b2 26b6 7828 7ffe 04b5 92f9 11ba
00000310: 6989 3232 3613 2832 2fb5 9e99 a526 3cb9
00000320: 2697 0000 b7c2 0080 3d07 0080 259d 0080
00000330: f360 1db7 ce7f f331 1989 b035 40c9 31b9
00000340: d83e e238 52a8 3e30 e4d5 cfb7 9526 2839
00000350: 7f72 9b39 9848 00b9 b442 89b5 1381 d538
00000360: d1a5 32b4 ab81 93ba b2fb 5195 791f 1231
00000370: 8bbe 9a38 d9f3 79b8 dfc9 adb8 e17b a436
00000380: 91a3 1fb4 5b0c 0000 87aa 83b8 8751 3cb8
00000390: fd3c 0080 a59a 682d ea02 0080 1eb7 9839
000003a0: 7b32 0000 6ea4 b1b8 eb68 4ab2 20da 2f39
000003b0: 7bac 06a9 6f6c d0b9 1876 a538 5693 eead
000003c0: d670 ca38 6815 21b6 155d 2cb8 88e3 3838
000003d0: 3104 00b9 005b 0080 a6aa 3636 ea7e 06af
000003e0: ca69 31b7 8ca5 c738 a361 e0af 58da 9032
000003f0: 1f8b 1c39 5410 3cb9 8f80 0080 dbb6 6cb8
-6.985e-41 8.541e-42 -6.8033e-41 -2.6887548e-05 7.0777375e-09 -4.5608293e-05 -0.00015948352 6.117207e-05
6.936147e-10 -1.8624703e-05 -4.801151e-05 0.00028392018 -0.00011529166 -1.8574145e-08 8.867891e-05 -5.531123e-09
-0.0003708264 3.3104e-41 1.1141776e-09 9.35481e-05 7.705294e-05 -7.4181335e-05 4.973679e-05 -3.5951176e-05
-5.2658e-41 6.481309e-06 -5.0420585e-05 5.4188e-41 5.724715e-07 1.9803e-41 2.0333246e-06 -8.827e-42
-6.989925e-05 -1.1781803e-08 0.00017349052 -2.990287e-14 -0.00039401854 0.00010592903 -2.7122898e-11 0.00010625431
-6.8867184e-06 -2.6897096e-05 7.51549e-05 -0.00013712981 -7.0624e-41 6.61866e-05 -1.8730274e-29 -2.3541228e-05
9.9683944e-05 -4.0814738e-10 1.6500184e-08 0.00017916966 -0.00018074237 -6.1822e-41 -5.7809124e-05 -2.697496e-12
7.667034e-06 0.00011903449 -5.5549176e-08 1.3806263e-14 -4.954417e-07 -0.0009854573 1.0392205e-08 9.783267e-09
-9.7385494e-24 -0.00022107444 7.5617e-41 -6.1817e-41 8.541e-42 -4.7103e-41 -1.16845085e-05 7.092713e-09
0.0001304943 -0.00016897103 8.031497e-05 6.9360795e-10 -2.4442488e-05 0.00016927792 0.000293086 -0.000118564625
-3.1198406e-09 0.00012709713 -1.11289474e-07 -0.00027240755 5.8524e-41 1.1141882e-09 8.644488e-05 -6.0234674e-05
-8.3887724e-05 0.00022308869 -4.4397544e-05 -1.19e-41 -6.3002546e-05 -4.9444112e-05 -4.363e-41 6.541435e-07
2.2482e-41 -4.3245086e-06 -8.827e-42 -7.555182e-05 -1.1781803e-08 0.00018460696 -2.9903465e-14 -0.0004074086
0.00013990577 -2.7122898e-11 0.000106199455 -8.61869e-06 -3.333994e-05 2.7841554e-05 -0.00012732788 -7.0624e-41
-4.391723e-06 -9.884876e-33 -2.5460656e-06 8.151949e-05 -4.0814738e-10 1.717911e-08 0.00015050717 -0.00018005159
3.1256e-41 -5.9465394e-05 -2.697496e-12 7.6669885e-06 0.00013581297 -6.1685554e-08 1.3806263e-14 -4.954417e-07
-0.00077145983 1.0392207e-08 9.582287e-09 -2.0582965e-23 -0.00022320653 6.3256e-41 -6.985e-41 8.541e-42
-3.308e-41 -1.4091933e-05 7.116777e-09 -0.00018676084 -0.00015910137 0.000119492746 6.936147e-10 -2.1009144e-05
0.00021278324 0.0002944359 -0.00011297992 -9.103499e-08 9.5960866e-05 -9.9074924e-08 -0.0005029613 4.2264504e-38
1.1141776e-09 9.449318e-05 -8.363968e-05 -8.466921e-05 -4.7566395e-05 -1.4867534e-07 -7.1255e-41 -3.6568003e-05
-4.8077538e-05 7.3134e-41 7.707167e-10 1.7815e-41 0.000111475434 1.8109e-41 -8.350945e-05 -1.1781803e-08
0.000179956 -2.990287e-14 -0.00040532523 0.00014468294 -2.7122898e-11 0.00010045264 -3.4612901e-06 -2.9742876e-05
3.896806e-05 -0.00011476304 -7.0624e-41 7.740048e-05 -7.705255e-11 -6.239751e-06 8.473141e-05 -4.0814738e-10
1.4864233e-08 0.00015092145 -0.00018179798 -4.8184e-41 -5.9734426e-05 -2.697496e-12 0.00053821073 8.0218124e-05
-1.5126329e-08 1.3806263e-14 -4.954417e-07 -0.00055685 1.0392207e-08 9.783255e-09 -1.6409997e-23 -0.00017943473
5.4222e-41 -6.985e-41 -2.597e-42 -5.6373e-41 -9.380502e-06 7.0867605e-09 1.3152923e-06 -0.00016955007
0.00010788225 6.9360795e-10 -2.4775924e-05 0.00016036101 0.0002964921 -0.00012234075 -1.0226709e-06 0.000101806734
-1.6637865e-07 -0.0011253854 -4.2405766e-26 2.1263686e-09 7.3787836e-05 -5.9593327e-05 -8.286884e-05 4.9020023e-06
-1.4867534e-07 4.432e-42 -6.27833e-05 -4.489862e-05 -2.1878e-41 1.3222011e-11 -1.045e-42 0.00029128132
1.8109e-41 -8.470645e-05 -1.1781803e-08 0.00016770558 -2.990358e-14 -0.0003975364 7.88981e-05 -2.7122898e-11
9.653128e-05 -2.400333e-06 -4.1094685e-05 4.4080924e-05 -0.00012208593 -3.2645e-41 2.7219444e-06 -1.2232318e-10
-1.0574653e-05 9.519895e-05 -4.0814738e-10 1.6863098e-08 0.00014929146 -0.0001793516 -4.6118e-41 -5.6437082e-05

gats.1.att f4 [1, 5, 67]
00000000: c82b f1b3 da61 2535 ee33 cc33 96a6 2d38
00000010: 5c3f 7eb4 9cd0 c8b5 803c b034 3637 b032
00000020: 45b0 41b3 d48a b0b3 4132 9e33 adbe 1535
00000030: 6348 33b7 291d a5b3 4bce 1735 9a79 12b3
00000040: 1efc f032 00ac e0b2 28a8 7334 4de2 1d35
00000050: 434d 30b3 4e9e 5f35 4280 39b8 9c54 abb3
00000060: bf4b bdb4 283a 1c35 ce8f 68b3 e6e9 b1b2
00000070: b20a d333 e959 2cb8 b793 0132 f4a7 d4b3
00000080: 6d23 5938 6d71 8fb4 0227 1eb7 f994 5a34
00000090: 64c3 1c34 7e90 9c32 be64 80b7 b221 e932
000000a0: b4cc 83b8 d171 cab3 c1f3 b4b3 b8d5 19b3
000000b0: 969e ab34 d9b7 55b8 dbdc 3134 400e 46b3
000000c0: 54b8 a8b3 e4da 90b7 4c63 fd30 ad24 8234
000000d0: 6ebf 2638 1df7 17b3 c3bd f5b3 0f9d 1432
000000e0: c0e3 8e34 a24b a5b3 0e1d 1234 3cd8 5438
000000f0: 048c 0bb4 2bff 07b8 5132 7132 b0bd 7c33
00000100: f2f9 b232 2b9f 1b34 7d17 3138 fd2e f1b3
00000110: 4b63 2535 d82a cc33 72c6 2d38 613f 7eb4
00000120: e8dc c8b5 d4cf af34 0068 b532 6ab8 41b3
00000130: c98d b0b3 6332 9e33 96e9 1535 d808 33b7
00000140: e21b a5b3 60e9 1735 4e71 11b3 7087 f032
00000150: d1ac e0b2 88a2 7334 8beb 1d35 2716 30b3
00000160: bf77 5f35 1381 39b8 a154 abb3 944e bdb4
00000170: a613 1d35 6993 68b3 92f0 b1b2 8c0e d333
00000180: f183 2cb8 d88a 0132 f1a8 d4b3 4b34 5938
00000190: 8f71 8fb4 9825 1eb7 0c8b 5a34 2d7d 1c34
000001a0: 428d 9c32 1066 80b7 fb1f e932 2cbe 83b8
000001b0: 0571 cab3 b8f7 b4b3 00d9 19b3 2e9e ab34
000001c0: d5cd 55b8 e9db 3134 2211 46b3 edb0 a8b3
000001d0: 3cd4 90b7 f676 fd30 1f73 8134 f6c5 2638
000001e0: a2f8 17b3 febb f5b3 6f8e 1432 c8e3 8e34
000001f0: 174d a5b3 201d 1234 92d4 5438 0c8c 0bb4
00000200: f30c 08b8 0119 7132 a145 7c33 46f0 b232
00000210: 9ca6 1b34 d135 3138 a335 f1b3 657c 2635
00000220: ed36 cc33 50c8 2d38 6748 7eb4 7ed8 c8b5
00000230: b5db ae34 2f36 b032 25b9 41b3 d2b3 b0b3
00000240: ee38 9e33 5be0 1535 105d 33b7 d727 a5b3
00000250: d8dc 1735 219d 12b3 91b7 f532 e0b3 e0b2
00000260: 4cac 7334 8cde 1d35 f41b 30b3 bf81 5f35
00000270: c48c 39b8 a55a abb3 1f54 bdb4 87b1 1b35
00000280: 1a9a 68b3 eaf2 b1b2 f711 d333 d45c 2cb8
00000290: 1dbb 0132 a3b0 d4b3 9432 5938 2977 8fb4
000002a0: 8f26 1eb7 aade 5b34 d2c9 1c34 7294 9c32
000002b0: f65e 80b7 882a e932 24cd 83b8 3b78 cab3
000002c0: e6fb b4b3 39db 19b3 20a7 ab34 01cd 55b8
000002d0: f7e3 3134 1917 46b3 2066 a9b3 7ad1 90b7
000002e0: b079 fd30 2b3d 8234 c3ec 2638 41fd 17b3
000002f0: 61c6 f5b3 219d 1432 06ed 8e34 b152 a5b3
00000300: e522 1234 ccdc 5438 0591 0bb4 3b0b 08b8
00000310: 1436 7132 1260 7c33 5502 b332 e8ae 1b34
00000320: e797 3038 33f3 f0b3 fbfa 2435 04e6 cb33
00000330: 488b 2d38 a4fb 7db4 d3a1 c8b5 8f8e af34
00000340: a37c b032 e38a 41b3 678c b0b3 f109 9e33
00000350: 28e1 1535 9f02 33b7 ddec a4b3 24a6 1735
00000360: 8f6a 11b3 813f f032 f46d e0b2 6e66 7334
00000370: b3b7 1d35 ab15 30b3 2263 5f35 4c67 39b8
00000380: ba25 abb3 e01f bdb4 d5cb 1c35 c059 68b3
00000390: 14c6 b1b2 1add d233 3981 2cb8 8061 0132
000003a0: 5570 d4b3 0424 5938 884c 8fb4 1812 1eb7
000003b0: f369 5a34 8a9c 1c34 b46e 9c32 0b36 80b7
000003c0: 99e2 e832 b7a3 83b8 bd38 cab3 75cb b4b3
000003d0: 64b4 19b3 ee71 ab34 e9a1 55b8 4bae 3134
000003e0: 4ee0 45b3 0b58 a9b3 62a8 90b7 ae4f fd30
000003f0: 1c17 8234 b8bb 2638 02cc 17b3 d077 f5b3
-1.1230401e-07 6.160968e-07 9.508936e-08 4.140156e-05 -2.3678643e-07 -1.4961875e-06 3.2826574e-07 2.0514204e-08
-4.509663e-08 -8.220891e-08 7.3665895e-08 5.5784295e-07 -1.0686085e-05 -7.6887154e-08 5.655208e-07 -3.410387e-08
2.8054327e-08 -2.6155249e-08 2.2692313e-07 5.881637e-07 -4.1048462e-08 8.330434e-07 -4.4226887e-05 -7.9781984e-08
-3.5259106e-07 5.8199157e-07 -5.41475e-08 -2.0711877e-08 9.8273986e-08 -4.109173e-05 7.542375e-09 -9.90257e-08
5.1769824e-05 -2.6718354e-07 -9.426616e-06 2.0357028e-07 1.4599715e-07 1.8226498e-08 -1.53057e-05 2.7140093e-08
-6.284696e-05 -9.427061e-08 -8.426242e-08 -3.5817465e-08 3.1966619e-07 -5.095438e-05 1.6564756e-07 -4.6113428e-08
-7.856639e-08 -1.7268067e-05 1.8436395e-09 2.4241072e-07 3.9755767e-05 -3.5382175e-08 -1.1443219e-07 8.650445e-09
2.661527e-07 -7.697169e-08 1.360788e-07 5.0746123e-05 -1.2996321e-07 -3.2424152e-05 1.4039487e-08 5.8845842e-08
2.083559e-08 1.4493405e-07 4.2221964e-05 -1.1230984e-07 6.161178e-07 9.5072835e-08 4.143123e-05 -2.367865e-07
-1.4965453e-06 3.2747505e-07 2.1118467e-08 -4.5104038e-08 -8.221429e-08 7.3666136e-08 5.584674e-07 -1.06712905e-05
-7.688483e-08 5.659149e-07 -3.3863493e-08 2.8001267e-08 -2.615562e-08 2.2690267e-07 5.882982e-07 -4.099834e-08
8.3248227e-07 -4.4227647e-05 -7.978202e-08 -3.5261166e-07 5.851565e-07 -5.4150778e-08 -2.071491e-08 9.828099e-08
-4.1130876e-05 7.540358e-09 -9.9027496e-08 5.1785533e-05 -2.671845e-07 -9.426287e-06 2.0353417e-07 1.4574171e-07
1.8225027e-08 -1.5306316e-05 2.7139313e-08 -6.281989e-05 -9.426916e-08 -8.426963e-08 -3.582045e-08 3.1966323e-07
-5.0974853e-05 1.6564412e-07 -4.611605e-08 -7.855292e-08 -1.7264967e-05 1.8441983e-09 2.4111884e-07 3.976185e-05
-3.5383557e-08 -1.1442897e-07 8.6471195e-09 2.6615294e-07 -7.697434e-08 1.3607905e-07 5.074271e-05 -1.2996333e-07
-3.2436987e-05 1.40337315e-08 5.873665e-08 2.0831191e-08 1.4496112e-07 4.225021e-05 -1.12321935e-07 6.2020837e-07
9.509481e-08 4.143297e-05 -2.3681933e-07 -1.4964169e-06 3.2569884e-07 2.0513736e-08 -4.5104702e-08 -8.228348e-08
7.367804e-08 5.5833306e-07 -1.0690899e-05 -7.690658e-08 5.6573253e-07 -3.4136182e-08 2.860523e-08 -2.615883e-08
2.269382e-07 5.8810906e-07 -4.1003617e-08 8.326278e-07 -4.4238535e-05 -7.979296e-08 -3.52652e-07 5.8000336e-07
-5.4156864e-08 -2.0715976e-08 9.828721e-08 -4.109445e-05 7.551333e-09 -9.904149e-08 5.1783936e-05 -2.6722526e-07
-9.4265115e-06 2.0476969e-07 1.4602054e-07 1.8228295e-08 -1.5303009e-05 2.7144111e-08 -6.284777e-05 -9.428228e-08
-8.427723e-08 -3.582247e-08 3.1972831e-07 -5.0974082e-05 1.6567343e-07 -4.6121475e-08 -7.888252e-08 -1.7263683e-05
1.8442758e-09 2.4258892e-07 3.9797986e-05 -3.538776e-08 -1.14447865e-07 8.650461e-09 2.6622018e-07 -7.698453e-08
1.3610004e-07 5.0750372e-05 -1.2998142e-07 -3.2435386e-05 1.4040342e-08 5.8760698e-08 2.0839403e-08 1.449913e-07
4.210314e-05 -1.12201086e-07 6.1459986e-07 9.494764e-08 4.137613e-05 -2.3654007e-07 -1.4948258e-06 3.2700015e-07
2.0545775e-08 -4.506263e-08 -8.221178e-08 7.359257e-08 5.583447e-07 -1.0669842e-05 -7.67993e-08 5.649365e-07
-3.3857358e-08 2.7968555e-08 -2.6127033e-08 2.2668402e-07 5.8754375e-07 -4.09979e-08 8.321823e-07 -4.420364e-05
-7.9696704e-08 -3.5227185e-07 5.8411143e-07 -5.4098336e-08 -2.0695587e-08 9.819105e-08 -4.1128344e-05 7.530957e-09
-9.8924524e-08 5.1770374e-05 -2.669151e-07 -9.421747e-06 2.0341376e-07 1.4585581e-07 1.8211132e-08 -1.5283955e-05
2.71114e-08 -6.277061e-05 -9.4166786e-08 -8.418912e-08 -3.5787153e-08 3.1934127e-07 -5.0933948e-05 1.6547817e-07
-4.607164e-08 -7.885691e-08 -1.7244547e-05 1.8430819e-09 2.42312e-07 3.975231e-05 -3.534297e-08 -1.1430495e-07

gats.1.bias f4 [67]
00000000: e6aa d1b9 c373 cfbb 4a69 7bbb a2b0 ef3b
00000010: 32ba 4db9 a41c a7bb ecbc 07bc aefb a5b8
00000020: 22b3 1db9 6ece f8b9 d880 d6b9 65e6 53ba
00000030: 34f3 9b3a 3f58 c9ba ed9b a5bb 2e7b 6fbb
00000040: c952 cdb7 9d40 d4b9 eb56 8bbb e784 81b7
00000050: 6273 c9ba 0731 85b9 14b6 073b 75d7 91ba
00000060: 880c e1b9 f198 bcbb c06d fcb9 77c3 5ab9
00000070: a564 a6b9 aadc 343b ba68 43bb 3ca8 b4ba
00000080: c89d e33b b2b6 9fb9 0d3a 7f3a ddef 64bb
00000090: 8e53 5abb 2150 10bb 6026 ac3a 481a 7bb9
000000a0: a63d eebb 01b9 83ba a75c 0fb9 d231 d6b9
000000b0: 3962 95bb dd57 6c3b 5fdb 64bb 5ccc 0eb8
000000c0: 188b 12ba 7377 5d3a e17a 2db9 35a9 cfbb
000000d0: 340d e63b 271e e4ba 039a a5ba 926c 15b9
000000e0: 0678 44bb df07 80ba 2117 eeb8 e6a0 dd3b
000000f0: 4eb8 60ba 9ca2 063b b84a afb9 e09f f0b8
00000100: 361c 06ba cf20 c5bb 8a03 af3b
-0.00039990916 -0.0063309385 -0.0038362318 0.0073147574 -0.00019619687 -0.00509985 -0.008284789 -7.914692e-05
-0.00015039419 -0.00047456048 -0.00040913257 -0.00080833427 0.0011898042 -0.0015361382 -0.005053988 -0.0036541927
-2.4476454e-05 -0.00040483932 -0.004252305 -1.5439886e-05 -0.001536947 -0.00025404265 0.0020707892 -0.0011126833
-0.0004292468 -0.0057555367 -0.00048146956 -0.00020862916 -0.00031736973 0.0027597346 -0.002981706 -0.0013783048
0.006946299 -0.00030462962 0.0009736128 -0.0034933009 -0.0033313963 -0.0022020417 0.0013133995 -0.00023947016
-0.0072705327 -0.0010049642 -0.00013672058 -0.0004085438 -0.004558828 0.0036063113 -0.0034920794 -3.4045763e-05
-0.00055901846 0.000844828 -0.00016544342 -0.0063373097 0.007020617 -0.0017404006 -0.00126344 -0.00014250193
-0.0029978766 -0.0009767971 -0.000113530325 0.0067635654 -0.00085723854 0.00205437 -0.0003343427 -0.00011473871
-0.0005115898 -0.006015874 0.005340998
