inference/SyGuS/model_checkpoints/SyGuS_model_6.pt (torch, 502627 bytes, 21 tensors)

gats.0.att f4 [1, 5, 67]
-1.3610956e-05 -5.6778e-41 -3.6368742e-06 -1.1550449e-05 2.3466e-41 4.28155e-06 -6.772252e-06 -0.00010347569
-1.285294e-05 5.524245e-06 -1.4930733e-05 -2.2985948e-06 -2.2963e-41 5.8361e-41 -4.863e-41 4.216e-41
1.4654241e-27 8.685e-42 5.7895e-41 -1.2722034e-05 -1.0300275e-05 -1.1208547e-05 -3.9347e-41 2.005302e-07
2.0995476e-07 -1.3188714e-05 -1.3101422e-05 -1.2672617e-05 -2.5309e-41 -4.6246e-41 5.479256e-07 7.309917e-06
-2.3802058e-05 6.2761e-41 -7.4193173e-07 8.783983e-06 -1.2992914e-05 2.0791238e-06 5.7568227e-06 -1.9093e-41
-1.3348068e-05 -4.6125183e-06 -3.8059e-41 -4.0925793e-17 -4.23998e-06 -1.02244785e-05 -3.8475237e-06 -1.3449333e-05
-3.7936e-41 -4.925656e-06 5.5905e-41 3.059157e-07 4.3345e-41 -6.811269e-06 1.06656735e-05 -5.3393145e-05
-4.094e-41 -1.0162128e-05 7.623e-42 -1.114667e-06 8.370847e-06 1.8664e-41 9.338839e-07 3.2582327e-06
-1.0469306e-06 -0.0006131258 -2.3161026e-06 -1.3548339e-05 -5.6797e-41 -3.6377467e-06 -1.1547334e-05 2.2873e-41
4.283848e-06 -6.7746714e-06 -0.000103556325 -1.2855204e-05 5.5264854e-06 -1.4932138e-05 -2.2993834e-06 4.8122e-41
-3.8539e-41 -6.0172e-41 4.531e-41 1.465646e-27 7.846e-42 5.7801e-41 -1.2725051e-05 -1.0232013e-05
-1.1212525e-05 -6.2509e-41 2.0064374e-07 2.0995347e-07 -1.3188024e-05 -1.3114281e-05 -1.26661525e-05 -6.0535e-41
4.1614e-41 5.479804e-07 7.3119404e-06 -2.3715946e-05 -7.53e-42 -7.3987945e-07 8.7862045e-06 -1.299064e-05
2.080345e-06 5.7601715e-06 2.772e-41 -1.334499e-05 -4.536484e-06 5.4763e-41 -4.093692e-17 -4.2406846e-06
-1.0226874e-05 -3.8473945e-06 -1.344609e-05 -5.6587e-41 -4.787381e-06 5.4707e-41 3.059315e-07 4.2818e-41
-6.8160493e-06 1.0670751e-05 -5.3642994e-05 -4.2852e-41 -1.00877005e-05 2.9497e-41 -1.1148302e-06 8.35429e-06
1.9367e-41 9.3406044e-07 3.2594e-06 -1.0477348e-06 -0.00061431725 -2.3170953e-06 -1.35505625e-05 -5.6767e-41
-3.640968e-06 -1.15523835e-05 2.3175e-41 4.2821907e-06 -6.777057e-06 -0.00010342478 -1.2856534e-05 5.52731e-06
-1.4938742e-05 -2.2994366e-06 -2.3451e-41 4.4397e-41 -4.856e-41 4.1226e-41 1.4660016e-27 8.527e-42
5.7924e-41 -1.2726633e-05 -1.0275732e-05 -1.1212444e-05 6.248e-41 2.0054563e-07 2.1020867e-07 -1.3191329e-05
-1.3176333e-05 -1.2673377e-05 1.8412e-41 5.0255e-41 5.4874596e-07 7.3117367e-06 -2.3710003e-05 1.5528e-41
-7.446044e-07 8.785031e-06 -1.2997168e-05 2.079264e-06 5.7564394e-06 5.9583e-41 -1.3349818e-05 -4.522738e-06
4.672e-41 -4.0976046e-17 -4.245846e-06 -1.0226797e-05 -3.852751e-06 -1.3449149e-05 -3.6603e-41 -4.878401e-06
5.6775e-41 3.061015e-07 4.3411e-41 -6.8139275e-06 1.0660398e-05 -5.322109e-05 -4.094e-41 -1.0110227e-05
-5.1579e-41 -1.115886e-06 8.332915e-06 1.8457e-41 9.348499e-07 3.258211e-06 -1.0468326e-06 -0.00061260804
-2.3172067e-06 -1.3532434e-05 -5.6809e-41 -3.6375282e-06 -1.1546487e-05 2.253e-41 4.2798e-06 -6.7723763e-06
-0.000103314815 -1.2852574e-05 5.5252995e-06 -1.4935008e-05 -2.2978934e-06 2.2023e-41 -1.1451e-41 4.172e-41
4.0918e-41 1.464366e-27 8.715e-42 5.9297e-41 -1.2721882e-05 -1.0246654e-05 -1.1206932e-05 5.9087e-41
2.0049585e-07 2.1001989e-07 -1.31871975e-05 -1.3140143e-05 -1.2670301e-05 4.1103e-41 -4.623e-41 5.4814404e-07
7.307087e-06 -2.370177e-05 -1.0759e-41 -7.4271446e-07 8.782003e-06 -1.2992255e-05 2.0784491e-06 5.753821e-06
5.653e-41 -1.3346833e-05 -4.5463657e-06 -8.523e-42 -4.0927057e-17 -4.2413867e-06 -1.0223152e-05 -3.8479384e-06
-1.34468355e-05 2.4129e-41 -4.833066e-06 5.6939e-41 3.0617318e-07 4.4079e-41 -6.812077e-06 1.065309e-05
00000000: 9c5a 64b7 469e 0080 0611 74b6 cdc8 41b7
00000010: 6a41 0000 3caa 8f36 343d e3b6 1701 d9b8
00000020: f5a2 57b7 e75c b936 037f 7ab7 8f41 1ab6
00000030: 0340 0080 b0a2 0000 9087 0080 8675 0000
00000040: aa34 e812 3618 0000 63a1 0000 b870 55b7
00000050: 58cf 2cb7 580c 3cb7 af6d 0080 5251 5734
00000060: ed6f 6134 1845 5db7 2ece 5bb7 7a9c 54b7
00000070: 8d46 0080 ea80 0080 2915 1335 b547 f536
00000080: 88aa c7b7 f4ae 0000 2929 47b5 eb5e 1337
00000090: 24fc 59b7 1387 0b36 bb2a c136 3935 0080
000000a0: 84f1 5fb7 3bc5 9ab6 186a 0080 a6bc 3ca4
000000b0: 2745 8eb6 cd89 2bb7 fa19 81b6 72a4 61b7
000000c0: c069 0080 1047 a5b6 d79b 0000 bc3c a434
000000d0: d478 0000 5b8c e4b6 b8f0 3237 74f2 5fb8
000000e0: 2072 0080 027e 2ab7 4015 0000 ab9b 95b5
000000f0: 8470 0c37 0734 0000 03b0 7a35 03a8 5a36
00000100: 4384 8cb5 2dba 20ba 576e 1bb6 ac4d 63b7
00000110: 549e 0080 0320 74b6 6cbb 41b7 c33f 0000
00000120: f9bd 8f36 fc51 e3b6 612c d9b8 aeac 57b7
00000130: 2670 b936 0b85 7ab7 1b4f 1ab6 2586 0000
00000140: 6e6b 0080 bca7 0080 4e7e 0000 aa3d e812
00000150: df15 0000 20a1 0000 ae7d 55b7 29aa 2bb7
00000160: 6e1d 3cb7 40ae 0080 8870 5734 926f 6134
00000170: 2242 5db7 6805 5cb7 b680 54b7 bfa8 0080
00000180: 0174 0000 ed18 1335 1759 f536 9bf1 c6b7
00000190: fe14 0080 219c 46b5 7668 1337 60f2 59b7
000001a0: 0e9c 0b36 7f47 c136 464d 0000 4ce4 5fb7
000001b0: 1a38 98b6 a898 0000 c9c9 3ca4 344b 8eb6
000001c0: 1794 2bb7 de18 81b6 8496 61b7 be9d 0080
000001d0: 4aa3 a0b6 8098 0000 e83e a434 5c77 0000
000001e0: 6bb5 e4b6 8706 3337 bafe 60b8 7477 0080
000001f0: 583e 29b7 3a52 0000 46a1 95b5 6729 0c37
00000200: fd35 0000 25bc 7a35 11bc 5a36 e59f 8cb5
00000210: 220a 21ba 657f 1bb6 3957 63b7 3e9e 0080
00000220: 5b57 74b6 1cd1 41b7 9a40 0000 bdaf 8f36
00000230: 7a66 e3b6 c2e5 d8b8 65b2 57b7 3b77 b936
00000240: 69a1 7ab7 0550 1ab6 5f41 0080 c37b 0000
00000250: 5e87 0080 ec72 0000 174c e812 c517 0000
00000260: 78a1 0000 7984 55b7 ef65 2cb7 151d 3cb7
00000270: 2bae 0000 9055 5734 b8b5 6134 5450 5db7
00000280: eb0f 5db7 bd9f 54b7 5333 0000 178c 0000
00000290: 894d 1335 5757 f536 d8e4 c6b7 492b 0000
000002a0: d3e0 47b5 6c63 1337 690e 5ab7 7c89 0b36
000002b0: 7027 c136 18a6 0000 08f9 5fb7 06c2 97b6
000002c0: 3d82 0000 faf7 3ca4 8a77 8eb6 c293 2bb7
000002d0: e146 81b6 a8a3 61b7 0966 0080 25b1 a3b6
000002e0: 449e 0000 4556 a434 0379 0000 31a3 e4b6
000002f0: 10da 3237 b639 5fb8 2072 0080 189f 29b7
00000300: c88f 0080 8dc5 95b5 99cd 0b37 7333 0000
00000310: 65f2 7a35 a4a7 5a36 e580 8cb5 6e97 20ba
00000320: 4f81 1bb6 5d09 63b7 5c9e 0080 421c 74b6
00000330: c9b7 41b7 ce3e 0000 349b 8f36 453e e3b6
00000340: b8aa d8b8 63a1 57b7 f665 b936 5f91 7ab7
00000350: 8235 1ab6 643d 0000 ec1f 0080 4c74 0000
00000360: 1072 0000 be09 e812 4b18 0000 4ca5 0000
00000370: 1170 55b7 0be9 2bb7 6805 3cb7 b6a4 0000
00000380: e147 5734 d481 6134 953e 5db7 7c74 5cb7
00000390: 8792 54b7 9472 0000 df80 0080 2c24 1335
000003a0: 662f f536 2ad3 c6b7 fe1d 0080 f35e 47b5
000003b0: 6a56 1337 4ff9 59b7 7c7b 0b36 f210 c136
000003c0: 959d 0000 36ec 5fb7 fc8c 98b6 c217 0080
000003d0: 24be 3ca4 3c51 8eb6 1a84 2bb7 8a1d 81b6
000003e0: b899 61b7 4343 0000 b92b a2b6 b99e 0000
000003f0: 1f60 a434 e07a 0000 4c93 e4b6 acba 3237

gats.0.bias f4 [67]
0.004358882 -2.9385123e-33 0.00031014715 0.00043952937 -3.3791e-41 0.00055537047 0.00028716272 -0.023959115
0.0011445878 0.00016450493 0.00036408956 0.00012999277 4.96e-43 -1.95191e-36 -8.3424505e-36 -1.2805996e-30
-3.3215735e-20 2.5882e-41 -4.3812e-41 0.00018643455 0.0050619515 0.0007955906 -4.3981e-41 3.2301246e-05
-4.1324573e-05 0.00052468944 0.0042374213 0.0004612672 -6.2198e-41 9.684e-42 -1.8337973e-05 0.0008097188
-0.005707241 -2.9147e-41 0.0002151082 0.000722782 0.00019844933 7.448447e-05 0.00063937943 -4.856151e-35
0.0005742982 0.004942218 1.8302e-41 -1.1684355e-09 0.00027909526 0.00022905272 0.00031463898 -5.445046e-06
6.0581e-41 0.010596519 -5.16e-42 8.370876e-05 6.524e-42 0.0006582835 0.0002784218 0.0013328937
-1.3617497e-32 -0.001718823 -8.074383e-31 0.00014243649 0.00070956885 -1.7925993e-33 8.2033155e-05 0.00016798923
7.7798846e-05 -0.008828195 3.5821446e-05
00000000: f4d4 8e3b 3f1f 7489 3f9b a239 a270 e639
00000010: 325e 0080 4896 113a 548e 9639 e845 c4bc
00000020: fe05 963a f57e 2c39 46e3 be39 ab4e 0839
00000030: 6201 0000 d60c 2684 9f6c 3185 07ca cf8d
00000040: 5cdb 1c9f 2648 0000 217a 0080 a57d 4339
00000050: bade a53b 2e8f 503a 9a7a 0080 337b 0738
00000060: ec53 2db8 508b 093a 11da 8a3b 3cd6 f139
00000070: 62ad 0080 ff1a 0000 7fd4 99b7 4f43 543a
00000080: cf03 bbbb 4051 0080 ab8e 6139 1479 3d3a
00000090: d616 5039 8c34 9c38 079c 273a 4019 8186
000000a0: 808c 163a 54f2 a13b 0533 0000 ab96 a0b0
000000b0: 8853 9239 df2d 7039 21f6 a439 97b4 b6b6
000000c0: e0a8 0000 069d 2d3c 620e 0080 cc8c af38
000000d0: 3012 0000 a890 2c3a 24f9 9139 7eb4 ae3a
000000e0: 8469 8d8a 214a e1ba ad03 838d 015b 1539
000000f0: 5c02 3a3a 5fec 1489 3709 ac38 4426 3039
00000100: f027 a338 22a4 10bc fc3e 1638

gats.0.lin_l.weight f4 [335, 67]
0.00061201135 0.00083615904 0.015519807 0.0053408355 -0.002185772 0.0014274776 5.0497893e-06 0.0029043774
-5.473777e-08 1.703e-41 0.0043561277 0.006021902 -7.532e-42 -0.0030254475 -2.2652e-41 0.004011781
0.002708646 -0.0001778994 0.0022716736 0.0012957916 -6.079e-42 1.9049e-41 -7.92e-43 -1.5263e-41
-7.753e-42 -3.4419e-41 -3.05e-42 -2.138e-42 9.29e-43 9.15e-43 -8.346e-42 -2.9197e-41
-1.9083e-41 3.706e-41 2.5386e-41 -4.232e-42 7.697e-42 3.9e-44 -2.8522e-41 -3e-43
3.0922e-41 -1.1034e-41 5.087e-42 -1.3115e-41 -1.589e-42 -4.357e-42 -4.2319e-41 -5.0878e-41
-8.8e-44 6.0074e-41 -2.78e-42 -3.6616e-41 -1.582e-41 3.5863e-41 3.093e-42 1.631e-42
-8.001e-42 -4.532e-41 -2.8465e-41 1.232e-41 -4.2298e-41 1.04e-42 -2.3763e-41 4.8502e-41
3.3589e-41 2.16e-43 -0.0019760989 5.7806e-41 -1.803e-41 1.836e-42 5.4365e-41 -5.4878e-41
-4.4383e-41 -3.2533e-41 -4.5453e-41 3.5059e-41 -1.4588e-41 1.9823e-41 6.2254e-41 -4.439e-41
8.184e-42 -6.051e-42 -4.3673e-41 5.5845e-41 4.9658e-41 -2.1555e-41 5.16e-43 1.6615e-41
-1.6968e-41 -3.231e-42 6.28e-43 -2.41e-42 4.2263e-41 1.3532e-41 6.202e-42 2.4673e-41
-1.7853e-41 8.31e-43 4.3594e-41 5.1062e-41 5.796e-42 -1.225e-42 3.87e-42 1.8e-43
-2.4653e-41 1.3747e-41 5.1e-43 -7.8e-43 -1.4795e-41 1.089e-42 1.3406e-41 1.8902e-41
-1.918e-41 1.833e-42 -3.6484e-41 -1.12e-42 6.695e-42 -7.19e-43 -1.278e-42 -2.035e-42
-6.0801e-41 -1.6524e-41 1.4831e-41 6.0658e-41 1.3134e-41 -4.2237e-41 4.303e-42 -1.5763e-41
-1.781e-41 -1.024e-42 1.543e-41 -7.257e-42 1.7385e-41 2.5306e-41 -1.5253329e-05 -8.095934e-05
0.00024068785 0.00033112516 2.1418315e-05 -7.1310016e-05 3.5131886e-06 0.00019587816 2.1614244e-07 -2.6672e-41
0.00028001342 0.00027166342 2.3109e-41 3.1093732e-05 7.297e-42 0.0004457466 0.00020845726 -6.2587583e-06
0.00013945319 1.392259e-05 1.05e-42 2.2628e-41 -3.742e-41 -2.2293e-41 -2.915e-42 6.91e-43
1.77e-43 1.4e-41 -6.2915e-41 -1.766e-42 2.7e-44 2.5312e-41 1.54e-43 -4.96e-43
-3.059e-41 4.8e-43 -3.1165e-41 6.2285e-41 4.787e-42 -3.202e-42 9.204e-42 8.001e-42
-4.19e-43 5.927e-42 1.36e-43 -6.764e-42 3.8803e-41 -1.2446e-41 1.7829e-41 3.5886e-41
1.6629e-41 -2.965e-42 1.8988e-41 4.4561e-41 5.16e-43 -1.491e-42 -1.8609e-41 6.631e-42
2.372e-42 -3.98e-43 -3.632e-42 1.003e-42 5.05e-42 1.593e-42 5.3928e-41 -4.83e-43
-2.1605026e-06 7.265574e-05 -2.8375001e-05 0.00087319384 0.00068851316 -0.00014946525 0.0001037941 4.2524853e-06
0.00045191223 -4.872072e-08 1.991e-41 0.0002775406 0.00058151403 -3.25e-43 -9.011005e-05 1.53e-42
0.00077253074 0.00031631964 -2.0198557e-05 -2.3840043e-05 -4.858978e-06 2.4376e-41 2.127e-42 3.83e-43
4.452e-42 -1.592e-42 1.075e-42 4.408e-42 2.2325e-41 6.1139e-41 1.247e-42 -2.7199e-41
-4.992e-41 5.06e-43 5.8918e-41 1.435e-41 -1.423e-41 5.2e-44 1.7883e-41 4.6e-43
4.565e-41 -1.024e-42 1.54e-41 1.1872e-41 -2.8096e-41 -1.4609e-41 -1.075e-42 7.54e-43
-4.4329e-41 -9.865e-42 -1.67e-43 -2.392e-42 2.6462e-41 -6.0599e-41 -2.759e-41 -3.0282e-41
00000000: 636f 203a af31 5b3a ca46 7e3c 2d02 af3b
00000010: 2b3f 0fbb 331a bb3a 5c71 a936 5e57 3e3b
00000020: d118 6bb3 792f 0000 d9bd 8e3b 6053 c53b
00000030: ff14 0080 9646 46bb 253f 0080 4275 833b
00000040: 8a83 313b 828a 3ab9 5ce0 143b 8dd7 a93a
00000050: f210 0080 1a35 0000 3502 0080 8c2a 0080
00000060: 9d15 0080 f25f 0080 8108 0080 f605 0080
00000070: 9702 0000 8d02 0000 4417 0080 6451 0080
00000080: 3235 0080 4f67 0000 c446 0000 cc0b 0080
00000090: 7515 0000 1c00 0000 824f 0080 d600 0080
000000a0: 3356 0000 c21e 0080 2e0e 0000 8f24 0080
000000b0: 6e04 0080 250c 0080 f875 0080 d48d 0080
000000c0: 3f00 0080 76a7 0000 c007 0080 1266 0080
000000d0: 1a2c 0080 f963 0000 9f08 0000 8c04 0000
000000e0: 4e16 0080 557e 0080 594f 0080 5822 0000
000000f0: e975 0080 e602 0000 3e42 0080 3487 0000
00000100: a25d 0000 9a00 0000 7081 01bb 24a1 0000
00000110: 4332 0080 1e05 0000 8c97 0000 fa98 0080
00000120: b97b 0080 b05a 0080 b47e 0080 bb61 0000
00000130: aa28 0080 4237 0000 8aad 0000 be7b 0080
00000140: d016 0000 de10 0080 be79 0080 ac9b 0000
00000150: 6d8a 0000 163c 0080 7001 0000 512e 0000
00000160: 4d2f 0080 0209 0080 c001 0000 b806 0080
00000170: d075 0000 b925 0000 4a11 0000 c744 0000
00000180: c431 0080 5102 0000 8679 0000 578e 0000
00000190: 2810 0000 6a03 0080 ca0a 0000 8000 0000
000001a0: b944 0080 5226 0000 6c01 0000 2d02 0080
000001b0: 3e29 0080 0903 0000 5f25 0000 b134 0000
000001c0: 7735 0080 1c05 0000 b465 0080 1f03 0080
000001d0: aa12 0000 0102 0080 9003 0080 ac05 0080
000001e0: 7da9 0080 102e 0080 5829 0000 17a9 0000
000001f0: 9d24 0000 bd75 0080 ff0b 0000 f12b 0080
00000200: a631 0080 db02 0080 032b 0000 3b14 0080
00000210: 7630 0000 8b46 0000 8de8 7fb7 b7c8 a9b8
00000220: 2761 7c39 de9a ad39 7bab b337 468c 95b8
00000230: 1fc4 6b36 a564 4d39 c814 6834 5a4a 0080
00000240: c4ce 9239 0c6e 8e39 6b40 0000 a46a 0238
00000250: 5714 0000 19b3 e939 5295 5a39 5302 d2b6
00000260: 2e3a 1239 1295 6937 ed02 0000 143f 0000
00000270: 5068 0080 253e 0080 2008 0080 ed01 0000
00000280: 7e00 0000 0727 0000 62af 0080 ec04 0080
00000290: 1300 0000 8f46 0000 6e00 0000 6201 0080
000002a0: 4655 0080 5701 0000 e056 0080 a0ad 0000
000002b0: 580d 0000 ed08 0080 a819 0000 4e16 0000
000002c0: 2b01 0080 8610 0000 6100 0000 db12 0080
000002d0: 2b6c 0000 b222 0080 b331 0000 0964 0000
000002e0: 5b2e 0000 4408 0080 ee34 0000 387c 0000
000002f0: 7001 0000 2804 0080 e033 0080 7c12 0000
00000300: 9d06 0000 1c01 0080 200a 0080 cc02 0000
00000310: 140e 0000 7104 0000 5496 0000 5901 0080
00000320: 27fd 10b6 c15e 9838 da06 eeb7 0ce7 643a
00000330: 567d 343a c6b9 1cb9 08ac d938 92b0 8e36
00000340: a2ee ec39 0041 51b3 8037 0000 de82 9139
00000350: bf70 183a e800 0080 77f9 bcb8 4404 0000
00000360: a983 4a3a b4d7 a539 1270 a9b7 1afc c7b7
00000370: 4e0a a3b6 f343 0000 ee05 0000 1101 0000
00000380: 690c 0000 7004 0080 ff02 0000 4a0c 0000
00000390: 3c3e 0000 6eaa 0000 7a03 0000 d24b 0080
000003a0: 288b 0080 6901 0000 3da4 0000 0128 0000
000003b0: ab27 0080 2500 0000 da31 0000 4801 0000
000003c0: 417f 0000 db02 0080 ee2a 0000 1821 0000
000003d0: 524e 0080 b928 0080 ff02 0080 1a02 0000
000003e0: 927b 0080 801b 0080 7700 0080 ab06 0080
000003f0: c449 0000 eda8 0080 e94c 0080 6a54 0080

gats.0.lin_l.bias f4 [335]
0.0069130566 1.5582e-41 0.000275071 0.00050603715 2.6857e-41 0.0001120214 0.00022593519 0.010986256
0.0011407926 -2.8545399e-05 0.00059045566 0.00013315896 2.9577e-41 4.0032e-41 -4.7044e-41 -1.5650777e-38
-1.8116753e-24 -5.1139e-41 -4.9585e-41 0.00031283795 0.0053447713 0.00087296125 1.0608e-41 1.8349534e-06
4.5436147e-05 0.0006760828 0.0032116505 0.00060382875 2.0271e-41 -2.6789e-41 4.5881265e-05 0.00052701065
0.0047872365 -5.2508e-41 0.0002518379 0.000710266 0.00039869777 0.00018196921 0.00037154512 -5.9362e-41
0.0007222467 0.0062243277 2.9127e-41 -1.5506582e-13 0.00029214603 0.00034922943 0.00028477973 0.00050328043
6.1475e-41 0.011337264 -2.7615e-41 0.00015915025 1.4896e-41 0.0005846313 7.537576e-05 0.009999813
-9.451929e-39 0.0015147625 5.064e-41 0.0001277076 -0.00096745376 2.5218e-41 2.3565376e-07 0.00017631975
-1.6293918e-05 0.057487536 -6.136349e-06 0.0069134235 1.5582e-41 0.00027507325 0.0005060307 2.6857e-41
0.00011202064 0.0002259305 0.011011674 0.0011407685 -2.837981e-05 0.00059039635 0.00013316037 2.9577e-41
4.0032e-41 -4.7078e-41 -1.5650777e-38 -1.8116753e-24 -5.1139e-41 -4.9585e-41 0.0003128272 0.0053440374
0.0008730506 1.0608e-41 1.8349534e-06 4.5436147e-05 0.00067608076 0.0032122058 0.0006038309 2.0271e-41
-2.6789e-41 4.5880366e-05 0.0005270104 0.004784705 -5.2508e-41 0.0002518281 0.0007102606 0.00039869838
0.0001819672 0.0003715537 -5.9362e-41 0.00072224945 0.006223755 2.9127e-41 -1.5506582e-13 0.00029214544
0.00034922978 0.0002847809 0.0005032819 6.1475e-41 0.011338383 -2.7615e-41 0.00015914986 1.4896e-41
0.000584645 7.533433e-05 0.010007792 -9.451929e-39 0.0015137198 5.064e-41 0.00012770921 -0.000961315
2.5218e-41 2.3565376e-07 0.0001763096 -1.6293918e-05 0.057514668 -6.136349e-06 0.0069136983 1.5582e-41
0.0002750708 0.0005060335 2.6857e-41 0.000112020425 0.00022593177 0.010960408 0.0011407762 -2.8427046e-05
0.00059040927 0.0001331018 2.9577e-41 4.0032e-41 -4.7044e-41 -1.5650777e-38 -1.8116753e-24 -5.1139e-41
-4.9585e-41 0.00031282994 0.005343525 0.00087298005 1.0608e-41 1.8349534e-06 4.5436147e-05 0.0006760857
0.0032113944 0.0006038338 2.0271e-41 -2.6789e-41 4.5881265e-05 0.0005269861 0.0047864104 -5.2508e-41
0.0002518379 0.00071026623 0.00039869847 0.00018196921 0.0003715468 -5.9362e-41 0.00072224904 0.0062245377
2.9127e-41 -1.5506582e-13 0.0002921512 0.0003492297 0.00028478287 0.00050327816 5.7453e-41 0.011339273
-2.7615e-41 0.00015915025 1.4896e-41 0.000584642 7.496259e-05 0.009998478 -9.451929e-39 0.0015141539
5.064e-41 0.00012770765 -0.000963292 2.5218e-41 2.3537393e-07 0.00017631466 -1.6292284e-05 0.05757125
-6.1351057e-06 0.006913814 1.5582e-41 0.00027507317 0.0005060331 2.6857e-41 0.00011202052 0.00022593085
0.010975685 0.0011407866 -2.830036e-05 0.0005903453 0.00013310327 2.9577e-41 4.0032e-41 -4.7044e-41
-1.5650777e-38 -1.8116753e-24 -5.1139e-41 -4.9585e-41 0.0003128298 0.0053427736 0.0008730697 1.0608e-41
1.8349534e-06 4.5436147e-05 0.00067607913 0.003210611 0.0006038215 2.0271e-41 -2.6789e-41 4.5881265e-05
0.0005270171 0.004785495 -5.2508e-41 0.00025183015 0.0007102645 0.00039869337 0.00018196841 0.0003715494
-5.9362e-41 0.0007222515 0.0062241047 2.9127e-41 -1.5506582e-13 0.00029215048 0.00034922903 0.00028477935
0.0005032856 6.1475e-41 0.011340065 -2.7615e-41 0.00015915025 1.4896e-41 0.0005846304 7.51167e-05
00000000: ec86 e23b 702b 0000 6837 9039 94a7 043a
00000010: de4a 0000 08ed ea38 04e9 6c39 b3ff 333c
00000020: a686 953a c774 efb7 cfc8 1a3a 96a0 0b39
00000030: 7352 0000 986f 0000 2483 0080 006c aa80
00000040: ed2b 0c98 8e8e 0080 398a 0080 6604 a439
00000050: 3123 af3b 70d7 643a 921d 0000 8548 f635
00000060: b192 3e38 263b 313a 8e7a 523b 434a 1e3a
00000070: 8238 0000 ad4a 0080 a270 4038 1627 0a3a
00000080: 40de 9c3b 5f92 0080 1c09 8439 2531 3a3a
00000090: 4f08 d139 fdce 3e39 f1cb c239 7aa5 0080
000000a0: 2855 3d3a 72f5 cb3b 3251 0000 ae96 2eaa
000000b0: 2d2b 9939 c818 b739 7d4e 9539 94ee 033a
000000c0: 5eab 0000 efbf 393c fb4c 0080 92e1 2639
000000d0: 8629 0000 f141 193a 0e13 9e38 41d6 233c
000000e0: 22ec 6680 ff8a c63a 2a8d 0000 3fe9 0539
000000f0: b99c 7dba 4c46 0000 0308 7d34 79e2 3839
00000100: ecae 88b7 0d78 6b3d d6e6 cdb6 008a e23b
00000110: 702b 0000 b537 9039 25a7 043a de4a 0000
00000120: a0ec ea38 c2e7 6c39 4f6a 343c d785 953a
00000130: 2e11 eeb7 d4c4 1a3a f7a0 0b39 7352 0000
00000140: 986f 0000 3c83 0080 006c aa80 ed2b 0c98
00000150: 8e8e 0080 398a 0080 f502 a439 091d af3b
00000160: 6fdd 643a 921d 0000 8548 f635 b192 3e38
00000170: 033b 313a df83 523b 684a 1e3a 8238 0000
00000180: ad4a 0080 ab6f 4038 1227 0a3a 04c9 9c3b
00000190: 5f92 0080 cc07 8439 c830 3a3a 6408 d139
000001a0: 73ce 3e39 18cd c239 7aa5 0080 5755 3d3a
000001b0: a4f0 cb3b 3251 0000 ae96 2eaa 192b 9939
000001c0: d418 b739 a54e 9539 adee 033a 5eab 0000
000001d0: a0c4 393c fb4c 0080 77e1 2639 8629 0000
000001e0: dd42 193a cffc 9d38 b9f7 233c 22ec 6680
000001f0: 0268 c63a 2a8d 0000 aee9 0539 c200 7cba
00000200: 4c46 0000 0308 7d34 bfdf 3839 ecae 88b7
00000210: 8094 6b3d d6e6 cdb6 4e8c e23b 702b 0000
00000220: 6137 9039 55a7 043a de4a 0000 82ec ea38
00000230: 19e8 6c39 4893 333c 1986 953a 9e76 eeb7
00000240: b2c5 1a3a 3e91 0b39 7352 0000 986f 0000
00000250: 2483 0080 006c aa80 ed2b 0c98 8e8e 0080
00000260: 398a 0080 5303 a439 bd18 af3b b3d8 643a
00000270: 921d 0000 8548 f635 b192 3e38 583b 313a
00000280: 4276 523b 9a4a 1e3a 8238 0000 ad4a 0080
00000290: a270 4038 7025 0a3a 52d7 9c3b 5f92 0080
000002a0: 1c09 8439 2931 3a3a 6708 d139 fdce 3e39
000002b0: 2bcc c239 7aa5 0080 5055 3d3a 35f7 cb3b
000002c0: 3251 0000 ae96 2eaa df2b 9939 d118 b739
000002d0: e94e 9539 6dee 033a 28a0 0000 5cc8 393c
000002e0: fb4c 0080 92e1 2639 8629 0000 a942 193a
000002f0: 3c35 9d38 a8d0 233c 22ec 6680 9376 c63a
00000300: 2a8d 0000 43e9 0539 6f85 7cba 4c46 0000
00000310: 18bb 7c34 1be1 3839 6aab 88b7 d5cf 6b3d
00000320: 28dc cdb6 478d e23b 702b 0000 b237 9039
00000330: 4ea7 043a de4a 0000 8fec ea38 dae7 6c39
00000340: 5cd3 333c 7286 953a 8f66 edb7 67c1 1a3a
00000350: a391 0b39 7352 0000 986f 0000 2483 0080
00000360: 006c aa80 ed2b 0c98 8e8e 0080 398a 0080
00000370: 4e03 a439 6f12 af3b b7de 643a 921d 0000
00000380: 8548 f635 b192 3e38 e73a 313a 1d69 523b
00000390: c649 1e3a 8238 0000 ad4a 0080 a270 4038
000003a0: 8527 0a3a a4cf 9c3b 5f92 0080 1208 8439
000003b0: 0b31 3a3a b807 d139 c6ce 3e39 84cc c239
000003c0: 7aa5 0080 7a55 3d3a 93f3 cb3b 3251 0000
000003d0: ae96 2eaa c62b 9939 ba18 b739 704e 9539
000003e0: edee 033a 5eab 0000 aecb 393c fb4c 0080
000003f0: 92e1 2639 8629 0000 e241 193a f987 9d38

gats.0.lin_r.weight f4 [335, 67]
-4.0837e-41 1.4604e-41 4.4658e-41 -4.2742e-41 -3.4064e-41 -4.6303e-41 2.91e-43 2.83e-43
-2.5009e-41 -3.243e-42 1.3466e-41 6.09e-41 4.005e-42 -6.184e-42 -4.74e-43 -7.651e-42
-9.561e-42 1.3523e-41 5.6961e-41 2.3588e-41 -8.258e-42 -2.639e-42 4.84e-41 -1.0821e-41
6.2621e-41 -2.3948e-41 7.8e-44 -3.0227e-41 4.4605e-41 -1.312e-41 -8.334e-42 -4.8858e-41
1.637e-42 -1.6584e-41 2.178e-42 3.262e-42 -1.2264e-41 -3.339e-42 -3.1379e-41 -1.2854e-41
5.9963e-41 4.501e-42 -1.4872e-41 -4.093e-42 3.095e-42 3.45e-43 -6.0721e-41 -5.848e-42
9.25e-43 1.448e-42 3.74e-42 3.585e-42 6.407e-42 6.0893e-41 4.3467e-41 -6.722e-42
-1.236e-42 1.6462e-41 3.824e-42 4.937e-42 1.198e-42 3.1002e-41 1.7316e-41 8.809e-42
1.0562e-41 3.7024e-41 1.1844e-41 1.453e-42 4.8552e-41 -5.4312e-41 -2.9904e-41 5.542e-42
2.276e-42 -1.298e-42 1.3231e-41 1.026e-42 3.6189e-41 -4.9889e-41 1.372e-42 -2.3622e-41
5.8995e-41 -3.262e-42 1.8413e-41 -5.5895e-41 -1.36e-43 -2.1544e-41 3.792e-41 4.2604e-41
6.016e-42 -3.1193e-41 -3.782e-42 -1.26e-43 6.1423e-41 -8.87e-43 2.102e-42 9.8e-44
3.505e-42 -6.38e-43 3.1412e-41 8.343e-42 -5.293e-42 -3.6812e-41 -5.5084e-41 4.8832e-41
6.679e-42 3.7057e-41 -1.387e-42 -5.9726e-41 -6.994e-42 2.3898e-41 -1.9614e-41 -6.25e-43
-2.47e-42 -5.736e-42 6.0861e-41 2.3114e-41 2.667e-42 -6.108e-41 -1.834e-42 3.133e-42
2.765e-42 2.3561e-41 2.8483e-41 -1.164e-42 2.1349e-41 -1.1443e-41 -1.761e-41 2.466e-42
-2.3121e-41 2.499e-42 1.921e-42 -6.78e-42 3.028e-42 4.1214e-41 5.3417e-41 -1.464e-42
-2.4161e-41 2.613e-42 -2.1304e-41 2.9883e-41 -1.2369e-41 -1.6496e-41 -1.7916e-41 -2.1078e-41
-3.237e-42 -5.55e-43 3.3145e-41 -3.369e-42 1.599e-42 4.96e-43 6.037e-42 1.724e-42
-1.571e-42 5.2117e-41 -4.609e-42 -6.12e-41 4.16e-43 -4.1725e-41 -5.783e-42 -2.3074e-41
2.6217e-41 -1.1e-43 -6.723e-42 -5.9911e-41 -1.448e-42 -2.525e-42 3.0066e-41 -2.085e-42
6.007e-42 5.9771e-41 -1.8584e-41 -5.8812e-41 -5.518e-42 1.799e-41 4.4794e-41 -2.643e-42
-5.469e-42 3.757e-42 -2.4865e-41 -5.646e-42 -5.5e-44 1.0117e-41 3.7975e-41 2.0218e-41
-2.5813e-41 -4.39e-42 2.6748e-41 -2.248e-42 -5.7568e-41 2.4547e-41 -5.5693e-41 5.8804e-41
-2.5125e-41 1.3409e-41 -1.993e-42 -4.4191e-41 -2.6147e-41 -1.309e-41 2.7803e-41 -6.88e-42
-2.3543e-41 4.0824e-41 -1.777e-42 5.6521e-41 4.6379e-41 9.4e-42 3.0169e-41 1.408e-41
-4.8238e-41 -1.2853e-41 5.762e-42 -3.4e-43 -4.9729e-41 2.4643e-41 2.2035e-41 4.755e-42
1.648e-42 -5.2465e-41 6.716e-42 -6.111e-42 -9.469e-42 -1.4363e-41 6.046e-41 7.594e-42
-1.052e-42 -5.022e-42 3.7702e-41 5.227e-42 -1.285e-42 -5.4192e-41 -2.053e-42 -3.115e-42
5.412e-42 9.53e-43 6.028e-42 6.893e-42 2.5687e-41 -3.88e-42 -1.8992e-41 -7.79e-43
5.0546e-41 1.11e-41 3.286e-42 -7.24e-43 -1.819e-42 -1.5044e-41 5.367e-42 -2.6663e-41
-4.302e-42 1.7857e-41 2.9713e-41 5.2291e-41 3.9679e-41 1.7879e-41 -4.2937e-41 4.3369e-41
00000000: d671 0080 b628 0000 7d7c 0000 2677 0080
00000010: f55e 0080 1381 0080 d000 0000 ca00 0000
00000020: b745 0080 0a09 0080 8a25 0000 c4a9 0000
00000030: 2a0b 0000 3d11 0080 5201 0080 5415 0080
00000040: a71a 0080 b225 0000 c99e 0000 c141 0000
00000050: 0517 0080 5b07 0080 eb86 0000 2a1e 0080
00000060: 90ae 0000 c242 0080 3800 0000 4354 0080
00000070: 577c 0000 9324 0080 3b17 0080 3288 0080
00000080: 9004 0000 3b2e 0080 1206 0000 1809 0000
00000090: 3022 0080 4f09 0080 7957 0080 d523 0080
000000a0: 27a7 0000 8c0c 0000 7529 0080 690b 0080
000000b0: a108 0000 f600 0000 44a9 0080 4d10 0080
000000c0: 9402 0000 0904 0000 6d0a 0000 fe09 0000
000000d0: dc11 0000 bfa9 0000 2b79 0000 bd12 0080
000000e0: 7203 0080 e42d 0000 a90a 0000 c30d 0000
000000f0: 5703 0000 6c56 0000 4530 0000 8e18 0000
00000100: 711d 0000 3567 0000 0421 0000 0d04 0000
00000110: 5887 0000 6697 0080 5c53 0080 730f 0000
00000120: 5806 0000 9e03 0080 e224 0000 dc02 0000
00000130: e164 0000 128b 0080 d303 0000 d941 0080
00000140: 74a4 0000 1809 0080 5433 0000 d09b 0080
00000150: 6100 0080 0e3c 0080 b569 0000 c376 0000
00000160: c510 0000 f456 0080 8b0a 0080 5a00 0080
00000170: 39ab 0000 7902 0080 dc05 0000 4600 0000
00000180: c509 0000 c701 0080 9057 0000 4217 0000
00000190: c10e 0080 9e66 0080 8d99 0080 2088 0000
000001a0: 9e12 0000 4d67 0000 de03 0080 7ea6 0080
000001b0: 7f13 0080 9e42 0000 ad36 0080 be01 0080
000001c0: e306 0080 fd0f 0080 a8a9 0000 6f40 0000
000001d0: 6f07 0000 44aa 0080 1d05 0080 bc08 0000
000001e0: b507 0000 ae41 0000 664f 0000 3f03 0080
000001f0: 833b 0000 e61f 0080 1731 0080 e006 0000
00000200: 7440 0080 f706 0000 5b05 0000 e612 0080
00000210: 7108 0000 e372 0000 e894 0000 1504 0080
00000220: 5a43 0080 4907 0000 633b 0080 4d53 0000
00000230: 7b22 0080 fc2d 0080 f131 0080 c23a 0080
00000240: 0609 0080 8c01 0080 655c 0000 6409 0080
00000250: 7504 0000 6201 0000 d410 0000 ce04 0000
00000260: 6104 0080 4891 0000 d90c 0080 9aaa 0080
00000270: 2901 0000 5074 0080 1f10 0080 5240 0080
00000280: 1549 0000 4e00 0080 be12 0080 02a7 0080
00000290: 0904 0080 0a07 0080 d053 0000 d005 0080
000002a0: bf10 0000 9ea6 0000 ce33 0080 f2a3 0080
000002b0: 620f 0080 2632 0000 de7c 0000 5e07 0080
000002c0: 3f0f 0080 790a 0000 5045 0080 bd0f 0080
000002d0: 2700 0080 341c 0000 dc69 0000 5c38 0000
000002e0: f547 0080 3d0c 0080 904a 0000 4406 0080
000002f0: 7aa0 0080 6d44 0000 409b 0080 eca3 0000
00000300: 0a46 0080 6125 0000 8e05 0080 307b 0080
00000310: e348 0080 7d24 0080 814d 0000 2e13 0080
00000320: a141 0080 cd71 0000 f404 0080 8f9d 0000
00000330: 4981 0000 341a 0000 1954 0000 4027 0000
00000340: 7886 0080 d423 0080 1010 0000 f300 0080
00000350: a08a 0080 b244 0000 6d3d 0000 410d 0000
00000360: 9804 0000 4092 0080 b912 0000 0911 0080
00000370: 651a 0080 0a28 0080 8aa8 0000 2b15 0000
00000380: ef02 0080 000e 0080 1969 0000 920e 0000
00000390: 9503 0080 1197 0080 b905 0080 af08 0080
000003a0: 160f 0000 a802 0000 ce10 0000 3713 0000
000003b0: 9b47 0000 d10a 0080 f134 0080 2c02 0080
000003c0: e78c 0000 f11e 0000 2909 0000 0502 0080
000003d0: 1205 0080 f029 0080 f60e 0000 534a 0080
000003e0: fe0b 0080 c731 0000 d452 0000 c491 0000
000003f0: 9c6e 0000 d731 0000 b177 0080 e578 0000

gats.0.lin_r.bias f4 [335]
4.4658e-41 -6.2984e-41 -2.4161e-41 5.354e-42 -4.12e-43 2.3294e-41 3.59e-43 -5.4255e-41
6.346e-42 4.1899e-41 -3.9028e-41 -6.316e-41 -2.1001e-41 2.3486e-41 2.695e-42 -2.3049e-41
-6.396e-42 3.22e-43 5.4471e-41 3.7653e-41 -6.17e-43 -1.73e-42 -5.965e-42 5.786e-42
6.276e-42 2.271e-41 -5.448e-41 4.9973e-41 2.0273e-41 -1.1622e-41 2.812e-42 -5.126e-42
-9.107e-42 -3.435e-41 4.408e-42 6.56e-43 6.4e-43 -3.4448e-41 3.897e-42 6.249e-41
1.0091e-41 3.1004e-41 -2.1398e-41 -3.56e-42 -4.692e-42 -6.003e-42 -1.735e-42 -4.1623e-41
1.626e-42 -4.4155e-41 -9.15e-43 5.9536e-41 -9.017e-42 2.25e-41 3.5667e-41 1.4627e-41
5.0301e-41 -5.475e-42 9.578e-42 -5.4963e-41 -5.6716e-41 6.079e-42 -6.272e-42 -4.4385e-41
5.9e-44 3.0443894e-06 2.731e-42 2.5265e-41 -1.3294e-41 -2.4161e-41 5.354e-42 -4.12e-43
7.86e-43 3.59e-43 -2.8739e-41 -1.51e-41 -4.47e-43 -3.9028e-41 -6.316e-41 -2.1001e-41
2.3486e-41 2.695e-42 -3.3449e-41 4.4498e-41 3.22e-43 5.4471e-41 3.7653e-41 -6.17e-43
-1.73e-42 -5.965e-42 5.786e-42 6.276e-42 1.3011e-41 -5.448e-41 4.9973e-41 2.0273e-41
-1.1622e-41 2.812e-42 -5.126e-42 -9.107e-42 -3.435e-41 4.408e-42 6.56e-43 1.687e-42
-2.1534e-41 3.897e-42 6.249e-41 -3.952e-42 3.1004e-41 -2.1398e-41 -3.56e-42 -4.692e-42
-3.6355e-41 -1.735e-42 1.01e-43 1.626e-42 7.75e-43 -9.15e-43 5.9536e-41 -1.2634e-41
2.25e-41 3.5667e-41 5.1656e-41 5.0301e-41 -5.475e-42 5.272e-42 -5.4963e-41 -2.3791e-41
6.079e-42 -6.272e-42 -1.407e-42 5.9e-44 2.5279567e-06 2.731e-42 4.4658e-41 5.9439e-41
-2.4161e-41 6.0498e-41 -4.12e-43 1.04e-43 3.59e-43 -6.2571e-41 1.1729e-41 1.785e-42
-3.9028e-41 -2.7775e-41 -2.1001e-41 2.9602e-41 2.695e-42 5.3172e-41 2.6937e-41 -1.7341e-41
5.4471e-41 3.7653e-41 -6.17e-43 -4.57e-43 3.2292e-41 5.786e-42 6.276e-42 -5.8705e-41
-5.448e-41 -1.4827e-41 2.0273e-41 6.9e-44 2.812e-42 2.4163e-41 -9.107e-42 -3.435e-41
4.408e-42 6.56e-43 -1.949e-42 2.8442e-41 3.897e-42 6.249e-41 -1.8849e-41 3.1004e-41
4.7927e-41 -3.56e-42 -4.692e-42 1.442e-42 -1.735e-42 2.9202e-41 -9.4e-44 -4.4155e-41
-9.15e-43 -3.7354e-41 1.1706e-41 -1.0012e-41 3.5667e-41 5.3843e-41 5.0301e-41 -5.475e-42
2.913e-42 -4.361e-42 -1.9617e-41 6.079e-42 -6.272e-42 -3.7119e-41 5.9e-44 2.5860866e-06
-6.237e-42 4.4658e-41 -6.955e-42 -2.4161e-41 5.354e-42 -4.12e-43 6.813e-42 3.59e-43
-6.2571e-41 1.1729e-41 -1.6453e-41 -3.9028e-41 -2.7775e-41 -2.1001e-41 -1.6139e-41 2.695e-42
5.3172e-41 6.057e-41 -1.7341e-41 5.4471e-41 3.7653e-41 -6.17e-43 -1.73e-42 -5.965e-42
5.786e-42 6.276e-42 -5.8705e-41 -5.448e-41 4.9973e-41 2.0273e-41 5.9772e-41 2.812e-42
-5.126e-42 -9.107e-42 -3.435e-41 4.408e-42 6.56e-43 -3.6166e-41 2.9147e-41 3.897e-42
6.249e-41 3.346e-42 3.1004e-41 4.7927e-41 -3.56e-42 -4.692e-42 -9.2e-44 -1.735e-42
6.616e-42 3.758e-42 4.2647e-41 -9.15e-43 -3.7354e-41 -9.017e-42 2.25e-41 3.5667e-41
00000000: 7d7c 0000 93af 0080 5a43 0080 ed0e 0000
00000010: 2601 0080 ef40 0000 0001 0000 3e97 0080
00000020: b111 0000 cc74 0000 cb6c 0080 10b0 0080
00000030: 8b3a 0080 7841 0000 8307 0000 4040 0080
00000040: d411 0080 e600 0000 d897 0000 f668 0000
00000050: b801 0080 d304 0080 a110 0080 2110 0000
00000060: 7f11 0000 4e3f 0000 de97 0080 4e8b 0000
00000070: 8338 0000 6620 0080 d707 0000 4a0e 0080
00000080: 6319 0080 c15f 0080 4a0c 0000 d401 0000
00000090: c901 0000 0760 0080 dd0a 0000 32ae 0000
000000a0: 211c 0000 6d56 0000 a63b 0080 ed09 0080
000000b0: 140d 0080 bc10 0080 d604 0080 0774 0080
000000c0: 8804 0000 167b 0080 8d02 0080 f6a5 0000
000000d0: 2319 0080 b93e 0000 6d63 0000 c628 0000
000000e0: 388c 0000 430f 0080 b31a 0000 3799 0080
000000f0: 1a9e 0080 f210 0000 7c11 0080 ba7b 0080
00000100: 2a00 0000 364e 4c36 9d07 0000 6e46 0000
00000110: 0f25 0080 5a43 0080 ed0e 0000 2601 0080
00000120: 3102 0000 0001 0000 1d50 0080 182a 0080
00000130: 3f01 0080 cb6c 0080 10b0 0080 8b3a 0080
00000140: 7841 0000 8307 0000 3e5d 0080 0b7c 0000
00000150: e600 0000 d897 0000 f668 0000 b801 0080
00000160: d304 0080 a110 0080 2110 0000 7f11 0000
00000170: 4524 0000 de97 0080 4e8b 0000 8338 0000
00000180: 6620 0080 d707 0000 4a0e 0080 6319 0080
00000190: c15f 0080 4a0c 0000 d401 0000 b404 0000
000001a0: 073c 0080 dd0a 0000 32ae 0000 040b 0080
000001b0: 6d56 0000 a63b 0080 ed09 0080 140d 0080
000001c0: 5865 0080 d604 0080 4800 0000 8804 0000
000001d0: 2902 0000 8d02 0080 f6a5 0000 3823 0080
000001e0: b93e 0000 6d63 0000 ff8f 0000 388c 0000
000001f0: 430f 0080 b20e 0000 3799 0080 5242 0080
00000200: f210 0000 7c11 0080 ec03 0080 2a00 0000
00000210: f7a5 2936 9d07 0000 7d7c 0000 b1a5 0000
00000220: 5a43 0080 a5a8 0000 2601 0080 4a00 0000
00000230: 0001 0000 6cae 0080 b220 0000 fa04 0000
00000240: cb6c 0080 6d4d 0080 8b3a 0080 8552 0000
00000250: 8307 0000 3994 0000 174b 0000 5730 0080
00000260: d897 0000 f668 0000 b801 0080 4601 0080
00000270: 045a 0000 2110 0000 7f11 0000 a5a3 0080
00000280: de97 0080 5529 0080 8338 0000 3100 0000
00000290: d707 0000 5b43 0000 6319 0080 c15f 0080
000002a0: 4a0c 0000 d401 0000 6f05 0080 494f 0000
000002b0: dd0a 0000 32ae 0000 8b34 0080 6d56 0000
000002c0: 9a85 0000 ed09 0080 140d 0080 0504 0000
000002d0: d604 0080 6751 0000 4300 0080 167b 0080
000002e0: 8d02 0080 2168 0080 a220 0000 e91b 0080
000002f0: 6d63 0000 1896 0000 388c 0000 430f 0080
00000300: 1f08 0000 280c 0080 af36 0080 f210 0000
00000310: 7c11 0080 7967 0080 2a00 0000 a18c 2d36
00000320: 6311 0080 7d7c 0000 6313 0080 5a43 0080
00000330: ed0e 0000 2601 0080 fe12 0000 0001 0000
00000340: 6cae 0080 b220 0000 dd2d 0080 cb6c 0080
00000350: 6d4d 0080 8b3a 0080 fd2c 0080 8307 0000
00000360: 3994 0000 d8a8 0000 5730 0080 d897 0000
00000370: f668 0000 b801 0080 d304 0080 a110 0080
00000380: 2110 0000 7f11 0000 a5a3 0080 de97 0080
00000390: 4e8b 0000 8338 0000 9fa6 0000 d707 0000
000003a0: 4a0e 0080 6319 0080 c15f 0080 4a0c 0000
000003b0: d401 0000 d164 0080 4051 0000 dd0a 0000
000003c0: 32ae 0000 5409 0000 6d56 0000 9a85 0000
000003d0: ed09 0080 140d 0080 4200 0080 d604 0080
000003e0: 7112 0000 7a0a 0000 e276 0000 8d02 0080
000003f0: 2168 0080 2319 0080 b93e 0000 6d63 0000

gats.0.lin_edge.weight f4 [335, 1]
-6.0788e-41 2.2005e-41 -2.4161e-41 4.18e-41 -3.799e-42 1.82e-42 3.59e-43 7.973e-42
-5.5836e-41 5.095e-42 -1.449e-42 -1.618e-42 2.4734e-41 -1.247e-42 1.3294e-41 9.82e-42
2.5167e-41 -1.065e-42 3.578e-42 1.35e-42 1.9e-43 3.9182e-41 -1.179e-41 -5.8e-41
2.6486e-41 -1.743e-42 1.4967e-41 -3.649e-42 2.0273e-41 2.6759e-41 2.9657e-41 5.469e-42
4.2137e-41 -2.2754e-41 -5.2559e-41 -4.7127e-41 1.589e-42 -4.5011e-41 3.411e-42 4.006e-42
2.305e-42 3.1004e-41 -6.0493e-41 -1.39e-43 -4.692e-42 -6.679e-42 5.28e-43 8.453e-42
5.5573e-41 2.5439e-41 -1.2462e-41 -3.2e-44 1.61e-42 -7.713e-42 8.573e-42 2.2516e-41
-7.689e-42 -5.919e-42 3.598e-41 5.3506e-41 3.6998e-41 -1.9856e-41 -1.8501e-41 2.6538e-41
4.33e-42 1.8844574e-06 -7.06e-43 -6.0788e-41 -5.9231e-41 -2.4161e-41 4.18e-41 -3.799e-42
6.1748e-41 3.59e-43 7.973e-42 -5.5836e-41 2.257e-42 -1.449e-42 -1.618e-42 2.4734e-41
-1.247e-42 1.3294e-41 2.398e-42 6.68e-43 -1.065e-42 3.578e-42 1.35e-42 1.9e-43
3.9182e-41 -1.179e-41 -5.8e-41 2.6486e-41 -2.654e-42 1.4967e-41 -3.649e-42 2.0273e-41
2.6759e-41 -5.5058e-41 5.469e-42 4.2137e-41 -2.2754e-41 -5.2559e-41 -4.7127e-41 -9.303e-42
-1.5837e-41 3.411e-42 4.006e-42 2.305e-42 3.1004e-41 -6.0493e-41 -1.39e-43 -4.692e-42
-6.679e-42 5.28e-43 5.2721e-41 5.5573e-41 3.0034e-41 -1.2462e-41 -3.2e-44 -1.037e-42
-7.713e-42 8.573e-42 2.2516e-41 -7.689e-42 -5.919e-42 3.598e-41 5.3506e-41 2.8648e-41
-1.9856e-41 -1.8501e-41 2.3758e-41 4.33e-42 1.8843035e-06 -7.06e-43 -6.0788e-41 -4.4836e-41
-2.4161e-41 5.3685e-41 -3.799e-42 -2.4855e-41 3.59e-43 7.973e-42 -5.5836e-41 -1.9748e-41
-1.449e-42 -1.618e-42 2.4734e-41 -1.235e-42 1.3294e-41 5.6353e-41 -2.0577e-41 2.6988e-41
3.578e-42 1.35e-42 1.9e-43 3.541e-42 -1.179e-41 -5.8e-41 2.6486e-41 -1.743e-42
1.4967e-41 5.088e-41 2.0273e-41 -4.281e-42 -1.4672e-41 3.0432e-41 4.2137e-41 -2.2754e-41
-5.2559e-41 -4.7127e-41 6.138e-42 -3.7426e-41 3.411e-42 4.006e-42 2.454e-41 3.1004e-41
5.1163e-41 -1.39e-43 -4.692e-42 -6.679e-42 5.28e-43 -2.6204e-41 4.0758e-41 5.2969e-41
-1.2462e-41 -9.124e-42 -9.363e-42 2.6937e-41 8.573e-42 2.2516e-41 -7.689e-42 -5.919e-42
5.34e-43 5.3506e-41 6.2703e-41 -1.9856e-41 -1.8501e-41 2.3758e-41 4.33e-42 1.8844574e-06
-7.06e-43 -6.0788e-41 -4.264e-42 -2.4161e-41 4.18e-41 -3.799e-42 1.82e-42 3.59e-43
7.973e-42 -5.5836e-41 2.263e-42 -1.449e-42 -1.618e-42 2.4734e-41 5.2617e-41 1.3294e-41
5.6353e-41 4.6155e-41 -6.496e-42 3.578e-42 1.35e-42 1.9e-43 3.9182e-41 -1.179e-41
-5.8e-41 2.6486e-41 -1.743e-42 1.4967e-41 -3.649e-42 2.0273e-41 -4.281e-42 -3e-41
5.469e-42 4.2137e-41 -2.2754e-41 -5.2559e-41 -4.7127e-41 -9.303e-42 -5.438e-42 3.411e-42
4.006e-42 9.606e-42 3.1004e-41 5.1163e-41 -1.39e-43 -4.692e-42 -6.679e-42 5.28e-43
-1.4425e-41 4.0758e-41 -2.87e-43 -1.2462e-41 -9.124e-42 1.61e-42 -7.713e-42 8.573e-42
00000000: 74a9 0080 573d 0000 5a43 0080 8574 0000
00000010: 970a 0080 1305 0000 0001 0000 3a16 0000
00000020: a69b 0080 340e 0000 0a04 0080 8304 0080
00000030: f344 0000 7a03 0080 0f25 0000 601b 0000
00000040: 2846 0000 f802 0080 f909 0000 c303 0000
00000050: 8800 0000 396d 0000 de20 0080 aea1 0080
00000060: d549 0000 dc04 0080 b929 0000 2c0a 0080
00000070: 8338 0000 984a 0000 ac52 0000 3f0f 0000
00000080: 7675 0000 6e3f 0080 8392 0080 5f83 0080
00000090: 6e04 0000 797d 0080 8209 0000 2b0b 0000
000000a0: 6d06 0000 6d56 0000 a1a8 0080 6300 0080
000000b0: 140d 0080 9e12 0080 7901 0000 9017 0000
000000c0: ea9a 0000 ea46 0000 bd22 0080 1700 0080
000000d0: 7d04 0000 8015 0080 e617 0000 c43e 0000
000000e0: 6f15 0080 8010 0080 4c64 0000 2795 0000
000000f0: 2367 0000 5a37 0080 9333 0080 fa49 0000
00000100: 120c 0000 77ed fc35 f801 0080 74a9 0080
00000110: 1da5 0080 5a43 0080 8574 0000 970a 0080
00000120: 21ac 0000 0001 0000 3a16 0000 a69b 0080
00000130: 4b06 0000 0a04 0080 8304 0080 f344 0000
00000140: 7a03 0080 0f25 0000 af06 0000 dd01 0000
00000150: f802 0080 f909 0000 c303 0000 8800 0000
00000160: 396d 0000 de20 0080 aea1 0080 d549 0000
00000170: 6607 0080 b929 0000 2c0a 0080 8338 0000
00000180: 984a 0000 7b99 0080 3f0f 0000 7675 0000
00000190: 6e3f 0080 8392 0080 5f83 0080 ef19 0080
000001a0: 262c 0080 8209 0000 2b0b 0000 6d06 0000
000001b0: 6d56 0000 a1a8 0080 6300 0080 140d 0080
000001c0: 9e12 0080 7901 0000 f792 0000 ea9a 0000
000001d0: b953 0000 bd22 0080 1700 0080 e402 0080
000001e0: 8015 0080 e617 0000 c43e 0000 6f15 0080
000001f0: 8010 0080 4c64 0000 2795 0000 dc4f 0000
00000200: 5a37 0080 9333 0080 3a42 0000 120c 0000
00000210: 2de8 fc35 f801 0080 74a9 0080 fc7c 0080
00000220: 5a43 0080 a795 0000 970a 0080 4945 0080
00000230: 0001 0000 3a16 0000 a69b 0080 0d37 0080
00000240: 0a04 0080 8304 0080 f344 0000 7103 0080
00000250: 0f25 0000 179d 0000 5c39 0080 3b4b 0000
00000260: f909 0000 c303 0000 8800 0000 df09 0000
00000270: de20 0080 aea1 0080 d549 0000 dc04 0080
00000280: b929 0000 d58d 0000 8338 0000 ef0b 0080
00000290: e628 0080 d554 0000 7675 0000 6e3f 0080
000002a0: 8392 0080 5f83 0080 1c11 0000 5468 0080
000002b0: 8209 0000 2b0b 0000 6844 0000 6d56 0000
000002c0: 9f8e 0000 6300 0080 140d 0080 9e12 0080
000002d0: 7901 0000 0c49 0080 9e71 0000 a893 0000
000002e0: bd22 0080 6f19 0080 1a1a 0080 174b 0000
000002f0: e617 0000 c43e 0000 6f15 0080 8010 0080
00000300: 7d01 0000 2795 0000 caae 0000 5a37 0080
00000310: 9333 0080 3a42 0000 120c 0000 77ed fc35
00000320: f801 0080 74a9 0080 e30b 0080 5a43 0080
00000330: 8574 0000 970a 0080 1305 0000 0001 0000
00000340: 3a16 0000 a69b 0080 4f06 0000 0a04 0080
00000350: 8304 0080 f344 0000 ad92 0000 0f25 0000
00000360: 179d 0000 a980 0000 1c12 0080 f909 0000
00000370: c303 0000 8800 0000 396d 0000 de20 0080
00000380: aea1 0080 d549 0000 dc04 0080 b929 0000
00000390: 2c0a 0080 8338 0000 ef0b 0080 a153 0080
000003a0: 3f0f 0000 7675 0000 6e3f 0080 8392 0080
000003b0: 5f83 0080 ef19 0080 290f 0080 8209 0000
000003c0: 2b0b 0000 c71a 0000 6d56 0000 9f8e 0000
000003d0: 6300 0080 140d 0080 9e12 0080 7901 0000
000003e0: 3628 0080 9e71 0000 cd00 0080 bd22 0080
000003f0: 6f19 0080 7d04 0000 8015 0080 e617 0000

gats.1.att f4 [1, 5, 67]
-2.2454241e-10 -6.0605e-41 -9.219895e-08 -1.5895138e-19 -2.1463706e-11 -5.1678e-41 -1.4054379e-09 1.5823e-41
-6.289836e-10 3.4987775e-30 4.4051e-41 1.5764e-40 -4.9141e-41 1.7679e-41 3.6574e-41 -1.794e-42
5.6035e-41 -6.9284106e-10 5.0298845e-11 -3.2252e-41 2.4057e-41 -1.1995252e-34 -6.0282285e-10 -1.4153e-41
7.8350056e-11 -4.7549e-41 3.0237e-41 -8.365417e-10 1.742973e-36 -2.8357e-41 -1.95481e-40 3.2785e-41
-1.3940059e-09 3.901e-42 4.4348e-41 -1.3178e-41 -7.797804e-09 -1.7356388e-07 2.6506275e-10 -4.5123e-41
-1.4602e-41 -1.2308832e-09 8.8094565e-10 -4.5503e-41 5.56763e-10 2.765461e-09 -4.3524e-41 -6.746808e-10
1.3681376e-13 -9.258206e-37 5.3235e-41 -7.522506e-10 -9.010644e-10 8.9152365e-09 -4.04e-41 1.4354612e-27
1.5521e-41 -4.6589627e-10 -8.134229e-12 -4.436e-41 5.27e-41 8.706977e-10 -3.0576e-41 3.907e-42
-1.7535335e-07 -1.0606612e-09 5.9807e-41 -2.2454633e-10 1.726e-42 -9.2614826e-08 -1.5890905e-19 -2.1848608e-11
-2.509e-41 -1.4048459e-09 2.1849e-41 -6.2871885e-10 3.4992966e-30 -5.2386e-41 1.57335e-40 3.0083e-41
-4.05e-42 -4.7818e-41 -6.289e-41 5.4892e-41 -6.925402e-10 5.027631e-11 4.159e-42 2.8402e-41
-1.2017327e-34 -6.0254746e-10 -1.4276e-41 7.830778e-11 -2.864e-42 -4.727e-42 -8.362089e-10 1.7444762e-36
2.0896e-41 -1.95663e-40 5.3255e-41 -1.3933679e-09 -1.228e-42 4.3659e-41 -5.3518e-41 -7.798287e-09
-1.7348975e-07 2.6498165e-10 1.456e-42 5.8126e-41 -1.2304147e-09 8.803947e-10 3.5262e-41 5.52022e-10
2.7618219e-09 -5.79e-42 -6.7630995e-10 1.3617364e-13 -9.256463e-37 5.4861e-41 -7.5187795e-10 -9.0067065e-10
8.9104555e-09 1.6308e-41 1.44272635e-27 -1.732e-42 -4.6577975e-10 -8.08367e-12 -6.0407e-41 5.2779e-41
8.7248353e-10 -2.4458e-41 4.7992e-41 -1.7484284e-07 -1.0602139e-09 -2.0027e-41 -2.2463965e-10 8.034e-42
-9.219172e-08 -1.5870413e-19 -2.2365849e-11 -3.7175e-41 -1.404583e-09 2.8721e-41 -6.286692e-10 3.4466924e-30
-5.7509e-41 1.58563e-40 -1.7914e-41 4.4118e-41 2.0493e-41 -2.352e-41 4.448e-42 -6.9244344e-10
5.0242317e-11 -2.1715e-41 1.2875e-41 -1.1622055e-34 -6.024311e-10 -1.426e-41 7.8300436e-11 3.5358e-41
3.2e-44 -8.360391e-10 1.7419056e-36 4.4317e-41 -1.95389e-40 6.1338e-41 -1.3930366e-09 1.115e-42
4.3261e-41 3.7286e-41 -7.796615e-09 -1.7337057e-07 2.6488092e-10 1.0019e-41 -1.4517e-41 -1.2301887e-09
8.803532e-10 -1.9428e-41 5.5183513e-10 2.7604958e-09 -4.019e-42 -6.771418e-10 1.3555498e-13 -9.263659e-37
4.6414e-41 -7.517276e-10 -9.0054536e-10 8.905937e-09 3.0187e-41 1.43256765e-27 1.9209e-41 -4.658387e-10
-8.044285e-12 -3.5397e-41 5.2812e-41 8.715396e-10 2.1723e-41 4.2664e-41 -1.7489674e-07 -1.0600887e-09
2.8418e-41 -2.2449616e-10 4.7367e-41 -9.216787e-08 -1.5902652e-19 -2.1448109e-11 -4.448e-41 -1.405585e-09
-2.5263e-41 -6.290196e-10 3.4722587e-30 2.1361e-41 1.58462e-40 -4.5183e-41 3.2448e-41 -3.769e-41
-6.0222e-41 -2.1743e-41 -6.9289857e-10 5.032707e-11 -9.843e-42 3.0705e-41 -1.135772e-34 -6.0288735e-10
-1.4198e-41 7.8375986e-11 9.87e-43 4.261e-42 -8.3671614e-10 1.742966e-36 2.4842e-41 -1.95518e-40
6.1293e-41 -1.3942792e-09 1.799e-42 4.3681e-41 1.7146e-41 -7.809315e-09 -1.7307896e-07 2.6525382e-10
3.7333e-41 -1.6967e-41 -1.2310531e-09 8.8086216e-10 -6.2313e-41 5.5795885e-10 2.7673617e-09 1.4803e-41
-6.722638e-10 1.3461184e-13 -9.269325e-37 8.755e-42 -7.523409e-10 -9.010584e-10 8.913444e-09 -2.3071e-41
00000000: 12e3 76af f1a8 0080 e9fe c5b3 1ba8 3ba0
00000010: f8cb bcad 0f90 0080 7329 c1b0 1c2c 0000
00000020: c9e4 2cb0 62ed 8d0e cc7a 0000 70b7 0100
00000030: fc88 0080 4831 0000 f465 0000 0005 0080
00000040: 349c 0000 5b72 3eb0 7737 5d2e e859 0080
00000050: 1043 0000 ba71 1f87 e3b3 25b0 7427 0080
00000060: 294b ac2e 8c84 0080 4a54 0000 64f2 65b0
00000070: 9746 1404 0c4f 0080 ec20 0280 645b 0000
00000080: 3997 bfb0 e00a 0000 a07b 0000 bc24 0080
00000090: 1bf7 05b2 e05c 3ab4 44b8 912f c97d 0080
000000a0: b428 0080 da2b a9b0 0a27 7230 d87e 0080
000000b0: b70a 1930 810a 3e31 5479 0080 7174 39b0
000000c0: e209 1a2a 2d85 9d83 6694 0000 eec6 4eb0
000000d0: c5ae 77b0 a029 1932 9e70 0080 3975 e312
000000e0: 442b 0000 8910 00b0 5019 0fad a87b 0080
000000f0: e892 0000 e755 6f30 3c55 0080 e40a 0000
00000100: c348 3cb4 b3c6 91b0 b8a6 0000 2ce4 76af
00000110: d004 0000 8ae3 c6b3 509b 3ba0 b12e c0ad
00000120: f145 0080 9f14 c1b0 e83c 0000 28d2 2cb0
00000130: c6f2 8d0e 0892 0080 96b6 0100 dc53 0000
00000140: 4a0b 0080 4c85 0080 50af 0080 0499 0000
00000150: 2f5d 3eb0 181e 5d2e 980b 0000 2c4f 0000
00000160: d8bc 1f87 82a0 25b0 cc27 0080 5c33 ac2e
00000170: fc07 0080 2d0d 0080 f8da 65b0 5467 1404
00000180: 403a 0000 6e21 0280 7494 0000 c680 bfb0
00000190: 6c03 0080 b479 0000 3095 0080 3bf9 05b2
000001a0: 8048 3ab4 daac 912f 0f04 0000 08a2 0000
000001b0: 5e1b a9b0 4500 7230 4c62 0000 18bd 1730
000001c0: 7cca 3d31 2410 0080 15e7 39b0 6151 192a
000001d0: 957d 9d83 ee98 0000 b5ac 4eb0 1093 77b0
000001e0: 9914 1932 762d 0000 ef9b e412 d404 0080
000001f0: 5608 00b0 9d35 0ead 64a8 0080 2093 0000
00000200: 92d3 6f30 2e44 0080 c885 0000 6fbc 3bb4
00000210: f6b6 91b0 d437 0080 71fe 76af 6516 0000
00000220: effa c5b3 615d 3ba0 6abb c4ad a167 0080
00000230: 5f0b c1b0 1050 0000 a9ce 2cb0 80d0 8b0e
00000240: 50a0 0080 02ba 0100 f031 0080 fc7a 0000
00000250: 2039 0000 9041 0080 660c 0000 6056 3eb0
00000260: d2f7 5c2e 883c 0080 e423 0000 ce7b 1a87
00000270: 5298 25b0 c027 0080 3a2f ac2e 9062 0000
00000280: 1700 0000 06cf 65b0 582f 1404 8a7b 0000
00000290: aa20 0280 fcaa 0000 1e75 bfb0 1c03 0000
000002a0: 9878 0000 f067 0000 e0f1 05b2 bd27 3ab4
000002b0: ad9e 912f ee1b 0000 7828 0080 6b13 a9b0
000002c0: 59fd 7130 2836 0080 f2af 1730 28b3 3d31
000002d0: 340b 0080 9e21 3ab0 109f 182a ed9c 9d83
000002e0: 6281 0000 21a2 4eb0 3f8a 77b0 ba00 1932
000002f0: 2654 0000 d9ff e212 8c35 0000 7c0c 00b0
00000300: 3d84 0dad ac62 0080 3893 0000 2691 6f30
00000310: 8e3c 0000 ee76 0000 40cb 3bb4 8eb2 91b0
00000320: 384f 0000 0dd6 76af 0a84 0000 d3ed c5b3
00000330: d1be 3ba0 d9a8 bcad fe7b 0080 a02e c1b0
00000340: 6c46 0080 52e7 2cb0 ffd9 8c0e 8c3b 0000
00000350: bab9 0100 f47d 0080 745a 0000 1069 0080
00000360: e0a7 0080 9c3c 0080 6776 3eb0 3e57 5d2e
00000370: 701b 0080 9855 0000 52f8 1687 6db8 25b0
00000380: 9427 0080 c259 ac2e c002 0000 e10b 0000
00000390: aafe 65b0 7046 1404 4045 0000 0621 0280
000003a0: dcaa 0000 d7a0 bfb0 0405 0000 c479 0000
000003b0: cc2f 0000 bb29 06b2 95d7 39b4 28d3 912f
000003c0: 1268 0000 4c2f 0080 d531 a9b0 2a21 7230
000003d0: b4ad 0080 dd5e 1930 f12b 3e31 4429 0000
000003e0: 5cca 38b0 398f 172a 9bb5 9d83 6818 0000
000003f0: 49cd 4eb0 59ae 77b0 be21 1932 5040 0080

gats.1.bias f4 [67]
0.00012694772 -2.1824e-41 0.0047229184 -1.2832969e-09 0.00034668733 -1.7198e-41 0.0001482503 -4.9523e-41
0.00013521258 -1.1872435e-19 -1.173e-42 -1.6797608e-26 1.236e-42 -4.9763623e-26 -4.6042e-41 5.5466e-41
-3.883313e-27 0.00012538012 2.718588e-05 9.554e-42 -1.02922146e-25 -1.9306126e-24 0.00011354293 -2.4074586e-29
5.9099362e-05 -2.1361e-41 4.2225e-41 8.23201e-05 -4.0291337e-27 -1.0045944e-36 -1.9698452e-27 6.0735e-41
0.0002760839 1.7064e-41 -2.382e-42 3.1028e-41 0.00058317307 0.0113793295 7.181107e-05 -3.7796e-41
-3.5897043e-30 0.00025907916 0.00014935332 -3.9496e-41 0.00015617066 0.000543067 -4.5007e-41 0.0012353231
-2.953678e-07 -1.9042058e-27 -2.2510991e-29 8.410087e-05 0.00023436577 0.0007259445 -1.5054051e-29 -6.157952e-17
-1.1656e-41 0.00012526644 8.592369e-05 -5.1652e-41 -5.1695e-41 0.00036887915 -9.740335e-31 -1.7508545e-28
0.011514489 0.00014458703 5.9625e-41
00000000: 451d 0539 d63c 0080 b6c2 9a3b ff5f b0b0
00000010: 96c3 b539 f12f 0080 a373 1b39 0d8a 0080
00000020: dac7 0d39 3c2a 0ca0 4503 0080 ff5a a694
00000030: 7203 0000 e36a 7695 5980 0080 9e9a 0000
00000040: 79d5 9993 7878 0339 3c0d e437 a21a 0000
00000050: a9d2 fe95 b95f 1598 e51d ee38 3325 f48f
00000060: 75e1 7738 8c3b 0080 b575 0000 44a3 ac38
00000070: 459c 9f93 42ec aa83 3511 1c93 4ea9 0000
00000080: 5bbf 9039 912f 0000 a406 0080 7e56 0000
00000090: 15e0 183a 5e70 3a3c 4699 9638 5c69 0080
000000a0: 9f9d 918e 04d5 8739 ba9b 1c39 196e 0080
000000b0: bec1 2339 9c5c 0e3a 767d 0080 91ea a13a
000000c0: 0b93 9eb4 e2dd 1693 e049 e48f 505f b038
000000d0: 15c0 7539 504d 3e3a 8daa 988f 22fe 8da4
000000e0: 7e20 0080 f459 0339 ee31 b438 fc8f 0080
000000f0: 1b90 0080 1f66 c139 c50b 9e8d 7af2 5d91
00000100: 44a7 3c3c 499c 1739 36a6 0000
