inference/SyGuS/model_checkpoints/SyGuS_model_9.pt (torch, 502627 bytes, 21 tensors)

gats.0.att f4 [1, 5, 67]
000000 ad 8c dc 3a e3 b9 4b b8 99 36 d8 3a 50 59 19 3a
       0.0016826593 -4.8572092e-05 0.0016495764 0.00058497954
000010 56 77 84 bb 68 4f c1 39 3f 41 57 ba 00 81 be bb
       -0.0040425463 0.0003687099 -0.00082113215 -0.005813718
000020 5f 44 c8 b7 81 60 00 80 8e 99 00 80 70 94 00 00
       -2.3873696e-05 -3.4619e-41 -5.5085e-41 5.325e-41
000030 34 20 95 39 bc 1e 8b 39 fc 17 88 39 57 0c 65 b8
       0.00028443488 0.00026535045 0.0002595781 -5.4609347e-05
000040 46 37 00 00 36 93 00 80 48 dc a1 ba ec 4e 00 80
       1.9828e-41 -5.281e-41 -0.0012348974 -2.8312e-41
000050 49 95 00 00 e9 68 00 80 f7 94 00 80 96 70 df 3a
       5.3553e-41 -3.7635e-41 -5.3439e-41 0.0017047103
000060 e8 0c 00 80 42 65 a6 bb 47 77 00 00 c0 38 56 3a
       -4.63e-42 -0.005077989 4.2789e-41 0.00081719086
000070 b7 d6 8c 38 d3 ef dc 3a 0c 4f 00 80 fb 65 92 39
       6.715714e-05 0.0016856141 -2.8357e-41 0.0002792327
000080 df 81 00 00 90 51 00 00 9c 9f 00 80 41 bf 50 ba
       4.6589e-41 2.9259e-41 -5.7257e-41 -0.00079630694
000090 31 d8 e7 3a 69 57 00 00 f6 72 dd 3a 3c 36 f1 b6
       0.0017688331 3.1357e-41 0.0016895223 -7.1886734e-06
0000a0 42 47 6b 3b 15 30 09 ba 67 f9 45 3a 6c 6f d0 b9
       0.0035900627 -0.00052333 0.00075521175 -0.00039755867
0000b0 58 b6 02 82 d6 13 ec b3 fc c6 94 38 6c 3a 4f bb
       -9.603222e-38 -1.09932145e-07 7.094254e-05 -0.0031620516
0000c0 a6 68 b7 bb 15 8f 00 80 d0 a9 00 00 78 73 9f 38
       -0.005597192 -5.1328e-41 6.0917e-41 7.6032185e-05
0000d0 62 46 d2 bb e9 11 00 80 f8 87 51 bb d8 ad 00 00
       -0.0064170817 -6.425e-42 -0.0031971913 6.2363e-41
0000e0 a2 50 00 80 df 5b 00 80 4d 3c 89 39 3c 39 00 80
       -2.8926e-41 -3.2957e-41 0.00026175604 -2.0532e-41
0000f0 10 5e 92 b9 b4 56 de 39 84 af 00 80 f7 4b a3 b8
       -0.00027917372 0.00042407739 -6.2963e-41 -7.786595e-05
000100 7e 71 00 00 f6 57 00 00 52 c2 35 b6 72 a8 dc 3a
       4.0713e-41 3.1554e-41 -2.708421e-06 0.0016834869
000110 73 44 4c b8 57 41 d8 3a 83 7e 19 3a cf 47 84 bb
       -4.870114e-05 0.0016498965 0.00058553385 -0.0040368806
000120 d3 3a c2 39 dc c3 55 ba 8e 3e be bb 2c 7c c8 b7
       0.0003704639 -0.00081544905 -0.005805797 -2.389968e-05
000130 60 ae 00 80 2a b2 00 00 5e 27 00 80 26 b1 95 39
       -6.2554e-41 6.3913e-41 -1.4122e-41 0.0002855148
000140 fe d1 8a 39 6f 3f 88 39 a1 dc 64 b8 8a 2d 00 00
       0.00026477868 0.00025987203 -5.4564913e-05 1.6336e-41
000150 fd 92 00 80 ea 39 a2 ba 50 61 00 00 7e 3a 00 00
       -5.273e-41 -0.0012376879 3.4909e-41 2.0983e-41
000160 56 40 00 00 86 1b 00 80 64 84 df 3a eb 06 00 80
       2.308e-41 -9.874e-42 0.0017053005 -2.482e-42
000170 1e e7 a5 bb 98 5b 00 00 e3 48 56 3a 14 a9 8c 38
       -0.0050629517 3.2858e-41 0.0008174313 6.7072135e-05
000180 23 eb dc 3a 32 29 00 80 5b 75 92 39 76 71 00 80
       0.0016854744 -1.4778e-41 0.00027934727 -4.0702e-41
000190 7e 4e 00 00 ef 2c 00 00 b6 b1 50 ba f0 e2 e7 3a
       2.8158e-41 1.6119e-41 -0.00079610513 0.0017691534
0001a0 07 59 00 00 4a 44 dd 3a e5 b1 f1 b6 a2 a7 6b 3b
       3.1937e-41 0.0016881314 -7.2030693e-06 0.0035958071
0001b0 91 70 09 ba ed ad 46 3a bd 72 d0 b9 ef ba 39 80
       -0.0005242909 0.00075790175 -0.00039758338 -5.301682e-39
0001c0 5c 9b cd b3 8c 02 95 38 6f 92 4e bb 46 09 b7 bb
       -9.574316e-08 7.105348e-05 -0.0031520387 -0.0055858223
0001d0 5e 5e 00 80 63 50 00 00 a5 c7 9f 38 ec c3 d1 bb
       -3.3853e-41 2.8837e-41 7.6188975e-05 -0.0064015295
0001e0 19 3a 00 80 5a c5 50 bb fc 00 00 00 47 42 00 80
       -2.0842e-41 -0.0031855912 3.53e-43 -2.3776e-41
0001f0 91 59 00 80 fa fa 88 39 c0 82 00 00 71 93 92 b9
       -3.213e-41 0.00026126934 4.6904e-41 -0.00027957142
000200 d7 9e de 39 98 2a 00 80 f9 51 a3 b8 3e 4c 00 80
       0.00042461485 -1.528e-41 -7.787714e-05 -2.735e-41
000210 0a 23 00 00 cc 1c 38 b6 0c 70 dc 3a 9d a5 4b b8
       1.257e-41 -2.7434899e-06 0.001681806 -4.855321e-05
000220 57 2c d8 3a 8e 45 19 3a dc 3d 84 bb 36 3b c2 39
       0.0016492706 0.0005846851 -0.0040356945 0.0003704668
000230 48 40 55 ba 5f 39 be bb 3e 76 c8 b7 bd 1e 00 00
       -0.0008134884 -0.005805179 -2.3896919e-05 1.1027e-41
000240 f7 91 00 00 8b 14 00 00 46 a3 95 39 80 70 8b 39
       5.2362e-41 7.37e-42 0.00028541143 0.00026595965
000250 55 56 86 39 8b e4 64 b8 43 1e 00 00 8b 84 00 80
       0.00025622794 -5.4572283e-05 1.0856e-41 -4.7547e-41
000260 c2 1c a2 ba db 83 00 00 a8 2f 00 80 8b 6f 00 00
       -0.001236819 4.7301e-41 -1.7096e-41 4.0014e-41
000270 cd 72 00 00 83 53 df 3a 41 0b 00 80 eb e8 a5 bb
       4.1183e-41 0.0017038438 -4.037e-42 -0.0050631664
000280 28 89 00 00 96 23 56 3a 61 ea 8c 38 0f 13 dd 3a
       4.9202e-41 0.0008168755 6.719377e-05 0.0016866642
000290 0f 2f 00 80 7c 9c 92 39 df 6d 00 00 47 72 00 00
       -1.6881e-41 0.0002796388 3.9414e-41 4.0995e-41
0002a0 f5 3c 00 00 05 a3 50 ba dc be e7 3a 14 59 00 00
       2.1867e-41 -0.0007958862 0.0017680782 3.1955e-41
0002b0 60 45 dd 3a 48 77 f1 b6 a5 a7 6b 3b 31 69 09 ba
       0.0016881637 -7.196246e-06 0.0035958078 -0.000524181
0002c0 f4 a4 46 3a 2a 3e d0 b9 d3 45 2b 82 32 a5 cd b3
       0.00075776805 -0.00039719167 -1.2583134e-37 -9.576105e-08
0002d0 e1 35 94 38 4d 90 4e bb b7 e1 b6 bb 47 67 00 00
       7.067226e-05 -0.0031519115 -0.0055811065 3.7049e-41
0002e0 be a1 00 00 ae 6c 9f 38 2e b2 d1 bb 0b 13 00 80
       5.8022e-41 7.601954e-05 -0.0063994145 -6.831e-42
0002f0 ec eb 50 bb d3 9c 00 00 e2 4a 00 00 8e 59 00 80
       -0.0031878902 5.6258e-41 2.6863e-41 -3.2126e-41
000300 8a 19 89 39 4e 48 00 80 82 7e 92 b9 62 97 de 39
       0.00026149704 -2.5938e-41 -0.00027941546 0.0004245593
000310 58 48 00 00 56 66 a3 b8 67 5a 00 00 c4 16 00 80
       2.5952e-41 -7.791507e-05 3.243e-41 -8.167e-42
000320 7c 9b 37 b6 7f 41 dc 3a 6c 24 4c b8 a6 e4 d7 3a
       -2.7359629e-06 0.0016804187 -4.867131e-05 0.0016471341
000330 56 1f 19 3a 1b 84 84 bb b2 4e c2 39 80 b5 56 ba
       0.0005841156 -0.0040440685 0.00037061196 -0.0008190498
000340 8a 8a be bb 98 72 c8 b7 c5 21 00 00 b6 22 00 00
       -0.005814855 -2.389522e-05 1.2114e-41 1.2452e-41
000350 c1 03 00 80 2b 37 95 39 96 18 8b 39 be 0c 88 39
       -1.347e-42 0.00028460598 0.00026530464 0.00025949435
000360 94 8a 64 b8 f6 37 00 80 16 95 00 80 c3 9f a1 ba
       -5.4488497e-05 -2.0075e-41 -5.3482e-41 -0.0012330938
000370 72 00 00 80 56 99 00 00 92 51 00 00 e0 00 00 00
       -1.6e-43 5.5007e-41 2.9262e-41 3.14e-43
000380 17 31 df 3a 99 07 00 80 a1 92 a6 bb 3e 8f 00 00
       0.001702818 -2.726e-42 -0.0050833975 5.1386e-41
000390 12 1b 56 3a 64 38 8c 38 bc f0 dc 3a 89 0c 00 80
       0.0008167486 6.686224e-05 0.0016856412 -4.497e-42
0003a0 46 3a 92 39 45 21 00 80 0f 1a 00 00 15 3e 00 80
       0.00027890707 -1.1935e-41 9.348e-42 -2.2271e-41
0003b0 bd c0 50 ba 80 8d e7 3a 5f 56 00 00 f7 fe dc 3a
       -0.00079632906 0.0017666072 3.0984e-41 0.0016860653
0003c0 8f bc f0 b6 30 8c 6b 3b e4 30 09 ba b0 b8 45 3a
       -7.1745085e-06 0.0035941713 -0.00052334205 0.0007542474
0003d0 3d 30 d0 b9 07 3c c3 80 00 69 e9 b3 7f a9 94 38
       -0.00039708792 -1.7929456e-38 -1.08690074e-07 7.088761e-05
0003e0 a8 48 4f bb 28 ad b7 bb 04 1c 00 80 7b 0a 00 00
       -0.0031629 -0.0056053586 -1.005e-41 3.76e-42
0003f0 ac 90 9f 38 d9 5c d2 bb b5 38 00 80 80 c8 51 bb
       7.608658e-05 -0.0064197597 -2.0343e-41 -0.0032010376

gats.0.bias f4 [67]
000000 76 6c a1 3b c4 79 1b b7 13 7c 97 3b ce 4f 3a 3b
       0.0049262596 -9.267071e-06 0.004622945 0.0028428915
000010 80 ef 69 3a a1 01 dc 3a bc 15 01 3c 41 53 0b bd
       0.0008923933 0.0016785153 0.007878717 -0.034014944
000020 15 04 b0 b5 d4 8d 00 00 40 59 00 80 7f 1d 00 80
       -1.311421e-06 5.0878e-41 -3.2017e-41 -1.0581e-41
000030 b0 f9 d4 3a 61 23 d9 39 da e9 b8 3a 48 6e 73 39
       0.0016248729 0.00041415825 0.0014107779 0.00023215369
000040 43 01 00 80 32 07 00 80 c6 d1 22 3c 1b 3e 00 80
       -4.53e-43 -2.581e-42 0.009937709 -2.2279e-41
000050 07 96 00 80 fe 0b 00 00 d6 73 00 80 ec 79 91 3b
       -5.382e-41 4.302e-42 -4.1554e-41 0.004439583
000060 3a 64 00 80 76 c1 fa bc 89 15 00 00 a4 7c 9c 3b
       -3.5955e-41 -0.030609827 7.725e-42 0.0047756005
000070 00 6e 55 39 64 18 93 3b e2 3b 00 00 c6 5e d6 39
       0.00020354241 0.0044889916 2.1482e-41 0.00040887872
000080 38 4a 00 00 dd 88 00 00 c3 1d 00 80 b8 1f 84 ba
       2.6625e-41 4.9097e-41 -1.0676e-41 -0.0010080254
000090 41 80 92 3b b7 42 00 80 50 a3 9b 3b 89 fb c6 36
       0.0044708555 -2.3933e-41 0.004749693 5.9301424e-06
0000a0 1f ac 37 3c 3b 72 00 bb 1d 86 98 3b 57 f6 ee ba
       0.01121047 -0.0019599337 0.0046546594 -0.0018231374
0000b0 2c 93 2a b1 42 1d 10 36 8a 9a e6 38 55 e2 bb bb
       -2.4821913e-09 2.1474702e-06 0.0001099604 -0.005733768
0000c0 f2 3c b4 bc 4f 6b 00 00 b7 62 00 80 ce 6a 1a 3a
       -0.022001717 3.8495e-41 -3.5412e-41 0.0005890549
0000d0 30 0e 96 bc b1 97 a0 b7 44 20 00 bc 00 93 00 00
       -0.018317312 -1.9144123e-05 -0.007820193 5.2734e-41
0000e0 ed 23 00 00 63 49 00 80 37 37 b2 3a 1d ad 00 00
       1.2888e-41 -2.6326e-41 0.0013596778 6.2101e-41
0000f0 54 e1 ba ba 52 3c 22 3b a6 16 00 80 aa 54 b7 38
       -0.0014257827 0.0024755192 -8.125e-42 8.74189e-05
000100 1f ae 00 80 8c 6e 00 80 ee f7 4b b6
       -6.2463e-41 -3.9657e-41 -3.0393671e-06

gats.0.lin_l.weight f4 [335, 67]
000000 f3 20 00 00 8e bf c1 3b e6 4c 74 bb de 94 ac bb
       1.182e-41 0.0059127277 -0.003727728 -0.00526677
000010 5f ae f3 ba 11 cd ae 3b f1 1c 00 00 b2 e2 18 bc
       -0.0018591395 0.0053345044 1.0382e-41 -0.009331392
000020 d1 7b 4a aa 09 77 00 00 84 f9 d3 bb 58 23 06 bc
       -1.7984162e-13 4.2702e-41 -0.0064689536 -0.008187138
000030 97 b2 00 00 54 a9 44 bc b3 8b 00 80 a6 d1 c4 bc
       6.4066e-41 -0.012003262 -5.0115e-41 -0.02402575
000040 e5 0f 8b bc 9b c6 d7 39 45 16 1e 3d 2b 1f fd ba
       -0.016975353 0.00041155968 0.038595457 -0.0019311657
000050 e6 ac 00 80 ca 36 00 80 b1 98 00 00 db b0 00 80
       -6.2024e-41 -1.9655e-41 5.4775e-41 -6.3444e-41
000060 69 b3 00 80 bf 9a 00 80 fb a8 00 80 11 b1 00 00
       -6.436e-41 -5.5512e-41 -6.0619e-41 6.352e-41
000070 89 ae 00 80 c4 77 00 80 1a 9b 00 80 e7 ac 00 80
       -6.2611e-41 -4.2964e-41 -5.564e-41 -6.2026e-41
000080 b3 a5 00 80 75 a7 00 00 c5 4c 00 80 dd 68 00 00
       -5.9442e-41 6.0072e-41 -2.754e-41 3.7618e-41
000090 07 28 00 80 e3 7c 00 80 0e b1 00 00 4d a1 00 80
       -1.4359e-41 -4.4801e-41 6.3515e-41 -5.7864e-41
0000a0 65 b0 00 00 e2 69 00 00 6b 7c 00 00 28 57 00 80
       6.3278e-41 3.7984e-41 4.4633e-41 -3.1266e-41
0000b0 ab a7 00 00 9a b0 00 00 e1 8b 00 80 6d ab 00 00
       6.0148e-41 6.3353e-41 -5.0179e-41 6.1496e-41
0000c0 a0 88 00 80 52 5e 00 80 1e 9a 00 80 ff b1 00 80
       -4.9012e-41 -3.3836e-41 -5.5287e-41 -6.3853e-41
0000d0 dd 59 00 80 5a b0 00 00 b5 b2 00 00 90 94 00 00
       -3.2237e-41 6.3263e-41 6.4108e-41 5.3294e-41
0000e0 cb 7b 00 00 e5 af 00 00 98 5a 00 00 30 99 00 80
       4.4409e-41 6.3099e-41 3.2499e-41 -5.4953e-41
0000f0 68 47 00 00 74 4e 00 80 8d 7a 00 80 9a b0 00 00
       2.5616e-41 -2.8144e-41 -4.3963e-41 6.3353e-41
000100 e5 af 00 80 c2 a7 00 80 6b f9 21 38 45 79 00 80
       -6.3099e-41 -6.018e-41 3.861768e-05 -4.3503e-41
000110 e3 89 09 b8 80 7e 8d 39 a9 b5 c7 38 85 ea 94 b7
       -3.2791762e-05 0.00026987866 9.522896e-05 -1.7752182e-05
000120 fa 76 bf b7 da 9e 00 00 42 6b 66 38 bb 53 00 80
       -2.2824377e-05 5.6985e-41 5.4936165e-05 -3.0037e-41
000130 6b 06 00 80 b4 8d 37 38 e1 bb a6 b7 3a a5 00 80
       -2.302e-42 4.376257e-05 -1.987623e-05 -5.9272e-41
000140 00 25 5c 38 74 ab 00 00 a7 df 8c 36 48 cd e6 b8
       5.2486546e-05 6.1506e-41 4.1983617e-06 -0.00011005491
000150 7b 9d b5 b3 94 49 83 b9 07 ef f4 b7 ae 84 00 00
       -8.457115e-08 -0.00025041087 -2.9198372e-05 4.7597e-41
000160 c3 88 00 00 55 ae 00 00 3f 06 00 00 54 8b 00 00
       4.9061e-41 6.2539e-41 2.24e-42 4.9982e-41
000170 6a 43 00 00 56 17 00 00 3e a7 00 00 ea 09 00 80
       2.4184e-41 8.371e-42 5.9995e-41 -3.556e-42
000180 df 0b 00 80 ba ab 00 80 66 75 00 00 4f ad 00 80
       -4.259e-42 -6.1604e-41 4.2115e-41 -6.2171e-41
000190 16 a4 00 80 bb 4a 00 00 b4 98 00 80 56 77 00 00
       -5.8863e-41 2.6808e-41 -5.478e-41 4.281e-41
0001a0 69 b2 00 00 f6 29 00 80 ce 99 00 00 8d 6d 00 80
       6.4002e-41 -1.5053e-41 5.5175e-41 -3.93e-41
0001b0 dd 9a 00 80 95 95 00 00 14 af 00 00 aa ac 00 00
       -5.5554e-41 5.366e-41 6.2806e-41 6.194e-41
0001c0 89 ac 00 80 61 37 00 00 8e 8b 00 80 c0 b1 00 00
       -6.1894e-41 1.9866e-41 -5.0063e-41 6.3765e-41
0001d0 88 37 00 00 75 ae 00 80 47 79 00 00 f3 b0 00 00
       1.9921e-41 -6.2583e-41 4.3506e-41 6.3477e-41
0001e0 8a 49 00 00 12 38 00 80 82 3b 00 80 aa ae 00 00
       2.6381e-41 -2.0114e-41 -2.1347e-41 6.2658e-41
0001f0 b8 59 00 00 96 89 00 80 b0 57 00 00 f0 b2 00 00
       3.2185e-41 -4.9357e-41 3.1456e-41 6.419e-41
000200 76 0a 00 80 bc b1 00 80 a3 39 00 80 5d 3f 00 00
       -3.753e-42 -6.3759e-41 -2.0676e-41 2.273e-41
000210 ea a7 00 00 30 42 52 b7 5d af 00 00 78 38 b9 3b
       6.0236e-41 -1.2532386e-05 6.2908e-41 0.0056524836
000220 f0 87 59 bb 6d ab a1 bb e7 8f 3e bb a7 0a a7 3b
       -0.0033192597 -0.0049337656 -0.0029077472 0.0050977054
000230 82 6f 00 00 52 cc 1d bc 27 51 4d aa 9a b2 00 00
       4.0001e-41 -0.009631233 -1.8235813e-13 6.407e-41
000240 19 94 cf bb 35 89 04 bc 36 18 00 80 2c dc 3c bc
       -0.0063347933 -0.008089353 -8.685e-42 -0.011527102
000250 ec b2 00 00 66 27 c6 bc b3 77 a0 bc 57 7c c1 39
       6.4185e-41 -0.024188709 -0.019588327 0.0003690447
000260 93 e9 1b 3d 32 9d 00 bb 6c b1 00 00 78 1b 00 80
       0.03806455 -0.0019624946 6.3647e-41 -9.854e-42
000270 8c 89 00 00 44 6b 00 00 9e 8a 00 80 db 8f 00 00
       4.9343e-41 3.848e-41 -4.9726e-41 5.1606e-41
000280 c0 b2 00 00 0c a5 00 80 76 10 00 80 13 b2 00 80
       6.4123e-41 -5.9208e-41 -5.905e-42 -6.3881e-41
000290 33 0b 00 00 91 b3 00 00 85 b1 00 80 47 b2 00 00
       4.018e-42 6.4416e-41 -6.3682e-41 6.3954e-41
0002a0 13 b1 00 00 87 2d 00 80 17 21 00 80 3e 7a 00 80
       6.3522e-41 -1.6332e-41 -1.187e-41 -4.3852e-41
0002b0 30 b3 00 80 6b 8a 00 80 00 9b 00 80 b9 b0 00 80
       -6.428e-41 -4.9655e-41 -5.5604e-41 -6.3396e-41
0002c0 f1 0c 00 00 0f b0 00 80 6b ad 00 80 2a 78 00 80
       4.643e-42 -6.3158e-41 -6.221e-41 -4.3107e-41
0002d0 13 49 00 00 4c 8d 00 00 0d 36 00 00 5e 96 00 80
       2.6214e-41 5.0688e-41 1.939e-41 -5.3942e-41
0002e0 9f 99 00 80 76 b2 00 00 b2 84 00 00 91 b3 00 00
       -5.5109e-41 6.402e-41 4.7602e-41 6.4416e-41
0002f0 ed a1 00 80 3b b2 00 80 1d a6 00 00 cf 0a 00 00
       -5.8088e-41 -6.3937e-41 5.959e-41 3.877e-42
000300 03 7b 00 00 41 27 00 80 57 49 00 00 b3 b2 00 00
       4.4128e-41 -1.4082e-41 2.631e-41 6.4105e-41
000310 bb a5 00 00 e9 8a 00 00 5a b3 00 80 16 a2 00 80
       5.9453e-41 4.9832e-41 -6.4339e-41 -5.8145e-41
000320 82 e3 3f 38 3f 5d 00 80 a7 a5 9b 3b 92 17 a8 bb
       4.574983e-05 -3.345e-41 0.004749972 -0.005129763
000330 76 59 d9 bb 9e 97 29 3b 4d f1 87 3b 4c 96 00 00
       -0.006632979 0.0025877724 0.0041486383 5.3916e-41
000340 ac f0 e5 ba a2 a6 20 93 c2 a0 00 00 e5 e1 ae bb
       -0.0017543039 -2.0276995e-27 5.7669e-41 -0.0053369873
000350 02 bd 7d 3a de ac 00 80 40 0f a6 bb 65 36 00 80
       0.00096793484 -6.2013e-41 -0.005067736 -1.9513e-41
000360 a7 01 e1 bb 93 a0 51 bb ca bf bf 39 d3 2c 71 3c
       -0.006866652 -0.0031986579 0.00036573253 0.01472016
000370 cd 93 61 bb 6d b2 00 80 14 b1 00 00 07 b1 00 80
       -0.0034420372 -6.4007e-41 6.3524e-41 -6.3505e-41
000380 12 5c 00 00 c8 a4 00 00 cd a8 00 00 70 ab 00 80
       3.3029e-41 5.9112e-41 6.0554e-41 -6.15e-41
000390 46 b2 00 00 56 b0 00 00 b6 6a 00 80 1c 7c 00 00
       6.3952e-41 6.3257e-41 -3.828e-41 4.4522e-41
0003a0 98 88 00 80 d8 85 00 80 6b 60 00 00 12 96 00 00
       -4.9e-41 -4.8014e-41 3.4588e-41 5.3835e-41
0003b0 c6 b2 00 00 92 aa 00 80 ad 97 00 00 00 b1 00 80
       6.4132e-41 -6.1189e-41 5.4411e-41 -6.3496e-41
0003c0 e2 a4 00 00 4f ae 00 00 cd ad 00 80 49 b0 00 80
       5.9149e-41 6.253e-41 -6.2348e-41 -6.3239e-41
0003d0 b9 a5 00 00 22 b3 00 00 48 98 00 00 a4 ae 00 80
       5.945e-41 6.4261e-41 5.4628e-41 -6.2649e-41
0003e0 c5 7e 00 80 71 ae 00 00 25 90 00 00 fa 95 00 00
       -4.5476e-41 6.2578e-41 5.171e-41 5.3801e-41
0003f0 54 5c 00 80 3b 1e 00 00 67 a0 00 00 e0 7a 00 00
       -3.3121e-41 1.0845e-41 5.7542e-41 4.4079e-41

gats.0.lin_l.bias f4 [335]
000000 dd 35 22 ba e2 5d bf b7 08 83 52 ba 74 90 15 3b
       -0.0006187836 -2.2812692e-05 -0.00080303894 0.0022821696
000010 95 79 0b 3d 4e 1c 66 3a 87 34 7c 3c 7e 78 53 3d
       0.034051497 0.00087780214 0.015393383 0.051628582
000020 f5 09 a0 37 e5 93 00 80 98 22 00 80 3d 50 00 00
       1.9078123e-05 -5.3055e-41 -1.241e-41 2.8784e-41
000030 1d a6 49 3a b7 5e d5 39 14 c8 31 3a a1 19 4c 39
       0.00076922943 0.00040697094 0.0006781828 0.00019464504
000040 7a 71 00 80 6c 2e 00 00 e7 63 54 3c 32 6e 00 00
       -4.0708e-41 1.6653e-41 0.012963272 3.953e-41
000050 04 61 00 80 84 b3 00 80 6c 2e 00 00 c1 3b c7 b9
       -3.4803e-41 -6.4398e-41 1.6653e-41 -0.00038000758
000060 85 9a 00 00 79 f1 67 3d ea af 00 80 72 9b 1a 3b
       5.5431e-41 0.05662677 -6.3106e-41 0.0023591188
000070 e6 5a cf 38 9d f8 2a ba c7 27 00 80 9a 94 a7 39
       9.88746e-05 -0.00065220316 -1.427e-41 0.0003196344
000080 f1 6c 00 00 32 44 00 00 5d 92 00 80 8a 81 9b 3b
       3.9081e-41 2.4464e-41 -5.2505e-41 0.004745667
000090 81 bd d4 37 f0 26 00 00 8b 9e e2 b9 2e ad e4 b6
       2.5360614e-05 1.3968e-41 -0.00043224203 -6.8150903e-06
0000a0 d9 a4 d2 3a 9b f4 25 3b 1b 56 6a 3b 17 5e 0e 3b
       0.0016070857 0.0025322798 0.003575689 0.0021723562
0000b0 03 ba 0f a1 f4 6f 0c b7 91 2e 10 38 3b 21 ac 3c
       -4.869647e-19 -8.370716e-06 3.4375644e-05 0.02101194
0000c0 c6 56 51 3d 74 72 00 80 48 7f 00 80 e2 45 7f 39
       0.051108144 -4.1058e-41 -4.566e-41 0.00024344728
0000d0 33 ef 1d 3d 46 a9 00 80 2b 6a f6 3c 16 6c 00 00
       0.038558196 -6.0724e-41 0.030079922 3.8774e-41
0000e0 a2 77 00 80 f3 42 00 00 c0 0a 35 3a 03 18 00 80
       -4.2916e-41 2.4017e-41 0.0006906204 -8.614e-42
0000f0 d6 07 9a 3a 11 57 3e 3a e7 32 00 80 05 e6 30 39
       0.0011751603 0.0007260899 -1.826e-41 0.00016870357
000100 23 77 00 00 2b 60 00 00 79 b6 4d b7 14 cf 21 ba
       4.2738e-41 3.4499e-41 -1.2261437e-05 -0.00061725196
000110 bf 42 bf b7 ed 6b 52 ba d9 49 15 3b 01 db 0b 3d
       -2.2800055e-05 -0.00080269465 0.0022779612 0.034144405
000120 4a 92 66 3a bd c3 7b 3c b0 0b 54 3d c0 1e a0 37
       0.00087956025 0.015366492 0.05176896 1.9087805e-05
000130 e5 93 00 80 98 22 00 80 3d 50 00 00 c7 1a 49 3a
       -5.3055e-41 -1.241e-41 2.8784e-41 0.00076715316
000140 72 32 d5 39 c7 df 31 3a b2 1c 4c 39 7a 71 00 80
       0.0004066411 0.00067853596 0.00019465646 -4.0708e-41
000150 6c 2e 00 00 63 66 54 3c 32 6e 00 00 cd 45 00 80
       1.6653e-41 0.012963864 3.953e-41 -2.504e-41
000160 84 b3 00 80 48 31 00 00 6b 5b d4 b9 8d ae 00 00
       -6.4398e-41 1.7679e-41 -0.00040503903 6.2617e-41
000170 01 cd 68 3d ea af 00 80 33 cf 1a 3b 90 6a cf 38
       0.056836132 -6.3106e-41 0.0023622036 9.890378e-05
000180 12 19 2e ba c7 27 00 80 8e e4 a7 39 f1 6c 00 00
       -0.0006641309 -1.427e-41 0.0003202301 3.9081e-41
000190 32 44 00 00 96 76 00 80 b5 88 9b 3b 75 cb 68 37
       2.4464e-41 -4.254e-41 0.0047465214 1.3875649e-05
0001a0 f0 26 00 00 d5 80 f3 b9 2e ad e4 b6 a4 1d d5 3a
       1.3968e-41 -0.0004644456 -6.8150903e-06 0.0016259444
0001b0 3c e9 25 3b 3e cd 6b 3b 16 49 0e 3b 03 ba 0f a1
       0.002531602 0.0035980488 0.0021711043 -4.869647e-19
0001c0 5d 5c 0c b7 52 63 10 38 fb d7 ac 3c a7 dd 51 3d
       -8.366155e-06 3.4424775e-05 0.021099081 0.051236775
0001d0 74 72 00 80 48 7f 00 80 71 40 7f 39 fc 38 1e 3d
       -4.1058e-41 -4.566e-41 0.00024342701 0.038628563
0001e0 22 aa 00 80 eb 02 f7 3c 16 6c 00 00 a2 77 00 80
       -6.1032e-41 0.030152759 3.8774e-41 -4.2916e-41
0001f0 f3 42 00 00 f9 f7 34 3a 03 18 00 80 d2 1d 9a 3a
       2.4017e-41 0.0006903406 -8.614e-42 0.0011758155
000200 a9 d6 3d 3a e7 32 00 80 4d e1 30 39 23 77 00 00
       0.00072417647 -1.826e-41 0.00016868599 4.2738e-41
000210 2b 60 00 00 a6 58 4d b7 7c 65 25 ba 8a 1b bf b7
       3.4499e-41 -1.2239592e-05 -0.0006309373 -2.2781798e-05
000220 f5 62 56 ba e6 47 15 3b f4 cd 0b 3d fd f2 65 3a
       -0.0008178198 0.002277845 0.03413196 0.0008771865
000230 66 77 7b 3c 32 c1 53 3d 0b fa 9f 37 e5 93 00 80
       0.015348291 0.051697917 1.9070712e-05 -5.3055e-41
000240 98 22 00 80 3d 50 00 00 97 e0 48 3a 8f d0 d4 39
       -1.241e-41 2.8784e-41 0.0007662861 0.0004059118
000250 f7 93 31 3a 8b 01 4c 39 7a 71 00 80 43 2c 00 00
       0.00067740626 0.00019455531 -4.0708e-41 1.5878e-41
000260 f9 65 54 3c b4 6b 00 00 cd 45 00 80 84 b3 00 80
       0.012963765 3.8637e-41 -2.504e-41 -6.4398e-41
000270 48 31 00 00 35 7f df b9 91 9a 00 00 df 74 68 3d
       1.7679e-41 -0.0004262865 5.5448e-41 0.056752082
000280 ea af 00 80 45 b9 1a 3b 7e 54 cf 38 b6 15 2c ba
       -6.3106e-41 0.0023608964 9.886267e-05 -0.00065645145
000290 c7 27 00 80 84 34 a8 39 f1 6c 00 00 32 44 00 00
       -1.427e-41 0.00032082584 3.9081e-41 2.4464e-41
0002a0 9d 01 00 00 6f 83 9b 3b c5 ca d0 36 f0 26 00 00
       5.79e-43 0.0047458927 6.2224885e-06 1.3968e-41
0002b0 5e f3 f3 b9 2e ad e4 b6 92 d2 d9 3a fb ee 25 3b
       -0.00046529894 -6.8150903e-06 0.0016618541 0.0025319445
0002c0 0d e7 6a 3b b3 56 0e 3b 03 ba 0f a1 5d 5c 0c b7
       0.0035843283 0.0021719157 -4.869647e-19 -8.366155e-06
0002d0 29 6a 10 38 c6 2b ac 3c 49 37 51 3d 74 72 00 80
       3.4431145e-05 0.021016967 0.051078115 -4.1058e-41
0002e0 48 7f 00 80 b1 52 7f 39 58 c2 1d 3d 46 a9 00 80
       -4.566e-41 0.000243495 0.03851542 -6.0724e-41
0002f0 a0 4c f6 3c 16 6c 00 00 a2 77 00 80 f3 42 00 00
       0.030065835 3.8774e-41 -4.2916e-41 2.4017e-41
000300 d2 f3 34 3a 03 18 00 80 17 20 9a 3a ff 33 3e 3a
       0.0006902787 -8.614e-42 0.0011758831 0.0007255673
000310 e7 32 00 80 b1 e7 30 39 23 77 00 00 2b 60 00 00
       -1.826e-41 0.0001687098 4.2738e-41 3.4499e-41
000320 30 87 4d b7 5e ca 25 ba 40 38 bf b7 1a b8 52 ba
       -1.2250428e-05 -0.00063244055 -2.2795168e-05 -0.00080382975
000330 92 d6 14 3b 6c 39 0b 3d 01 54 65 3a 10 b4 7b 3c
       0.0022710902 0.03399031 0.00087481743 0.015362754
000340 36 5e 53 3d 82 f9 9f 37 7a 89 00 80 98 22 00 80
       0.05160352 1.9070463e-05 -4.9317e-41 -1.241e-41
000350 3d 50 00 00 26 5c 49 3a 01 d5 d4 39 3f 52 31 3a
       2.8784e-41 0.00076812727 0.0004059449 0.000676427
000360 7b dc 4b 39 7a 71 00 80 b4 2a 00 00 76 62 54 3c
       0.00019441724 -4.0708e-41 1.5319e-41 0.012962928
000370 36 6e 00 00 98 4f 00 80 84 b3 00 80 d2 35 00 00
       3.9536e-41 -2.8553e-41 -6.4398e-41 1.9307e-41
000380 2c 17 d0 b9 c9 b2 00 00 c1 f7 66 3d ea af 00 80
       -0.00039690116 6.4136e-41 0.05638862 -6.3106e-41
000390 0c 1c 1a 3b 14 41 cf 38 0b 4e 2a ba c7 27 00 80
       0.0023515252 9.882651e-05 -0.00064966147 -1.427e-41
0003a0 ce 72 a7 39 f1 6c 00 00 32 44 00 00 15 11 00 00
       0.00031938258 3.9081e-41 2.4464e-41 6.128e-42
0003b0 1f 7f 9b 3b c4 12 51 36 f0 26 00 00 aa f8 e7 b9
       0.0047453786 3.115435e-06 1.3968e-41 -0.00044245023
0003c0 2e ad e4 b6 46 4d e3 3a f5 e9 25 3b b8 22 6a 3b
       -6.8150903e-06 0.0017341755 0.0025316451 0.003572626
0003d0 c8 45 0e 3b 03 ba 0f a1 29 64 0c b7 42 53 10 38
       0.0021709073 -4.869647e-19 -8.367971e-06 3.4409815e-05
0003e0 69 68 ab 3c aa a2 50 3d 74 72 00 80 48 7f 00 80
       0.02092381 0.05093638 -4.1058e-41 -4.566e-41
0003f0 53 60 7f 39 7e d1 1c 3d 66 aa 00 80 99 dc f4 3c
       0.00024354579 0.038285725 -6.1127e-41 0.029890345

gats.0.lin_r.weight f4 [335, 67]
000000 0c 68 00 00 3c 71 f9 37 cf 45 5d 36 fa e1 73 35
       3.7325e-41 2.9735842e-05 3.29722e-06 9.0853393e-07
000010 85 ee 05 38 6d 8d f0 36 91 50 00 80 68 2b 68 37
       3.193181e-05 7.1690215e-06 -2.8902e-41 1.3838384e-05
000020 f2 a6 00 00 01 ac 00 80 0d b2 00 00 59 99 00 80
       5.9889e-41 -6.1703e-41 6.3873e-41 -5.5011e-41
000030 3d aa 00 00 48 cf 97 b6 63 b0 00 00 9c 66 2c b7
       6.107e-41 -4.5242814e-06 6.3276e-41 -1.02758895e-05
000040 ef 6d 00 00 60 7c 00 00 52 e6 0d b8 87 02 bd b6
       3.9437e-41 4.4617e-41 -3.3831522e-05 -5.632933e-06
000050 b1 86 00 00 fe 60 00 00 6d 7b 00 00 98 a7 00 80
       4.8318e-41 3.4794e-41 4.4277e-41 -6.0121e-41
000060 3c b1 00 00 80 47 00 80 b6 9b 00 00 3d a5 00 00
       6.358e-41 -2.565e-41 5.5859e-41 5.9276e-41
000070 d2 b1 00 00 5c ae 00 00 c5 b2 00 00 0a b2 00 00
       6.379e-41 6.2548e-41 6.413e-41 6.3868e-41
000080 e3 9c 00 00 04 a7 00 00 5c 84 00 00 09 a7 00 80
       5.628e-41 5.9914e-41 4.7482e-41 -5.9921e-41
000090 b3 ab 00 00 80 b2 00 80 96 8a 00 80 25 8a 00 80
       6.1594e-41 -6.4034e-41 -4.9715e-41 -4.9557e-41
0000a0 69 b3 00 00 57 a2 00 80 02 46 00 00 54 a2 00 00
       6.436e-41 -5.8237e-41 2.5114e-41 5.8232e-41
0000b0 6f 6d 00 00 03 6f 00 80 15 9a 00 00 08 94 00 80
       3.9257e-41 -3.9824e-41 5.5274e-41 -5.3104e-41
0000c0 3c 99 00 80 28 b0 00 80 50 69 00 80 66 b2 00 80
       -5.497e-41 -6.3193e-41 -3.7779e-41 -6.3997e-41
0000d0 5a 94 00 80 65 4a 00 80 70 78 00 80 ad 6b 00 00
       -5.3219e-41 -2.6688e-41 -4.3205e-41 3.8627e-41
0000e0 b0 39 00 00 ee 56 00 00 88 7d 00 00 c4 0d 00 80
       2.0694e-41 3.1184e-41 4.5032e-41 -4.938e-42
0000f0 5a 66 00 80 3e 87 00 00 bb 96 00 80 7c ab 00 80
       -3.6717e-41 4.8516e-41 -5.4072e-41 -6.1517e-41
000100 2b b2 00 80 4e 4b 00 00 74 b3 00 80 74 ac 00 80
       -6.3915e-41 2.7014e-41 -6.4376e-41 -6.1865e-41
000110 61 2e 00 80 73 7a b8 b5 2d aa 00 00 b4 27 42 b3
       -1.6638e-41 -1.3744706e-06 6.1048e-41 -4.5205255e-08
000120 ff ac 00 00 33 10 00 80 74 23 00 00 9f 8b 00 80
       6.206e-41 -5.811e-42 1.2718e-41 -5.0087e-41
000130 4e ae 00 80 a8 5b 00 80 63 ae 00 80 e3 9a 00 00
       -6.2529e-41 -3.288e-41 -6.2558e-41 5.5563e-41
000140 68 a0 00 00 f0 35 00 00 90 90 00 00 08 ac 00 00
       5.7543e-41 1.9349e-41 5.1859e-41 6.1713e-41
000150 c9 a5 00 00 e3 a5 00 00 62 97 00 80 48 7a 00 80
       5.9473e-41 5.9509e-41 -5.4306e-41 -4.3866e-41
000160 c8 b1 00 00 6e 6a 00 00 ae 8c 00 80 e1 a5 00 00
       6.3776e-41 3.818e-41 -5.0466e-41 5.9506e-41
000170 6c 7f 00 00 4b b2 00 00 6d 3a 00 80 8f b3 00 80
       4.571e-41 6.396e-41 -2.0959e-41 -6.4413e-41
000180 87 6c 00 80 bc 6c 00 80 06 88 00 00 a4 a4 00 00
       -3.8932e-41 -3.9007e-41 4.8796e-41 5.9062e-41
000190 39 3b 00 80 5a 7c 00 80 bd 26 00 80 45 6b 00 80
       -2.1245e-41 -4.4609e-41 -1.3897e-41 -3.8481e-41
0001a0 0d ae 00 80 ff b2 00 00 bf b1 00 80 e6 a4 00 00
       -6.2438e-41 6.4212e-41 -6.3763e-41 5.9154e-41
0001b0 66 6c 00 80 d6 6c 00 80 c7 7b 00 80 1f 65 00 80
       -3.8886e-41 -3.9043e-41 -4.4403e-41 -3.6275e-41
0001c0 40 1d 00 80 27 11 00 80 5c b3 00 80 06 6c 00 80
       -1.0493e-41 -6.153e-42 -6.4342e-41 -3.8752e-41
0001d0 ca 4c 00 80 7c a5 00 00 10 4f 00 00 ff a4 00 00
       -2.7547e-41 5.9365e-41 2.8362e-41 5.919e-41
0001e0 a6 a2 00 00 cf 9a 00 80 da 9d 00 00 ce 8b 00 80
       5.8347e-41 -5.5535e-41 5.6626e-41 -5.0152e-41
0001f0 a2 45 00 00 81 a3 00 80 ea 7e 00 80 2c 81 00 80
       2.498e-41 -5.8654e-41 -4.5528e-41 -4.6338e-41
000200 31 24 00 00 ab 84 00 00 0c 5a 00 00 75 b2 00 00
       1.2983e-41 4.7592e-41 3.2303e-41 6.4018e-41
000210 f2 5b 00 00 9e b3 00 80 cc b2 00 00 3d 71 f9 37
       3.2984e-41 -6.4435e-41 6.414e-41 2.9735844e-05
000220 92 ba 02 37 fa e1 73 35 fb 08 2f 38 6d 8d f0 36
       7.792043e-06 9.0853393e-07 4.1731615e-05 7.1690215e-06
000230 91 50 00 80 7d d3 e9 37 3c a4 00 00 28 b2 00 00
       -2.8902e-41 2.7874246e-05 5.8916e-41 6.391e-41
000240 70 ae 00 00 05 8a 00 00 9e a8 00 80 41 3b c8 b6
       6.2576e-41 4.9512e-41 -6.0488e-41 -5.9673625e-06
000250 a7 ae 00 80 19 66 2c b7 ef 6d 00 00 45 b2 00 80
       -6.2653e-41 -1.027577e-05 3.9437e-41 -6.3951e-41
000260 af 59 2e b8 7d b6 bd b6 aa ac 00 80 f4 7b 00 80
       -4.1568357e-05 -5.6538834e-06 -6.194e-41 -4.4466e-41
000270 73 77 00 80 01 b1 00 80 78 99 00 80 f7 31 00 80
       -4.285e-41 -6.3497e-41 -5.5054e-41 -1.7924e-41
000280 41 b2 00 80 56 b1 00 00 32 99 00 00 9e 8a 00 80
       -6.3945e-41 6.3616e-41 5.4956e-41 -4.9726e-41
000290 34 88 00 00 b3 9a 00 80 55 0d 00 00 72 a7 00 00
       4.886e-41 -5.5496e-41 4.783e-42 6.0068e-41
0002a0 5a 36 00 00 f5 a7 00 00 d3 3c 00 80 04 76 00 80
       1.9498e-41 6.0252e-41 -2.182e-41 -4.2336e-41
0002b0 b8 af 00 80 0b 79 00 00 c1 a7 00 80 44 9c 00 80
       -6.3036e-41 4.3422e-41 -6.0179e-41 -5.6058e-41
0002c0 9a a6 00 80 32 99 00 80 4c 9e 00 00 47 af 00 80
       -5.9765e-41 -5.4956e-41 5.6786e-41 -6.2878e-41
0002d0 da 1f 00 00 67 1a 00 80 2a 21 00 80 d7 28 00 00
       1.1426e-41 -9.471e-42 -1.1897e-41 1.465e-41
0002e0 d0 8a 00 00 32 7b 00 80 f9 8b 00 00 22 78 00 00
       4.9797e-41 -4.4194e-41 5.0213e-41 4.3096e-41
0002f0 9a 95 00 80 91 43 00 00 ca 6a 00 80 58 79 00 00
       -5.3667e-41 2.4238e-41 -3.8309e-41 4.353e-41
000300 a8 ac 00 00 9a a2 00 00 82 b1 00 00 b8 af 00 00
       6.1937e-41 5.833e-41 6.3678e-41 6.3036e-41
000310 c5 69 00 00 be 89 00 00 c8 7a 00 00 86 6a 00 80
       3.7943e-41 4.9413e-41 4.4046e-41 -3.8213e-41
000320 06 b3 00 00 e7 51 00 80 bd 40 4c 37 ec ba 6b b7
       6.4222e-41 -2.9381e-41 1.2174421e-05 -1.4050613e-05
000330 05 08 9b 35 87 5f e2 37 d9 68 00 80 33 5e 00 00
       1.1550734e-06 2.6985783e-05 -3.7612e-41 3.3792e-41
000340 bf b2 00 00 77 47 00 80 42 88 00 00 52 ac 00 80
       6.4122e-41 -2.5637e-41 4.888e-41 -6.1817e-41
000350 52 98 00 00 a4 44 00 80 30 4d aa b7 80 ac 00 80
       5.4642e-41 -2.4624e-41 -2.0301522e-05 -6.1881e-41
000360 48 1a d5 34 33 a9 00 00 f0 af 00 00 f2 07 00 00
       3.9693464e-07 6.0697e-41 6.3114e-41 2.85e-42
000370 9d 4e e6 b6 cf 2c 00 00 6d 79 00 00 36 3c 00 80
       -6.863686e-06 1.6074e-41 4.356e-41 -2.16e-41
000380 e6 77 00 00 01 52 00 80 65 96 00 80 5a b2 00 00
       4.3011e-41 -2.9417e-41 -5.3951e-41 6.398e-41
000390 a2 a6 00 80 c0 a6 00 00 24 5b 00 00 b0 61 00 00
       -5.9777e-41 5.9819e-41 3.2695e-41 3.5044e-41
0003a0 23 b2 00 80 64 aa 00 80 e9 a1 00 00 3d 67 00 00
       -6.3903e-41 -6.1125e-41 5.8082e-41 3.7035e-41
0003b0 08 3a 00 80 e7 1c 00 80 96 ac 00 00 e1 ae 00 80
       -2.0818e-41 -1.0368e-41 6.1912e-41 -6.2735e-41
0003c0 4f 3d 00 00 b3 ac 00 80 e1 3b 00 00 77 b2 00 80
       2.1993e-41 -6.1953e-41 2.148e-41 -6.4021e-41
0003d0 09 43 00 80 98 ae 00 80 c6 b1 00 00 dc 56 00 00
       -2.4048e-41 -6.2632e-41 6.3773e-41 3.1159e-41
0003e0 67 b2 00 80 ba 95 00 80 55 ac 00 80 1d b0 00 00
       -6.3999e-41 -5.3712e-41 -6.1821e-41 6.3178e-41
0003f0 db a2 00 00 31 79 00 80 ad b0 00 00 ca b1 00 00
       5.8422e-41 -4.3475e-41 6.338e-41 6.3779e-41

gats.0.lin_r.bias f4 [335]
000000 ef 96 80 37 fd 20 c4 b5 37 fc b8 37 f0 6e 91 b7
       1.5329073e-05 -1.4612739e-06 2.2051956e-05 -1.7337006e-05
000010 07 78 50 39 18 0d ea b4 e3 c4 5b 38 f2 3d 72 39
       0.0001988114 -4.3595423e-07 5.2397034e-05 0.00023101995
000020 57 8c 00 00 46 a0 00 80 cf 9a 00 80 92 71 00 00
       5.0344e-41 -5.7495e-41 -5.5535e-41 4.0741e-41
000030 df cc db b7 6f a0 e0 b7 de 3c 11 b8 f3 b4 1d b7
       -2.6202235e-05 -2.6777589e-05 -3.462738e-05 -9.40006e-06
000040 45 23 00 80 e9 3d 00 00 f5 70 bf 38 6b 8d 00 00
       -1.2652e-41 2.2209e-41 9.1286296e-05 5.0731e-41
000050 70 20 00 80 e0 9b 00 80 e1 9c 00 80 1f 6c b2 35
       -1.1636e-41 -5.5917e-41 -5.6278e-41 1.3293501e-06
000060 5d 63 00 80 40 32 cc 38 6c 47 00 00 22 c4 6b b8
       -3.5645e-41 9.736838e-05 2.5621e-41 -5.621103e-05
000070 99 e9 54 b6 36 94 5b 37 c7 93 00 80 f4 e4 69 b7
       -3.1726433e-06 1.3087925e-05 -5.3013e-41 -1.39411895e-05
000080 1e 86 00 00 c3 4a 00 80 c9 73 00 80 8e a7 7d 38
       4.8112e-41 -2.682e-41 -4.1536e-41 6.0475948e-05
000090 53 f9 1e 36 cc 0e 00 00 b9 3a 26 37 58 9f 00 00
       2.368896e-06 5.308e-42 9.9080435e-06 5.7162e-41
0000a0 96 5b d2 39 41 38 0c b8 32 b5 fd b7 3d d7 84 38
       0.00040122558 -3.343099e-05 -3.0244326e-05 6.334342e-05
0000b0 dc 5f 00 80 a3 13 00 00 30 ad 99 b7 1f db 96 39
       -3.4388e-41 7.044e-42 -1.8319668e-05 0.00028773487
0000c0 a2 16 1d 39 dc 99 00 00 75 06 00 80 60 70 a2 b7
       0.00014981118 5.5194e-41 -2.316e-42 -1.9364234e-05
0000d0 b7 f0 81 39 d4 9e 00 80 6b 60 99 39 ba 18 00 80
       0.00024784144 -5.6977e-41 0.0002925427 -8.87e-42
0000e0 73 14 00 00 ca 12 00 80 18 87 0a b8 fd 4f 00 00
       7.336e-42 -6.74e-42 -3.302758e-05 2.8694e-41
0000f0 b7 be 87 38 ac 40 a0 b7 e6 ae 00 00 c7 98 5a b7
       6.472825e-05 -1.9103602e-05 6.2742e-41 -1.3029384e-05
000100 28 99 00 80 d1 b1 00 00 f6 52 00 00 e8 7c 60 37
       -5.4942e-41 6.3789e-41 2.9761e-41 1.3380522e-05
000110 86 ee 96 b5 4e eb b8 37 13 c0 a0 b7 ce 3d 4d 39
       -1.124529e-06 2.2044082e-05 -1.9162928e-05 0.00019573348
000120 75 ca 0f 36 0b 57 85 38 46 47 72 39 44 9b 00 00
       2.1426506e-06 6.358147e-05 0.0002310547 5.5699e-41
000130 e0 a2 00 80 cf 9a 00 80 92 71 00 00 db 77 cb b7
       -5.8429e-41 -5.5535e-41 4.0741e-41 -2.4255298e-05
000140 95 eb e3 b7 00 e0 0e b8 b1 4f 32 b7 46 2f 00 80
       -2.717021e-05 -3.4064054e-05 -1.0628181e-05 -1.6959e-41
000150 e9 3d 00 00 ce c7 b4 38 6b 8d 00 00 70 20 00 80
       2.2209e-41 8.6202854e-05 5.0731e-41 -1.1636e-41
000160 e0 9b 00 80 a3 56 00 80 60 19 21 35 5d 63 00 80
       -5.5917e-41 -3.108e-41 6.00141e-07 -3.5645e-41
000170 f7 db d9 38 6c 47 00 00 70 d9 6c b8 28 f7 54 b6
       0.00010388338 2.5621e-41 -5.646929e-05 -3.1734326e-06
000180 e7 61 44 37 4e 48 00 00 62 11 60 b7 27 ab 00 00
       1.1705305e-05 2.5938e-41 -1.3355488e-05 6.1398e-41
000190 45 a6 00 80 63 a3 00 80 37 dd 79 38 d0 b2 66 36
       -5.9646e-41 -5.8612e-41 5.957225e-05 3.4376753e-06
0001a0 cc 0e 00 00 5b 0d 14 37 58 9f 00 00 03 ad d2 39
       5.308e-42 8.824597e-06 5.7162e-41 0.00040183225
0001b0 9b ee 0c b8 b1 3b 12 b8 ef 4a 75 38 b3 45 00 80
       -3.360082e-05 -3.4864705e-05 5.848234e-05 -2.5003e-41
0001c0 bc aa 00 00 35 a0 99 b7 ba 57 95 39 3a 1e 18 39
       6.1248e-41 -1.8313624e-05 0.00028484856 0.0001450711
0001d0 dc 99 00 00 45 50 00 80 9f a8 a7 b7 41 62 81 39
       5.5194e-41 -2.8795e-41 -1.9986472e-05 0.00024678002
0001e0 30 3e 00 00 b3 97 9c 39 07 35 00 00 35 8a 00 00
       2.2309e-41 0.00029867663 1.9023e-41 4.958e-41
0001f0 1a 35 00 00 7f 43 0f b8 b2 04 00 00 19 db 8a 38
       1.9049e-41 -3.4156717e-05 1.684e-42 6.621163e-05
000200 ac 7e a6 b7 e6 ae 00 00 32 c0 63 b7 b2 ac 00 80
       -1.9847728e-05 6.2742e-41 -1.3575003e-05 -6.1951e-41
000210 61 0b 00 00 3a 37 00 80 08 34 85 37 31 23 c4 b5
       4.082e-42 -1.9812e-41 1.5879064e-05 -1.461338e-06
000220 3d 65 b7 37 3a c8 92 b7 12 e9 4b 39 81 43 0b 36
       2.1862443e-05 -1.7497794e-05 0.00019446414 2.0751907e-06
000230 11 f1 82 38 ab 70 6d 39 6f 9c 00 00 46 a0 00 80
       6.243785e-05 0.00022644053 5.6118e-41 -5.7495e-41
000240 cf 9a 00 80 92 71 00 00 bb 15 db b7 b7 d6 d7 b7
       -5.5535e-41 4.0741e-41 -2.6116953e-05 -2.5729982e-05
000250 34 61 29 b8 d7 b4 1d b7 b9 a4 00 00 e9 3d 00 00
       -4.0383267e-05 -9.400034e-06 5.9091e-41 2.2209e-41
000260 98 6f bc 38 6b 8d 00 00 70 20 00 80 e0 9b 00 80
       8.9853245e-05 5.0731e-41 -1.1636e-41 -5.5917e-41
000270 a3 56 00 80 74 70 a1 35 d3 62 00 80 b6 08 d8 38
       -3.108e-41 1.2028163e-06 -3.5451e-41 0.00010301305
000280 6c 47 00 00 18 35 6b b8 e1 cb a1 b6 5f 1f 2d 37
       2.5621e-41 -5.6077813e-05 -4.8219085e-06 1.0318908e-05
000290 d2 60 00 80 ec 13 61 b7 f7 47 00 80 0f 0d 00 80
       -3.4733e-41 -1.34156835e-05 -2.5816e-41 -4.685e-42
0002a0 38 14 00 80 42 a6 7b 38 a7 b3 f3 35 cc 0e 00 00
       -7.253e-42 5.9997903e-05 1.8157197e-06 5.308e-42
0002b0 e5 ee 22 37 1c 8a 00 00 77 f0 d1 39 d1 e6 0a b8
       9.711574e-06 4.9544e-41 0.00040042747 -3.311673e-05
0002c0 92 58 0b b8 b6 a8 80 38 6d 49 00 80 5b 82 00 00
       -3.322267e-05 6.1349405e-05 -2.634e-41 4.6763e-41
0002d0 94 16 97 b7 a5 b3 93 39 c4 5a 17 39 dc 99 00 00
       -1.8011116e-05 0.0002817187 0.00014434295 5.5194e-41
0002e0 45 50 00 80 3a 5a a2 b7 01 d0 7e 39 de 8f 00 80
       -2.8795e-41 -1.935392e-05 0.00024300815 -5.161e-41
0002f0 7b 1d 9c 39 87 6a 00 80 5f 52 00 80 0a 4d 00 80
       0.00029776603 -3.8215e-41 -2.9549e-41 -2.7636e-41
000300 9e 6d 0b b8 b2 04 00 00 aa 50 87 38 39 16 a3 b7
       -3.324227e-05 1.684e-42 6.4523265e-05 -1.9441462e-05
000310 e6 ae 00 00 e7 79 4f b7 4b 6b 00 00 d1 b1 00 00
       6.2742e-41 -1.2366544e-05 3.849e-41 6.3789e-41
000320 ea 2f 00 80 96 4c ab 37 98 fc 03 b6 cd a2 a4 37
       -1.7188e-41 2.0420452e-05 -1.966755e-06 1.9626134e-05
000330 48 b0 8a b7 00 7a 58 39 b4 2d 3d 35 35 fe 78 38
       -1.653297e-05 0.00020644814 7.0474493e-07 5.9364556e-05
000340 cc 43 6d 39 4d 89 00 00 93 b2 00 00 cf 9a 00 80
       0.00022627338 4.9254e-41 6.406e-41 -5.5535e-41
000350 92 71 00 00 10 a8 ff b7 d0 a8 db b7 f8 8f 19 b8
       4.0741e-41 -3.0476629e-05 -2.6185444e-05 -3.6612124e-05
000360 85 9d 1c b7 ec 06 00 00 e9 3d 00 00 37 a2 bf 38
       -9.335e-06 2.483e-42 2.2209e-41 9.1378046e-05
000370 d5 0b 00 80 70 20 00 80 e0 9b 00 80 93 50 00 00
       -4.245e-42 -1.1636e-41 -5.5917e-41 2.8905e-41
000380 76 b1 2a 36 5d 64 00 80 23 e5 c6 38 6c 47 00 00
       2.543527e-06 -3.6004e-41 9.484056e-05 2.5621e-41
000390 44 06 6b b8 e9 23 9a b5 08 7d 73 37 7d 8e 00 00
       -5.60342e-05 -1.1484345e-06 1.451304e-05 5.1115e-41
0003a0 ca f0 83 b7 f4 3c 00 80 5a 6d 00 80 f0 03 00 80
       -1.5728543e-05 -2.1866e-41 -3.9228e-41 -1.413e-42
0003b0 a1 16 7d 38 ad d3 59 36 cc 0e 00 00 6e 34 59 37
       6.0340975e-05 3.2458731e-06 5.308e-42 1.2946415e-05
0003c0 b5 8b 00 00 21 d5 d2 39 48 9d 07 b8 9b 19 f6 b7
       5.0117e-41 0.00040213115 -3.2332988e-05 -2.9337409e-05
0003d0 2b e2 8d 38 07 5e 00 80 e1 15 00 00 0a b1 99 b7
       6.765531e-05 -3.373e-41 7.849e-42 -1.8321462e-05
0003e0 ff 51 96 39 21 af 25 39 dc 99 00 00 10 a8 00 00
       0.0002867132 0.00015800867 5.5194e-41 6.029e-41
0003f0 97 7e 91 b7 39 cb 76 39 1f 9f 00 80 37 2b 96 39
       -1.7344295e-05 0.00023536095 -5.7082e-41 0.00028642427

gats.0.lin_edge.weight f4 [335, 1]
000000 58 4f 57 38 e1 8c 1f b5 bc 3f 67 38 a6 7a 87 b6
       5.133389e-05 -5.943712e-07 5.513405e-05 -4.0375917e-06
000010 91 4e 1e 39 9f 21 d8 37 6e 1b da b6 52 cd a3 39
       0.00015097322 2.5764863e-05 -6.5000995e-06 0.00031242758
000020 06 2e 00 00 66 a7 00 80 a2 1d 00 80 55 98 00 00
       1.651e-41 -6.0051e-41 -1.063e-41 5.4646e-41
000030 8e 39 3d b7 09 1b 7a b7 15 fa a3 b7 4d 60 ac 35
       -1.1278678e-05 -1.4907456e-05 -1.9547568e-05 1.2843026e-06
000040 af 1c 00 00 8b 23 00 80 ec fb 0d b8 1e 58 00 00
       1.029e-41 -1.275e-41 -3.385164e-05 3.161e-41
000050 70 20 00 80 65 0a 00 00 e7 66 00 80 d2 d0 63 38
       -1.1636e-41 3.729e-42 -3.6914e-41 5.4315497e-05
000060 07 37 00 80 e4 c2 2d 39 73 4d 00 80 6e b8 a5 b7
       -1.974e-41 0.00016571168 -2.7784e-41 -1.9755415e-05
000070 1c 0c 6e b7 a8 73 54 38 4e 84 00 80 d2 85 8c b6
       -1.4188725e-05 5.0652452e-05 -4.7462e-41 -4.187904e-06
000080 76 a9 00 00 fa 05 00 00 ff b1 00 80 fd 72 13 38
       6.0791e-41 2.144e-42 -6.3853e-41 3.5154622e-05
000090 2b eb 9c 38 02 11 00 80 ec 89 59 38 ad 86 00 00
       7.482463e-05 -6.101e-42 5.186528e-05 4.8313e-41
0000a0 9e cb b8 39 30 9d 0f 37 3c d4 1c 35 dc 89 0a b7
       0.00035246921 8.560062e-06 5.842337e-07 -8.257539e-06
0000b0 6b 57 00 00 fd 15 00 80 f4 f1 89 b7 3f d1 db 38
       3.136e-41 -7.888e-42 -1.644434e-05 0.00010481709
0000c0 21 bc a5 39 c0 40 00 80 7a 6a 00 00 ab a7 c7 b7
       0.0003161142 -2.3228e-41 3.8197e-41 -2.3800725e-05
0000d0 9e e3 fc 39 b4 72 00 80 30 9c 0d 39 fd 84 00 00
       0.00048234774 -4.1148e-41 0.00013504992 4.7707e-41
0000e0 7c 4b 00 80 5b 98 00 00 6d 50 9a b7 b6 2b 00 80
       -2.7079e-41 5.4655e-41 -1.8395682e-05 -1.568e-41
0000f0 b2 b2 13 37 05 04 5c b6 34 93 00 80 00 ca a4 b6
       8.8034885e-06 -3.2784894e-06 -5.2807e-41 -4.9110968e-06
000100 e3 58 00 80 43 9c 00 80 27 3f 00 00 cf 71 53 38
       -3.1887e-41 -5.6056e-41 2.2655e-41 5.0412313e-05
000110 33 17 ff b4 f3 0f 65 38 06 a8 b8 b6 4e 79 0f 39
       -4.751433e-07 5.461271e-05 -5.503188e-06 0.00013682732
000120 98 c8 ef 37 9d 9e 28 b7 da 73 a3 39 06 2e 00 00
       2.8584429e-05 -1.005051e-05 0.000311761 1.651e-41
000130 21 b2 00 80 a2 1d 00 80 55 98 00 00 bb 55 33 b7
       -6.39e-41 -1.063e-41 5.4646e-41 -1.0689192e-05
000140 30 45 83 b7 52 f8 9e b7 a5 df e6 b4 98 73 00 80
       -1.5648635e-05 -1.89507e-05 -4.300356e-07 -4.1467e-41
000150 8b 23 00 80 03 6f 02 b8 1e 58 00 00 70 20 00 80
       -1.275e-41 -3.1097803e-05 3.161e-41 -1.1636e-41
000160 65 0a 00 00 e7 66 00 80 e7 71 65 38 07 37 00 80
       3.729e-42 -3.6914e-41 5.4703934e-05 -1.974e-41
000170 b9 85 2e 39 73 4d 00 80 be 3c a1 b7 f3 0b 6e b7
       0.00016643749 -2.7784e-41 -1.922098e-05 -1.4188688e-05
000180 a9 21 52 38 8d 6f 00 80 ca 2c 5e b6 76 9a 00 00
       5.009925e-05 -4.0017e-41 -3.3106649e-06 5.541e-41
000190 d9 14 00 80 a6 0b 00 80 05 ae 12 38 7e a5 9d 38
       -7.479e-42 -4.179e-42 3.497118e-05 7.517169e-05
0001a0 02 11 00 80 25 82 54 38 ad 86 00 00 79 1e ba 39
       -6.101e-42 5.0665945e-05 4.8313e-41 0.00035499388
0001b0 e9 28 1c 37 9e cd 45 b6 38 b1 c3 b6 80 6c 00 00
       9.30785e-06 -2.9474973e-06 -5.832084e-06 3.8922e-41
0001c0 23 01 00 00 f7 db 89 b7 06 5e c9 38 89 66 a7 39
       4.08e-43 -1.6434102e-05 9.60194e-05 0.00031929117
0001d0 c0 40 00 80 fd b2 00 00 bc df cb b7 9f f1 fc 39
       -2.3228e-41 6.4209e-41 -2.430367e-05 0.00048245207
0001e0 ec 07 00 00 88 66 04 39 f9 b2 00 80 cb 54 00 00
       2.842e-42 0.00012626697 -6.4203e-41 3.0418e-41
0001f0 cb 76 00 80 f9 9d 9f b7 03 78 00 80 63 19 25 37
       -4.2615e-41 -1.9027839e-05 -4.3052e-41 9.840677e-06
000200 88 6d 88 b6 34 93 00 80 3d bb b8 b6 6d 28 00 80
       -4.065867e-06 -5.2807e-41 -5.5054247e-06 -1.4502e-41
000210 43 9c 00 80 70 41 00 80 2f 66 56 38 ff 8c 1f b5
       -5.6056e-41 -2.3475e-41 5.111674e-05 -5.943729e-07
000220 41 3f 65 38 27 39 93 b6 6b b4 10 39 73 6a eb 37
       5.4656764e-05 -4.387595e-06 0.00013800121 2.8063752e-05
000230 c6 eb 0d b7 6a 99 a2 39 06 2e 00 00 66 a7 00 80
       -8.45915e-06 0.0003101335 1.651e-41 -6.0051e-41
000240 a2 1d 00 80 55 98 00 00 78 bb 2c b7 72 88 68 b7
       -1.063e-41 5.4646e-41 -1.0295647e-05 -1.3860046e-05
000250 1a 9b d4 b7 f3 61 ac 35 d9 6c 00 00 8b 23 00 80
       -2.5344594e-05 1.2843506e-06 3.9047e-41 -1.275e-41
000260 80 77 06 b8 1e 58 00 00 70 20 00 80 65 0a 00 00
       -3.2059383e-05 3.161e-41 -1.1636e-41 3.729e-42
000270 e7 66 00 80 28 32 61 38 62 34 00 80 15 c2 2e 39
       -3.6914e-41 5.3690892e-05 -1.8791e-41 0.00016666234
000280 73 4d 00 80 61 c8 a5 b7 db 0b 6e b7 b2 c5 53 38
       -2.7784e-41 -1.9762841e-05 -1.4188666e-05 5.049044e-05
000290 56 7e 00 80 9b 57 65 b6 8f b3 00 80 6c 09 00 80
       -4.5321e-41 -3.4174652e-06 -6.4413e-41 -3.38e-42
0002a0 39 23 00 80 ba a2 10 38 fe e7 9a 38 02 11 00 80
       -1.2636e-41 3.4483826e-05 7.386504e-05 -6.101e-42
0002b0 3e 77 58 38 ad 86 00 00 65 53 b9 39 47 40 27 37
       5.1609466e-05 4.8313e-41 0.00035348083 9.968941e-06
0002c0 39 fd ff b5 16 da 10 b7 02 71 00 00 da 3c 00 00
       -1.9072678e-06 -8.633846e-06 4.054e-41 2.183e-41
0002d0 fe e8 89 b7 d7 51 c3 38 e1 9f a6 39 c0 40 00 80
       -1.6440168e-05 9.3135684e-05 0.00031781106 -2.3228e-41
0002e0 fd b2 00 00 a4 a7 c7 b7 89 68 fd 39 4a 6a 00 80
       6.4209e-41 -2.3800712e-05 0.00048333805 -3.813e-41
0002f0 d0 cd 08 39 e0 57 00 00 eb 91 00 00 f1 86 00 00
       0.00013046642 3.1524e-41 5.2346e-41 4.8408e-41
000300 ca 70 9b b7 03 78 00 80 69 ab 1e 37 06 6e 51 b6
       -1.8529961e-05 -4.3052e-41 9.457443e-06 -3.120747e-06
000310 34 93 00 80 65 cf a4 b6 0d 1a 00 80 43 9c 00 80
       -5.2807e-41 -4.911725e-06 -9.345e-42 -5.6056e-41
000320 ed 32 00 80 d5 5a 62 38 e7 8c 1f b5 b7 6d 60 38
       -1.8269e-41 5.3967193e-05 -5.9437156e-07 5.350794e-05
000330 d0 a8 92 b6 f4 09 28 39 07 23 e4 37 73 0d f6 b6
       -4.3707914e-06 0.00016025436 2.7196029e-05 -7.332937e-06
000340 33 f4 a4 39 b5 1e 00 80 f7 9d 00 00 a2 1d 00 80
       0.0003146246 -1.1016e-41 5.6667e-41 -1.063e-41
000350 55 98 00 00 5e d9 7c b7 24 0c 74 b7 d0 7e b0 b7
       5.4646e-41 -1.507098e-05 -1.454636e-05 -2.1039887e-05
000360 ce 63 ac 35 91 2e 00 00 8b 23 00 80 d3 01 0e b8
       1.2844046e-06 1.6705e-41 -1.275e-41 -3.3857137e-05
000370 9e a1 00 00 70 20 00 80 65 0a 00 00 f1 1a 00 00
       5.7977e-41 -1.1636e-41 3.729e-42 9.665e-42
000380 b2 93 66 38 5e 35 00 80 b6 d3 2c 39 73 4d 00 80
       5.4973825e-05 -1.9145e-41 0.00016482067 -2.7784e-41
000390 7b 98 a8 b7 31 3c 45 b7 ca f0 5a 38 c0 9d 00 00
       -2.0098165e-05 -1.1756129e-05 5.2199503e-05 5.659e-41
0003a0 5e 6d c8 b6 c3 91 00 80 5d 4d 00 80 ac b2 00 80
       -5.9731965e-06 -5.229e-41 -2.7753e-41 -6.4095e-41
0003b0 e5 be 1c 38 12 fe 9b 38 02 11 00 80 16 35 59 38
       3.7371083e-05 7.4383e-05 -6.101e-42 5.178627e-05
0003c0 28 9f 00 00 2f 8f b8 39 f4 9f 0f 37 cf 87 9a 35
       5.7095e-41 0.00035201895 8.560706e-06 1.151342e-06
0003d0 19 55 01 b7 30 56 00 00 90 10 00 00 37 f8 89 b7
       -7.7088125e-06 3.0918e-41 5.942e-42 -1.6447257e-05
0003e0 57 d6 e0 38 49 34 a3 39 c0 40 00 80 64 95 00 00
       0.00010721076 0.00031128738 -2.3228e-41 5.3591e-41
0003f0 9b 91 c7 b7 9b 6f f9 39 f3 9d 00 80 bb 79 04 39
       -2.3790451e-05 0.00047576134 -5.6662e-41 0.00012633849
