inference/SyGuS/model_checkpoints/SyGuS_model_0.pt (torch, 502627 bytes, 21 tensors)

gats.0.att f4 [1, 5, 67]
0	0xb61b9048	-2.3180783e-06
1	0x38983dae	7.2594135e-05
2	0xb2c19fb0	-2.2540775e-08
3	0xb60cad54	-2.0962516e-06
4	0xb9734292	-0.00023199085
5	0xb8d38bd3	-0.00010087308
6	0xb8d3536d	-0.00010076803
7	0x38d99a62	0.000103761224
8	0x31b74523	5.333861e-09
9	0xb88926b4	-6.539878e-05
10	0xba6d5225	-0.0009053073
11	0xbacdbf23	-0.0015697222
12	0xba545d68	-0.0008101077
13	0x3b2427a9	0.0025048053
14	0xb881457f	-6.164144e-05
15	0xb7ad9057	-2.069042e-05
16	0xb5800a3d	-9.539723e-07
17	0xb1d07401	-6.066785e-09
18	0x3329d8b1	3.954546e-08
19	0xba25d922	-0.0006326606
20	0xb5206ca8	-5.976276e-07
21	0x3387d320	6.324831e-08
22	0xbabf9383	-0.0014616105
23	0x1010af2f	2.853395e-29
24	0xb961ee2d	-0.000215464
25	0xb4f96e99	-4.6460335e-07
26	0xb9047be0	-0.00012634648
27	0x33aca189	8.038757e-08
28	0x36725b78	3.6114052e-06
29	0xba37301d	-0.00069880654
30	0x375d47df	1.318936e-05
31	0xba00f45b	-0.00049192243
32	0xa7056665	-1.8512966e-15
33	0x32572460	1.2522918e-08
34	0xafee7e12	-4.3381526e-10
35	0xba834493	-0.0010014944
36	0x398b44ce	0.0002656341
37	0x39d68951	0.0004091957
38	0x394f4dd6	0.00019770054
39	0xba2a2005	-0.00064897566
40	0xbbbc3f07	-0.005744818
41	0x389e837a	7.5585165e-05
42	0xaf01faa6	-1.182153e-10
43	0x349d230e	2.9269034e-07
44	0xad9a6b13	-1.7555324e-11
45	0xb8cd789e	-9.7976284e-05
46	0xb9424708	-0.00018527743
47	0xb9a06872	-0.00030595396
48	0x395c781d	0.0002102558
49	0x3a09a81f	0.0005251187
50	0x363fd1f9	2.8583438e-06
51	0x35e07e33	1.6726029e-06
52	0xb97c2e9a	-0.00024049953
53	0x303cc835	6.8678513e-10
54	0xb98cbdc2	-0.0002684426
55	0x349ca2e5	2.9175786e-07
56	0x32b915d1	2.1546755e-08
57	0xbad22aa6	-0.0016034439
58	0x398312b7	0.0002500021
59	0xba800e1f	-0.0009769833
60	0xbb25c556	-0.0025294623
61	0xb9b3af6c	-0.0003427224
62	0x38be3d73	9.071352e-05
63	0x86ac2bc7	-6.4763534e-35
64	0x00c534fd	1.8110601e-38
65	0x320e3a18	8.278697e-09
66	0x38c70bbd	9.491246e-05
67	0xb61b73af	-2.3164137e-06
68	0x38983064	7.256938e-05
69	0xb2abe106	-2.0009349e-08
70	0xb60d04fd	-2.101354e-06
71	0xb9739d52	-0.00023232892
72	0xb8d39901	-0.00010089763
73	0xb8d3570f	-0.0001007748
74	0x38d9acdc	0.00010379564
75	0x31b74ef2	5.334976e-09
76	0xb88921d9	-6.538974e-05
77	0xba6dd4fb	-0.0009072569
78	0xbacdf947	-0.0015714549
79	0xba5448c5	-0.00080980017
80	0x3b2448f8	0.0025067907
81	0xb881460b	-6.164246e-05
82	0xb7ad9377	-2.0691876e-05
83	0xb5805548	-9.561563e-07
84	0x31d7c8bf	6.2801457e-09
85	0x3329d534	3.9542286e-08
86	0xba25cbb8	-0.0006324607
87	0xb52084d9	-5.9797964e-07
88	0x3387c8cf	6.322954e-08
89	0xbabfd128	-0.0014634477
90	0x10117092	2.868293e-29
91	0xb96217a7	-0.00021561851
92	0xb4f900fc	-4.638058e-07
93	0xb904a3ad	-0.00012649475
94	0x33ac9214	8.0359456e-08
95	0x36724551	3.6101158e-06
96	0xba37822d	-0.00070002937
97	0x375ce485	1.3166228e-05
98	0xba011824	-0.00049245567
99	0xa741f1e9	-2.691527e-15
100	0x32583cba	1.2586662e-08
101	0xafee44bf	-4.3340795e-10
102	0xba82f458	-0.0009991033
103	0x398b6975	0.00026590718
104	0x39d696d3	0.00040929634
105	0x394f89fd	0.00019792463
106	0xba29e6c4	-0.0006481225
107	0xbbbc15db	-0.00573991
108	0x389e950e	7.561791e-05
109	0xaf01d902	-1.1809578e-10
110	0x349d0432	2.924658e-07
111	0xad9b2081	-1.7635894e-11
112	0xb8cd73a6	-9.796703e-05
113	0xb942785e	-0.00018546122
114	0xb9a0737f	-0.0003060363
115	0x395c563b	0.00021012958
116	0x3a09aeb7	0.000525217
117	0x363fb073	2.8563925e-06
118	0x35dfb1a8	1.66665e-06
119	0xb97c830b	-0.0002408141
120	0x303c9170	6.860068e-10
121	0xb98cd985	-0.00026864946
122	0x349c9913	2.916864e-07
123	0x32b9382b	2.1562377e-08
124	0xbad2627c	-0.0016051079
125	0x39832576	0.00025014178
126	0xba801d2c	-0.0009774319
127	0xbb25bbab	-0.002528886
128	0xb9b3a48a	-0.00034264132
129	0x38be55d6	9.075894e-05
130	0x08a183ef	9.7208525e-34
131	0x008a7d83	1.2718324e-38
132	0x31d9e2c1	6.34131e-09
133	0x38c71757	9.493407e-05
134	0xb61bfcf0	-2.3244029e-06
135	0x3898701a	7.268805e-05
136	0xb2c28c60	-2.2648408e-08
137	0xb60d7048	-2.1075994e-06
138	0xb97334fe	-0.00023194027
139	0xb8d3e438	-0.00010103773
140	0xb8d385be	-0.000100861755
141	0x38d9f78e	0.00010393477
142	0x31b7e23a	5.35172e-09
143	0xb8892f8e	-6.541527e-05
144	0xba6e64d3	-0.00090940035
145	0xbace84ae	-0.0015756094
146	0xba54c861	-0.0008117017
147	0x3b250a0c	0.002518299
148	0xb881677f	-6.170477e-05
149	0xb7aec43c	-2.0833795e-05
150	0xb57a71e7	-9.329801e-07
151	0x31381777	2.6788862e-09
152	0x3329f5d6	3.9571965e-08
153	0xba25bb99	-0.0006322205
154	0xb5209a84	-5.9829495e-07
155	0x3387e8de	6.328786e-08
156	0xbac069aa	-0.0014679928
157	0x10185531	3.0042343e-29
158	0xb961ea7a	-0.00021545021
159	0xb4fa26bc	-4.6594312e-07
160	0xb9047132	-0.0001263067
161	0x33acb10a	8.0415774e-08
162	0x36723915	3.6094036e-06
163	0xba37aa44	-0.00070062676
164	0x375d92eb	1.32068335e-05
165	0xba0156e0	-0.0004933905
166	0xa752bfce	-2.9247332e-15
167	0x32527e8f	1.2252385e-08
168	0xafeef961	-4.3469142e-10
169	0xba831fde	-0.0010004004
170	0x398bc7d3	0.00026661027
171	0x39d70ea8	0.00041018915
172	0x394fae48	0.00019805983
173	0xba2aa8fe	-0.0006510167
174	0xbbbcd42e	-0.0057625985
175	0x389ea872	7.5654025e-05
176	0xaf02930b	-1.1875671e-10
177	0x349db960	2.9378407e-07
178	0xad99a768	-1.746843e-11
179	0xb8cdb07d	-9.808035e-05
180	0xb942373f	-0.00018521863
181	0xb9a0b61a	-0.00030653254
182	0x395d0c86	0.00021080868
183	0x3a09f4f1	0.00052626344
184	0x363ff2ac	2.8602472e-06
185	0x35e0f175	1.6759574e-06
186	0xb97cc7ee	-0.00024107072
187	0x303dfa50	6.9113515e-10
188	0xb98cd619	-0.00026862396
189	0x349cb22c	2.9186901e-07
190	0x32b8f834	2.1533289e-08
191	0xbad376cc	-0.0016133427
192	0x39835371	0.00025048436
193	0xba8088ea	-0.0009806429
194	0xbb267629	-0.0025400019
195	0xb9b3e324	-0.00034310773
196	0x38beaa18	9.0915884e-05
197	0x86b968f3	-6.9743475e-35
198	0x00860f53	1.2311454e-38
199	0x31ffedaa	7.448496e-09
200	0x38c7455a	9.501977e-05
201	0xb61b96f6	-2.318467e-06
202	0x38984570	7.2608585e-05
203	0xb2c19f8d	-2.2540712e-08
204	0xb60c9c5a	-2.0952634e-06
205	0xb9735ca0	-0.00023208791
206	0xb8d3c29c	-0.00010097513
207	0xb8d36283	-0.00010079613
208	0x38d9b907	0.0001038183
209	0x31b7afa5	5.3459694e-09
210	0xb8892a8a	-6.5405926e-05
211	0xba6eaa0a	-0.0009104317
212	0xbace23c4	-0.0015727212
213	0xba5463dd	-0.0008102039
214	0x3b247fae	0.0025100517
215	0xb881534e	-6.166716e-05
216	0xb7ae6a51	-2.0791924e-05
217	0xb57f170a	-9.502843e-07
218	0x311246c7	2.1286028e-09
219	0x3329c852	3.953057e-08
220	0xba25fc60	-0.00063318573
221	0xb520b7f6	-5.9872343e-07
222	0x3387d18e	6.324545e-08
223	0xbac01389	-0.001465426
224	0x10131ba7	2.901194e-29
225	0xb9623261	-0.00021571807
226	0xb4f9a8cd	-4.6502683e-07
227	0xb904a2cb	-0.00012649146
228	0x33ac96c5	8.036799e-08
229	0x36728e81	3.6143758e-06
230	0xba37c806	-0.0007010702
231	0x375cfc18	1.3171717e-05
232	0xba014b6e	-0.00049321994
233	0x26d4bc51	1.4761498e-15
234	0x325739c6	1.2527783e-08
235	0xafee957f	-4.339817e-10
236	0xba82f5a7	-0.0009991423
237	0x398b6cf9	0.00026593337
238	0x39d6c25a	0.00040962064
239	0x394fc863	0.00019815708
240	0xba2a7907	-0.000650302
241	0xbbbc91de	-0.0057546934
242	0x389e8ae9	7.559901e-05
243	0xaf021fe0	-1.1834755e-10
244	0x349d92ab	2.9350244e-07
245	0xad99840c	-1.7452727e-11
246	0xb8cd9fa3	-9.8048964e-05
247	0xb942687f	-0.0001854021
248	0xb9a0a940	-0.0003064368
249	0x395d0c66	0.00021080821
250	0x3a09e1c2	0.0005259776
251	0x363fdde3	2.8590373e-06
252	0x35e1313f	1.6778139e-06
253	0xb97cc1fc	-0.00024104858
254	0x303d4d1f	6.8867395e-10
255	0xb98cdda3	-0.00026868013

gats.0.bias f4 [67]
0	0x380bbdd0	3.331696e-05
1	0x3a53f8c6	0.00080860814
2	0x3808b36c	3.2592026e-05
3	0xb9419cf3	-0.00018464382
4	0xbada9720	-0.0016677119
5	0x3a4c6d0e	0.0007798233
6	0x3a297374	0.0006464042
7	0x3a046627	0.0005050622
8	0xb68f2f94	-4.267271e-06
9	0xb901aab3	-0.00012365989
10	0xbbb58daa	-0.0055405693
11	0xbc8de9bf	-0.017323373
12	0xbba997e6	-0.0051755784
13	0x3cafd9fe	0.021466251
14	0x39a6c570	0.0003180909
15	0x398cc1a2	0.0002684715
16	0x38e02e53	0.00010689781
17	0xb7b84789	-2.196782e-05
18	0xb98e1927	-0.0002710309
19	0xbbb5c868	-0.005547572
20	0xb78de500	-1.6915146e-05
21	0xb8f70fc9	-0.00011780818
22	0xbc2f4d5d	-0.010699597
23	0xb8555e54	-5.0871007e-05
24	0xbb1e58b3	-0.0024161756
25	0x365d8a25	3.3011977e-06
26	0xb937cd1e	-0.00017528652
27	0xb92caece	-0.00016468318
28	0xb7b42bfa	-2.147815e-05
29	0x3bf02672	0.007328802
30	0x37d2055e	2.503645e-05
31	0xbbb4739a	-0.005506945
32	0xb865c896	-5.4784665e-05
33	0xb78b159e	-1.6580158e-05
34	0xb80b9f1d	-3.328837e-05
35	0x3c20d7f2	0.00981711
36	0x3a4ea3b6	0.0007882671
37	0x3b937ab3	0.004500711
38	0x3a8654a6	0.0010248616
39	0xbb1abb66	-0.0023610233
40	0xbd91fee5	-0.071286954
41	0x390c550d	0.00013383124
42	0xb8281060	-4.006957e-05
43	0x378ba485	1.6646702e-05
44	0xb808f4d0	-3.2652926e-05
45	0x3a53bd8a	0.0008077255
46	0xbb07cde5	-0.0020722088
47	0xbb475421	-0.0030415135
48	0x3a8c9f6c	0.0010728664
49	0x3bf4b385	0.0074676895
50	0xb76ee49f	-1.4239135e-05
51	0x381ca3b7	3.734577e-05
52	0xbb5b6765	-0.0033478376
53	0xb842e082	-4.6462294e-05
54	0xbb90fe28	-0.004424829
55	0x37bb0057	2.2292295e-05
56	0xb83d1e70	-4.508946e-05
57	0xbcb07b6a	-0.021543223
58	0x3b0fd457	0.0021946633
59	0xbbab5294	-0.00522835
60	0xbd242f5f	-0.04008424
61	0xbb3789ca	-0.0028005713
62	0xb867bae2	-5.524874e-05
63	0xb8dbeb95	-0.00010486614
64	0xb76698a5	-1.3744609e-05
65	0x38172a43	3.6040565e-05
66	0x3a16fb66	0.0005759507

gats.0.lin_l.weight f4 [335, 67]
0	0xa264d83e	-3.101424e-18
1	0x80002b3a	-1.5507e-41
2	0x3648b865	2.9909654e-06
3	0x36e99fd7	6.962549e-06
4	0x36e12491	6.7097794e-06
5	0xa264d95f	-3.1014837e-18
6	0x000084c0	4.7622e-41
7	0xb7ebe2ca	-2.811979e-05
8	0x8000175b	-8.378e-42
9	0x800058b6	-3.1823e-41
10	0x36e7ad1f	6.9044904e-06
11	0xb7dc31ad	-2.6249176e-05
12	0x80002a89	-1.5259e-41
13	0xb755b555	-1.2738009e-05
14	0x800079c0	-4.3676e-41
15	0xb7ac4473	-2.0535872e-05
16	0xb7cd7ca1	-2.449594e-05
17	0x000005ec	2.124e-42
18	0xb7e89cb6	-2.772953e-05
19	0x36decf40	6.6402426e-06
20	0x80007acb	-4.405e-41
21	0x0000a5a8	5.9426e-41
22	0x80003b16	-2.1196e-41
23	0x00008a5b	4.9633e-41
24	0x80003865	-2.023e-41
25	0x00002635	1.3706e-41
26	0x80004780	-2.565e-41
27	0x80008a6a	-4.9654e-41
28	0x80000348	-1.177e-42
29	0x8000070b	-2.527e-42
30	0x800078a7	-4.3282e-41
31	0x00008b70	5.0021e-41
32	0x000082e9	4.6962e-41
33	0x800088e9	-4.9114e-41
34	0x00005d72	3.3522e-41
35	0x00003505	1.902e-41
36	0x00006f8c	4.0015e-41
37	0x80002f07	-1.687e-41
38	0x80001647	-7.992e-42
39	0x8000944a	-5.3196e-41
40	0x800016d8	-8.195e-42
41	0x800058b0	-3.1815e-41
42	0x8000b19d	-6.3716e-41
43	0x80004ac2	-2.6818e-41
44	0x80000637	-2.23e-42
45	0x000045e3	2.507e-41
46	0x000089bc	4.941e-41
47	0x80005ba5	-3.2876e-41
48	0x8000845e	-4.7484e-41
49	0x80001835	-8.684e-42
50	0x80003922	-2.0495e-41
51	0x80007b86	-4.4312e-41
52	0x00009210	5.2397e-41
53	0x0000021d	7.58e-43
54	0x80004fe7	-2.8664e-41
55	0x00008dbc	5.0845e-41
56	0x80008e8f	-5.114e-41
57	0x00007908	4.3418e-41
58	0x00008f1c	5.1338e-41
59	0x80007824	-4.3098e-41
60	0x80006de6	-3.9424e-41
61	0x8000aa3a	-6.1066e-41
62	0x00002ba1	1.5651e-41
63	0x80003e4e	-2.2351e-41
64	0x80008d9f	-5.0804e-41
65	0x000081a2	4.6503e-41
66	0xaecd51db	-9.336861e-11
67	0xb6bfa2cf	-5.711197e-06
68	0xb9676908	-0.00022069004
69	0x38e3970e	0.000108523396
70	0x393e4891	0.00018146845
71	0x379aa0a2	1.8433031e-05
72	0xb9b72f09	-0.00034939524
73	0x2dedb3b5	2.7023586e-11
74	0x3a8060b8	0.000979445
75	0x00004167	2.3462e-41
76	0x80003cb1	-2.1772e-41
77	0x3a0e3aa6	0.00054256094
78	0x3a56e568	0.00081976363
79	0x00005085	2.8885e-41
80	0x3a2b2fec	0.0006530273
81	0x000079ca	4.369e-41
82	0x3a4ba7a1	0.0007768814
83	0x3a279f90	0.0006394321
84	0xb94fc757	-0.00019815318
85	0x3a134511	0.00056178967
86	0x39c419b5	0.00037403186
87	0x80003c5c	-2.1653e-41
88	0x0000281a	1.4386e-41
89	0x8000253e	-1.336e-41
90	0x00003bcf	2.1455e-41
91	0x00001aab	9.567e-42
92	0x800091ff	-5.2374e-41
93	0x8000a2fc	-5.8468e-41
94	0x80008686	-4.8258e-41
95	0x00009648	5.3911e-41
96	0x000073b5	4.1508e-41
97	0x800089c0	-4.9415e-41
98	0x00007c75	4.4647e-41
99	0x00004f6f	2.8495e-41
100	0x80003559	-1.9138e-41
101	0x000057f6	3.1554e-41
102	0x800058a4	-3.1798e-41
103	0x00005774	3.1372e-41
104	0x80004e52	-2.8096e-41
105	0x800081c5	-4.6553e-41
106	0x800015d5	-7.832e-42
107	0x00006d96	3.9312e-41
108	0x80002d0a	-1.6157e-41
109	0x00007688	4.2521e-41
110	0x80008bde	-5.0175e-41
111	0x00008c7c	5.0396e-41
112	0x80001a0c	-9.344e-42
113	0x80009eac	-5.6921e-41
114	0x000090bd	5.1922e-41
115	0x00007b68	4.427e-41
116	0x8000391a	-2.0484e-41
117	0x0000295f	1.4841e-41
118	0x000004a0	1.659e-42
119	0x00002037	1.1557e-41
120	0x80005a8c	-3.2482e-41
121	0x0000a41e	5.8874e-41
122	0x0000ab04	6.1349e-41
123	0x00008be7	5.0188e-41
124	0x00009611	5.3834e-41
125	0x000003f8	1.424e-42
126	0x80004f6a	-2.8488e-41
127	0x000092fc	5.2728e-41
128	0x8000769b	-4.2548e-41
129	0x80004add	-2.6856e-41
130	0x00007531	4.204e-41
131	0x00008c14	5.025e-41
132	0x0000914d	5.2124e-41
133	0x39af4876	0.0003343259
134	0x00003ca2	2.1751e-41
135	0x00001fbe	1.1387e-41
136	0xb42ac3a2	-1.5903655e-07
137	0xb601657f	-1.9281576e-06
138	0xb1376f03	-2.6693108e-09
139	0x00001066	5.883e-42
140	0x00001673	8.053e-42
141	0xb510ed62	-5.398962e-07
142	0x00000d4f	4.774e-42
143	0x80000e08	-5.033e-42
144	0xb6bc1a3c	-5.6058907e-06
145	0xb4a5c65f	-3.087798e-07
146	0x00008c22	5.027e-41
147	0xae65b70b	-5.2231146e-11
148	0x800091c8	-5.2296e-41
149	0xb06fd185	-8.724544e-10
150	0xb3bd617b	-8.81873e-08
151	0x80000904	-3.234e-42
152	0xb4f21677	-4.5092358e-07
153	0xb6ab6738	-5.1082134e-06
154	0x8000196f	-9.124e-42
155	0x00008d06	5.059e-41
156	0x800084d7	-4.7654e-41
157	0x00001ea8	1.0997e-41
158	0x80005bb4	-3.2897e-41
159	0x0000078a	2.705e-42
160	0x800034f4	-1.8996e-41
161	0x00009100	5.2016e-41
162	0x80008b3b	-4.9946e-41
163	0x8000278a	-1.4184e-41
164	0x000066f1	3.6928e-41
165	0x000078f5	4.3391e-41
166	0x00009253	5.2491e-41
167	0x00000e08	5.033e-42
168	0x800082be	-4.6901e-41
169	0x80008e83	-5.1124e-41
170	0x8000424f	-2.3787e-41
171	0x000079b2	4.3656e-41
172	0x80005b28	-3.2701e-41
173	0x000075e9	4.2298e-41
174	0x000056d9	3.1155e-41
175	0x00008396	4.7204e-41
176	0x80008b30	-4.9931e-41
177	0x800079be	-4.3673e-41
178	0x0000581c	3.1608e-41
179	0x80008c19	-5.0258e-41
180	0x00007ac8	4.4046e-41
181	0x80007fa0	-4.5783e-41
182	0x80001080	-5.919e-42
183	0x00006863	3.7447e-41
184	0x00007291	4.1099e-41
185	0x00006964	3.7807e-41
186	0x00003a6a	2.0955e-41
187	0x80000e42	-5.115e-42
188	0x00008ccf	5.0513e-41
189	0x000018ba	8.87e-42
190	0x000069c4	3.7942e-41
191	0x800076bc	-4.2594e-41
192	0x8000935e	-5.2865e-41
193	0x80008c43	-5.0316e-41
194	0x000094eb	5.3422e-41
195	0x800090c1	-5.1928e-41
196	0x800090b3	-5.1908e-41
197	0x80000593	-2e-42
198	0x80006889	-3.75e-41
199	0x80001c91	-1.0248e-41
200	0xa12011f2	-5.423386e-19
201	0x80006248	-3.5257e-41
202	0xa58c9dee	-2.4393146e-16
203	0x3700da72	7.680255e-06
204	0xb65ba74a	-3.2730918e-06
205	0xb7a0da1e	-1.9175055e-05
206	0xa1ac690e	-1.1682981e-18
207	0x80002cd9	-1.6088e-41
208	0xb748bb4f	-1.196454e-05
209	0x80004911	-2.6211e-41
210	0x80008286	-4.6823e-41
211	0x37c983b5	2.4022398e-05
212	0xb80c288c	-3.3416363e-05
213	0x00009024	5.1708e-41
214	0xb7afb3b8	-2.0945314e-05
215	0x00002eba	1.6762e-41
216	0xb7e9c62e	-2.7868049e-05
217	0xb78866a0	-1.6260252e-05
218	0xa0c1450e	-3.2741168e-19
219	0xb7adb137	-2.070573e-05
220	0xb6170611	-2.2504285e-06
221	0x00006bea	3.8712e-41
222	0x8000903c	-5.1742e-41
223	0x80001e8c	-1.0958e-41
224	0x00000d02	4.666e-42
225	0x80002a3b	-1.515e-41
226	0x80003952	-2.0563e-41
227	0x80008777	-4.8596e-41
228	0x8000945c	-5.3221e-41
229	0x8000750b	-4.1987e-41
230	0x80001b99	-9.9e-42
231	0x000084bd	4.7618e-41
232	0x8000812f	-4.6342e-41
233	0x000021d5	1.2137e-41
234	0x80006f77	-3.9986e-41
235	0x80007795	-4.2898e-41
236	0x80009336	-5.281e-41
237	0x8000038d	-1.274e-42
238	0x00008293	4.6841e-41
239	0x8000184b	-8.715e-42
240	0x00008dba	5.0842e-41
241	0x000015fc	7.887e-42
242	0x80001c6e	-1.0199e-41
243	0x80000dd4	-4.96e-42
244	0x80003681	-1.9552e-41
245	0x800026a8	-1.3867e-41
246	0x00003d72	2.2042e-41
247	0x800019bd	-9.233e-42
248	0x0000822b	4.6695e-41
249	0x00000fa5	5.612e-42
250	0x80008ae3	-4.9823e-41
251	0x800009e1	-3.544e-42
252	0x800076cc	-4.2616e-41
253	0x80005bdf	-3.2957e-41
254	0x8000941a	-5.3129e-41
255	0x0000895e	4.9278e-41

gats.0.lin_l.bias f4 [335]
0	0xb88f061a	-6.819908e-05
1	0x3a0bb234	0.00053289835
2	0xb816cbf5	-3.5952737e-05
3	0xb9608166	-0.0002141051
4	0x3ad7c5d2	0.0016462153
5	0x3a33a1c0	0.0006852411
6	0x3a6ae560	0.0008960571
7	0xb9054616	-0.00012709977
8	0xb6b7272e	-5.458386e-06
9	0xb91b4fa9	-0.00014811628
10	0x3bd3572e	0.0064496016
11	0x3c8bf918	0.01708655
12	0x3bd6f258	0.0065596513
13	0x3c55c009	0.013046273
14	0xb87b519e	-5.9919075e-05
15	0x38c51b3a	9.398763e-05
16	0x38e3f7b4	0.00010870342
17	0xb69022b1	-4.295573e-06
18	0xb69005a7	-4.2921924e-06
19	0x3bbcd6f6	0.00576293
20	0xb7efe5b8	-2.8597991e-05
21	0xb70042b6	-7.644927e-06
22	0x3c4ba98d	0.012430561
23	0x9ffbfbb2	-1.0671903e-19
24	0x3b12a55b	0.0022376392
25	0xb750e547	-1.2451149e-05
26	0x3a526fd4	0.0008027528
27	0xb710a3ff	-8.621252e-06
28	0xb774faf5	-1.4601964e-05
29	0x3c414c78	0.011798017
30	0xb98f4a03	-0.00027330228
31	0x3ba65823	0.0050764247
32	0xb3ed047e	-1.10369896e-07
33	0xb74f7ae3	-1.2366773e-05
34	0xb65781df	-3.2113091e-06
35	0x3c8b6920	0.017017901
36	0xba81ec01	-0.0009912254
37	0x3b347b62	0.0027539362
38	0xba584791	-0.00082504103
39	0x3b83250b	0.0040022186
40	0x3d96d8a9	0.073655434
41	0xb96aa25d	-0.00022376464
42	0x341f4deb	1.4836375e-07
43	0xb87dd5b8	-6.051894e-05
44	0xb61d3c63	-2.3429973e-06
45	0x3a774564	0.0009432642
46	0x3ac9f98d	0.0015409455
47	0x3b302c3f	0.0026881841
48	0xba45cd49	-0.00075455435
49	0x3b8ba30a	0.004261379
50	0xb5c669f5	-1.4782987e-06
51	0xb8b7ecde	-8.77024e-05
52	0x3b339619	0.0027402698
53	0xb55d4829	-8.243392e-07
54	0x3b748874	0.0037312778
55	0xb82f40be	-4.1783547e-05
56	0xb783e058	-1.5720885e-05
57	0x3c9e3f0c	0.019317172
58	0x3ade1421	0.0016943255
59	0x3bcc9daf	0.0062443833
60	0x3d20d90d	0.039269496
61	0x3b303bd1	0.0026891122
62	0xb96fc5b1	-0.00022866462
63	0x2077c95b	2.0988337e-19
64	0x1a3ee8de	3.9479188e-23
65	0xb82d6c31	-4.1347175e-05
66	0x3965e5f3	0.00021924805
67	0xb88f061a	-6.819908e-05
68	0x3a0bb088	0.00053287344
69	0xb816ca17	-3.5950998e-05
70	0xb9608a71	-0.00021413878
71	0x3ad7afff	0.0016455649
72	0x3a33a066	0.00068522093
73	0x3a6ae93c	0.0008961146
74	0xb9051864	-0.00012692955
75	0xb6b7272e	-5.458386e-06
76	0xb91b7572	-0.00014825704
77	0x3bd42ed0	0.006475307
78	0x3c8c1dd5	0.017104069
79	0x3bd6c017	0.0065536606
80	0x3c560dcc	0.013064813
81	0xb87b7ec5	-5.9961127e-05
82	0x38c54944	9.407339e-05
83	0x38e3f7b9	0.000108703454
84	0xb68ffc00	-4.2910688e-06
85	0xb69005a7	-4.2921924e-06
86	0x3bbd13e8	0.0057701953
87	0xb7efe7fb	-2.8599045e-05
88	0xb70042b6	-7.644927e-06
89	0x3c4c0477	0.012452236
90	0x9ffbfbb2	-1.0671903e-19
91	0x3b12a0ad	0.0022373602
92	0xb750e547	-1.2451149e-05
93	0x3a52730e	0.0008028009
94	0xb710a3ff	-8.621252e-06
95	0xb774faf5	-1.4601964e-05
96	0x3c417f56	0.011810144
97	0xb98f5008	-0.00027334713
98	0x3ba66088	0.0050774254
99	0xb3ed047e	-1.10369896e-07
100	0xb74f7ae3	-1.2366773e-05
101	0xb6577e06	-3.2110852e-06
102	0x3c8b3a90	0.016995698
103	0xba820c73	-0.0009921923
104	0x3b34549a	0.0027516247
105	0xba583f0c	-0.0008249141
106	0x3b8287e9	0.003983487
107	0x3d9693f5	0.07352439
108	0xb96ab004	-0.0002238155
109	0x341f4deb	1.4836375e-07
110	0xb87dd5b8	-6.051894e-05
111	0xb61d3c63	-2.3429973e-06
112	0x3a77424c	0.0009432181
113	0x3ac9f930	0.0015409347
114	0x3b3026a0	0.002687849
115	0xba453392	-0.0007522638
116	0x3b8b31e3	0.0042478903
117	0xb5c669f5	-1.4782987e-06
118	0xb8b7f048	-8.770876e-05
119	0x3b339b3b	0.0027405757
120	0xb55d4829	-8.243392e-07
121	0x3b748a76	0.0037313974
122	0xb82f40d2	-4.178362e-05
123	0xb783e058	-1.5720885e-05
124	0x3c9e6778	0.019336447
125	0x3addff37	0.0016937022
126	0x3bcca48c	0.0062452015
127	0x3d20b96a	0.039239325
128	0x3b30471a	0.0026897849
129	0xb96fe7d5	-0.0002287918
130	0x20794a07	2.1115614e-19
131	0x1a3ee8de	3.9479188e-23
132	0xb82d6801	-4.1343275e-05
133	0x3965b166	0.00021905228
134	0xb88efd67	-6.8182875e-05
135	0x3a0bb240	0.00053289905
136	0xb816cbf2	-3.5952726e-05
137	0xb9608e6b	-0.0002141536
138	0x3ad7b230	0.0016456302
139	0x3a33a093	0.00068522355
140	0x3a6ae84f	0.0008961008
141	0xb9050df2	-0.00012689063
142	0xb6b7272e	-5.458386e-06
143	0xb91b6f96	-0.00014823521
144	0x3bd3bbde	0.0064616045
145	0x3c8c1081	0.017097713
146	0x3bd6e5e9	0.006558169
147	0x3c53f13b	0.012935932
148	0xb87ae5fe	-5.981884e-05
149	0x38c4f992	9.3924944e-05
150	0x38e3f6ab	0.00010870149
151	0xb68fb0b5	-4.2823035e-06
152	0xb69005a7	-4.2921924e-06
153	0x3bbcfcad	0.005767426
154	0xb7efecaa	-2.8601225e-05
155	0xb70042b6	-7.644927e-06
156	0x3c4c078d	0.012452972
157	0x9ffbfbb2	-1.0671903e-19
158	0x3b129c02	0.002237082
159	0xb750e547	-1.2451149e-05
160	0x3a528307	0.0008030389
161	0xb710a3ff	-8.621252e-06
162	0xb774faf5	-1.4601964e-05
163	0x3c4156f9	0.011800521
164	0xb98f4d69	-0.0002733276
165	0x3ba668cd	0.005078411
166	0xb3ed047e	-1.10369896e-07
167	0xb74f7ae3	-1.2366773e-05
168	0xb6577eb9	-3.2111259e-06
169	0x3c8b2dd8	0.016989633
170	0xba8218a3	-0.0009925555
171	0x3b3488d4	0.0027547376
172	0xba59151c	-0.00082810386
173	0x3b832f28	0.004003424
174	0x3d969086	0.073517844
175	0xb96b889b	-0.00022462236
176	0x341f4deb	1.4836375e-07
177	0xb87dd66e	-6.0519604e-05
178	0xb61d3c63	-2.3429973e-06
179	0x3a774ad4	0.00094334525
180	0x3ac9f5f9	0.0015408389
181	0x3b303185	0.0026884985
182	0xba47204e	-0.00075960613
183	0x3b8b9011	0.0042591174
184	0xb5c669f5	-1.4782987e-06
185	0xb8b7f40f	-8.7715795e-05
186	0x3b33a32c	0.002741049
187	0xb55d4829	-8.243392e-07
188	0x3b748be4	0.0037314827
189	0xb82f40e7	-4.1783696e-05
190	0xb783e05a	-1.5720889e-05
191	0x3c9e77dd	0.019344265
192	0x3addfa6e	0.0016935596
193	0x3bcc9256	0.0062430305
194	0x3d20e715	0.039282877
195	0x3b303d71	0.002689209
196	0xb96ff79c	-0.00022885058
197	0x2076f95d	2.0919518e-19
198	0x1a3ed426	3.946245e-23
199	0xb82d690d	-4.134425e-05
200	0x39659d47	0.00021897732
201	0xb88f061a	-6.819908e-05
202	0x3a0bb694	0.00053296355
203	0xb816cbf2	-3.5952726e-05
204	0xb96084b8	-0.00021411746
205	0x3ad7b2da	0.00164565
206	0x3a33a619	0.00068530586
207	0x3a6ae429	0.000896039
208	0xb904e709	-0.00012674568
209	0xb6b7272e	-5.458386e-06
210	0xb91b5345	-0.00014812972
211	0x3bd4b475	0.0064912387
212	0x3c8c2d4b	0.017111441
213	0x3bd6c47b	0.006554184
214	0x3c556a17	0.013025782
215	0xb87b7e2b	-5.9960566e-05
216	0x38c4fc7e	9.3930386e-05
217	0x38e3f7b2	0.0001087034
218	0xb68fb368	-4.2826177e-06
219	0xb69005a7	-4.2921924e-06
220	0x3bbd2d66	0.005773234
221	0xb7efe7ce	-2.8598963e-05
222	0xb70042b6	-7.644927e-06
223	0x3c4bfb8f	0.012450113
224	0x9ffbfbb2	-1.0671903e-19
225	0x3b12a083	0.0022373504
226	0xb750e547	-1.2451149e-05
227	0x3a526b5c	0.0008026862
228	0xb710a3ff	-8.621252e-06
229	0xb774faf5	-1.4601964e-05
230	0x3c41861d	0.01181176
231	0xb98f521b	-0.0002733626
232	0x3ba667a3	0.0050782724
233	0xb3ed047e	-1.10369896e-07
234	0xb74f7ae3	-1.2366773e-05
235	0xb6577f8b	-3.2111736e-06
236	0x3c8b33c5	0.01699246
237	0xba8339b5	-0.0010011705
238	0x3b3458ca	0.0027518743
239	0xba588352	-0.00082593143
240	0x3b83069d	0.003998591
241	0x3d96dd47	0.07366424
242	0xb96b15eb	-0.00022419512
243	0x341f4deb	1.4836375e-07
244	0xb87dd66e	-6.0519604e-05
245	0xb61d3c63	-2.3429973e-06
246	0x3a774749	0.00094329246
247	0x3ac9f760	0.0015408807
248	0x3b302c34	0.0026881816
249	0xba4675ac	-0.0007570635
250	0x3b8b63ba	0.0042538317
251	0xb5c669f5	-1.4782987e-06
252	0xb8b7c105	-8.762073e-05
253	0x3b33a135	0.002740932
254	0xb55d4829	-8.243392e-07
255	0x3b748ec2	0.0037316536

gats.0.lin_r.weight f4 [335, 67]
0	0x0000158c	7.73e-42
1	0x8000974a	-5.4272e-41
2	0x80005a0d	-3.2304e-41
3	0x00004473	2.4555e-41
4	0x00006173	3.4958e-41
5	0x800051d3	-2.9353e-41
6	0x000082d3	4.6931e-41
7	0x80002235	-1.2271e-41
8	0x000006b5	2.406e-42
9	0x00008bf0	5.02e-41
10	0x000033fb	1.8647e-41
11	0x0000903a	5.1739e-41
12	0x80008764	-4.8569e-41
13	0x000055c2	3.0764e-41
14	0x00008bd3	5.016e-41
15	0x00005841	3.166e-41
16	0x80008a58	-4.9628e-41
17	0x80000795	-2.72e-42
18	0x8000363b	-1.9454e-41
19	0x8000824d	-4.6743e-41
20	0x8000a339	-5.8553e-41
21	0x000039b2	2.0697e-41
22	0x00002b66	1.5568e-41
23	0x0000395b	2.0575e-41
24	0x800046ae	-2.5355e-41
25	0x80004776	-2.5635e-41
26	0x00008f26	5.1352e-41
27	0x80001c9b	-1.0262e-41
28	0x00002b48	1.5526e-41
29	0x00003502	1.9016e-41
30	0x80009093	-5.1863e-41
31	0x8000679f	-3.7172e-41
32	0x00000640	2.242e-42
33	0x800030af	-1.7464e-41
34	0x00009123	5.2065e-41
35	0x80007900	-4.3407e-41
36	0x0000387a	2.026e-41
37	0x800078d6	-4.3348e-41
38	0x80002a96	-1.5277e-41
39	0x800087f8	-4.8776e-41
40	0x00007a72	4.3925e-41
41	0x00002ae9	1.5393e-41
42	0x0000224b	1.2302e-41
43	0x80001651	-8.006e-42
44	0x000051e8	2.9382e-41
45	0x8000867f	-4.8248e-41
46	0x0000268e	1.3831e-41
47	0x80007927	-4.3461e-41
48	0x80008f61	-5.1435e-41
49	0x00008be3	5.0182e-41
50	0x800067e8	-3.7275e-41
51	0x00008a42	4.9598e-41
52	0x00005c8d	3.3201e-41
53	0x00007c06	4.4491e-41
54	0x800086c0	-4.8339e-41
55	0x0000875b	4.8556e-41
56	0x0000a4d0	5.9124e-41
57	0x00007715	4.2719e-41
58	0x80001bd0	-9.977e-42
59	0x80001af4	-9.669e-42
60	0x00001975	9.132e-42
61	0x8000a2f9	-5.8464e-41
62	0x8000108a	-5.933e-42
63	0x80008668	-4.8216e-41
64	0x0000897b	4.9319e-41
65	0x000090e9	5.1984e-41
66	0x80004473	-2.4555e-41
67	0x8000789e	-4.3269e-41
68	0x8000612d	-3.486e-41
69	0x00004150	2.343e-41
70	0x000005f8	2.141e-42
71	0x0000aba9	6.158e-41
72	0x000038e9	2.0416e-41
73	0x800076e9	-4.2657e-41
74	0x80002f94	-1.7068e-41
75	0x800056c2	-3.1123e-41
76	0x00008cd2	5.0517e-41
77	0x000080f6	4.6262e-41
78	0x80000986	-3.416e-42
79	0x00001acc	9.613e-42
80	0x80009daf	-5.6566e-41
81	0x00007ac3	4.4039e-41
82	0x000063c4	3.5789e-41
83	0x00002a8e	1.5266e-41
84	0x00007658	4.2454e-41
85	0x80002f94	-1.7068e-41
86	0x00004b7d	2.708e-41
87	0x80008f0d	-5.1317e-41
88	0x80008225	-4.6687e-41
89	0x000084a2	4.758e-41
90	0x00008998	4.936e-41
91	0x80000413	-1.462e-42
92	0x8000976f	-5.4324e-41
93	0x000091f4	5.2358e-41
94	0x80000502	-1.796e-42
95	0x80008660	-4.8205e-41
96	0x0000285f	1.4482e-41
97	0x80008f1c	-5.1338e-41
98	0x80001b56	-9.806e-42
99	0x80004efb	-2.8333e-41
100	0x00000e16	5.053e-42
101	0x8000030f	-1.097e-42
102	0x00008713	4.8455e-41
103	0x0000731b	4.1292e-41
104	0x00002c2f	1.585e-41
105	0x00002bc4	1.57e-41
106	0x80000c4b	-4.41e-42
107	0x8000251c	-1.3312e-41
108	0x00007839	4.3128e-41
109	0x00003085	1.7406e-41
110	0x80007bfd	-4.4479e-41
111	0x00008a87	4.9694e-41
112	0x00009928	5.4942e-41
113	0x8000891b	-4.9184e-41
114	0x80006b91	-3.8588e-41
115	0x000023ef	1.289e-41
116	0x000087ae	4.8673e-41
117	0x0000878e	4.8628e-41
118	0x00008712	4.8454e-41
119	0x00005860	3.1703e-41
120	0x000090ba	5.1918e-41
121	0x0000895e	4.9278e-41
122	0x80008052	-4.6033e-41
123	0x00009352	5.2849e-41
124	0x000020bb	1.1741e-41
125	0x00005f93	3.4286e-41
126	0x00001b52	9.8e-42
127	0x0000aa72	6.1144e-41
128	0x80001630	-7.96e-42
129	0x800001b2	-6.08e-43
130	0x000013aa	7.054e-42
131	0x000077eb	4.3018e-41
132	0x80005e81	-3.3902e-41
133	0x80002764	-1.413e-41
134	0x8000158c	-7.73e-42
135	0x800007a2	-2.738e-42
136	0x00008278	4.6803e-41
137	0x0000ac14	6.173e-41
138	0x00002b85	1.5612e-41
139	0x0000237f	1.2734e-41
140	0x00002662	1.3769e-41
141	0x00008105	4.6283e-41
142	0x0000910b	5.2032e-41
143	0x00008a79	4.9675e-41
144	0x8000acd0	-6.1993e-41
145	0x800082b9	-4.6894e-41
146	0x000092fa	5.2725e-41
147	0x8000792c	-4.3468e-41
148	0x800028a7	-1.4583e-41
149	0x80002e73	-1.6663e-41
150	0x00008839	4.8867e-41
151	0x8000786d	-4.32e-41
152	0x000046d3	2.5407e-41
153	0x00008560	4.7846e-41
154	0x000075db	4.2279e-41
155	0x80004b74	-2.7067e-41
156	0x8000909f	-5.188e-41
157	0x80006b38	-3.8463e-41
158	0x00009049	5.176e-41
159	0x80006bc2	-3.8656e-41
160	0x00000b5d	4.076e-42
161	0x00004cc2	2.7536e-41
162	0x800069ad	-3.791e-41
163	0x8000a24a	-5.8218e-41
164	0x00006078	3.4606e-41
165	0x80007a68	-4.3911e-41
166	0x00008eb6	5.1195e-41
167	0x800024e4	-1.3234e-41
168	0x80002895	-1.4558e-41
169	0x0000262d	1.3695e-41
170	0x80008fea	-5.1627e-41
171	0x00005bc1	3.2915e-41
172	0x00002881	1.453e-41
173	0x000081a4	4.6506e-41
174	0x00007973	4.3568e-41
175	0x80001c55	-1.0164e-41
176	0x800083fe	-4.735e-41
177	0x8000734d	-4.1362e-41
178	0x00007766	4.2832e-41
179	0x80001321	-6.862e-42
180	0x0000042d	1.498e-42
181	0x0000784b	4.3153e-41
182	0x000086e5	4.8391e-41
183	0x80009676	-5.3975e-41
184	0x80005eed	-3.4053e-41
185	0x8000830e	-4.7014e-41
186	0x800039ba	-2.0708e-41
187	0x0000354f	1.9124e-41
188	0x00002d43	1.6237e-41
189	0x00002eb0	1.6748e-41
190	0x80008a50	-4.9617e-41
191	0x0000b33a	6.4294e-41
192	0x000015f1	7.871e-42
193	0x80001f06	-1.1129e-41
194	0x80008d17	-5.0613e-41
195	0x800038de	-2.04e-41
196	0x80008529	-4.7769e-41
197	0x00005187	2.9247e-41
198	0x00006726	3.7003e-41
199	0x8000954e	-5.356e-41
200	0x80004591	-2.4956e-41
201	0x80006355	-3.5634e-41
202	0x800006b6	-2.407e-42
203	0x000083f2	4.7333e-41
204	0x000094de	5.3403e-41
205	0x80008a5a	-4.9631e-41
206	0x8000401b	-2.2997e-41
207	0x00000380	1.256e-42
208	0x80008900	-4.9146e-41
209	0x00006bee	3.8718e-41
210	0x00001828	8.666e-42
211	0x80009220	-5.242e-41
212	0x8000290e	-1.4728e-41
213	0x00008da4	5.0811e-41
214	0x80006dde	-3.9413e-41
215	0x00008430	4.742e-41
216	0x000027ec	1.4321e-41
217	0x000089a7	4.938e-41
218	0x800088a3	-4.9016e-41
219	0x8000a604	-5.9555e-41
220	0x80008dbc	-5.0845e-41
221	0x00002300	1.2556e-41
222	0x0000411f	2.3361e-41
223	0x800014eb	-7.504e-42
224	0x00008585	4.7898e-41
225	0x000023e6	1.2878e-41
226	0x800034b7	-1.891e-41
227	0x800040d1	-2.3252e-41
228	0x00003c53	2.164e-41
229	0x000066a6	3.6823e-41
230	0x00005c85	3.319e-41
231	0x80008ef6	-5.1285e-41
232	0x00008d94	5.0789e-41
233	0x000023d5	1.2854e-41
234	0x8000aaac	-6.1226e-41
235	0x8000442d	-2.4457e-41
236	0x8000634c	-3.5621e-41
237	0x00007625	4.2382e-41
238	0x00000418	1.469e-42
239	0x800092f7	-5.2721e-41
240	0x800074ce	-4.1902e-41
241	0x80007a37	-4.3842e-41
242	0x80002746	-1.4089e-41
243	0x80008c0d	-5.0241e-41
244	0x000071a9	4.0774e-41
245	0x00000c94	4.512e-42
246	0x000051ec	2.9388e-41
247	0x0000912f	5.2082e-41
248	0x000058d4	3.1866e-41
249	0x00006fb1	4.0067e-41
250	0x80004ab3	-2.6797e-41
251	0x000012d6	6.757e-42
252	0x00008e3c	5.1024e-41
253	0x0000872a	4.8488e-41
254	0x80002390	-1.2757e-41
255	0x000046ba	2.5372e-41

gats.0.lin_r.bias f4 [335]
0	0x80003626	-1.9425e-41
1	0x00003edb	2.2548e-41
2	0x0000379c	1.9949e-41
3	0x80006f4c	-3.9926e-41
4	0xb708b83f	-8.14913e-06
5	0x3615549b	2.2251977e-06
6	0x35ed7fc0	1.7695056e-06
7	0xb5d78a6b	-1.6059033e-06
8	0x0000adc0	6.233e-41
9	0x000089b7	4.9403e-41
10	0x387077cc	5.733203e-05
11	0x38ca6759	9.6513606e-05
12	0x388518bb	6.3465406e-05
13	0x3956b601	0.00020476432
14	0x80006e3f	-3.9549e-41
15	0x8000b1d1	-6.3789e-41
16	0x800088b9	-4.9047e-41
17	0x8000a095	-5.7606e-41
18	0x000090e0	5.1971e-41
19	0x387c735e	6.0188926e-05
20	0x00000624	2.203e-42
21	0x00000a33	3.659e-42
22	0x3885922e	6.369162e-05
23	0x0000185e	8.741e-42
24	0x339a32e3	7.18044e-08
25	0x80004acd	-2.6833e-41
26	0x34f5b8d8	4.5769298e-07
27	0x000034cc	1.894e-41
28	0x80001e6d	-1.0915e-41
29	0x38567177	5.112725e-05
30	0x800061d7	-3.5098e-41
31	0x38767e8f	5.8768837e-05
32	0x00008710	4.8451e-41
33	0x80003eec	-2.2572e-41
34	0x000006ab	2.392e-42
35	0x383354be	4.2755848e-05
36	0xb5b95e03	-1.3810935e-06
37	0x35f9e03a	1.8617204e-06
38	0xb6336617	-2.6732503e-06
39	0x3869e316	5.576302e-05
40	0x38bc678e	8.983827e-05
41	0x000072bd	4.116e-41
42	0x800086f3	-4.841e-41
43	0x00002c56	1.5905e-41
44	0x80007cbf	-4.475e-41
45	0x35ed830b	1.7696015e-06
46	0x369a2010	4.59329e-06
47	0x3696beac	4.4925455e-06
48	0xb64b137a	-3.0260694e-06
49	0xb6cd3bea	-6.116451e-06
50	0x00009515	5.348e-41
51	0x00003415	1.8684e-41
52	0xb6c2e6a4	-5.8085006e-06
53	0x00009373	5.2895e-41
54	0x34f8e00d	4.6356618e-07
55	0x800058d8	-3.1871e-41
56	0x80000599	-2.008e-42
57	0x38b436d5	8.593282e-05
58	0x37509aec	1.2433837e-05
59	0x3837ba6c	4.380422e-05
60	0xb7442c07	-1.1692761e-05
61	0x3783b48f	1.5700496e-05
62	0xb6155343	-2.2251195e-06
63	0x80003671	-1.953e-41
64	0x80006ff2	-4.0158e-41
65	0x8000446a	-2.4542e-41
66	0xb5ed6542	-1.7687346e-06
67	0x80003626	-1.9425e-41
68	0x00003edb	2.2548e-41
69	0x0000379c	1.9949e-41
70	0x80006f4c	-3.9926e-41
71	0xb708c7d1	-8.152755e-06
72	0x36155492	2.2251957e-06
73	0x35ed7fc0	1.7695056e-06
74	0xb5d78a6b	-1.6059033e-06
75	0x0000adc0	6.233e-41
76	0x000089b7	4.9403e-41
77	0x38657732	5.4708864e-05
78	0x38c80fa4	9.5396565e-05
79	0x3884955d	6.3220716e-05
80	0x3953cb97	0.00020198371
81	0x80006e3f	-3.9549e-41
82	0x8000b338	-6.4292e-41
83	0x00008903	4.915e-41
84	0x8000a095	-5.7606e-41
85	0x000090e0	5.1971e-41
86	0x387ffda9	6.1032977e-05
87	0x00000624	2.203e-42
88	0x00000a33	3.659e-42
89	0x387f66ec	6.089259e-05
90	0x0000185e	8.741e-42
91	0x35cba02d	1.5171296e-06
92	0x80004acd	-2.6833e-41
93	0x34f5b8d8	4.5769298e-07
94	0x000034cc	1.894e-41
95	0x80001e6d	-1.0915e-41
96	0x385be03c	5.2422503e-05
97	0x800061d7	-3.5098e-41
98	0x38764ceb	5.8722606e-05
99	0x00008710	4.8451e-41
100	0x00008951	4.926e-41
101	0x000087e3	4.8747e-41
102	0x381a1a39	3.6740883e-05
103	0xb5b964cf	-1.3812913e-06
104	0x35bcc1f2	1.4063537e-06
105	0xb6d96be9	-6.4796664e-06
106	0x386c1dbc	5.6294477e-05
107	0x38cc80f7	9.7514996e-05
108	0x000072bd	4.116e-41
109	0x800086f3	-4.841e-41
110	0x00002c56	1.5905e-41
111	0x00009220	5.242e-41
112	0x35ed830b	1.7696015e-06
113	0x369a2010	4.59329e-06
114	0x3696ec8a	4.497885e-06
115	0xb64b137a	-3.0260694e-06
116	0xb6c71dd2	-5.9341337e-06
117	0x00009515	5.348e-41
118	0x00003415	1.8684e-41
119	0xb6c2e395	-5.8081446e-06
120	0x00009373	5.2895e-41
121	0x34f8bd51	4.6331346e-07
122	0x8000350f	-1.9034e-41
123	0x80000599	-2.008e-42
124	0x38af120f	8.348014e-05
125	0x37509aec	1.2433837e-05
126	0x383a2f8e	4.4390144e-05
127	0xb786c863	-1.6067357e-05
128	0x37916c8a	1.733589e-05
129	0xb6155343	-2.2251195e-06
130	0x80003671	-1.953e-41
131	0x80006bb0	-3.8631e-41
132	0x8000446a	-2.4542e-41
133	0xb5ed6542	-1.7687346e-06
134	0x80003626	-1.9425e-41
135	0x00003edb	2.2548e-41
136	0x0000a298	5.8328e-41
137	0x80001faf	-1.1366e-41
138	0xb708cb05	-8.153501e-06
139	0x36155489	2.2251936e-06
140	0x35ed7fc0	1.7695056e-06
141	0xb5d78a6b	-1.6059033e-06
142	0x0000adc0	6.233e-41
143	0x0000b114	6.3524e-41
144	0x3862c79d	5.4068503e-05
145	0x38c7e8c9	9.532419e-05
146	0x3889fa46	6.579286e-05
147	0x3940a92b	0.00018373567
148	0x80006e3f	-3.9549e-41
149	0x8000b1b2	-6.3745e-41
150	0x8000140a	-7.189e-42
151	0x80007ecc	-4.5486e-41
152	0x0000375c	1.9859e-41
153	0x387e97e8	6.0699793e-05
154	0x0000203f	1.1568e-41
155	0x00000a33	3.659e-42
156	0x38767878	5.8763166e-05
157	0x000057bd	3.1475e-41
158	0x361d62e4	2.3452385e-06
159	0x80004acd	-2.6833e-41
160	0x34f5b8da	4.5769303e-07
161	0x000034cc	1.894e-41
162	0x00007aab	4.4005e-41
163	0x38696cbb	5.5652792e-05
164	0x800054f5	-3.0477e-41
165	0x38743ef2	5.8232756e-05
166	0x00008710	4.8451e-41
167	0x80007494	-4.182e-41
168	0x80008831	-4.8856e-41
169	0x3826e365	3.978926e-05
170	0xb60dab66	-2.1110404e-06
171	0x359e0665	1.1773778e-06
172	0xb6d96bde	-6.4796614e-06
173	0x38668e41	5.4968757e-05
174	0x38f49bc5	0.00011663841
175	0x000072bd	4.116e-41
176	0x800086f3	-4.841e-41
177	0x00007869	4.3195e-41
178	0x80007cfe	-4.4839e-41
179	0x35ed8046	1.7695208e-06
180	0x369a2061	4.593327e-06
181	0x36bfd978	5.7175603e-06
182	0xb64b2dc6	-3.0276e-06
183	0xb693a0c7	-4.3996583e-06
184	0x80008a7d	-4.968e-41
185	0x80000587	-1.983e-42
186	0xb6a4a66d	-4.9069554e-06
187	0x00009373	5.2895e-41
188	0x34af75ea	3.2682084e-07
189	0x00007402	4.1616e-41
190	0x80000599	-2.008e-42
191	0x38a9bd87	8.09385e-05
192	0x3750b17d	1.2439091e-05
193	0x383434e4	4.2964602e-05
194	0xb7d947bf	-2.5901825e-05
195	0x378966f9	1.6379623e-05
196	0xb6155319	-2.22511e-06
197	0x80003671	-1.953e-41
198	0x0000466a	2.526e-41
199	0x8000446a	-2.4542e-41
200	0xb5ed6542	-1.7687346e-06
201	0x80003626	-1.9425e-41
202	0x00003edb	2.2548e-41
203	0x80008a8d	-4.9703e-41
204	0x80006f4c	-3.9926e-41
205	0xb708cb1d	-8.153523e-06
206	0x36155489	2.2251936e-06
207	0x35ed7fc0	1.7695056e-06
208	0xb5d78a6b	-1.6059033e-06
209	0x0000adc0	6.233e-41
210	0x0000b114	6.3524e-41
211	0x38644c3a	5.4430428e-05
212	0x38dc14a6	0.000104942636
213	0x38840627	6.2953965e-05
214	0x394caf79	0.00019520325
215	0x80006e3f	-3.9549e-41
216	0x8000b328	-6.4269e-41
217	0x800088b9	-4.9047e-41
218	0x80008d5b	-5.0709e-41
219	0x800083de	-4.7305e-41
220	0x387df249	6.0545546e-05
221	0x0000364a	1.9475e-41
222	0x00000a33	3.659e-42
223	0x387b0175	5.984442e-05
224	0x000057bd	3.1475e-41
225	0x361d680e	2.345539e-06
226	0x80004acd	-2.6833e-41
227	0x34f5b8d8	4.5769298e-07
228	0x000034cc	1.894e-41
229	0x80001e6d	-1.0915e-41
230	0x386b1a01	5.6052584e-05
231	0x800054f5	-3.0477e-41
232	0x3876ad0d	5.8812137e-05
233	0x00008710	4.8451e-41
234	0x80003eec	-2.2572e-41
235	0x8000ad57	-6.2183e-41
236	0x382f7a74	4.1837295e-05
237	0xb5752f87	-9.1338774e-07
238	0x362b7809	2.5550855e-06
239	0xb6d96be0	-6.4796623e-06
240	0x386959a9	5.563503e-05
241	0x38be4e5e	9.074503e-05
242	0x000072bd	4.116e-41
243	0x800086f3	-4.841e-41
244	0x00007869	4.3195e-41
245	0x8000708a	-4.0371e-41
246	0x35ed830b	1.7696015e-06
247	0x369a2061	4.593327e-06
248	0x36de103a	6.6180046e-06
249	0xb64b13b1	-3.026082e-06
250	0xb6a0ed7d	-4.796019e-06
251	0x80008a7d	-4.968e-41
252	0x80000587	-1.983e-42
253	0xb6c7b84e	-5.952118e-06
254	0x00009373	5.2895e-41
255	0x34af6d09	3.2675624e-07

gats.0.lin_edge.weight f4 [335, 1]
0	0x00008aba	4.9766e-41
1	0x00003f01	2.2602e-41
2	0x000087ef	4.8764e-41
3	0x0000934a	5.2837e-41
4	0xb74e329b	-1.2290339e-05
5	0x36155267	2.2250695e-06
6	0x35ed6d42	1.7689674e-06
7	0xb5d78a6b	-1.6059033e-06
8	0x0000adc0	6.233e-41
9	0x00007110	4.0559e-41
10	0x378cef77	1.680081e-05
11	0xb8aaaffc	-8.139011e-05
12	0x38023e5f	3.1052503e-05
13	0x395b76ca	0.0002092972
14	0x0000b022	6.3185e-41
15	0x80002d97	-1.6355e-41
16	0x00003391	1.8499e-41
17	0x80002628	-1.3688e-41
18	0x80008c2f	-5.0288e-41
19	0x380a5970	3.298506e-05
20	0x00002324	1.2606e-41
21	0x800024ae	-1.3158e-41
22	0xb8cfeaa3	-9.914234e-05
23	0x00009345	5.283e-41
24	0xb7135975	-8.782711e-06
25	0x00001b47	9.785e-42
26	0x36154883	2.2244938e-06
27	0x80008b83	-5.0047e-41
28	0x0000a563	5.933e-41
29	0xb7f3f9c2	-2.908416e-05
30	0x80008c52	-5.0337e-41
31	0x3821ef13	3.8608046e-05
32	0x8000a220	-5.816e-41
33	0x000037df	2.0043e-41
34	0x00006913	3.7694e-41
35	0xb8a34083	-7.784462e-05
36	0xb64b3311	-3.0279082e-06
37	0xb6b2394e	-5.3114845e-06
38	0xb51ee1dc	-5.9188255e-07
39	0x380301f4	3.1234653e-05
40	0xb818c069	-3.641882e-05
41	0x00007327	4.1309e-41
42	0x80001bb7	-9.942e-42
43	0x80003f30	-2.2667e-41
44	0x80004cd9	-2.7568e-41
45	0x35ed6cdd	1.7689559e-06
46	0x36ff1dd8	7.6030665e-06
47	0x3630e8d2	2.6361563e-06
48	0xb6a8a104	-5.025535e-06
49	0x361bebad	2.3233981e-06
50	0x80008437	-4.743e-41
51	0x800090fb	-5.2009e-41
52	0xb7154c98	-8.898925e-06
53	0x800085ae	-4.7955e-41
54	0xb6043f0f	-1.9706238e-06
55	0x00000a02	3.59e-42
56	0x80005aca	-3.2569e-41
57	0xb8b232b4	-8.4971456e-05
58	0x36ea1f58	6.9773923e-06
59	0x36ffbf39	7.6218535e-06
60	0xb95cfd7b	-0.00021075264
61	0x3688a423	4.072224e-06
62	0xb6155343	-2.2251195e-06
63	0x80003671	-1.953e-41
64	0x80008ccf	-5.0513e-41
65	0x000003a0	1.3e-42
66	0xb5ed6542	-1.7687346e-06
67	0x00008aba	4.9766e-41
68	0x00003f01	2.2602e-41
69	0x000087ef	4.8764e-41
70	0x0000934a	5.2837e-41
71	0xb74e3a3e	-1.2292117e-05
72	0x36155258	2.225066e-06
73	0x35ed6d42	1.7689674e-06
74	0xb5d78a6b	-1.6059033e-06
75	0x0000adc0	6.233e-41
76	0x00007110	4.0559e-41
77	0x3784c875	1.5828971e-05
78	0xb8ac1e25	-8.207214e-05
79	0x37fdf761	3.0275145e-05
80	0x395b43a6	0.00020910669
81	0x0000b022	6.3185e-41
82	0x80002683	-1.3815e-41
83	0x00003391	1.8499e-41
84	0x80002628	-1.3688e-41
85	0x80008c2f	-5.0288e-41
86	0x380e1017	3.3870423e-05
87	0x00003103	1.7582e-41
88	0x800024ae	-1.3158e-41
89	0xb8d2a371	-0.00010044024
90	0x00009345	5.283e-41
91	0xb7135118	-8.780764e-06
92	0x00001b47	9.785e-42
93	0x36154883	2.2244938e-06
94	0x80008b83	-5.0047e-41
95	0x0000a563	5.933e-41
96	0xb7e86fd5	-2.7708631e-05
97	0x80008c52	-5.0337e-41
98	0x382409d3	3.9109796e-05
99	0x8000a220	-5.816e-41
100	0x8000865e	-4.8202e-41
101	0x00006913	3.7694e-41
102	0xb8a8f8cd	-8.057207e-05
103	0xb64b3311	-3.0279082e-06
104	0xb6b7a2af	-5.472764e-06
105	0xb69b2fb3	-4.624913e-06
106	0x3805a56b	3.186373e-05
107	0xb8123ac9	-3.486386e-05
108	0x00007327	4.1309e-41
109	0x80001bb7	-9.942e-42
110	0x80003f30	-2.2667e-41
111	0x80004cd9	-2.7568e-41
112	0x35ed6cdd	1.7689559e-06
113	0x36ff1dd8	7.6030665e-06
114	0x3630ed55	2.636419e-06
115	0xb6a8a104	-5.025535e-06
116	0x3614878d	2.213262e-06
117	0x80008437	-4.743e-41
118	0x800090fb	-5.2009e-41
119	0xb715470e	-8.897636e-06
120	0x800085ae	-4.7955e-41
121	0xb60441f2	-1.9707918e-06
122	0x80004912	-2.6213e-41
123	0x80005aca	-3.2569e-41
124	0xb8b623e1	-8.685119e-05
125	0x36ea1f58	6.9773923e-06
126	0x37105d2b	8.604761e-06
127	0xb95ec154	-0.0002124359
128	0x36b582d3	5.4094503e-06
129	0xb6155343	-2.2251195e-06
130	0x80003671	-1.953e-41
131	0x80007e25	-4.5252e-41
132	0x000003a0	1.3e-42
133	0xb5ed6542	-1.7687346e-06
134	0x00008aba	4.9766e-41
135	0x00003f01	2.2602e-41
136	0x000026b9	1.3891e-41
137	0x0000934a	5.2837e-41
138	0xb74e41af	-1.229385e-05
139	0x3615524f	2.225064e-06
140	0x35ed6d42	1.7689674e-06
141	0xb5d78a6b	-1.6059033e-06
142	0x0000adc0	6.233e-41
143	0x00002ab1	1.5315e-41
144	0x3772adc2	1.446478e-05
145	0xb8ab9c2e	-8.183006e-05
146	0x380a617d	3.2992557e-05
147	0x3950719b	0.00019878747
148	0x0000b022	6.3185e-41
149	0x00003566	1.9156e-41
150	0x80008c3d	-5.0308e-41
151	0x80002b20	-1.547e-41
152	0x80008c2f	-5.0288e-41
153	0x380c9ffa	3.352759e-05
154	0x00002230	1.2264e-41
155	0x800024ae	-1.3158e-41
156	0xb8db16d8	-0.00010446989
157	0x00002388	1.2746e-41
158	0xb713596f	-8.782706e-06
159	0x00001b47	9.785e-42
160	0x36154882	2.2244935e-06
161	0x80008b83	-5.0047e-41
162	0x00002139	1.1918e-41
163	0xb7d01afc	-2.4808098e-05
164	0x80009a9f	-5.5468e-41
165	0x3822875a	3.8749866e-05
166	0x8000a220	-5.816e-41
167	0x000037df	2.0043e-41
168	0x800087ad	-4.8671e-41
169	0xb8a6850c	-7.940279e-05
170	0xb692db55	-4.3766727e-06
171	0xb6ccedaf	-6.107344e-06
172	0xb69b2fb3	-4.624913e-06
173	0x38024917	3.1062486e-05
174	0xb7e74780	-2.757064e-05
175	0x00007327	4.1309e-41
176	0x80001bb7	-9.942e-42
177	0x00004a94	2.6754e-41
178	0x8000361e	-1.9414e-41
179	0x35ed6de4	1.7689858e-06
180	0x36ff1dd8	7.6030665e-06
181	0x3660a4e8	3.347459e-06
182	0xb6a89b5b	-5.024876e-06
183	0x36528c36	3.1374052e-06
184	0x80008437	-4.743e-41
185	0x8000a820	-6.0312e-41
186	0xb6f9851a	-7.4362733e-06
187	0x800085ae	-4.7955e-41
188	0xb6044157	-1.9707566e-06
189	0x80009a60	-5.538e-41
190	0x80005aca	-3.2569e-41
191	0xb8b04562	-8.4052575e-05
192	0x36ea4601	6.981893e-06
193	0x36f2c603	7.2352136e-06
194	0xb95fce7a	-0.00021343856
195	0x36cac172	6.042589e-06
196	0xb6155319	-2.22511e-06
197	0x80003671	-1.953e-41
198	0x8000761f	-4.2374e-41
199	0x000003a0	1.3e-42
200	0xb5ed6542	-1.7687346e-06
201	0x00008aba	4.9766e-41
202	0x00003f01	2.2602e-41
203	0x00003225	1.7988e-41
204	0x0000934a	5.2837e-41
205	0xb74e4174	-1.2293796e-05
206	0x3615524f	2.225064e-06
207	0x35ed6d42	1.7689674e-06
208	0xb5d78a6b	-1.6059033e-06
209	0x0000adc0	6.233e-41
210	0x00002ab1	1.5315e-41
211	0x3782f7c8	1.561259e-05
212	0xb8a46ac0	-7.840013e-05
213	0x3802d776	3.119508e-05
214	0x3955ea0b	0.00020400451
215	0x0000b022	6.3185e-41
216	0x00003a76	2.0972e-41
217	0x00003391	1.8499e-41
218	0x80002b20	-1.547e-41
219	0x80008c2f	-5.0288e-41
220	0x3808b550	3.2593787e-05
221	0x00002230	1.2264e-41
222	0x800024ae	-1.3158e-41
223	0xb8d7c52f	-0.00010288727
224	0x00002388	1.2746e-41
225	0xb7135124	-8.780775e-06
226	0x00001b47	9.785e-42
227	0x36154883	2.2244938e-06
228	0x80008b83	-5.0047e-41
229	0x0000a563	5.933e-41
230	0xb7d36df8	-2.5204368e-05
231	0x80009a9f	-5.5468e-41
232	0x38246b19	3.920039e-05
233	0x8000a220	-5.816e-41
234	0x000037df	2.0043e-41
235	0x000074cd	4.19e-41
236	0xb8a74bfe	-7.977335e-05
237	0xb64af65d	-3.0243748e-06
238	0xb6af462a	-5.2235746e-06
239	0xb69b2fb3	-4.624913e-06
240	0x380876dd	3.2535627e-05
241	0xb80a1b1c	-3.292701e-05
242	0x00007327	4.1309e-41
243	0x80001bb7	-9.942e-42
244	0x00004a94	2.6754e-41
245	0x00000b8f	4.146e-42
246	0x35ed6cdd	1.7689559e-06
247	0x36ff1dd8	7.6030665e-06
248	0x3663e3a2	3.3958136e-06
249	0xb6a8a0bd	-5.0255026e-06
250	0x36428dff	2.8990905e-06
251	0x80008437	-4.743e-41
252	0x8000a820	-6.0312e-41
253	0xb7154702	-8.897625e-06
254	0x800085ae	-4.7955e-41
255	0xb60441a6	-1.9707745e-06
