inference/BMC/model_checkpoints/BMC_model_5.pt (torch, 503011 bytes, 21 tensors)

gats.0.att f4 [1, 5, 67]
0.015414436 -0.031334195 -0.0010987578 0.3702434 -0.00029956168 -2.8232448e-06 0.08585068 0.9036747
-0.035412766 -0.0018312313 -0.0003516178 0.6166569 0.0021769803 0.0031450386 -9.052964e-05 0.00013346419
0.77447027 0.0080653485 -0.7693677 0.00039302214 1.002111 0.09855267 -0.50628847 0.7121024
-0.7129374 0.000266308 0.0002716778 8.984294e-05 1.0556891 -0.00078481046 0.4517116 -0.0004206838
-0.39640984 0.0014500667 -0.81156266 -3.1466043e-05 0.041510876 0.21969013 0.011164714 0.51286393
0.46111947 0.020731421 -0.34233442 0.23960942 -0.027080774 0.30879423 1.0291489 -2.3381403e-05
0.008318499 -0.006138155 -0.00067718804 2.5967332e-05 0.50286746 0.018918077 0.017458636 0.18263078
-0.0001358468 -0.8797994 0.036570717 -0.7922805 0.62969786 -0.002291547 0.00071607286 0.003673984
-0.18343332 0.3968616 -0.00029751865 0.036722746 0.090195104 0.02783104 0.017106539 -0.0005969904
-0.0011844226 0.24784105 0.40117964 -0.9824613 -0.0013782739 -0.00015908781 0.6233569 0.7957164
0.6962101 0.00040054138 -0.45367172 0.07748391 0.40701658 -0.74148387 0.00086743396 -0.54829603
-0.019494181 0.0007706909 0.08285837 -0.13127922 0.0003093936 0.0002481655 0.00027392939 -0.23488522
-0.0022666086 0.025516493 -1.1663299 -0.20275375 0.00012352396 0.5993478 0.00020935407 0.012215424
0.32615665 0.63275194 0.28483543 0.056516264 0.17378418 0.054400206 0.3830603 -0.32753915
0.101717204 -0.015779877 -3.5136087e-05 0.057970483 -0.001100696 -0.00063016126 0.0006032111 0.98597604
0.011671975 0.08300529 -0.45148894 0.3694053 -0.71025085 0.3806158 0.52555996 -0.9802004
-0.0043043317 0.010540801 0.016316583 0.06865576 -0.37022525 0.00031418065 -0.24241957 0.107066035
-0.04083091 0.36326665 0.00072236074 0.00068753655 0.009892917 0.57416075 -1.0681196 0.6738074
-0.0004779154 0.014233574 -0.35467756 -0.00076966203 0.00041951312 0.0010392399 0.14243963 -0.0617347
0.25408947 -0.0006792667 -0.0023095256 0.050064113 0.0015717065 0.92549306 0.44339463 0.00027130026
0.00035937672 -2.574641e-06 -0.3665412 -0.0014402607 0.49484158 0.8209758 0.77729195 -0.00023155834
-0.3482913 0.00038430182 0.005133775 -0.13233402 0.012947462 0.58030224 0.34568992 -0.22827105
0.017483529 0.901849 0.35150793 0.024516515 0.35046932 -0.00012426868 -0.4905232 0.0017150097
0.44469613 0.00036323533 0.02181381 0.49271032 0.008850361 0.032631174 -0.050706215 0.20163056
-0.52690727 -0.8603097 0.8483749 -0.19677526 -0.022058625 0.40904728 -0.33980697 0.016077563
0.25562647 -0.0025447605 -0.2811785 -0.029707657 0.3259328 0.00025959496 -0.0009331138 0.16195124
0.03941623 -1.2116528 -0.0005154255 -0.0004604595 -0.6512798 -0.04718371 0.0009782139 -0.63623595
0.0012937211 0.24057832 -0.25399444 0.94015175 0.00083041366 -0.44900376 0.2930756 0.0020391517
-0.3032871 -0.43443918 0.0007441196 0.00011677828 0.00042890097 0.0034970155 -0.67907476 0.30236363
-0.58244973 -0.2759423 0.4037571 -0.3037226 0.0007811745 -0.009202871 0.33389637 0.11690193
0.062279694 0.31546104 -0.3414673 0.09315206 0.55271083 -0.96325046 0.7285414 -0.003302843
0.00039084547 -0.5804778 -1.13387905e-05 -0.001753682 0.00020714059 0.014207989 -0.43788716 1.0718384
00000000: d58c 7c3c 4958 00bd 3204 90ba 8b90 bd3e
00000010: 7d0e 9db9 fa76 3db6 7bd2 af3d 3a57 673f
00000020: fa0c 11bd ed05 f0ba 5859 b8b9 3add 1d3f
00000030: abab 0e3b fe1c 4e3b bbda bdb8 85f2 0b39
00000040: af43 463f 8624 043c 48f5 44bf 8a0e ce39
00000050: 2c45 803f fbd5 c93d 1f9c 01bf 584c 363f
00000060: 1183 36bf 419f 8b39 fa6f 8e39 106a bc38
00000070: d220 873f bdbb 4dba be46 e73e 398f dcb9
00000080: 3bf6 cabe 2a10 be3a 92c2 4fbf 68fa 03b8
00000090: 4f07 2a3d 73f6 603e 34ec 363c 0d4b 033f
000000a0: da17 ec3e f1d4 a93c 7546 afbe 2c5c 753e
000000b0: 80d8 ddbc 471a 9e3e 27bb 833f 2e23 c4b7
000000c0: 504a 083c 9322 c9bb 5285 31ba 6cd4 d937
000000d0: ecbb 003f 15fa 9a3c 6a05 8f3c 9003 3b3e
000000e0: 1972 0eb9 893a 61bf 2dcb 153d e5d2 4abf
000000f0: e133 213f c72d 16bb d6b6 3b3a 39c7 703b
00000100: f2d5 3bbe 7231 cb3e 47fc 9bb9 976a 163d
00000110: 36b8 b83d ecfd e33c 0323 8c3c 597f 1cba
00000120: a13e 9bba 0bca 7d3e 6b67 cd3e 9582 7bbf
00000130: 33a7 b4ba cfd0 26b9 5194 1f3f 12b4 4b3f
00000140: d33a 323f c1ff d139 a947 e8be e2af 9e3d
00000150: 7a64 d03e e3d1 3dbf 8264 633a 215d 0cbf
00000160: 43b2 9fbc 3108 4a3a a6b1 a93d 0f6e 06be
00000170: 1b36 a239 361c 8239 2e9e 8f39 c085 70be
00000180: 628b 14bb f707 d13c 4c4a 95bf ae9e 4fbe
00000190: 3686 0139 db6e 193f 0e86 5b39 3423 483c
000001a0: 01fe a63e 08fc 213f f3d5 913e 997d 673d
000001b0: 7bf4 313e c0d2 5e3d 7b20 c43e 36b3 a7be
000001c0: 1c51 d03d cd44 81bc 165f 13b8 7572 6d3d
000001d0: 3b45 90ba 6831 25ba d020 1e3a ed68 7c3f
000001e0: d03b 3f3c adfe a93d 8f29 e7be b122 bd3e
000001f0: 00d3 35bf 13e0 c23e 198b 063f 6aee 7abf
00000200: 5a0b 8dbb 53b3 2c3c 5baa 853c 649b 8c3d
00000210: 2a8e bdbe 9db8 a439 d63c 78be 7045 db3d
00000220: 503e 27bd 16fe b93e cf5c 3d3a cc3b 343a
00000230: e715 223c 33fc 123f 25b8 88bf a47e 2c3f
00000240: b890 fab9 f033 693c 4c98 b5be 25c3 49ba
00000250: 19f2 db39 1b37 883a b2db 113e 86dd 7cbd
00000260: 0418 823e d110 32ba 695b 17bb 0710 4d3d
00000270: b801 ce3a 1ded 6c3f 9f04 e33e 4e3d 8e39
00000280: ba6a bc39 ffc7 2cb6 4aab bbbe 21c7 bcba
00000290: e05b fd3e 782b 523f 9bfc 463f 78ce 72b9
000002a0: 3d53 b2be 1e7c c939 3a39 a83b 9282 07be
000002b0: 9721 543c b08e 143f 45fe b03e e3bf 69be
000002c0: 9e39 8f3c 93df 663f d9f8 b33e dcd6 c83c
000002d0: b770 b33e 1f4e 02b9 db25 fbbe 2dca e03a
000002e0: 36af e33e 9f70 be39 e0b2 b23c 8744 fc3e
000002f0: 1b01 113c 44a8 053d 52b1 4fbd 3e78 4e3e
00000300: 65e3 06bf 423d 5cbf 192f 593f 747f 49be
00000310: 4ab4 b4bc a56e d13e 2efb adbe 18b5 833c
00000320: 79e1 823e ffc5 26bb a1f6 8fbe 795d f3bc
00000330: aae0 a63e 3f1a 8839 359c 74ba 8cd6 253e
00000340: ea72 213d 7017 9bbf 9f1d 07ba d469 f1b9
00000350: 46ba 26bf b543 41bd 6937 803a 5ce0 22bf
00000360: 1492 a93a 2a5a 763e 8f0b 82be c9ad 703f
00000370: 1eb0 593a d2e3 e5be 010e 963e 4aa3 053b
00000380: 7248 9bbe d06e debe 0511 433a dde6 f438
00000390: 1dde e039 2f2e 653b d8d7 2dbf 68cf 9a3e
000003a0: 6d1b 15bf 4f48 8dbe 40b9 ce3e 8781 9bbe
000003b0: bcc7 4c3a a3c7 16bc 77f4 aa3e 476a ef3d
000003c0: fe18 7f3d 1c84 a13e cdd4 aebe 82c6 be3d
000003d0: 757e 0d3f 9597 76bf b081 3a3f 8374 58bb
000003e0: 64ea cc39 319a 14bf bc3b 3eb7 cedb e5ba
000003f0: e133 5939 a0c8 683c bf32 e0be 0032 893f

gats.0.bias f4 [67]
-0.048861127 -0.046271347 -0.0892865 -0.059425693 0.0016149116 0.0070737125 0.0033159554 -0.0131848445
-0.033589236 -0.025256699 0.0006062701 0.03852631 -0.04139756 -0.056665655 -0.020481976 0.00805441
-0.026791748 -0.04326004 -0.05275318 0.0047867754 -0.031656303 -0.0910257 -0.012566481 0.01749209
-0.074938 0.0016226852 0.0011690356 0.0009921975 -0.030175552 -0.045244444 -0.10195686 -0.066214815
-0.018375602 -0.014308712 -0.03553988 0.003631365 -0.01686413 -0.042281337 -0.08269605 -0.033698313
-0.014513746 -0.044501286 -0.044789027 -0.044049084 -0.025602367 -0.02423063 -0.09443685 0.0013372111
-0.034543913 0.004915276 -0.012226617 0.0024455 -0.024153769 -0.14425 -0.08332198 -0.014337648
-0.033792496 0.06277234 -0.066399164 0.00044051727 -0.019094907 -0.0034748765 -0.034651443 -0.03272821
-0.006812989 -0.016794814 -0.006558755
00000000: 9b22 48bd 0687 3dbd d7db b6bd 5b68 73bd
00000010: 71ab d33a 9aca e73b 8050 593b 3f05 58bc
00000020: de94 09bd 23e7 cebc 19ee 1e3a c4cd 1d3d
00000030: 7d90 29bd 3f1a 68bd d1c9 a7bc a5f6 033c
00000040: 5e7a dbbc 7131 31bd b813 58bd 62da 9c3b
00000050: 0aaa 01bd af6b babd a4e3 4dbc 924b 8f3c
00000060: 1879 99bd 48b0 d43a 533a 993a a00c 823a
00000070: b832 f7bc 3d52 39bd c2ce d0bd a29b 87bd
00000080: 6e88 96bc 176f 6abc 4492 11bd 32fc 6d3b
00000090: a526 8abc 322f 2dbd 8c5c a9bd 3e07 0abd
000000a0: 10cb 6dbc fb46 36bd b374 37bd d06c 34bd
000000b0: 0ebc d1bc 507f c6bc 1b68 c1bd 5c45 af3a
000000c0: eb7d 0dbd 5310 a13b 2652 48bc af44 203b
000000d0: 20de c5bc 46b6 13be b7a4 aabd 74e8 6abc
000000e0: 006a 0abd c98e 803d 49fc 87bd 3af5 e639
000000f0: ec6c 9cbc c1ba 63bb acee 0dbd 040e 06bd
00000100: 7e3f dfbb 4795 89bc d3ea d6bb

gats.0.lin_l.weight f4 [335, 67]
2.6847e-41 4.1358e-41 0.0057389666 1.4625e-41 -0.005240338 3.8652e-41 -3.3055e-41 0.033560984
1.0786e-41 -9.547e-42 -5.9332e-41 3.4995e-41 9.313e-42 -1.4845e-41 -3.0711e-41 7.0834e-41
-2.1406e-41 4.391e-41 0.03172228 -0.050518714 7.2736e-41 0.055052634 -0.044906188 0.017292818
7.387e-41 -7.48e-43 0.01490737 0.114181094 -0.0025207626 6.2899e-41 -3.1228e-41 -0.03956881
-2.332e-42 -0.007163095 0.00751006 0.020783538 -0.00035928603 -7.967265e-05 -7.0562e-41 6.38e-43
1.847e-42 -7.2212e-41 0.0010870444 5.6214e-41 -1.4209e-41 -5.8545e-41 3.5025e-41 4.794e-42
-9.23e-43 1.95e-42 -1.4499e-41 2.0138e-41 -3.0778e-41 -2.8144e-41 -6.3117e-41 4.5972e-41
6.6611e-41 5.9491e-41 -5.272e-42 0.14850202 0.5595544 -5.5019e-41 3.5314e-41 6.9953e-41
2.5108e-41 -6.4065e-41 -0.0082269795 3.137e-41 -1.0597e-41 0.0036149207 -6.42e-43 -0.13847576
4.0841e-41 4.036e-42 0.081442244 4.9867e-41 3.7649e-41 3.5527e-41 7.1882e-41 4.992e-41
5.7002e-41 2.2397e-41 -6.6642e-41 2.741e-41 1.5156e-41 -0.038280256 0.071247 1.5472e-41
0.10405625 0.06325077 0.017867407 -3.3846e-41 4.4771e-41 0.21148084 0.019123008 -0.0073050526
-1.5112e-41 2.9045e-41 0.03140615 3.8289e-41 0.021146322 0.0007967938 0.31774864 0.0003721833
0.00019535398 -6.8333e-41 -3.3942e-41 9.626e-42 7.4546e-41 0.084029235 -6.5184e-41 6.8472e-41
-2.5798e-41 -5.5107e-41 6.7607e-41 1.1924e-41 5.8314e-41 3.7339e-41 7.4649e-41 -4.9123e-41
4.7106e-41 -7.5992e-41 -1.134e-41 3.611e-41 -1.6621e-41 2.6919e-41 -0.043858517 0.5234978
6.0536e-41 2.8956e-41 2.4995e-41 -4.4714e-41 -5.177e-41 -0.015011751 -1.2047e-41 3.1433e-41
0.00043005293 -6.5906e-41 -0.0050789635 1.2749e-41 2.7224e-41 0.014235119 -4.7993e-41 -3.1144e-41
-3.2886e-41 6.0442e-41 -2.982e-42 6.5456e-41 -6.3032e-41 1.036e-41 -3.0327e-41 6.7124e-41
0.014474662 0.00768333 -2.3884e-41 0.030065771 0.017465174 0.0032442561 -2.801e-42 -7.5072e-41
-0.00045267283 -0.0042497343 -0.0003522076 2.6566e-41 -2.8948e-41 -3.459983e-05 -2.4981e-41 0.0008626878
-0.00091631204 0.0013049357 -0.00011724929 -5.046355e-05 -7.5006e-41 4.8998e-41 4.7874e-41 1.4576e-41
-0.0021705022 -2.2307e-41 2.8287e-41 -6.0317e-41 6.5365e-41 2.12e-43 1.2001e-41 7.6191e-41
2.9311e-41 2.4077e-41 2.4545e-41 -7.4084e-41 -2.0697e-41 1.84e-42 1.3392e-41 -2.4174e-41
-7.2196e-41 -0.007976237 0.29065892 -3.3272e-41 -3.1725e-41 -2.1629e-41 -3.7049e-41 5.4784e-41
-0.007394283 -5.215e-41 6.1713e-41 -0.012029177 -4.6803e-41 0.038139425 -2.8029e-41 4.4095e-41
-0.122221045 6.5846e-41 6.8903e-41 -7.2086e-41 -7.435e-42 3.4263e-41 -2.0107e-41 -6.6721e-41
3.6163e-41 -2.9929e-41 2.7205e-41 -0.1145545 -0.09479903 -3.1278e-41 -0.11993841 0.9743005
0.038702574 -6.7924e-41 -6.7278e-41 0.21785544 0.02140035 0.047141425 2.2218e-41 -4.2393e-41
-0.09082505 5.027e-41 -0.015341545 0.11628978 -0.024700398 -0.0005952774 0.0009313567 1.5765e-41
-1.5269e-41 4.3998e-41 -7.381e-41 -0.0007142344 3.3666e-41 5.0897e-41 6.8584e-41 -1.0074e-41
6.7735e-41 7.1033e-41 7.1993e-41 -6.2306e-41 2.3409e-41 -8.03e-43 3.6707e-41 4.0754e-41
00000000: d74a 0000 4a73 0000 f10d bc3b c528 0000
00000010: 24b7 abbb bf6b 0000 255c 0080 3e77 093d
00000020: 111e 0000 9d1a 0080 65a5 0080 8d61 0000
00000030: f619 0000 6229 0080 9c55 0080 75c5 0000
00000040: ac3b 0080 677a 0000 39ef 013d b6ec 4ebd
00000050: c2ca 0000 df7e 613d 8def 37bd aba9 8d3c
00000060: ebcd 0000 1602 0080 0b3e 743c c7d7 e93d
00000070: 6133 25bb 56af 0000 0d57 0080 e812 22bd
00000080: 8006 0080 65b8 eabb f316 f63b 3d42 aa3c
00000090: 8e5e bcb9 ee15 a7b8 b3c4 0080 c701 0000
000000a0: 2605 0000 4cc9 0080 287b 8e3a b49c 0000
000000b0: 9c27 0080 33a3 0080 a361 0000 5d0d 0000
000000c0: 9302 0080 7005 0000 6b28 0080 2338 0000
000000d0: cc55 0080 744e 0080 f2af 0080 2780 0000
000000e0: afb9 0000 d6a5 0000 b20e 0080 ea10 183e
000000f0: f53e 0f3f 5f99 0080 7162 0000 00c3 0000
00000100: fe45 0000 96b2 0080 74ca 06bc 7257 0000
00000110: 8a1d 0080 4ee8 6c3b ca01 0080 97cc 0dbe
00000120: d971 0000 400b 0000 31cb a63d 028b 0000
00000130: f368 0000 0963 0000 61c8 0000 288b 0000
00000140: e69e 0000 6f3e 0000 c5b9 0080 684c 0000
00000150: 402a 0000 c2cb 1cbd f2e9 913d 212b 0000
00000160: 711b d53d 9f89 813d ab5e 923c 595e 0080
00000170: ce7c 0000 6f8e 583e dba7 9c3c 395f efbb
00000180: 202a 0080 f750 0000 bca3 003d bc6a 0000
00000190: 0d3b ad3c eddf 503a f3af a23e 9921 c339
000001a0: efd7 4c39 7cbe 0080 9e5e 0080 d51a 0000
000001b0: cecf 0000 8517 ac3d b5b5 0080 dfbe 0000
000001c0: ea47 0080 9e99 0080 76bc 0000 3d21 0000
000001d0: 8ea2 0000 1668 0000 17d0 0000 ef88 0080
000001e0: 5083 0000 d6d3 0080 9c1f 0080 a964 0000
000001f0: 552e 0080 0a4b 0000 fda4 33bd f403 063f
00000200: c0a8 0000 b850 0000 ad45 0000 a57c 0080
00000210: 5090 0080 d9f3 75bc 9521 0080 9f57 0000
00000220: ba78 e139 b8b7 0080 6f6d a6bb 8a23 0000
00000230: e44b 0000 6b3a 693c c985 0080 d156 0080
00000240: ac5b 0080 7da8 0000 5008 0080 77b6 0000
00000250: b5af 0080 e11c 0000 8a54 0080 1dbb 0000
00000260: 2227 6d3c 72c4 fb3b 9442 0080 7e4c f63c
00000270: 2013 8f3c 969d 543b cf07 0080 45d1 0080
00000280: b854 edb9 5b41 8bbb 81a8 b8b9 0e4a 0000
00000290: b250 0080 491f 11b8 a345 0080 0026 623a
000002a0: a934 70ba 600a ab3a bce3 f5b8 d3a8 53b8
000002b0: 16d1 0080 9688 0000 7485 0000 a228 0000
000002c0: fc3e 0ebb 2f3e 0080 da4e 0000 24a8 0080
000002d0: 36b6 0000 9700 0000 7421 0000 64d4 0000
000002e0: b551 0000 1e43 0000 6c44 0000 84ce 0080
000002f0: b239 0080 2105 0000 5525 0000 6343 0080
00000300: 41c9 0080 c3ae 02bc 3fd1 943e c05c 0080
00000310: 7058 0080 4b3c 0080 4767 0080 b798 0000
00000320: be4b f2bb 5f91 0080 08ac 0000 0616 45bc
00000330: 7882 0080 1638 1c3d 224e 0080 eb7a 0000
00000340: 074f fabd 8db7 0000 13c0 0000 f2c8 0080
00000350: ba14 0080 835f 0000 0d38 0080 feb9 0080
00000360: cf64 0000 6e53 0080 d64b 0000 8d9b eabd
00000370: fe25 c2bd 3157 0080 45a2 f5bd c26b 793f
00000380: 9786 1e3d 58bd 0080 8bbb 0080 7f15 5f3e
00000390: c94f af3c 5e17 413d ef3d 0000 2d76 0080
000003a0: 7c02 babd 228c 0000 1b5b 7bbc 5629 ee3d
000003b0: 7d58 cabc 640c 1cba 4a26 743a f22b 0000
000003c0: 902a 0080 a67a 0000 c1cd 0080 763b 3bba
000003d0: d95d 0000 e18d 0000 2fbf 0000 151c 0080
000003e0: d1bc 0000 03c6 0000 b0c8 0000 afad 0080
000003f0: 4141 0000 3d02 0080 5366 0000 9b71 0000

gats.0.lin_l.bias f4 [335]
0.06250178 -0.04739675 -0.035623096 0.016626911 -0.003915378 -0.0035069503 0.05069441 0.085599475
-0.047952082 -0.0027850678 -0.0014000314 0.01791106 -0.028088046 -0.016610207 -0.0061249784 -0.0057002865
0.04604033 -0.062342964 0.027417883 -0.0032347406 0.20919669 -0.03729708 -0.008529937 -0.0048206225
0.015562346 -0.0027050881 -0.0012925328 -0.0020729408 0.023026472 -0.022438949 -0.021299072 -0.003178972
-0.07101047 -0.00064617925 0.017756183 -0.0038759657 0.02222075 0.053419586 0.0023097524 0.0639731
-0.08041214 0.030752711 0.03019863 -0.026666833 -0.07935436 0.0071556517 0.16775143 -0.0013166602
-0.06875939 -0.0016821781 -0.007769016 -0.0015853823 -0.02795914 -0.12958899 -0.011469571 0.0067451196
-0.011809811 0.10602498 -0.04629624 0.03367991 0.1024057 0.001360299 -0.040725503 -0.10155893
-0.09584478 0.074695826 -0.0069968416 -0.027744172 0.04917805 -0.05702685 -0.095763296 -0.0043759746
-0.0035468477 -0.04159787 0.028936086 0.05032059 -0.002871365 -0.0014045421 0.124814056 0.123378076
0.23089044 -0.0037083747 -0.12704822 0.052670058 0.013863804 -0.028667346 -0.0032427895 -0.13466477
0.015427434 -0.009857505 -0.0719113 -0.12906693 -0.0022672438 -0.0012795713 -0.0020047324 0.01294497
-0.026428292 -0.122234344 -0.06833247 -0.036039185 -0.0060693603 0.07925831 -0.0035284676 -0.07190818
0.006497982 0.079403624 -0.034360763 -0.092538595 -0.07961248 -0.05053693 0.0006559961 -0.031258482
-0.07735616 -0.016515804 -0.0013890347 -0.06959521 -0.0014576481 -0.008108504 -0.0012513343 0.11117614
-0.11641239 -0.066619754 -0.012334988 0.11104637 0.101009704 0.042248227 0.06171961 0.07422426
-0.0003497388 -0.034575876 0.005082739 0.0508745 0.009204782 -0.0072292243 -0.0067005297 -0.012664044
-0.1328165 0.041865457 -0.003863425 -0.003568111 0.020060237 0.00095420954 0.15669315 0.04610143
-0.0013532791 0.005527831 0.12795778 -0.018016089 -0.0036961571 -0.0052922415 -0.02450502 -0.008486521
-0.039569173 -0.0023994925 -0.023614747 0.015401367 -0.009573803 -0.012467971 0.04640562 -0.0027764381
-0.0012974403 -0.0021406452 -0.005403012 -0.025401123 -0.016097886 0.08944654 0.09036145 0.00078031403
-0.09996753 -0.006054237 0.0100105 -0.0339117 -0.101121746 0.03413146 -0.05401629 -0.061522197
-0.025887644 -0.0032647774 0.032372396 0.046920862 -0.05351852 -0.0013627361 0.04853157 -0.0016127331
0.02330332 -0.0012574635 -0.104330994 -0.10796388 -0.013274376 -0.019786382 0.009929022 0.12747295
0.025878325 0.054102827 0.06390018 -0.0035345836 -0.035499133 0.004267452 -0.110384256 -0.116386585
0.008858093 0.009470504 0.020788303 -0.013777041 0.04015521 -0.0040462893 -0.0032727593 -0.004404206
-0.017012442 0.031071464 -0.0036981835 -0.0013102657 0.04288894 -0.07067298 -0.015304887 -0.045963857
-0.0050240774 -0.056389388 0.03091344 0.079355426 -0.016762834 0.0028199886 0.027964827 -0.008680028
-0.04539514 -0.017232167 -0.0028683022 -0.001490521 -0.0019911337 -0.06271152 0.026696863 -0.06676252
0.022458386 0.054977264 -0.035575103 0.07442124 -0.0044221315 -0.11942797 -0.06773809 0.012904299
0.011184438 0.021277795 0.05458605 -0.066632494 -0.012933118 0.0771411 0.055751015 -0.043019444
-0.0013557833 0.091599345 -0.0014292555 -0.006633503 -0.0014640328 -0.027769517 -0.066379376 0.15232334
00000000: ef00 803d 1823 42bd 86e9 11bd 2935 883c
00000010: 924c 80bb ddd4 65bb f1a4 4f3d c74e af3d
00000020: 6769 44bd af85 36bb 4281 b7ba 37ba 923c
00000030: e718 e6bc 2112 88bc 0bb4 c8bb 78c9 babb
00000040: c994 3c3d 565b 7fbd 789b e03c f1fd 53bb
00000050: a837 563e d3c4 18bd 26c1 0bbc 50f6 9dbb
00000060: 36f9 7e3c d947 31bb 346a a9ba 2dda 07bb
00000070: 03a2 bc3c e3d1 b7bc 647b aebc 4d56 50bb
00000080: f06d 91bd 5b64 29ba 6a75 913c ea03 7ebb
00000090: 4a08 b63c 7fce 5a3d 375f 173b 5404 833d
000000a0: 1faf a4bd 1ced fb3c 1e63 f73c 6774 dabc
000000b0: 8a84 a2bd f579 ea3b 08c7 2b3e c993 acba
000000c0: b9d1 8cbd 887c dcba 3b93 febb 9acc cfba
000000d0: 910a e5bc fab2 04be deea 3bbc 2a06 dd3b
000000e0: f07d 41bc a023 d93d 20a1 3dbd f2f3 093d
000000f0: 14ba d13d 0f4c b23a c9cf 26bd 21fe cfbd
00000100: 454a c4bd 20fa 983d c345 e5bb bf47 e3bc
00000110: ec6e 493d fc94 69bd 8c1f c4bd 5664 8fbb
00000120: 3b72 68bb 8762 2abd 5f0b ed3c f71c 4e3d
00000130: 832d 3cbb 9d18 b8ba 839e ff3d a5ad fc3d
00000140: 8b6e 6c3e 3408 73bb ee18 02be 8fbc 573d
00000150: 0225 633c c8d7 eabc fb84 54bb 90e5 09be
00000160: 59c3 7c3c 5f81 21bc 3b46 93bd 1f2a 04be
00000170: 0a96 14bb 4ab7 a7ba d461 03bb 2417 543c
00000180: 2580 d8bc 0056 fabd e5f1 8bbd d39d 13bd
00000190: 7ce1 c6bb 2e52 a23d dd3d 67bb 9944 93bd
000001a0: 06ed d43b 5e9e a23d dfbd 0cbd e084 bdbd
000001b0: de0b a3bd d0ff 4ebd 27f7 2b3a e508 00bd
000001c0: e86c 9ebd 274c 87bc 4510 b6ba ef87 8ebd
000001d0: 8e0e bfba 88d9 04bc d003 a4ba 51b0 e33d
000001e0: 9e69 eebd f06f 88bd b118 4abc 476c e33d
000001f0: 2dde ce3d 7a0c 2d3d b4cd 7c3d e402 983d
00000200: 265d b7b9 6f9f 0dbd 1b8d a63b c861 503d
00000210: a7cf 163c 21e3 ecbb 1e90 dbbb da7c 4fbc
00000220: 0c01 08be 1d7b 2b3d 8431 7dbb f8d6 69bb
00000230: 5e55 a43c eb23 7a3a 2b74 203e dad4 3c3d
00000240: 8360 b1ba cf22 b53b 5d07 033e 7a96 93bc
00000250: 3a3b 72bb 8a6a adbb c0be c8bc 0d0b 0bbc
00000260: 4913 22bd ce40 1dbb b773 c1bc 0456 7c3c
00000270: 71db 1cbc 7646 4cbc d213 3e3d e7f4 35bb
00000280: df0e aaba 114a 0cbb c00b b1bb 0416 d0bc
00000290: b7df 83bc bf2f b73d 6d0f b93d fd8d 4c3a
000002a0: c7bb ccbd 9f62 c6bb 1503 243c ffe6 0abd
000002b0: eb18 cfbd 6ecd 0b3d 2f40 5dbd b3fe 7bbd
000002c0: 5312 d4bc e0f5 55bb eb98 043d 1730 403d
000002d0: 3c36 5bbd d69d b2ba 0ac9 463d 5862 d3ba
000002e0: 9be6 be3c 79d1 a4ba 7dab d5bd 2b1c ddbd
000002f0: c57c 59bc 0d17 a2bc 56ad 223c 4588 023e
00000300: c8fe d33c ed9a 5d3d 19de 823d 79a4 67bb
00000310: 8a67 11bd fbd5 8b3b 2411 e2bd 175c eebd
00000320: 8921 113c 2c2a 1b3c 3b4c aa3c 19b9 61bc
00000330: ca79 243d bc96 84bb ca7b 56bb 2851 90bb
00000340: ad5d 8bbc 9589 fe3c 395d 72bb 39bd abba
00000350: 50ac 2f3d ffbc 90bd 59c1 7abc 9944 3cbd
00000360: 04a1 a4bb 8ff8 66bd 2f3e fd3c 1985 a23d
00000370: 3652 89bc 8fcf 383b 7e16 e53c ad36 0ebc
00000380: 41f0 39bd 792a 8dbc 20fa 3bbb 965d c3ba
00000390: ae7d 02bb e66e 80bd 61b3 da3c caba 88bd
000003a0: a6fa b73c d72f 613d 33b7 11bd 2a6a 983d
000003b0: 87e7 90bb a796 f4bd 45ba 8abd 8e6c 533c
000003c0: ef3e 373c c54e ae3c 9f95 5f3d 9e76 88bd
000003d0: 6ee5 53bc 27fc 9d3d 2d5b 643d 2835 30bd
000003e0: 8ab4 b1ba 7098 bb3d db55 bbba db5d d9bb
000003f0: cae4 bfba e67c e3bc e9f1 87bd a6fa 1b3e

gats.0.lin_r.weight f4 [335, 67]
-3.2006e-41 -1.2375e-41 0.00069732824 3.609e-41 0.00012729103 6.5428e-41 -6.949e-42 3.7584e-41
1.2834e-41 6.275e-42 -4.181e-41 1.7669e-41 1.1216e-41 2.148e-42 5.7078e-41 -4.6068e-41
3.2294e-41 -6.7101e-41 0.02424349 -0.0016336858 6.3709e-41 3.8162e-41 0.000487991 -0.0001737573
5.7144e-41 -2.6595e-41 -0.0009377129 0.00047575322 0.0006149347 -3.2289e-41 5.9414e-41 0.00013179542
-2.125e-41 -0.00016990103 0.0005899378 -0.00018785727 1.6947482e-05 1.0124481e-05 3.143e-42 -4.2182e-41
-7.239e-41 -1.6654e-41 0.00042955534 6.2456e-41 -2.4352e-41 -3.4053e-41 -3.428e-42 6.2935e-41
-7.1702e-41 1.4344e-41 -5.9327e-41 -3.9892e-41 6.2e-44 -4.72e-43 -5.615e-42 -1.9953e-41
-4.8007e-41 -9.373e-42 -2.8168e-41 -0.0010374833 0.00048641022 -2.276e-41 3.2448e-41 1.686e-41
2.5813e-41 5.82e-41 -0.00020870152 3.1651e-41 -6.613e-41 -0.0018184904 -3.6459e-41 0.00013053966
5.5e-43 -2.8302e-41 0.00022730671 4.249e-42 -4.2169e-41 7.3736e-41 2.186e-42 2.4638e-41
-2.756e-41 6.2342e-41 4.739e-42 3.2893e-41 -3.0799e-41 -0.02228276 -0.0019677687 1.796e-42
0.00034790812 0.0009627799 0.0031665133 3.2182e-41 -2.1052e-41 0.007453142 -0.002605127 0.0021182674
7.364e-42 2.19e-43 -0.002018624 4.5297e-41 0.0006649508 0.0035333897 0.00058652955 -5.4433098e-05
-4.9417777e-05 -2.5689e-41 -7.5659e-41 2.41e-43 6.6545e-41 -0.0020990798 6.8505e-41 -3.8065e-41
2.9511e-41 -5.5337e-41 -3.303e-42 2.5058e-41 -3.1609e-41 5.0758e-41 6.5896e-41 -4.6602e-41
2.5595e-41 -5.995e-42 -2.887e-41 4.181e-42 7.1849e-41 6.697e-42 -0.00043359122 0.0040014773
4.4704e-41 4.8811e-41 -3.2381e-41 9.16e-43 1.7282e-41 4.9297163e-05 -2.1957e-41 3.566e-41
7.0586444e-05 5.8731e-41 -8.996922e-06 -1.111e-41 -3.2172e-41 -0.00058533705 3.6835e-41 6.845e-42
-1.2718e-41 -3.2615e-41 6.6936e-41 -1.301e-41 -5.235e-41 7.1284e-41 -5.4013e-41 -6.1464e-41
-0.00061068573 -0.0002325379 7.1676e-41 -5.913363e-05 -9.71491e-07 0.00018400524 5.025e-42 6.587e-41
4.8452068e-05 -0.000702442 3.4031484e-05 -2.098e-42 2.818e-41 0.0002600824 3.1012e-41 0.0001930786
-2.1564824e-06 -5.0683852e-06 1.449e-41 -3.3629215e-38 -4.2022e-41 2.9074e-41 5.3974e-41 -7.232e-42
-0.00011599022 -7.0704e-41 5.479e-42 -6.407e-42 -7.1239e-41 1.2001e-41 -6.3801e-41 5.5264e-41
1.1125e-41 -3.692e-42 -3.5555e-41 -7.3207e-41 -1.33e-43 2.3662e-41 -6.7863e-41 -6.8208e-41
6.99e-42 1.5662879e-08 -0.00065924553 6.679e-42 -5.4222e-41 -7.582e-42 1.0119e-41 -1.976e-41
-8.219914e-12 -3.0023e-41 -1.0099e-41 -0.012209643 -3.1065e-41 0.0001769583 2.626e-42 1.8256e-41
-0.0041992697 -2.4064e-41 -2.98e-41 -2.6796e-41 5.83e-43 5.27e-42 2.3945e-41 -7.6596e-41
-4.6366e-41 5.8318e-41 7.0488e-41 -0.031331442 0.011614004 -3.7786e-41 -0.0056279097 -0.0047713704
-0.0016298671 3.799e-41 5.1346e-41 -0.0028452228 -0.06054002 0.018772623 4.4715e-41 -5.164e-41
0.0049738237 3.59e-42 0.019034225 0.00058198697 0.0021000337 0.00014004028 5.2373485e-05 -4.7875e-41
-2.2714e-41 2.5644e-41 2.7687e-41 0.022776281 -2.6986e-41 -4.998e-42 -2.341e-41 -4.85e-42
-1.498e-41 -2.5466e-41 3.8938e-41 3.2126e-41 -3.83e-42 -7.3438e-41 -7.2353e-41 6.5023e-41
00000000: 3859 0080 7f22 0080 e8cc 363a 9b64 0000
00000010: 6d79 0539 63b6 0000 5f13 0080 c568 0000
00000020: c723 0000 7e11 0000 8d74 0080 4131 0000
00000030: 441f 0000 fd05 0000 1c9f 0000 6b80 0080
00000040: 065a 0000 0dbb 0080 499a c63c 6621 d6ba
00000050: 98b1 0000 616a 0000 0bd9 ff39 9f32 36b9
00000060: 4b9f 0000 234a 0080 d9d0 75ba 846e f939
00000070: 9233 213a 025a 0080 9fa5 0000 9032 0a39
00000080: 3d3b 0080 7627 32b9 0ea6 1a3a 8dfb 44b9
00000090: 712a 8e37 51dc 2937 c308 0000 9675 0080
000000a0: cbc9 0080 6d2e 0080 f135 e139 1aae 0000
000000b0: e243 0080 ed5e 0080 8e09 0080 70af 0000
000000c0: e0c7 0080 fc27 0000 61a5 0080 346f 0080
000000d0: 2c00 0000 5101 0080 a70f 0080 9f37 0080
000000e0: d385 0080 211a 0080 854e 0080 2afc 87ba
000000f0: e004 ff39 723f 0080 745a 0000 002f 0000
00000100: f547 0000 3da2 0000 e3d6 5ab9 3b58 0000
00000110: 58b8 0080 6a5a eeba a265 0080 79e1 0839
00000120: 8801 0000 e54e 0080 2e59 6e39 d80b 0000
00000130: 8d75 0080 8ccd 0000 1806 0000 ae44 0000
00000140: d34c 0080 c9ad 0000 360d 0000 b15b 0000
00000150: db55 0080 568a b6bc aef5 00bb 0205 0000
00000160: 7067 b639 1163 7c3a 4785 4f3b b659 0000
00000170: af3a 0080 7d39 f43b c7ba 2abb a1d2 0a3b
00000180: 8714 0000 9c00 0000 e44a 04bb 457e 0000
00000190: 1850 2e3a 7190 673b 55c1 193a 184f 64b8
000001a0: ef45 4fb8 9c47 0080 e8d2 0080 ac00 0000
000001b0: 80b9 0000 b790 09bb f7be 0000 1c6a 0080
000001c0: 4452 0000 429a 0080 3509 0080 da45 0000
000001d0: 1d58 0080 7e8d 0000 b1b7 0000 e881 0080
000001e0: 5947 0000 b610 0080 7a50 0080 a80b 0000
000001f0: 49c8 0000 ab12 0000 a153 e3b9 d31e 833b
00000200: 9e7c 0000 1188 0000 445a 0080 8e02 0000
00000210: 2d30 0000 6dc4 4e38 353d 0080 6863 0000
00000220: cf07 9438 b8a3 0000 7cf1 16b7 f81e 0080
00000230: af59 0080 4e71 19ba ae66 0000 1513 0000
00000240: 7423 0080 eb5a 0080 97ba 0000 4424 0080
00000250: ee91 0080 b6c6 0000 9196 0080 56ab 0080
00000260: 6d16 20ba 6bd5 73b9 cec7 0000 4006 78b8
00000270: 2d64 82b5 88f1 4039 020e 0000 9eb7 0000
00000280: 0339 4b38 1624 38ba 07bd 0e38 d905 0080
00000290: 8e4e 0000 ab5b 8839 7356 0000 2475 4a39
000002a0: 16b8 10b6 1911 aab6 6428 0000 4918 3781
000002b0: 2475 0080 0c51 0000 7596 0000 2914 0080
000002c0: c63f f3b8 18c5 0080 460f 0000 dc11 0080
000002d0: 96c6 0080 7421 0000 dab1 0080 0e9a 0000
000002e0: 031f 0000 4b0a 0080 1d63 0080 12cc 0080
000002f0: 5f00 0080 f641 0000 2dbd 0080 23be 0080
00000300: 7c13 0000 098b 8632 38d1 2cba 9e12 0000
00000310: 2697 0080 2315 0080 351c 0000 1537 0080
00000320: 349b 10ad b153 0080 271c 0080 f40a 48bc
00000330: 9956 0080 e28d 3939 5207 0000 e432 0000
00000340: 079a 89bb 1543 0080 1253 0080 b24a 0080
00000350: a001 0000 b10e 0000 c042 0000 85d5 0080
00000360: 4081 0080 91a2 0000 7ec4 0000 6655 00bd
00000370: aa48 3e3c 5569 0080 546a b8bb 2859 9cbb
00000380: 44a1 d5ba e769 0000 228f 0000 eb76 3abb
00000390: d0f8 77bd 0bc9 993c a67c 0000 f48f 0080
000003a0: 75fb a23b 020a 0000 aaed 9b3c 7c90 183a
000003b0: b8a0 093b c7d7 1239 9aab 5b38 7585 0080
000003c0: 513f 0080 7c47 0000 2e4d 0000 5395 ba3c
000003d0: 3a4b 0080 ef0d 0080 4241 0080 850d 0080
000003e0: c229 0080 fd46 0080 8b6c 0000 8e59 0000
000003f0: ad0a 0080 b7cc 0080 b1c9 0080 42b5 0000

gats.0.lin_r.bias f4 [335]
0.022397242 -0.0021053313 -0.0018809617 0.055497307 -0.00010206109 -0.00015623267 0.025461623 0.10209563
0.0015278576 0.00036241687 -0.00018155319 0.09388273 0.0015325155 -0.003204076 2.4694256e-05 6.988397e-05
0.05597636 -0.012880714 0.042719256 0.00022387962 0.17719679 0.019985663 0.16770905 0.14026813
0.13624382 -3.253011e-06 -0.00022506254 9.102934e-05 0.25508085 -0.00020384991 0.17043342 0.00067807076
-0.017153637 0.0014417105 0.100451075 -7.75755e-06 0.028174073 0.0019597227 0.012114792 0.058329176
0.13549964 0.019135606 0.082244106 0.061810337 -0.0009360377 0.06137772 0.20563677 0.00016267037
-0.0011133713 0.0031935102 0.0003240274 8.649417e-06 0.13442375 -0.0013235747 0.007857456 0.056614447
-8.69732e-07 0.019789882 0.015581969 0.08914606 0.16271627 -0.0017762915 -0.00014236331 -0.0085884305
-0.07251558 0.07559654 -1.424494e-05 0.023676023 0.0012537569 0.0029138937 -0.0056224843 -0.00020740567
0.0010461517 0.039908186 0.058882874 0.17759919 -0.000955282 0.00011059096 -2.1675061e-05 0.13370472
0.047648195 -0.0001798066 0.14229022 0.008177274 0.10204346 0.093140155 0.0011720698 0.15877803
-0.0100087505 -0.00025819687 0.02231218 -0.036016647 -0.00032507928 -3.8662452e-05 6.2607e-06 0.07238987
-0.00028251178 -0.00015930933 0.2984394 -0.024467643 -0.00036562595 0.1034017 -5.009434e-05 -0.011443637
0.12878765 0.10018354 0.053372383 0.011582522 0.06792942 0.012581796 0.10281656 0.08863857
0.043523274 0.0012612452 -0.00027561784 0.013348069 -0.0026088178 -0.00012912258 0.0021686172 0.20498922
0.00058766536 0.03337725 0.08964898 0.031952538 0.10841321 0.05692011 0.115741685 0.20365484
-0.001543789 -0.0002940735 0.00389735 0.010765653 0.11777855 -0.0005533954 0.008321476 -0.0043244152
0.0049896003 0.034184292 -0.00025927104 0.0006497843 0.0038447026 0.05306604 0.32023638 0.06984816
0.00020468817 0.0014335895 0.12460733 0.0001581327 0.0006751457 -0.00020012532 0.010201484 -0.010050049
0.07135218 0.00033321712 -4.21737e-05 0.007503242 0.00016961058 0.014602038 0.05854158 -5.545755e-05
-0.00025196213 1.6471766e-05 0.12270147 -0.0009545972 0.04411207 0.07933625 0.12040371 -0.0010219474
0.12749283 -6.2438456e-05 -0.0067036827 0.024367124 -0.001650435 0.007187469 0.05786729 0.06098865
0.00292215 0.1881578 0.029688677 0.013351309 0.039410755 -7.726899e-05 0.12608184 0.00024406138
0.04977531 0.0017118369 0.0024406554 0.08399606 0.0036796315 -0.0021771386 0.033165365 0.026903892
0.20275617 0.13234793 0.14013742 0.076631755 -0.0070757475 -0.02101609 -0.017658945 -0.008538176
0.032019097 -0.0022646878 0.03819866 0.0066972496 0.014890394 -0.00011416709 -0.00026257045 0.015310115
-0.0032889673 0.21636346 0.00038894673 -0.00020002625 0.2528263 -0.0073279645 -0.0011820099 0.13586688
-8.9025336e-05 0.047992557 0.0593431 0.16789632 0.0012901573 0.1275997 0.04391781 0.0003148379
0.09199848 0.097410105 0.0002976765 -9.690444e-05 0.00028007923 0.0019603171 0.15888177 0.16008922
0.12935385 0.06501024 0.16442852 0.06601418 0.0006802198 0.0010096728 0.0737557 -0.0052145314
-0.0007188787 -0.018375304 0.10048399 -0.0066719633 0.11309634 0.21581472 0.09457099 0.0036932956
0.0006602682 0.09874634 -0.00031949204 0.00090657093 0.00015368198 0.004898993 0.11381798 0.15669064
00000000: 6c7a b73c 99f9 09bb 9a8a f6ba 2551 633d
00000010: a109 d6b8 63d2 23b9 e594 d03c 8317 d13d
00000020: 6542 c83a c502 be39 505f 3eb9 9745 c03d
00000030: b0de c83a 7afb 51bb 8326 cf37 ac8e 9238
00000040: 7847 653d a109 53bc 63fa 2e3d 3ac1 6a39
00000050: 1373 353e f9b8 a33c ecbb 2b3e 73a2 0f3e
00000060: 8083 0b3e 4e4e 5ab6 c4fe 6bb9 01e7 be38
00000070: f599 823e 8bc0 55b9 1986 2e3e 8fc0 313a
00000080: c985 8cbc c7f7 bc3a 4bb9 cd3d 6c26 02b7
00000090: 50cd e63c b16e 003b 1f7d 463c 93ea 6e3d
000000a0: 6bc0 0a3e 46c2 9c3c 996f a83d d62c 7d3d
000000b0: 6d60 75ba 3467 7b3d 7292 523e 7f92 2a39
000000c0: 8bee 91ba 364a 513b 39e2 a939 f71c 1137
000000d0: 61a6 093e cc7b adba 8fbc 003c 8de4 673d
000000e0: 8777 69b5 641e a23c 844b 7f3c 3692 b63d
000000f0: 189f 263e 74d2 e8ba 5c47 15b9 7db6 0cbc
00000100: 0c83 94bd 5cd2 9a3d 8dfd 6eb7 38f4 c13c
00000110: 1a55 a43a 06f7 3e3b d13c b8bb 097b 59b9
00000120: 071f 893a c476 233d 2b2f 713d 90dc 353e
00000130: e46b 7aba 12ed e738 d7d2 b5b7 e4e9 083e
00000140: c12a 433d 778a 3cb9 87b4 113e f9f9 053c
00000150: 29fc d03d 44c0 be3d 23a0 993a b596 223e
00000160: befb 23bc 995e 87b9 08c8 b63c 3186 13bd
00000170: 676f aab9 7e29 22b8 0113 d236 2441 943d
00000180: 171e 94b9 460c 27b9 0dcd 983e 5e70 c8bc
00000190: 7cb1 bfb9 45c4 d33d 631c 52b8 187e 3bbc
000001a0: e9e0 033e 072d cd3d 009d 5a3d 9ec4 3d3c
000001b0: 941e 8b3d e123 4e3c 7d91 d23d 2388 b53d
000001c0: 7645 323d 5e50 a53a cd80 90b9 dcb1 5a3c
000001d0: b3f8 2abb 1465 07b9 5c1f 0e3b b2e8 513e
000001e0: 8e0d 1a3a 95b6 083d e299 b73d aae0 023d
000001f0: bf07 de3d 1025 693d fa09 ed3d e58a 503e
00000200: f758 caba e12d 9ab9 af6a 7f3b 6c62 303c
00000210: e135 f13d bd11 11ba cd56 083c d3b3 8dbb
00000220: cd7f a33b d404 0c3d c5ee 87b9 4956 2a3a
00000230: 68f7 7b3b c75b 593d 06f6 a33e 8d0c 8f3d
00000240: 90a1 5639 48e7 bb3a 2132 ff3d 6cd0 2539
00000250: 43fc 303a bbd8 51b9 2024 273c f6a8 24bc
00000260: 1721 923d a5b3 ae39 aae3 30b8 c2dd f53b
00000270: 7ed9 3139 633d 6f3c 4cc9 6f3d 179b 68b8
00000280: c919 84b9 d92c 8a37 e94a fb3d ef3d 7aba
00000290: dcae 343d 0b7b a23d 3896 f63d ddf2 85ba
000002a0: 7b8d 023e 64f1 82b8 91aa dbbb 909d c73c
000002b0: 6953 d8ba dc84 eb3b 4006 6d3d 3ccf 793d
000002c0: 8b81 3f3b 70ac 403e ab35 f33c 73bf 5a3c
000002d0: 2c6d 213d 790b a2b8 991b 013e baea 7f39
000002e0: 32e1 4b3d b75f e03a 67f3 1f3b 2006 ac3d
000002f0: f925 713b 53ae 0ebb 68d8 073d 8d65 dc3c
00000300: 509f 4f3e 3786 073e 2f80 0f3e 1cf1 9c3d
00000310: acdb e7bb ef29 acbc 7ea9 90bc b5e3 0bbc
00000320: 7526 033d 286b 14bb 3376 1c3d 9a74 db3b
00000330: d7f6 733c fd6c efb8 9ca9 89b9 47d7 7a3c
00000340: b78b 57bb 628e 5d3e 8ceb cb39 23be 51b9
00000350: 7372 813e 6c1f f0bb aced 9aba b020 0b3e
00000360: 1db3 bab8 d893 443d c011 733d 03ed 2b3e
00000370: 7f1a a93a 7fa9 023e 29e3 333d d410 a539
00000380: b369 bc3d f37e c73d 7711 9c39 2d39 cbb8
00000390: 99d7 9239 aa78 003b e7b1 223e 6eee 233e
000003a0: 5675 043e 1724 853d f35f 283e 7132 873d
000003b0: c750 323a ff56 843a 3a0d 973d a9de aabb
000003c0: 2273 3cba ce87 96bc 8dca cd3d 7ca0 dabb
000003d0: 0e9f e73d 89fe 5c3e 6fae c13d 380b 723b
000003e0: d915 2d3a 853b ca3d 7f81 a7b9 f2a6 6d3a
000003f0: b125 2139 bb87 a03b 6719 e93d 8373 203e

gats.0.lin_edge.weight f4 [335, 1]
0.011793683 -0.0003743307 -0.000934864 0.09672925 1.1741106e-05 -0.0002057672 0.0051623443 0.25045547
-0.0026813447 0.00016372013 -3.6751767e-06 0.22905123 0.0020298176 -0.0012209279 1.8331963e-05 -3.2707583e-06
0.21626997 -0.004689121 0.066481985 0.00014954087 0.24191445 0.015655853 -0.044788595 0.25761634
-0.035560533 -3.8890386e-05 -9.326099e-06 1.3658165e-05 0.2815885 -0.00012777948 0.12728599 0.0006695263
-0.06508245 0.001210244 0.13768007 4.8136873e-05 0.015659291 -0.010086602 0.009510705 0.15853621
0.07899578 0.011142356 -0.011267629 0.023197738 -0.00016126933 0.11002834 0.27377358 -7.418802e-05
0.000789029 0.0005723706 0.0005451069 4.453753e-06 0.13636154 0.0012921382 0.003355058 0.040410716
2.5891246e-05 0.124510415 0.01452096 0.14404343 0.20997088 -0.0013764238 -0.00054034294 -0.003857453
-0.04752727 0.103175126 7.593037e-05 0.011972974 0.012655248 -0.0065507567 -0.0050706253 -3.1203986e-06
-0.0002280571 0.04374073 0.08840056 0.012731638 -0.0009746248 0.00019323471 0.13431078 0.11984759
0.1127161 -0.00011487795 0.11133957 0.012454437 0.07343306 0.08809282 0.0010991294 0.10906573
-0.0073789475 -1.8973104e-05 -0.004666372 -0.03899104 -0.00011056896 -1.7706492e-05 1.9055671e-05 0.095117085
5.73239e-05 0.001070557 -0.06737315 -0.046796657 0.000111238754 0.099578604 -7.0323395e-06 -0.004450237
0.0864958 0.0842844 0.051870435 0.019360062 0.0472237 0.011010498 0.08084819 0.03272021
0.025813645 -0.00019631367 -0.00014304544 0.016412614 -0.0021433881 -0.00023279595 0.0020145725 0.14653563
0.0019065677 0.021280726 0.08451918 0.075404726 -0.07982579 0.046525538 0.10544205 0.0019018414
-0.0005231708 -0.0022137463 0.005467014 0.014934967 0.14443661 -0.00062853575 -0.0188698 0.10389501
-0.004171613 0.26211274 -0.00017883227 0.00070361025 0.01488294 0.41059038 -0.3402877 0.4872863
-1.3782594e-05 0.0097694965 -0.1092276 -8.0294645e-05 0.0006547417 0.0001866116 0.037852284 -0.016074745
0.20589893 0.00014032422 -0.00052307796 0.030483657 0.00059163 0.64478445 0.35258245 -9.452355e-05
-0.00015329909 3.674395e-06 -0.10122489 -0.0012317968 0.3656018 0.53378713 0.5314691 -0.00081165833
0.0616092 5.1348043e-06 0.006801192 -0.0057749166 0.0042456063 0.40199184 0.103655614 -0.0016685989
0.013762612 0.51271296 0.29382733 0.02751791 0.3194745 -0.00017053602 -0.14603402 0.0026480467
0.35817176 0.0018926641 0.010704301 0.3558083 0.015589803 0.011273547 -0.0315882 0.11239345
-0.21026987 0.0069397157 0.56761706 -0.0994716 -0.013610122 0.36094436 -0.17775369 0.004135243
0.23981091 -0.00090657297 0.018763784 0.017880507 0.0237023 1.7834978e-05 -0.00048693948 -0.00967991
-0.015744234 -0.04021917 0.00019876556 0.00019168083 0.11356468 0.010446231 -0.00088368624 -0.053889904
-0.00018553539 0.0042808405 0.020532275 0.26697615 0.00038205378 0.0697235 -0.01574279 -0.00029446228
0.08679443 -0.023995293 0.00017142769 -6.5229055e-05 -0.00013405851 -7.461768e-05 0.13786323 0.027410276
0.11585359 0.02672903 0.068703376 0.034494612 0.00030906618 0.004881792 0.021118233 -0.015059589
-0.00040154424 -0.0010407963 -0.040767826 -0.015756106 -0.013822357 0.027823882 0.16017254 0.0040667304
0.0002948793 -0.050212387 -0.00017139332 0.0013133467 -0.0001636764 0.00066568906 0.05819794 0.060527172
00000000: 4b3a 413c d141 c4b9 a911 75ba fc19 c63d
00000010: abfb 4437 36c3 57b9 e228 a93b b33b 803e
00000020: 80b9 2fbb 4aac 2b39 0ea3 76b6 688c 6a3e
00000030: b006 053b 8b07 a0ba 97c7 9937 337f 5bb6
00000040: e075 5d3e 33a7 99bb b527 883d 12ce 1c39
00000050: 6cb8 773e b440 803c 3f74 37bd 4ae6 833e
00000060: eca7 11bd 3c1e 23b8 4a77 1cb7 5f25 6537
00000070: 5e2c 903e 8bfc 05b9 4257 023e 2683 2f3a
00000080: f349 85bd 0da1 9e3a 01fc 0c3e 93e6 4938
00000090: ea47 803c 4642 25bc cad2 1b3c 5157 223e
000000a0: 8ac8 a13d 6e8e 363c dd9b 38bc 2f09 be3c
000000b0: 681a 29b9 8a56 e13d 0d2c 8c3e 6495 9bb8
000000c0: d7d6 4e3a 240b 163a 81e5 0e3a 7271 9536
000000d0: 5ca2 0b3e f75c a93a 88e0 5b3b b585 253d
000000e0: 0731 d937 51ff fe3d 52e9 6d3c 1f80 133e
000000f0: 9b02 573e 1e69 b4ba cda5 0dba 52cd 7cbb
00000100: f4ab 42bd 7b4d d33d cf3c 9f38 4b2a 443c
00000110: f557 4f3c bba7 d6bb 7d27 a6bb 0a68 51b6
00000120: 9d22 6fb9 7b29 333d 5a0b b53d 5c98 503c
00000130: f77d 7fba 0c9f 4a39 c488 093e a772 f53d
00000140: b3d7 e63d a1ea f0b8 0006 e43d b20d 4c3c
00000150: 1264 963d 026a b43d aa10 903a da5d df3d
00000160: 19cb f1bb 6e28 9fb7 5ee8 98bb 12b5 1fbd
00000170: 42e1 e7b8 6788 94b7 bed9 9f37 bfcc c23d
00000180: 126f 7038 ef51 8c3a effa 89bd daad 3fbd
00000190: da48 e938 deef cb3d 56f7 ebb6 4bd3 91bb
000001a0: b624 b13d 4d9d ac3d 1876 543d fe98 9e3c
000001b0: a36d 413d 6065 343c bc93 a53d a005 063d
000001c0: 2377 d33c 8dd9 4db9 78fe 15b9 bf73 863c
000001d0: 1678 0cbb b01a 74b9 eb06 043b 700d 163e
000001e0: cce5 f93a eb54 ae3c 6418 ad3d cb6d 9a3d
000001f0: b47b a3bd 9091 3e3d 00f2 d73d 3547 f93a
00000200: 6625 09ba 8014 11bb a324 b33b cbb1 743c
00000210: 31e7 133e 52c4 24ba d794 9abc e8c6 d43d
00000220: 07b2 88bb a433 863e ec84 3bb9 7c72 383a
00000230: 93d7 733c e738 d23e 303a aebe 977d f93e
00000240: ca3b 67b7 3d10 203c b8b2 dfbd dc63 a8b8
00000250: f9a2 2b3a 2cad 4339 ff0a 1b3d 2faf 83bc
00000260: 2bd7 523e ff23 1339 2b1f 09ba ddb8 f93c
00000270: 9e17 1b3a 9810 253f b085 b43e f23a c6b8
00000280: e9be 20b9 a095 7636 ff4e cfbd 3e74 a1ba
00000290: 2930 bb3e 46a6 083f 5c0e 083f 78c5 54ba
000002a0: ee59 7c3d a24b ac36 89dc de3b 833b bdbb
000002b0: ba1e 8b3b e0d1 cd3e 6549 d43d e3b4 daba
000002c0: 947c 613c 2841 033f 8970 963e 3d6d e13c
000002d0: 2992 a33e ead1 32b9 f189 15be da8a 2d3b
000002e0: 4a62 b73e 4513 f83a 1861 2f3c 812c b63e
000002f0: 606c 7f3c afb4 383c a162 01bd 8a2e e63d
00000300: fc50 57be 8e66 e33b 5a4f 113f c4b7 cbbd
00000310: fdfc 5ebc b3cd b83e 1005 36be ef80 873b
00000320: fe90 753e 15a7 6dba 82b6 993c 247a 923c
00000330: 532b c23c 539c 9537 e94b ffb9 7c98 1ebc
00000340: 0dfa 80bc dbbc 24bd b96b 5039 eefd 4839
00000350: 9994 e83d ab26 2b3c 2ea7 67ba a9bb 5cbd
00000360: 478c 42b9 4b46 8c3b 4d33 a83c 19b1 883e
00000370: 644e c839 32cb 8e3d 06f7 80bc 0f62 9ab9
00000380: 47c1 b13d c791 c4bc 45c1 3339 95cb 88b8
00000390: 0f92 0cb9 107c 9cb8 052c 0d3e 848b e03c
000003a0: a644 ed3d d7f6 da3c 5bb4 8c3d 394a 0d3d
000003b0: 290a a239 70f7 9f3b 2500 ad3c 7fbc 76bc
000003c0: 5b86 d2b9 546b 88ba 2afc 26bd f312 81bc
000003d0: 2b77 62bc e9ee e33c 4504 243e 3542 853b
000003e0: 089a 9a39 81ab 4dbd 0bb8 33b9 9a24 ac3a
000003f0: 8da0 2bb9 a381 2e3a f760 6e3d 57eb 773d

gats.1.att f4 [1, 5, 67]
-7.963559e-05 3.0651972e-05 -2.9366367e-06 -7.7072356e-05 9.243293e-06 0.00010497058 -0.09833993 0.00040406478
0.00046957203 0.0075152 2.9654104e-05 -0.006322239 3.665091e-05 0.00014788864 -0.004994515 -0.0020156868
0.000100999096 0.00021627985 0.0016082025 0.00023829161 0.006220888 3.617404e-05 0.00414823 4.3602624e-05
-0.001036973 0.0006881826 -1.712495e-05 8.664584e-05 -0.00014564578 -0.0033898596 0.00032662597 3.719684e-05
-0.0019366374 -0.00014833771 -0.00038561664 -0.0010687269 -6.906318e-05 -3.2038155e-05 -0.0009104977 -0.0011223202
4.6548616e-05 0.0031455287 2.6169639e-05 -8.3612336e-05 -1.6618098e-05 0.0013342239 0.000783508 -0.00015301218
-0.00012228552 0.00085166347 -6.0741536e-06 -0.069385394 -0.000109725785 1.005476e-06 0.00011660521 -8.149502e-06
7.472189e-05 0.00013124039 -7.045671e-05 -0.00044808007 9.612116e-05 -0.00038710568 0.00037587553 -0.0016569
-6.358727e-05 -0.0019936906 9.4159834e-05 -8.170764e-05 4.3721728e-05 1.0771027e-05 -8.8737186e-05 2.1179301e-05
1.4540485e-05 -0.08336415 0.0004073446 0.00034962528 0.012423987 -0.0023089822 -0.0063770874 5.828589e-05
0.00014254173 -0.0051594274 -0.0018152781 0.000101517726 0.00022111721 0.0022702161 0.00033352952 0.005570659
-0.00023018876 0.004138491 7.8613295e-05 -0.0010790019 0.0006296425 -1.47940455e-05 8.7102504e-05 -0.00017258961
-0.002888652 0.00027260857 4.057047e-05 -0.001999927 0.00068998913 -0.00041964557 -0.0010353655 -6.719069e-05
-3.2201908e-05 -0.00089568866 -0.0011098649 4.5806104e-05 0.0031806624 2.9474368e-05 -7.1739e-05 -3.623522e-05
0.00051936676 0.00078826956 -0.0003286381 -0.00015350585 0.00095957454 -8.992372e-05 -0.10418707 -0.00011562919
-6.01098e-06 0.000120141354 -7.358006e-06 7.72739e-05 0.00012803388 -2.432508e-05 -0.0004402758 9.382687e-05
-0.00034866697 0.00031523887 -0.0024263766 -5.3794134e-05 -0.0020489327 0.00010390275 -8.0312246e-05 -1.2551419e-05
-3.1907195e-05 -0.00013328197 3.7297664e-06 4.5179354e-06 -0.06808513 0.00040677623 0.00035261133 0.010514309
8.3554594e-05 -0.0063489415 5.898375e-05 0.0001458841 -0.005121236 -0.001977471 9.46222e-05 0.00014037898
0.0013889723 0.00036300902 0.0061946656 5.1557075e-05 0.0043126126 3.091246e-05 -0.0010506462 0.00059626333
-1.2941988e-05 6.61931e-05 -0.00011043897 -0.003242928 0.00055090495 5.4621803e-05 -0.001842367 -0.00014112907
-0.00036465496 -0.00079222507 -6.549229e-05 -1.9609799e-05 -0.00089241413 -0.0011009891 4.7130445e-05 0.0036982857
4.460469e-05 -4.3779917e-05 -2.6731582e-06 0.00052405515 -0.0009847572 -0.00014028882 -0.00015714114 0.00084519474
-7.5258584e-05 -0.09220914 -9.3433286e-05 1.1624687e-06 0.00011791625 -4.586263e-06 5.8779584e-05 0.00011462509
-3.184169e-05 -0.0004839087 0.00011480322 -0.00034433414 0.000346839 -0.0033030584 -1.7322745e-05 -0.0020174298
8.0314094e-05 -7.6193166e-05 -7.230531e-06 -5.1407424e-06 -0.00013102056 1.6502745e-05 -3.2605076e-05 -0.062177002
0.00045554768 0.00034731728 0.013263831 0.000104328115 -0.006307698 4.592073e-05 0.0001483139 -0.0051978203
-0.0020685457 0.00010130651 0.00014414139 0.0009037396 0.0003584072 0.006737656 -1.1520115e-05 0.004348852
5.7236608e-05 -0.0010525958 0.0006295504 -1.3191601e-05 7.384572e-05 -0.0001679834 -0.0030146285 0.00029894777
1.9147352e-05 -0.0016315462 -0.000144412 -0.00037930385 -0.0009149871 -6.1003757e-05 -3.3619606e-05 -0.000872225
-0.0010954115 4.848576e-05 0.0035958085 3.7813126e-05 -6.699822e-05 2.9169296e-06 0.0005184578 0.0007846211
-0.00033322186 -0.00016292674 0.00076383643 3.6284284e-06 -0.089544885 -0.000102711296 1.919422e-05 0.00012919762
00000000: 0802 a7b8 4e90 0038 0913 45b6 e8a1 a1b8
00000010: a413 1b37 a723 dc38 7266 c9bd a8d8 d339
00000020: e430 f639 1142 f63b b4c1 f837 c92a cfbb
00000030: 9db9 1938 8e12 1b39 07a9 a3bb 9d19 04bb
00000040: 7acf d338 2ec9 6239 52ca d23a ebdd 7939
00000050: 97d8 cb3b 94b9 1738 e0ed 873b f6e1 3638
00000060: 0aeb 87ba 2767 343a 8da7 8fb7 a2b5 b538
00000070: 7eb8 18b9 6828 5ebb ff3e ab39 ce03 1c38
00000080: c5d6 fdba 1a8b 1bb9 972c cab9 8614 8cba
00000090: 03d6 90b8 b560 06b8 77ae 6eba d11a 93ba
000000a0: 323d 4338 3725 4e3b df86 db37 0859 afb8
000000b0: 1867 8bb7 20e1 ae3a 5564 4d3a e571 20b9
000000c0: c539 00b9 2b42 5f3a 95d0 cbb6 ee19 8ebd
000000d0: 951c e6b8 e4f3 8635 f289 f438 d8b9 08b7
000000e0: 02b4 9c38 939d 0939 28c2 93b8 4aec eab9
000000f0: a894 c938 72f4 cab9 2911 c539 572c d9ba
00000100: 285a 85b8 94a8 02bb ad77 c538 755a abb8
00000110: d961 3738 35b5 3437 6a18 bab8 34aa b137
00000120: e8f2 7337 d3ba aabd de90 d539 e94d b739
00000130: fa8d 4b3c 4b52 17bb e3f6 d0bb ff77 7438
00000140: 4177 1539 6a10 a9bb a0ee edba eae5 d438
00000150: b3db 6739 e8c7 143b 93dd ae39 138a b63b
00000160: d35e 71b9 2e9c 873b 31dd a438 4c6d 8dba
00000170: 980e 253a f133 78b7 cdaa b638 2cf9 34b9
00000180: 8a4f 3dbb e7ec 8e39 362a 2a38 3511 03bb
00000190: 63e0 343a e003 dcb9 1ab5 87ba bae8 8cb8
000001a0: 8910 07b8 a6cc 6aba e378 91ba ee1f 4038
000001b0: a972 503b b93f f737 9572 96b8 45fb 17b8
000001c0: 1d26 083a e0a3 4e3a 0f4d acb9 6af6 20b9
000001d0: f58b 7b3a 6e95 bcb8 0860 d5bd f37d f2b8
000001e0: edb1 c9b6 66f4 fb38 cae4 f6b6 1c0e a238
000001f0: d540 0639 b60d ccb7 d1d4 e6b9 ebc4 c438
00000200: 4acd b6b9 a546 a539 d803 1fbb 03a1 61b8
00000210: 6347 06bb 5de6 d938 4f6d a8b8 ef93 52b7
00000220: 17d4 05b8 9bc1 0bb9 e64c 7a36 c598 9736
00000230: 3770 8bbd 9544 d539 b1de b839 3544 2c3c
00000240: 083a af38 c80a d0bb 5265 7738 77f8 1839
00000250: 0bd0 a7bb 7598 01bb e86f c638 b232 1339
00000260: 2d0e b63a 3f52 be39 9ffc ca3b fd3e 5838
00000270: d150 8d3b 00a8 0138 d6b5 89ba 8e4e 1c3a
00000280: 6a21 59b7 26d1 8a38 789b e7b8 4e87 54bb
00000290: 9b6a 103a b719 6538 947b f1ba 0cfc 13b9
000002a0: 292f bfb9 53ad 4fba e858 89b8 b97f a4b7
000002b0: e6f0 69ba 104f 90ba eead 4538 f05e 723b
000002c0: ec15 3b38 54a0 37b8 8264 33b6 bf60 093a
000002d0: f812 81ba 7e1a 13b9 41c6 24b9 0f90 5d3a
000002e0: 25d4 9db8 25d8 bcbd 9df1 c3b8 1f06 9c35
000002f0: ce49 f738 b3e3 99b6 198a 7638 e062 f038
00000300: c18d 05b8 20b5 fdb9 82c2 f038 bf87 b4b9
00000310: f1d7 b539 2078 58bb 5050 91b7 db36 04bb
00000320: 4d6e a838 e5c9 9fb8 ca9d f2b6 a47e acb6
00000330: 9062 09b9 606f 8a37 6fc1 08b8 50ad 7ebd
00000340: 93d6 ee39 2318 b639 8a50 593c bbca da38
00000350: ceb0 cebb 029b 4038 b684 1b39 7a52 aabb
00000360: 7090 07bb 8574 d438 a924 1739 f0e8 6c3a
00000370: 9ae8 bb39 8ec7 dc3b 8446 41b7 d180 8e3b
00000380: 5711 7038 41f7 89ba 6a08 253a 7f51 5db7
00000390: 9edd 9a38 b324 30b9 1391 45bb 17bc 9c39
000003a0: a09e a037 9bd9 d5ba 4d6d 17b9 4ddd c6b9
000003b0: bfdb 6fba 49de 7fb8 c702 0db8 07a6 64ba
000003c0: e993 8fba 305d 4b38 a8a7 6b3b 8999 1e38
000003d0: 6581 8cb8 78c0 4336 1de9 073a 08af 4d3a
000003e0: 48b4 aeb9 50d7 2ab9 323c 483a ed7f 7336
000003f0: 4f63 b7bd b566 d7b8 4603 a137 3979 0739

gats.1.bias f4 [67]
0.0028742477 -0.0011700003 0.0004236693 0.0014514019 0.00040470093 0.00073743856 0.0034227495 0.0029671167
0.0053259856 -0.10168463 -0.0008364903 0.003433653 0.0025149966 0.0023512626 -0.006278653 0.004397926
0.0008565212 0.0010818975 -0.0021781174 -0.001819873 0.0043157823 0.00016588444 0.011468646 -0.00048642608
0.0030453159 0.003306699 0.00038501548 0.0021595086 0.0006783559 0.0145482 0.0005637667 0.0034784907
0.006430994 -0.001340688 0.00046762105 0.0010762967 0.00096160534 0.0008336249 0.0019362366 0.003739841
0.00024771766 0.01089728 0.003372063 0.0016652554 0.0010546058 0.0022158874 4.084417e-05 0.0015928032
0.0019016513 0.00017320192 0.0025221412 0.005176283 0.0015566048 0.00050571724 0.0014054439 0.0021363266
0.004331747 0.0024529626 0.0016235207 0.0025537533 0.0008838273 0.0009590551 0.0016291224 0.0058998843
2.7402964e-05 -0.0065675676 0.003167992
00000000: e05d 3c3b b25a 99ba ee1f de39 f73c be3a
00000010: 0a2e d439 aa50 413a 3550 603b f573 423b
00000020: 9b85 ae3b 0840 d0bd ea47 5bba 2307 613b
00000030: a4d2 243b a417 1a3b 29bd cdbb 7a1c 903b
00000040: 2a88 603a 75ce 8d3a bfbe 0ebb ce88 eeba
00000050: 686b 8d3b 44f1 2d39 fde6 3b3c 0107 ffb9
00000060: ec93 473b 34b5 583b e7db c939 8b86 0d3b
00000070: b2d3 313a 935b 6e3c bec9 133a 64f7 633b
00000080: 16bb d23b 06ba afba 092b f539 8612 8d3a
00000090: 3e14 7c3a 9f87 5a3a 52c9 fd3a 1f18 753b
000000a0: 1ae0 8139 818a 323c d4fd 5c3b b344 da3a
000000b0: b33a 8a3a 6c38 113b 1850 2b38 9bc5 d03a
000000c0: d440 f93a 899d 3539 824a 253b cf9d a93b
000000d0: fd06 cc3a 1c92 043a df36 b83a 9d01 0c3b
000000e0: 54f1 8d3b e2c1 203b 51cc d43a df5c 273b
000000f0: a5b0 673a 1969 7b3a 4788 d53a d153 c13b
00000100: 6bdf e537 c034 d7bb 169e 4f3b
