inference/BMC/model_checkpoints/BMC_model_0.pt (torch, 503011 bytes, 21 tensors)

gats.0.att f4 [1, 5, 67]
00000000: 52ec 543d f65a 78bf 3922 033f bf9b 143d
00000010: 6cb0 8639 33ab dc3c a70e 53bb be3f 2cbf
00000020: bb28 b53e 4c81 9dbd cda4 a83d 61db afbb
00000030: 8f4e 183f ec29 6fbe 59d2 9f3c 51f6 2d3d
00000040: 42ff a43d 17a0 973e 8798 72be 16cb c7bd
00000050: 5c67 ec3e 3234 8e3d 7fef d33b 8b76 c03c
00000060: 879e 21bb f65e 073e 73d2 ddbc 8981 bb3c
00000070: 0c67 eb3d 426c 203f aaa2 273d d9d4 81bb
00000080: fea6 953c 5046 27be 094f d1bd bdca de3c
00000090: e51c fd3d e364 763c ea7d 333d 601e 963e
000000a0: 0e12 02ba 911f 88bd a13f 56bf 94fe 28bf
000000b0: f13e 03bd 8d12 51bd 8b10 d13d fc02 85bf
000000c0: b2e7 3e3e 6f1d 8c3e ffe5 363d ff90 413d
000000d0: e76d 3c3f 3e07 8b3d 008e 603d 70e2 733f
000000e0: 781e eb3e 52e7 373d c60b e53d f29a a73e
000000f0: 4e9a ad38 f577 c6b8 dca7 abbc d148 673f
00000100: e0d4 fe3c 2b90 b33e 6bc9 9f3e b8a9 b43d
00000110: 215e 413f c71f 1e3f 2013 953d edc6 0ebf
00000120: c4d4 d3be 396d 463f fe10 18bf 8350 713d
00000130: 6bd6 5a3e b2a2 abbd 4df8 b83c 7d40 78be
00000140: 9503 97be 87d3 ad3e 9bce 4e3f f5b5 58be
00000150: f2a7 ee3e 771c ecbe cd57 a1bd 9bef 39bd
00000160: b528 553b 3b4d d63e 765c cebd 7497 87be
00000170: 5ffc 4b3e 7491 ddbe 555b 6ebc b8c7 a5bd
00000180: 37cc 183c a2a6 7ebf 6e7e d23c 2aa9 25bd
00000190: 5dbd 923f b8a5 1cbf 08d6 56bd 2a28 953e
000001a0: 97f3 5bbd 556e f63d 1ebe 07be 8b0b c6ba
000001b0: d17b 6cbc a5b4 ffbb dad2 d8bc f411 6ebf
000001c0: f088 7dbf b97d 193f f7de 57bc d428 d23e
000001d0: b1b9 2bbf 86a0 cc3e e820 593d e4c8 423f
000001e0: efa7 5f3e 2e7d 57be 1894 e2be e237 25bf
000001f0: 1e8d 063d ec0b 313d 6cc0 a13e 75d4 8137
00000200: c449 98ba ce8e 56bb 50c6 963f 9f2b 993d
00000210: 5939 713b 005d 643d 9f53 11bf 633b cebd
00000220: 7287 753d f4fc 6d3b d074 2cba f31a e6bd
00000230: f537 8c39 dcb1 913e a5e9 243f 88c3 51bc
00000240: 3dfa 92be 0c7a 16bf 5242 fbbe 5d4f c93b
00000250: 07c4 d53c 17f9 363e 29fc 833e 5eda 8a3d
00000260: 3dc9 763e 78a5 013f 1784 953c 2130 25bd
00000270: 91bb cabe 776d 643e 9115 6a3f 9229 d93c
00000280: 70a8 5e3f 50c3 b63c e503 ad3f c6cc 823f
00000290: 5861 1f3f 8fa7 873e c789 ef3b c881 d5be
000002a0: 7690 0dbf 44a7 273e 6573 ea3e 7e95 f93e
000002b0: 0fed a03c f349 243d fae7 163c dc7c acbe
000002c0: 8305 513f aec7 8d3e cee2 12bd 37c3 9abd
000002d0: ec0e f93d a500 1fbb f597 6b3f 3bb7 c8be
000002e0: 722a 8d3d 66c2 ae3c 68c3 e53d f575 603f
000002f0: d28e 143f e8d6 803f e8a7 b33c 3152 30bd
00000300: 38d7 8a3e 91c3 103d 17a2 2b38 1a46 1ab8
00000310: 67f5 21bf d79a 053e 17a4 de3b 1118 453f
00000320: 7e3a 273e f271 1e3d 5d9a 5d3f 358f 4a3d
00000330: ca3b a93b 491e c439 2d6a 88bc 7c23 8bbb
00000340: def0 583f 97e2 2f3f 2abb a53e 5c28 f5be
00000350: 2229 093e 1f75 f7bb 20e0 23be 6cf1 063f
00000360: 4244 da3d d96d d23e bbad 983e ecc6 2c3e
00000370: 35fb d93e 3da2 2bbd b15d cbbd 0cfd 083f
00000380: bbe0 bbbe 3c18 83bf cebf 913d b89b 083f
00000390: 8d29 a7be a5d0 883c eed8 973e f42f ff3d
000003a0: 15ac 98bc 73af 1bbf c42f 103f ac03 d9bc
000003b0: 8bbb 653e 037b 243e 3ebb 54bc 50fc 7fbd
000003c0: 3746 cb3c a293 273c 67c4 a3b9 dcde eebd
000003d0: 4a06 113f aca9 abbb b482 5abb a1ee 933d
000003e0: 0786 77be dae8 ea3e ede8 3c3f 735c 8c3d
000003f0: 6569 a83c b8bd 46bf 5685 30bf b06a 413e
0.051983185 -0.97013795 0.51224095 0.036281344 0.00025689916 0.026937103 -0.0032204778 -0.6728476
0.35382637 -0.07690677 0.08234558 -0.005366728 0.5949487 -0.23355836 0.019509481 0.042471234
0.08056499 0.29614326 -0.23690997 -0.097555324 0.46172607 0.06943549 0.006467759 0.023494026
-0.002466114 0.13219818 -0.02707789 0.022888916 0.11494264 0.6266519 0.040926613 -0.003962141
0.018268105 -0.16335416 -0.10220153 0.027196283 0.12359027 0.015038702 0.043821253 0.2932005
-0.0004961797 -0.06646646 -0.8369084 -0.66013455 -0.032042447 -0.051043082 0.102082334 -1.0391536
0.18643072 0.27366206 0.044652935 0.04725742 0.736052 0.06788491 0.05482292 0.9526739
0.45921683 0.04489834 0.11183886 0.327354 8.278024e-05 -9.4637195e-05 -0.020954065 0.90345484
0.031107366 0.3507093 0.31208357 0.08821434 0.75534254 0.6176724 0.072790384 -0.55772287
-0.41373265 0.7751041 -0.5940093 0.058914673 0.21370856 -0.08380641 0.022579337 -0.2424335
-0.2949492 0.33950445 0.80784005 -0.21163161 0.46612507 -0.46115467 -0.07878075 -0.04539452
0.0032525484 0.41855797 -0.10076229 -0.26482737 0.1992049 -0.43275034 -0.014548142 -0.08094734
0.009326032 -0.9947301 0.025695052 -0.04044453 1.1464039 -0.61190367 -0.05245021 0.29132205
-0.053699102 0.12032763 -0.13256118 -0.0015109641 -0.014433817 -0.007803517 -0.02646773 -0.92996144
-0.99037075 0.5995746 -0.013175718 0.41046774 -0.6708022 0.3996622 0.053009897 0.76087785
0.21841405 -0.21043846 -0.44253612 -0.64538395 0.032849424 0.04322426 0.3159212 1.5476931e-05
-0.0011618664 -0.0032738927 1.177927 0.07479023 0.0036807864 0.055752754 -0.5676822 -0.10069921
0.059943624 0.0036314102 -0.0006578686 -0.11235609 0.00026744572 0.28456008 0.64419013 -0.012802966
-0.28706542 -0.5877998 -0.49074036 0.006143494 0.02609445 0.17868458 0.2577832 0.067799315
0.24100204 0.5064311 0.018251462 -0.040329102 -0.39596227 0.22307383 0.9143916 0.02650908
0.86975765 0.02230993 1.3516814 1.0218742 0.6225791 0.26495025 0.0073101255 -0.41700578
-0.55298555 0.163724 0.45791164 0.48746866 0.019644288 0.040109586 0.009210581 -0.3368901
0.81649035 0.27691406 -0.03586083 -0.075567655 0.12161049 -0.0024261859 0.92028743 -0.39202294
0.068928614 0.02133293 0.112189114 0.8767999 0.58030427 1.0065584 0.02193065 -0.043047134
0.27117324 0.035342757 4.0920535e-05 -3.678175e-05 -0.6326508 0.13047348 0.0067944634 0.7698985
0.16330907 0.038682885 0.86563665 0.04945298 0.005164598 0.00037406597 -0.016652191 -0.0042461734
0.84742534 0.68705124 0.32369357 -0.47882354 0.13394597 -0.0075518037 -0.16003466 0.5271213
0.106575504 0.41099432 0.29820046 0.16872758 0.42574468 -0.04190277 -0.099299796 0.5351112
-0.36694893 -1.0241771 0.07116662 0.5336261 -0.32648888 0.016701052 0.29657692 0.12460318
-0.018636743 -0.6081459 0.56322885 -0.026491009 0.22434823 0.1606255 -0.012984095 -0.062496483
0.024813754 0.0102280695 -0.00031236114 -0.11663601 0.5665022 -0.0052387323 -0.0033342065 0.07223249
-0.24172221 0.45880777 0.73792917 0.06853571 0.020558069 -0.7763324 -0.68953454 0.18888354

gats.0.bias f4 [67]
00000000: f0e1 30bd 7f41 80bd a96d afbb d693 25bd
00000010: 06df 243a 05b6 1a3c e86e b8bc 8973 4fbd
00000020: 8c9b cabc 4e96 1fbd d2ba 99bd 7fde fdbc
00000030: 7de4 e7bc 591d bbbd eb95 a3bd 454e 5ebd
00000040: 7d49 f1bc a688 d2bd a079 70bc 63e9 df3c
00000050: b39e bfbd 8d13 c5bc 7432 08be 9a5a 21bd
00000060: 5137 f0bc 2c56 c9bd 236f 47bd 88cc 8abd
00000070: 4e6a 1fbc bcbb dabc c12b 0fbd c55b cdbd
00000080: 0f69 19bd 7da2 55bd 903d 9dbc 9095 2e3c
00000090: 71c1 d5bd dbd7 03bd 65d3 1cbd 1114 a1bd
000000a0: ba9c 7cbd 2ec2 e2bc bbb1 41bd 3a4d dbbc
000000b0: 603c f23a 31eb cabc 9bee 26bd b023 12bd
000000c0: b129 9bbc ce97 b8bc 4916 23bd 64c5 c9bc
000000d0: c1fd 11bd 4bbe 763c fbd7 6abc 1308 33bd
000000e0: 71d8 d5bd 4228 32bd 0f1b 023b 0676 d7bc
000000f0: 5714 803a c75e 7a3a 9a58 76bc eec7 fcbd
00000100: d678 76bd adc7 09be 96e0 8bbd
-0.04318422 -0.062624924 -0.0053536487 -0.04042419 0.00062893366 0.009442811 -0.022513822 -0.050647292
-0.024732374 -0.0389617 -0.07506336 -0.030989883 -0.028307194 -0.09136457 -0.07987579 -0.054273862
-0.029453987 -0.1027997 -0.014677435 0.027332967 -0.09356441 -0.024057174 -0.13300496 -0.039393045
-0.029323252 -0.09830889 -0.048689973 -0.067772925 -0.009729935 -0.026700847 -0.034953836 -0.10027269
-0.037453707 -0.052156914 -0.019194394 0.010655776 -0.10437287 -0.032188278 -0.03828754 -0.078651555
-0.061672904 -0.027680483 -0.047288638 -0.026770223 0.0018481128 -0.024770351 -0.040754896 -0.035678566
-0.018940778 -0.022533324 -0.039816175 -0.024630256 -0.03564239 0.015060018 -0.01433372 -0.043708872
-0.104416735 -0.043495424 0.0019852554 -0.026301395 0.0009771687 0.0009550866 -0.015035773 -0.12342821
-0.060173832 -0.13455077 -0.06829946

gats.0.lin_l.weight f4 [335, 67]
00000000: e22d 0080 a170 0000 b024 a83b 1caa 0000
00000010: 0900 4ebc 356e 0080 8f9d 0080 ef82 46bd
00000020: 4ca1 0080 9381 0000 6d92 0080 0b11 0000
00000030: 4db2 0000 8b45 0000 0a6d 0080 785d 0000
00000040: d2a6 0080 ca93 0080 8140 1cbd d60f fdbc
00000050: 51b2 0000 4acc 83bd 433b 733f b2fe 8c3d
00000060: ca7b 0080 d533 0000 729b 9dbd bcd9 3ebd
00000070: f16c 9cbc 857a 0000 e993 0000 3069 d03c
00000080: fe51 0080 1eba b4bc ccc7 563c 83a8 d8ba
00000090: a336 6639 f957 d839 3b99 0000 4378 0000
000000a0: a48a 0000 c65f 0080 f360 4dbd 7e7e 0000
000000b0: a79f 0080 4487 0080 f83f 0000 6d1c 0080
000000c0: 5937 0000 559f 0080 c878 0000 9a6c 0080
000000d0: 5fb2 0080 0da9 0080 89b3 0000 624a 0080
000000e0: c24e 0080 b18d 0080 954c 0000 d3ff b33b
000000f0: daf6 e03b 9212 0080 f087 0000 62ae 0000
00000100: ea5d 0000 f23b 0080 9542 6bbb afa9 0000
00000110: ffa3 0080 3ab1 2a3d 7c6b 0000 db73 25be
00000120: 0953 0080 ad9a 0080 3d06 063e cf0a 0000
00000130: 451c 0000 e980 0080 5654 0080 d3a1 0080
00000140: 209a 0080 9b7e 0000 dcb0 0080 0aad 0000
00000150: 309f 0000 8d9f 573f 12e3 ef3e e33d 0080
00000160: 3c21 ea3d a4d0 56be b0d4 c93d 667e 0080
00000170: c50c 0000 03d7 4dbe 6e32 abbe 6620 dabc
00000180: 728f 0080 863f 0000 2248 5abe 4462 0000
00000190: ae08 0ebe bfed 21be 7d2d 89be 8656 933b
000001a0: 1b3a f1bb 8749 0080 1723 0000 9a83 0000
000001b0: bb44 0000 d805 ce3d a888 0080 ae6d 0080
000001c0: a179 0000 0a99 0080 af53 0000 8c92 0080
000001d0: 4179 0080 d75d 0080 9f4f 0000 128d 0080
000001e0: f98b 0080 5011 0000 1a91 0080 089c 0080
000001f0: c3ad 0080 ea32 0000 9dab 82bd 332e 0bbe
00000200: 82b0 0000 d45f 0080 b90f 0080 6387 0000
00000210: 1a51 0080 c6f0 1a3d 277c 0080 4557 0000
00000220: 867b 54bd b461 0000 0a29 623e 968f 0080
00000230: fcae 0080 d317 27be fa80 0080 e278 0000
00000240: 2e1d 0000 4260 0080 3100 0080 c473 0080
00000250: f6b0 0080 470a 0000 178c 0000 7573 0080
00000260: 16bb 7ebe d9ab ecbd 14a1 0000 891f 7cbe
00000270: 8f86 02be 31a2 08bd 2e72 0080 4450 0080
00000280: a5b8 e93d 57f5 83bc b0fa e43e 8c58 0080
00000290: bc3f 0000 c6da 133f b350 0000 2df3 823d
000002a0: c355 373e 8c75 45bd ae1f 4cbb 166f 693b
000002b0: f2b2 0000 3983 0080 6d64 0000 2595 0080
000002c0: fb0f 83bd 2571 0000 72b0 0000 7974 0080
000002d0: 4eb1 0080 980b 0080 2705 0080 aa06 0080
000002e0: 0e6e 0080 82a6 0080 b69f 0080 126e 0000
000002f0: e680 0080 fa9f 0080 be9f 0080 0a9c 0080
00000300: b38b 0080 92c1 cfbd 0ec4 153c d787 0000
00000310: cc97 0000 3681 0000 eb7a 0080 d63c 0080
00000320: b95a 1fbd 4510 0000 5f40 0080 6287 9c3e
00000330: 128f 0000 a93d 8b3e 4a90 0080 4ba6 0000
00000340: 5c21 a4be 703f 0080 817e 0080 7674 0080
00000350: 4e91 0080 dd6d 0000 6eb3 0080 0381 0000
00000360: db66 0080 c79f 0080 d581 0080 97ae 45bd
00000370: d7e3 a5bd 5c08 0000 6676 f03e 7d66 40be
00000380: 0297 22bd 8f6a 0080 26a6 0080 8197 89bd
00000390: 055c 0e3d 7549 b53b e89e 0080 8b8e 0000
000003a0: 21a0 ce3d 4670 0000 8b29 063e 4d28 c5bc
000003b0: 8ffe 3e3b be00 0e39 8737 1d3a 138e 0080
000003c0: 55b1 0000 6136 0080 e39c 0000 0513 4cbd
000003d0: 4771 0000 88ad 0000 a080 0000 9270 0080
000003e0: 4fa5 0000 c6ac 0080 5151 0000 8582 0000
000003f0: d01c 0000 6d86 0080 da8e 0000 5f3a 0080
-1.646e-41 4.0404e-41 0.0051313266 6.1024e-41 -0.012573251 -3.9535e-41 -5.6521e-41 -0.04846471
-5.7862e-41 4.6482e-41 -5.2528e-41 6.114e-42 6.3962e-41 2.4947e-41 -3.9116e-41 3.353e-41
-5.9844e-41 -5.3017e-41 -0.038147453 -0.03089134 6.3968e-41 -0.064354494 0.950123 0.06884517
-4.4407e-41 1.8594e-41 -0.076956645 -0.046594366 -0.019094916 4.3952e-41 5.306e-41 0.025440782
-2.9413e-41 -0.022061404 0.013109159 -0.0016529713 0.00021954863 0.00041264275 5.4969e-41 4.3142e-41
4.9735e-41 -3.4357e-41 -0.050141286 4.5377e-41 -5.7272e-41 -4.8524e-41 2.2948e-41 -1.0197e-41
1.9855e-41 -5.7158e-41 4.3328e-41 -3.8959e-41 -6.3987e-41 -6.0644e-41 6.4405e-41 -2.6684e-41
-2.8253e-41 -5.0829e-41 2.7472e-41 0.005493143 0.0068653645 -6.662e-42 4.8765e-41 6.2557e-41
3.369e-41 -2.1504e-41 -0.003589784 6.0871e-41 -5.8831e-41 0.041672923 3.8558e-41 -0.16157477
-2.9787e-41 -5.5487e-41 0.13088317 3.877e-42 1.0141e-41 -4.6244e-41 -3.0254e-41 -5.8052e-41
-5.529e-41 4.5417e-41 -6.3445e-41 6.2075e-41 5.7106e-41 0.8422783 0.46852928 -2.2201e-41
0.1143212 -0.20978028 0.0985502 -4.5343e-41 4.581e-42 -0.20101552 -0.33436912 -0.026626777
-5.1458e-41 2.2788e-41 -0.21316579 3.5251e-41 -0.13870499 -0.15813349 -0.26792517 0.0044963984
-0.007361663 -2.6377e-41 1.2588e-41 4.721e-41 2.4656e-41 0.10059708 -4.9023e-41 -3.9346e-41
4.3632e-41 -5.49e-41 3.002e-41 -5.2571e-41 -4.3498e-41 -3.3663e-41 2.8563e-41 -5.0606e-41
-5.0213e-41 6.21e-42 -5.2053e-41 -5.5973e-41 -6.2334e-41 1.8265e-41 -0.06380389 -0.13591842
6.3319e-41 -3.4377e-41 -5.64e-42 4.8568e-41 -2.9094e-41 0.037827276 -4.4537e-41 3.1306e-41
-0.051875614 3.5049e-41 0.22085968 -5.1509e-41 -6.2773e-41 -0.16317682 -4.6268e-41 4.3365e-41
1.0468e-41 -3.4531e-41 -6.9e-44 -4.1529e-41 -6.3482e-41 3.687e-42 5.0255e-41 -4.1418e-41
-0.24876055 -0.11556215 5.7784e-41 -0.24621405 -0.12746643 -0.033357803 -4.096e-41 -2.8794e-41
0.11412171 -0.016108198 0.4472251 -3.1765e-41 2.2864e-41 0.57755697 2.895e-41 0.06394038
0.17903809 -0.048207805 -0.0031146812 0.003561919 6.4193e-41 -4.7074e-41 3.6026e-41 -5.3503e-41
-0.063995324 4.0589e-41 6.3297e-41 -4.1783e-41 -6.3605e-41 -4.159e-42 -1.848e-42 -2.39e-42
-3.948e-41 -5.9732e-41 -5.7293e-41 3.9486e-41 -4.624e-41 -5.7389e-41 -5.7305e-41 -5.5976e-41
-5.0115e-41 -0.101443425 0.009140981 4.873e-41 5.4454e-41 4.6352e-41 -4.4095e-41 -2.1824e-41
-0.03890488 5.836e-42 -2.3092e-41 0.3057204 5.1324e-41 0.2719548 -5.1761e-41 5.9655e-41
-0.320567 -2.2757e-41 -4.5381e-41 -4.1778e-41 -5.2126e-41 3.9412e-41 -6.4367e-41 4.628e-41
-3.6898e-41 -5.7317e-41 -4.6575e-41 -0.048262205 -0.081000976 2.999e-42 0.4696533 -0.18789096
-0.039694794 -3.8226e-41 -5.9603e-41 -0.0671835 0.034755725 0.0055324384 -5.7005e-41 5.1135e-41
0.10089136 4.0276e-41 0.13101785 -0.024067068 0.0029143428 0.00013542452 0.0005997349 -5.0967e-41
6.3615e-41 -1.9507e-41 5.628e-41 -0.049822826 4.0636e-41 6.2251e-41 4.6142e-41 -4.0383e-41
5.9302e-41 -6.198e-41 2.9171e-41 4.6822e-41 1.0336e-41 -4.8223e-41 5.1245e-41 -2.094e-41

gats.0.lin_l.bias f4 [335]
00000000: 7efa 2e3d 250a 0c3d 2941 3c3d f375 f8bb
00000010: a37c b4bb 2d9d 71bc f258 0abc 4b69 88bd
00000020: 1b02 6a3d 25ce 0abd 96c0 d7bd 26f8 033d
00000030: 7ae6 f53d a130 f5bd ae64 cb3b 825d 0b3d
00000040: 425f 823c 4f45 f53c 3494 1ebd 8a82 16bd
00000050: 2af0 8a3d e4fa a5ba dae2 47bd e4b7 38bc
00000060: 1cfe a0bd 8604 0cbc dd19 90bd 3794 84bd
00000070: 7890 22bd 9ed4 e33d 8a28 81bd 131e ffbd
00000080: 28d0 39bd fffd f43c 7fde 28bd 5927 433d
00000090: 6491 09bc 5baa 1cbe 1591 6cbd 847b 05bd
000000a0: 47c5 3c3c 5e97 36ba f97d b6bc e5c9 36bd
000000b0: c5b0 51bb bcb1 3cbb 6b6b 393d 67d4 0c3d
000000c0: 06d4 ebbc f6b5 643d 5b25 b03b d662 bd3b
000000d0: f88a cbbc 5b47 783c 7d37 17bd d13e d53d
000000e0: 725e 153d e3cf c7bd c485 b73b c7a0 70bd
000000f0: ac1d bdba d706 e5b9 9805 03bc 189d 1e3e
00000100: 55f5 24bc a408 b7bd ab87 f0bd 9479 88bc
00000110: 1eeb 423e e19e 45bc f672 3cbd d3ea a9bd
00000120: d062 b2bd 63a2 dc3d 87da ea3c 96b6 1bbd
00000130: a37d 47bd c8f1 dabd c8a4 bebd 653d b4bd
00000140: 072d bdbd 76c5 41bc 0c2c 88bb 2ccc 543c
00000150: a77a ca3d 9d98 a9bb e4f0 02bd 5083 81bd
00000160: 6a13 c2bd 6c66 c53c c826 853d c2b4 c1bc
00000170: 3a48 efbd 5744 a8bd a4c0 9c3c 71c7 733d
00000180: 38d8 b7bd bbf3 89ba 25cb 29bc 37e0 9cbd
00000190: bf24 483e 7c59 39ba 0f4b 77bd 6283 0b3b
000001a0: da0b 723c 1d6a 9cbc c533 ed3a 4d9f e63c
000001b0: 1d7b be3c 271a 283d 550f f7bb 2af3 23bd
000001c0: 8f0b 433d 9fad 563c 34f5 5bbc f82a 7ebd
000001d0: a7ab 5cbd 08a3 61bd 54dd 8f3c fa50 d23d
000001e0: 4b3d 3cbd 36ed 883d 513c 253d cdad 92bc
000001f0: ccc1 373d 7ce9 3bbd bdaf eabc bc26 5dba
00000200: 9094 49b9 ed32 26bc d361 3e3e 0759 e3bd
00000210: 9535 f4bd eef7 963c 974d 9b3d ce5e 143d
00000220: 55f5 33bd a20a 89bd 3930 92bb 2120 94bd
00000230: bbe7 fdbb ce38 adbc d9f4 3c3c 22f3 d8bc
00000240: e7d4 8c3d 6874 15bd 8e5e 533c ffbf febb
00000250: 2b16 dcbd cb13 30bd 4e7d 6dbd e9e7 62bd
00000260: 247b 00bd 22cf e63d 631d 08be bf98 a3bb
00000270: 19ee 76bc 24a2 b13c 8e4e 5c3e a5cd 08be
00000280: 2886 37bd 2d8a c4bd 37de fd3d 85b0 a23d
00000290: aa71 933d fa9b 1c3c 70e9 48bd 1a3e c3bc
000002a0: 6b22 023d d261 9fbb cd8d abbd 7e4f 6c3c
000002b0: ca63 b8bc 98f6 053d a0a5 be3a 1ecb 9a3b
000002c0: d33e 0b3e 6f3b af3b eec6 01ba 220d 053a
000002d0: e6d6 453c 72ea f3bd 6689 cf3d 5eaf f0bc
000002e0: ae91 46bd 37e2 973c 2fc0 e1bd 35d8 cd3d
000002f0: 9009 2b3d 5c73 b43d e878 ecbc 480b 0b3d
00000300: 674a 193d 7110 a8bd b53b 81ba c03b 10ba
00000310: 2be2 41bc cb04 e83c 5d58 ddbd 96b3 703c
00000320: 0336 7e3d ca35 cfbd c381 0b3e d698 ccbd
00000330: c68b 95bd 411d bdbb d275 873d 58df 21bc
00000340: b522 d3bb 9237 c4bc 02ae e33c 2a13 cebb
00000350: 2766 823d 8c85 83bc 7d4c 2dbb dc94 7f3c
00000360: 2053 883c eb07 a2bd 2d19 95bd 5998 df3b
00000370: 7ef4 0f3e 739d a5bd a811 e2bd 8079 e0bc
00000380: 49ac 45bc 6b22 2abc 89cf 88bc 18dd 283d
00000390: 4beb ae3c 027e 62bd 2f01 abbc 4b28 f63b
000003a0: 66e9 f5bd 90df 8e3d f497 27bc 8057 9ebd
000003b0: ecb2 e53c daca c1bc 34e6 b8bd bf2e 64bc
000003c0: d5bf e8bd 69cd 303d 41fd 023c 8e54 4ebd
000003d0: e710 eb3c cc52 b7bb 2d7f 87bb 597b 5dbc
000003e0: 2d9b 47bd 590f dabc 84cb b23d 1d49 c1bd
000003f0: 6615 f53c 339d 063d 0748 a53d e349 cfbc
0.042719357 0.034189362 0.04596058 -0.00758242 -0.005508022 -0.014746946 -0.008444058 -0.06660708
0.057130914 -0.033888 -0.1053478 0.032219075 0.120068505 -0.11972166 0.0062070703 0.034024723
0.015914563 0.029940275 -0.038715556 -0.036745586 0.06784089 -0.0012663272 -0.048800327 -0.011274312
-0.078609675 -0.008546 -0.07036183 -0.06473582 -0.039688557 0.11124538 -0.0630656 -0.12456908
-0.04536453 0.029906271 -0.041227814 0.047644947 -0.00839648 -0.1529936 -0.05775555 -0.032588497
0.011521644 -0.00069653045 -0.022276865 -0.044626135 -0.0031996232 -0.0028792461 0.045268457 0.03438225
-0.028787624 0.055837594 0.005375547 0.0057796044 -0.024846539 0.015153731 -0.036918152 0.10412372
0.036467023 -0.09756448 0.005600663 -0.05874708 -0.0014428399 -0.0004368338 -0.007996939 0.15489614
-0.010068257 -0.08937195 -0.117446266 -0.016659535 0.19035003 -0.012061805 -0.046008073 -0.08296742
-0.08710253 0.1077316 0.028668655 -0.038015924 -0.0487038 -0.10690647 -0.09308773 -0.088007726
-0.09237104 -0.0118268635 -0.0041556414 0.0129881315 0.09886675 -0.0051756636 -0.031968012 -0.06323874
-0.09476359 0.02409669 0.065015376 -0.023645762 -0.11683698 -0.0821616 0.019134827 0.059516374
-0.08976787 -0.0010524908 -0.010363375 -0.07659953 0.19545268 -0.0007070524 -0.060374316 0.0021288027
0.014773333 -0.019093568 0.0018097094 0.028152132 0.023252064 0.041040566 -0.0075396695 -0.04002682
0.047618445 0.013102918 -0.01342516 -0.062052697 -0.053874638 -0.05508712 0.017561592 0.10269351
-0.04595689 0.066858694 0.040340725 -0.01790514 0.044862553 -0.045876965 -0.028648252 -0.0008436253
-0.00019224198 -0.010143978 0.18592004 -0.11100965 -0.119242825 0.018428769 0.075831585 0.036223225
-0.04393514 -0.06691481 -0.004461315 -0.072326906 -0.0077485717 -0.02114525 0.011532986 -0.026483122
0.068765454 -0.036487967 0.012900962 -0.0077743526 -0.10746416 -0.042987626 -0.057980828 -0.055396948
-0.031367436 0.11269976 -0.1329246 -0.004992574 -0.015071415 0.02168376 0.21514341 -0.13359697
-0.044805676 -0.095966674 0.123959 0.07943825 0.07199414 0.009558672 -0.04905075 -0.023833323
0.031771105 -0.004863956 -0.08376656 0.014423249 -0.02250852 0.032705873 0.001454521 0.0047239205
0.13598184 0.005347661 -0.00049506023 0.00050755043 0.012075162 -0.11909951 0.101336285 -0.029380497
-0.048478775 0.018540485 -0.11022984 0.10051004 0.041757166 0.088110656 -0.028866246 0.033946306
0.03742447 -0.08206261 -0.0009859713 -0.00055020675 -0.011833708 0.028322598 -0.108078696 0.014691254
0.06206323 -0.10117681 0.13623719 -0.09990089 -0.0730205 -0.0057713096 0.06614269 -0.009879909
-0.0064433464 -0.02395228 0.027792934 -0.0062889056 0.0636714 -0.016054891 -0.0026443296 0.015599456
0.0166412 -0.079116665 -0.072801925 0.006823581 0.1405811 -0.08086672 -0.11038524 -0.027401686
-0.012065002 -0.010384182 -0.016700523 0.041226476 0.02135243 -0.05529595 -0.020874588 0.0075121275
-0.12007408 0.06976235 -0.0102291 -0.07731533 0.028039418 -0.023656297 -0.09028283 -0.013927161
-0.11364714 0.043164644 0.007994951 -0.050373606 0.028694583 -0.005594587 -0.0041350336 -0.013518178
-0.04873197 -0.026618646 0.08730224 -0.094377734 0.02991743 0.03286476 0.08070379 -0.025303787

gats.0.lin_r.weight f4 [335, 67]
00000000: 7e3e 0000 0195 0000 7be6 233a b048 0080
00000010: 5742 f539 4909 0000 22a9 0080 e923 82bb
00000020: ae90 0000 0b0d 0000 bc30 0000 baae 0000
00000030: 0753 0080 604b 0000 c67b 0080 a65d 0000
00000040: 1c6d 0000 c963 0000 f9c6 55bb 2c92 71bb
00000050: 6c4f 0000 894b 2fbc 7886 443b 77dc c43a
00000060: 5271 0080 0571 0080 828a 32bc 59a0 efbb
00000070: 1099 4eba d770 0080 4fb2 0000 0ca2 8a3b
00000080: 9a00 0080 ac83 993b db1a 92b8 6f0b 78b9
00000090: 73dc c938 6c5d a338 b866 0000 b59e 0000
000000a0: 8f81 0080 787e 0000 6c46 e43a e028 0080
000000b0: e0ac 0080 a819 0080 2a51 0080 0ba4 0000
000000c0: 1b58 0080 347f 0000 619d 0080 2e10 0000
000000d0: d034 0080 345a 0080 36a6 0000 37af 0000
000000e0: 2f86 0080 a70e 0080 a6b0 0000 4fb4 ccbb
000000f0: 2514 6c3c b86c 0000 4342 0000 48b1 0000
00000100: 69ad 0080 1406 0000 7b02 6bbc 3a92 0080
00000110: 2c3f 0000 7ccb 28bc d890 0080 d367 51ba
00000120: 2d51 0000 487f 0080 829e a3bb 3f08 0000
00000130: 540d 0000 ba9b 0080 fe58 0080 c85e 0080
00000140: ab38 0000 68b2 0080 b15e 0080 6e0f 0080
00000150: 36ac 0080 f00d 103d cac5 4f3d 2b7b 0000
00000160: cefc a53c d23e b23c ca58 353c c873 0000
00000170: 5c40 0080 7c77 c2bd 5bd8 ce3c aee7 2eba
00000180: c884 0000 73a3 0080 6aee 97bd e54c 0080
00000190: 4178 0abc 3e05 0dbd ebb7 87bc d7b7 fc37
000001a0: b5b4 f3b8 53b0 0080 a598 0000 269b 0000
000001b0: 6c9c 0000 3f54 52bb fdad 0080 7981 0000
000001c0: e652 0000 da6c 0000 d841 0080 488f 0080
000001d0: 4b7b 0000 529e 0000 1a7d 0000 577e 0080
000001e0: 56a8 0080 c937 0080 6694 0000 9b7d 0080
000001f0: 8882 0000 4c5b 0000 faa2 3f3d e275 adba
00000200: 5746 0000 29ab 0080 49ae 0080 e03c 0000
00000210: 5db2 0000 2342 5dbc 336e 0000 b211 0000
00000220: 90de babc cc9d 0000 92f5 d5b9 c26e 0000
00000230: b56e 0080 6e99 883d d380 0000 874d 0000
00000240: d2a4 0080 fc7a 0000 1faa 0000 e41c 0000
00000250: df8f 0000 d7a8 0080 77b1 0000 ff52 0000
00000260: 1025 2abd 84d6 6a3d 9675 0080 419c 9abd
00000270: e79e 913a 3295 d2ba 2e91 0080 3472 0000
00000280: 3f52 0b3b 2fdb 89b8 4610 e4ba 1c5f 0000
00000290: 92ad 0080 8c97 9e3c 5473 0080 2795 823c
000002a0: 386c 2d3a 09a7 483b 7c1f a0b7 3e45 aab6
000002b0: 7e32 0080 e15e 0080 b6a9 0000 57ac 0000
000002c0: a331 63bc f59e 0080 0c67 0000 0681 0080
000002d0: da93 0000 a27d 0080 a466 0080 1975 0000
000002e0: ff63 0000 90a9 0080 5a07 0000 8f50 0080
000002f0: 937e 0080 8771 0080 cc97 0000 1d35 0000
00000300: 03aa 0000 c218 1bbd 901c 193d 2652 0080
00000310: 2aaf 0080 1590 0000 22a5 0000 e5a8 0080
00000320: ba8d d2bc 181c 0080 72ac 0080 d071 a438
00000330: e282 0080 ace9 5d3a 1fa6 0000 469b 0000
00000340: 8a44 6fbb f03c 0000 bdaf 0080 1b9e 0080
00000350: 4ca0 0080 2067 0080 a35e 0080 22b1 0080
00000360: 3d71 0000 dc7f 0080 9770 0000 7c5f cc3b
00000370: 83ae cd3a ea99 0000 22bc d93b 031c 983b
00000380: 9418 fdba cf5f 0000 ed5c 0080 c417 efba
00000390: 0d2c bf3b 4b54 843a 8f89 0000 fd7e 0000
000003a0: 346a 83ba 569d 0080 dd42 a83a 22fc abb9
000003b0: db34 8b3b 1c2d eb38 47d4 ae38 ca83 0080
000003c0: 8a67 0000 378f 0080 a94e 0000 1bee 433c
000003d0: be1f 0000 399c 0080 097f 0080 d6ad 0080
000003e0: 2b87 0080 11b1 0080 f363 0000 9550 0080
000003f0: 6b6e 0080 315b 0080 a282 0000 df62 0000
2.2418e-41 5.3453e-41 0.0006252301 -2.6075e-41 0.00046779469 3.331e-42 -6.0673e-41 -0.003971566
5.1901e-41 4.679e-42 1.7483e-41 6.268e-41 -2.9785e-41 2.704e-41 -4.4402e-41 3.3595e-41
3.9141e-41 3.5796e-41 -0.0032619818 -0.0036860807 2.8491e-41 -0.010699161 0.0029987376 0.0015019317
-4.0652e-41 -4.0544e-41 -0.010897281 -0.007312816 -0.00078810845 -4.048e-41 6.3965e-41 0.0042307433
-2.16e-43 0.004684886 -6.966825e-05 -0.00023655382 9.625489e-05 7.789847e-05 3.6849e-41 5.6933e-41
-4.6477e-41 4.5368e-41 0.0017416007 -1.4663e-41 -6.2016e-41 -9.204e-42 -2.9116e-41 5.8848e-41
-3.1606e-41 4.5632e-41 -5.6457e-41 5.804e-42 -1.8946e-41 -3.2359e-41 5.9625e-41 6.2855e-41
-4.8136e-41 -5.256e-42 6.337e-41 -0.0062470804 0.0144091 3.9001e-41 2.377e-41 6.3597e-41
-6.2208e-41 2.18e-42 -0.014343853 -5.2456e-41 2.2662e-41 -0.010302421 -5.196e-41 -0.00079881883
2.912e-41 -4.566e-41 -0.004993261 2.958e-42 4.781e-42 -5.5864e-41 -3.1924e-41 -3.4001e-41
2.0329e-41 -6.4e-41 -3.3969e-41 -5.535e-42 -6.1778e-41 0.03516954 0.050725736 4.4184e-41
0.020262148 0.02175847 0.011068532 4.1534e-41 -2.3088e-41 -0.09495446 0.02524965 -0.0006672096
4.7633e-41 -5.8635e-41 -0.07418521 -2.7585e-41 -0.008451522 -0.034428827 -0.016567191 3.0126348e-05
-0.00011620802 -6.3253e-41 5.4759e-41 5.5657e-41 5.6114e-41 -0.0032093672 -6.2415e-41 4.6446e-41
2.9738e-41 3.9049e-41 -2.362e-41 -5.14e-41 4.4229e-41 5.6795e-41 4.4878e-41 -4.5322e-41
-6.0388e-41 -2.0012e-41 5.3235e-41 -4.5059e-41 4.6826e-41 3.2751e-41 0.046786286 -0.0013233984
2.5233e-41 -6.14e-41 -6.2522e-41 2.1838e-41 6.3985e-41 -0.013504538 3.9532e-41 6.348e-42
-0.022811204 5.6607e-41 -0.0004080949 3.9732e-41 -3.9714e-41 0.066698894 4.6213e-41 2.7812e-41
-5.9126e-41 4.4118e-41 6.1028e-41 1.0364e-41 5.1611e-41 -6.0568e-41 6.3662e-41 2.9773e-41
-0.04153925 0.057333484 -4.2182e-41 -0.07549334 0.0011109979 -0.0016066192 -5.208e-41 4.0968e-41
0.002125874 -6.573495e-05 -0.0017399869 3.4119e-41 -6.2265e-41 0.019359373 -4.1372e-41 0.015940262
0.0006615552 0.003061714 -1.9088147e-05 -5.0744557e-06 -1.8113e-41 -3.4036e-41 6.0881e-41 6.1824e-41
-0.013866815 -5.7023e-41 3.6966e-41 -4.6285e-41 5.3039e-41 -4.5069e-41 -3.682e-41 4.2007e-41
3.5872e-41 -6.0828e-41 2.637e-42 -2.8899e-41 -4.5406e-41 -4.0726e-41 5.4454e-41 1.9053e-41
6.0989e-41 -0.037865408 0.037380755 -2.947e-41 -6.2837e-41 5.1687e-41 5.9238e-41 -6.0588e-41
-0.025702346 -1.0078e-41 -6.1862e-41 7.8413286e-05 -4.6952e-41 0.0008465301 5.9593e-41 5.5702e-41
-0.0036509358 2.186e-41 -6.3043e-41 -5.6718e-41 -5.7504e-41 -3.6994e-41 -3.3949e-41 -6.3543e-41
4.0622e-41 -4.5867e-41 4.039e-41 0.0062369686 0.0015692267 5.5214e-41 0.0066447416 0.004642011
-0.0019309693 3.437e-41 -3.3335e-41 -0.0018241336 0.0058341087 0.0010095922 4.9347e-41 4.5555e-41
-0.0010026158 -5.6441e-41 0.001283731 -0.00032803515 0.004248244 0.000112140755 8.336506e-05 -4.7277e-41
3.7143e-41 -5.1376e-41 2.8218e-41 0.011958624 1.1387e-41 -5.6042e-41 -4.5572e-41 -6.236e-41
-4.8489e-41 -6.352e-41 3.5855e-41 -2.8907e-41 -3.961e-41 -3.2713e-41 4.6862e-41 3.5468e-41

gats.0.lin_r.bias f4 [335]
00000000: f594 cebb a480 033e 9cf2 0a3e ea6f 013d
00000010: ea6c 5538 4b75 66bc 6f91 8e3b d019 253e
00000020: 74a1 8c3c 3677 42bd 36cb 663c 5b44 f03a
00000030: ae29 2c3e 43e9 f5bc 50af fdbb 9138 84bc
00000040: 4345 3c3c 12eb b53d e7c8 9f3d 34ec 70bb
00000050: 18ff 073e d16d 453b b0d5 7bbb bb7d 8b3b
00000060: ff93 02bc d4e0 f43c fd24 edbb b070 123b
00000070: 7c51 023d 4cdf 293e 3f07 e33b 08f1 0c3a
00000080: 7ced 23bc 3e1c bf3d bb12 b23c 23c2 a9bc
00000090: 0284 b33c 3503 e53b 9f71 ff3c 5cba 7a3d
000000a0: 34f1 cd38 6488 a13c 1c31 263e 1d01 5a3e
000000b0: 03c0 363c f9e5 fc3c 569e aabb 50f3 273e
000000c0: 90e6 d93c 6e6f 763d e4a8 b8ba 8306 883a
000000d0: c160 563e ca56 863c 5de3 08bc 6140 a23e
000000e0: ae81 1b3e 42fe 273c fce4 333d 9ca9 a93d
000000f0: a33a 02b7 7f90 6db8 fbeb 283b a68c 7e3e
00000100: 93a4 333c 3ea5 093e fca2 ec3d 5acb a8bb
00000110: 6631 b03d 9f80 de3d b9c8 413c e6f9 293e
00000120: 17fe 743d 6060 0e3e 5969 263e 86e2 e33c
00000130: 966b 6e3d e7b8 78bc 93d9 d6bb 20c3 883d
00000140: 3079 e73d 2fd0 a23d b18c 673e 4f28 423d
00000150: 971a bf3d 1ea4 253e d4b1 93bc 2385 4ebc
00000160: f232 14bb e174 da3d ad11 353b 23cf 793d
00000170: 3f42 a53d a21b 8d3d f244 14bc 5103 353d
00000180: 53f6 d23a a7ff b53d 42fd 35bc e85d 223b
00000190: 671e 443e fb28 a8bc 18b3 b9bc cd94 943d
000001a0: fdf4 49bc fde6 b23b 65e0 1f3d 9fb0 3fba
000001b0: 5739 733a 1199 17bc 78fe 0c3c 35d8 483e
000001c0: 9bec 6c3e 5dff 943d 83aa 923a c714 7e3d
000001d0: c322 393e 8d17 c83d 42a7 a13c 5cc7 083e
000001e0: 4f4a 243d ce57 763c 41df 1b3e 4d62 643e
000001f0: 110e f33c eda5 ed3c 1654 8b3d 63d4 7936
00000200: 202f aa3a db84 61b9 a3b9 583e 3701 263c
00000210: 6ccc 75bb 11a6 d23c 15b2 063e 58e3 633b
00000220: f6cc 033c d622 d6bb d757 eeb8 9379 1c3d
00000230: 184e 02b9 6674 df3d bb1d 173e 6509 1e3c
00000240: 7a53 183d c615 523e 80d8 a63d b620 febb
00000250: e41c bf38 ca1c 033d 5c9a f13d e10f af3c
00000260: 1a62 c53d bdd8 1d3e 7e50 ab3a 5fa5 843b
00000270: a394 a83d fd6f a43d 0649 423e e8fc b9bb
00000280: 65cc 033e 281c 193a 4e59 343e ecc9 083e
00000290: 390d ac3d 80e4 293d 5f1d f5bb 5c75 503e
000002a0: e566 653d 693a 843d 9418 963d cd4e 923d
000002b0: 1137 a7bb 1043 8e3c 4385 433c 52f7 5b3d
000002c0: 8cc2 cc3d 3893 bf3d f8bf 353c 007b cb3c
000002d0: b6ed a63c f3c6 863a 06c4 e13d 9fdd 823d
000002e0: 1ee8 e93c de36 2c3c 8af6 b63c 1716 dc3d
000002f0: 2a4e b23d 740d 0a3e 4a4b 063c b2f0 443b
00000300: 25b6 ce3d 4c15 ca3b bbb6 9937 9760 bb35
00000310: 2251 e83d a059 673d 833c 57bc 77a5 643e
00000320: f005 0a3d 1cce d4bb 2dd5 973d 2d1d db3b
00000330: cce9 d0bb 22f0 58b9 e58d 23bc 1928 743b
00000340: b951 313e 2158 2a3e 8358 f33c a439 bd3d
00000350: 6b33 993c 3ddf 833b dbcd 38bb d95d ac3d
00000360: 712a d43b 5a16 bc3c 84ce 773d 3862 7f3d
00000370: 7f14 c63d e7f7 e0bb 020c 013d 7924 0c3e
00000380: bd06 dd3d 8152 093e da64 013d 7a96 583d
00000390: e4eb 003e a47a cfbb fb06 263e 6aae 9fbc
000003a0: 5696 853b 8264 1a3e 32dd 093e 6307 a03b
000003b0: 864b d5bb 7fb7 0b3d 317b 2f3b 12b4 57bb
000003c0: 1f7d 653b 89d3 443c 7fb6 be37 9e4a 273d
000003d0: 752f c53d 868e 543b ebde 683b b3e7 6c3c
000003e0: 474c 113d 81a0 253e 5407 b63d 4a0e a13c
000003f0: bfaa 8c3a dc93 b93e 32d2 7e3e 0c8a 103d
-0.006304378 0.12842041 0.1356911 0.03160087 5.088459e-05 -0.014066051 0.004350833 0.16123128
0.01716683 -0.04747697 0.014086535 0.0018330918 0.16812775 -0.030018454 -0.007741846 -0.016140254
0.011491123 0.08882727 0.07801991 -0.0036761882 0.13280904 0.003012527 -0.0038426928 0.0042569316
-0.007969855 0.029892363 -0.0072370754 0.0022345 0.03181599 0.16589087 0.006928354 0.00053764926
-0.010005351 0.09331559 0.021737447 -0.020722454 0.021913532 0.0069889077 0.031182108 0.061212882
9.820089e-05 0.019718356 0.16229671 0.21289487 0.011154178 0.030871378 -0.0052068634 0.1640141
0.026599199 0.06016486 -0.0014088419 0.0010377917 0.20935346 0.016398806 -0.008354989 0.31689742
0.15186188 0.010253491 0.04391955 0.082843035 -7.762256e-06 -5.6639776e-05 0.002577542 0.2485834
0.0109645305 0.13441941 0.11554524 -0.0051511945 0.08603172 0.10864376 0.011827641 0.16599235
0.05981263 0.13903952 0.16251124 0.027817976 0.05820807 -0.015180803 -0.0065566986 0.06677842
0.113024116 0.07949864 0.22612263 0.047401723 0.093312435 0.16175887 -0.018029131 -0.012604984
-0.0022613374 0.10666824 0.0027628944 0.060988557 0.08069276 0.06890036 -0.009049641 0.044192616
0.0016095139 0.088866524 -0.011107745 0.002477521 0.19152223 -0.020527354 -0.022668406 0.07254944
-0.012326476 0.005459665 0.03903236 -0.00073123904 0.00092782587 -0.0092528025 0.008605592 0.19613726
0.23137133 0.07275269 0.0011189732 0.062031534 0.18079667 0.09770117 0.019733075 0.133573
0.04010993 0.015035583 0.15221883 0.22303124 0.029669793 0.029009784 0.068031475 3.7227517e-06
0.0012984015 -0.00021507165 0.21164565 0.010132126 -0.0037505878 0.025713952 0.1315387 0.0034772959
0.008044472 -0.0065349145 -0.00011365086 0.03820188 -0.00012426858 0.10910873 0.14757435 0.0096457945
0.037188984 0.20516118 0.08146763 -0.0077553643 9.112971e-05 0.032009877 0.1179702 0.021369876
0.09637852 0.1541471 0.0013070253 0.004048034 0.08231475 0.080291726 0.18973169 -0.0056759007
0.12870939 0.00058406824 0.17612192 0.13358277 0.084009595 0.04147768 -0.007480308 0.20357269
0.05600633 0.06456453 0.07328907 0.07143936 -0.005103 0.017365962 0.011933628 0.05370266
0.09998044 0.093542516 0.011093132 0.024838924 0.020377021 0.001028268 0.11023717 0.06389927
0.028553065 0.010511128 0.022334356 0.10746401 0.08706315 0.13481694 0.008196661 0.0030050692
0.10093335 0.0061670896 1.8324112e-05 1.3960697e-06 0.113436 0.056481957 -0.013136986 0.22328745
0.03369707 -0.0064942967 0.07413707 0.0066868276 -0.006375527 -0.00020688822 -0.009982561 0.0037255345
0.17316331 0.16635181 0.029705292 0.0923951 0.018701276 0.004024415 -0.0028198871 0.084163375
0.006474786 0.022959877 0.060499683 0.062349528 0.09671878 -0.0068654898 0.031505592 0.13685788
0.10792301 0.13410379 0.03159032 0.05287788 0.12589985 -0.0063317586 0.162136 -0.019492347
0.0040767593 0.15077403 0.13463286 0.004883693 -0.0065092472 0.034110542 0.0026776309 -0.0032913727
0.0035017205 0.012013325 2.2734746e-05 0.040842645 0.09628192 0.0032433583 0.003553326 0.014459538
0.035473134 0.16174509 0.088881165 0.019660134 0.0010732039 0.3624562 0.2488487 0.0352879

gats.0.lin_edge.weight f4 [335, 1]
00000000: 86a7 583c 2950 7d3e 36cc e23c 9329 e73c
00000010: 5465 1b37 ce61 bbbc ed42 ca3a 1b24 193e
00000020: d894 0fba a8ce 0ebc 6cc8 9f3c 3a23 86ba
00000030: 477d 4a3b d701 473d 7a69 5cbb 589e 16bc
00000040: f117 fcb9 e2d7 d939 dc16 ec3c 5c66 cebb
00000050: 4ea2 8abc 5e9a 393b 9eec 10bb c4e1 ac3b
00000060: 195b 41bb 0bcf c43c e65b afbc 163a f33b
00000070: c549 b53c 3747 b5bc 1cf7 e5bb b7c6 823a
00000080: 38ae f6bb 6a0c e03d 7ae7 3f3c f2d3 2dbc
00000090: 4a9e f13a 980b 813b 601d 8c3c 25fa 8e3d
000000a0: f026 91b9 5649 77bc af24 713e 9bd8 b83d
000000b0: 1917 abbb 687b 2d3c 244a f6bc f343 883e
000000c0: db37 a03b a2c4 d13b 344e ac3b 6906 06bc
000000d0: 2882 163e 9a41 ac3c d46b dbbc 132c 773a
000000e0: edd8 2a3b 51a1 c33c 4d8a d4bc 85e4 3b3d
000000f0: 2ebd 3a38 e599 47b8 de35 b2bb 6e0f 22bc
00000100: 9b8e 2f3c cc26 893d d729 b03d 65d6 b03a
00000110: 75a4 233e 1492 c23d 5a46 ac3c dfe5 3b3c
00000120: fb30 013e bdba f23d 546e d03a a2fa 5f3b
00000130: ff77 d23d 4fa6 823b 5f4b 82bb fe53 d03d
00000140: 0f42 03be 7b79 5f3d 15e0 103e a439 ebbb
00000150: ac75 ca3d ed50 27be 26a6 febb 1ac6 b3bb
00000160: b2ef 37bb 8aed de3d b602 edbc 9bc6 0ebc
00000170: 87cb a73c 8aee e53d 43a7 ebbb d1a1 c1bc
00000180: 9755 89ba f7eb c33d 0c84 b8ba 9b86 98bc
00000190: 90de 573e b40e 2e3e ec1a 9dbc f578 df3c
000001a0: 6b2f e1bc 1e30 8a3d ae48 95bd b623 09b9
000001b0: 34b6 8fbb bf48 dcb7 bc3c 15bc 465b b0bb
000001c0: 83d8 f7bd 4cea 173e dca9 7ebb 511d bc3d
000001d0: 8771 abbc 52e1 4c3d 4142 b43c de21 373e
000001e0: 3155 e63c 1a4f 1bbe 8e9b 90bd 186b 3ebe
000001f0: 8dca 753c c889 4e3c 84d4 4a3d 8053 9236
00000200: 2d46 983a 3c56 e839 3fd8 603e 2de0 203c
00000210: 5dcc 19bb 575c b33b 527b 54bd 7b6d d7bc
00000220: e531 1d3c 2fb2 a5bb 360d 9b39 eb9e b73c
00000230: 3758 e2b9 3de2 5a3e 195f 923e a119 a1bb
00000240: a3a3 84bd 4c41 cc3c e5d3 b8bd 9902 29bb
00000250: 9d6c e7bb 9403 383d 35f8 d83d cded d13c
00000260: fdea 1e3e 014f 5d3e 3568 713b f634 3839
00000270: da9d c2bc c762 dc3d 4e9b d73e 84b0 d9ba
00000280: a120 ab3e 547b 3e3b fe7d 113f 04f1 d93e
00000290: 5113 a13e d374 2d3e 004e 12bb 6b3a 53bd
000002a0: f1fb b23c 0a63 b53c c426 363e 73c7 833e
000002b0: b929 8d3a b16f 953c ff11 bb3b c7c2 61bd
000002c0: 5b18 d03e 34f8 453e 6e9a 3cbc e560 f2bc
000002d0: 3e39 92bc 3eec 383a 72c4 dc3e 314b 7abc
000002e0: 25a3 de3c 117b 8a3c 3529 863d d4b0 d13e
000002f0: adb9 903e ebc2 e43e 6476 9c39 9005 f53b
00000300: f022 383d 854b 0c3c d066 0838 9888 a336
00000310: df35 03be 3c6f 553d 03b4 f1bb e6d8 a13e
00000320: 66e0 a93c 8de5 db3c ad4c 053f 9055 d83b
00000330: 54c7 25b9 454b b3b9 727a aebb c1f9 3b3b
00000340: 6ca4 f33e 8e4b d63e 7b52 623e 6c8a 3abd
00000350: 19ba 863d caf8 8d3a bb76 7dbd fc1d a63e
00000360: 334d f939 f482 6e3e 0525 3b3e 8e56 173e
00000370: 0168 773e 3767 0cbc d312 f63c fa28 bb3e
00000380: 34db 8abd fed5 483d cd62 c93c ee71 ac3e
00000390: 6ef7 fabd 56f5 09b9 8a7a 443e 3bf6 b03d
000003a0: 72f3 55bb 87eb 6cbe dd45 aa3e b074 973b
000003b0: 8061 d83d 54f5 593d 5045 02bb a2c3 e9bc
000003c0: 3679 8b3b eced 013c e715 5c38 1c82 e03c
000003d0: dcac aa3e e6e6 6539 b09c 0b3b 3e45 133b
000003e0: 40b7 0dbe fcbe 1b3e 379b e13e 8dc0 8e3c
000003f0: 576d de3b 84e6 7fbe e33b 73be 72bd ff3d
0.013223534 0.2473761 0.027685266 0.028218066 9.262312e-06 -0.022873785 0.0015431322 0.1495518
-0.00054771965 -0.008716263 0.019504748 -0.0010233887 0.0030897425 0.04858574 -0.0033632205 -0.0091930255
-0.00048083023 0.0004155031 0.028819494 -0.0062988233 -0.016923096 0.002832077 -0.002211369 0.005275937
-0.0029503761 0.024024507 -0.021406125 0.007422696 0.022129903 -0.022128684 -0.007017983 0.0009977435
-0.0075280927 0.10939868 0.011712903 -0.010609614 0.0018434015 0.0039381497 0.01710385 0.06981305
-0.00027685566 -0.015093168 0.2354915 0.09025689 -0.0052212593 0.010588504 -0.03006465 0.2661434
0.004889471 0.0064016143 0.005258346 -0.008180239 0.14698088 0.021027375 -0.026784815 0.000942887
0.002606924 0.023880633 -0.025944853 0.04587223 4.4522043e-05 -4.7588623e-05 -0.0054385504 -0.009891374
0.010715152 0.06696853 0.0860173 0.0013491629 0.15980704 0.095005184 0.02102964 0.01146838
0.12616341 0.11852024 0.0015902021 0.0034176488 0.10276794 0.0039871107 -0.00397627 0.1017227
-0.12818168 0.054559212 0.1414798 -0.007178502 0.098857254 -0.16339464 -0.0077712713 -0.005486262
-0.0028066454 0.10885151 -0.028931957 -0.008714343 0.020482792 0.11227138 -0.00719157 -0.02363673
-0.0010477778 0.09566491 -0.0014077439 -0.018618872 0.21080995 0.16997796 -0.019177876 0.027279356
-0.027488431 0.06747459 -0.07289253 -0.00013078641 -0.004385734 -2.6259919e-05 -0.0091087185 -0.0053819744
-0.12101843 0.14835471 -0.0038858568 0.09185279 -0.020928157 0.05001957 0.022004249 0.17884013
0.028116794 -0.15166894 -0.0706092 -0.1859554 0.015001905 0.012606092 0.049519077 4.3608597e-06
0.0011617594 0.00044314738 0.21957491 0.009819073 -0.0023467757 0.0054736543 -0.05187542 -0.026297322
0.009594415 -0.0050566415 0.00029573747 0.022414645 -0.00043171804 0.21375366 0.2858818 -0.0049163853
-0.06476524 0.02493348 -0.09024791 -0.0025788902 -0.0070625083 0.044925287 0.10594217 0.025626088
0.15519328 0.21612169 0.0036835794 0.00017567337 -0.02375691 0.10761028 0.42110676 -0.0016608392
0.3342333 0.0029065209 0.56832874 0.42566693 0.3146005 0.16939096 -0.0022324324 -0.051569384
0.02184865 0.022141952 0.17788225 0.25738105 0.0010769881 0.018241735 0.0057089324 -0.055117395
0.40643582 0.19332963 -0.011511428 -0.029587219 -0.01784956 0.0007054246 0.43118626 -0.015276716
0.027177403 0.016904386 0.06550828 0.40955222 0.2826666 0.4467996 0.00029842847 0.0074774697
0.044955194 0.008562927 3.252068e-05 4.87368e-06 -0.12813519 0.052108034 -0.0073761954 0.31610793
0.020736884 0.026842857 0.5207012 0.0066019967 -0.00015809882 -0.0003419762 -0.005324655 0.00286828
0.4758638 0.4185452 0.22101776 -0.045542166 0.06578464 0.0010831591 -0.06188081 0.3244475
0.000475505 0.23292142 0.1827584 0.14779112 0.24160768 -0.00856953 0.030038273 0.365547
-0.06780091 0.049032204 0.024583245 0.3368067 -0.12254225 -0.00013156733 0.1918737 0.08640715
-0.0032646325 -0.23136722 0.33256426 0.0046220645 0.10565472 0.05321248 -0.001987774 -0.028535668
0.004256393 0.00793026 5.2472486e-05 0.027405791 0.33335006 0.00021925158 0.002130311 0.0022471691
-0.13839436 0.15209574 0.44063732 0.0174258 0.0067879367 -0.24990278 -0.23753314 0.12487306

gats.1.att f4 [1, 5, 67]
00000000: 2559 073a 6e92 c4b6 034d 163a 7e9b 8636
00000010: 60a8 ceb5 db25 c4b3 d6fe f937 0e83 cab6
00000020: 5ba3 0db5 1ccb 19b6 64c5 e935 1930 ce35
00000030: 850a 8fb3 3849 9036 1a35 2db4 dd49 c134
00000040: d0ca 0c37 e2f5 83b7 db34 11b0 492b 5735
00000050: 3d31 6835 052a 43b6 e8a3 9f35 26a7 81b4
00000060: a1ff 10b5 161b b136 2529 5ab5 7684 e8b3
00000070: 8eb7 eb37 6152 0d33 aa68 7e33 b28a c538
00000080: 52c6 10b5 ce1b c838 2728 b635 6d22 1bb6
00000090: ad3b 1c36 8ac0 5934 18c3 43b4 aeb3 ff36
000000a0: fa13 6736 cc8f aa34 09ef e435 8496 1636
000000b0: 64ad aa36 fd71 a833 e75a 6f38 d815 0438
000000c0: 9194 fd35 59c1 b737 8584 af35 922e c338
000000d0: 98b6 8a36 a169 9d39 baee c136 7002 7ab7
000000e0: 7133 7a33 1337 f537 20cc 5e36 c025 f135
000000f0: 710a ed38 c1f9 6336 ad2f 2838 cba4 0c38
00000100: ea2c aeb5 9e81 78b4 cc3b eeb3 a84b 073a
00000110: 420e c4b6 944e 163a a4ba 8636 62b4 ceb5
00000120: 1e2e c4b3 c7f1 f937 bd85 cab6 70ba 0db5
00000130: 1ba8 19b6 8ace e935 ac26 ce35 0418 8fb3
00000140: 1a4a 9036 5f3e 2db4 b953 c134 b2be 0c37
00000150: d5f9 83b7 0a73 83af 712e 5735 6132 6835
00000160: e2a7 43b6 c7a4 9f35 9474 81b4 6bd9 10b5
00000170: 970a b136 2220 5ab5 b154 e6b3 7cb7 eb37
00000180: 7e9d 0f33 5acb 7d33 d571 c538 ffd7 10b5
00000190: 3e1e c838 672a b635 bb1a 1bb6 433a 1c36
000001a0: 38b6 5a34 341f 44b4 19c0 ff36 2115 6736
000001b0: 1758 aa34 5db8 e435 939d 1636 26aa aa36
000001c0: 335d a833 614a 6f38 1b0e 0438 c391 fd35
000001d0: 52bb b737 7987 af35 4128 c338 f7bd 8a36
000001e0: 6878 9d39 55ee c136 adf1 79b7 6c37 7a33
000001f0: 9437 f537 2fdc 5e36 412b f135 1007 ed38
00000200: 0ad7 6336 241e 2838 aaab 0c38 d103 aeb5
00000210: 357b 78b4 aa30 eeb3 be4e 073a a372 c4b6
00000220: b34c 163a 4acb 8636 bb58 ceb5 894d c4b3
00000230: 960d fa37 ca7a cab6 d1d7 0db5 edb0 19b6
00000240: f0a1 e935 633d ce35 eb16 8fb3 8d46 9036
00000250: a121 2db4 e543 c134 e2ac 0c37 10ea 83b7
00000260: 13d8 7030 a33c 5735 b92d 6835 e8c5 43b6
00000270: 4097 9f35 ef68 81b4 8c4e 10b5 1522 b136
00000280: 4a04 5ab5 45f2 e7b3 79be eb37 5705 0c33
00000290: 7a1d 7e33 8d7f c538 7bc7 10b5 122b c838
000002a0: f10c b635 0bfd 1ab6 3d4c 1c36 7930 5a34
000002b0: 6a7f 43b4 7fbe ff36 d001 6736 befa aa34
000002c0: b4d3 e435 cfba 1636 19aa aa36 cd36 a833
000002d0: d545 6f38 fd18 0438 114b fd35 83d8 b737
000002e0: 7171 af35 4237 c338 89dd 8a36 f16e 9d39
000002f0: ff0f c236 94e8 79b7 e437 7a33 9a4c f537
00000300: 0f46 5f36 6719 f135 cf12 ed38 c6ed 6336
00000310: cb26 2838 1ab0 0c38 8cac adb5 13a8 78b4
00000320: 7d7d efb3 075a 073a e072 c4b6 d952 163a
00000330: 6dc2 8636 e66b ceb5 6611 c4b3 99e6 f937
00000340: 128d cab6 72ce 0db5 811d 1ab6 c099 e935
00000350: 1f2e ce35 9081 8fb3 aa43 9036 aa25 2db4
00000360: f33f c134 4ab5 0c37 4ff8 83b7 68b3 30b0
00000370: bf37 5735 042f 6835 688b 43b6 6790 9f35
00000380: 7283 81b4 5c97 10b5 d817 b136 9011 5ab5
00000390: 9625 e7b3 43bb eb37 2653 0a33 5c0a 7e33
000003a0: a078 c538 dfc3 10b5 1522 c838 1f0f b635
000003b0: 1208 1bb6 d941 1c36 1428 5a34 90ee 43b4
000003c0: 29b8 ff36 73e0 6636 53c9 aa34 92c7 e435
000003d0: 6f90 1636 a9a9 aa36 0634 a833 3344 6f38
000003e0: 2711 0438 ea7d fd35 4ac8 b737 957a af35
000003f0: 0d2f c338 50d6 8a36 986b 9d39 8b0c c236
0.0005163125 -5.858302e-06 0.00057335215 4.011613e-06 -1.53972e-06 -9.133847e-08 2.980178e-05 -6.035326e-06
-5.2764307e-07 -2.2917002e-06 1.7417301e-06 1.5362194e-06 -6.66087e-08 4.300058e-06 -1.6131199e-07 3.6002794e-07
8.391871e-06 -1.5730915e-05 -5.2825805e-10 8.015673e-07 8.6498386e-07 -2.9081723e-06 1.1894126e-06 -2.414974e-07
-5.401617e-07 5.2781643e-06 -8.12712e-07 -1.08274364e-07 2.8099657e-05 3.2904044e-08 5.9234175e-08 9.419526e-05
-5.3932774e-07 9.541922e-05 1.3571743e-06 -2.3116838e-06 2.3280547e-06 2.0279745e-07 -1.8231765e-07 7.6205097e-06
3.443331e-06 3.1769594e-07 1.7056892e-06 2.2439353e-06 5.08658e-06 7.843844e-08 5.70667e-05 3.1491596e-05
1.8893207e-06 2.1905335e-05 1.3077084e-06 9.306999e-05 4.133977e-06 0.00030024073 5.7796397e-06 -1.4901729e-05
5.8254447e-08 2.9231922e-05 3.3199394e-06 1.7966886e-06 0.000113029855 3.3971012e-06 4.0098723e-05 3.3532076e-05
-1.2977082e-06 -2.3143954e-07 -1.10936156e-07 0.0005161115 -5.842915e-06 0.0005733755 4.015239e-06 -1.5400694e-06
-9.13535e-08 2.97957e-05 -6.0356383e-06 -5.2797895e-07 -2.2896627e-06 1.7419964e-06 1.5359451e-06 -6.663325e-08
4.300161e-06 -1.6134571e-07 3.6009968e-07 8.38905e-06 -1.5732754e-05 -2.39105e-10 8.016132e-07 8.6500046e-07
-2.9154985e-06 1.189438e-06 -2.4112944e-07 -5.3960565e-07 5.276244e-06 -8.125809e-07 -1.0725615e-07 2.8099625e-05
3.343802e-08 5.90911e-08 9.414895e-05 -5.3958496e-07 9.542376e-05 1.3572397e-06 -2.311236e-06 2.3279724e-06
2.0369123e-07 -1.8265274e-07 7.6219553e-06 3.443398e-06 3.172906e-07 1.704098e-06 2.2443462e-06 5.0862027e-06
7.8400625e-08 5.705131e-05 3.148439e-05 1.8892391e-06 2.1902528e-05 1.3077944e-06 9.3058225e-05 4.1348353e-06
0.00030035083 5.7795937e-06 -1.4897826e-05 5.8258067e-08 2.9232157e-05 3.3208742e-06 1.7968488e-06 0.00011302356
3.3950805e-06 4.0082392e-05 3.3538476e-05 -1.2965121e-06 -2.3141622e-07 -1.10915906e-07 0.0005161575 -5.8546007e-06
0.0005733475 4.017177e-06 -1.537402e-06 -9.141065e-08 2.9808649e-05 -6.0343637e-06 -5.284065e-07 -2.290176e-06
1.7406983e-06 1.5366062e-06 -6.663125e-08 4.2997476e-06 -1.6124115e-07 3.599845e-07 8.384903e-06 -1.572541e-05
8.761855e-10 8.018198e-07 8.649327e-07 -2.917246e-06 1.1890443e-06 -2.4104472e-07 -5.375848e-07 5.2789787e-06
-8.121757e-07 -1.0800844e-07 2.8102879e-05 3.2601147e-08 5.9165792e-08 9.41745e-05 -5.393446e-07 9.5447656e-05
1.3563823e-06 -2.3095079e-06 2.3290188e-06 2.0320466e-07 -1.8207143e-07 7.621769e-06 3.4422737e-06 3.1847406e-07
1.7048937e-06 2.2460479e-06 5.086197e-06 7.833078e-08 5.7047077e-05 3.1494525e-05 1.8871816e-06 2.1916121e-05
1.3071532e-06 9.308617e-05 4.1385106e-06 0.0003002803 5.7835127e-06 -1.4895708e-05 5.8258493e-08 2.9241946e-05
3.327037e-06 1.7963292e-06 0.00011304544 3.3964038e-06 4.009045e-05 3.354261e-05 -1.2939722e-06 -2.3157945e-07
-1.1152131e-07 0.00051632564 -5.8546284e-06 0.0005734391 4.0161453e-06 -1.5379599e-06 -9.130126e-08 2.9790493e-05
-6.036492e-06 -5.282701e-07 -2.2964962e-06 1.74046e-06 1.5361619e-06 -6.682524e-08 4.2994116e-06 -1.6125583e-07
3.599558e-07 8.38686e-06 -1.5732045e-05 -6.428338e-10 8.017486e-07 8.649515e-07 -2.913841e-06 1.188845e-06
-2.4123761e-07 -5.386444e-07 5.277787e-06 -8.1236885e-07 -1.07636126e-07 2.8101384e-05 3.2206252e-08 5.9148405e-08
9.41616e-05 -5.392921e-07 9.5430914e-05 1.3564458e-06 -2.3101497e-06 2.328414e-06 2.0317412e-07 -1.8247579e-07
7.6210313e-06 3.4403317e-06 3.181145e-07 1.7045406e-06 2.2435813e-06 5.086146e-06 7.8325726e-08 5.7045556e-05
3.1487227e-05 1.8886615e-06 2.1908567e-05 1.3074192e-06 9.3070885e-05 4.1376697e-06 0.00030025537 5.7831107e-06

gats.1.bias f4 [67]
00000000: 0bde b6ba e21c 563b af1b a2bb 3b22 be3b
00000010: 41d5 3a3b c77e a53a 33aa 243b aeb2 133b
00000020: b591 d6ba 75b7 623b f4e4 f73a 6e58 7d39
00000030: 778f 0f3a ef76 153a 5c55 2a3a d9c4 ae39
00000040: c558 e83a 7dd4 863b 24f1 243b bc54 223b
00000050: 1332 ec3a e013 87bb ea94 d138 29f4 e039
00000060: c212 4d3b 44f9 8f3a 03ec a53a 18d9 043b
00000070: dd44 de3a b1cf 103b 654e bbb9 752f c439
00000080: c463 4c3a 1483 043c 7496 b639 6101 e338
00000090: 9870 7a3a 88fc a4b9 0f82 063a ba56 d93a
000000a0: 99fc 6d3a d073 f839 a3ee 413b f7e7 fb39
000000b0: ff8e 093a ec32 f539 c1bf d8bb d445 663a
000000c0: 5207 c13a f297 e5b9 5bbb 1e39 734c 50bb
000000d0: 9a96 6c38 d2bd 5bbb c3dc 453a 57a5 b13b
000000e0: 2020 a8b7 249c 3db8 0739 0d3b 5c56 3d3a
000000f0: 020f f83a b488 d23a 28e6 01bb b931 73bb
00000100: 2623 513b 3972 0a3a 4b38 193a
-0.0013951672 0.0032671024 -0.004947148 0.0058024204 0.0028508457 0.0012626284 0.002512586 0.0022536921
-0.0016370328 0.0034594212 0.0018912838 0.00024160903 0.0005476395 0.00057016214 0.0006497705 0.0003333453
0.0017726651 0.004114686 0.0025168145 0.0024769744 0.0018020294 -0.0041222423 9.993634e-05 0.00042906523
0.0031291698 0.0010984321 0.0012658838 0.0020271 0.0016957779 0.002209645 -0.00035725828 0.0003741939
0.00077968487 0.008087892 0.0003482584 0.0001082446 0.0009553521 -0.00031468668 0.00051310746 0.0016581633
0.00090784725 0.00047388533 0.0029591701 0.00048047278 0.00052474433 0.0004676798 -0.0066146557 0.0008784209
0.0014726913 -0.00043791492 0.0001513785 -0.0031783849 5.6407043e-05 -0.003352989 0.00075478497 0.0054213214
-2.004212e-05 -4.520653e-05 0.0021548884 0.00072226464 0.0018925371 0.0016062469 -0.0019821022 -0.0037108494
0.003191182 0.0005281303 0.0005844875
