inference/BMC/model_checkpoints/BMC_model_6.pt (torch, 503011 bytes, 21 tensors)

gats.0.att f4 [1, 5, 67]
000000 57 cf 8d be 7d 47 a0 b7 8e a3 3c 3c 6c 0b 5d 3d
       -0.2769725 -1.9106776e-05 0.011513604 0.05396597
000010 0a 7f 26 3f c1 d6 a5 3d 52 cd 02 ba f2 3a 72 38
       0.65037596 0.08097602 -0.00049897016 5.7752193e-05
000020 92 f2 3c 3e 26 77 e6 36 55 83 bf 3c 09 80 56 3e
       0.18451908 6.868405e-06 0.023378054 0.20947279
000030 c7 48 77 3e 28 b1 ab 3d 74 55 24 3e b1 d1 a3 37
       0.24148856 0.08383399 0.16048223 1.952876e-05
000040 69 b8 5a bf 66 45 a9 3b 09 17 95 bf bb 56 3c bf
       -0.8543764 0.0051657436 -1.1647655 -0.7356984
000050 f5 e3 f8 3c 7c 44 43 3c ff 6f ec 3e 6d 2b 2a 3f
       0.030382136 0.011918183 0.46179196 0.6647251
000060 48 3e 5d be b4 73 2f 3f 10 b1 e0 b8 09 eb 86 bf
       -0.2160579 0.68535924 -0.00010714133 -1.0540477
000070 5b 9c 06 3e 55 8d 9b be d7 43 06 3b 2e 29 f2 3d
       0.13145582 -0.30381265 0.0020487213 0.11824261
000080 16 c4 13 bf 23 76 58 3d 51 bc 37 b7 5f 44 22 3f
       -0.5772108 0.05284704 -1.0951496e-05 0.63385576
000090 df 3f 3a bc 69 bd 23 bf 72 3f 83 bd c5 3e 5b 3c
       -0.011367767 -0.6396089 -0.064085856 0.013381665
0000a0 7f 5e 41 3f 6b 54 94 3c 51 2f 42 3e 5e fe 21 bf
       0.75534815 0.01810666 0.18963362 -0.6327876
0000b0 22 f8 bb 3c da 8c 54 be 90 4c 47 be 8e 00 e9 be
       0.022945467 -0.20756856 -0.194628 -0.45508236
0000c0 3e 68 58 bf f8 16 13 be d2 36 f0 3e 86 d7 0a 3d
       -0.8453406 -0.1436423 0.46916825 0.033896945
0000d0 c4 31 35 39 8d 0b 60 bf 26 37 20 ba 85 99 0b 3f
       0.00017280044 -0.87517625 -0.00061117334 0.5453113
0000e0 28 41 2d 3e 80 de b0 3e 95 01 52 bf 93 17 95 3e
       0.16919386 0.34544754 -0.82033664 0.29119548
0000f0 f1 08 ad be ae 1a 4c bf 81 dd c5 3d b7 83 bd 3e
       -0.33795884 -0.7972821 0.09661389 0.37014553
000100 e8 f5 d9 3e ac e7 26 3a 18 6d f0 3e c3 4b a3 3c
       0.42570424 0.0006366919 0.46958232 0.019933587
000110 3b 2e cf b6 3c b7 18 3f e1 28 b3 be 55 5d e4 3e
       -6.1744627e-06 0.59654593 -0.34992126 0.44602457
000120 ee a8 83 3e 91 6e 70 3f ab 78 a5 39 e2 69 f2 3e
       0.2571482 0.9391871 0.00031561157 0.47346407
000130 88 eb 08 b7 53 bb b1 3e 85 2a 06 3c 65 5c 51 be
       -8.161071e-06 0.3471323 0.008188848 -0.20445402
000140 ad 6d d8 bc 5d 9f cf 3c ac 08 b3 38 3d 4e dc 39
       -0.026419485 0.025344545 8.5370004e-05 0.00042019962
000150 b2 ed 4e 3e c1 bc cd be c9 34 81 bf b8 8b cb 3d
       0.20207861 -0.4018307 -1.0094234 0.099387586
000160 a8 85 d8 bb e3 7d 5a 3f 23 f4 b9 3a 66 c0 6a 3d
       -0.00660773 0.8534834 0.0014187138 0.05731239
000170 ac 28 75 3d b7 b5 00 bf 44 63 37 bf 75 e6 fd 3c
       0.05985324 -0.50277275 -0.7163584 0.03099368
000180 dd f1 13 bd 70 f0 4a 3c 4e c5 de 3c 7b 98 f4 bc
       -0.03611933 0.012386426 0.027193692 -0.029857865
000190 1d 92 6c bb a5 bf 89 b8 19 48 ee be 56 7b bb 3c
       -0.0036097832 -6.568366e-05 -0.4653938 0.02288596
0001a0 92 f9 77 3e 24 60 71 bd ee b8 c5 3e 3d e8 55 bf
       0.24216297 -0.058929577 0.38617653 -0.8355749
0001b0 f0 fb 2b 3d f3 59 81 3e 70 5f 55 3e 76 fd 8c 3d
       0.041988313 0.25263938 0.20837188 0.06884281
0001c0 58 b2 5b 3e 5c c4 bd 3c 65 22 eb be dd 3f 37 bb
       0.21454751 0.02316492 -0.45924678 -0.002796165
0001d0 2d 23 59 bf 9d d2 01 3f 77 14 48 3f fc c5 7f 3f
       -0.848193 0.50711995 0.78156227 0.99911475
0001e0 7b 9f d8 3c 3e c7 82 ba c6 e1 b3 3d 32 7c 6e 3d
       0.026443234 -0.0009977592 0.08783297 0.05822391
0001f0 64 26 41 3d 9a 7b 85 bc 35 a0 0a be 00 c1 49 3e
       0.047155753 -0.01629429 -0.13537677 0.1970253
000200 3d 1d 24 3f af e8 e3 3e cc 10 e2 3c 02 60 26 3d
       0.64107114 0.4451346 0.0275959 0.040618904
000210 c8 cd 2d 3c 13 c8 11 3c 64 e4 68 3e 73 9e 6b b7
       0.010608144 0.008897799 0.22743374 -1.4043983e-05
000220 a6 19 5b 3b ed f3 6a 3d 50 43 8c 3c d0 03 ee 3c
       0.0033432036 0.057361532 0.01712194 0.029054552
000230 ff 1d 0d ba 68 f3 27 3a 2d f0 0d 3f c5 5e c3 37
       -0.0005383193 0.0006406815 0.55444604 2.3289942e-05
000240 e5 80 1b 3d 3e b5 77 3c 72 e3 59 3f a9 3d a5 bc
       0.03796472 0.015118895 0.8511268 -0.020171003
000250 9e fc af 3e 2e 53 99 b6 97 82 e7 3e 56 1e fc bb
       0.3437242 -4.5694387e-06 0.4521682 -0.007694046
000260 87 5f c8 be ca 53 16 bf d3 92 a2 3e 6f a1 4d 3e
       -0.39135382 -0.587216 0.31752643 0.20081113
000270 a9 a9 60 3f ba e5 3d be 72 5a 9c 3e 1d 04 92 3c
       0.8775888 -0.18544665 0.30537754 0.017824227
000280 ba fe 01 bb 02 31 3a bf c9 5e d9 be 97 0d 11 3c
       -0.0019835667 -0.7273103 -0.42455128 0.008853338
000290 66 ae f7 3d 6c 04 46 3f 26 ad 40 3e 6a 15 bb bd
       0.12093811 0.773505 0.18816051 -0.09134944
0002a0 a3 a5 28 38 e3 0f 99 3d 8a e7 63 bc 75 49 73 3d
       4.0208583e-05 0.07473733 -0.013910184 0.059396226
0002b0 41 23 16 3c 4c bf bd 3b fa 65 75 bf 3b fc 6e 3f
       0.009163679 0.0057906266 -0.9585873 0.93353623
0002c0 f1 c9 85 3c 63 a4 12 3f 68 8d 10 3c 62 df a9 3e
       0.016331645 0.57282084 0.008822776 0.3317824
0002d0 4b 68 87 bb 69 4b b3 3d 98 34 1b 3f 71 88 38 3f
       -0.0041323057 0.08754618 0.60627127 0.72083193
0002e0 72 4b 68 3f ec 78 0c 3f d5 1b dc 3a 71 19 6f 3f
       0.9074012 0.5487201 0.0016792963 0.93398196
0002f0 d0 df 5b 39 53 fd 4a 3f d0 5e 1d 3e 10 a5 3b 3f
       0.00020968844 0.7929279 0.153682 0.7329874
000300 94 af 29 3f 00 29 50 3e 16 e8 a4 3e 61 53 3a bb
       0.66283536 0.2032814 0.32208318 -0.0028431045
000310 7a 35 25 3d 12 1c 7c 3d ab d8 b3 3c b4 14 b0 3e
       0.040334202 0.061550207 0.021953901 0.34390795
000320 d4 6d 63 bc c3 86 44 3d dc 8e 3d 36 8f 22 9a 3b
       -0.0138811655 0.04798008 2.824635e-06 0.0047038267
000330 32 bd ea 3c 81 48 b5 be 45 1d 43 3e e1 b9 fe be
       0.028654668 -0.3540688 0.19054134 -0.4975119
000340 5e ec 92 39 5a c1 45 3e 0f 6d 2f 36 ae 13 fc 3c
       0.00028023397 0.19312039 2.6140513e-06 0.030771103
000350 a1 f7 90 3b 81 6c 5f 3e 96 c7 01 bc 9b 74 21 3f
       0.004424051 0.21818735 -0.00792112 0.6306855
000360 24 cc 0b 3a 6e 18 22 3e 10 3c 9a bb 7b 32 be 3b
       0.00053328485 0.15829632 -0.004706867 0.0058043576
000370 74 ca 1e bf f7 ac c7 be f4 77 6a 3c c5 5e 8f 3d
       -0.6202767 -0.3899915 0.014310826 0.07000498
000380 4d bd 5b bf d4 34 44 3e 69 76 a4 3d b3 46 62 3f
       -0.85835725 0.19160777 0.080303974 0.8838913
000390 19 36 c7 be 76 aa 11 3f d5 cb 4e bd 67 73 b1 3b
       -0.3890846 0.5690073 -0.050487358 0.0054153684
0003a0 c9 ec 3e 3d 9a 8a 25 bd 45 69 ca 3d 4b 4f 53 b9
       0.046612535 -0.040415384 0.0988336 -0.00020152067
0003b0 06 29 85 3e b2 38 79 3a f4 0b c2 bd b2 cd d8 3c
       0.2600786 0.00095070445 -0.09474936 0.02646527
0003c0 35 a1 cd 3d 4e 1d af 3f cf 52 fa 3e 9b 28 a8 3d
       0.100405134 1.3680818 0.48891303 0.0821087
0003d0 6e c5 02 bd 51 ba ae 3c db 2a a8 3d 40 5c 42 3d
       -0.031926565 0.021329077 0.08211299 0.047451258
0003e0 55 f1 87 3f 1f 6c b1 3c cc 38 b1 b8 cd df 28 bc
       1.0620524 0.021658001 -8.450597e-05 -0.0103072645
0003f0 e5 f5 d3 3c 9c cd 83 39 a0 b8 10 bd 7d be 0b bb
       0.025874088 0.00025139458 -0.035332322 -0.0021323257

gats.0.bias f4 [67]
000000 a9 1b 8b 3c 15 80 79 39 e2 e5 9f bd 47 51 04 bd
       0.016980963 0.00023794205 -0.078075185 -0.032304075
000010 8d a0 ba bd 3a 6a c8 bd ae 42 5f bd b8 25 23 3b
       -0.09112654 -0.09785886 -0.05450695 0.0024894308
000020 06 b9 03 bc c7 c4 e9 38 cc c8 7a bd 0a e1 ab bd
       -0.0080397185 0.000111469584 -0.06122665 -0.08392532
000030 cb b6 6e bd e3 08 e7 bb 71 8e af bc e3 61 8d 3a
       -0.058279794 -0.00705062 -0.021430226 0.0010786619
000040 8b a8 6b bd 79 b1 d4 bc 84 e1 ec bb 7e bc 27 bd
       -0.057533782 -0.025963532 -0.007229032 -0.040951245
000050 ab 51 59 bd cd a6 06 bd 28 ae 97 bd 06 46 1f bd
       -0.0530564 -0.032873917 -0.074062645 -0.03888514
000060 80 c2 ee 3b d4 ff 7c bd 31 af 3f bd f0 5e c2 3c
       0.00728637 -0.061767414 -0.046797935 0.02372691
000070 f4 81 4a bc cb ff 77 bd fb 47 38 bd 9c 9a 39 bd
       -0.012360085 -0.060546678 -0.04499052 -0.045313463
000080 f9 3e b6 bb bf 90 b5 bd 62 b5 aa 38 a3 1a f2 bc
       -0.005561706 -0.08865499 8.140017e-05 -0.029553717
000090 d2 3d 90 bc 7b 06 e7 3c a5 a1 ad bc 4d 9e 6a bd
       -0.017607603 0.028201332 -0.021195242 -0.057279874
0000a0 a9 b6 0c 3d 24 71 0f bd bd d4 6f bd e3 88 cc bb
       0.034353886 -0.03502001 -0.058552492 -0.006241904
0000b0 4c 24 bd bd 08 8d 3d bd 7a 14 25 bd 60 50 fe bc
       -0.09235439 -0.046277076 -0.04030273 -0.031044185
0000c0 55 70 16 bd fc c3 23 bd d2 31 71 bc 6d 78 0e be
       -0.036728222 -0.039981827 -0.014721351 -0.13913126
0000d0 43 44 95 bd 6e e6 7d 3d 88 79 af b9 4f 46 af bd
       -0.072884105 0.061987333 -0.0003346915 -0.08558332
0000e0 83 3c 5d bd 64 89 85 bd 30 fb 70 bc 7b d6 77 bd
       -0.054012787 -0.06520346 -0.014708325 -0.06050728
0000f0 d3 52 c5 bc c7 99 7f bc 94 61 a1 bd 21 bd a9 bd
       -0.024087345 -0.015600628 -0.0787994 -0.082880266
000100 36 a4 b6 bd 17 88 89 bd a4 7c aa bd
       -0.089180395 -0.0671541 -0.083245546

gats.0.lin_l.weight f4 [335, 67]
000000 a7 4e 00 00 91 27 00 00 8a 17 28 3f a6 33 00 80
       2.8215e-41 1.4194e-41 0.6566092 -1.8528e-41
000010 28 c2 7c be f5 59 00 80 83 2a 00 00 62 b6 3f be
       -0.2468344 -3.227e-41 1.525e-41 -0.18721917
000020 26 35 00 00 7a 37 00 80 17 3a 00 80 48 18 00 00
       1.9066e-41 -1.9901e-41 -2.0839e-41 8.71e-42
000030 c7 38 00 80 54 0a 00 00 39 3e 00 80 5b 58 00 80
       -2.0368e-41 3.705e-42 -2.2321e-41 -3.1696e-41
000040 be 47 00 80 48 74 00 00 1c 88 39 3e a6 8f 49 3e
       -2.5736e-41 4.1714e-41 0.18118328 0.19683704
000050 39 40 00 80 f3 f9 23 be ef a6 c1 3d 76 f0 79 bd
       -2.3039e-41 -0.16013317 0.09455668 -0.061020337
000060 3b 42 00 00 6d 38 00 00 06 21 60 3e df 3a d9 bc
       2.3759e-41 2.0242e-41 0.21887597 -0.02651733
000070 6d 9e 8b 3c e4 46 00 80 ca 9d 00 80 9b 85 ac be
       0.017043317 -2.5431e-41 -5.6604e-41 -0.33695683
000080 05 25 00 80 55 38 48 3d 5d c5 a6 3d ad dd 63 3e
       -1.328e-41 0.048881847 0.08143113 0.22252531
000090 c4 d0 f1 3b da 4e 41 3b 94 34 00 80 d5 32 00 80
       0.007379623 0.0029496462 -1.8861e-41 -1.8235e-41
0000a0 52 29 00 00 34 0c 00 80 95 b7 c9 bd 25 84 00 00
       1.4823e-41 -4.378e-42 -0.098494686 4.7405e-41
0000b0 dc 37 00 80 a5 55 00 80 89 39 00 80 d1 35 00 00
       -2.0039e-41 -3.0723e-41 -2.064e-41 1.9306e-41
0000c0 3f 59 00 00 6c 2c 00 00 66 31 00 00 db 1c 00 00
       3.2015e-41 1.5936e-41 1.7721e-41 1.0351e-41
0000d0 82 17 00 80 1a 73 00 80 d7 46 00 80 b5 28 00 00
       -8.433e-42 -4.129e-41 -2.5413e-41 1.4603e-41
0000e0 39 8b 00 80 29 47 00 80 58 3e 00 80 a6 31 5a 3e
       -4.9944e-41 -2.5527e-41 -2.2365e-41 0.21308002
0000f0 cd 7a 20 3f 1a 19 00 80 6a 39 00 80 f4 8a 00 80
       0.6268738 -9.005e-42 -2.0596e-41 -4.9847e-41
000100 d6 36 00 80 3e 38 00 80 0e 50 de bc 08 2f 00 00
       -1.9671e-41 -2.0176e-41 -0.027137782 1.6872e-41
000110 03 3d 00 80 3a 8a c4 b8 4f 2c 00 80 2c 8f dc 39
       -2.1887e-41 -9.371755e-05 -1.5895e-41 0.0004206834
000120 e7 7f 00 00 1a ac 00 00 ac 80 3c 37 f0 6b 00 80
       4.5883e-41 6.1738e-41 1.1235632e-05 -3.872e-41
000130 68 3b 00 80 6b 36 00 80 93 45 00 80 b5 2b 00 00
       -2.1311e-41 -1.9521e-41 -2.4959e-41 1.5679e-41
000140 0f 38 00 80 df 38 00 80 f7 2d 00 00 cb 2e 00 00
       -2.011e-41 -2.0402e-41 1.6489e-41 1.6786e-41
000150 ae 07 00 80 32 2f 50 38 61 9c e6 39 b1 1b 00 00
       -2.755e-42 4.963502e-05 0.0004398553 9.934e-42
000160 cc 35 04 38 d1 66 a0 b8 9a 0b 0c b8 c8 36 00 80
       3.1521355e-05 -7.6485456e-05 -3.3389406e-05 -1.9652e-41
000170 04 4f 00 80 3f 4d 08 b7 74 55 23 b8 79 26 ec b5
       -2.8345e-41 -8.124217e-06 -3.8941813e-05 -1.7594567e-06
000180 1f 31 00 80 cd 6c 00 80 e5 75 2b b8 23 06 00 80
       -1.7621e-41 -3.903e-41 -4.0879375e-05 -2.201e-42
000190 61 e6 8c b6 d7 6b 43 38 e5 33 53 b6 ab 0d 00 80
       -4.1991448e-06 4.6592057e-05 -3.1471657e-06 -4.903e-42
0001a0 86 aa 00 00 6e 38 00 80 32 48 00 00 d2 3d 00 00
       6.1172e-41 -2.0243e-41 2.5899e-41 2.2177e-41
0001b0 9b 5b 00 00 67 92 ce 38 a5 19 00 80 71 3c 00 80
       3.2862e-41 9.850115e-05 -9.2e-42 -2.1682e-41
0001c0 15 37 00 00 4d 47 00 00 0d 5b 00 00 48 26 00 00
       1.976e-41 2.5578e-41 3.2663e-41 1.3733e-41
0001d0 66 30 00 80 dc 1b 00 80 3f 3d 00 80 03 4e 00 00
       -1.7362e-41 -9.994e-42 -2.1971e-41 2.7985e-41
0001e0 aa 1e 00 00 64 42 00 80 4b 07 00 80 45 36 00 00
       1.1e-41 -2.3816e-41 -2.616e-42 1.9468e-41
0001f0 21 a7 00 80 48 41 00 00 f7 77 36 b4 3d 1e 52 b6
       -5.9955e-41 2.3418e-41 -1.6993714e-07 -3.131004e-06
000200 3e 35 00 80 81 59 00 00 2b 44 00 80 6c 36 00 00
       -1.91e-41 3.2108e-41 -2.4454e-41 1.9523e-41
000210 da 37 00 00 ee 13 c4 b7 1f 4a 00 00 47 6e 00 80
       2.0036e-41 -2.3374301e-05 2.659e-41 -3.956e-41
000220 10 0e 79 bb 33 3a 00 80 08 f2 51 b9 d7 7c 00 00
       -0.0038002767 -2.0878e-41 -0.00020021957 4.4784e-41
000230 b5 60 00 80 e5 23 75 3b af 38 00 00 98 7e 00 80
       -3.4692e-41 0.0037405428 2.0334e-41 -4.5413e-41
000240 2d 2c 00 00 a0 1d 00 80 2d 2c 00 80 fe 2d 00 80
       1.5847e-41 -1.0627e-41 -1.5847e-41 -1.6499e-41
000250 26 64 00 80 75 47 00 80 fd 4a 00 80 94 3b 00 00
       -3.5926e-41 -2.5634e-41 -2.6901e-41 2.1373e-41
000260 8c 62 74 3b 02 c6 95 3b 1f 36 00 80 3d fb b0 3b
       0.0037290184 0.0045707235 -1.9415e-41 0.0054010437
000270 9f 93 ba 3b b0 d3 68 bb 55 68 00 80 68 3e 00 00
       0.0056938673 -0.0035526566 -3.7427e-41 2.2387e-41
000280 09 3c c6 ba 93 f9 87 bb 82 e1 18 ba 52 46 00 00
       -0.0015124093 -0.0041496246 -0.0005831943 2.5226e-41
000290 a2 35 00 00 fa ae ae 3d bc 8c 00 00 13 23 e6 3a
       1.924e-41 0.08529468 5.0486e-41 0.001755806
0002a0 91 19 b1 3b 5b 89 b5 38 93 b4 0b 37 e2 3a 5e 38
       0.005404659 8.656337e-05 8.327089e-06 5.2983763e-05
0002b0 56 0b 00 00 0c 4d 00 80 f2 33 00 00 9a 50 00 80
       4.067e-42 -2.7639e-41 1.8634e-41 -2.8914e-41
0002c0 5f 19 16 3b 7b 46 00 00 43 4e 00 00 69 27 00 00
       0.0022903306 2.5284e-41 2.8075e-41 1.4138e-41
0002d0 d2 93 00 80 e1 60 00 00 b6 3c 00 80 d0 2c 00 80
       -5.3028e-41 3.4754e-41 -2.1779e-41 -1.6076e-41
0002e0 b8 45 00 80 0b 84 00 00 c6 24 00 80 a3 3a 00 80
       -2.501e-41 4.7368e-41 -1.3192e-41 -2.1035e-41
0002f0 3f 34 00 00 4a 45 00 00 b3 4c 00 00 d2 79 00 00
       1.8742e-41 2.4856e-41 2.7514e-41 4.3701e-41
000300 9e 3e 00 80 e2 fc 90 38 ff f6 31 3c 5b 10 00 80
       -2.2463e-41 6.913558e-05 0.010862111 -5.867e-42
000310 0b 77 00 80 23 3c 00 00 41 0a 00 00 b7 43 00 80
       -4.2705e-41 2.1573e-41 3.678e-42 -2.4292e-41
000320 fb d7 5d bb e1 7d 00 80 f9 3d 00 00 a0 f6 2c bd
       -0.0033850658 -4.5157e-41 2.2232e-41 -0.042227387
000330 b6 2e 00 80 15 ba 44 3e ee 1a 00 00 7f 18 00 00
       -1.6757e-41 0.1921161 9.66e-42 8.788e-42
000340 7a 65 97 3a 3d 0e 00 00 07 5d 00 00 8d 3a 00 00
       0.0011550628 5.108e-42 3.3372e-41 2.1004e-41
000350 bd 6a 00 80 0d 3e 00 00 e6 19 00 00 b4 46 00 80
       -3.829e-41 2.226e-41 9.29e-42 -2.5364e-41
000360 ce 91 00 80 60 3d 00 00 fd 35 00 80 12 65 9b bc
       -5.2305e-41 2.2017e-41 -1.9367e-41 -0.018969093
000370 1b df 56 bd d2 5b 00 00 c2 f9 b3 3d 70 c9 2a bd
       -0.052458864 3.2939e-41 0.08787872 -0.041696012
000380 eb 3d 2a 3c 52 1b 00 80 f0 1c 00 80 a9 0b 0f be
       0.010390739 -9.8e-42 -1.0381e-41 -0.13969292
000390 01 93 96 3d ba c9 11 3e a2 29 00 80 5e 6b 00 80
       0.073522575 0.14237109 -1.4935e-41 -3.8516e-41
0003a0 2f eb 21 bd 8e 0a 00 80 a7 70 d1 bb 8f b6 7a 3c
       -0.03953093 -3.786e-42 -0.006391603 0.015302314
0003b0 d9 93 ae 3d fc d3 d8 38 7e d9 46 39 90 18 00 00
       0.085242935 0.00010339168 0.00018963774 8.811e-42
0003c0 d8 6f 00 80 84 40 00 00 34 02 00 80 54 e0 9a 3c
       -4.0122e-41 2.3144e-41 -7.9e-43 0.018905796
0003d0 10 24 00 00 30 3a 00 80 af 30 00 00 41 68 00 80
       1.2937e-41 -2.0874e-41 1.7464e-41 -3.7399e-41
0003e0 f3 07 00 00 00 0e 00 00 f6 1d 00 80 68 04 00 80
       2.852e-42 5.022e-42 -1.0748e-41 -1.58e-42
0003f0 6b 38 00 80 ac 11 00 80 e9 38 00 80 1c 7a 00 00
       -2.0239e-41 -6.34e-42 -2.0416e-41 4.3805e-41

gats.0.lin_l.bias f4 [335]
000000 9c 2c 89 bc 80 7a ad b9 bd a0 0c bd 32 8f 3d 3d
       -0.016744904 -0.000330884 -0.03433298 0.04627914
000010 a9 b3 c0 bc a7 d6 42 bd c1 4d db bc c7 9f 3c bb
       -0.023523169 -0.04756799 -0.026770474 -0.0028781758
000020 9a 08 21 bd 38 4d d6 b8 20 2e 00 be 30 ef 96 3c
       -0.039314844 -0.00010218698 -0.12517595 0.0184246
000030 83 5f d9 bb 9c 28 56 3d e4 cb fa 3b a5 7a 58 ba
       -0.0066337003 0.052284822 0.0076537 -0.00082580216
000040 6a 14 a5 bd c7 dd 6e 3d 07 3b d1 bb 62 2d 39 3c
       -0.08060534 0.058316972 -0.0063852104 0.011302324
000050 a2 7c e4 bc c4 f1 4d bd fd 95 c9 bc 9c 16 89 3d
       -0.02789146 -0.050279394 -0.024607653 0.066937655
000060 2b fc e5 3d a2 c0 1a 3d c0 80 8f bb 55 59 da 3d
       0.11229738 0.037781365 -0.004379362 0.1066157
000070 c5 ff b5 bd 62 ca 05 bd a1 4c 96 3c 2b 6c 3d bb
       -0.08886675 -0.03266371 0.018347086 -0.0028903584
000080 70 17 6a bd 1e 39 46 bd a6 0c 2c ba 8e 51 38 3a
       -0.057151258 -0.048394315 -0.0006563164 0.00070311956
000090 67 16 2f bd 42 f5 85 bd 59 70 bf bd 74 0f 11 3d
       -0.042745974 -0.0654092 -0.093476005 0.035415128
0000a0 ec e8 22 3e 30 e2 5a bd aa 23 11 bc af 98 4b bd
       0.15909165 -0.053438365 -0.008858601 -0.049706157
0000b0 06 ad 58 bc 1a 8b b0 bc 05 f2 66 3d f8 79 c9 3c
       -0.013224846 -0.021550704 0.05638315 0.024594292
0000c0 aa 20 ca bd a8 5a fd bc 04 7e 89 bd f9 73 e5 bd
       -0.098695114 -0.030927017 -0.06713489 -0.11203761
0000d0 ab 15 0f bd f5 29 d9 3d b7 2b 8d bb f2 f6 a7 3d
       -0.034932774 0.10603706 -0.0043081897 0.08201398
0000e0 02 9a 4b 3d 61 40 8c bd cd 11 b7 bd 55 db d4 3c
       0.04970742 -0.06848217 -0.08938942 0.025983492
0000f0 9f ca ca bc 35 23 d9 bd 0a 7a 19 be e7 a5 39 3d
       -0.02475482 -0.10602418 -0.1498796 0.045324232
000100 60 25 cc 3c dc e0 a4 3c 39 18 3d 3c d9 6b a5 3d
       0.024920166 0.020126753 0.01154142 0.08077211
000110 d7 a5 84 b9 15 0b e3 3d cf e8 91 3d 51 a4 3d 3c
       -0.00025300562 0.11086098 0.07124483 0.011574821
000120 57 2b e9 bc fd 3e 2c 3e 86 78 33 bb 28 f6 ee bc
       -0.028463049 0.16820903 -0.002738507 -0.02917011
000130 66 36 92 b8 16 f6 ab bc 78 63 df bd 73 62 39 bd
       -6.971955e-05 -0.020991366 -0.10907644 -0.045259904
000140 be c1 92 bd d0 eb f6 bd c9 38 4e ba 9b d2 73 3c
       -0.0716586 -0.120566964 -0.0007866738 0.014881755
000150 6d cc 0c 3d d4 3e 73 bc e4 75 c2 3d 87 9e fe bd
       0.034374643 -0.014846522 0.09495142 -0.124325804
000160 4e b3 5f 3d 12 22 d2 3c f8 98 d0 3c 2b d7 02 3d
       0.054614358 0.025651012 0.025463566 0.03194348
000170 d8 43 1f be 4c 83 8d 3c 53 73 f3 3d b0 23 cc 3c
       -0.15553224 0.017274521 0.11887231 0.02491936
000180 9b f1 c8 3c 19 b4 66 bc 12 16 30 bd 3c 1d b4 bd
       0.024529269 -0.014081025 -0.042989798 -0.087946385
000190 3e e3 53 bd 28 a6 0a ba 37 ab 2b 3d b8 4d 96 3a
       -0.051730387 -0.00052890414 0.04191133 0.0011467254
0001a0 29 50 8d bc 23 f5 91 bc 3e 96 28 bb ae 57 6b 3d
       -0.017250137 -0.017817086 -0.0025724317 0.057456665
0001b0 57 4f 7d 3d e2 27 85 3c 83 8a 04 bd bc 99 48 3c
       0.061843242 0.01625437 -0.032358658 0.012243684
0001c0 99 b4 31 3d 01 bd ab 3c f2 5e 3f bd 94 0f 61 bc
       0.043385122 0.020964148 -0.046721406 -0.013736624
0001d0 fd 99 02 3c 9a 05 d0 3d 77 99 9e 3c dc a0 3c 3e
       0.007971284 0.101573184 0.019360287 0.18420738
0001e0 a3 fc ed 3b 89 dd 85 bb aa d5 0f be 6d e7 c0 bd
       0.0072627827 -0.004085247 -0.1404635 -0.09419141
0001f0 a5 0c de bd 6f 48 4b bd 8d 90 36 bd 71 8c 54 bd
       -0.108422555 -0.049629625 -0.044571448 -0.051891748
000200 3b 81 9f 3d d4 8c 68 bb 27 af e0 bd 01 cb 8e bd
       0.07788321 -0.003548433 -0.10970908 -0.06972314
000210 9e 6e 7c bc d7 cc 87 3c 02 00 13 3d d6 08 86 b9
       -0.015407233 0.016577167 0.03588868 -0.00025565055
000220 de 91 53 bc 5d 26 90 bd 4c 0b 0d bd 3b 7d a5 bc
       -0.012913195 -0.07038567 -0.0344346 -0.020201316
000230 f4 fa e5 bc e3 1c 46 bb 60 a9 97 bc c3 04 ce b8
       -0.028073765 -0.003022962 -0.018513381 -9.8237324e-05
000240 7e d2 93 bd 54 39 96 bd 28 2a 8c bd 2a 50 25 bd
       -0.072178826 -0.07335153 -0.06843978 -0.040359654
000250 a6 cf a9 bc b6 53 58 ba ce d8 69 bc 43 9b 87 3a
       -0.020728897 -0.000825222 -0.014272882 0.0010345954
000260 8b d2 6f 3c 12 4b 4d 3c ce 85 ab bb 22 8b 0e 3d
       0.0146376 0.012530105 -0.0052344566 0.034800656
000270 19 4e 02 bb 50 fa 93 3c ca 6c 82 bd f1 3c 1a bc
       -0.0019882976 0.018063694 -0.06368406 -0.009413944
000280 ba ac 6c bb cc e8 88 3d 7e 17 6f bd 0e 41 9a bc
       -0.0036113695 0.066850275 -0.058372013 -0.018829849
000290 28 52 73 3d f3 ae 06 3d 9d f9 56 bc 4d a1 87 3a
       0.059404522 0.03288169 -0.013121036 0.0010347754
0002a0 d5 aa e1 b9 08 26 72 bc de 42 44 bd d6 cd d8 bd
       -0.00043042624 -0.014779575 -0.047915332 -0.10586135
0002b0 77 d9 9b 3b 34 d4 3c bc e2 88 ee 3d 67 d9 83 bd
       0.0047561484 -0.011525203 0.11647202 -0.064379506
0002c0 c5 24 e5 3b 50 bb f3 3b 8f 9a c4 bc f1 cb 43 3c
       0.0069929087 0.007438101 -0.02399948 0.011950479
0002d0 0f 62 bb bd 78 b0 a4 bd ba 88 06 3c 2b 7d 5c 3d
       -0.091495626 -0.08041471 0.008211309 0.053830307
0002e0 5e ca 09 bd e3 12 c0 bc 20 ae 03 bd c2 bc 20 3d
       -0.033640258 -0.023446506 -0.03214848 0.039242513
0002f0 51 df 8b bb cd 3e 9d bc 20 0c ee bb 05 d1 99 3c
       -0.0042685647 -0.019194985 -0.007264629 0.018776426
000300 af 42 06 3e e7 6d 4d bd 45 c1 65 bd 5f fe fd 3c
       0.13111375 -0.05015364 -0.05609252 0.031005083
000310 a4 2a 23 be e5 a3 e6 bd bf 0b 6a 3c f0 78 12 3d
       -0.15934235 -0.11261729 0.014285027 0.035759866
000320 86 43 af bd c5 54 50 3c f4 49 d2 b9 fc 52 4f bc
       -0.08557801 0.012715523 -0.0004010942 -0.012654062
000330 3f 6d 41 bd 34 da b2 bc 65 84 3f bd 92 6b be 3c
       -0.047223326 -0.021832563 -0.04675712 0.023244653
000340 d2 4b 46 bb e4 f4 b9 bd da 43 b9 b8 78 77 d2 3c
       -0.0030257595 -0.09079912 -8.834126e-05 0.025691733
000350 96 85 07 be 8b 43 00 3c 23 e9 5c bd ab 08 93 3d
       -0.13234553 0.0078286035 -0.053933274 0.07179388
000360 ff e4 91 ba 3f 48 99 3d 9e 68 9a bc f7 bd ca 3b
       -0.0011130868 0.07484483 -0.018848713 0.0061871964
000370 ed f2 5a bd 3e b1 27 3d fa 08 64 ba d3 a6 8a bd
       -0.05345433 0.040940516 -0.00086988474 -0.067701004
000380 4c 31 6e 3d a8 6e 05 bd 16 ab d8 bd 18 42 4b 3e
       0.058152482 -0.032576233 -0.10579507 0.19849432
000390 3c 0a 07 bd d3 15 06 3d f0 f5 19 bd 29 c0 0d 3d
       -0.032968745 0.032735657 -0.03758806 0.034607086
0003a0 2d 46 0c bd fe dc f7 bd 93 85 27 bc c8 73 1f ba
       -0.034246612 -0.12102698 -0.010224718 -0.00060826214
0003b0 a7 5a ac 3c 1e e8 3e 3b 7c c2 dd 3b df ff b6 bd
       0.02103932 0.0029130052 0.006767569 -0.08935522
0003c0 05 aa a0 3c dc 69 56 3e 3b b6 61 bd 63 73 60 bd
       0.019612322 0.2093882 -0.05510543 -0.05479754
0003d0 27 3a 99 bd 48 ca fc bc 79 24 13 3c 7f db a7 3b
       -0.07481795 -0.030858174 0.008980864 0.0051226015
0003e0 3c 57 b9 3d de b5 1c 3d 08 40 8f bc 11 f8 90 bd
       0.09049842 0.03825938 -0.017486587 -0.07078565
0003f0 90 18 11 be 9a 8a 01 bd 5b 53 b7 3c 3e 20 86 bb
       -0.14169526 -0.03162632 0.022378614 -0.004093199

gats.0.lin_r.weight f4 [335, 67]
000000 a9 0d 00 80 34 38 00 80 bb 5b e5 bc 15 38 00 00
       -4.9e-42 -2.0162e-41 -0.027997842 2.0118e-41
000010 8d 70 dd 3b 2d 37 00 80 46 3f 00 80 0b c5 1d bc
       0.006757802 -1.9793e-41 -2.2698e-41 -0.009629498
000020 d4 3c 00 00 b5 4f 00 00 55 3b 00 80 a1 90 00 00
       2.1821e-41 2.8593e-41 -2.1284e-41 5.1883e-41
000030 a1 4f 00 80 7b 58 00 00 4c 1e 00 00 f9 1a 00 00
       -2.8565e-41 3.1741e-41 1.0868e-41 9.676e-42
000040 3c 42 00 80 6d 6b 00 80 a3 8f 5b 3d 63 17 61 bd
       -2.376e-41 -3.8537e-41 0.05360378 -0.054953944
000050 2e 83 00 00 d7 d0 8d 3c 75 36 49 3c 94 4d e2 bc
       4.7058e-41 0.017311497 0.01228105 -0.027624883
000060 aa 48 00 80 4b 8c 00 00 0b b9 b3 b9 43 6a 43 3d
       -2.6067e-41 5.0328e-41 -0.00034279408 0.04770876
000070 eb 31 6a 3b 64 31 00 80 1f 3a 00 00 32 0f 17 3d
       0.003573532 -1.7718e-41 2.085e-41 0.036879726
000080 ec 84 00 80 a5 bc 68 bc 9c ce 10 3b c4 68 e3 bb
       -4.7683e-41 -0.014205133 0.0022095805 -0.0069399793
000090 77 9d 35 b8 ec 12 a2 b7 f9 1c 00 80 b1 44 00 80
       -4.3300413e-05 -1.9320716e-05 -1.0393e-41 -2.4642e-41
0000a0 d6 75 00 00 d5 64 00 00 77 f8 92 3c a0 3c 00 80
       4.2272e-41 3.6172e-41 0.017940743 -2.1748e-41
0000b0 b6 2d 00 80 dd ae 00 80 ed 8a 00 00 e4 3c 00 80
       -1.6398e-41 -6.2729e-41 4.9837e-41 -2.1843e-41
0000c0 1c 2d 00 00 68 03 00 80 23 80 00 80 cb 0e 00 80
       1.6182e-41 -1.222e-42 -4.5967e-41 -5.307e-42
0000d0 c8 56 00 80 cd 38 00 80 af 8f 00 00 79 50 00 80
       -3.1131e-41 -2.0376e-41 5.1544e-41 -2.8868e-41
0000e0 24 4d 00 00 90 89 00 00 f8 38 00 00 7d d3 a9 3c
       2.7673e-41 4.9348e-41 2.0437e-41 0.020730728
0000f0 a6 13 4a bd f4 09 00 00 08 6d 00 00 ac 58 00 80
       -0.049335144 3.57e-42 3.9113e-41 -3.181e-41
000100 18 10 00 80 8e 59 00 00 0a c0 04 3b 61 0f 00 80
       -5.773e-42 3.2126e-41 0.0020256066 -5.517e-42
000110 77 5d 00 80 56 b5 cf b5 70 2d 00 00 e1 7c b7 b6
       -3.3529e-41 -1.5475478e-06 1.63e-41 -5.468363e-06
000120 19 3d 00 80 e9 37 00 80 b9 b5 3c b4 ea 28 00 80
       -2.1918e-41 -2.0057e-41 -1.7574975e-07 -1.4677e-41
000130 65 3b 00 80 49 66 00 00 f6 4d 00 00 1c 3f 00 00
       -2.1307e-41 3.6693e-41 2.7967e-41 2.264e-41
000140 64 47 00 00 50 08 00 00 9e 8c 00 00 4c 28 00 00
       2.561e-41 2.982e-42 5.0444e-41 1.4456e-41
000150 30 2b 00 00 b1 65 80 b6 79 e1 b6 b6 e9 79 00 00
       1.5493e-41 -3.8265357e-06 -5.450271e-06 4.3733e-41
000160 48 23 9f b7 02 98 64 35 f7 8d 31 b5 20 7a 00 00
       -1.8970706e-05 8.515782e-07 -6.6144224e-07 4.381e-41
000170 68 7d 00 80 2f c1 ce a6 82 40 cd ac 78 51 5d 35
       -4.4987e-41 -1.4346484e-15 -5.8336122e-12 8.244747e-07
000180 b2 29 00 00 c7 70 00 00 25 72 00 00 e3 03 00 00
       1.4957e-41 4.0457e-41 4.0947e-41 1.394e-42
000190 cf 1c 19 33 1f 9f b1 aa 06 03 00 80 db 89 00 00
       3.564929e-08 -3.1551928e-13 -1.085e-42 4.9453e-41
0001a0 29 42 00 80 f1 36 00 00 a1 3a 00 80 1c 1d 00 80
       -2.3734e-41 1.9709e-41 -2.1032e-41 -1.0442e-41
0001b0 c5 3d 00 00 a7 bd ab b6 7d 49 00 80 34 3a 00 80
       2.2159e-41 -5.1182756e-06 -2.6363e-41 -2.088e-41
0001c0 52 1e 00 80 3c 3a 00 00 9c 36 00 00 a5 3d 00 80
       -1.0877e-41 2.089e-41 1.959e-41 -2.2114e-41
0001d0 d4 0d 00 00 5d 1b 00 80 7e 4c 00 00 4c 3a 00 80
       4.96e-42 -9.816e-42 2.744e-41 -2.0913e-41
0001e0 6b 35 00 00 e9 6a 00 00 4e a0 00 80 fb 8d 00 00
       1.9163e-41 3.8352e-41 -5.7506e-41 5.0933e-41
0001f0 85 3c 00 80 c4 00 00 00 9b 41 f3 ae 17 f9 ff 2d
       -2.171e-41 2.75e-43 -1.10620145e-10 2.9100762e-11
000200 ac 46 00 80 fe 34 00 80 8f 28 00 00 a8 3b 00 80
       -2.5352e-41 -1.901e-41 1.455e-41 -2.14e-41
000210 0f 44 00 00 82 64 00 00 a7 17 00 80 71 37 00 80
       2.4415e-41 3.6055e-41 -8.485e-42 -1.9889e-41
000220 7c a6 4c 39 51 35 00 80 6f d9 d0 b9 43 61 00 00
       0.00019516976 -1.9126e-41 -0.00039834852 3.4891e-41
000230 63 55 00 00 79 e3 dc b5 06 57 00 80 b2 2e 00 80
       3.0631e-41 -1.6457481e-06 -3.1218e-41 -1.6751e-41
000240 6a 5c 00 80 17 6b 00 80 fc 7d 00 00 16 19 00 00
       -3.3152e-41 -3.8417e-41 4.5195e-41 8.999e-42
000250 1e 08 00 80 c4 8e 00 80 f8 3d 00 00 9b 39 00 80
       -2.912e-42 -5.1215e-41 2.223e-41 -2.0665e-41
000260 cc 15 12 b9 50 8e 62 3a f6 46 00 80 75 ed 64 39
       -0.00013931765 0.0008642422 -2.5456e-41 0.00021832234
000270 97 e9 2e 3a d9 00 2f 39 dd 1d 00 00 b3 0b 00 00
       0.0006672381 0.00016689616 1.0713e-41 4.197e-42
000280 df 03 a1 39 27 12 5b b9 e1 d5 76 36 21 37 00 00
       0.00030711197 -0.0002089223 3.678135e-06 1.9777e-41
000290 d3 3d 00 80 73 ae 58 ba 63 38 00 00 49 5c 11 37
       -2.2178e-41 -0.0008265741 2.0228e-41 8.66416e-06
0002a0 44 7a 44 b7 45 20 1a ba d6 d7 82 35 bc cf da 34
       -1.1710978e-05 -0.00058794423 9.748571e-07 4.075681e-07
0002b0 4c 06 00 00 cd 3b 00 80 85 33 00 80 99 90 00 00
       2.259e-42 -2.1452e-41 -1.8482e-41 5.1872e-41
0002c0 3e 78 94 b9 6d 0f 00 00 76 0e 00 80 bd 36 00 00
       -0.00028318347 5.534e-42 -5.188e-42 1.9636e-41
0002d0 92 57 00 80 ea 3d 00 00 c3 3d 00 80 aa 1d 00 00
       -3.1414e-41 2.221e-41 -2.2156e-41 1.0641e-41
0002e0 89 3b 00 00 d3 1a 00 00 a7 72 00 00 c4 2a 00 80
       2.1357e-41 9.623e-42 4.113e-41 -1.5341e-41
0002f0 fa 13 00 80 33 46 00 00 cd 35 00 80 e1 3b 00 80
       -7.166e-42 2.5183e-41 -1.93e-41 -2.148e-41
000300 5f 61 00 00 24 d4 57 39 2d 84 3d b9 a3 2e 00 00
       3.493e-41 0.00020583026 -0.00018073684 1.673e-41
000310 c7 39 00 80 ed 2f 00 80 c6 39 00 00 99 1b 00 80
       -2.0727e-41 -1.7193e-41 2.0725e-41 -9.9e-42
000320 44 17 34 b8 5b 27 00 80 06 1a 00 80 e1 ca a0 bb
       -4.2937012e-05 -1.4118e-41 -9.335e-42 -0.0049069976
000330 1a 3c 00 80 36 74 15 3a 09 18 00 80 1f 19 00 80
       -2.156e-41 0.00057012157 -8.622e-42 -9.012e-42
000340 a0 b9 48 bc bc 0d 00 80 2a 89 00 80 93 5b 00 00
       -0.012251288 -4.927e-42 -4.9205e-41 3.285e-41
000350 ff 38 00 80 78 18 00 00 49 38 00 00 5c 30 00 00
       -2.0446e-41 8.778e-42 2.0191e-41 1.7348e-41
000360 35 46 00 80 89 46 00 80 90 3c 00 80 22 c4 ad 3b
       -2.5186e-41 -2.5303e-41 -2.1726e-41 0.005302922
000370 7c b4 89 bc d9 a9 00 80 58 15 4b 3b 5b 22 dc 3a
       -0.016809694 -6.093e-41 0.0030988064 0.0016794907
000380 08 95 c2 3a 3a 0e 00 00 69 3b 00 00 84 9b 60 ba
       0.001484544 5.104e-42 2.1312e-41 -0.00085680955
000390 87 20 06 3a 76 b9 cb b9 a6 2a 00 80 e6 10 00 00
       0.0005116541 -0.00038857356 -1.53e-41 6.062e-42
0003a0 37 14 b8 bb a6 5f 00 00 60 8a 99 3a 1c b2 3a 39
       -0.005617644 3.4312e-41 0.0011714213 0.00017804693
0003b0 10 23 e2 3a 4e fc 5b b7 c1 17 1a b7 93 3b 00 80
       0.0017252881 -1.31121615e-05 -9.184646e-06 -2.1371e-41
0003c0 a8 35 00 00 77 3a 00 80 1b 2b 00 00 9b ec 4f 3b
       1.9248e-41 -2.0973e-41 1.5463e-41 0.0031726721
0003d0 7b 43 00 80 c7 6a 00 80 b7 69 00 00 d5 1c 00 80
       -2.4207e-41 -3.8304e-41 3.7923e-41 -1.0343e-41
0003e0 34 36 00 00 d1 36 00 80 be 3b 00 80 c9 2d 00 00
       1.9444e-41 -1.9664e-41 -2.1431e-41 1.6425e-41
0003f0 b6 58 00 00 b3 9c 00 80 5c 56 00 80 7b 1d 00 00
       3.1823e-41 -5.6213e-41 -3.098e-41 1.0576e-41

gats.0.lin_r.bias f4 [335]
000000 d2 32 8a 3c 4d 0b 15 b8 b4 12 ae 3a 26 54 13 3b
       0.016869936 -3.5534893e-05 0.001328072 0.0022480576
000010 0a 40 7e 3e 56 04 ec 3c 33 ec 38 3a 1f a9 91 37
       0.24829116 0.028810661 0.00070542394 1.73641e-05
000020 4e 5d 6b 3d 0d 44 a0 b4 0a c0 59 3c c4 c3 1c 3d
       0.05746203 -2.9851836e-07 0.013290415 0.038272634
000030 c2 9c 64 3d c5 00 aa bc 7f 13 d1 3c c4 a9 9d b6
       0.05581356 -0.02075232 0.025521992 -4.698728e-06
000040 f4 0f c9 3d ac 11 34 3c 7a f6 8a 3d ef d6 23 3e
       0.09817496 0.010990541 0.06785293 0.1599996
000050 61 f2 6d 3c 1b 3f fc 3a 62 97 1b 3e 73 a2 5a 3e
       0.01452312 0.0019244881 0.15194467 0.21351032
000060 81 6f 3d 3d 22 2f 83 3e f6 b4 9c b9 fa ba 86 3d
       0.046248917 0.25621897 -0.00029889465 0.06578632
000070 55 bb a0 3d a7 3c 10 3c 6b 9f 27 39 27 6a cb 3b
       0.07848231 0.008803523 0.00015985749 0.0062077227
000080 6f 45 8a 3c 72 b2 27 3b 80 5c 39 b6 f0 b1 82 3e
       0.016878812 0.002558854 -2.762099e-06 0.2552638
000090 be bf 8f bb 1c d7 76 3c c0 76 e0 bc b9 d9 27 3c
       -0.004386871 0.0150659345 -0.027400374 0.01024478
0000a0 a6 b1 7c 3e f7 45 8b 3a 6f 62 4b 3d 80 b0 6f bc
       0.24677143 0.001062571 0.04965442 -0.014629483
0000b0 58 38 22 3c a4 f3 91 3d aa 12 84 3c 40 78 2d 3e
       0.009901129 0.07126549 0.016122181 0.16940403
0000c0 4d 76 cb 3d d3 0e c1 3c 4e b0 37 3d 41 00 97 3c
       0.099346735 0.023566639 0.04484587 0.018432738
0000d0 c2 dd 91 b8 58 db 3e 3e f0 17 05 3a b8 8c 36 3e
       -6.9554444e-05 0.1863836 0.00050771143 0.17827117
0000e0 a3 f0 bd 3b 38 f2 c1 3d 7f 43 b0 3b 34 71 8b 3d
       0.0057965084 0.09470028 0.00537914 0.06808701
0000f0 48 f4 c0 3d 1c 9f 4a 3d 68 5a 0c 3d a3 76 99 3d
       0.09421593 0.049468145 0.034265906 0.07493331
000100 48 60 0f 3e 57 a2 1b 3a 6b af 39 3e a2 43 a9 3c
       0.14001572 0.0005936971 0.18133323 0.020662133
000110 b2 2e 1c b6 a6 0a c6 3d 37 e2 f3 3c 8d 83 f0 3d
       -2.3272992e-06 0.0967 0.029770954 0.11743841
000120 66 e9 30 3d 0d e5 2e 3e 8b 83 c9 38 5f 1f a6 3d
       0.043191336 0.17079563 9.608929e-05 0.08111452
000130 e1 43 22 b6 ef 25 ea 3d 2a 20 32 bb 69 cb 65 3d
       -2.4179392e-06 0.114330165 -0.0027179816 0.05610219
000140 6c eb cd 3a 71 41 32 3c 27 c3 14 38 d7 00 45 39
       0.001571042 0.01087986 3.54677e-05 0.00018787697
000150 3e 2a 93 3a a6 65 ae 3c 03 16 50 3e da 90 13 3d
       0.0011227799 0.021288704 0.20320897 0.036026813
000160 a2 ee fd bb 67 dd 68 3e c0 c6 21 bb 8b b1 02 3c
       -0.0077493945 0.22740708 -0.0024685115 0.0079769
000170 82 18 00 3d 34 ee fc 3d 62 df 23 3e a1 a6 a8 3c
       0.031273372 0.12350121 0.16003183 0.020587267
000180 1b 71 80 bc 34 40 a5 3c 03 1c 7c 3c d1 1a c7 3b
       -0.015678933 0.020172216 0.015387538 0.006076195
000190 8e 55 1c ba 97 d2 97 b6 38 27 2f 3e 2d c2 60 bb
       -0.00059636764 -4.5246666e-06 0.17104805 -0.0034295425
0001a0 1c e8 d2 3d 46 06 10 3b 49 21 f8 3d e8 5a cc 3e
       0.102981776 0.0021976396 0.12115724 0.39913106
0001b0 60 cd 80 3c c1 64 9f 3d d7 06 d9 3c 20 5f 77 3c
       0.01572293 0.07782889 0.02649252 0.015098363
0001c0 2d dc ac 3d b9 4f 24 3d e0 fa 15 3e 25 29 89 3b
       0.08440433 0.040115092 0.14646482 0.004185813
0001d0 7d ad 39 3e 35 4a 94 3d b2 ca 68 3e 05 f5 2c 3e
       0.18132587 0.07240716 0.22733572 0.16890343
0001e0 47 28 b2 ba a5 30 a4 3a d7 8a 42 3d b5 9e e5 3c
       -0.0013592326 0.0012526704 0.04749569 0.028029779
0001f0 ff c2 06 3d 44 12 9a bc 16 40 b0 3c 4c 77 70 3d
       0.032900807 -0.018807538 0.021514934 0.05870752
000200 c5 6f 5d 3e 9c 64 ae 3d 35 d6 17 3c 74 e9 a4 3c
       0.21624668 0.085152835 0.0092673795 0.02013085
000210 1a d7 84 3c dc cd 63 3b 08 6e ee 3c 78 2d 74 b6
       0.01621585 0.0034760153 0.029105201 -3.63853e-06
000220 ca e6 5f bb a8 dd c1 3c 27 5f 25 3c d2 58 2f 3b
       -0.003416466 0.023665264 0.010093487 0.0026755822
000230 92 e2 68 37 ba 9c da b6 71 42 33 3d 7e e4 96 36
       1.388103e-05 -6.5151517e-06 0.043764535 4.4969483e-06
000240 fc 53 4d bc 8b 4d 0e 3b dd a6 b0 3d b4 0c a9 3b
       -0.0125322305 0.00217137 0.08625577 0.005158985
000250 78 24 85 bc 60 90 2c b6 7c 38 2b 3c 24 4c eb 3b
       -0.016252741 -2.5714035e-06 0.010450479 0.0071807075
000260 b8 d2 fe 3c bf 84 8d 3d d5 18 63 bc de 3a 44 3d
       0.031106338 0.06910085 -0.013860901 0.047907703
000270 53 af b9 3c 9a c3 9f 3d be 6b f3 3c 3e 73 42 ba
       0.022666609 0.0780098 0.029714461 -0.0007417685
000280 95 be 2f 3a a3 e3 89 3d 67 27 f5 3d f0 43 6a bc
       0.0006704119 0.067328714 0.11970406 -0.014298424
000290 95 05 99 3c 5e bb c2 3d d1 66 21 3c 8d 6f b6 3c
       0.01867942 0.09508394 0.0098511735 0.022269988
0002a0 bc d5 69 37 34 85 98 bb f2 23 cb 3b b7 90 ed bc
       1.3937646e-05 -0.004654551 0.0061993534 -0.02899967
0002b0 6a 2e ef 3b 39 48 82 3a f5 9d ed 3e f2 26 ae 3d
       0.007299234 0.0009939737 0.46409574 0.08503522
0002c0 95 08 12 3c 42 8c b1 bc a3 6a 08 bb e6 3a ad 3d
       0.008913179 -0.021673325 -0.0020815514 0.084584996
0002d0 2e 52 f1 bb da 86 fd 3c 65 87 16 3d df 61 a3 3d
       -0.007364533 0.030948091 0.036750216 0.07977652
0002e0 a0 7d c1 3b 05 be 19 3d 05 bf d8 37 27 96 19 bd
       0.0059048682 0.037534732 2.5838157e-05 -0.037496712
0002f0 36 23 95 38 52 e5 cf 3d 06 aa 90 3c bc 14 a5 3d
       7.111432e-05 0.10151161 0.017659198 0.080605954
000300 94 46 50 3d d6 7a 3c 3d 29 2b b1 3d 48 38 55 ba
       0.05084856 0.046015583 0.0865081 -0.0008133692
000310 35 68 3b ba d9 65 f4 3c 2c 4a 37 3c e6 84 f9 3c
       -0.0007149012 0.029833721 0.011187118 0.030458879
000320 73 ff 03 bc 4f d4 5a bb c3 7e 8f 35 7c 61 08 3c
       -0.008056509 -0.0033390706 1.0691223e-06 0.008324023
000330 9d 2c 50 3c cf bf e7 3d 5b ce 27 3d 04 0c 2f 3e
       0.012705949 0.113158815 0.04096828 0.17094427
000340 38 98 fa 38 23 63 85 3d 8c 2b 67 b4 db 86 94 3b
       0.00011949282 0.065130495 -2.1529394e-07 0.0045326776
000350 94 1d 05 bb b2 3b d4 3c ac 4e d7 bb 4e 9e 7a 3e
       -0.002031182 0.025907371 -0.0065706577 0.24474451
000360 86 d5 90 3a 6d b6 89 3d 02 7c 3c b9 06 76 ac 3c
       0.0011049963 0.06724248 -0.00017975274 0.021052372
000370 4d 4f cc 3d 4f 54 0c 3e ed d8 c7 3c 59 be 02 3d
       0.09976063 0.13704036 0.02439543 0.03191981
000380 6b ba 9f 3e 08 b7 27 bc b2 ef 02 3d ab cd 56 3e
       0.31196913 -0.010236509 0.031966873 0.20976894
000390 8d 62 5e 3d 1e 5f 25 3e 95 0a 5c 3c 44 7e 13 3c
       0.054293204 0.16149566 0.013430257 0.009002272
0003a0 ad 76 ef 3c 7a 2a fe 3b 82 d2 0c bd be d7 bc 38
       0.029231394 0.0077565284 -0.034380443 9.004724e-05
0003b0 96 e8 a9 3d c8 b7 36 3a f8 f4 69 bc 29 5e b1 bb
       0.08296315 0.00069701346 -0.0142795965 -0.005412836
0003c0 97 e5 09 bd d5 55 c9 3e 80 52 16 3e 16 4c 2e 3c
       -0.03366622 0.39323297 0.14679909 0.0106382575
0003d0 52 10 2d bb e8 1b 9a 3b 86 de 98 3c a1 15 3b bb
       -0.0026407433 0.0047030337 0.018660795 -0.0028546827
0003e0 7e a2 83 3e 7a fb 02 3c 5f 19 a7 b7 4a 5a 92 bb
       0.2570991 0.007994527 -1.9919766e-05 -0.0044663297
0003f0 7b 98 2d 3c 5c ac 20 38 32 2d 74 bc bd 49 00 3b
       0.010595436 3.8307495e-05 -0.0149033535 0.0019575201

gats.0.lin_edge.weight f4 [335, 1]
000000 ff 0e 06 be d3 44 5b b7 9e 1e b9 ba 6e 99 86 bc
       -0.13091658 -1.3069442e-05 -0.0014123505 -0.016430583
000010 a6 a7 3b bd 2e 38 1a 3c e5 12 7b 39 46 a7 a1 37
       -0.04581418 0.009412808 0.00023944264 1.9270588e-05
000020 e7 cb c8 3c 16 6a a6 b4 4f 29 33 3c a3 8a db bd
       0.02451129 -3.0997097e-07 0.010935142 -0.10719802
000030 1b dd 43 bd fc ca 35 ba ca 03 34 bd 6e 2a a5 b5
       -0.047818284 -0.0006934849 -0.043948926 -1.2305807e-06
000040 8a 5c ce 3e a4 8a 27 3c 3e 6d e3 3e 2b da 2e be
       0.40304977 0.010225926 0.44419283 -0.17075412
000050 b7 14 90 3c 93 6f 88 ba ac cd ef bd 03 b8 94 bd
       0.017588003 -0.0010409228 -0.11709151 -0.0726166
000060 22 4b b8 3d 57 09 bc bd 96 7e e2 b8 e6 4c bb 3e
       0.089987054 -0.09181469 -0.00010800098 0.36582106
000070 2d 41 45 bc cb b8 e5 3d 9f 2c ca ba 76 a6 4b bd
       -0.012039465 0.11216887 -0.0015424675 -0.049719296
000080 3e 92 5e 3e e4 ba 00 3c ac 96 07 b6 6e b2 f0 bd
       0.21735474 0.007857058 -2.020427e-06 -0.11752783
000090 ee 6f 20 3a 22 8b 63 3e c6 77 41 3c 03 85 98 3c
       0.00061201944 0.22221044 0.011808341 0.018618112
0000a0 af be 0c be ef 84 cf 3b fc 6c 71 bd 07 52 4e 3e
       -0.13744615 0.0063329856 -0.058941826 0.20148478
0000b0 22 dc 96 3b 7b ab 58 3d b5 6e 9e 3d 17 27 36 3e
       0.0046038786 0.05289791 0.077359594 0.17788349
0000c0 e0 fe cb 3e 5b d4 c7 3d ec 98 3e 3e 5c 2c 10 3c
       0.39842892 0.097573005 0.18613023 0.008799639
0000d0 3c 87 8d b8 61 0b 7d 3e 89 16 95 ba a5 b6 98 bd
       -6.748593e-05 0.24711372 -0.0011374514 -0.07456712
0000e0 f0 18 5e bd a0 38 16 be 7f c4 db 3e 11 3f d5 bd
       -0.054223 -0.14670038 0.42923352 -0.104124196
0000f0 b1 89 bb bd f5 f9 ca 3e 37 d0 a3 3c 91 74 be bd
       -0.09157122 0.39643827 0.019996746 -0.09299577
000100 f6 54 2a be 8b a0 de 39 b1 89 a1 bd 6f 84 41 3c
       -0.16633973 0.00042462753 -0.07887591 0.01181136
000110 42 e3 62 b6 46 8b 14 3e 8d cf b8 3c d2 ce 08 3e
       -3.3808906e-06 0.14506254 0.022559905 0.13360146
000120 2d db 43 3d 9c c2 44 3e 50 1d ff 38 91 93 58 3d
       0.047816444 0.19214863 0.000121648074 0.052875105
000130 1d e5 ed 35 95 e7 7a 3d 17 3b db 3a c2 3e 13 bd
       1.7724557e-06 0.06125601 0.0016725984 -0.035948522
000140 1c df 49 ba fb ca 4f 3c 30 df 43 37 04 c9 1f b7
       -0.00077007874 0.012682672 1.1674871e-05 -9.523941e-06
000150 42 e9 01 3d ef c9 8f 3d 6d 19 8d bd d1 30 20 3d
       0.031716593 0.07020938 -0.06889615 0.039109055
000160 86 3c 06 bb 71 e8 32 3e 3f 00 dc ba 61 fd a1 3a
       -0.0020482852 0.17471482 -0.0016784741 0.0012358838
000170 94 64 f2 3c 2c 0d b1 3c 50 17 99 bd f7 b1 8d 3c
       0.029588975 0.021612726 -0.0747515 0.017296774
000180 9d 25 20 bc 91 67 56 3c d8 e2 61 3c d1 92 b6 bb
       -0.009774593 0.013086216 0.013786994 -0.005571701
000190 12 e6 08 ba 48 05 3c 36 50 15 3f bc c1 6a 42 3c
       -0.00052222714 2.8017257e-06 -0.011662796 0.011866272
0001a0 5e 21 b0 3d f0 ab 7f 3c c2 6f e2 3d c0 c7 95 3d
       0.08600114 0.015604958 0.11056472 0.0731349
0001b0 00 aa 85 3c c0 06 9c 3d 5a 48 e1 3d 11 5f bd 3c
       0.016316414 0.07618475 0.11000128 0.02311662
0001c0 4c 8a 5c 3d 8c b2 ce 3c e0 f6 b6 3d c5 f0 21 3b
       0.053842828 0.025231622 0.089338064 0.002471016
0001d0 47 ab ad 3c 35 ff 0e 3e 7c 3e 37 3e 3f e4 47 3e
       0.021199835 0.13964541 0.1789493 0.19520663
0001e0 84 9f a2 3b f6 2a ed 3a d2 a9 54 3d bb 29 d7 3c
       0.0049628634 0.0018094468 0.051919766 0.026265016
0001f0 d8 18 f6 3c 45 62 6f bc 88 91 0a bc 5b ce fd 3c
       0.030041143 -0.014610832 -0.008457549 0.030982187
000200 b7 dd 16 3e 0a 05 74 3d b7 b6 f0 3b 6d 2b 6b 3c
       0.14733015 0.059575118 0.007346 0.014353615
000210 65 e6 3d 3c 86 05 76 3b 89 63 11 3e 0d f7 9b b6
       0.011590575 0.0037539913 0.14198126 -4.6481205e-06
000220 23 c6 24 bb 99 0f 14 3c 78 19 24 3c d9 c7 b1 3b
       -0.0025142513 0.009036922 0.010015838 0.005425435
000230 23 f5 fb 38 35 57 53 b9 e7 3b c5 3e f2 b0 37 36
       0.00012014273 -0.00020155015 0.38522264 2.737212e-06
000240 e9 16 ad 3b 08 d7 6f ba fe a6 ed 3e e1 36 67 bb
       0.005282272 -0.00091491686 0.46416467 -0.0035280513
000250 0f d9 8a 3e 8f b1 13 b6 a9 be aa 3e df a8 e9 ba
       0.27118728 -2.200806e-06 0.33348587 -0.0017826817
000260 bc 00 07 bc 05 a8 16 bd 0b d0 2e 3e 21 9e 2b 3e
       -0.008239921 -0.03678133 0.1707155 0.1675954
000270 2b 21 01 3f a4 ca 11 bd 13 9b 24 3e 21 3c b3 3b
       0.50441235 -0.035593644 0.16074781 0.0054698144
000280 6b 8f 92 3a 8f 25 89 bc 5b 1d 6e bd a3 c6 d9 bb
       0.0011181658 -0.016741542 -0.058133464 -0.006645994
000290 14 bb c8 3d d9 d2 ec 3e 42 27 0e 3e 13 00 20 bd
       0.09801307 0.46254614 0.13882163 -0.03906257
0002a0 c9 97 51 36 45 7a 15 3b 29 91 5e 39 f7 cf 22 3b
       3.1231777e-06 0.0022808474 0.00021225646 0.0024843195
0002b0 dd 6a 8c 3b 68 03 87 3a 57 fe 49 be 39 31 e2 3e
       0.0042852 0.0010300698 -0.19725929 0.4417818
0002c0 78 3b 40 3c 94 7c c0 3e 63 c6 60 bb a7 80 5e 3e
       0.011732928 0.37595046 -0.0034297935 0.21728764
0002d0 08 99 a2 bb 5e 07 cc 3c f5 a8 cd 3e a3 1a e6 3e
       -0.0049620904 0.024905857 0.40167966 0.44942197
0002e0 94 ca e5 3e 0a 31 c7 3e eb 14 72 b8 44 83 0b 3f
       0.44881117 0.389046 -5.7716778e-05 0.5449717
0002f0 d5 dd 4d 37 ab 6b ef 3e b5 a6 b6 3d 06 94 eb 3e
       1.22706015e-05 0.46761832 0.089185156 0.4601137
000300 86 c2 e0 3e 07 3f 21 3e 09 67 3f 3e 7f 13 48 ba
       0.4389841 0.157467 0.18691649 -0.00076322997
000310 0d 49 07 3b 1d 8e 96 3c 40 65 56 3c 49 ab 7f 3e
       0.0020642907 0.018378312 0.013085663 0.24967684
000320 f3 28 f1 bb 99 b9 14 3a ea 8f 42 35 07 42 e4 3b
       -0.007359618 0.0005673408 7.2480054e-07 0.006965879
000330 42 35 7d 3b 1c a1 02 bd ab 3a 08 3d b3 06 0d be
       0.003863648 -0.031891927 0.033259075 -0.13772087
000340 cd e8 ef 38 ed 3a 2a 3d 53 61 65 b4 85 26 c5 3c
       0.000114397706 0.041560102 -2.1362693e-07 0.02406622
000350 16 cf dd b9 a3 f8 83 3d a1 0a 39 bb 6c 8b 51 3e
       -0.00042306696 0.06443908 -0.0028235095 0.20463341
000360 fc 28 8a 3a 48 37 b3 3d 5b 31 52 ba a9 18 9e 3c
       0.0010540779 0.087507784 -0.0008018219 0.019298868
000370 53 ca 16 3d 31 39 b0 bd 41 a7 82 3c d1 83 75 3c
       0.036814045 -0.086046584 0.015948894 0.014985041
000380 bf d6 e4 bd 47 f8 7e 3d cf 6e d1 3c 8f d6 9e 3e
       -0.11173772 0.062248494 0.025565533 0.3102307
000390 ff c6 21 3d ac f9 53 3e 03 79 fb 3b aa af 31 3c
       0.039496418 0.20700711 0.007674338 0.010845104
0003a0 5f 10 10 3c 43 8f 6f bc fb 84 a9 3a ed 4a 07 39
       0.008792966 -0.014621559 0.0012933308 0.00012902515
0003b0 d4 b7 0d 3e 88 f4 25 3b ef c8 12 bd e4 12 0e 3c
       0.13839656 0.0025322754 -0.035836156 0.008671496
0003c0 0b 19 ed bb b5 57 c1 3e 43 ae 0d 3e 70 7d b5 3c
       -0.0072356514 0.37762228 0.13836007 0.02215454
0003d0 48 8e be bc 7f 5b db 3b 92 bb 2f 3c 37 1a c8 3b
       -0.023261204 0.006694257 0.010725873 0.0061066407
0003e0 e1 11 aa 3e 1f 3d b8 3c 2c 19 dd b6 ec 6e 36 bc
       0.33216766 0.022490082 -6.5892436e-06 -0.011134844
0003f0 cf c3 59 3c 41 76 15 37 08 7c 95 bc 1e 4f 64 3a
       0.013291313 8.908625e-06 -0.01824762 0.0008709299
