inference/BMC/model_checkpoints/BMC_model_1.pt (torch, 503011 bytes, 21 tensors)

gats.0.att f4 [1, 5, 67]
-9.829104e-05 0.0016013479 0.019363338 0.0001249682 0.10528129 8.870564e-05 0.5342559 -8.184061e-05
0.0053372155 -0.0005191605 -0.00065836986 -0.101717435 -0.07712171 0.0032185228 0.5502283 1.0640173
-0.0012561153 -1.1842209 -0.00032198566 0.064246446 -0.008713389 -0.00012229875 -0.59934884 0.047666237
0.00028916544 -4.3936175e-06 0.06620334 -0.0068120407 0.8725601 -0.49049413 -0.0003287091 0.00015845645
0.052967895 0.00027623764 0.033574402 0.816982 0.023111625 -9.932604e-05 0.7618137 -0.020275205
-1.2335097 0.00030151833 9.093743e-05 0.0031724677 0.0005702226 0.00047682793 0.09907659 -0.00026824337
0.038975053 0.009936703 0.17935613 -0.5876973 0.025215877 7.933618e-05 -0.10750196 0.23467435
0.010859703 0.9513665 0.25087997 0.8201146 -0.0003296418 0.60994947 0.08875427 0.00018228785
-0.022087647 0.52451944 0.027756838 -0.00024512608 -0.6683736 -0.076503366 0.00015384461 0.020630915
-1.4343288e-05 0.2045743 -0.17243183 0.017539537 -0.00043103175 -0.6592327 -0.03654705 -0.83521634
0.0019439703 0.4127643 0.3694556 -0.00012435768 -0.019212114 -0.0004631044 0.12195688 0.4645933
6.586289e-05 -0.6124669 -0.47999972 0.00019972923 -0.00039690628 -0.49608564 -0.0017533121 -0.40637773
-0.0051633697 -0.00052229257 1.6870716e-05 -0.7319092 0.00057599734 0.108033404 0.02292392 0.8600178
0.000109527115 0.10239427 0.009422037 -0.02543953 0.0002151941 0.00014039937 -0.5075071 0.8707418
-0.00021910612 0.09601761 -0.00012654258 0.04736812 -0.018583532 1.0314869 -0.0068803956 0.34634122
-8.504789e-05 -0.56168187 0.4207027 0.16958083 -0.38055617 0.046166997 -0.18258229 -0.00033330955
0.7423851 0.045904394 7.5310025e-05 0.010134209 0.87731326 -0.31485868 -7.12693e-05 -0.3708845
0.01209717 -3.217805e-05 -0.0020669464 3.551218e-05 0.7222176 0.018866004 0.0027044767 -0.00022140736
-0.0033545615 -0.017037475 -1.1550889 0.00072673993 0.91532266 0.3738913 -0.00086992176 0.5556928
-0.00016521239 0.041835967 0.013574969 -8.5600346e-05 -1.0457683 0.049029328 0.00023269042 -0.00019079824
0.6289968 -0.91569155 -0.019589862 -0.007511766 -0.00018283038 -5.2409767e-05 0.0441375 0.5952184
-0.0044074743 0.5618503 -1.0266439 8.727731e-05 -0.064505324 -0.45691818 -0.02417836 0.0002713351
-6.593008e-05 0.5546047 0.0004867101 -0.00028359419 0.01936468 4.9824943e-05 0.0014335363 0.014330147
0.26057613 -0.5167219 -0.05440086 6.417298e-05 -0.02141689 0.030467777 0.11138736 0.0036673618
0.049525447 -0.7219344 -0.00039923363 -0.8225175 0.09608353 2.0158333e-05 -0.27791503 0.70545954
0.2256741 9.86267e-05 0.004053526 0.025831986 2.3740064e-05 0.2473617 -2.2141347e-05 0.13974284
0.023975534 0.7331644 4.063594e-05 1.0337138 0.3236157 -0.71351206 0.40771663 0.15463372
-0.018312111 -0.0007497919 0.870328 -5.578556e-05 0.7763509 0.006786128 -0.00016362403 -0.58355194
0.8785683 7.025989e-05 -0.00016834245 0.06637733 -0.00057178875 0.8552456 -0.020552315 0.00036398607
-5.5564327e-05 0.06250902 -0.00058695854 0.026427474 0.3241867 0.05206159 -0.00011005169 -0.168649
0.26532787 -0.029703228 0.00034697264 -0.00013000079 5.7228932e-05 0.00017243759 0.00024273133 0.07671504
0.00010217847 0.023808569 0.020748341 0.8674815 0.020534353 0.20696744 -3.5379802e-05 -0.21868512
00000000: 9a21 ceb8 52e4 d13a dd9f 9e3c e509 0339
00000010: b89d d73d 7a07 ba38 ffc4 083f d8a1 abb8
00000020: cfe3 ae3b 4518 08ba 7496 2cba 3b51 d0bd
00000030: fdf1 9dbd daed 523b c3db 0c3f b831 883f
00000040: 3ca4 a4ba 8d94 97bf 2fd0 a8b9 a493 833d
00000050: 9ac2 0ebc 523d 00b9 ed6e 19bf ac3d 433d
00000060: 219b 9739 e36c 93b6 9e95 873d 8a37 dfbb
00000070: 1960 5f3f 0c22 fbbe 9756 acb9 5427 2639
00000080: ddf4 583d fdd3 9039 5085 093d bb25 513f
00000090: 9754 bd3c 434d d0b8 3906 433f 3018 a6bc
000000a0: a5e3 9dbf 1b15 9e39 a9b5 be38 2de9 4f3b
000000b0: fe7a 153a c3fe f939 abe8 ca3d 04a3 8cb9
000000c0: 4ea4 1f3d 8ecd 223c 22a9 373e 5573 16bf
000000d0: 8791 ce3c 4a61 a638 fd29 dcbd 794e 703e
000000e0: e5ec 313c c18c 733f 5773 803e 08f3 513f
000000f0: c6d3 acb9 a625 1c3f ccc4 b53d 8624 3f39
00000100: 27f1 b4bc e846 063f 4f62 e33c 4484 80b9
00000110: 881a 2bbf ccad 9cbd 5951 2139 2a02 a93c
00000120: f4a3 70b7 ed7b 513e f891 30be 13af 8f3c
00000130: 1afc e1b9 79c3 28bf 5cb2 15bd bdd0 55bf
00000140: d2cc fe3a d855 d33e 4929 bd3e 0366 02b9
00000150: b962 9dbc d2cc f2b9 87c4 f93d 2cdf ed3e
00000160: df1f 8a38 a1ca 1cbf 86c2 f5be 686e 5139
00000170: dc17 d0b9 f0fe fdbe 64cf e5ba be10 d0be
00000180: 7c31 a9bb 76ea 08ba 9685 8d37 675e 3bbf
00000190: 87fe 163a 9e40 dd3d f2ca bb3c 202a 5c3f
000001a0: ecb1 e538 16b4 d13d e35e 1a3c 9066 d0bc
000001b0: baa5 6139 2b38 1339 fceb 01bf efe8 5e3f
000001c0: dabf 65b9 e1a4 c43d 84b0 04b9 1305 423d
000001d0: 7e3c 98bc c307 843f f174 e1bb a353 b13e
000001e0: bd5b b2b8 62ca 0fbf 5866 d73e 99a6 2d3e
000001f0: 42d8 c2be 9b19 3d3d daf6 3abe 0dc0 aeb9
00000200: f30c 3e3f 3f06 3c3d c3ef 9d38 f409 263c
00000210: 9a97 603f 2835 a1be 6a76 95b8 93e4 bdbe
00000220: 3533 463c ebf6 06b8 9b75 07bb eaf2 1438
00000230: 41e3 383f e18c 9a3c 973d 313b 9629 68b9
00000240: 34d8 5bbb 2d92 8bbc f4d9 93bf b182 3e3a
00000250: 9652 6a3f ae6e bf3e 760b 64ba e241 0e3f
00000260: dd3c 2db9 315c 2b3d 8c69 5e3c 5684 b3b8
00000270: bcdb 85bf fad2 483d 5cfe 7339 0311 48b9
00000280: ef05 213f c36a 6abf eb7a a0bc 4325 f6bb
00000290: 28b6 3fb9 8fd2 5bb8 86c9 343d 3c60 183f
000002a0: 936c 90bb 6cd5 0f3f 1169 83bf a608 b738
000002b0: 5e1b 84bd 2ef1 e9be b211 c6bc fb41 8e39
000002c0: f143 8ab8 93fa 0d3f 202d ff39 5eaf 94b9
000002d0: ada2 9e3c 20fb 5038 7fe5 bb3a fec8 6a3c
000002e0: 3c6a 853e e347 04bf 70d3 5ebd 9b94 8638
000002f0: 7972 afbc 8f97 f93c 0e1f e43d 1f58 703b
00000300: 32db 4a3d b1d0 38bf 3b50 d1b9 8290 52bf
00000310: 71c7 c43d b119 a937 e14a 8ebe ff98 343f
00000320: 1c17 673e ced5 ce38 71d3 843b 9a9d d33c
00000330: 6625 c737 634c 7d3e 2ebc b9b7 bf18 0f3e
00000340: 5768 c43c aab0 3b3f 8270 2a38 bc50 843f
00000350: f5b0 a53e baa8 36bf 3cc0 d03e 4d58 1e3e
00000360: 4803 96bc af8d 44ba d1cd 5e3f 4afb 69b8
00000370: efbe 463f 2b5e de3b 7e92 2bb9 a963 15bf
00000380: dae9 603f 7e58 9338 1585 30b9 d6f0 873d
00000390: 18e4 15ba 60f1 5a3f 545d a8bc 62d5 be39
000003a0: be0d 69b8 bb04 803d 1fde 19ba 6e7e d83c
000003b0: cdfb a53e 893e 553d 8dcb e6b8 53b2 2cbe
000003c0: 0ed9 873e 2f54 f3bc e1e9 b539 d250 08b9
000003d0: 1909 7038 5dd0 3439 b285 7e39 c61c 9d3d
000003e0: a648 d638 300a c33c 6df8 a93c 4513 5e3f
000003f0: a937 a83c 46ef 533e c664 14b8 feee 5fbe

gats.0.bias f4 [67]
0.0012909268 -0.11923878 -0.0784325 0.00079494977 -0.08999076 0.0005460984 -0.0950948 0.010486781
-0.06732256 0.0032222776 -0.08430336 -0.024368608 -0.122735746 -0.008686225 -0.15117972 -0.12080912
-0.03098877 -0.06702604 0.0013709222 -0.08403049 -0.066550896 0.0012843729 -0.13913284 -0.043703638
0.00077389076 -0.00096991326 -0.107087925 -0.031673383 -0.13524722 -0.046959464 -0.021655349 0.00060968194
-0.06107695 -0.01342777 -0.05193046 -0.11124642 -0.073813915 0.001740214 -0.05712576 -0.07600923
-0.078651614 0.0005821137 0.0008950022 0.013591008 -0.064515635 -0.0012646986 -0.085711814 0.002646999
-0.06327538 -0.018384 -0.14458977 -0.026285632 -0.08130483 0.000734322 -0.06568869 -0.10958974
-0.046352852 -0.10500277 -0.11621803 0.017904503 0.0009428528 -0.09847835 -0.042234257 7.708639e-05
-0.07474298 -0.08832682 0.03457131
00000000: 5134 a93a 7633 f4bd 38a1 a0bd 2d64 503a
00000010: 134d b8bd 0b28 0f3a 10c1 c2bd bfd0 2b3c
00000020: 69e0 89bd d92c 533b 3da7 acbd ada0 c7bc
00000030: e15c fbbd ab50 0ebc dbce 1abe c66a f7bd
00000040: 29dc fdbc f344 89bd 84b0 b33a 2d18 acbd
00000050: d64b 88bd 6758 a83a d778 0ebe 9602 33bd
00000060: eede 4a3a c741 7eba ea50 dbbd f3bb 01bd
00000070: 3f7e 0abe 9158 40bd 8f66 b1bc 10d3 1f3a
00000080: d32b 7abd 2600 5cbc 09b5 54bd 2ad5 e3bd
00000090: c02b 97bd e417 e43a b3fc 69bd baaa 9bbd
000000a0: 1914 a1bd fd98 183a 959e 6a3a d2ac 5e3c
000000b0: c620 84bd 3ec4 a5ba ad89 afbd 4679 2d3b
000000c0: 8696 81bd 0b9a 96bc 570f 14be f754 d7bc
000000d0: 2683 a6bd 847f 403a cb87 86bd 9670 e0bd
000000e0: 7ddc 3dbd b10b d7bd b803 eebd 77ac 923c
000000f0: c829 773a 04af c9bd d4fd 2cbd 71a9 a138
00000100: d912 99bd b1e4 b4bd a59a 0d3d

gats.0.lin_l.weight f4 [335, 67]
6.6098e-41 3.8742e-41 3.5573175e-05 -1.6657e-41 -2.00969e-05 -2.9025e-41 -7.4293e-41 -0.00023389306
-5.296e-42 -3.9703e-41 4.2155e-41 5.588e-42 4.6785e-41 -1.2428e-41 -5.4684e-41 -1.928e-42
2.5638e-41 2.9727e-41 -0.00010379354 8.895858e-06 7.2688e-41 -2.1735765e-05 -0.00013735761 -6.859865e-05
-3.0412e-41 3.5959e-41 -8.77113e-06 -6.153186e-05 -6.963672e-05 1.018e-41 -4.2021e-41 -0.0003822223
-3.2394e-41 5.7621663e-05 2.8489325e-05 0.00024329411 -7.31e-41 4.09e-43 -6.1363e-41 2.817e-42
-7.5474e-41 -6.267e-41 4.629641e-05 3.2768e-41 4.0292e-41 -3.83e-42 2.0626e-41 -7.7034e-41
3.0864e-41 7.3086e-41 2.069e-41 -4.4287e-41 5.8919e-41 -3.5984e-41 2.1581e-41 2.5187e-41
2.2309e-41 -6.7255e-41 -2.789e-42 0.00050256663 0.00014937876 -5.7906e-41 -3.3257e-41 1.7773e-41
-6.4583e-41 7.125e-41 -0.00024320184 4.0656e-41 -1.2717e-41 -0.0003696253 5.7711e-41 -0.00065493165
-7.6418e-41 -7.2512e-41 0.0027502703 7.6924e-41 -1.1917e-41 -6.7648e-41 -7.3364e-41 3.1533e-41
6.2969e-41 -2.5645e-41 6.239e-42 -2.507e-41 7.477e-41 -0.007884053 -0.010160148 4.0038e-41
-0.003958248 -0.0021336412 0.00047032462 -1.7303e-41 -4.5935e-41 -0.00033555637 0.0013387665 -0.0004960395
-7.2671e-41 5.6792e-41 -0.001824588 -3.5813e-41 0.014825002 7.807947e-05 -0.0007213193 -2.0984185e-10
-1.2408606e-07 -3.674e-42 -3.987e-42 -6.5086e-41 6.4405e-41 0.0024628146 -3.5223e-41 -3.2695e-41
-5.0475e-41 9.897e-42 -6.8142e-41 7.99e-43 -4.5954e-41 5.896e-41 7.3261e-41 5.9023e-41
-7.2803e-41 7.1992e-41 -6.1915e-41 -6.7655e-41 2.434e-42 -4.3833e-41 0.0014650048 6.1023133e-05
-3.71e-43 3.1742e-41 2.8746e-41 3.9206e-41 2.2227e-41 0.009465489 -7.2869e-41 -4.1216e-41
-0.017713942 3.9134e-41 -0.0093392655 4.4284e-41 -2.0717e-41 0.018371953 3.0512e-41 6.663e-41
-2.9157e-41 -4.9347e-41 5.5985e-41 3.566e-42 7.57e-41 -4.1508e-41 -7.1406e-41 6.0791e-41
-0.0057984926 0.44010103 5.328e-42 -0.016358024 -0.024880905 0.0026161817 6.2761e-41 7.3411e-41
-0.0035200783 -0.0011420731 0.0012187117 -4.1589e-41 3.313e-41 -0.0051285815 2.9811e-41 0.0027248152
0.0013320695 -0.001896175 -1.5750333e-05 3.4011544e-05 -6.0379e-41 4.4551e-41 1.1147e-41 -5.7358e-41
-0.004525484 -1.2393e-41 -7.4053e-41 3.2614e-41 1.4093e-41 -5.842e-41 7.1632e-41 -6.1558e-41
-2.2198e-41 6.1499e-41 -4.8241e-41 3.231e-42 -3.728e-41 4.1365e-41 7.0848e-41 -3.7688e-41
4.7395e-41 0.003244625 -0.003921051 -1.7186e-41 9.96e-43 -7.3945e-41 1.8462e-41 7.606e-42
-0.0022443684 -4.4375e-41 6.7517e-41 0.00012039382 3.878e-41 3.0022216e-05 -2.4981e-41 5.8033e-41
-9.7331394e-05 -4.8974e-41 -1.9905e-41 -1.1133e-41 2.9998e-41 2.414e-42 2.3902e-41 5.272e-42
4.588e-42 3.2219e-41 9.904e-42 -1.72267e-05 1.1850739e-05 -4.8245e-41 0.00010808743 0.00016411759
-3.7745624e-09 -4.385e-42 -6.4548e-41 7.990467e-06 5.757905e-05 2.7943368e-05 1.4142e-41 -1.9533e-41
6.1119674e-05 7.2607e-41 -4.659995e-05 -1.3508973e-05 -1.1435183e-05 1.6015e-41 5.0409e-41 -2.5097e-41
-3.8712e-41 -6.728e-42 -1.722e-41 0.0001708811 -1.2294e-41 -2.9692e-41 -7.0973e-41 4.5626e-41
1.5844e-41 2.571e-42 -3.351e-41 3.0338e-41 2.1541e-41 -2.77e-43 2.0976e-41 7.3963e-41
00000000: 41b8 0000 ff6b 0000 6834 1538 6f2e 0080
00000010: c495 a8b7 e950 0080 19cf 0080 3141 75b9
00000020: c30e 0080 ad6e 0080 8375 0000 940f 0000
00000030: 6b82 0000 a522 0080 7098 0080 6005 0080
00000040: 7847 0000 de52 0000 bcab d9b8 6b3f 1537
00000050: a0ca 0000 3355 b6b7 a707 10b9 9fdc 8fb8
00000060: c754 0080 3d64 0000 b727 13b7 aa0a 81b8
00000070: ee09 92b8 611c 0000 2375 0080 0265 c8b9
00000080: 4d5a 0080 caae 7138 5cfc ee37 c41c 7f39
00000090: c6cb 0080 2401 0000 0eab 0080 da07 0000
000000a0: 64d2 0080 b3ae 0080 642e 4238 585b 0000
000000b0: 5170 0000 ad0a 0080 7f39 0000 bdd6 0080
000000c0: 0956 0000 bccb 0000 ad39 0000 747b 0080
000000d0: 3ea4 0000 4f64 0080 293c 0000 3646 0000
000000e0: 303e 0000 7bbb 0080 c607 0080 adbe 033a
000000f0: 8ea2 1c39 6ba1 0080 b55c 0080 8b31 0000
00000100: 08b4 0080 9ec6 0000 ff03 7fb9 5571 0000
00000110: 7323 0080 45ca c1b9 e0a0 0000 b8af 2bba
00000120: 06d5 0080 22ca 0080 e13d 343b 6fd6 0000
00000130: 3821 0080 93bc 0080 82cc 0080 e757 0000
00000140: 88af 0000 7d47 0080 6411 0000 e345 0080
00000150: 6ed0 0000 1d2c 01bc c076 26bc 9c6f 0000
00000160: 31b4 81bb 8fd4 0bbb e795 f639 3c30 0080
00000170: 0c80 0080 9ded afb9 8d79 af3a a608 02ba
00000180: 94ca 0080 509e 0000 0427 efba d563 0080
00000190: 91e4 723c 99be a338 eb16 3dba 3bb9 66af
000001a0: 843c 05b4 3e0a 0080 1d0b 0080 6fb5 0080
000001b0: 89b3 0000 2c67 213b 3062 0080 245b 0080
000001c0: b48c 0080 971b 0000 f4bd 0080 3a02 0000
000001d0: 1a80 0080 5ba4 0000 39cc 0000 88a4 0000
000001e0: f2ca 0080 afc8 0000 98ac 0080 98bc 0080
000001f0: c906 0000 307a 0080 6705 c03a 17f3 7f38
00000200: 0901 0080 7c58 0000 2250 0000 4a6d 0000
00000210: f63d 0000 2315 1b3c 21cb 0080 e572 0080
00000220: d41c 91bc 176d 0000 b803 19bc 727b 0000
00000230: c039 0080 c780 963c 0e55 0000 bdb9 0000
00000240: 4751 0080 8f89 0080 109c 0000 f109 0000
00000250: 05d3 0000 b573 0080 0dc7 0080 76a9 0000
00000260: 4801 bebb ec54 e13e da0e 0000 4301 86bc
00000270: 0ad3 cbbc 3f74 2b3b f4ae 0000 a4cc 0000
00000280: 1db1 66bb 9db1 95ba 2ebd 9f3a ef73 0080
00000290: 5a5c 0000 a90d a8bb 1a53 0000 d092 323b
000002a0: d698 ae3a 1389 f8ba 951f 84b7 9ea7 0e38
000002b0: 50a8 0080 317c 0000 131f 0000 e49f 0080
000002c0: 834a 94bb 8c22 0080 6ece 0080 ea5a 0000
000002d0: 4927 0000 daa2 0080 aec7 0000 99ab 0080
000002e0: e13d 0080 6fab 0000 7a86 0080 0209 0000
000002f0: ec67 0080 4f73 0000 7fc5 0000 0f69 0080
00000300: 1e84 0000 c6a3 543b 297c 80bb e82f 0080
00000310: c702 0000 21ce 0080 7733 0000 3415 0000
00000320: 4116 13bb b37b 0080 36bc 0000 f17b fc38
00000330: 1a6c 0000 38d8 fb37 a345 0080 c6a1 0000
00000340: 651e ccb8 8588 0080 7d37 0080 091f 0080
00000350: 9f53 0000 bb06 0000 a142 0000 b20e 0000
00000360: ca0c 0000 d059 0000 9c1b 0000 0e82 90b7
00000370: 89d2 4637 7d86 0080 ffac e238 fb16 2c39
00000380: 67b1 81b1 390c 0080 efb3 0080 cb0e 0637
00000390: 0981 7138 ed67 ea37 6c27 0000 7336 0080
000003a0: 602d 8038 66ca 0000 5174 43b8 99a4 62b7
000003b0: bdd9 3fb7 a52c 0000 858c 0000 f645 0080
000003c0: ea6b 0080 c112 0080 0130 0080 8c2e 3339
000003d0: 4522 0080 c552 0080 d8c5 0080 307f 0000
000003e0: 2b2c 0000 2b07 0000 6a5d 0080 9254 0000
000003f0: 0c3c 0000 c600 0080 793a 0000 2ece 0000

gats.0.lin_l.bias f4 [335]
-0.0019370697 -0.015705625 -0.09256097 -0.0010006517 0.060239907 -0.00075463747 -0.024536435 -0.07254323
0.005763626 -0.004172143 -0.027980255 -0.034486327 -0.02472893 -0.0037366385 -0.08992881 0.055940878
-0.0073805493 0.08121062 -0.0021141488 -0.022858392 -0.02174726 -0.0018871068 -0.0153685445 -0.025377892
-0.001523711 -0.0004937074 -0.018324908 -0.0018051374 0.1649974 0.035839133 -0.023386685 -0.0009508797
-0.06902957 -0.0046479846 -0.028412824 0.08606093 -0.03275367 -0.0019323229 0.044960644 0.0065557426
0.06484228 -0.0010930569 -0.0010510088 -0.0038741077 -0.020710684 -0.00042335977 -0.045170464 -0.004089797
0.0044115423 0.05339661 -0.118858494 0.06818006 -0.05261984 -0.0012657114 -0.050464608 -0.052634623
0.033910763 0.2261967 -0.14940976 0.10576474 -0.0017231315 -0.063761435 -0.021154584 -0.00041795583
-0.028900104 -0.019019512 0.031214133 -0.0019169265 0.044516843 -0.046706043 -0.001143177 -0.029771963
-0.0008227717 -0.0711275 -0.08706169 0.011406896 -0.0046328427 -0.15428571 -0.095480785 0.072874255
-0.0034370157 -0.06696958 -0.050989334 -0.0053202384 -0.10382463 -0.00221316 -0.09677643 0.05703459
-0.0018421814 0.061045334 0.05304744 -0.0015951892 -0.00022645804 0.041463707 -0.03164137 0.10050177
-0.03584497 -0.017857248 -0.00096043077 0.029654576 -0.00583504 0.024262339 -0.121628486 0.07584004
-0.002312397 -0.06315285 -0.07841457 -0.05925868 -0.00088503276 -0.0012581535 -0.12502357 0.18113257
-0.00027119432 -0.028507214 -0.005379536 -0.004960434 -0.11162949 0.05766922 -0.12297069 -0.07644068
-0.0012784393 -0.041936 0.0772917 0.011638746 0.01815095 -0.04348162 0.042504158 -0.0017688735
-0.0058827167 -0.0039670686 -0.0004943842 -0.0114063 0.06352526 0.07580221 -0.0019488425 0.10592245
-0.024628887 -0.0010108895 -0.045048404 -0.00066814973 -0.0038362513 0.018213054 0.00961544 -0.0042461404
-0.032108463 -0.022179415 0.20411147 -0.0074468534 0.011622161 -0.04363163 -0.007678145 0.039812323
-0.002475845 -0.075133726 -0.13248198 -0.0019494544 0.13874993 -0.099969655 -0.0014773435 -4.2168165e-05
0.045057897 0.051212702 -0.010542092 -0.0352922 -0.015249117 -0.00087249326 -0.06182811 -0.018914388
-0.04648443 0.020392131 0.037487205 -0.0019469674 0.065859765 0.09930584 -0.044351313 -0.0010375505
-0.0010135786 0.0122925555 -0.019359546 -0.0006556119 0.032630567 -0.0046528806 -0.029628525 0.027191447
-0.049415935 0.04570422 -0.15634108 -0.001293986 -0.07755254 -0.032374 0.08241445 -0.044542953
0.010362704 0.10985321 -0.001453353 0.06209893 -0.027758798 -0.00045539826 -0.010664148 0.04177137
-0.034915682 -0.0019301424 0.0063056303 -0.08387185 -0.0010292939 0.036764197 -0.0007436329 -0.10804216
-0.043685615 0.13915941 -0.0044307215 0.13710304 -0.054786313 0.06569911 0.05514307 -0.04926559
-0.026044523 -0.006833044 0.053652637 -0.0022311967 0.014545422 0.021338081 -0.0017258255 -0.0121629825
0.08731427 -0.0015367011 -0.00043064487 -0.03569539 0.0024130642 0.088596426 0.0021700584 -0.016711978
-0.000945677 0.025207274 -0.006989937 -0.065561205 -0.09961096 -0.05078085 -0.0019518669 -0.06340949
0.05630589 0.013966125 -0.001598075 -0.0011738881 -0.007255449 -0.022622671 -0.00068674545 -0.11865296
-0.0050222264 0.0044961283 -0.004472703 -0.11077723 -0.025898201 0.006935015 -0.001310827 -0.046210434
00000000: 46e5 fdba 15a9 80bc 9b90 bdbd 4d28 83ba
00000010: 1fbe 763d ddd2 45ba a200 c9bc 8c91 94bd
00000020: cddc bc3b 79b6 88bb d936 e5bc 8941 0dbd
00000030: 5394 cabc 64e2 74bb 992c b8bd 4322 653d
00000040: 89d8 f1bb c151 a63d 888d 0abb 8641 bbbc
00000050: 4f27 b2bc cc58 f7ba 59cc 7bbc 4ce5 cfbc
00000060: 42b7 c7ba 256c 01ba 1e1e 96bc 5c9a ecba
00000070: 14f5 283e 0ecc 123d 6f95 bfbc 7544 79ba
00000080: 605f 8dbd 1f4e 98bb 03c2 e8bc b640 b03d
00000090: b628 06bd ff45 fdba a728 383d 8ed1 d63b
000000a0: 07cc 843d e744 8fba 01c2 89ba bee4 7dbb
000000b0: 74a9 a9bc 63f6 ddb9 aa04 39bd b403 86bb
000000c0: b38e 903b 67b6 5a3d 156c f3bd fda1 8b3d
000000d0: e787 57bd 3ae6 a5ba fab3 4ebd 6797 57bd
000000e0: 03e6 0a3d 1ca0 673e dffe 18be 2f9b d83d
000000f0: b3da e1ba 5b95 82bd 614c adbc 1521 dbb9
00000100: e9bf ecbc cfce 9bbc c8b4 ff3c 6141 fbba
00000110: 4b57 363d d64e 3fbd a8d6 95ba 55e4 f3bc
00000120: 46af 57ba 4bab 91bd 664d b2bd fde3 3a3c
00000130: 1acf 97bb 13fd 1dbe 6e8b c3bd 193f 953d
00000140: 8e3f 61bb 5927 89bd 31da 50bd 6555 aebb
00000150: 02a2 d4bd aa0a 11bb b932 c6bd 1a9d 693d
00000160: 5a75 f1ba ac0a 7a3d 4648 593d ab15 d1ba
00000170: 5e75 6db9 d9d5 293d 629a 01bd dfd3 cd3d
00000180: 2dd2 12bd 5d49 92bc 6bc5 7bba 27ee f23c
00000190: dd33 bfbb d0c1 c63c 5b18 f9bd 0652 9b3d
000001a0: 958b 17bb 4856 81bd d197 a0bd 3bb9 72bd
000001b0: 8b01 68ba a0e8 a4ba 2e06 00be d17a 393e
000001c0: 162f 8eb9 f687 e9bc d246 b0bb 238b a2bb
000001d0: 019e e4bd 8f36 6c3d 0fd8 fbbd ee8c 9cbd
000001e0: 4e91 a7ba 15c5 2bbd 1c4b 9e3d 70b0 3e3c
000001f0: 4db1 943c c819 32bd d718 2e3d 8cd9 e7ba
00000200: cec3 c0bb 2ffe 81bb 9099 01ba 7de1 3abc
00000210: 8819 823d 303e 9b3d 4e70 ffba dfed d83d
00000220: 85c2 c9bc d37f 84ba ad84 38bd c526 2fba
00000230: 9e69 7bbb 8b33 953c 148a 1d3c 3523 8bbb
00000240: 2a84 03bd 9bb1 b5bc 9902 513e bc04 f4bb
00000250: e06a 3e3c 14b7 32bd f398 fbbb 3f12 233d
00000260: c941 22bb b6df 99bd 5ba9 07be d684 ffba
00000270: 7614 0e3e e4bc ccbd 6ca3 c1ba b9dd 30b8
00000280: a18e 383d 69c4 513d bdb8 2cbc 8e8e 10bd
00000290: 6fd7 79bc 08b8 64ba 793f 7dbd 59f2 9abc
000002a0: 7566 3ebd 660d a73c 2f8c 193d 6331 ffba
000002b0: 7ce1 863d dc60 cb3d b9a9 35bd 6bfe 87ba
000002c0: 0eda 84ba b766 493c e997 9ebc 5fdd 2bba
000002d0: a1a7 053d 3177 98bb 85b7 f2bc 99c0 de3c
000002e0: 5d68 4abd 5934 3b3d e017 20be f79a a9ba
000002f0: ded3 9ebd 999a 04bd e8c8 a83d ac72 36bd
00000300: 55c8 293c b8fa e03d 6f7e beba 735b 7e3d
00000310: 6b66 e3bc 85c2 eeb9 aeb8 2ebc 7518 2b3d
00000320: bf03 0fbd d5fc fcba 769f ce3b 01c5 abbd
00000330: 5fe9 86ba 0e96 163d 5cf0 42ba 3545 ddbd
00000340: b0ef 32bd ce7f 0e3e 962f 91bb bd64 0c3e
00000350: 9d67 60bd 418d 863d b3dd 613d b7ca 49bd
00000360: 535b d5bc bae7 dfbb dec2 5b3d 4539 12bb
00000370: ec4f 6e3c 33cd ae3c 1835 e2ba 3f47 47bc
00000380: d3d1 b23d 226b c9ba 2dc8 e1b9 5435 12bd
00000390: 8024 1e3b 0b72 b53d 8a37 0e3b 8fe7 88bc
000003a0: 4fe7 77ba 7c7f ce3c d70b e5bb f444 86bd
000003b0: d500 ccbd 95ff 4fbd c9d5 ffba d6dc 81bd
000003c0: 01a1 663d 2dd2 643c 8076 d1ba 26dd 99ba
000003d0: 1ebf edbb 2e53 b9bc b506 34ba 5300 f3bd
000003e0: 7d91 a4bb 4254 933b c18f 92bb 2cdf e2bd
000003f0: 7728 d4bc 1f3f e33b 0ed0 abba 2747 3dbd

gats.0.lin_r.weight f4 [335, 67]
7.1972e-41 9.498e-42 -2.4358567e-06 -1.651e-41 2.623e-41 3.7537e-41 -2.1423e-41 -4.79e-43
1.7628e-41 -2.8942e-41 -3.5793e-41 -7.5208e-41 7.4129e-41 2.1686e-41 3.1693e-41 1.5989e-41
6.6954e-41 1.6186e-41 6.0403763e-05 4.3329033e-05 -3.8292e-41 5.9202e-41 7.623875e-08 1.0721927e-09
-2.7744e-41 2.8001e-41 -1.1960324e-06 2.895863e-05 -1.6789358e-09 3.8296e-41 -7.3642e-41 1.3669655e-05
2.5536e-41 1.0521035e-08 5.853e-42 -4.442307e-05 -7.2584e-41 4.5403e-41 4.0558e-41 -2.3602e-41
6.7735e-41 -6.3532e-41 -4.9532902e-11 -3.0981e-41 -2.922e-42 -6.1304e-41 -3.9779e-41 3.5096e-41
-1.6301e-41 -3.278e-42 3.8082e-41 4.0895e-41 -7.1211e-41 3.875e-42 -5.982e-41 -1.034e-41
6.5396e-41 -4.8174e-41 2.7359e-41 3.6253e-41 -7.0985385e-07 -3.7647e-41 1.6608e-41 -4.0528e-41
-3.4263e-41 -4.4001e-41 -5.4942856e-10 -1.3043e-41 3.4822e-41 3.8480975e-05 -6.154e-41 -4.262847e-05
-1.0371e-41 4.2136e-41 8.256136e-11 4.5228e-41 6.7687e-41 7.1748e-41 4.9198e-41 -5.8901e-41
-5.098e-42 -5.518e-42 3.085e-41 5.592e-41 -1.2595e-41 1.0616817e-05 1.5778329e-05 6.5914e-41
8.137384e-11 -6.518659e-05 0.00021797053 5.9014e-41 2.93e-42 1.3457125e-05 -2.3218881e-05 -2.472817e-05
-3.9832e-41 1.0536e-41 -0.00018199546 5.7e-44 0.00032470984 -0.00030360968 0.00029374732 7.0408e-41
-2.0764e-41 -3.0934e-41 1.28e-43 1.5556e-41 5.4108e-41 0.00025909883 -1.7809e-41 2.4685e-41
1.9803e-41 -1.606e-42 5.5458e-41 -1.7994e-41 -2.838e-41 3.2268e-41 4.2238e-41 1.4792e-41
7.6924e-41 6.6773e-41 2.4813e-41 3.6896e-41 -4.715e-42 -4.544e-42 -3.8759412e-05 0.00027066143
4.003e-41 1.8279e-41 -4.2339e-41 -4.8901e-41 5.0677e-41 -7.1841637e-06 1.1308e-41 -4.284e-42
0.0023457923 7.3823e-41 -0.00020461349 -6.3571e-41 1.2075e-41 -0.0013805834 -7.2359e-41 -2.5173e-41
1.8375e-41 -6.3388e-41 2.7027e-41 -1.6621e-41 -7.3745e-41 -7.2653e-41 -7.2014e-41 1.3817e-41
0.001005105 0.0058142333 -1.6932e-41 -0.0022670939 -0.0015980221 -0.0009296572 -7.2869e-41 -6.1423e-41
-0.003820092 0.003920342 -9.6147734e-05 -5.3567e-41 -1.9758e-41 -5.087733e-05 -6.07e-43 -0.00043059085
-0.00061509095 0.00067923014 -1.4885258e-07 -1.9828967e-06 3.2273e-41 -4.46e-43 -3.1121e-41 -1.4447e-41
-0.0010168384 -3.2653e-41 -3.6588e-41 5.535e-41 -2.7323e-41 -1.616e-42 -7.0463e-41 6.595e-41
5.001e-41 -6.592e-42 -6.907e-42 -4.1745e-41 2.6967e-41 6.1454e-41 2.871e-41 -4.1973e-41
-4.6282e-41 3.2028285e-05 0.00031339828 6.7971e-41 1.8832e-41 -1.3272e-41 -1.53e-41 -3.798e-41
0.00022218027 -9.177e-42 5.5873e-41 -2.4504066e-05 -2.779e-42 -2.2391414e-05 -4.895e-41 6.978e-41
5.9782e-41 -1.0814e-41 -1.4023e-41 1.3766e-41 2.3573e-41 -1.9691e-41 4.0842e-41 -1.218e-42
3.3805e-41 9.016e-42 6.606e-42 -2.7101878e-05 -3.847572e-05 3.648e-42 5.4602e-41 1.6077398e-19
1.3443e-41 5.6704e-41 -1.2722e-41 4.4872864e-05 -3.123906e-35 -9.168131e-33 8.988e-42 2.459e-42
-5.8989e-41 -4.9564e-41 -3.4845125e-06 5.0563e-41 -1.3781972e-05 -2.2247e-41 1.8073e-41 3.1557e-41
-3.6715e-41 5.883e-41 -5.5849e-41 -1.2586153e-13 -5.6866e-41 -1.3906e-41 5.238e-42 5.9101e-41
4.8647e-41 -3.1749e-41 4.4511e-41 6.5886e-41 -2.396e-42 2.6115e-41 -3.2286e-41 7.0113e-41
00000000: a1c8 0000 7a1a 0000 b377 23b6 062e 0080
00000010: 1e49 0000 a368 0000 b83b 0080 5601 0080
00000020: 2431 0000 ae50 0080 c763 0080 a6d1 0080
00000030: a4ce 0000 743c 0000 5958 0000 922c 0000
00000040: a4ba 0000 1f2d 0000 0c5a 7d38 32bc 3538
00000050: be6a 0080 08a5 0000 b2b8 a333 6d5c 9330
00000060: 574d 0080 0e4e 0000 5c87 a0b5 2fec f237
00000070: 4dc0 e6b0 c16a 0000 49cd 0080 b956 6537
00000080: 2f47 0000 00c0 3432 5110 0000 e952 3ab8
00000090: 56ca 0080 917e 0000 0f71 0000 cb41 0080
000000a0: d1bc 0000 1ab1 0080 17d9 59ae 5d56 0080
000000b0: 2508 0080 e4aa 0080 e36e 0080 d561 0000
000000c0: 712d 0080 2309 0080 286a 0000 0072 0000
000000d0: 82c6 0080 cd0a 0000 c1a6 0080 d31c 0080
000000e0: 4cb6 0000 4a86 0080 444c 0000 0f65 0000
000000f0: c98c 3eb5 f268 0080 4c2e 0000 fa70 0080
00000100: 835f 0080 a87a 0080 9906 17b0 5c24 0080
00000110: 1261 0000 a266 2138 8cab 0080 f9cb 32b8
00000120: e91c 0080 7575 0000 ea8d b52e 147e 0000
00000130: afbc 0000 01c8 0000 2589 0000 31a4 0080
00000140: 360e 0080 620f 0080 ff55 0000 e29b 0000
00000150: 1c23 0080 e21e 3237 b45b 8437 beb7 0000
00000160: 66f1 b22e c9b4 88b8 058f 6439 82a4 0000
00000170: 2b08 0000 e9c5 6137 2bc6 c2b7 576f cfb7
00000180: 096f 0080 5f1d 0000 09d6 3eb9 2900 0000
00000190: d13d aa39 cd2d 9fb9 1902 9a39 45c4 0000
000001a0: e239 0080 3b56 0080 5b00 0000 5d2b 0000
000001b0: d596 0000 a8d7 8739 a531 0080 d044 0000
000001c0: 3437 0000 7a04 0080 989a 0000 2932 0080
000001d0: 1d4f 0080 f359 0000 be75 0000 3c29 0000
000001e0: 6fd6 0000 23ba 0000 2b45 0000 da66 0000
000001f0: 250d 0080 ab0c 0080 9a91 22b8 90e7 8d39
00000200: 966f 0000 f432 0000 0676 0080 5188 0080
00000210: 448d 0000 7f0f f1b6 861f 0000 f10b 0080
00000220: ddbb 193b cacd 0000 848d 56b9 36b1 0080
00000230: a921 0000 b1f4 b4ba b5c9 0080 2c46 0080
00000240: 3933 0000 b3b0 0080 574b 0000 552e 0080
00000250: 92cd 0080 87ca 0080 bfc8 0080 8426 0000
00000260: babd 833a 5385 be3b 332f 0080 8693 14bb
00000270: b974 d1ba 3db4 73ba 21cb 0080 39ab 0080
00000280: 825a 7abb 3676 803b eca2 c9b8 5395 0080
00000290: 1437 0080 1e65 55b8 b101 0080 edc0 e1b9
000002a0: 0e3e 21ba 5d0e 323a 49d4 1fb4 e811 05b6
000002b0: f759 0000 3e01 0080 c156 0080 4628 0080
000002c0: 6f47 85ba 065b 0080 fe65 0080 4b9a 0000
000002d0: 2a4c 0080 8104 0080 6cc4 0080 d7b7 0000
000002e0: 688b 0000 6012 0080 4113 0080 5e74 0080
000002f0: 2c4b 0000 4fab 0000 0850 0000 0175 0080
00000300: 0481 0080 1c56 0638 9b4f a439 7abd 0000
00000310: 7f34 0000 ff24 0080 a62a 0080 df69 0080
00000320: 10f9 6839 9519 0080 c09b 0000 158e cdb7
00000330: bf07 0080 32d5 bbb7 7488 0080 85c2 0000
00000340: a6a6 0000 251e 0080 1727 0080 6026 0000
00000350: b641 0000 e436 0080 da71 0000 6503 0080
00000360: 3c5e 0000 2219 0000 6a12 0000 d758 e3b7
00000370: fd60 21b8 2b0a 0000 3598 0000 f4ce 3d20
00000380: 7925 0000 119e 0000 7723 0080 df35 3c38
00000390: 6818 2686 256a 3e8a 0e19 0000 db06 0000
000003a0: 70a4 0080 2a8a 0080 78d7 69b6 f38c 0000
000003b0: 1e39 67b7 043e 0080 6132 0000 f857 0000
000003c0: 5966 0080 fea3 0000 af9b 0080 1eb5 0daa
000003d0: 859e 0080 c426 0080 9a0e 0000 c0a4 0000
000003e0: 9c87 0000 8158 0080 147c 0000 aab7 0000
000003f0: ae06 0080 cc48 0000 005a 0080 72c3 0000

gats.0.lin_r.bias f4 [335]
0.00011949231 0.00088032003 -0.002617409 1.391123e-05 -0.016449383 2.7745467e-05 0.15579984 -0.0002752716
-0.00079956366 -0.00033166324 -0.0003816662 0.019560369 0.0071567623 0.0019528229 0.21197985 0.2738862
-0.00017018392 0.21684599 8.142813e-05 0.012125197 -0.0007684514 1.773084e-05 0.20086947 0.012580987
-0.00011572316 -0.00025064545 0.009981883 0.0004684157 0.13098559 0.0974238 0.000138702 9.349517e-05
0.0317348 -0.00014986355 0.0034647265 0.15386888 -0.002039655 -1.2669661e-06 0.2000017 0.0035168258
0.28977293 -0.00016702952 2.797521e-05 0.0027379256 0.0003535434 0.0006113535 0.02083898 -0.00013162877
0.009284255 -0.003946218 0.10758168 0.20802577 -0.0016930474 -4.9503855e-05 0.061790023 0.079635404
0.00065316795 0.124170326 0.107111864 0.1518635 0.00011704949 0.15890016 0.008734863 -7.22235e-05
0.01459006 0.14093092 0.0106702205 -4.400967e-05 0.1824244 -0.034486424 0.00011665343 0.004237404
-0.00020945152 0.017696721 -0.05343276 0.004706271 3.1120715e-05 0.20506802 -0.011596755 0.267932
0.00035762752 0.03122324 0.091216005 5.4915225e-05 -0.00021465431 -5.5121873e-05 0.04779043 0.08659688
-2.7441504e-06 0.21207318 0.011044474 -0.00023989423 0.00040721378 0.16968837 0.0010819004 0.09973137
-0.0016540188 0.00012490622 -9.331945e-06 0.3054961 -0.0007798402 0.0040415125 0.0038680595 0.15529701
2.2996515e-05 0.012884525 0.0009928801 0.0031207614 -0.00022189965 4.4789114e-05 0.14065564 0.1282937
-0.00031157414 0.011666638 -0.00022132345 0.010383648 0.0042089755 0.22530685 0.009758661 0.039992765
4.744524e-05 0.08201236 0.089242324 0.00073073246 0.14753735 -0.0019037119 -0.0013451586 0.00031155092
0.07944492 -0.012517988 -7.2776274e-06 0.0064199553 0.22463162 0.124670506 0.00019565417 0.13863215
-0.00024985697 -1.5339002e-06 0.0019734516 -1.8938092e-05 0.02198531 -0.004792487 0.00010700095 0.00019749603
-0.0010357276 0.0034744437 0.37813902 -0.00041489245 0.06214458 -0.0074289134 0.00030381753 0.08031805
3.3184242e-05 0.0034974052 -0.0038262466 -4.6183046e-05 0.39607382 0.005291231 4.178071e-05 0.00016479596
0.02210535 0.22541107 0.0061720256 0.0027404192 0.00016248052 -4.4040604e-05 0.0055589764 0.044240966
0.0025839186 0.057151962 0.23889925 2.4271365e-05 -0.020791054 0.16645671 -0.010214703 -0.00010852772
0.00011641128 0.047648024 -0.000380728 -0.0001527574 0.0050413758 -5.069858e-05 3.5772264e-05 -0.003003799
-0.004321184 0.096106775 -0.002034681 1.1472055e-05 0.0040652514 0.0005939399 0.009779286 0.00084281946
-0.026549408 0.3210979 -0.00048774137 0.21018983 0.003988545 -0.0001246179 0.054430272 0.06574858
-0.03346678 -3.9996175e-05 0.0053521935 0.001159742 -2.1658801e-05 0.019817691 -0.00012604441 0.02660715
0.006972232 0.10264811 -2.1410848e-05 0.19125639 0.06618577 0.21122403 0.07197351 -0.023710994
-0.0021896015 0.00030129473 0.17536692 -1.064439e-05 0.17917217 3.801964e-05 0.00010876923 0.10838039
0.16353463 -6.181354e-05 -8.061778e-05 0.014055953 -2.7119908e-05 0.14385873 0.0009911505 -0.00016701422
0.0002475292 0.010706856 -0.00077319745 0.00923117 0.060399257 -0.00934303 9.400057e-05 0.008166661
-0.058371585 0.01841331 0.00017243922 9.880178e-05 -0.0003456873 0.00012824689 -8.533288e-05 0.011369295
-0.0001421901 -0.0020512606 0.00093694776 0.14503364 0.004860054 -0.03797426 7.386642e-05 0.04972617
00000000: f297 fa38 47c5 663a d688 2bbb 4764 6937
00000010: dbc0 86bc f0be e837 fe89 1f3e 5452 90b9
00000020: cf99 51ba 16e3 adb9 5f1a c8b9 113d a03c
00000030: 4683 ea3b ddf5 ff3a 3f11 593e d03a 8c3e
00000040: 6673 32b9 e00c 5e3e 65c4 aa38 c3a8 463c
00000050: e771 49ba b0bc 9437 bab0 4d3e 7c20 4e3c
00000060: 66b0 f2b8 1069 83b9 0d8b 233c b195 f539
00000070: 1621 063e 2186 c73d 8970 1139 d612 c438
00000080: 5afc 013d b124 1db9 7710 633b ce8f 1d3e
00000090: bcab 05bb a00c aab5 3fcd 4c3e 8c7a 663b
000000a0: 1e5d 943e a524 2fb9 4eac ea37 c56e 333b
000000b0: cb5b b939 3d43 203a 82b6 aa3c d405 0ab9
000000c0: fd1c 183c 474f 81bb c953 dc3d b504 553e
000000d0: 3ee9 ddba 5ca2 4fb8 8917 7d3d e317 a33d
000000e0: 5c39 2b3a 034d fe3d 775d db3d 1b82 1b3e
000000f0: 7778 f538 b9b6 223e ac1c 0f3c b276 97b8
00000100: 260b 6f3c 3250 103e 26d2 2e3c 0697 38b8
00000110: 76cd 3a3e a341 0dbd d5a3 f438 ecd9 8a3b
00000120: 37a0 5bb9 b7f8 903c 4fdc 5abd 1037 9a3b
00000130: 9d87 0238 5afd 513e 5100 3ebc 622e 893e
00000140: f47f bb39 e1c7 ff3c 75cf ba3d c654 6638
00000150: d414 61b9 a932 67b8 e6bf 433d b459 b13d
00000160: 2528 38b6 b629 593e e2f3 343c 1e8c 7bb9
00000170: 4f7f d539 cac2 2d3e 8ece 8d3a f63f cc3d
00000180: a9cb d8ba 42f9 0239 6690 1cb7 fc69 9c3e
00000190: 316e 4cba aa6e 843b 457f 7d3b 2e06 1f3e
000001a0: a4e8 c037 9d19 533c 8723 823a b085 4c3b
000001b0: bcad 68b9 f2db 3b38 0808 103e 6c5f 033e
000001c0: c65a a3b9 6d25 3f3c 1013 68b9 2d20 2a3c
000001d0: 72eb 893b d7b6 663e cae2 1f3c 74cf 233d
000001e0: f0ff 4638 19f6 a73d aec4 b63d a08e 3f3a
000001f0: 0814 173e f985 f9ba 0850 b0ba a857 a339
00000200: 05b4 a23d 3f18 4dbc 5832 f4b6 7d5e d23b
00000210: d505 663e 4053 ff3d 8428 4d39 96f5 0d3e
00000220: 3cff 82b9 69e0 cdb5 0655 013b 3edd 9eb7
00000230: 891a b43c 4b0a 9dbb b365 e038 f016 4f39
00000240: 40c1 87ba 7eb3 633b 709b c13e ec85 d9b9
00000250: 518b 7e3d 3e6e f3bb b349 9f39 ca7d a43d
00000260: 4f2f 0b38 b934 653b c4c1 7abb abb4 41b8
00000270: 30ca ca3e 1062 ad3b b23d 2f38 14cd 2c39
00000280: 4716 b53c 29d2 663e b43e ca3b 9b98 333b
00000290: 885f 2a39 3db8 38b8 1328 b63b 0436 353d
000002a0: f656 293b 2d18 6a3d 01a2 743e 5c9a cb37
000002b0: 0052 aabc a173 2a3e 925b 27bc 6099 e3b8
000002c0: d421 f438 932a 433d 729c c7b9 812d 20b9
000002d0: 2032 a53b 30a5 54b8 2d0a 1638 62db 44bb
000002e0: b898 8dbb a1d3 c43d 4858 05bb 1a78 4037
000002f0: cd35 853b a2b2 1b3a 4c39 203c a8f0 5c3a
00000300: 257e d9bc f266 a43e 8ab7 ffb9 013c 573e
00000310: 57b2 823b ddab 02b9 47f2 5e3d 31a7 863d
00000320: 7614 09bd 91c1 27b8 7461 af3b 7c02 983a
00000330: ecaf b5b7 b658 a23c ca2a 04b9 3df7 d93c
00000340: 5277 e43b 2c39 d23d 729b b3b7 b7d8 433e
00000350: 688c 873d 1d4b 583e d966 933d 8f3d c2bc
00000360: 6b7f 0fbb 18f7 9d39 6393 333e 4f95 32b7
00000370: e978 373e 4777 1f38 091b e438 8af6 dd3d
00000380: 9f75 273e e4a1 81b8 5711 a9b8 f14a 663c
00000390: 8f7f e3b7 b44f 133e 7ee9 813a 8a20 2fb9
000003a0: cfc6 8139 cf6b 2f3c 67b0 4aba 553e 173c
000003b0: 3665 773d 8213 19bc 2c22 c538 75cd 053c
000003c0: 0b17 6fbd 83d7 963c cdd0 3439 cd33 cf38
000003d0: 5d3d b5b9 037a 0639 bef4 b2b8 4846 3a3c
000003e0: dd18 15b9 716e 06bb 809d 753a b383 143e
000003f0: 1641 9f3b e68a 1bbd bbe8 9a38 abad 4b3d

gats.0.lin_edge.weight f4 [335, 1]
5.302719e-05 0.0009192221 0.0006188161 2.5672758e-05 -0.006164125 3.444004e-05 0.043282304 -0.00015712049
-0.0018520736 -0.0003803641 -0.0003401331 0.032808963 0.017977262 0.00055236113 0.07668806 0.06376912
5.841355e-05 0.08116108 5.60134e-05 0.008825106 0.0012474988 -1.885545e-05 0.02867084 -0.0029207938
-7.2560666e-05 -0.00023936572 0.0012201275 0.0012541742 0.049489412 0.011965151 8.929968e-05 -2.1069529e-05
0.007607621 -1.9459208e-05 0.00880145 0.04511199 -0.008063114 -2.2714868e-05 0.05471869 0.008964572
0.039156232 -0.00014354826 -1.2863387e-05 0.00057109597 0.00039991143 0.00077530224 0.00078390364 -0.00020649812
0.007808404 -0.0030875267 0.015991986 0.030486658 -0.017268881 -1.978331e-05 0.021178706 0.031758234
-0.0028407325 0.04438695 0.0161722 0.020974416 2.980877e-05 0.060808618 -0.00017738788 0.00015436797
0.012279252 0.05480362 0.0052558375 -0.00013449769 -0.02055358 -0.035124566 8.755325e-05 -0.0017812478
-8.437615e-05 -0.005961523 -0.10462548 0.013071657 -0.00011513502 0.09762064 -0.0058197477 -0.11091265
-0.0007937567 0.12677144 0.101630375 0.0003301677 0.0018956745 -0.00012752617 0.03275705 0.12088188
2.6182857e-05 -0.043094456 0.029550092 -9.879265e-05 0.00016331085 -0.07217278 0.00084263744 -0.018740742
-0.00022087555 -2.3072282e-05 -7.741247e-06 -0.024146862 -0.0006069786 0.022238776 0.0063360822 0.2584345
5.654684e-05 0.010072107 -0.0026302577 0.0034813483 -7.004315e-05 0.00010512149 0.057678033 0.2843169
-0.00016143096 -0.003562175 -0.00011491118 0.014809873 -0.008873058 0.30006027 0.0072203632 0.04654784
-5.106679e-06 0.045043174 0.07685815 0.026944539 -0.028159924 0.0017358179 -0.07534194 -1.3938693e-05
0.21655276 -0.007881124 2.0315778e-05 0.003840096 0.24939647 -0.006834184 0.00013265983 -0.30170825
0.0009914734 3.5021672e-05 0.002007711 -1.6950038e-05 0.5775162 0.005076877 0.00054826745 0.00019307608
-0.00010745841 -0.010352483 -0.5130626 -0.0010443857 0.65850043 0.31430626 0.00090521877 0.46254686
4.1802177e-05 0.014564202 -0.004824009 -4.0554965e-05 -0.44939443 0.0074625984 -0.00010555329 0.000716478
0.5281894 -0.061649065 0.00900606 0.0027515367 0.00013424337 8.532333e-06 0.014243593 0.52045834
0.00082923257 0.47326365 0.076984435 2.8010098e-05 -0.06183374 -0.22388412 -0.01215194 9.284583e-06
0.00011427747 0.49701285 -0.00048593528 0.0003583682 0.00902191 -5.290055e-05 -0.00060794526 0.0027610732
0.21666063 -0.38351685 -0.0034025358 1.5412033e-05 0.0034279888 0.0052070245 0.083896264 -3.755863e-05
-0.008691288 -0.193828 -0.00018742484 0.028708726 0.015920307 -6.969081e-05 -0.041497968 0.5046082
0.17203352 4.2351672e-05 0.003221948 0.009406897 -1.6702581e-05 0.1402158 -2.7265402e-05 0.060006857
0.007891912 0.38838333 8.8261795e-06 0.47706556 0.065684944 -0.029023023 0.27232406 0.0043402365
-0.005029886 0.00036984053 0.40193138 2.724235e-05 0.37267387 0.00052745733 0.00010128727 0.00967085
0.33956373 -7.158451e-05 -0.00013049919 0.016437147 0.00059108384 0.4138209 0.00081090856 -0.00014774509
0.00016633754 0.027964458 0.00036793208 0.0073070093 0.06248205 -0.010144428 6.26801e-05 -0.04883609
0.109439276 0.008080959 0.00029744982 4.718295e-05 -4.902898e-05 0.00014802672 0.00018553477 0.015966576
-9.0792884e-05 0.0025425463 0.0038715454 0.35379165 0.009716782 -0.0018153135 3.2504267e-05 -0.019014215
00000000: 8369 5e38 f3f7 703a 0c38 223a d45b d737
00000010: 6efc c9bb b673 1038 c948 313d b6c0 24b9
00000020: 47c1 f2ba 9b6b c7b9 e453 b2b9 b162 063d
00000030: 0d45 933c 54cc 103a a10e 9d3d 6299 823d
00000040: 1201 7538 c837 a63d eeef 6a38 2d97 103c
00000050: 1d83 a33a c52b 9eb7 1cdf ea3c ca6a 3fbb
00000060: b62b 98b8 3ffe 7ab9 afec 9f3a 1a63 a43a
00000070: 69b5 4a3d 7b09 443c 6746 bb38 78be b0b7
00000080: 5a49 f93b 553c a3b7 f533 103c 5ac7 383d
00000090: 271b 04bc cf8b beb7 b520 603d 24e0 123c
000000a0: 4962 203d 7185 16b9 d4cf 57b7 9ab5 153a
000000b0: 34ab d139 a73d 4b3a e27e 4d3a 6b87 58b9
000000c0: a4dd ff3b 1a58 4abb a001 833c 28bf f93c
000000d0: 7877 8dbc 56f4 a5b7 f77e ad3c ec14 023d
000000e0: 952b 3abb 17cf 353d 907b 843c 8ad2 ab3c
000000f0: d90d fa37 7512 793d 3201 3ab9 d6dd 2139
00000100: ea2e 493c c379 603d 2939 ac3b f307 0db9
00000110: fb5f a8bc c7de 0fbd cb9c b738 c278 e9ba
00000120: 1af3 b0b8 e158 c3bb e245 d6bd 812a 563c
00000130: a574 f1b8 55ed c73d 95b3 bebb 2c26 e3bd
00000140: 1c14 50ba 5fd0 013e 9623 d03d 5c1a ad39
00000150: 4878 f83a 8cb8 05b9 422c 063d eb90 f73d
00000160: 42a3 db37 d083 30bd 0913 f23c e62e cfb8
00000170: 6c3e 2b39 53cf 93bd 71e4 5c3a 2f86 99bc
00000180: d49a 67b9 598b c1b7 67e0 01b7 a4cf c5bc
00000190: a51d 1fba 182e b63c e99e cf3b 8751 843e
000001a0: b52c 6d38 7b05 253c 6760 2cbb 5527 643b
000001b0: 21e4 92b8 ac74 dc38 cd3f 6c3d fc91 913e
000001c0: cb45 29b9 6173 69bb 78fc f0b8 1ca5 723c
000001d0: 4d60 11bc 80a1 993e cc98 ec3b f3a8 3e3d
000001e0: 0a5a abb6 317f 383d ce67 9d3d cbba dc3c
000001f0: a4af e6bc 6284 e33a e04c 9abd 3bda 69b7
00000200: 02c0 5d3e d41f 01bc cd6b aa37 1faa 7b3b
00000210: ca61 7f3e 4af1 dfbb 9a1a 0b39 8179 9abe
00000220: 54f4 813a 3ce4 1238 cd93 033b ee2f 8eb7
00000230: 1ad8 133f ee5b a63b 9bb9 0f3a 7774 4a39
00000240: 4b5b e1b8 769d 29bc 1258 03bf c5e3 88ba
00000250: 7c93 283f c0ec a03e 344c 6d3a f1d2 ec3e
00000260: bf54 2f38 b19e 6e3c b812 9ebb 9019 2ab8
00000270: 0717 e6be d088 f43b 7e5c ddb8 06d2 3b3a
00000280: 6c37 073f bb83 7cbd 278e 133c 2053 343b
00000290: aec3 0c39 1726 0f37 f65d 693c c23c 053f
000002a0: db60 593a 9d4f f23e 04aa 9d3d 3af7 ea37
000002b0: 6045 7dbd e141 65be ee18 47bc fbc4 1b37
000002c0: 40a8 ef38 7878 fe3e 21c5 feb9 5ee3 bb39
000002d0: a2d0 133c 88e1 5db8 845e 1fba 1ff3 343b
000002e0: 49dc 5d3e 525c c4be 14fd 5ebb 1749 8137
000002f0: 1ca8 603b b09f aa3b ced1 ab3d 4688 1db8
00000300: e765 0ebc d97a 46be 7987 44b9 902e eb3c
00000310: 4e6b 823c f826 92b8 c6f9 29bd 012e 013f
00000320: 8e29 303e c3a2 3138 5127 533b 631f 1a3c
00000330: 851c 8cb7 bb94 0f3e 01b8 e4b7 c0c9 753d
00000340: 144d 013c 2eda c63e 2714 1437 f041 f43e
00000350: d485 863d b1c1 edbc 0f6e 8b3e 8b38 8e3b
00000360: bed1 a4bb 28e7 c139 f3c9 cd3e 8086 e437
00000370: 1ccf be3e 1045 0a3a 306a d438 7c72 1e3c
00000380: 4cdb ad3e a41f 96b8 9cd6 08b9 32a7 863c
00000390: f7f2 1a3a 55e0 d33e 2793 543a 05ec 1ab9
000003a0: e56a 2e39 b815 e53c 02e7 c039 a36f ef3b
000003b0: 2eed 7f3d d134 26bc 1f73 8338 5a08 48bd
000003c0: b321 e03d 0066 043c 0af3 9b39 4fe6 4538
000003d0: 77a4 4db8 9f37 1b39 1c8c 4239 56cc 823c
000003e0: 0f68 beb8 d9a0 263b c1b9 7d3b 2e24 b53e
000003f0: 2333 1f3c d0ef edba 3155 0838 b3c3 9bbc

gats.1.att f4 [1, 5, 67]
-0.00019057283 1.5369548e-07 -1.628827e-05 -2.8877965e-05 -0.00012511955 -7.712104e-05 -0.00015514324 -4.2061358e-05
-0.0001966505 -0.00018489573 -4.399936e-07 -9.391366e-05 6.2167226e-07 3.454588e-07 3.2448347e-06 -9.026126e-05
-1.4735289e-07 6.235607e-07 4.2687498e-06 -3.7541253e-07 1.0091436e-07 -0.00018255494 -7.5291297e-07 -0.00020069533
-1.05134e-06 1.2808719e-06 -8.045289e-08 -3.7449743e-07 2.7796818e-07 -5.6173207e-07 -6.991939e-05 -5.449378e-05
3.7098113e-07 -2.3790878e-06 9.492243e-07 -0.00017885561 -1.7087244e-07 -5.976614e-06 -0.00019942544 -0.000176738
-4.3237065e-07 -0.00014636805 -3.3217464e-06 -0.00015628236 -7.4022137e-07 -5.1331346e-05 5.197386e-07 -1.8503395e-07
-2.065759e-06 -0.00010245274 1.2392195e-06 1.1840137e-06 1.2538542e-06 -9.108341e-05 -0.00019058987 -0.00016859152
-0.00022284161 -4.706117e-05 -1.1305599e-06 -0.00016731492 -2.7026674e-05 -7.806098e-06 3.8295653e-05 -6.198023e-05
-8.225632e-07 -3.3732522e-07 -0.00022455234 -0.00019057603 1.5362697e-07 -1.6287824e-05 -2.887618e-05 -0.00012512182
-7.712463e-05 -0.00015513074 -4.2054544e-05 -0.0001966567 -0.00018489778 -4.3686492e-07 -9.3915536e-05 6.2148126e-07
3.4552235e-07 3.244871e-06 -9.026866e-05 -1.4734863e-07 6.177533e-07 4.2686e-06 -3.80252e-07 1.0059808e-07
-0.00018257137 -7.528792e-07 -0.00020069616 -1.0514188e-06 1.2807135e-06 -8.0684686e-08 -3.744756e-07 2.7743715e-07
-5.617649e-07 -6.991977e-05 -5.4493918e-05 3.7055756e-07 -2.3796495e-06 9.494333e-07 -0.00017885982 -1.7088546e-07
-5.977575e-06 -0.00019942412 -0.00017673011 -4.3943166e-07 -0.00014636964 -3.321917e-06 -0.00015628093 -7.403794e-07
-5.1328243e-05 5.197561e-07 -1.8496806e-07 -2.067604e-06 -0.000102459264 1.2390742e-06 1.1840576e-06 1.2554152e-06
-9.108465e-05 -0.0001905874 -0.00016860469 -0.00022285689 -4.7062094e-05 -1.1208807e-06 -0.00016733159 -2.702892e-05
-7.803869e-06 3.830232e-05 -6.198088e-05 -8.247733e-07 -3.3734133e-07 -0.0002245818 -0.00019059358 1.5379565e-07
-1.6286705e-05 -2.8876037e-05 -0.00012511988 -7.712239e-05 -0.00015513593 -4.204819e-05 -0.00019666017 -0.00018489361
-4.3696707e-07 -9.389402e-05 6.2141106e-07 3.454803e-07 3.2451444e-06 -9.026303e-05 -1.473077e-07 6.208356e-07
4.2690217e-06 -3.806433e-07 1.0112254e-07 -0.00018256834 -7.5152093e-07 -0.00020070592 -1.0514581e-06 1.280889e-06
-8.0488995e-08 -3.7231985e-07 2.7768127e-07 -5.618042e-07 -6.9917296e-05 -5.4492197e-05 3.7104994e-07 -2.3757568e-06
9.4941214e-07 -0.00017885605 -1.706159e-07 -5.974174e-06 -0.00019943724 -0.00017674666 -4.390459e-07 -0.00014636779
-3.3213778e-06 -0.00015626849 -7.401981e-07 -5.1305244e-05 5.1971966e-07 -1.850006e-07 -2.0670536e-06 -0.00010245999
1.2392353e-06 1.1841122e-06 1.2553928e-06 -9.10963e-05 -0.00019059955 -0.00016860527 -0.00022285727 -4.705728e-05
-1.1304694e-06 -0.00016732221 -2.7044951e-05 -7.809559e-06 3.830164e-05 -6.197844e-05 -8.221023e-07 -3.376076e-07
-0.00022458813 -0.00019056525 1.5352512e-07 -1.6286722e-05 -2.887151e-05 -0.00012509871 -7.712022e-05 -0.00015512871
-4.2060758e-05 -0.00019665933 -0.00018488921 -4.3684804e-07 -9.388086e-05 6.228331e-07 3.454201e-07 3.244353e-06
-9.026756e-05 -1.4741036e-07 6.195112e-07 4.2662346e-06 -3.758173e-07 9.978006e-08 -0.00018256267 -7.5335413e-07
-0.00020070003 -1.0514863e-06 1.2807765e-06 -8.070047e-08 -3.7245684e-07 2.7767024e-07 -5.61802e-07 -6.991685e-05
-5.4494296e-05 3.704298e-07 -2.3792552e-06 9.490382e-07 -0.00017885477 -1.7137575e-07 -5.9774816e-06 -0.00019938762
-0.00017672879 -4.392348e-07 -0.00014636142 -3.3218791e-06 -0.00015623591 -7.404061e-07 -5.132899e-05 5.1979896e-07
-1.8510677e-07 -2.0688942e-06 -0.00010245516 1.2384788e-06 1.1838127e-06 1.2554407e-06 -9.108181e-05 -0.00019060692
00000000: 81d4 47b9 7e07 2534 cba2 88b7 f53e f2b7
00000010: 8632 03b9 0bbc a1b8 f2ad 22b9 0a6b 30b8
00000020: f733 4eb9 92e0 41b9 4338 ecb4 83f3 c4b8
00000030: fee0 2635 7f77 b934 d6c1 5936 a54a bdb8
00000040: 0e38 1eb4 c462 2735 483c 8f36 4e8c c9b4
00000050: 42b6 d833 386c 3fb9 c91b 4ab5 be71 52b9
00000060: c41b 8db5 6cea ab35 72c5 acb3 890e c9b4
00000070: a83b 9534 efc9 16b5 b0a1 92b8 4090 64b8
00000080: 422b c734 6ba8 1fb6 32ce 7e35 308b 3bb9
00000090: 0f79 37b4 b98a c8b6 dc1c 51b9 bf52 39b9
000000a0: 9220 e8b4 607a 19b9 2beb 5eb6 badf 23b9
000000b0: a0b3 46b5 9d4c 57b8 2a84 0b35 bfad 46b4
000000c0: 78a1 0ab6 e5db d6b8 4253 a635 67ea 9e35
000000d0: 1a4a a835 0904 bfb8 14d9 47b9 f1c7 30b9
000000e0: 97aa 69b9 8c63 45b8 bebd 97b5 4271 2fb9
000000f0: 57b7 e2b7 f0f6 02b7 a59f 2038 62fb 81b8
00000100: 1dce 5cb5 a019 b5b4 cf75 6bb9 5dd5 47b9
00000110: a9f4 2434 d6a1 88b7 203b f2b7 2233 03b9
00000120: f8bd a1b8 97aa 22b9 b963 30b8 a235 4eb9
00000130: 1fe1 41b9 428a eab4 85f4 c4b8 ded3 2635
00000140: 3b80 b934 76c2 5936 9e4e bdb8 e236 1eb4
00000150: afd3 2535 ff3a 8f36 7025 ccb4 6108 d833
00000160: a170 3fb9 7719 4ab5 f771 52b9 7a1e 8db5
00000170: fbe4 ab35 e044 adb3 890b c9b4 acf2 9434
00000180: 31cc 16b5 e4a1 92b8 6690 64b8 0bf1 c634
00000190: 11b2 1fb6 8fdc 7e35 518c 3bb9 a37c 37b4
000001a0: fa92 c8b6 811c 51b9 a150 39b9 07eb ebb4
000001b0: cd7a 19b9 19ee 5eb6 58df 23b9 7cbe 46b5
000001c0: 4849 57b8 5e85 0b35 a29b 46b4 2bc1 0ab6
000001d0: 66df d6b8 444e a635 e9eb 9e35 bd7f a835
000001e0: b304 bfb8 6ad8 47b9 7acb 30b9 b1ae 69b9
000001f0: 8a64 45b8 2b71 96b5 bb75 2fb9 2abc e2b7
00000200: 5ded 02b7 cea6 2038 bbfb 81b8 fd65 5db5
00000210: d71b b5b4 b87d 6bb9 13da 47b9 0723 2534
00000220: 6f9f 88b7 d13a f2b7 9d32 03b9 c5bc a1b8
00000230: fcab 22b9 e65c 30b8 9036 4eb9 00e0 41b9
00000240: 4c98 eab4 f8e8 c4b8 0bcf 2635 737a b934
00000250: 28c7 5936 984b bdb8 a22b 1eb4 7fa7 2635
00000260: 9e3e 8f36 385b ccb4 b428 d933 d16f 3fb9
00000270: 20bc 49b5 9674 52b9 d31f 8db5 03eb ab35
00000280: 4bd9 acb3 40e3 c7b4 3914 9534 e4ce 16b5
00000290: 90a0 92b8 8d8e 64b8 b734 c734 316f 1fb6
000002a0: 1bdb 7e35 4e8b 3bb9 8b32 37b4 c475 c8b6
000002b0: 0720 51b9 1255 39b9 02b6 ebb4 4e7a 19b9
000002c0: d6e4 5eb6 01dc 23b9 07b2 46b5 9630 57b8
000002d0: dd82 0b35 94a4 46b4 b6b7 0ab6 cadf d6b8
000002e0: cd53 a635 c9ed 9e35 f87e a835 f40a bfb8
000002f0: addb 47b9 a2cb 30b9 cbae 69b9 5f5f 45b8
00000300: a2ba 97b5 3773 2fb9 97de e2b7 cd05 03b7
00000310: 13a6 2038 6cfa 81b8 71ae 5cb5 6f40 b5b4
00000320: 6b7f 6bb9 78d2 47b9 aad8 2434 789f 88b7
00000330: 1831 f2b7 ee2c 03b9 9abb a1b8 0caa 22b9
00000340: 656a 30b8 5636 4eb9 d2de 41b9 f087 eab4
00000350: e7e1 c4b8 c430 2735 2d72 b934 8fb9 5936
00000360: 074e bdb8 da47 1eb4 7c4c 2635 ad26 8f36
00000370: f0c3 c9b4 ab46 d633 4b6e 3fb9 1a3a 4ab5
00000380: 0173 52b9 cb20 8db5 25e7 ab35 8d4d adb3
00000390: 14f6 c7b4 b512 9534 bdce 16b5 53a0 92b8
000003a0: ce90 64b8 7cdf c634 4bab 1fb6 69c1 7e35
000003b0: f68a 3bb9 6803 38b4 2d92 c8b6 b512 51b9
000003c0: 4650 39b9 f9cf ebb4 9878 19b9 73ed 5eb6
000003d0: 42d3 23b9 52c0 46b5 154a 57b8 5088 0b35
000003e0: c3c1 46b4 55d7 0ab6 32dd d6b8 cf39 a635
000003f0: 7fe3 9e35 9d80 a835 2d03 bfb8 a8dd 47b9

gats.1.bias f4 [67]
0.0005505905 0.0032127164 0.00057150284 0.0030972103 0.0003374244 0.0051175556 0.0019574377 0.0040284996
0.0056444914 -0.0010146605 0.00096501893 0.018640662 0.004200022 0.004167777 0.0029345641 0.0047829077
-0.00026658358 0.002802876 0.0028169893 0.0016442605 0.000710256 -0.0022356105 0.0038142027 0.0053635705
0.002773609 0.0025062878 0.00075307576 0.0009135121 0.0010254974 0.00047538165 0.00633099 0.0049479995
0.00091074314 0.005097511 0.0016107437 -0.0026316098 0.0008830688 -0.0008162215 0.0049037808 0.00062836346
0.0036047967 -0.0013420783 0.0006487256 0.0068164417 -1.4015544e-06 0.003813487 0.0004299734 0.00082294346
-0.00014710236 0.0022717658 0.0030626548 0.0010874855 0.0017505806 0.0049490533 0.003209069 -0.0030405254
0.0006536683 0.0055569317 0.004138426 -0.00026828365 0.003906098 0.0042319405 0.007318441 0.0057151658
0.0008282509 0.00043255158 -0.00048171912
00000000: 8155 103a 708c 523b e8d0 153a 91fa 4a3b
00000010: 56e8 b039 2bb1 a73b 5b48 003b 8101 843b
00000020: 6df5 b83b 5bfe 84ba 53f9 7c3a 4db4 983c
00000030: 57a0 893b d991 883b d151 403b f0b9 9c3b
00000040: 3ec4 8bb9 75b0 373b 3d9d 383b 3a84 d73a
00000050: 7930 3a3a 5283 12bb b4f7 793b e4c0 af3b
00000060: 70c5 353b 8840 243b 0f6a 453a c278 6f3a
00000070: fc69 863a a53c f939 3274 cf3b d422 a23b
00000080: f0be 6e3a 0609 a73b 971f d33a 1677 2cbb
00000090: be7d 673a b3f7 55ba e5af a03b c2b8 243a
000000a0: 743e 6c3b ade8 afba 3d0f 2a3a 755c df3b
000000b0: 0b1d bcb5 b2eb 793b 0e6e e139 cdba 573a
000000c0: 7d3f 1ab9 e8e1 143b d2b6 483b f589 8e3a
000000d0: bd73 e53a ab2b a23b 3e4f 523b 8d43 47bb
000000e0: f05a 2b3a ec16 b63b a29b 873b 6ca8 8cb9
000000f0: 73fd 7f3b 17ac 8a3b 88cf ef3b 4946 bb3b
00000100: fa1e 593a 17c8 e239 3f8f fcb9
