inference/BMC/model_checkpoints/BMC_model_4.pt (torch, 503011 bytes, 21 tensors)

gats.0.att f4 [1, 5, 67]
00000000: 0e8f 9e3c d92c 393c 926a 2fbe af1e d5bc
00000010: 06e8 bc3a 42c8 e4bf 6406 303c c7a7 b63d
00000020: 9052 beba 0271 403c 2091 27bc 8931 8b3d
00000030: 4520 5e3e 900c 633a 084e 6fbd f4ef 3dbc
00000040: 3377 1dbc 97cf f9bc 13c6 643a a352 d1b9
00000050: e0ee 3e3c 2fab 2fbd 3dff 093e 6a74 dd3f
00000060: 584b 823b 2237 b0bc f874 babc e054 2f3e
00000070: 839b 9e3e 463d d0bc 21b1 8e3c ed08 bfba
00000080: 7c33 cb3c 569a 18bd f1cd 97bf c7ff f2bc
00000090: 7742 253f 12df c0ba f182 9ebd 8a99 8abe
000000a0: 4b74 93bc 0160 333e 7bd6 7f3e 769d d93e
000000b0: a8b6 22bc 0770 a63f b9ff ca3d 383d b93f
000000c0: 352d 8d3c 370b 3fbb 2642 6e3d 3f80 093c
000000d0: 7b0d bc3c eca8 b53e d936 edbc c13d 603c
000000e0: 73b1 473b b8d2 99bc 5ca3 1d38 50bf 78bf
000000f0: 5f2b 543b 8abf 013f 0d66 023e 2879 b6be
00000100: 212e b33e 7432 a7bb 606b 3cbb d913 c6b9
00000110: 3c79 1b3d dbbf 643c 3afb 9cbc eb73 c73c
00000120: 82b6 54bc a62c 98bd a1aa 0b3e bf5c 24bc
00000130: 79a8 c83b 79e6 fabc daa3 013d 243b 3f3d
00000140: 2e3d 9cbb 53d6 9fbb 5c5c 073a 367e 483f
00000150: 2614 e5bb f691 643c 728c 7c3b 5ce3 113d
00000160: 5fd2 c1bc 96c5 3b3e e300 0dbf 46e3 6a3e
00000170: 3eeb e23b 0f72 56bc 506d 133f 4212 3d3e
00000180: 7e00 7a3d af26 023d 27c3 fb3b c6a3 c83e
00000190: b1c1 1dbc 5913 c73d 2195 91bc 6226 43bf
000001a0: d752 17bb dd77 87bc 85a0 ecbc 946e 093c
000001b0: 4bb7 1b3f 493e 49bf 5292 8fbc 19a6 373c
000001c0: a532 91bc e616 e43c 11fb cc3f 0065 9abc
000001d0: 4471 2ebc f848 9bbf 5ced 703c defe cc3c
000001e0: f124 ddbe 0683 8abe 05c0 4c3c 80fb 613c
000001f0: 7716 2c3e 5fc2 dc3b 6bd9 483a 0566 19bb
00000200: 21ef 05be d006 4dbd 5428 b33f 61a8 a53e
00000210: 9a4c 983b 93fb 863c adbf 863c 198b 093d
00000220: 47f5 443a 4861 42bc d4ac 4d3b 28e1 82bd
00000230: af41 53bd 0f4d 23bd aae9 2fbc 4c24 9bbb
00000240: 9bff 85bd 446a 71bc c626 07bc 58b4 c3bc
00000250: 8974 f737 871a cdbb 7899 0d3f 5e57 86bc
00000260: bb04 b838 c11a 023c 6ef3 483c 869c e7bb
00000270: 81c0 eabc 8f14 07bd ddd9 063c 5f45 973c
00000280: 0cde 22bc a318 f5ba c28a d53e 01b7 213a
00000290: c636 a63b cd15 333b b58c 373d 9080 22bd
000002a0: 3e74 7abd fe22 403f 1684 e43d 0dc0 b2bb
000002b0: 0109 8fbb 1a2e ecbc 5b2a 263a 4fc9 8fbf
000002c0: 9711 983f d0d2 2d3c 83a3 acbb 9163 a8bb
000002d0: d3ae f5bc d049 8a3f 041d 7d3c eb23 133c
000002e0: 2ba1 e13e 5cfe da3b bc8d 88bb a7c4 9fbc
000002f0: 9ab1 18bf 9fde 833b c1cf a0bb bce0 243d
00000300: 3bbc 1bbb 082c 1e3c 38bc e03b 958a d83e
00000310: 7939 cc3c 562c fbbf b304 033e 9717 16bc
00000320: cb52 3c3a c608 9d3b 6c04 0e3d 5fd4 7ebb
00000330: d69b 103b 29f4 003c 7dc5 9bbf f7f8 07ba
00000340: 4a13 90bc e35f ebbb f39f 103c 70d3 25be
00000350: b48c 7a3c 2132 c1ba 9173 ea3b 43b6 f9ba
00000360: 1788 de3b 6d30 f23e 1753 123c 4750 163c
00000370: 0822 783c f444 653a 1505 ef39 84e9 6bbc
00000380: afe1 87bd 746c 163e 88ae 2b3b f3c0 aabb
00000390: 9b2f a33f 81d7 b13f f7a1 843c ec03 733c
000003a0: f68f 9d3a 59dc d63f 7960 cb3b bd11 5bbc
000003b0: 678b 1abc 436a 613d e278 ba38 6e9b 25bc
000003c0: 8136 7fbb ca57 e13b c7fc 0e3e 8b22 17bf
000003d0: ce66 23bb 3638 783b d788 7fbb 3215 30bc
000003e0: 7ac7 a03e b4cb 893e 6397 69b8 5f37 13bd
000003f0: bc82 53bc 9312 e53a 6b12 5fbf 7bf8 89be
0.019355323 0.011302196 -0.17130497 -0.026015608 0.001441241 -1.7873614 0.010743711 0.0891872
-0.0014520455 0.011745693 -0.010227472 0.067965575 0.21691997 0.0008661235 -0.058424026 -0.011592854
-0.009610939 -0.030494494 0.0008727025 -0.00039925156 0.011653632 -0.042887863 0.13476272 1.7301152
0.003976267 -0.021510664 -0.022760853 0.17122221 0.3097802 -0.025419842 0.017418446 -0.0014574804
0.024804823 -0.03725656 -1.1859723 -0.02966298 0.6455454 -0.0014714918 -0.07739819 -0.27070266
-0.017999789 0.17517091 0.24984162 0.42502946 -0.009931244 1.3002938 0.099120565 1.4471807
0.01723347 -0.0029150972 0.058168553 0.008392393 0.022955647 0.3548044 -0.028956817 0.013686598
0.0030470758 -0.018777236 3.7583857e-05 -0.9716692 0.0032374484 0.5068289 0.12734242 -0.3563931
0.3499613 -0.00510245 -0.0028750524 -0.0003778029 0.037957415 0.0139617575 -0.019162763 0.024347266
-0.012982966 -0.07430391 0.13639309 -0.010031878 0.006123599 -0.030627476 0.0316504 0.04668726
-0.0047680354 -0.0048778444 0.0005163604 0.7831758 -0.0069909273 0.013950815 0.003853586 0.035617217
-0.023659883 0.18337092 -0.5507948 0.2293826 0.0069250157 -0.013088717 0.5758867 0.18463996
0.061035626 0.031775173 0.007683176 0.3918745 -0.009628699 0.09720487 -0.017771306 -0.7623044
-0.0023090148 -0.016536647 -0.028885135 0.00838818 0.6082656 -0.78610665 -0.017525826 0.011209034
-0.017724345 0.02784295 1.6014119 -0.018846989 -0.010647122 -1.2131643 0.014705028 0.025023874
-0.43192247 -0.27053088 0.012496953 0.013792872 0.16805445 0.006737038 0.00076617923 -0.0023406756
-0.13079502 -0.050055325 1.3996682 0.32355025 0.0046478035 0.016477382 0.01644882 0.03357992
0.0007513356 -0.011864014 0.0031383531 -0.063906014 -0.051576313 -0.03986841 -0.010736862 -0.0047345515
-0.065428935 -0.014734808 -0.00824899 -0.023889706 2.949896e-05 -0.006259266 0.553123 -0.016399082
8.774685e-05 0.007940949 0.012265069 -0.0070682196 -0.028656246 -0.03297859 0.008230654 0.018465696
-0.009940635 -0.0018699359 0.41707426 0.00061689323 0.0050724475 0.0027326227 0.044811923 -0.039673388
-0.061146013 0.75053394 0.11158006 -0.005455023 -0.004365087 -0.028830577 0.0006338709 -1.123331
1.1880368 0.010609344 -0.0052685156 -0.0051388224 -0.02999059 1.0803776 0.015448812 0.0089807315
0.44068274 0.006683154 -0.0041672867 -0.01950295 -0.59646 0.0040243412 -0.0049075787 0.040253386
-0.0023763317 0.009654053 0.006858375 0.4229323 0.024929749 -1.9622905 0.12794761 -0.009160898
0.0007183968 0.0047923056 0.034672186 -0.0038883907 0.0022065542 0.007870712 -1.2169644 -0.000518694
-0.017587323 -0.0071830614 0.008827197 -0.16193938 0.015292335 -0.0014739671 0.00715489 -0.0019051511
0.0067911255 0.4730257 0.008930943 0.009174413 0.015144832 0.00087459316 0.0004558942 -0.014398936
-0.066348426 0.14689809 0.0026196558 -0.0052109896 1.2748903 1.3893892 0.016190512 0.014832478
0.0012021053 1.6785995 0.006206569 -0.013370928 -0.00943265 0.05503298 8.891687e-05 -0.010107858
-0.00389424 0.0068769203 0.13963614 -0.59037083 -0.0024933103 0.0037875301 -0.0038991475 -0.010747241
0.3140219 0.26913226 -5.569252e-05 -0.035941478 -0.0129095875 0.0017476849 -0.8713748 -0.26947388

gats.0.bias f4 [67]
00000000: 2281 aebc 3bae b6bd 4deb 00bc fb79 c1bc
00000010: 5660 48bc 3311 63bd a244 b9bd 6c7e ddbd
00000020: 1684 d3bc 2c5c 47b9 e13e b3bd 836f d3bc
00000030: cdd1 b1bd a04b 84bc defe d4bc a8e4 83bc
00000040: 2e18 51be 7b8b 09bd 41f1 79ba b832 3f3b
00000050: ae7e bbbc 54e5 9fbc c959 07be 8dae ebbd
00000060: d1bf a6bd 1c2f c5bc 1cd0 65bc d417 1cbe
00000070: 94c9 c2bd 4bb2 06be a714 3fbc ea8d 22bd
00000080: d304 e5bd 3605 08bc c671 3abd f60c a1bd
00000090: c006 0fbe e8ee 7fbc eed3 6ebc ffa2 8cbd
000000a0: dadd 27bc 9cb2 1f3b e432 6cbe 1bd6 61bd
000000b0: 3e75 99bb c50e 17be 3144 8fbd 5232 3cbe
000000c0: b11f d0bd 9b69 59bc 61b0 4cbe 8aea b1bb
000000d0: fa54 c7bc 406e 9fbd f590 90bd af62 b3bb
000000e0: f56e bd3a 1aa0 8ebd 4666 073c 7d8e aebb
000000f0: 8b68 c13a e5ab 5bbe 37e8 60bb fbaf 863d
00000100: 8e5b 13be ed5e 983a c857 833a
-0.02130181 -0.089199506 -0.0078686 -0.023617735 -0.0122299995 -0.055436324 -0.09046294 -0.10815129
-0.02581982 -0.00019012456 -0.087522276 -0.025810009 -0.086825944 -0.016149342 -0.026000436 -0.016100243
-0.2041938 -0.033580285 -0.0009534546 0.0029174518 -0.022887554 -0.019518532 -0.13217844 -0.11507902
-0.08142055 -0.024070315 -0.014026668 -0.15243465 -0.09511104 -0.13153951 -0.011662639 -0.03968612
-0.11182561 -0.008302024 -0.04551866 -0.078638 -0.13967419 -0.0156209245 -0.014576895 -0.068670265
-0.010245765 0.0024367934 -0.23066288 -0.055135828 -0.004683166 -0.14751728 -0.06995428 -0.1837857
-0.10162295 -0.013269807 -0.19989158 -0.0054295706 -0.024332512 -0.077847004 -0.07058898 -0.0054744105
0.0014452623 -0.06964131 0.00826413 -0.0053270445 0.0014755888 -0.21452291 -0.0034318098 0.06576534
-0.14390394 0.001162497 0.0010020668

gats.0.lin_l.weight f4 [335, 67]
00000000: 1039 0100 5443 0000 87e4 813b 7ef0 0200
00000010: b2ba bc3b e79d 0200 4510 0100 c1ff 0f3b
00000020: 6755 0080 44d9 0580 bdf8 0180 4031 0500
00000030: 1232 0180 16ff 0200 3308 0400 2650 0600
00000040: dae0 0580 448f 0380 71e8 08ba a69b 863c
00000050: 3076 0580 7985 70ba dc4c 833d faa2 42bc
00000060: 4c17 0380 44e5 0100 93ce 553c 0947 4bbc
00000070: daa2 09ba fedb 0180 3d56 0600 a76c 653b
00000080: 585b 0100 4508 d2ba 20c5 79bc de28 ba3b
00000090: a646 7c97 f811 11b3 a123 0300 f19f 0000
000000a0: 0ab0 0280 8acb 0200 ced0 313d f135 0000
000000b0: 0316 0080 93f1 0180 f031 0600 eb2f 0380
000000c0: 6e09 0680 fe5f 0000 5ca9 0200 692f 0580
000000d0: f29d 0300 244c 0380 7072 0300 ce6a 0000
000000e0: 377a 0200 e642 0500 94c8 0200 9c80 3d3d
000000f0: 0553 733b 7e9b 0200 0544 0180 2181 0200
00000100: 9cd8 0180 02dc 0000 136e a23b df6d 0300
00000110: 3c1f 0300 5f62 0439 886b 0680 d54f bfbc
00000120: ed21 0300 c24d 0600 0779 783c a3e3 0500
00000130: 5aae 0500 c76f 0200 93c8 0080 850e 0200
00000140: 0a38 0200 53f6 0000 de51 0000 e00e 0600
00000150: a4a5 0480 7349 fe3c 4577 033d b772 0600
00000160: 3acd 3ebc c2c2 f6bc 5573 de3b 961e 0080
00000170: 51fe 0580 44ba 2b3c 06fa 9838 d0d4 92bc
00000180: c5dd 0280 051b 0000 5b26 0e3d b639 0480
00000190: cdc1 2abd d458 c63b ff2d 7cbc 20b6 8398
000001a0: bae1 1bb8 ba4b 0600 3a97 0280 080a 0300
000001b0: 1a8c 0080 ad23 043b 9efd 0380 10e7 0200
000001c0: 217e 0080 e9c7 0200 fbef 0500 485f 0180
000001d0: 1c70 0000 dcd2 0400 8137 0600 5464 0080
000001e0: 740e 0380 93a9 0180 f166 0200 3880 0280
000001f0: 3bd9 0100 3d83 0480 2b29 323c d3e7 3f3b
00000200: 82a9 0000 98b9 0300 949f 0380 bbdb 0200
00000210: dfe1 0280 d7eb 2e3c 7b38 0600 6c52 0080
00000220: 685d 933d d2fa 0500 fbf8 943c fa41 0380
00000230: 39bb 0080 6af9 7d3d 6bce 0200 3aa2 0480
00000240: 8970 0280 f707 0180 8f9b 0080 915b 0180
00000250: 8ea1 0100 439b 0300 4ff6 0200 bdaf 0380
00000260: 58d4 d83c b668 b5bd 1f00 0300 4b4d 803d
00000270: c30d bfbd 9daf db3b 0dbc 0400 1e2c 0180
00000280: dc1a 08be 84b6 cf3d 0726 a4bb 3134 0080
00000290: 1999 0480 533d e3bd de6b 0100 5353 bb3b
000002a0: a5bf f03b 3578 a9bc 4e72 a5ba 0b7b 053c
000002b0: 6223 0280 15d3 0200 47a4 0400 778b 0380
000002c0: a054 52bd 202d 0100 a4dd 0180 36e4 0180
000002d0: bfa3 0100 626a 0080 f31b 0580 d487 0200
000002e0: 0076 0000 0fa6 0200 a053 0300 792f 0200
000002f0: aaa7 0280 521b 0280 6934 0200 7df1 0580
00000300: b957 0100 7bd2 86bd 312f b8bc 2c6d 0380
00000310: 0b29 0200 cf69 0500 b56b 0100 bd1f 0180
00000320: 2bfd 313b 4e16 0180 085f 0480 aec5 313b
00000330: 6d46 0080 302e aabc d11e 0200 e3f8 0500
00000340: ed13 3e3c 3e64 0680 26a9 0380 6c6a 0000
00000350: c549 0480 98a4 0100 bf5f 0080 7288 0300
00000360: 95cd 0500 0408 0100 6a70 0000 95a7 853d
00000370: 4a84 e7bc bdda 0080 7f2b 823b 666c 0dbd
00000380: 2f0d de3b f1ac 0280 3c28 0000 7381 98bc
00000390: 1f4b e73b e496 0638 ae70 0600 ee37 0000
000003a0: bf68 e6bc f357 0100 6546 4e3b 4322 5a3c
000003b0: 8fd7 af3b 046d d519 1a63 7633 0461 0300
000003c0: 0f67 0380 4436 0080 a982 0180 2989 2d3c
000003d0: d9cd 0500 c108 0180 9383 0080 cd2a 0080
000003e0: ccc4 0080 e540 0380 ce22 0380 0120 0100
000003f0: f2e0 0480 7e6f 0200 a131 0280 ca1f 0380
1.12306e-40 2.4153e-41 0.00396401 2.69943e-40 0.0057595605 2.40316e-40 9.7672e-41 0.002197251
-3.0637e-41 -5.37118e-40 -1.81066e-40 4.76845e-40 -1.09797e-40 2.75179e-40 3.70283e-40 5.79765e-40
-5.39839e-40 -3.269e-40 -0.0005222625 0.01643164 -5.01575e-40 -0.00091751624 0.06411144 -0.011879677
-2.83864e-40 1.7408e-40 0.013049739 -0.012407073 -0.0005250402 -1.70754e-40 5.8195e-40 0.0035007389
1.24603e-40 -0.0016024193 -0.015244752 0.0056811413 -8.151476e-25 -3.3776786e-08 2.88288e-40 5.7376e-41
-2.46822e-40 2.56687e-40 0.043412022 1.935e-41 -7.896e-42 -1.78496e-40 5.68927e-40 -2.92696e-40
-5.54396e-40 3.4436e-41 2.44426e-40 -4.76185e-40 3.32167e-40 -3.0282e-40 3.16559e-40 3.8314e-41
2.27513e-40 4.83176e-40 2.55625e-40 0.04626523 0.003712834 2.39451e-40 -1.16236e-40 2.29994e-40
-1.6954e-40 7.8924e-41 0.0049569695 3.14921e-40 2.86711e-40 0.00012625147 -5.89588e-40 -0.023353497
2.87677e-40 5.78907e-40 0.015165574 5.40838e-40 5.21723e-40 2.23769e-40 -7.1952e-41 1.8888e-40
2.03774e-40 8.8364e-41 2.9368e-41 5.56349e-40 -4.26763e-40 0.031040883 0.032096166 5.92165e-40
-0.0116456095 -0.030122165 0.006788651 -1.0972e-41 -5.50409e-40 0.010481421 7.294495e-05 -0.017923743
-2.63227e-40 9.693e-42 0.034704547 -3.88045e-40 -0.04168873 0.0060530696 -0.015391826 -3.4046606e-24
-3.7165104e-05 5.78179e-40 -2.37921e-40 2.79105e-40 -5.0259e-41 0.0020162866 -3.66487e-40 2.6656e-40
-4.5247e-41 2.55385e-40 5.45266e-40 -1.26016e-40 4.0217e-41 4.42984e-40 5.70924e-40 -3.5991e-41
-2.80691e-40 -1.52667e-40 2.206e-40 -2.29667e-40 1.69763e-40 -4.14421e-40 0.010874073 0.0029282465
6.0808e-41 3.42085e-40 -3.32752e-40 2.62495e-40 -2.64698e-40 0.010676346 5.71274e-40 -2.9567e-41
0.0719555 5.49155e-40 0.01818513 -2.99174e-40 -6.7163e-41 0.062005438 2.5772e-40 -4.25538e-40
-2.24041e-40 -9.4693e-41 -5.5804e-41 -1.24683e-40 1.4979e-40 3.31204e-40 2.7203e-40 -3.3855e-40
0.02646844 -0.08857863 2.7555e-40 0.062647425 -0.09328797 0.0067042843 4.34802e-40 -1.07662e-40
-0.13291496 0.10142234 -0.005009416 -1.8723e-41 -4.22263e-40 -0.11095681 1.30531e-40 0.00571672
0.0073470646 -0.020687202 -0.0012622566 0.0081470115 -1.96364e-40 2.59393e-40 4.26274e-40 -3.25537e-40
-0.051350236 1.08023e-40 -1.71345e-40 -1.73702e-40 1.50577e-40 -3.8163e-41 -4.69204e-40 2.32397e-40
4.233e-41 2.43242e-40 3.05505e-40 2.00701e-40 -2.43818e-40 -1.93472e-40 2.02472e-40 -5.45807e-40
1.23304e-40 -0.06583115 -0.02248344 -3.1467e-40 1.98394e-40 4.97134e-40 1.30473e-40 -1.03221e-40
0.0027158957 -9.9837e-41 -4.01433e-40 0.0027125883 -2.5264e-41 -0.020773977 1.94726e-40 5.48461e-40
0.01160143 -5.86973e-40 -3.36186e-40 3.8177e-41 -3.93806e-40 1.5088e-40 -3.4347e-41 3.24454e-40
5.32926e-40 9.4711e-41 4.0327e-41 0.06526104 -0.028261323 -7.8469e-41 0.0039724703 -0.034527205
0.006776474 -2.4571e-40 1.4433e-41 -0.018616414 0.0070585157 3.2088617e-05 5.91435e-40 2.0064e-41
-0.028126119 1.23386e-40 0.0031475064 0.013313833 0.0053662728 2.2067715e-23 5.736647e-08 3.10309e-40
-3.12477e-40 -1.9467e-41 -1.38708e-40 0.010591784 5.33022e-40 -9.4976e-41 -4.72e-41 -1.5354e-41
-7.0597e-41 -2.98786e-40 -2.87992e-40 1.03316e-40 -4.48037e-40 2.23667e-40 -2.01474e-40 -2.8691e-40

gats.0.lin_l.bias f4 [335]
00000000: f62c 29bd 8df3 96bd 5ad1 7dbb 9d14 dabc
00000010: 5056 17bd aa0b 6f3d ddf4 e93b aafc f5bd
00000020: e92a e8bc 9356 dabc c1d4 b3bd 89d3 30bd
00000030: e9fd 21bd b882 58bc b5ff 23bd 4c47 28bd
00000040: 711d 47be ff74 28bd 31ee bfbc 9445 dabc
00000050: 234a 37bd ce70 62bd b2ce 19be f40e 183e
00000060: 7c5d 49bd bd53 1fbd c59c 16bd da2e 85bd
00000070: 8bf4 483d 443d 81bd a332 12bd f626 77ba
00000080: 2e45 0fbe 9ab7 04bd 32e7 cc3d 2d9c 4abd
00000090: 62d8 193e b752 0abd 1ef7 53bd 98b3 993d
000000a0: 6380 2abd 12a1 c6bc 382e 533c 4628 163e
000000b0: 830a 7abc b2e0 b03e 3b01 f2bd b414 643d
000000c0: a3fa c3bd 6297 e1bc f421 ddbd 7e9c 3abd
000000d0: 0c50 12bd a73c 1c3d 81a9 4abd 84e6 eebc
000000e0: a955 6abc fd18 adbd a6d5 04bd 85a7 aabc
000000f0: 5000 82bc 3316 30be 0e11 19bd ec11 993c
00000100: 0400 b7bd f146 8ebc 2c8c d0bc 6d71 3bbd
00000110: 781a 09bd 27dd c5bc 23fa 0ebd cc74 2abd
00000120: a790 89bc 9e2a 53bd cffe 343c ec61 17bd
00000130: c4b1 efbc 2472 d8bc f8ed 37bd 1d7b 29bd
00000140: c27e 74bc 67a8 38bd 6db9 29bd 2475 d83b
00000150: ce5a 51bd 31be ccbc 9e4b e1bc 1545 4cbd
00000160: 94d7 2ebd 92aa 733c 269d 89bc d41f fbbd
00000170: f39b 3ebd 9528 1cbd 863d 94bd f6c4 a2bd
00000180: d8cf cabd 6f74 2dbd a1c7 27bc c493 8bbc
00000190: 8cdf 11bd 0633 54bd 7177 54bd 6337 293e
000001a0: 4019 25bd 2100 09bd b139 d73b 95f7 34bd
000001b0: 38d1 4a3d 3c1f e3bc 3c8d 26bd 21e7 aebc
000001c0: feb8 8dbd a82f 67bd f4b4 a83c 7a4d 523c
000001d0: 97a9 d2bc 85e6 f93b 65fa 3cbd ade3 20bd
000001e0: 6d1d a2bc 0eeb 6dbc 44ab 07bd fc7b 9ebc
000001f0: 2389 eebd f1cd 11bd 1966 30bd 304a a2bc
00000200: 64ab cbbd ac05 2bbd d9a9 363e 6850 94bc
00000210: 1d19 bdbc f551 eabc 37f7 26bd c0a1 12bb
00000220: 9288 9ebc 4817 febc 4826 10bd 08eb 9bbd
00000230: 610b 6dbd 8f6b ddbd 899b bcbc 0f1e 01bd
00000240: 855d 95bd 764e 3bbd d18d 5fbd 8df4 b1bc
00000250: 29cc 1bbd 85db 17bd f79a 64bc 8f5d 3ebd
00000260: 3906 a9bc 23df c8bc 05e1 4abd 0605 33bd
00000270: f2ad fabd 13e7 98bd 3677 02be e6f2 45bd
00000280: d638 f0bc f029 fcbd eec1 cebc d572 0abe
00000290: 2c92 1fbd 9d4e 46bc 40ae e6bd 9d95 fcbc
000002a0: bded 0cbd 7f01 6e3e 97ff 75bd a4ed 11bd
000002b0: 3b26 03bd 1546 8aba ee15 17bd 5a72 a23d
000002c0: a8b5 ee3d 8d2f ffbc dde8 6cbc 9baf 84bd
000002d0: 7ec1 d1bd a86a 2f3d df01 f8bc d05c f5bc
000002e0: 4a7c 2dbd 61fe 2abd 8166 10bd dbbc a7bd
000002f0: ed73 133d cf30 cfbc b2c7 90bc 335e afbd
00000300: 15dd 06bd c58e 28bd 3bb1 94bc db2a 0dbe
00000310: 6067 42bd e85b 303e 1368 adbd 179a aebc
00000320: 69a3 d2bc a9dd 32bd 69e3 75bd 4f01 a0bc
00000330: a7f6 08bd ee08 25bd a03a 29bd 9247 0fbc
00000340: ce08 babd 435e f5bc 8dfe 02bd a798 99bb
00000350: 743e 38bd 223e 4abd dc1b a6bc 107c 34bd
00000360: 4018 35bd 1ef0 bdbd 75f1 45bd 34b4 a7bc
00000370: 9432 fcbc 8934 42bd 65fb 29bd 45e3 f0bd
00000380: 4790 1dbe 351c ecbd 4553 4cbd d850 1abd
00000390: 50b8 63bb c888 85bd d77d 0cbe f7e8 2cbd
000003a0: 4922 18bc 82ee c43c 87d0 0ebd c7bf f0bd
000003b0: 703a 50bd 92eb f4bd a90a 37bd 3a6a 0fbd
000003c0: 3753 d3ba d383 02bd 2de9 a23c d149 ecbd
000003d0: 9703 fbbc 367a a4bc 89a2 8ebd 7d5c b4bd
000003e0: f201 26be 580b 003c e89a ddbc d380 08be
000003f0: 57de 41bd 3032 33bd da90 2b3c dbc1 54bc
-0.041302644 -0.073706724 -0.003872952 -0.026621157 -0.03694755 0.058360733 0.0071397857 -0.120110825
-0.028340774 -0.02665261 -0.08780814 -0.043170486 -0.03954879 -0.0132147595 -0.040038783 -0.04108362
-0.19444825 -0.0411272 -0.023429008 -0.026644506 -0.044748437 -0.05528336 -0.15020254 0.14849454
-0.04916142 -0.03889822 -0.0367706 -0.06503077 0.04906134 -0.063105136 -0.035692822 -0.0009428108
-0.13991234 -0.03240166 0.100050345 -0.049465347 0.1502395 -0.03377029 -0.05174934 0.07504958
-0.041626345 -0.024246726 0.012889437 0.146638 -0.015261295 0.3454643 -0.11816641 0.055683807
-0.095692895 -0.027538005 -0.10797492 -0.0455594 -0.03572087 0.03814378 -0.049478058 -0.029162653
-0.01430265 -0.08452032 -0.032430314 -0.020831833 -0.01586929 -0.17195968 -0.03736978 0.018685304
-0.0893555 -0.017367812 -0.025457464 -0.045762468 -0.03347251 -0.024153305 -0.034906518 -0.041615292
-0.016792608 -0.051554315 0.011047079 -0.03695862 -0.02925957 -0.026421614 -0.04490468 -0.041377176
-0.0149228 -0.045082476 -0.0414366 0.006605761 -0.05111199 -0.024993034 -0.027501877 -0.04987057
-0.04268606 0.01487221 -0.016798567 -0.1226193 -0.046535444 -0.03812464 -0.07238297 -0.079477236
-0.09902924 -0.042347368 -0.010240466 -0.017038234 -0.03561358 -0.051806472 -0.05187172 0.16525035
-0.040307283 -0.03344739 0.0065681566 -0.044181425 0.049515933 -0.027724855 -0.040662035 -0.021350445
-0.0692005 -0.056441933 0.020594098 0.012835855 -0.025715632 0.007626357 -0.046137232 -0.03927963
-0.019789422 -0.014521373 -0.033122316 -0.01934623 -0.116472505 -0.03559679 -0.043066118 -0.019810766
-0.099447995 -0.041753456 0.17838229 -0.018104747 -0.023083264 -0.028603533 -0.040763106 -0.0022374243
-0.019352231 -0.03101696 -0.035192758 -0.07613188 -0.05787218 -0.10811531 -0.023023384 -0.031522807
-0.07293228 -0.045729123 -0.054578606 -0.021723056 -0.0380365 -0.037074585 -0.013952962 -0.046475943
-0.02063285 -0.024520462 -0.049531 -0.043705963 -0.12240209 -0.07465949 -0.12740788 -0.04832735
-0.029323976 -0.123126864 -0.025238957 -0.13520367 -0.03895776 -0.012103704 -0.11263704 -0.03083306
-0.034406412 0.23242758 -0.060058203 -0.035627022 -0.03201888 -0.001054945 -0.03688615 0.07931967
0.11655742 -0.031150604 -0.014459816 -0.064788066 -0.10241984 0.042826325 -0.03027433 -0.029951483
-0.04235486 -0.0417465 -0.035254005 -0.08190318 0.035999227 -0.025291828 -0.017673347 -0.08562889
-0.032925684 -0.04115178 -0.018150916 -0.1378588 -0.047461867 0.1722256 -0.08467116 -0.02131371
-0.025712686 -0.043668423 -0.06003133 -0.019531874 -0.03343835 -0.04029172 -0.041315675 -0.008745091
-0.090837106 -0.029952174 -0.03198104 -0.004687387 -0.044981435 -0.04937566 -0.020276956 -0.044063628
-0.04421258 -0.09274314 -0.048325974 -0.02047167 -0.030785836 -0.047413383 -0.041499514 -0.11762098
-0.15387069 -0.115288176 -0.0498841 -0.037674755 -0.003474731 -0.065202296 -0.13719879 -0.04221436
-0.009285518 0.02403951 -0.034866836 -0.117553286 -0.05083698 -0.11958994 -0.0446879 -0.035013415
-0.0016122822 -0.031864 0.019886578 -0.11537517 -0.03064136 -0.020077806 -0.06964595 -0.08806703
-0.1621168 0.007815205 -0.027051404 -0.13330393 -0.04733118 -0.043749034 0.010471547 -0.012985672

gats.0.lin_r.weight f4 [335, 67]
00000000: 6a0f 0080 3e51 0100 5053 a43c 4aec 0280
00000010: 92e4 7d3c 3311 0100 9025 0180 5229 2e3b
00000020: 4424 0300 051b 0380 8c13 0380 9e41 0500
00000030: 759c 0580 cdb0 0100 ea9b 0180 6c86 0180
00000040: 7c29 0000 70bd 0580 0d83 363c c7b8 0b3d
00000050: 9de8 0480 8966 40bc 4dc4 feba bb09 a03b
00000060: 55a7 0200 24d3 0080 8a83 c0ba f25d 8c3c
00000070: 45ec ad36 e33f 0500 d1e8 0280 7922 10ba
00000080: 1c09 0100 947d 7ab8 6533 9c39 b0ed ddbb
00000090: 9291 0300 cee1 0480 440e 0200 687b 0180
000000a0: 2203 0180 0840 0100 6c23 f7bb 01a7 0200
000000b0: 7f22 0380 3c7b 0200 56ae 0280 86a6 0080
000000c0: 98c5 0200 5f4b 0000 ce2c 0400 ed1b 0280
000000d0: 7442 0380 67a7 0200 2425 0300 41af 0200
000000e0: 3d8c 0000 7fac 0580 4916 0100 7f1b 27bc
000000f0: 40cd a4b9 1bc3 0100 574b 0100 3d83 0380
00000100: 1e14 0180 ee1f 0380 bd31 ec39 b8d3 0180
00000110: 01b5 0280 8260 1fb9 d667 0480 a315 00b8
00000120: 46fa 0400 010d 0080 47b7 0000 5db1 0480
00000130: fbad 0100 5ff5 0100 5428 0100 967c 0180
00000140: 9c9f 0300 eda7 0300 8b69 0180 1432 0380
00000150: 1c29 0000 f443 6b38 9f41 903a e021 0200
00000160: 61c6 0000 a0e9 a2b9 c895 063c 8bde 0080
00000170: d58a 0080 93aa 1a38 dd69 523b 4abe 0238
00000180: 0a8d 0480 77a8 0280 ebf6 25b9 6b35 0000
00000190: b616 d537 c126 b436 4f41 22ba a22a 12ae
000001a0: 755b 40ad 85c9 0680 c20c 0200 5302 0480
000001b0: 70ae 0080 0f4f 83b5 e98f 0680 825d 0380
000001c0: d3f1 0100 cc14 0080 a8fd 0280 985d 0100
000001d0: 66fb 0000 f7d9 0580 e68d 0000 b93d 0180
000001e0: d6cd 0400 c1ce 0200 8a26 0200 c845 0080
000001f0: 6c63 0500 f075 0180 6c89 c2b3 739c 2937
00000200: 98d1 0280 7dd2 0280 c956 0580 ac9d 0300
00000210: 0661 0380 ba4b a838 87e3 0100 98e6 0200
00000220: 640b 28bc 040d 0180 759a 89bb b97a 0400
00000230: 3dde 0400 4e20 81b8 829b 0180 844e 0000
00000240: dd9e 0380 8a81 0080 20c9 0200 5b50 0380
00000250: be69 0400 0404 0680 0131 0500 81a6 0200
00000260: 2130 e4bc ce61 e03c 5db3 0300 89a2 153a
00000270: 07e0 2abb 8c96 513b 2f27 0300 3912 0180
00000280: bc3e c23c 5453 7d3c 8d3f 8dbc 8ac7 0000
00000290: b875 0000 8e4b 1bbb 5be6 0200 bfed 233b
000002a0: 0e5e c7bc ba4d 4b38 94ac 80ad 38cd bf38
000002b0: d8c4 0380 f027 0180 a043 0380 cf20 0300
000002c0: f37b 9e3c b387 0400 ffa9 0580 394f 0200
000002d0: e90b 0280 962c 0180 4a42 0580 3f71 0380
000002e0: 82b5 0200 3a58 0100 bc76 0300 e0ef 0100
000002f0: 781a 0180 916c 0180 cb4e 0500 503c 0600
00000300: fcec 0100 c7db 1f3d e31d 18bb f681 0080
00000310: 8105 0600 5cf1 0000 921d 0080 96dd 0400
00000320: c9ac caba 0402 0280 0498 0300 b345 1d3c
00000330: 2165 0300 b907 523b 2ddc 0400 65cf 0200
00000340: 196f 5c3b 1c42 0100 9187 0300 17b9 0380
00000350: c684 0400 a35e 0200 e6ba 0280 231b 0180
00000360: 83c1 0180 c079 0300 ef3a 0080 ce94 1d3b
00000370: 9b10 0f3c f446 0100 82ee 333a 39db 85bc
00000380: da2b 6dbb ebe7 0080 8e59 0100 e292 7539
00000390: edb3 523b f353 c0b6 5c8a 0380 22e5 0500
000003a0: ab9d 8a38 a45f 0180 3cca 81b9 c102 3739
000003b0: 013d 6f3b b1cc 71bb 85bb 48bb 0fda 0280
000003c0: 0ae6 0080 cf01 0680 afed 0280 644d 9a3a
000003d0: 5242 0080 4bb0 0480 67a7 0380 8e5b 0300
000003e0: f076 0280 a0c8 0500 1cb0 0280 9267 0100
000003f0: c31f 0200 a799 0280 423b 0300 b4aa 0280
-5.53e-42 1.2098e-40 0.020059258 -2.68436e-40 0.01549639 9.8005e-41 -1.0531e-40 0.0026574922
2.88516e-40 -2.85199e-40 -2.82519e-40 4.82716e-40 -5.15304e-40 1.5526e-40 -1.47767e-40 -1.40057e-40
1.4882e-41 -5.27135e-40 0.011139643 0.034111764 -4.50788e-40 -0.011743196 -0.0019437164 0.0048839725
2.43698e-40 -7.5743e-41 -0.0014687639 0.01713464 5.183307e-06 4.82096e-40 -2.6719e-40 -0.0005498301
9.5103e-41 -5.97216e-05 0.0002979293 -0.0067727193 3.27727e-40 -4.48345e-40 1.88789e-40 -1.36105e-40
-9.296e-41 1.14806e-40 -0.0075420644 2.43581e-40 -2.87881e-40 2.27879e-40 -2.46211e-40 -5.9737e-41
2.54554e-40 2.7038e-41 3.83415e-40 -1.93689e-40 -2.99345e-40 2.43724e-40 2.8883e-40 2.4654e-40
5.0308e-41 -5.21057e-40 9.983e-41 -0.010199427 -0.0003143344 1.61826e-40 1.18862e-40 -3.22586e-40
-9.9052e-41 -2.86961e-40 0.00045050486 -1.67786e-40 -2.48603e-40 -0.00015199374 -4.04591e-40 -3.053773e-05
4.57123e-40 -4.665e-42 6.5748e-41 -4.30968e-40 1.54248e-40 1.79858e-40 1.06303e-40 -1.36529e-40
3.32764e-40 3.35747e-40 -1.29697e-40 -2.93471e-40 1.4747e-41 5.6091652e-05 0.0011005885 1.95823e-40
7.1165e-41 -0.00031073112 0.008214422 -7.9833e-41 -4.9804e-41 3.687532e-05 0.0032106556 3.1171636e-05
-4.17937e-40 -2.44105e-40 -0.0001582761 1.9163e-41 2.5402154e-05 5.3689296e-06 -0.00061895413 -3.3234422e-11
-1.0934244e-11 -6.23305e-40 1.88248e-40 -3.68176e-40 -6.2576e-41 -9.78327e-07 -6.02638e-40 -3.09051e-40
1.78586e-40 -7.46e-42 -2.74666e-40 1.2541e-40 9.0185e-41 -5.37369e-40 5.0904e-41 -1.13977e-40
4.41182e-40 2.5784e-40 1.97496e-40 -2.5033e-41 4.94843e-40 -1.34143e-40 -9.058826e-08 1.0109611e-05
-2.58859e-40 -2.5918e-40 -4.9031e-40 3.32068e-40 -3.10312e-40 8.0249694e-05 1.73457e-40 2.66392e-40
-0.010256622 -9.6505e-41 -0.004199321 4.11367e-40 4.47066e-40 -6.1572166e-05 -1.47621e-40 2.8166e-41
-3.32496e-40 -4.647e-41 2.55821e-40 -3.04333e-40 4.05275e-40 -5.52454e-40 4.76757e-40 2.43401e-40
-0.02785498 0.027390387 3.3985e-40 0.00057081186 -0.0026073472 0.0031980602 2.89563e-40 -9.8373e-41
0.023711555 0.0154617615 -0.017242217 7.1581e-41 4.223e-41 -0.0023696157 2.66307e-40 0.0025013534
-0.024336841 4.847136e-05 -1.4628555e-11 9.145815e-05 -3.46121e-40 -1.06162e-40 -2.99766e-40 2.87276e-40
0.019346213 4.16022e-40 -5.2016e-40 2.12091e-40 -1.87944e-40 -1.0783e-40 -4.82958e-40 -3.16132e-40
2.48784e-40 1.23485e-40 3.181e-40 1.77886e-40 -1.0133e-40 -1.30782e-40 4.87443e-40 5.72649e-40
1.7685e-40 0.039027955 -0.0023211173 -4.6621e-41 5.52987e-40 8.6583e-41 -1.0608e-41 4.46832e-40
-0.0015462871 -1.84394e-40 3.3004e-40 0.009599137 3.11785e-40 0.003204806 4.46326e-40 2.5807e-40
0.0033635555 1.15551e-40 3.24139e-40 -3.41904e-40 4.14972e-40 2.1762e-40 -2.50718e-40 -1.0157e-40
-1.61254e-40 3.19182e-40 -2.1141e-41 0.0024044993 0.008731986 1.17289e-40 0.00068638485 -0.016339885
-0.0036189468 -8.3196e-41 1.23962e-40 0.00023419739 0.00321507 -5.731819e-06 -3.2514e-40 5.41375e-40
6.609721e-05 -1.26145e-40 -0.00024755474 0.00017453266 0.0036504867 -0.0036895687 -0.0030629348 -2.61896e-40
-8.2522e-41 -5.51662e-40 -2.68936e-40 0.0011772332 -2.3791e-41 -4.30584e-40 -3.35559e-40 3.0835e-40
-2.26338e-40 5.31148e-40 -2.46847e-40 1.2899e-40 1.95065e-40 -2.38791e-40 2.96764e-40 -2.44908e-40

gats.0.lin_r.bias f4 [335]
00000000: d23b 3b3c 9b52 db3a 4d30 d73d 5dfd 2a3b
00000010: 1e77 3fbb 460d bf3e b24a 3cbc 38fb 2a3b
00000020: ecd1 c2bb 770c 433c 0e43 8dbc 4b72 423d
00000030: 7571 173d d02a 14bc 0e7f 4a3d c62a 8dbb
00000040: 7e88 d7bc f747 003d 9b2f cdbb b738 36bb
00000050: f0c9 02bc acbd 1ebc a022 5b3c 0647 ab3e
00000060: a638 02bd 8461 ba3c 845c d2bc 7b75 413d
00000070: f9ed 063d 71f3 c6bc 821c 22bc 19f7 18bc
00000080: af9f 14bd 8d20 a5bc 87a5 cd3e 3361 363c
00000090: 162b fb3d 1dd7 c73b 143b 5dbd 5d95 633d
000000a0: c00d 8cbc 2783 e23b 9758 a33c c4bb 7b3d
000000b0: 61d2 253c 00e2 033e 1671 9fbb 56b0 b83e
000000c0: 14e4 7ebc 3bef 2dbc c6f6 763d e4f2 d5ba
000000d0: ca04 a3bc 09c6 8e3d a4ce d9bc ea77 1dbc
000000e0: 750b 4bbb 105f 0fbc 303f 153a 15ed b63e
000000f0: 324a 0dbb b8da a63c 4968 073e cb4d 4c3e
00000100: 440b 0c3d 776e 893a 02fa 2839 fab3 36bb
00000110: 65cc 513d 673c 67bc 3edc 99bc 1b1f ccbc
00000120: 1272 22bb db27 3cbd b1e6 b43c a9d3 85bc
00000130: df79 f9bb 9481 50bd dda0 38bc 5bac aabc
00000140: 3155 bc3b 936c c7bb f540 dc39 46af 8f3e
00000150: a044 a8bc b1d3 a1bc 1343 7dbb 82a8 73bc
00000160: 2412 26bd 8bec a1bb 069b 273e 5704 273d
00000170: 7b6d 42bc 542d 923c 056e c73d 4515 833d
00000180: 2650 853c be06 c6ba 93ba e5bb 541b fd3a
00000190: 0b99 85bc b903 993c 51d6 81bb 814d 9c3e
000001a0: 2d48 88bb 16d8 4b3c cf0c 8c3a 19b1 ddbc
000001b0: a930 233e 5f5f 6a3e 82ee 063d 6d7e 45bb
000001c0: 3843 55ba bb4f 81bc b061 fb3e 14be 35bd
000001d0: 9793 0a3b a140 9f3e 47a2 d1bb 9dd1 2cbc
000001e0: a8f5 2e3e 9228 b73d 14f8 a2bb 952b 49bb
000001f0: 7ceb 85bc 0e96 3d3b e4a6 443b 0e33 a8bb
00000200: 90fe 22bd eaad c23c 0749 b43e b093 2c3d
00000210: 939c 3d3b a364 3839 20a8 7abc 6cd0 bebc
00000220: 6ac1 b73c bddf 0cbc 2e82 86ba d7ed c9bc
00000230: a241 10bd 7ccb 30bd 9de9 8ebb 0c79 04bc
00000240: fb9e fe3b 5309 60bc ae89 99bd d623 76bc
00000250: 8258 d7bc 8146 333b cc3e 1d3e cf22 aa3b
00000260: 86a8 babb 75b2 57bb a619 d2bc 06e3 82bc
00000270: 2b57 22bd a569 acbb a2cd 6a3b fadc b9bc
00000280: b267 993b ea89 59bd 6d57 393d 4c0f bfbc
00000290: 7749 5abb 3b15 2fbc 62b3 563c 190b b8bc
000002a0: 9d0c 32bd 5633 9f3d c83a f13c 02f7 0b3c
000002b0: 9241 03bd 7aa6 813d 9141 63bb 5ce9 b93e
000002c0: 88e7 5c3e a0ae a7bc f2c7 3b3a 60e5 88bb
000002d0: 4222 2fbd dad3 8b3e 7aa7 00bc 7977 8abc
000002e0: 53c3 9f3d 9969 1e3d 8064 eebb 30b3 e4bc
000002f0: baf8 2f3e a17f b7b9 2fd7 afbc 851f f4ba
00000300: ac09 86bb 2c0f 63bc e803 aebc a96a 323e
00000310: 8501 00bd d955 dc3e cc93 f73c 295c 4cbc
00000320: 2438 f0b7 2a87 4cbb f1fb 66bc f67a 79bc
00000330: b0b0 02bc 0cd2 01bc 5c81 a73d 659a 9b3c
00000340: 4e77 6cbd 8223 7d39 2db4 9ebb fed2 bcbc
00000350: 588e 8dbc 5af3 16bd 937e b03b 79ac f9bb
00000360: c631 113c 4ced 163e 0721 b2bb 130a 003d
00000370: ffad 18ba 2a88 7cbc 3bac 7abc d63b 38bd
00000380: 1f06 a4bb e747 b1bc 5254 59bc 392d 5ebc
00000390: b667 c03e 06c4 2a3e f4ee e3bc fab2 2bbc
000003a0: 3c5e 553d a4af de3d 591a 173c a845 aebd
000003b0: b668 5b3b b1d9 24bd 2931 24bc 1e38 6c3c
000003c0: 501a d83c 5034 d83c f236 1fbb 109e 523e
000003d0: df89 74bb 30ee a9ba 750f 87bb 335f bebd
000003e0: a578 8c3d 17a9 963b 6874 a7bb 6878 9dbc
000003f0: 4481 68bb 5fdc abbb 1909 953e 72bf 0dbd
0.0114278365 0.0016732992 0.105072595 0.0026090958 -0.0029215286 0.37314814 -0.011492418 0.002608968
-0.005945435 0.011904827 -0.017243888 0.04747228 0.036973435 -0.00904341 0.049437575 -0.0043080775
-0.026310202 0.03131863 -0.0062617785 -0.00278048 -0.007982716 -0.009688776 0.013374954 0.33452624
-0.031792305 0.022751577 -0.02567888 0.04723118 0.032941792 -0.024286004 -0.009894492 -0.009336256
-0.0362851 -0.020157123 0.4016535 0.011131573 0.12264077 0.0060986415 -0.05401142 0.055562366
-0.0170964 0.0069126072 0.019939704 0.061458364 0.010120959 0.12879181 -0.004865776 0.36072034
-0.015557308 -0.010616119 0.060293935 -0.0016322997 -0.019899745 0.06971366 -0.026587792 -0.009611109
-0.003098217 -0.008750692 0.00056933146 0.35727754 -0.0021559116 0.020367965 0.13223375 0.1995155
0.03419043 0.0010485192 0.00016114864 -0.002787827 0.051220316 -0.014113522 -0.018781777 -0.024917176
-0.002478723 -0.045936447 0.022082658 -0.016336279 -0.007613405 -0.050904825 -0.011268822 -0.020834139
0.0057474603 -0.006085941 0.00042010067 0.2806341 -0.020540535 -0.019754263 -0.0038644716 -0.014871718
-0.040544644 -0.004941528 0.1636773 0.040775623 -0.0118669225 0.01784388 0.097377814 0.06400541
0.01627357 -0.001510821 -0.007010767 0.0019310513 -0.016308328 0.018678533 -0.003962316 0.3052788
-0.0041589946 0.012441656 0.001068497 -0.027061986 0.15936531 0.22887944 0.032942303 -0.003013517
-0.00081353216 -0.015785089 0.49097967 -0.044370726 0.00211451 0.31103995 -0.006397519 -0.010548023
0.17085898 0.08943285 -0.004973421 -0.0030696143 -0.01634764 0.002892855 0.00300067 -0.0051330393
-0.03979355 0.02376457 0.35211965 0.042133033 0.0028932437 0.00017585098 -0.015298873 -0.023292743
0.022431094 -0.008598265 -0.0010262185 -0.024649544 -0.035218842 -0.043162808 -0.004361345 -0.0080855
0.007770417 -0.013674098 -0.074969634 -0.015023192 -0.026287321 0.0027355256 0.15355986 0.005192138
-0.005696359 -0.0032912765 -0.025646996 -0.015977394 -0.03963391 -0.0052616172 0.0035828133 -0.022688378
0.004681551 -0.05311004 0.04524939 -0.023322724 -0.0033307949 -0.010686214 0.013104292 -0.02246623
-0.04346906 0.077734634 0.029446974 0.008542778 -0.032044955 0.06330581 -0.0034676532 0.36310852
0.21572697 -0.02046901 0.0007163278 -0.0041777343 -0.04275728 0.27310067 -0.0078524295 -0.016902672
0.07800927 0.038674925 -0.007275164 -0.027917475 0.17184725 -0.0003499957 -0.021464912 -0.0018625116
-0.0040905084 -0.013858598 -0.021242097 0.174235 -0.03125145 0.43034247 0.030221842 -0.012473145
-2.8636372e-05 -0.0031208494 -0.014098153 -0.01522707 -0.007976696 -0.007923614 0.0817897 0.01899452
-0.057730965 0.00024141188 -0.004843256 -0.023049828 -0.017279789 -0.036853172 0.0053861826 -0.0076194373
0.008861965 0.14738959 -0.005436066 0.031259608 -0.0005824267 -0.015413323 -0.015299852 -0.04497894
-0.0050056125 -0.021640731 -0.013264732 -0.013560587 0.37579125 0.1667634 -0.027823903 -0.010479683
0.052091822 0.108733445 0.00922259 -0.085093796 0.003347916 -0.04024667 -0.010021486 0.014417676
0.026379734 0.026392132 -0.0024294225 0.20568109 -0.0037313623 -0.0012964662 -0.0041217157 -0.092955016
0.068589486 0.004597794 -0.0051103123 -0.019222453 -0.003547744 -0.005244776 0.29108503 -0.034606405

gats.0.lin_edge.weight f4 [335, 1]
00000000: bddc 3b3c f83a 21bc 5190 ed3d b2aa a7bb
00000010: 7a84 493a afd0 8d3e b224 bfbb 3745 323c
00000020: c65c e73b 5a0f ddbb 3f83 183c 73b7 96bd
00000030: 07bf 25bd dac4 5ebb 2f8c 403d ddf7 3eba
00000040: 8a9c 31bc 7ab8 753d eda8 e7bb 32f0 3cbc
00000050: 6fe3 4fbc 74d0 373d 72bc 733c cffd c7bd
00000060: b6a7 ff3b 2b70 573d 7c1f 0cbb dba2 c5bc
00000070: 1e85 b6bc 6e9a c33c e9c6 7abc a54b 6ebc
00000080: 3e4c 82bc 27cb 87bc 4248 043f 9c89 e73c
00000090: ed35 93bd 7f0d 80bc a95c c03d d746 053e
000000a0: 67ff 12bc 862f efbd a20b 85bd f864 61bd
000000b0: 5616 5d3c ae97 e8bd ff4d 643b e98a bdbd
000000c0: 6025 eebc 926e 08bc 63de 0f3d 4452 063b
000000d0: 5fd5 e4bc 0d2d 3ebe 1fdd 863c 3ac9 1038
000000e0: 48a6 69bb 4db8 84bb c714 8abb 63ba 9c3e
000000f0: aa05 60bb 99c0 f03d c1ac a1bd 295a 243e
00000100: 968e 273d 3032 19bc baf6 193b 5dc1 33bb
00000110: e326 373c 632e b9bc 42a1 d0b9 0830 ecbc
00000120: 01c2 833c 0b88 39bc 3179 d8bc 2e7a ee3b
00000130: 3aab 3bbc 8092 a9bb dcd9 37bd 28dd 6cbb
00000140: 2d83 b83b 15bc 1d3d 4ca7 5f3b 95f8 1c3d
00000150: 065b a4bb c7fc c03a 119d a13b 0775 49bc
00000160: 6bd2 cdbc 302a a4bd 2010 283e 9839 183d
00000170: 5921 8cbc b397 2a3d dbf5 f8bc ba8b 9dbc
00000180: a7c9 b23c 48e8 68bc 62c0 eab9 7dda cd3d
00000190: 2b5e 0e3b 5aaf 703d 7931 1b3c 47ea 803e
000001a0: 5b62 6db9 b1f8 b23c 028e 633c d23a 0fbd
000001b0: 411d 2ebd 32c8 e83d 7c52 6bbd 3e55 e5bb
000001c0: 310a 503c da13 50bc 9a87 8d3d 5c30 a23b
000001d0: 5aff 97bb 67d4 b43e 90fa 9cbb 3196 34bc
000001e0: 213b 783e 4ee4 ee3c defb 94bb 9239 20bc
000001f0: 8aca 28bd 4b5e ca3b 1ad8 fbba 0d6c 613b
00000200: ac37 093d 8317 9c3d 13cc b13d 9faf 943d
00000210: 5f88 483a 4fe0 35bc e75d 983b d5c5 a839
00000220: dead 623c c947 8cbc 9e3c b13b 10c7 67bb
00000230: 74ac a83c e6af 73bd e8d0 30bb 5d2a 8fbb
00000240: f686 0aba 706b aabb 8dcd 64bd bc05 0ebd
00000250: 0da2 01ba 9099 e33a f636 ae3e 5061 d8bc
00000260: d576 85ba 2d45 453b 90a2 68bb 87b4 93bc
00000270: 9034 54bd e1be aebc d297 543a 7a39 f23b
00000280: 9e12 74bb 5604 43bd 12d8 893e 34c1 c3bb
00000290: 6cdc 57ba 871f d7bb 0a63 8f3c aa25 d23c
000002a0: a131 8abd 1d1b f63e a6e7 163d 2d3b 1c3b
000002b0: 5ab3 a8bc 1496 0f3d 2026 3db9 e22f e5bc
000002c0: 9436 063f bc93 1c3b ae35 48bc 8a09 2fbb
000002d0: 9c0a 62bd c7a4 253f 9cd3 47bc dbc1 c23b
000002e0: 642a 653e 1da1 153c 69c7 14bc ad93 aabc
000002f0: feb3 1abe fc81 cf39 daba 1c3b dd81 233c
00000300: bd32 c7bb c1b2 8fbc a848 19bc 018e b33d
00000310: 2a27 7dbc 9e90 56bd 955c 263c 9a41 7bbc
00000320: 417f bcba 6e25 933b 5166 38bc 7b71 1cbc
00000330: 8968 573c f534 90bc c5cb 303d caca c23c
00000340: 7393 99bc b15f 8a3b 2233 4fbb 9728 dd3c
00000350: 215e c83c 694c 15bd 2412 f03b c438 3dba
00000360: 3497 99bb 7fc6 683e 0f32 c13c 5037 073d
00000370: cf2b a73c 3719 1ebc dc52 28bd 6b98 34bc
00000380: a11b d2bb 6b31 d13c 85d2 493b baa6 403d
00000390: ef21 e03e 7265 163f 1de6 f3bc 664c da3b
000003a0: c36a 383d 8454 343f f402 de3b 92c7 dabc
000003b0: 34d2 83ba 0849 44bd 0fbb 50bb 8ecf 123d
000003c0: 3372 ff3c fc40 263d e72e 87bd 2721 8c3d
000003d0: 5fa7 8e3c 69d1 b2bb a55a 4e3b 6a28 29bd
000003e0: 2b64 b1bd 9d9f de3d 6331 acba 6e21 47bc
000003f0: dfdb 323b e6df 32bb c092 31bd 5c9f debc
0.011466202 -0.009840719 0.11599792 -0.005116784 0.0007687282 0.27698275 -0.005833232 0.01088076
0.00706062 -0.006746215 0.009308635 -0.07359209 -0.04046538 -0.0033991844 0.04700869 -0.00072848593
-0.0108405445 0.059990384 -0.007069698 -0.011531876 -0.012688502 0.04487653 0.014876472 -0.09765207
0.007801975 0.052597206 -0.002138107 -0.024125507 -0.022280272 0.023877349 -0.015306213 -0.014544402
-0.015905496 -0.016576363 0.51672757 0.02826386 -0.0718802 -0.015631435 0.093926735 0.13015305
-0.0089720255 -0.11678986 -0.064963594 -0.055027932 0.013494095 -0.113570556 0.0034836528 -0.09255011
-0.029070556 -0.008327143 0.035124194 0.0020495811 -0.027933775 -0.18571873 0.01646286 3.4519682e-05
-0.003565209 -0.0040502907 -0.0042139026 0.30610952 -0.0034183064 0.11755485 -0.07894278 0.16050018
0.040907465 -0.009350345 0.0023493008 -0.0027428486 0.011178705 -0.022605127 -0.00039792998 -0.028831497
0.01608372 -0.011323939 -0.026424976 0.0072777485 -0.011454398 -0.005174935 -0.0448855 -0.0036142562
0.0056308717 0.038509447 0.0034126816 0.038323004 -0.0050157337 0.0014723771 0.004932054 -0.012295968
-0.02512475 -0.08015859 0.16412401 0.0371643 -0.017105745 0.041648578 -0.03039067 -0.019231666
0.021824671 -0.014215536 -0.00044775294 0.10051439 0.002172361 0.05876098 0.009472244 0.2517874
-0.00022638722 0.0218471 0.013888838 -0.034968205 -0.042508367 0.11366309 -0.05745171 -0.006998687
0.012697742 -0.0127000455 0.069106296 0.0049496125 -0.0046385946 0.353183 -0.0047906116 -0.011022137
0.24241306 0.029161599 -0.0045466265 -0.009779351 -0.04120878 0.0061757914 -0.0019214184 0.0034396679
0.03350036 0.07621672 0.08681502 0.072600596 0.00076497154 -0.011100843 0.004649866 0.00032190853
0.0138353985 -0.017124074 0.0054088375 -0.0035366453 0.020590045 -0.05949392 -0.0026979987 -0.004369064
-0.0005284393 -0.005200796 -0.05586009 -0.034673437 -0.0004945107 0.0017364491 0.34026307 -0.02641359
-0.001018251 0.0030101046 -0.0035497285 -0.018030418 -0.05180794 -0.021331253 0.0008109781 0.0073921056
-0.0037242542 -0.047611557 0.2692266 -0.0059739593 -0.00082344445 -0.0065650376 0.01750328 0.025652725
-0.06747747 0.4806756 0.03684201 0.0023838982 -0.020593334 0.035055235 -0.00018038647 -0.027976934
0.5242703 0.0023891767 -0.0122198295 -0.0026708567 -0.0551859 0.64704555 -0.012196448 0.0059435195
0.22379452 0.009132651 -0.009080746 -0.02082237 -0.15107724 0.00039578963 0.0023915083 0.009979692
-0.0060790465 -0.017541291 -0.0093557015 0.087673195 -0.015451232 -0.05238401 0.010153909 -0.015335465
-0.0014381186 0.004490546 -0.011254863 -0.00954854 0.013147482 -0.017603377 0.04316308 0.023778338
-0.018747067 0.004222833 -0.003161617 0.026996894 0.024458947 -0.036449824 0.0073263813 -0.00072182366
-0.0046872143 0.2273197 0.02358344 0.033011734 0.020406632 -0.009649566 -0.041094646 -0.011022667
-0.006411985 0.02553626 0.0030795645 0.047034003 0.4377589 0.58748543 -0.029772813 0.0066619394
0.04502369 0.7044146 0.0067752544 -0.02670649 -0.0010057152 -0.04792121 -0.0031849777 0.03584247
0.031182384 0.040589318 -0.06600743 0.06842261 0.017413793 -0.0054570925 0.0031487134 -0.041298307
-0.08661684 0.108702876 -0.0013137277 -0.012153966 0.0027291698 -0.0027294098 -0.043352842 -0.027175598

gats.1.att f4 [1, 5, 67]
00000000: c432 2fbb b155 c83a 21c0 9f3b a43d 84bc
00000010: 5e3d 903c f33d fc3b 5cc2 523c 4bac ef3a
00000020: 8210 9ebb 53e3 07bb 4fd8 f0b7 6c7b 483b
00000030: ca8f f339 99dd efbd 7329 99be f5aa 523d
00000040: 27be efba e903 a43c 542f 213b 906b 7a3a
00000050: f5d4 8b3b d0e5 d83a 42ad 1aba a5e1 3a3c
00000060: bb8e 5cbc 806d 0d39 61aa 1cbb 140f d83c
00000070: e696 3c3a 7cc6 163b ab4e 78bd f45e 77ba
00000080: b51f 65bc 5da0 aab8 8ead 7e3c c4ac 193b
00000090: 67e5 0b3c 45ad 73bb a4bf c0ba 7b83 a2ba
000000a0: cf76 083c 3ed3 de3b f815 e3b9 6d91 a0bb
000000b0: 2dc4 7f3d 5789 043c f256 ec3b 2408 b9bb
000000c0: 0b87 1dbb 729c 55bb cfe3 16bb 5bb5 583d
000000d0: da7d 973b 6b14 883c fc2c 19bd 762c 5b3a
000000e0: ec19 80bb 12d1 bb3b 453b a43b 537a bfb9
000000f0: 2e2c beba bca8 ab3c 559e 8539 94d2 123c
00000100: 54fe b4bb b766 753b 7fd0 3a3b a624 2ebb
00000110: 25d6 943a 7835 963b f524 9a3b 0682 8e3c
00000120: 1461 f63b 9abb 7c3c c9cf dc3a 9ac6 11bb
00000130: bf43 38bb 0025 19b9 6edd dfba fab2 873c
00000140: 2cb0 dbbd 0d2a 9bbe c321 6a3d cda8 35bb
00000150: ce91 7a3c 6ca9 d43a 371c 5d3a 5aa4 9ebb
00000160: c7b5 94ba 724b 6bb8 b7e0 78bd d5ff 64bc
00000170: 13f7 1f39 a4b1 c3ba 8b5a d83c b330 513a
00000180: c69f 683c abeb 10bb 256e a2b9 19a2 45bc
00000190: 39e9 b6b9 886d 833c aa10 123b adae 143c
000001a0: 6934 63bb 7bf9 62bb 610e a3ba 9782 e73b
000001b0: 7797 a43c 3214 c53a 42f3 9e3b 9748 7b3d
000001c0: 0e66 463c aeeb c33b fdec c0bc fa5c 21bb
000001d0: 179b 9939 f312 23bb 619b b33d e091 b83b
000001e0: 3f16 603c f29b 1abd 1e19 293a da4a febb
000001f0: 88d7 ac3b 3d94 aa3b ea4f e1b9 6a33 30bb
00000200: 1160 db3c 13e0 9f3a 61a3 103c 8e5f d6bb
00000210: 33e5 593b f015 223b 9424 36bb ab86 f13a
00000220: cb39 9c3b d917 96ba 8dcd 8d3c ca67 013c
00000230: 6032 583c 61be d23a c607 24bb 1f15 b0ba
00000240: 8067 6fb8 1bb6 443b 5ef9 4a3c f71a dcbd
00000250: f239 95be 121f 0e3d 6ef2 10bb 1d50 b73c
00000260: c07e ea3a ea39 793a acf0 a3bb cf26 e5b9
00000270: 9478 01ba 905b debc 176e 5cbc ec4b 843a
00000280: 6659 e5ba 1cc0 ff3c 8788 1e3a 976c 163b
00000290: d7a8 a4bc 1cfd 6cba 462a 50bc 0b0b 3eb9
000002a0: b95b 793c bd18 173b 6d20 1c3c b871 8bbb
000002b0: 19ed 66bb 5599 a0ba 5f1a 1c3c e98f d93c
000002c0: 042e c43a c5d1 9b3b 8641 513d 20bc 7d3c
000002d0: bc1b a03b b709 30bc 9294 93ba fb1a 1ebc
000002e0: 4cc2 15bb 9334 983d 8f30 433b bc28 9e3c
000002f0: add2 15bd fd9d 1a3a bb0f aabb 1158 b33b
00000300: 7dd9 ae3b 2350 d6b9 0552 3cbb 0509 a43c
00000310: 0ba1 18ba 8f11 0f3c 3478 d0bb 9137 823b
00000320: f850 563b e734 2ebb 5c38 943a 762e a03b
00000330: f302 ee3b dcca 8e3c a13a ff3b 11a6 523c
00000340: c923 da3a 0777 28bb f055 483a 4199 f2b8
00000350: d6cf 33bb 6e3a 96bc f833 d4bd 35a8 95be
00000360: a601 3e3d 940c ebba f9a3 8b3c a87f 383b
00000370: ef26 713a b3a4 48bc 3092 8d3a 7f2f 49ba
00000380: 947b f9bc 90b9 65bc 5991 4039 d0db 9cba
00000390: 6d2b e03c e3f1 543a ad7d 133b 0d3e 6bbd
000003a0: 6b6c 01ba 3994 3abc 2d6a 3bb9 4e31 c43b
000003b0: cb11 183b 182d 163c 981b 8abb af72 95bb
000003c0: 6ba9 a3ba 8fe5 e13b 5c1c b83c 96d3 86b9
000003d0: ddd4 8c3b 09f7 dc3c 2e58 113c 27d3 ae3b
000003e0: caa7 1ebc 2fa8 99ba 1466 d03a b867 0dbb
000003f0: d24e 883d 6e48 2d3b dbf7 9e3c b59e 49bd
-0.002673314 0.0015284327 0.0048751985 -0.016142674 0.017607387 0.0076978146 0.012863722 0.00182856
-0.004823745 -0.002073486 -2.8710956e-05 0.0030591143 0.00046455703 -0.11712188 -0.29914436 0.05143257
-0.0018290923 0.020021396 0.002459486 0.0009552771 0.00426733 0.0016547982 -0.0005900451 0.011406337
-0.013461764 0.000134876 -0.0023905265 0.026374377 0.00071941165 0.002300649 -0.0606219 -0.00094364514
-0.01398461 -8.136102e-05 0.015544308 0.0023448924 0.0085385805 -0.0037182134 -0.0014705551 -0.0012398803
0.008329107 0.0068000844 -0.00043313182 -0.0049001486 0.062442947 0.008089385 0.007212513 -0.0056467224
-0.002403679 -0.003259447 -0.0023023968 0.05290733 0.004623157 0.016611299 -0.037396416 0.0008360812
-0.00390934 0.00573171 0.0050119483 -0.00036521498 -0.0014509016 0.020954482 0.00025485703 0.008961339
-0.0055234823 0.0037445256 0.002850562 -0.0026572137 0.0011355324 0.0045840107 0.0047041127 0.017395984
0.007518897 0.015425587 0.0016846593 -0.002224362 -0.0028116552 -0.00014605 -0.0017079541 0.016564835
-0.107269615 -0.3030552 0.057161104 -0.0027719021 0.015293552 0.0016224808 0.00084346853 -0.0048413696
-0.0011345678 -5.609863e-05 -0.06076118 -0.013977011 0.00015255464 -0.001493026 0.026410362 0.0007979974
0.014198249 -0.0022113125 -0.00030981112 -0.012062573 -0.0003488751 0.01604344 0.0022287765 0.009074849
-0.003466869 -0.0034633565 -0.0012440198 0.007065128 0.020091755 0.0015035926 0.004850776 0.061348524
0.012109293 0.005979023 -0.023550505 -0.0024622069 0.00029297985 -0.002488312 0.087698705 0.005632624
0.013677179 -0.037746377 0.0006450581 -0.007760388 0.0052747168 0.0052056597 -0.00042974885 -0.0026886114
0.026779206 0.0012197517 0.008828015 -0.0065421527 0.0033248186 0.0024732314 -0.0027792798 0.0018426975
0.0047676316 -0.0011451199 0.017309928 0.00789828 0.013195604 0.0016078466 -0.0025029047 -0.0013434029
-5.7078432e-05 0.003001577 0.012388555 -0.10747331 -0.2914577 0.0346976 -0.0022117156 0.022377068
0.0017890558 0.0009507226 -0.0050030556 -0.00043707198 -0.0004938927 -0.02714327 -0.013453982 0.0010093427
-0.0017497956 0.031219535 0.0006047566 0.0022952908 -0.02010004 -0.0009040402 -0.012705391 -0.00018123926
0.015219622 0.0023055517 0.009529215 -0.0042554997 -0.0035236536 -0.0012252728 0.009527772 0.02655788
0.0014967327 0.004755231 0.05108788 0.015486747 0.0048861187 -0.010744504 -0.0011259487 -0.009649987
-0.0022851406 0.07431903 0.0029783582 0.019306533 -0.03657787 0.0005898176 -0.0051898635 0.005473145
0.005335985 -0.00040876967 -0.002873541 0.020023832 -0.0005822337 0.008732214 -0.0063619856 0.003973909
0.003270207 -0.0026581825 0.00113083 0.004888351 0.007263535 0.017430715 0.0077889715 0.012856976
0.0016642745 -0.0025705711 0.00076422 -0.00011568005 -0.0027437112 -0.018338408 -0.10361475 -0.29229894
0.04638829 -0.0017932826 0.017045962 0.002815226 0.0009199222 -0.012246299 0.0010801014 -0.0007674619
-0.030454434 -0.014021292 0.00018364693 -0.0011967365 0.027364457 0.0008123202 0.0022505329 -0.057432223
-0.0004937115 -0.011387878 -0.00017873263 0.005987323 0.0023203965 0.009166025 -0.004214715 -0.0045607905
-0.0012486404 0.0068938206 0.02247446 -0.00025716115 0.004297836 0.026973264 0.008871121 0.00533523
-0.009683559 -0.0011723096 0.0015899562 -0.0021576714 0.06655659 0.0026440877 0.019405296 -0.04922362

gats.1.bias f4 [67]
00000000: 2ffa c4ba 3a0b b5bb 8195 823a 2ca6 f63b
00000010: 5ce7 10bb 9eeb e03b 4405 22bb c490 233c
00000020: 0c11 5bbc 4451 44b9 e068 c23c b115 913b
00000030: 6a63 debb 5280 763a ee51 87be 92b3 83bd
00000040: 82ba 2bbb f744 b33c 8977 5b3c 6f44 953c
00000050: 07c1 e2bb 8106 f13a f908 783c 8ed1 dabb
00000060: dceb b0bc d0ee 593c 84a1 ed3c 192d 27bc
00000070: 9e4c de3b 5a86 32bb 425f c13b 4144 f03b
00000080: 4b41 7a3b 76a5 80bb 099a f9bb 6c72 9e3b
00000090: 095f f33b 639e 323c 5697 25bc 1522 0d3c
000000a0: b650 43bc f0a9 5c3b 9c6f 9cba cf2f b4bb
000000b0: 2a70 c03b 5f63 74bc 758f 7b3c 1601 7b3a
000000c0: 6895 703c b0b5 483c 2f99 b33c dcfb 00bc
000000d0: 845f 713b 44ef aabc f4c6 013c dd29 95bc
000000e0: 3aaf 903c 4886 1f3b 6b8d 97bc 5eab 863c
000000f0: c4c0 c0bb 07ac 743b b2c4 42bb 8c88 4a3a
00000100: 3fd7 beba d829 a13c 90d0 373c
-0.0015028174 -0.00552502 0.0009962769 0.0075271334 -0.0022110557 0.0068640253 -0.0024722377 0.009983245
-0.0133707635 -0.0001872229 0.023731649 0.0044276346 -0.0067867534 0.00094032765 -0.26429695 -0.06430735
-0.0026203697 0.021883471 0.013395199 0.018221108 -0.0069199833 0.0018388779 0.015138858 -0.006677813
-0.021596842 0.013301566 0.02900768 -0.010203623 0.006784036 -0.0027240724 0.005901248 0.0073323552
0.003818589 -0.0039259745 -0.0076172394 0.0048354175 0.0074271006 0.01090202 -0.010106882 0.008614083
-0.011921098 0.0033670627 -0.0011935118 -0.0054988633 0.005872746 -0.01491627 0.015354027 0.0009575052
0.014684059 0.012250349 0.02192363 -0.007872548 0.0036830613 -0.020866044 0.007920969 -0.018208439
0.01766168 0.0024341512 -0.01850005 0.016439136 -0.0058823545 0.0037333982 -0.002971929 0.00077260355
-0.0014559998 0.019673273 0.011219159
