inference/BMC/model_checkpoints/BMC_model_8.pt (torch, 503011 bytes, 21 tensors)

gats.0.att f4 [1, 5, 67]
0	0x38cd326a	9.784552e-05
1	0x3f21d7b1	0.63219744
2	0x392f1563	0.00016697268
3	0xbd5568e6	-0.052101992
4	0x38e9f07f	0.00011155102
5	0xbb763f00	-0.0037574172
6	0xbb12d559	-0.0022404997
7	0x3e5c1caa	0.2149531
8	0x3e5d6327	0.21619855
9	0x37843d19	1.5764077e-05
10	0xbcc4580e	-0.023967769
11	0xbb0c25a7	-0.0021384747
12	0x3a1b5f4d	0.00059269817
13	0xb81c6475	-3.7286856e-05
14	0xb705cb43	-7.974743e-06
15	0xbe19e44b	-0.15028493
16	0xbf55cc1c	-0.8351457
17	0xbe592d1f	-0.21208619
18	0x3af57939	0.0018728144
19	0x36e5ddd4	6.850556e-06
20	0x3a80aac6	0.000981652
21	0x3e9cad74	0.30601084
22	0x3f2dbc02	0.67865
23	0xbeb45080	-0.35217667
24	0xbf6b8271	-0.9199591
25	0xbfb14c48	-1.3851404
26	0xbefaa7a4	-0.48956025
27	0xbf7c6449	-0.98590523
28	0x3d5a483d	0.053291548
29	0xbcc46cf2	-0.02397773
30	0x3f23aefd	0.63938886
31	0x3d51ea67	0.051248934
32	0x3f71b094	0.9441006
33	0x39ff9b03	0.00048752883
34	0x3f333fff	0.70019525
35	0x3eab441d	0.33450404
36	0xbf1ee6c7	-0.6207089
37	0x3f17c341	0.5928231
38	0x38a2402e	7.736716e-05
39	0x384d2102	4.890655e-05
40	0x3cd6b9a9	0.026211577
41	0xbf7436fb	-0.95396394
42	0x38d4d697	0.00010148918
43	0x3b5b4464	0.0033457512
44	0x3c990ebc	0.018683784
45	0xb7ba424f	-2.2203805e-05
46	0x37e7f548	2.7651564e-05
47	0x392cdeed	0.00016486245
48	0x38906454	6.885143e-05
49	0xbee9bcf4	-0.45651972
50	0xbe295421	-0.16535999
51	0x3913c13e	0.00014091001
52	0xbb698f83	-0.0035638518
53	0xbe2cc53a	-0.16872111
54	0x3e5fd32e	0.21857902
55	0xbd536484	-0.05160953
56	0xba8e89b8	-0.0010874784
57	0xbab9d794	-0.0014178627
58	0xb789fdff	-1.6449949e-05
59	0x3f156c64	0.58368516
60	0xbf32b2d6	-0.6980413
61	0x3b52b577	0.0032151619
62	0xbc277a5d	-0.010222045
63	0x3d98b3ea	0.07456191
64	0x3e636620	0.22206926
65	0xbf4dc382	-0.80376446
66	0xbb2531ba	-0.0025206641
67	0x39e2242d	0.00043133032
68	0x3d048b50	0.03235942
69	0x3a3d9e71	0.00072333874
70	0xbf495494	-0.7864468
71	0x3756eef5	1.28110305e-05
72	0x3a33e011	0.00068616966
73	0xbce55564	-0.027994819
74	0x3cdfcef3	0.02732036
75	0xbeed9350	-0.46401453
76	0x39b06139	0.00033641772
77	0xbf5f4084	-0.8720782
78	0xba109186	-0.0005514849
79	0x3f2c4f83	0.67308825
80	0x3791be73	1.7374032e-05
81	0x38a572cd	7.8891964e-05
82	0x3c2ebc2f	0.010664984
83	0xbeb9bdfd	-0.36277762
84	0xbc9ede5b	-0.019393137
85	0xbecbb868	-0.39789128
86	0x38850bed	6.3441556e-05
87	0x39b35237	0.00034202795
88	0x3bf00edc	0.00732599
89	0x3ee41c97	0.44553062
90	0xbb945b27	-0.004527468
91	0xbf315b08	-0.6927953
92	0xbf50c7f1	-0.81555086
93	0x3e8476b3	0.2587181
94	0xbc9aceff	-0.018897532
95	0x3d20e280	0.039278507
96	0x3f193204	0.5984194
97	0x3f2b3781	0.6688157
98	0x3f0baed3	0.54563636
99	0xbed11b21	-0.4084101
100	0x3a5ddc0a	0.00084632693
101	0x3ce7e7af	0.028308718
102	0x3dece1e6	0.11566524
103	0xbd7961d9	-0.06088433
104	0x3af9e268	0.0019064667
105	0xb8b91e4a	-8.827129e-05
106	0x3854c4f8	5.072818e-05
107	0xba8ac5c4	-0.0010587503
108	0xbf0213a6	-0.5081123
109	0x39884397	0.000259903
110	0xb7ea021c	-2.7895956e-05
111	0x3cab5d61	0.02091855
112	0x38ae5810	8.3133695e-05
113	0x3925c1e3	0.00015807855
114	0x39aa79b9	0.00032515617
115	0x3884f1e3	6.3393054e-05
116	0xbf6a177c	-0.91442084
117	0x3e83c292	0.25734383
118	0xba323b0b	-0.0006798959
119	0x3d4d083e	0.05005669
120	0x3f8f0a5b	1.1175035
121	0x3d07e284	0.033175007
122	0xbc38cacc	-0.011278819
123	0xbc4364ed	-0.011925918
124	0x3921035d	0.0001535541
125	0x38039da0	3.1379634e-05
126	0x3f8f286d	1.1184212
127	0x3b7569dd	0.0037447133
128	0xbd2d1283	-0.042253982
129	0xbec86c33	-0.3914505
130	0x3f206ec4	0.62669015
131	0x3da45e89	0.08025844
132	0xbedd44e2	-0.43216616
133	0x3d71be02	0.059019096
134	0x392ed703	0.00016674031
135	0x3f448e5b	0.7677972
136	0xbaabe2c7	-0.001311385
137	0x3b481d54	0.003053506
138	0xb98cf48d	-0.00026885085
139	0x3ab076be	0.0013463122
140	0x3d000b0e	0.031260543
141	0x3e10dcc8	0.14146721
142	0x3f2644a7	0.64948505
143	0x39eb9c5e	0.00044939196
144	0xbca9d2f5	-0.020730475
145	0xbeb977e1	-0.36224273
146	0xb931f5d4	-0.00016971614
147	0x383ed6d2	4.5499597e-05
148	0x386616f9	5.4857668e-05
149	0x3e4bb9a6	0.19895038
150	0xbf8af78d	-1.0856797
151	0xbe20a3e0	-0.15687513
152	0xbf00ce96	-0.50315225
153	0xb9cc080c	-0.00038915907
154	0x3ab978e2	0.0014150406
155	0xbdb43928	-0.08799964
156	0x3ecdf391	0.4022489
157	0xbb2f47d4	-0.0026745694
158	0xbfa6dfee	-1.3037088
159	0xbd80db32	-0.06291808
160	0x39eee718	0.00045567076
161	0x3bcac647	0.0061881873
162	0x3cf09d03	0.029371744
163	0x3e9e2f55	0.30895486
164	0x3c85736a	0.016290385
165	0x3c148bf6	0.009066572
166	0x3f138cad	0.5763653
167	0x3a5f365d	0.00085148757
168	0xbefa620c	-0.4890293
169	0xbfa3fc97	-1.2811459
170	0xbccb574f	-0.024821905
171	0x3dbe1924	0.09282139
172	0x39809de6	0.00024531706
173	0x39cb0292	0.00038721092
174	0x3c81f98e	0.015866067
175	0xbe07274c	-0.13198584
176	0x392591c1	0.00015789924
177	0xb8202c23	-3.8188078e-05
178	0x3eb807f5	0.3594357
179	0x38aba55d	8.184717e-05
180	0x3932a2ef	0.000170361
181	0x3a5e3dd0	0.0008477839
182	0x38849949	6.322802e-05
183	0xbca93707	-0.020656122
184	0x3df78a9c	0.120869845
185	0x3a0accb6	0.00052947865
186	0x3c4623a5	0.012093459
187	0x3f58a20e	0.84622276
188	0x3e86a45d	0.26297274
189	0xbf10ea9c	-0.56607985
190	0xbe437f76	-0.19091591
191	0x3b0d276c	0.002153839
192	0x37756fcf	1.462917e-05
193	0xbf03b656	-0.514501
194	0x3c59c2df	0.01329109
195	0x3e0371fd	0.12836452
196	0x3f068ce7	0.5255875
197	0x3c563674	0.013074506
198	0xbf8e7bf7	-1.1131581
199	0x3f06f44d	0.52716523
200	0x3ba47bbb	0.0050196326
201	0xba06f001	-0.00051474577
202	0x3a7e6330	0.0009704111
203	0xbae3a7a6	-0.0017368689
204	0x3bab5cac	0.005229553
205	0xb990bf40	-0.00027608313
206	0x3b63dea3	0.0034770153
207	0x3f0a3fd5	0.5400365
208	0x3f1dae6b	0.61594266
209	0x3e8fd33f	0.28090855
210	0x37a5be3e	1.9758121e-05
211	0xbca992ae	-0.020699825
212	0xb9f241db	-0.00046206903
213	0xb8fc4f19	-0.000120310295
214	0xb58acd2a	-1.0341512e-06
215	0x3855ec82	5.1003422e-05
216	0x3cc0af11	0.023520978
217	0xbf9a03d0	-1.2032413
218	0x3f4d9ad1	0.80314356
219	0xbda5d959	-0.080980964
220	0xb83c709d	-4.4927572e-05
221	0xba822d39	-0.000993169
222	0xbd053b4c	-0.032527253
223	0x3e03acbb	0.1285886
224	0x3e5a6898	0.21328962
225	0xbfadeddd	-1.3588215
226	0xbd863af9	-0.06554217
227	0x3f0ac3d6	0.5420507
228	0x3b6338f8	0.0034671407
229	0xbeff9434	-0.49917758
230	0x3fad61d5	1.3545481
231	0x3e2feff7	0.17181383
232	0x3dda5e04	0.10662463
233	0xbd1911e1	-0.037370566
234	0xb93f87c1	-0.00018265752
235	0x3d312688	0.043249637
236	0xbf13dd6e	-0.5775975
237	0x3ee37227	0.4442303
238	0xbf28abec	-0.6588733
239	0xb882f5d7	-6.244674e-05
240	0x394b229f	0.00019372486
241	0xbc3cf3ec	-0.011532765
242	0x3f31aa5a	0.6940056
243	0x393858c8	0.00017580681
244	0xb916ee61	-0.00014393918
245	0x3f5ccd8d	0.86251146
246	0x373bd0fc	1.11947265e-05
247	0xb917d936	-0.000144814
248	0x3919cc2f	0.00014667281
249	0x3820bcac	3.8322687e-05
250	0x3c92770f	0.017879037
251	0x3eaf1c07	0.3420107
252	0x3de51f9c	0.1118767
253	0x3e826fd5	0.25475946
254	0xbf22582f	-0.6341581
255	0x3f63915a	0.88893664

gats.0.bias f4 [67]
0	0x3ba08cfe	0.00489962
1	0xbe0c08aa	-0.1367518
2	0xbc910a5a	-0.017705131
3	0xbd97dfca	-0.07415731
4	0x3b868d90	0.004106231
5	0x3bd4370e	0.0064762896
6	0xbc0a5683	-0.008443478
7	0xbd5b2b64	-0.053508177
8	0xbd98bcfb	-0.0745792
9	0x3aa9ff9f	0.0012969858
10	0xbdf4d7d5	-0.11955229
11	0xbcf65111	-0.030067952
12	0xbd101dea	-0.03518478
13	0x39f2a2fb	0.00046279267
14	0x39eb6654	0.00044898933
15	0xbd522e70	-0.051313818
16	0xbd9a70aa	-0.0754102
17	0xbdf70200	-0.12060928
18	0xbdb71ec4	-0.08941415
19	0x3866a54d	5.499022e-05
20	0x3b698e34	0.0035637738
21	0xbd3db2eb	-0.046313208
22	0xbd96fcad	-0.07372413
23	0xbd4a6a41	-0.049417738
24	0xbd6b62f1	-0.057467405
25	0xbd645b01	-0.05575085
26	0xbcf6608b	-0.030075332
27	0xbd51ae3f	-0.051191565
28	0xbdc7bf1e	-0.097532496
29	0xbd09c22a	-0.033632435
30	0xbd826946	-0.063677356
31	0xbdc54572	-0.09632386
32	0xbd9846ec	-0.07435402
33	0x3b2565e0	0.0025237724
34	0xbe1f9180	-0.15582848
35	0xbdd024c0	-0.101632595
36	0xbd5b31f0	-0.05351442
37	0xbd43c08f	-0.04779106
38	0x3b032f9b	0.0020017389
39	0x3a61c106	0.00086118316
40	0xbd9c5347	-0.076330714
41	0xbd8fb501	-0.07016946
42	0x3b1aefca	0.002364146
43	0xb9af0f3d	-0.00033389954
44	0xbe01ac76	-0.12663445
45	0x3aa1cbeb	0.0012344097
46	0x3a91b253	0.0011115767
47	0x3af7a142	0.0018892663
48	0x3b97d191	0.0046331366
49	0xbd7b7084	-0.0613866
50	0xbda3dcb1	-0.08001078
51	0xbb26b5eb	-0.0025438021
52	0xbd552886	-0.0520406
53	0xbd828229	-0.06372482
54	0xbdc543a7	-0.09632044
55	0xbd1b134a	-0.037860192
56	0xbdf8a761	-0.121413
57	0xbd5596c5	-0.05214574
58	0x3681a220	3.8633734e-06
59	0xbe04aab9	-0.1295575
60	0xbd815fd9	-0.063171096
61	0xbbc86401	-0.006115437
62	0xbd5de6fc	-0.054175362
63	0xbdd95c41	-0.10613299
64	0xbde4486d	-0.111466266
65	0xbd855963	-0.0651119
66	0xbd506f97	-0.05088767

gats.0.lin_l.weight f4 [335, 67]
0	0x8000524b	-2.9521e-41
1	0x800014b5	-7.428e-42
2	0xba04cd04	-0.000506595
3	0x800089fe	-4.9502e-41
4	0x3af6ddc1	0.0018834398
5	0x80008c65	-5.0364e-41
6	0x000066c1	3.6861e-41
7	0xb9547f58	-0.00020265335
8	0x00008e98	5.1153e-41
9	0x0000890b	4.9162e-41
10	0x00002c68	1.593e-41
11	0x0000aa58	6.1108e-41
12	0x800070c7	-4.0457e-41
13	0x0000abb4	6.1595e-41
14	0x000096f1	5.4148e-41
15	0x00005791	3.1413e-41
16	0x8000970c	-5.4185e-41
17	0x0000879f	4.8652e-41
18	0x39322591	0.00016989397
19	0xba8b535f	-0.0010629705
20	0x80004999	-2.6402e-41
21	0x3a4f9b02	0.00079195213
22	0x3afd6f02	0.0019335451
23	0xbb10caa3	-0.0022093437
24	0x8000a8a4	-6.0497e-41
25	0x8000b2ae	-6.4098e-41
26	0xba814562	-0.0009862597
27	0x39b38b30	0.00034245243
28	0x3ab52fbd	0.0013823431
29	0x800003ab	-1.316e-42
30	0x80007bb2	-4.4374e-41
31	0x3ac0e5df	0.0014716944
32	0x8000222b	-1.2257e-41
33	0x3a61fd93	0.00086208544
34	0x3a54cb74	0.0008117475
35	0x39277bd9	0.00015972498
36	0x3838f3a0	4.4095912e-05
37	0xb60bf9fb	-2.0858122e-06
38	0x8000632a	-3.5573e-41
39	0x000085cb	4.7996e-41
40	0x0000af9e	6.3e-41
41	0x00009289	5.2567e-41
42	0xb91fa5ff	-0.0001522526
43	0x80003f63	-2.2739e-41
44	0x8000242e	-1.2979e-41
45	0x80007283	-4.1079e-41
46	0x80001ff2	-1.146e-41
47	0x00003df7	2.2229e-41
48	0x80004c35	-2.7338e-41
49	0x80001e67	-1.0906e-41
50	0x00003ba9	2.1402e-41
51	0x800088b7	-4.9044e-41
52	0x0000ac97	6.1914e-41
53	0x0000a145	5.7853e-41
54	0x000014a5	7.406e-42
55	0x8000a7ca	-6.0191e-41
56	0x800078f3	-4.3388e-41
57	0x8000819d	-4.6496e-41
58	0x800068c5	-3.7584e-41
59	0xb95e4243	-0.00021196254
60	0xb8d0a667	-9.949208e-05
61	0x80003d10	-2.1905e-41
62	0x800041af	-2.3563e-41
63	0x80008828	-4.8844e-41
64	0x80005c95	-3.3212e-41
65	0x00006276	3.5321e-41
66	0x3ba3c230	0.004997514
67	0x80008754	-4.8547e-41
68	0x800040f1	-2.3297e-41
69	0x3ec41844	0.38299763
70	0x00005f39	3.416e-41
71	0xbd12c5f3	-0.03583331
72	0x80008b78	-5.0032e-41
73	0x80001c61	-1.018e-41
74	0xbe61a5c6	-0.22035894
75	0x0000695d	3.7797e-41
76	0x00008d65	5.0723e-41
77	0x000095b3	5.3702e-41
78	0x000085fa	4.8062e-41
79	0x00009190	5.2218e-41
80	0x8000ab1e	-6.1385e-41
81	0x0000a84e	6.0376e-41
82	0x00005fa2	3.4307e-41
83	0x00007e6c	4.5352e-41
84	0x80009f10	-5.7061e-41
85	0xbda4b00f	-0.08041393
86	0xbe36b835	-0.17843707
87	0x80004de4	-2.7942e-41
88	0xbee5bf67	-0.4487259
89	0xbe0b3ac8	-0.13596642
90	0xbe01c3a9	-0.12672295
91	0x800082cd	-4.6922e-41
92	0x80005ed3	-3.4017e-41
93	0x3e14898b	0.14505593
94	0xbd468f2e	-0.04847639
95	0x3e2c565a	0.16829816
96	0x00007bc4	4.4399e-41
97	0x8000aca5	-6.1933e-41
98	0x3f59b8cd	0.8504761
99	0x00004e89	2.8173e-41
100	0x3dbc7ad7	0.09203117
101	0x3c265ae6	0.010153508
102	0x3e0441f1	0.1291578
103	0x3b27672f	0.002554368
104	0xbae02ea8	-0.0017103748
105	0x80003b8e	-2.1364e-41
106	0x000084b6	4.7608e-41
107	0x80007f31	-4.5628e-41
108	0x80007ff6	-4.5904e-41
109	0xbe599ec8	-0.21251976
110	0x0000616f	3.4953e-41
111	0x0000abd4	6.164e-41
112	0x000058c8	3.1849e-41
113	0x8000ac83	-6.1886e-41
114	0x000072ff	4.1253e-41
115	0x00000e51	5.136e-42
116	0x00008962	4.9284e-41
117	0x00008838	4.8866e-41
118	0x8000650a	-3.6246e-41
119	0x80007a2f	-4.3831e-41
120	0x80007dc9	-4.5123e-41
121	0x8000a26c	-5.8266e-41
122	0x00000399	1.29e-42
123	0x00007bfe	4.448e-41
124	0x0000b1f5	6.3839e-41
125	0x0000afb7	6.3035e-41
126	0x3d806635	0.062694944
127	0xbbc92a02	-0.006139041
128	0x8000b19f	-6.3718e-41
129	0x00008b01	4.9865e-41
130	0x80008a29	-4.9563e-41
131	0x000089ca	4.943e-41
132	0x80004706	-2.5478e-41
133	0xbbc2b081	-0.005941451
134	0x8000226a	-1.2345e-41
135	0x80008d34	-5.0654e-41
136	0x39b21ace	0.00033970777
137	0x80007dd6	-4.5141e-41
138	0x3aaa1c56	0.0012978415
139	0x00004106	2.3326e-41
140	0x800011c8	-6.379e-42
141	0xb9c5151d	-0.000375905
142	0x00000df8	5.011e-42
143	0x00008831	4.8856e-41
144	0x0000afdd	6.3088e-41
145	0x0000022f	7.83e-43
146	0x00008974	4.9309e-41
147	0x80007c31	-4.4551e-41
148	0x00006c29	3.88e-41
149	0x0000ad3c	6.2145e-41
150	0x00008f4b	5.1404e-41
151	0x0000010e	3.78e-43
152	0xba781f23	-0.0009465089
153	0x399f0028	0.0003032696
154	0x0000b2c0	6.4123e-41
155	0x3b8ad3e8	0.004236687
156	0xbb9eeac6	-0.0048497645
157	0xbaa27433	-0.0012394249
158	0x80009320	-5.2779e-41
159	0x800096ef	-5.4145e-41
160	0x3c2cf425	0.0105562555
161	0x3a4156fa	0.0007375326
162	0x3b9113b9	0.0044274
163	0x00009a09	5.5257e-41
164	0x000031e8	1.7903e-41
165	0x3cb6a26a	0.022294242
166	0x80008254	-4.6753e-41
167	0xba42805f	-0.00074196415
168	0x386503b7	5.4601314e-05
169	0xb9f978a1	-0.00047582856
170	0x374880ef	1.1950949e-05
171	0x38f20c59	0.00011541759
172	0x00008fb5	5.1552e-41
173	0x00007d64	4.4982e-41
174	0x8000381c	-2.0128e-41
175	0x800061b3	-3.5048e-41
176	0xba62a626	-0.0008645974
177	0x80006f0a	-3.9833e-41
178	0x00006cef	3.9078e-41
179	0x8000841c	-4.7392e-41
180	0x80008665	-4.8212e-41
181	0x00003a9d	2.1026e-41
182	0x000089ec	4.9477e-41
183	0x8000afdd	-6.3088e-41
184	0x80006132	-3.4867e-41
185	0x000052f0	2.9752e-41
186	0x80008df5	-5.0925e-41
187	0x00009a1d	5.5285e-41
188	0x80005c83	-3.3187e-41
189	0x80008d0b	-5.0597e-41
190	0x00008ed2	5.1234e-41
191	0x80003258	-1.806e-41
192	0x80008d2d	-5.0644e-41
193	0xbc949f27	-0.018142296
194	0xbbcb54fa	-0.0062051984
195	0x00001675	8.056e-42
196	0x000021b8	1.2096e-41
197	0x0000a4cb	5.9117e-41
198	0x0000112f	6.164e-42
199	0x0000877b	4.8601e-41
200	0xba46374d	-0.0007561341
201	0x80009cfc	-5.6315e-41
202	0x00008d9e	5.0803e-41
203	0x3aeabbef	0.0017908792
204	0x80004c82	-2.7446e-41
205	0x3c2a09ac	0.0103782825
206	0x0000867e	4.8247e-41
207	0x800080d6	-4.6218e-41
208	0x3931cb5e	0.00016955796
209	0x8000605a	-3.4564e-41
210	0x80006580	-3.6411e-41
211	0x00004a96	2.6756e-41
212	0x8000a134	-5.7829e-41
213	0x0000677b	3.7122e-41
214	0x000049e6	2.651e-41
215	0x80007210	-4.0918e-41
216	0x80007b3f	-4.4212e-41
217	0x00001bbe	9.952e-42
218	0x0000606c	3.459e-41
219	0xbcf7edc6	-0.030264746
220	0x39dfae8d	0.00042663925
221	0x8000650c	-3.6249e-41
222	0xbd44357c	-0.04790257
223	0xbdd44eed	-0.103666164
224	0x3cd8d288	0.026467577
225	0x80008dfc	-5.0934e-41
226	0x80003aef	-2.1141e-41
227	0xbd2ea120	-0.04263413
228	0x3f6b7bcd	0.9198578
229	0xbc3847fc	-0.011247631
230	0x80006c7d	-3.8918e-41
231	0x00004330	2.4102e-41
232	0xbdd12eb8	-0.10213989
233	0x00008ebb	5.1202e-41
234	0xba9105bc	-0.0011064331
235	0x3c29f71b	0.010373856
236	0xbb91ed38	-0.0044533275
237	0xbbcabcf3	-0.0061870753
238	0x3b092a30	0.0020929687
239	0x800078ab	-4.3288e-41
240	0x00002b34	1.5498e-41
241	0x00007cc5	4.4759e-41
242	0x800041b6	-2.3573e-41
243	0x3ae4d132	0.0017457365
244	0x00006f97	4.0031e-41
245	0x800056ee	-3.1184e-41
246	0x000088e9	4.9114e-41
247	0x80009044	-5.1753e-41
248	0x00003650	1.9484e-41
249	0x000072af	4.1141e-41
250	0x80000809	-2.882e-42
251	0x00000067	1.44e-43
252	0x80004ad0	-2.6838e-41
253	0x00006017	3.447e-41
254	0x80007478	-4.1781e-41
255	0x80007818	-4.3082e-41

gats.0.lin_l.bias f4 [335]
0	0xbb9a6b41	-0.0047124927
1	0x3da5c75e	0.08094667
2	0xbc9155c8	-0.017741099
3	0xbd277e3a	-0.040891863
4	0xbb923147	-0.0044614407
5	0xbbc17d05	-0.005904796
6	0xbdfc1115	-0.12307946
7	0xbdf49278	-0.11941999
8	0xbd830c7d	-0.06398866
9	0xba30d4aa	-0.00067455566
10	0xbd682926	-0.056679867
11	0x3bf9b958	0.0076209716
12	0xbc5d940a	-0.013524065
13	0xba0e6f54	-0.00054334593
14	0xbaaa5ac0	-0.0012997016
15	0x3c94d41b	0.018167546
16	0xbdb563dc	-0.08856937
17	0xbe65f0bd	-0.22455116
18	0xbd98f7a8	-0.07469112
19	0xba2b6eee	-0.0006539662
20	0xbb917c24	-0.0044398475
21	0xbcba5eb2	-0.022750232
22	0x3d82be86	0.06383996
23	0x3ca8e455	0.02061669
24	0xbdc0ac61	-0.09407879
25	0x3d35baa7	0.04436746
26	0xbd55b67a	-0.052175976
27	0xbdc32a6c	-0.09529576
28	0xbdc42565	-0.09577445
29	0xbd53dc9a	-0.051724054
30	0xbd23ce8c	-0.0399919
31	0xba6f7bfd	-0.0009135602
32	0x3df41a98	0.11919135
33	0xbb67ca4c	-0.003536838
34	0x3d77da47	0.0605109
35	0xbd922385	-0.07135681
36	0x3d02ea15	0.03196152
37	0x3d3d7661	0.046255473
38	0xbb0aa78d	-0.0021156997
39	0xbab5bf2d	-0.0013866179
40	0xbdb09269	-0.086216755
41	0xbd977be4	-0.07396677
42	0xbb37415a	-0.0027962537
43	0xb9f3efd9	-0.00046527272
44	0xbe00ff8b	-0.12597482
45	0xbaf3d22a	-0.0018602062
46	0xba4b682f	-0.000775936
47	0xbb232894	-0.0024896013
48	0xbb897bff	-0.0041956897
49	0xba3dcbcb	-0.00072401454
50	0xbdfce46c	-0.123482555
51	0xbb84d35d	-0.004053517
52	0xbd835e4e	-0.064144716
53	0xbc0a985c	-0.008459177
54	0xbdaed50b	-0.085367285
55	0xbebd7b94	-0.37008345
56	0xbe1ad6b6	-0.15120968
57	0xbc18f530	-0.009335801
58	0xba3cdec5	-0.0007204826
59	0xbd25865b	-0.040411334
60	0x3d2a3d45	0.041562337
61	0xbd3ac390	-0.04559666
62	0xbb0a1092	-0.0021067006
63	0xbcf08497	-0.029360099
64	0xbdb4b068	-0.08822709
65	0xbaafe3e3	-0.0013419356
66	0xbc5c8df6	-0.0134615805
67	0xbb95097c	-0.0045482498
68	0xbdf896fa	-0.121381715
69	0xbc984965	-0.018589685
70	0x3d4467ff	0.04795074
71	0xbb96d0aa	-0.0046025114
72	0xbbb69748	-0.0055722333
73	0xbdb45ee3	-0.08807161
74	0xbdd00c81	-0.10158635
75	0x3cb25302	0.021768097
76	0xba1320bc	-0.0005612483
77	0x3de37508	0.11106306
78	0xbb8bcd4c	-0.0042664167
79	0x3da5847e	0.080819115
80	0xba108976	-0.00055136473
81	0xba814773	-0.0009863212
82	0xbde15733	-0.1100296
83	0xbd931d74	-0.07183352
84	0xbda4dd40	-0.080500126
85	0xbcdb4fba	-0.026771415
86	0xba12245c	-0.0005574876
87	0xbb711c0d	-0.0036790401
88	0xbdf910e0	-0.12161422
89	0x3affaa5a	0.0019505725
90	0x3c206eb5	0.00979202
91	0x3c39670c	0.011316072
92	0x3def4b8e	0.11684333
93	0x3bba52be	0.005686133
94	0xbda00620	-0.07813668
95	0xbde7582a	-0.11296113
96	0x3b64ebab	0.0034930508
97	0x3a95a466	0.0011416792
98	0x3ce432ef	0.027856318
99	0x3d7f9f2b	0.062407654
100	0xbb7149b6	-0.0036817617
101	0xbe2cb21b	-0.16864817
102	0xbe1dbcc7	-0.15404044
103	0xbd636efc	-0.055525765
104	0xbc5316f1	-0.012883888
105	0xbaee40fd	-0.0018177327
106	0xbab1c89d	-0.0013563816
107	0x3c05d3dc	0.008168187
108	0x3bfe3b75	0.0077585527
109	0xbb394dad	-0.0028275058
110	0xba9aa96b	-0.0011799758
111	0xbb46c919	-0.0030332266
112	0xbb01abab	-0.001978616
113	0xba6932f7	-0.0008895839
114	0xbb470291	-0.003036652
115	0xbb7d85ad	-0.0038684413
116	0x3e3cecc1	0.1844969
117	0xbcd7dd08	-0.026350513
118	0xbb88ad3a	-0.004171041
119	0xbd415694	-0.047201708
120	0x3da25fb7	0.079284124
121	0x3c8b07ab	0.01697143
122	0xbdc05fff	-0.0939331
123	0xbde451e0	-0.11148429
124	0xbbdbf36f	-0.006712369
125	0xba22a639	-0.00062045787
126	0x3dc3f0d8	0.09567422
127	0xbcb0f94f	-0.021603255
128	0xbd8d3aea	-0.068960026
129	0x3ccba642	0.024859551
130	0xbbdfa4e9	-0.0068250787
131	0xbda7a10c	-0.08185014
132	0x3d2e3f3b	0.04254077
133	0xbb4f81aa	-0.003166298
134	0xbb8df2dd	-0.00433193
135	0x3d3f5533	0.04671211
136	0xbc98fda4	-0.018675633
137	0xbdab4a32	-0.08363761
138	0xbb9cf153	-0.0047895103
139	0xbbb0ff9b	-0.0054015643
140	0xbda2563c	-0.07926604
141	0xbdb5d774	-0.08878985
142	0x3d33a9ab	0.04386298
143	0xba12a5d9	-0.0005594171
144	0xbc0198ae	-0.007909937
145	0x3d543ef0	0.051817834
146	0xbc6a5b0c	-0.014303934
147	0xba0f40df	-0.00054646836
148	0xbab13a1e	-0.0013521349
149	0xbd6cc585	-0.057805557
150	0x3d72da60	0.05929029
151	0xbd9b6b2d	-0.075888015
152	0x3d87d3f4	0.06632224
153	0xba2d2e3f	-0.00066063175
154	0xbb579053	-0.003289242
155	0xbc6b9e91	-0.014381067
156	0x3d3a7a31	0.045526687
157	0x3ca81710	0.02051881
158	0x3dc66ddd	0.096889235
159	0xbd69f0e3	-0.057114493
160	0xbb9f23d5	-0.0048565664
161	0xbd867eaa	-0.06567128
162	0xbdf20c8f	-0.118188016
163	0xbba3fda6	-0.0050046025
164	0xbc590d8c	-0.013247859
165	0xbca74a64	-0.020421214
166	0x3bf99b3c	0.0076173823
167	0xbb4bba43	-0.0031086362
168	0xbd97cedf	-0.074125044
169	0x3d1081e7	0.035280135
170	0x3d13aa7d	0.036051262
171	0xbd7643fa	-0.06012342
172	0xbb04dce3	-0.002027326
173	0xbaa8a889	-0.001286761
174	0xbc4bbc4f	-0.012435033
175	0xbd8bcddd	-0.06826375
176	0xbb50404a	-0.00317766
177	0xbaaa505a	-0.0012993917
178	0xbc5f51c5	-0.013630335
179	0xbaeffd41	-0.0018309728
180	0xba576b91	-0.0008217628
181	0xbb542602	-0.0032371287
182	0xbb90788c	-0.0044089016
183	0xbcaff476	-0.021478873
184	0xbdcbc109	-0.09948928
185	0xbb95e9fa	-0.0045750113
186	0x3c7a14c7	0.015263743
187	0x3c081365	0.008305405
188	0x3c276d52	0.010218935
189	0x3d6b52cc	0.057452008
190	0x3c1cd31c	0.009571817
191	0xbb19f0de	-0.0023489515
192	0xba221764	-0.0006183295
193	0x3deb162c	0.11478838
194	0xbdc690d6	-0.09695594
195	0xbd408567	-0.047002222
196	0x3c253438	0.010083251
197	0xbc87cabc	-0.016576163
198	0x3d118a6d	0.035532404
199	0xbd76ebd9	-0.060283516
200	0xbc082324	-0.008309159
201	0xbb97bcf8	-0.004630681
202	0xbd92a480	-0.07160282
203	0xbc89bd31	-0.016813846
204	0xbd3b97d9	-0.04579911
205	0xbb9943e6	-0.0046772836
206	0xbbb7e017	-0.0056114304
207	0xbd7c0c32	-0.061535068
208	0xbb6b7155	-0.0035925705
209	0xbd11c9a0	-0.035592675
210	0xba2b49b8	-0.0006534117
211	0xbcd0fecd	-0.025512123
212	0xba0a768d	-0.00052819477
213	0xbc6c9311	-0.01443936
214	0xba188db3	-0.00058194547
215	0xbaa5fceb	-0.0012663876
216	0xbd9e28c0	-0.07722616
217	0x3e068104	0.13135153
218	0x3d26accb	0.040692132
219	0xb9c7d737	-0.00038116585
220	0xb9f5b858	-0.00046867388
221	0xbb6db3e6	-0.0036270558
222	0xbda3caed	-0.079976894
223	0xbd23e4a7	-0.04001298
224	0x3bc57c82	0.0060268054
225	0x3e0f2a5c	0.13981003
226	0xbc39e0b4	-0.011345077
227	0x3d8ef417	0.0698015
228	0xbdc93b58	-0.09825772
229	0x3da69ee5	0.081357755
230	0x3d24b9d7	0.040216293
231	0xbc3b6bbb	-0.011439259
232	0xbd992e86	-0.07479577
233	0xbd4c474f	-0.049872693
234	0xbb4db23b	-0.0031386751
235	0xbd903303	-0.0704098
236	0x3be2e797	0.0069245803
237	0x3d19cb56	0.037547432
238	0x3da8467e	0.0821657
239	0xbb14d284	-0.0022708485
240	0xbac9d722	-0.0015399198
241	0x3c001c27	0.007819212
242	0xbdc567b7	-0.09638923
243	0xbb3b0db6	-0.0028542108
244	0xbaeafe9d	-0.0017928664
245	0x3d90ce8b	0.07070645
246	0xbae076e1	-0.0017125272
247	0xba5aea5b	-0.0008350962
248	0xbb5238c9	-0.0032077304
249	0xbb85a77e	-0.0040788045
250	0x3cf9e0c4	0.030502684
251	0x3b960391	0.004578062
252	0x3ccee7f0	0.02525708
253	0x3d9d6ea3	0.07687118
254	0x3dce3f9c	0.10070726
255	0xbd3855d3	-0.045003723

gats.0.lin_r.weight f4 [335, 67]
0	0x00009015	5.1687e-41
1	0x000006b8	2.41e-42
2	0xb781e391	-1.5483967e-05
3	0x8000612d	-3.486e-41
4	0x2e3d9937	4.3109707e-11
5	0x80008ee9	-5.1267e-41
6	0x00003cea	2.1852e-41
7	0x00008734	4.8502e-41
8	0x8000a1bd	-5.8021e-41
9	0x800039d9	-2.0752e-41
10	0x00004ca9	2.75e-41
11	0x00007d73	4.5003e-41
12	0x80008e10	-5.0962e-41
13	0x00003038	1.7298e-41
14	0x80008a4e	-4.9614e-41
15	0x000088a8	4.9023e-41
16	0x800098e2	-5.4844e-41
17	0x800087f3	-4.877e-41
18	0x145394cc	1.0682123e-26
19	0xb732ad39	-1.0649958e-05
20	0x000070cc	4.0464e-41
21	0x80008914	-4.9174e-41
22	0x3609f05c	2.0554498e-06
23	0x37057877	7.955466e-06
24	0x00005219	2.9451e-41
25	0x0000069e	2.374e-42
26	0x0d2ac9aa	5.262804e-31
27	0xb6dc8309	-6.5717654e-06
28	0x2c6d9f65	3.3768207e-12
29	0x80005f3e	-3.4166e-41
30	0x80001ee8	-1.1087e-41
31	0x21c8c176	1.3603736e-18
32	0x8000372f	-1.9796e-41
33	0xb542a017	-7.2503593e-07
34	0x00009462	5.323e-41
35	0xb4727364	-2.2579985e-07
36	0x0000593d	3.2013e-41
37	0x80008946	-4.9244e-41
38	0x80005f14	-3.4108e-41
39	0x00003654	1.9489e-41
40	0x80007f00	-4.5559e-41
41	0x00002f0d	1.6879e-41
42	0x37017bbf	7.717811e-06
43	0x00004a02	2.6549e-41
44	0x0000870d	4.8447e-41
45	0x80008cb0	-5.0469e-41
46	0x000057e3	3.1528e-41
47	0x00003136	1.7654e-41
48	0x000058c5	3.1845e-41
49	0x8000b1f7	-6.3842e-41
50	0x000099ea	5.5214e-41
51	0x00002195	1.2047e-41
52	0x8000a07b	-5.757e-41
53	0x00004339	2.4115e-41
54	0x80008927	-4.9201e-41
55	0x8000b07d	-6.3312e-41
56	0x00007d7c	4.5015e-41
57	0x80000add	-3.897e-42
58	0x800086e0	-4.8384e-41
59	0xb6c58265	-5.8862374e-06
60	0xb48c38f7	-2.611848e-07
61	0x00000b97	4.158e-42
62	0x800050c3	-2.8972e-41
63	0x0000a622	5.9597e-41
64	0x00006449	3.5976e-41
65	0x8000579b	-3.1427e-41
66	0x1c17cc61	5.0225863e-22
67	0x00008d44	5.0677e-41
68	0x80008a24	-4.9556e-41
69	0xbaa825bf	-0.0012828632
70	0x800008b9	-3.129e-42
71	0xba9fd1dc	-0.001219328
72	0x80008235	-4.671e-41
73	0x000092a5	5.2606e-41
74	0x3ba33722	0.0049809376
75	0x00008bc4	5.0138e-41
76	0x0000af93	6.2984e-41
77	0x00008d5f	5.0714e-41
78	0x000041fa	2.3668e-41
79	0x800092f6	-5.272e-41
80	0x0000a6cb	5.9834e-41
81	0x00008bce	5.0152e-41
82	0x80005d39	-3.3442e-41
83	0x00009eb1	5.6928e-41
84	0x0000644b	3.5978e-41
85	0xbcf905f8	-0.030398354
86	0xbe2a0e05	-0.1660691
87	0x000070c1	4.0448e-41
88	0xbe09f029	-0.1347052
89	0xba51a260	-0.0007996913
90	0xbad43437	-0.0016189878
91	0x0000a82f	6.0333e-41
92	0x00008d26	5.0635e-41
93	0x3a7427f7	0.00093138166
94	0x39824801	0.0002484918
95	0xbc4a345c	-0.012341585
96	0x0000ac6c	6.1853e-41
97	0x80001def	-1.0738e-41
98	0xba8b8772	-0.0010645224
99	0x00002bc2	1.5697e-41
100	0x3bb6a8be	0.005574315
101	0x3affaf41	0.0019507186
102	0x3d59bead	0.05316036
103	0x38c438a3	9.356558e-05
104	0x38cfb621	9.904453e-05
105	0x00008bc3	5.0137e-41
106	0x00007fd6	4.5859e-41
107	0x80007796	-4.29e-41
108	0x0000082b	2.93e-42
109	0x3d97577b	0.073897325
110	0x80003edb	-2.2548e-41
111	0x00008b78	5.0032e-41
112	0x00007f4d	4.5667e-41
113	0x00006471	3.6032e-41
114	0x8000880c	-4.8804e-41
115	0x0000ade7	6.2384e-41
116	0x00009be4	5.5923e-41
117	0x80001969	-9.115e-42
118	0x80008135	-4.6351e-41
119	0x00008fbe	5.1565e-41
120	0x800091fc	-5.237e-41
121	0x00000e90	5.224e-42
122	0x80003f44	-2.2695e-41
123	0x8000423a	-2.3758e-41
124	0x00005ec3	3.3994e-41
125	0x00006c59	3.8868e-41
126	0x3dd29d8d	0.10283957
127	0x3dca1787	0.09867769
128	0x00008e1d	5.098e-41
129	0x80008b35	-4.9938e-41
130	0x80008b36	-4.994e-41
131	0x800054d0	-3.0425e-41
132	0x80005bfe	-3.3e-41
133	0x3c501113	0.012699383
134	0x80004b4b	-2.701e-41
135	0x8000810b	-4.6292e-41
136	0x3839b8b4	4.4279455e-05
137	0x80004606	-2.512e-41
138	0x3429a49a	1.5799233e-07
139	0x00004825	2.588e-41
140	0x8000871c	-4.8468e-41
141	0x800042c2	-2.3948e-41
142	0x800097f4	-5.451e-41
143	0x8000b124	-6.3546e-41
144	0x8000a097	-5.7609e-41
145	0x80006fd1	-4.0112e-41
146	0x00003816	2.012e-41
147	0x80001354	-6.934e-42
148	0x00003ff3	2.294e-41
149	0x8000a5f3	-5.9531e-41
150	0x0000ae84	6.2604e-41
151	0x8000846d	-4.7505e-41
152	0x37898885	1.6395245e-05
153	0x380a1453	3.2920692e-05
154	0x00009143	5.211e-41
155	0x357eb774	9.4889333e-07
156	0x37e65b73	2.7460721e-05
157	0x371b8841	9.270444e-06
158	0x80000b34	-4.019e-42
159	0x0000a23e	5.8202e-41
160	0xb81ca750	-3.734912e-05
161	0x35c1ffbb	1.4454048e-06
162	0x32b84ab4	2.145439e-08
163	0x800088f2	-4.9127e-41
164	0x80008101	-4.6278e-41
165	0xb6eff0df	-7.150796e-06
166	0x80003778	-1.9898e-41
167	0x360b95ae	2.079974e-06
168	0xb60f3e62	-2.1344972e-06
169	0xb8374d21	-4.3702432e-05
170	0x00008895	4.8996e-41
171	0x00002bea	1.5753e-41
172	0x00008a05	4.9512e-41
173	0x8000b112	-6.3521e-41
174	0x80003637	-1.9449e-41
175	0x80008ab9	-4.9764e-41
176	0xb71ee172	-9.470024e-06
177	0x0000a3be	5.874e-41
178	0x000040c0	2.3228e-41
179	0x800060ae	-3.4682e-41
180	0x80001884	-8.795e-42
181	0x8000a3c0	-5.8742e-41
182	0x0000ac6b	6.1852e-41
183	0x80007d57	-4.4963e-41
184	0x0000aada	6.129e-41
185	0x00001364	6.956e-42
186	0x80002eee	-1.6835e-41
187	0x80008ea1	-5.1166e-41
188	0x00007d0b	4.4857e-41
189	0x0000a796	6.0119e-41
190	0x80008268	-4.6781e-41
191	0x8000728a	-4.1089e-41
192	0x000028eb	1.4679e-41
193	0xb8219705	-3.852604e-05
194	0x385ae698	5.2190007e-05
195	0x00006bbf	3.8652e-41
196	0x8000a795	-6.0117e-41
197	0x80004f50	-2.8452e-41
198	0x80001017	-5.772e-42
199	0x800058d3	-3.1864e-41
200	0x800040f9	-2.3308e-41
201	0x800065e9	-3.6558e-41
202	0x8000a339	-5.8553e-41
203	0xba4cc574	-0.0007811405
204	0x00000307	1.086e-42
205	0xb990cc85	-0.000276182
206	0x000082fc	4.6988e-41
207	0x000003d6	1.376e-42
208	0xb8c81af3	-9.541763e-05
209	0x0000289a	1.4565e-41
210	0x8000af02	-6.2781e-41
211	0x0000939c	5.2952e-41
212	0x0000781b	4.3086e-41
213	0x00000800	2.87e-42
214	0x0000917a	5.2187e-41
215	0x0000b307	6.4223e-41
216	0x000066f5	3.6934e-41
217	0x00003ddc	2.2191e-41
218	0x80009b3f	-5.5692e-41
219	0x39e37a89	0.0004338811
220	0xbc56d942	-0.013113322
221	0x80002ce7	-1.6108e-41
222	0x8000219f	-1.2061e-41
223	0x3903a652	0.00012555093
224	0x3b1afcb2	0.0023649153
225	0x00007e51	4.5314e-41
226	0x00002f2c	1.6922e-41
227	0x3a42d3c7	0.000743207
228	0xbc54e2ae	-0.012993498
229	0x38603bdb	5.3461506e-05
230	0x000042bc	2.394e-41
231	0x80001fe2	-1.1437e-41
232	0x3853802f	5.04257e-05
233	0x00003372	1.8455e-41
234	0x394101d4	0.00018406595
235	0xb8e851f3	-0.00011077886
236	0xb90c29f1	-0.00013367065
237	0xb6e29d95	-6.75367e-06
238	0xb6b33ef5	-5.341945e-06
239	0x80002de9	-1.647e-41
240	0x0000843e	4.744e-41
241	0x00004f60	2.8474e-41
242	0x8000748c	-4.1809e-41
243	0xba099ef9	-0.0005249824
244	0x00002836	1.4425e-41
245	0x00008d51	5.0695e-41
246	0x000068d0	3.76e-41
247	0x00005756	3.133e-41
248	0x000049ce	2.6476e-41
249	0x0000820a	4.6649e-41
250	0x000071a6	4.077e-41
251	0x800090e4	-5.1977e-41
252	0x800081d7	-4.6578e-41
253	0x0000b321	6.426e-41
254	0x000023bb	1.2818e-41
255	0x80008f5e	-5.143e-41

gats.0.lin_r.bias f4 [335]
0	0xb78a44d4	-1.6482933e-05
1	0x3e099e0f	0.13439201
2	0xb88e494f	-6.7847424e-05
3	0xbc956b06	-0.01823951
4	0xb7fc6269	-3.0086567e-05
5	0x3b10f807	0.0022120492
6	0x3a9fea25	0.0012200518
7	0x3d69e27d	0.05710076
8	0x3dac0d55	0.084009804
9	0xb7d11271	-2.4923329e-05
10	0xbb83b981	-0.0040199165
11	0x3a408ed0	0.00073454995
12	0xb987e65f	-0.00025920846
13	0xb777b550	-1.4764562e-05
14	0xb71471a6	-8.847948e-06
15	0xbcf7ee04	-0.030264862
16	0x3e81257d	0.25223914
17	0xbd052389	-0.032504592
18	0x39e8a480	0.0004437305
19	0x3733a456	1.0707494e-05
20	0x39a4cf5e	0.00031435018
21	0x3db6a974	0.08919039
22	0x3d924de5	0.071437635
23	0x3d333aa0	0.04375708
24	0x3e264b8e	0.1623976
25	0x3db990c9	0.09060819
26	0x3dc23418	0.09482592
27	0x3e9462a8	0.2898152
28	0x3c77a03e	0.015113888
29	0xbd3a577b	-0.045493584
30	0x3e25cbfe	0.16191098
31	0x3c63d93c	0.013906773
32	0x3e4e4bd4	0.20146114
33	0xb929f7c5	-0.00016209397
34	0x3e2fc9ce	0.17166826
35	0x3de14f0b	0.110014044
36	0x3d833c3d	0.06407974
37	0x3d0debac	0.034648582
38	0xb74d188f	-1.222467e-05
39	0x37d90e4c	2.5875073e-05
40	0xbc1a398b	-0.009413133
41	0x3ea77d90	0.32712984
42	0xb800e6bb	-3.0732463e-05
43	0x3b2b3163	0.0026121966
44	0x3ba49668	0.0050228126
45	0xb6f025ad	-7.1569434e-06
46	0x39768df9	0.00023513277
47	0x391db942	0.000150417
48	0xb7b88365	-2.1995695e-05
49	0x3d28011f	0.041016694
50	0xbdbaf4cd	-0.09128723
51	0xb8ecf48a	-0.00011298906
52	0xba194555	-0.0005846818
53	0x3d647ef9	0.055785153
54	0x3d7106fe	0.05884456
55	0x3bd05284	0.006357493
56	0xba81e0a9	-0.0009908873
57	0x39d1a636	0.00039987423
58	0xb5ed44fe	-1.7677955e-06
59	0x3dc1d156	0.09463756
60	0x3e3b28db	0.18277304
61	0x3a98a609	0.0011646162
62	0xbc7308d3	-0.014833647
63	0xbb9d33c1	-0.0047974293
64	0x3de840d1	0.11340488
65	0x3e9b4d6b	0.30332503
66	0xba97ff8c	-0.0011596545
67	0xb8e91f3a	-0.00011116122
68	0x3be4745f	0.0069718803
69	0x3945eb71	0.00018875093
70	0x3e37811b	0.17920344
71	0x363c7633	2.8082984e-06
72	0xba287ab3	-0.0006426975
73	0xbb231e93	-0.002489005
74	0x3bab4c1c	0.005227579
75	0x3e35054e	0.17677805
76	0x38b9098e	8.823267e-05
77	0x3e650f2c	0.22369069
78	0xb9c0601c	-0.000366927
79	0x3dcaa2f5	0.09894363
80	0xb6ff77e5	-7.6135498e-06
81	0xb7ac68d9	-2.0552821e-05
82	0xbba8005f	-0.0051269974
83	0x3d43417f	0.047669884
84	0xbb8f18ae	-0.0043669557
85	0x3d3b3901	0.04570866
86	0x34caf2bc	3.7802045e-07
87	0xb89d7ba1	-7.509371e-05
88	0x3a08c1c2	0.00052168604
89	0x3dfda78c	0.12385473
90	0xba459538	-0.0007537189
91	0x3d8aad93	0.06771388
92	0x3e7c7796	0.24654993
93	0x3d17d195	0.037065107
94	0xbbbaada1	-0.0056969677
95	0x3bfa417b	0.0076372004
96	0x3e37bf3e	0.17944047
97	0x3e08b94b	0.13351934
98	0x3da5f6df	0.081037275
99	0x3e0ba01a	0.13635293
100	0x391978b4	0.00014636182
101	0x3bd7303b	0.006567029
102	0x3ce5dc03	0.028059011
103	0xbc137f27	-0.009002483
104	0x3abc4078	0.0014362475
105	0x345f621d	2.0804187e-07
106	0xb76ea1f5	-1.4223614e-05
107	0x3afea1e4	0.0019426909
108	0x3e1ff487	0.15620624
109	0x37a17417	1.9246754e-05
110	0xb78f0875	-1.7050867e-05
111	0xbb84a03c	-0.0040474217
112	0xb546bd51	-7.403624e-07
113	0xb78e2e97	-1.6949414e-05
114	0xb90e9b17	-0.00013599951
115	0x37e8c34b	2.7747496e-05
116	0x3e9ced71	0.30649903
117	0x3d437f4c	0.04772882
118	0x3943b28d	0.00018663165
119	0x3b623a07	0.003451945
120	0x3e7f3b1a	0.24924889
121	0xbbabb24c	-0.0052397605
122	0xba9d90af	-0.0012021268
123	0xbab5463f	-0.0013830139
124	0x327caf8d	1.4708246e-08
125	0x382b84b9	4.0893185e-05
126	0x3e71a5ed	0.23598452
127	0x394d1f80	0.00019562058
128	0xbbc2585f	-0.005930945
129	0x3e2dc1fb	0.16968529
130	0x3e15abd6	0.14616331
131	0x3c8ae2a1	0.016953768
132	0x3e3f165d	0.18660875
133	0xbaf7ba2f	-0.0018900092
134	0x38441f78	4.675935e-05
135	0x3e4f530a	0.2024652
136	0x37875b35	1.6135726e-05
137	0x3a1755e4	0.00057729916
138	0xb934b857	-0.0001723481
139	0xb9bb9b4f	-0.00035783133
140	0xbc612042	-0.013740601
141	0x3d80c7ba	0.06288095
142	0x3e1d1f4a	0.15343967
143	0x398f3a39	0.00027318465
144	0x3b3fa773	0.0029244095
145	0x3dbb3702	0.09141351
146	0xb7a28406	-1.9373383e-05
147	0x380b1fa7	3.316966e-05
148	0xb712bf1a	-8.746772e-06
149	0x3d4d1f64	0.050078765
150	0x3e80a77f	0.2512779
151	0x3dafa56d	0.08576474
152	0x3de62999	0.11238403
153	0x3906bc8a	0.00012849472
154	0xb9462b76	-0.00018898942
155	0xbc1b95b3	-0.00949614
156	0x3d286e78	0.041120976
157	0xbad71de5	-0.0016412108
158	0x3eaef5e6	0.3417198
159	0x3b7bff57	0.0038451755
160	0x37a4081a	1.9554096e-05
161	0xbbf13278	-0.0073607527
162	0xbb7effe4	-0.0038909847
163	0x3bea4f7d	0.007150589
164	0x3be3842b	0.006943246
165	0xbbe7095a	-0.0070506753
166	0x3e3cfda9	0.18456139
167	0x39e022c2	0.00042750506
168	0x3e36f4f9	0.17866887
169	0x3ebf2fdf	0.3734121
170	0x392af1c2	0.00016302525
171	0x3b71977c	0.0036863973
172	0x3926746e	0.00015874367
173	0x39735679	0.000232065
174	0xbc1e4d0e	-0.009661926
175	0x3cb054c1	0.021524789
176	0x379d604a	1.8760697e-05
177	0xb7dc1f9d	-2.6240765e-05
178	0x3dc6ebd3	0.09712949
179	0xb7abab38	-2.0464518e-05
180	0xb84c7cfd	-4.8753795e-05
181	0x397b25bd	0.00023951284
182	0x3793cf30	1.7620245e-05
183	0xbc09fc89	-0.0084220255
184	0x3cb47454	0.022028126
185	0x397b88a7	0.00023988132
186	0x3a9a3823	0.0011765998
187	0x3daaf2f6	0.08347122
188	0x3d3f0e12	0.046644278
189	0x3e289b72	0.16465548
190	0x3d666c9c	0.05625592
191	0xba5aa4b2	-0.00083405816
192	0xb68032d8	-3.8206163e-06
193	0x3e69d105	0.22833641
194	0x3ae40b26	0.0017398342
195	0x3d44194c	0.047875687
196	0x3de353a2	0.11099936
197	0x3b9a77b0	0.004713975
198	0x3eaa5605	0.33268753
199	0x3de315a0	0.11088109
200	0xbb311561	-0.00270208
201	0xb8b70f58	-8.728978e-05
202	0x3a218034	0.00061607664
203	0x3a2fda5a	0.0006708257
204	0x388aa760	6.611529e-05
205	0x38fb34f6	0.000119784774
206	0x3ae5e9db	0.0017541008
207	0x3adc879a	0.001682508
208	0xbccd47ca	-0.025058646
209	0x3d4c7928	0.04992023
210	0x350c0791	5.2165075e-07
211	0x3c078cf0	0.008273348
212	0x36903480	4.2976462e-06
213	0xb82e1767	-4.1506628e-05
214	0x36886820	4.0652376e-06
215	0xb7b49537	-2.1527156e-05
216	0x3acad525	0.0015474899
217	0x3ec1ad50	0.3782754
218	0x3e2a5b8d	0.16636486
219	0x3cb93bf6	0.0226116
220	0xb7504b72	-1.2415332e-05
221	0x39b33675	0.00034182114
222	0xbb0f316b	-0.0021849524
223	0xbc62161e	-0.013799218
224	0x3d2dc8b5	0.042427737
225	0x3ee8e323	0.45485792
226	0x3c4fa996	0.01267471
227	0x3de00070	0.109375834
228	0xbb14bd5f	-0.0022695882
229	0x3e0962bd	0.13416572
230	0x3e404e94	0.18779975
231	0x3c1c3a2a	0.009535352
232	0x3c5f0886	0.013612872
233	0xbb8e57e2	-0.0043439725
234	0xb81676d2	-3.5873447e-05
235	0xbb7fc3ab	-0.003902654
236	0x3e70ebbd	0.23527427
237	0x3d905984	0.07048324
238	0x3e6f4766	0.2336708
239	0x375c8f2f	1.3146359e-05
240	0x38daa68b	0.00010426071
241	0xbb7e56e4	-0.0038809115
242	0x3d708045	0.058716077
243	0x37bf3d6c	2.2797576e-05
244	0xb8d06874	-9.937669e-05
245	0x3dd6e02f	0.104919784
246	0x37a5712a	1.9722229e-05
247	0x398ef55f	0.00027267166
248	0x38b17cfe	8.463299e-05
249	0xb643f64c	-2.9200628e-06
250	0x3bb0e22e	0.0053980565
251	0x3aaca5aa	0.001317193
252	0x3cefa8d1	0.029255303
253	0x3ce402e5	0.027833411
254	0x3e3a14c1	0.1817198
255	0x3c7f72e6	0.015591359

gats.0.lin_edge.weight f4 [335, 1]
0	0xb71b2505	-9.247339e-06
1	0x3dff947c	0.12479493
2	0xb7f8afe5	-2.9645811e-05
3	0xba3556f3	-0.00069175585
4	0xb7ca0100	-2.4080742e-05
5	0x3ab17291	0.0013538172
6	0x369b8f1a	4.636019e-06
7	0xbc9829ee	-0.018574681
8	0xbd76f041	-0.060287718
9	0x3818f11e	3.6464182e-05
10	0xbb1bab86	-0.002375336
11	0x3b03afe3	0.002009385
12	0xb9daa4fe	-0.0004170313
13	0xb7990e51	-1.8245688e-05
14	0xb71ca14d	-9.33588e-06
15	0x3d96b546	0.07358794
16	0xbddf0568	-0.10889703
17	0x3dd4bd16	0.10387628
18	0x39288b42	0.00016073606
19	0x37c62322	2.36198e-05
20	0xb935a9a8	-0.00017324707
21	0x3ce1b816	0.0275536
22	0x3db25cce	0.08709107
23	0x3e0e2633	0.1388176
24	0x3ca44b3e	0.02005541
25	0x3ea173f5	0.3153378
26	0x3e698b96	0.22807154
27	0xbd8e05ed	-0.06934724
28	0xba4663ff	-0.0007568001
29	0x3967e743	0.00022116028
30	0x3d120bcf	0.035655793
31	0xbbb78a0f	-0.0056011747
32	0x3e499616	0.1968616
33	0xb9bf4139	-0.00036478954
34	0xbcb892e5	-0.022530982
35	0x3d9c094d	0.076189615
36	0xbda5ced2	-0.080960885
37	0x3e3d8dba	0.18511096
38	0xb74c9d74	-1.2196007e-05
39	0x382be043	4.0978437e-05
40	0xbbcaaf7b	-0.0061854697
41	0xbe2e54f0	-0.17024589
42	0xb6c4224d	-5.8452483e-06
43	0x3a9ad71e	0.0011813377
44	0x3c0feffd	0.008785245
45	0xb6c3a697	-5.8308465e-06
46	0x3996896a	0.0002871261
47	0x38fd4468	0.00012076722
48	0xb79c99b8	-1.866823e-05
49	0xbd96bf64	-0.073607236
50	0xbdf55238	-0.119785726
51	0xb85083da	-4.971386e-05
52	0x3a65b8a3	0.000876317
53	0xbd8ad5c1	-0.067790516
54	0x3d659d82	0.056058414
55	0xbbb8d607	-0.0056407484
56	0x3836e095	4.360134e-05
57	0x38a56ab0	7.887685e-05
58	0x36165a99	2.2404477e-06
59	0x3d911d4a	0.070856646
60	0xbdc48b9e	-0.09596942
61	0x39f9ebb6	0.000476686
62	0xbc1f8002	-0.009735109
63	0x3c739903	0.014868024
64	0x3d22b0de	0.039719455
65	0xbe0e5ff9	-0.13903798
66	0x3a8091ab	0.0009809037
67	0xb8b671ab	-8.6996086e-05
68	0x3b875775	0.0041302987
69	0x38ff7878	0.000121817866
70	0x3c71ac97	0.014750621
71	0xb62888c1	-2.5113552e-06
72	0xb9e7f356	-0.00044241053
73	0xbc41ea64	-0.011835668
74	0x3c4e71f7	0.0126004135
75	0xbdaf0d9b	-0.08547517
76	0x38a6323b	7.924853e-05
77	0xbe8711f3	-0.26380882
78	0xb947f6a2	-0.00019069997
79	0x3ec02ac7	0.37532637
80	0xb69a3e59	-4.596816e-06
81	0xb7b5ce12	-2.167284e-05
82	0xbb92c0bd	-0.0044785426
83	0x3cddc040	0.027069211
84	0xbc5d6aef	-0.0135142645
85	0xb82bd51a	-4.0968043e-05
86	0xb6d55605	-6.3579087e-06
87	0x37a19dc6	1.9266165e-05
88	0xb8bb9011	-8.943689e-05
89	0x3e296376	0.16541848
90	0xbb85f836	-0.004088427
91	0xbcf1cd0a	-0.029516716
92	0xbe1bb5e6	-0.15206107
93	0x3e32b0ac	0.17450207
94	0xbbe38906	-0.0069438247
95	0x3b7a3326	0.003817746
96	0x3eb5abb5	0.35482565
97	0x3eaa2c01	0.33236697
98	0x3e5ab2a2	0.21357206
99	0xbc8ce28e	-0.017197873
100	0x392bdf77	0.00016391078
101	0x3b26206b	0.0025348912
102	0x3cde982b	0.027172169
103	0xbcacff8f	-0.021117954
104	0x3aa266da	0.0012390271
105	0x3702a652	7.787328e-06
106	0xb728442c	-1.0029453e-05
107	0x39f5ae46	0.00046859885
108	0xbe4d510f	-0.20050453
109	0x38866233	6.407909e-05
110	0xb65c5f8c	-3.283817e-06
111	0x3a9401bc	0.0011292021
112	0xb7614075	-1.3426053e-05
113	0x358cfe92	1.0504903e-06
114	0xb885183e	-6.34645e-05
115	0x37fd0985	3.0164383e-05
116	0xbe9ba31f	-0.3039789
117	0x3df0bf7a	0.11755271
118	0x3910c848	0.00013807521
119	0x3bdb099e	0.006684496
120	0x3f035eb4	0.5131638
121	0x3b1cb37b	0.002391069
122	0xbb964cf7	-0.0045868116
123	0xbb8db923	-0.0043250485
124	0xb7ec4be4	-2.8168732e-05
125	0x381d3ecd	3.7490205e-05
126	0x3f0cb65c	0.5496576
127	0xbacf50a3	-0.0015816878
128	0xbbcc6005	-0.0062370324
129	0xbe47bb47	-0.19505034
130	0x3e82680c	0.25470006
131	0x3c6cc413	0.014451045
132	0xbc00f08d	-0.007869852
133	0x3b5b5926	0.0033469885
134	0x38a01fb1	7.6352975e-05
135	0x3e5d0b1b	0.21586268
136	0xb8f941de	-0.00011885514
137	0x3a892f78	0.0010466417
138	0xb95b631b	-0.00020922387
139	0x38de878b	0.00010611032
140	0x3be67e45	0.0070340955
141	0x3d57eb54	0.05271466
142	0x3e45ba1d	0.19309278
143	0x39b09ae3	0.00033684736
144	0xbab9baa3	-0.0014170002
145	0xbd506c6d	-0.050884653
146	0xb82a44bf	-4.0595183e-05
147	0x37917a8d	1.7342414e-05
148	0xb75db728	-1.3215271e-05
149	0x3dab8590	0.083750844
150	0xbde40058	-0.11132878
151	0x3c20cf40	0.009815037
152	0xbd8b96a8	-0.06815845
153	0x3a6dd7d6	0.00090729946
154	0xb8c73a46	-9.499914e-05
155	0xbc01894c	-0.007906269
156	0x3dcb171f	0.099165194
157	0xba887256	-0.0010410051
158	0xbe10aa4f	-0.14127468
159	0xbac939d6	-0.001535232
160	0x3906b933	0.00012848228
161	0xbac66663	-0.0015136715
162	0xbb373714	-0.0027956413
163	0x3d9f90da	0.077913
164	0x3c0d6be6	0.008631682
165	0xbab254be	-0.0013605577
166	0x3e3f82d4	0.1870225
167	0x38cb242e	9.686533e-05
168	0x3cd64ecd	0.026160622
169	0x3d94e15b	0.07269546
170	0xbbe6deac	-0.0070455875
171	0x3c517128	0.012783326
172	0x3951a728	0.00019994064
173	0x398c5449	0.00026765678
174	0x39693a44	0.00022242317
175	0xbbb59762	-0.005541728
176	0x3801e4e8	3.0969182e-05
177	0xb59d86ac	-1.1736606e-06
178	0x3e0a3516	0.13496813
179	0xb753fd52	-1.2635561e-05
180	0xb7beb9d1	-2.2736293e-05
181	0x39842a67	0.00025208594
182	0x3789b58d	1.6416214e-05
183	0xb90dc688	-0.00013520767
184	0x3d6d0e38	0.05787489
185	0x3992af39	0.0002797784
186	0x3b83aefc	0.0040186625
187	0x3e4c1be8	0.1993252
188	0x3d1c06ea	0.03809253
189	0xbd14a7fa	-0.036293007
190	0xbc981b76	-0.018567782
191	0xba69222b	-0.0008893336
192	0xb3fe11cf	-1.1831036e-07
193	0x3d015fb8	0.031585425
194	0x3b9014aa	0.0043969946
195	0x3d6076e2	0.054800875
196	0x3da7f02f	0.08200108
197	0x3b4019db	0.0029312286
198	0x3d2b1c4b	0.04177503
199	0x3e3b30c9	0.18280329
200	0xba2fa530	-0.0006700335
201	0xb97ceea2	-0.0002412149
202	0x3a24b91f	0.00062836887
203	0x3a176005	0.0005774501
204	0x3adeee20	0.0017008223
205	0x38a5ea0f	7.91141e-05
206	0xba13da1e	-0.0005640107
207	0x3e7b5088	0.24542439
208	0x3e705e5b	0.23473494
209	0x3e3c29dd	0.18375345
210	0x37527176	1.2543393e-05
211	0x3bac0d8a	0.0052506374
212	0xb9344060	-0.00017190119
213	0xb81ee8ab	-3.7886824e-05
214	0x356867b1	8.6577626e-07
215	0xb8129b18	-3.4953555e-05
216	0x3b03e823	0.0020127378
217	0xbeecd86b	-0.46258864
218	0x3ece775e	0.40325445
219	0xbd8fc4a1	-0.07019926
220	0xb48c65f9	-2.6151227e-07
221	0x396e56fc	0.00022729853
222	0xbbe41fc6	-0.0069617955
223	0x3d11e86a	0.035622038
224	0x3e062516	0.13100085
225	0xbeaaf064	-0.33386528
226	0xba5bb8d9	-0.00083817315
227	0x3eb84cb7	0.3599603
228	0xbaf83cd3	-0.0018939025
229	0xbdcc40ac	-0.09973273
230	0x3f14029f	0.578165
231	0x3d7933cc	0.060840413
232	0x3c94e132	0.018173788
233	0xbbbec021	-0.0058212434
234	0xb7d74879	-2.5663745e-05
235	0xbbd8844e	-0.006607569
236	0xbd853a8a	-0.06505306
237	0x3e7615ce	0.24031755
238	0xbe69ea7a	-0.22843352
239	0x382088c8	3.827436e-05
240	0x3883ddce	6.287881e-05
241	0xbb8340e7	-0.0040055397
242	0x3ec0f1c6	0.37684458
243	0x36958b4e	4.4567632e-06
244	0xb8bfbdca	-9.142941e-05
245	0x3ef2837e	0.47365946
246	0x378f6e92	1.7098417e-05
247	0x398cd1ac	0.000268591
248	0x389a5f16	7.3610034e-05
249	0xb78d0049	-1.6808643e-05
250	0x3bef2027	0.007297534
251	0x3e15b5cf	0.14620136
252	0x3de989e7	0.11403256
253	0x3e173c77	0.1476916
254	0xbe96e049	-0.2946799
255	0x3ea144bf	0.31497762
