inference/BMC/model_checkpoints/BMC_model_3.pt (torch, 503011 bytes, 21 tensors)

gats.0.att f4 [1, 5, 67]
000000 c6 23 50 bf 09 a5 ae bd b1 35 6e 3f 90 2d f9 be
       -0.81304586 -0.08527572 0.93050677 -0.48667574
000010 0e b9 f4 3c c7 34 90 3b 44 57 d1 bd b9 e0 a1 bf
       0.029873397 0.004400823 -0.10221723 -1.2646705
000020 f9 a0 37 ba 79 85 dc 3a 8b 26 45 3f 87 b0 9b 3e
       -0.0007004883 0.0016824446 0.77011937 0.30408117
000030 ba 84 83 bf 9f 81 8c 3e 80 90 8b bb 75 b7 0d bb
       -1.027488 0.27442643 -0.004259169 -0.0021624241
000040 f7 77 6f bb 4b 69 1e 3f 29 91 70 bc 92 a4 da bb
       -0.003654001 0.61879414 -0.014683046 -0.0066724503
000050 5c ff 9b 39 d5 df ad 3b e1 c6 38 39 43 35 53 bb
       0.0002975416 0.005306224 0.00017621696 -0.0032227791
000060 0a 54 0c 3d 2c f8 56 3a cf 09 54 3b 53 43 15 3d
       0.034259833 0.00082004326 0.003235448 0.03644116
000070 34 5e ad 3d 7d 3c 2f b9 b4 b7 69 3e f6 b2 bd 3c
       0.084652334 -0.00016711834 0.22823983 0.023156624
000080 52 ed 25 bf b2 fc 94 bc b5 92 4d 3e fa 85 95 3f
       -0.6481525 -0.0181869 0.20075496 1.1681511
000090 76 0a 23 bc 29 87 23 be 86 9a c3 be e2 74 e1 3c
       -0.009951225 -0.15969528 -0.3820383 0.027521554
0000a0 6d 68 99 ba 33 ee 0b b9 66 1c f5 ba 59 39 5f bc
       -0.0011704095 -0.00013344809 -0.001870048 -0.013624513
0000b0 fb f4 c1 38 4a 5a 4e b8 54 b1 b6 3d e6 7d 03 3b
       9.248588e-05 -4.9198316e-05 0.089205414 0.0020064055
0000c0 15 48 87 3e 64 6c 96 ba 74 5e 44 3d 50 0d 4c 3c
       0.26422182 -0.0011476395 0.04794164 0.012454346
0000d0 b8 4f 86 b8 eb 6e f3 bc c8 03 d2 3b 87 0d 02 bf
       -6.404467e-05 -0.029715976 0.006409142 -0.5080189
0000e0 ae 0b e8 bc df b7 df 3d ca 84 46 bf 76 0d a5 3e
       -0.028325882 0.109237425 -0.7754637 0.32236832
0000f0 24 e4 10 3b eb 1e 8f bf 10 aa ff 3b 52 27 2c b9
       0.0022108639 -1.118131 0.0078022555 -0.00016417846
000100 70 19 96 39 2b d8 b0 38 34 26 eb 3c 37 a4 c4 3e
       0.00028629182 8.4325984e-05 0.02870474 0.38406536
000110 d0 7f 70 3c 0a f1 6b bb c6 86 2f 3a 99 72 ac bf
       0.01467891 -0.0036001825 0.0006695803 -1.3472472
000120 5d 97 3f bb f8 c1 86 bd 66 e8 2c bf 13 a8 3b b9
       -0.0029234507 -0.06579965 -0.6754211 -0.00017896322
000130 1d 73 25 be b5 9f 6c 3f 2e 82 74 3d 23 aa 26 3f
       -0.16157193 0.92431194 0.05969446 0.6510336
000140 7e 20 89 3d 05 0f 2c ba 3f ae b5 3a 64 4c 07 3b
       0.066956505 -0.00065635174 0.0013861133 0.0020644898
000150 84 77 67 3f 47 cf 8d 3b 84 07 09 3c 9d fe 72 be
       0.9041674 0.004327688 0.008363608 -0.2372994
000160 28 54 49 3a 8a c5 8c 3a d0 4a 88 3a 5b 35 ae 3d
       0.0007680082 0.0010740024 0.0010398272 0.085062705
000170 6d c9 4e 3e 5f c6 89 3b 92 e1 79 3d 35 ba da 3e
       0.20194025 0.004204556 0.061006136 0.4272019
000180 87 7d b9 bd a8 96 ef 3d 5a d0 c0 3c 98 1c 82 bf
       -0.090571456 0.11698657 0.02353685 -1.0164976
000190 d8 96 f5 b9 a6 ce af 3e ca c3 18 3d d7 61 78 3c
       -0.0004684243 0.34337348 0.037296094 0.015160046
0001a0 7c 7c 93 3d 9f 5a 8a 3d c8 9d eb bc 9e b1 9f b8
       0.07201478 0.06755566 -0.02876176 -7.6147946e-05
0001b0 76 d1 f3 b9 59 30 14 3f d6 4e be bd 83 b5 0e 3a
       -0.00046504632 0.5788627 -0.092923805 0.00054439175
0001c0 c1 20 25 3a 9f 4e 02 3e 4e a8 cf 3d 07 db 9a 3e
       0.0006299131 0.12725304 0.101395234 0.3024523
0001d0 9f 8e e8 3e b3 12 f1 3c 57 bf fc 3d 42 e7 90 ba
       0.4542131 0.029427862 0.12341183 -0.0011055248
0001e0 f8 7b c1 bc 79 6f 6d 3d 86 da 22 3c f8 83 62 bc
       -0.023618683 0.057967637 0.009939795 -0.013825409
0001f0 d7 10 d5 3d 84 1d 5f bf 92 42 93 3b 6d a7 60 3a
       0.104036026 -0.8715441 0.00449402 0.000856987
000200 97 9d 3d 3c 99 29 e1 3b a9 8c 24 bb 87 89 26 3a
       0.011573217 0.006871414 -0.0025108254 0.00063528906
000210 e2 47 a9 39 02 d0 91 bc 8a 26 a8 be 95 4b b0 bf
       0.0003228775 -0.017799381 -0.32841903 -1.3773066
000220 71 f1 46 bd 56 ad 52 3b 52 c6 d7 3e e6 ba 9e b8
       -0.0485701 0.0032146773 0.42143494 -7.56884e-05
000230 5f 1d 85 3e 24 29 eb 3e b6 0f 84 3a a4 8d 9f bb
       0.2599897 0.45929825 0.0010075483 -0.00486918
000240 74 da 8b bf 86 9e dc bd bf 43 84 bc 5d d4 ca 3e
       -1.0926042 -0.107724234 -0.016145585 0.39615145
000250 e6 5d 33 bb 22 ba a6 ba d2 79 47 3b 9d 9e 4c bf
       -0.00273692 -0.0012720267 0.00304376 -0.79929525
000260 1e 72 5a bb 42 ba 3c bf 20 ce 9f 3d 8f b4 4a 3b
       -0.003333218 -0.73721707 0.07802987 0.0030930375
000270 db 6b 80 ba 27 1b 09 bf e6 f9 67 3d e1 18 f9 3b
       -0.0009797768 -0.53557056 0.056634806 0.0076018427
000280 dd f9 b8 bc d9 2f 8a 3e 74 03 30 3c 4b 22 1a 3f
       -0.022580082 0.2698963 0.010743011 0.60208577
000290 72 4c f2 3d db 50 a8 3b 24 c5 c7 3d 56 e4 99 bb
       0.11830987 0.005136592 0.097543985 -0.004696409
0002a0 b1 3b d1 bd 9a f1 92 bf 4e 5f e8 be 99 da 6b bf
       -0.10216463 -1.1479981 -0.45385212 -0.9213043
0002b0 1f 09 05 be a4 ea 8a 3e 05 88 cc 39 37 10 8c 3a
       -0.1299176 0.27132142 0.00039011255 0.0010685985
0002c0 18 c8 5a bb 14 40 8f 3d ea 1e c7 3a 71 18 9a ba
       -0.0033383425 0.06994644 0.0015191708 -0.0011756552
0002d0 dc c7 3b 3f db 3a ee 3d 8c a4 15 3f 4b 87 89 3a
       0.73351836 0.116323195 0.58454204 0.0010492591
0002e0 71 89 96 3d 45 12 13 bd 6f ac 8a be 2e 6c 84 bd
       0.073504336 -0.035906095 -0.2708468 -0.06465946
0002f0 05 73 06 bd ed 5d a8 be 53 a6 c1 be cd 97 9a 3e
       -0.032824535 -0.3288416 -0.37822208 0.3019394
000300 ad 86 b6 be 58 c4 04 bd 7a 84 53 ba 23 4c 72 bd
       -0.35649624 -0.03241381 -0.0008068752 -0.05915464
000310 49 b2 38 bc 47 fb 53 3b 5c 10 42 ba 94 fb 0b b9
       -0.011272975 0.0032345818 -0.00074029504 -0.00013349793
000320 f9 99 f1 3d 9c 35 13 3c ca 65 45 3c 02 30 b4 bc
       0.11796946 0.008984949 0.012048194 -0.021995548
000330 ee c0 46 3b 62 88 2d bf 19 a4 01 bb 67 3d 68 bb
       0.0030327397 -0.6778623 -0.0019781648 -0.003543699
000340 29 71 7d bd c8 92 38 3b 61 49 b5 be e9 e3 a1 3e
       -0.061875496 0.002816366 -0.35407546 0.31619194
000350 fe 84 4d be 29 c2 24 bc da 2e bb 3e 14 39 65 3f
       -0.20070264 -0.010056057 0.36559182 0.8954022
000360 83 66 92 39 f8 da 8e b9 8b 96 3f bf ad 7d 8b 3d
       0.00027923667 -0.00027247495 -0.74839085 0.0681108
000370 e6 52 2e 3c 4a c9 c9 3b 25 d3 9a 3a d5 e0 21 3b
       0.010639882 0.0061580287 0.0011812194 0.002470066
000380 b7 76 11 3f b7 f8 d7 3c a1 a3 19 3f 2b 1b 23 3d
       0.5682177 0.026363714 0.600153 0.03982083
000390 9d 4e cc 3d ac b2 ba 3c c8 b9 d6 3e df 4c 83 3f
       0.09975932 0.022790276 0.41938615 1.0257834
0003a0 b3 a6 c9 3b 8f 52 f1 bd 48 7c 10 3d df da 6c 3d
       0.0061539053 -0.11783325 0.035274774 0.05782592
0003b0 84 6a 8c 3c d0 79 a1 3d f7 d0 85 be b6 ea 34 3d
       0.017140634 0.07884562 -0.2613599 0.04416915
0003c0 74 27 cf 3c 6d 25 9c 39 04 77 93 ba 93 46 72 ba
       0.025287367 0.00029782523 -0.0011250679 -0.0009242084
0003d0 e2 50 79 3c 65 e2 9a 38 2a ee 9d 39 44 b4 6a 3e
       0.015217038 7.3854615e-05 0.0003012282 0.22920328
0003e0 6e 40 bf 3d f1 65 0a 3f 20 ae 9f ba 4d cf 6b 3f
       0.09338461 0.540618 -0.0012182631 0.9211319
0003f0 3a 81 e1 bb 3e e9 2e 3a 33 de 16 3d c1 d6 2d 3c
       -0.00688186 0.0006672329 0.036833 0.010610283

gats.0.bias f4 [67]
000000 8f 62 b1 bd 5c 93 da bc 78 92 e6 bd 29 69 93 bc
       -0.08661377 -0.026681595 -0.112584054 -0.01799448
000010 7d 56 99 bd 73 40 e6 3b 61 43 80 bd 58 c4 1c bc
       -0.074871995 0.007026726 -0.062628515 -0.009568296
000020 8a 0a bd 3b 29 a8 29 bd 54 67 e0 bd 1b 42 07 3c
       0.0057690786 -0.041420136 -0.10957208 0.008255507
000030 d5 cc 11 bd 5a 40 8d bd cf 9a 95 bd 6e 01 35 3a
       -0.035595734 -0.0689704 -0.07304918 0.0006904815
000040 9d a7 08 3c e5 10 f5 bd 57 ac 8e bd c7 58 ae bd
       0.008340743 -0.11966113 -0.06966465 -0.08513027
000050 9b 5f cb bd 39 d9 da 3a 5f ba 80 3b aa d4 28 bd
       -0.09930345 0.0016696817 0.003928467 -0.041218437
000060 cf 8a b4 bd 9e 2f 4b bd 41 20 d1 bd 10 19 c7 bc
       -0.08815538 -0.04960596 -0.1021123 -0.024303943
000070 c5 11 54 bd 27 f0 6e bd bf ec f2 bc a1 1d db bd
       -0.05177476 -0.058334496 -0.029653905 -0.10699011
000080 5d 47 86 3d 2e 8c b4 bc 9b f2 e3 bd aa 1f d9 bd
       0.0655658 -0.0220395 -0.11130258 -0.106017426
000090 61 6b 26 bd 83 c5 fa bc 3d 75 d9 bd 2f 3f 01 be
       -0.04062975 -0.030611759 -0.106180646 -0.12621759
0000a0 2f a2 b4 3b 41 5b 01 3c 0d 34 4a bd 5d 54 35 bd
       0.005512498 0.007895292 -0.049366046 -0.04426991
0000b0 ba a5 98 3b dd 94 1a 3b e6 de a7 bd 3f 29 3b bd
       0.004658428 0.0023587265 -0.081968114 -0.045693632
0000c0 80 a8 a0 bd 25 a9 3f bd 5c 6c bc bd ce 75 a2 bd
       -0.07844639 -0.04679217 -0.092003554 -0.07932626
0000d0 c6 39 75 bc 11 72 bb bd 1a 96 53 bd f6 7b ad bc
       -0.014967388 -0.09152616 -0.05165682 -0.021177273
0000e0 79 18 8b bd 75 80 8a bd 6b 4c 8f bc ac ab be bd
       -0.06791777 -0.067627825 -0.017492494 -0.093100876
0000f0 de 48 d3 3b 40 37 25 bd cc 77 5d bd a6 f5 93 3b
       0.0064478954 -0.040335894 -0.054069325 0.0045153676
000100 90 31 ab 3b 5d 41 96 3b 4f 51 b5 bc
       0.005224414 0.0045854286 -0.022133498

gats.0.lin_l.weight f4 [335, 67]
000000 6e 33 00 00 61 b6 01 00 0c f3 23 3e d8 04 01 80
       1.845e-41 1.57261e-40 0.16010684 -9.3573e-41
000010 ce a4 00 3e 97 d3 00 00 09 43 00 80 54 4a e4 3e
       0.12562868 7.5904e-41 -2.4048e-41 0.44587958
000020 77 20 00 80 09 b9 00 80 2e 12 01 00 ca 95 00 00
       -1.1646e-41 -6.6378e-41 9.8357e-41 5.3734e-41
000030 dc 09 01 80 68 7c 00 80 e2 f5 00 80 3a 9b 01 80
       -9.5372e-41 -4.4629e-41 -8.8206e-41 -1.4752e-40
000040 e7 28 01 80 b6 21 00 00 70 79 be be 61 8b 08 3f
       -1.06508e-40 1.2093e-41 -0.37202024 0.53337675
000050 9c 42 00 00 90 2f be 3e 63 9f 94 be f5 51 e1 3d
       2.3895e-41 0.37145662 -0.29027852 0.1100196
000060 54 f8 01 00 5d 2b 00 00 b9 3d 21 be 22 df f3 3c
       1.80919e-40 1.5556e-41 -0.15746202 0.029769484
000070 9b a7 e9 3a 95 4b 01 80 40 6e 00 00 cd 77 45 be
       0.001782644 -1.18949e-40 3.955e-41 -0.19283982
000080 8d 6e 00 00 1c fb 36 3d c0 83 e6 bd e8 3c 08 be
       3.9658e-41 0.04467307 -0.11255598 -0.13304484
000090 4c 3d 22 3c 10 32 ea 3b 0d b1 00 80 46 44 00 80
       0.00990231 0.007147081 -6.3514e-41 -2.4492e-41
0000a0 60 dc 00 00 31 36 01 80 73 29 d4 bd fe 42 01 80
       7.9056e-41 -1.11276e-40 -0.10359468 -1.15868e-40
0000b0 7e 82 00 80 31 6b 00 80 0d 1e 00 80 98 cc 00 80
       -4.6812e-41 -3.8453e-41 -1.078e-41 -7.3394e-41
0000c0 b2 b4 01 80 f9 e6 00 00 08 fc 00 00 1f 79 00 00
       -1.56657e-40 8.2857e-41 9.0412e-41 4.345e-41
0000d0 3d 2d 01 00 10 58 00 80 ab 9f 00 80 65 71 00 00
       1.08064e-40 -3.1591e-41 -5.7278e-41 4.0678e-41
0000e0 e7 90 00 00 de 9a 00 80 6c 13 00 80 ea f9 6e be
       5.1981e-41 -5.5556e-41 -6.967e-42 -0.23337522
0000f0 ca b7 74 bd 21 28 00 80 e6 dd 00 00 d3 83 00 80
       -0.059745587 -1.4396e-41 7.9602e-41 -4.729e-41
000100 02 5f 00 80 b3 d2 00 00 2e 96 ae bc 19 4a 00 80
       -3.4082e-41 7.5585e-41 -0.021311846 -2.6581e-41
000110 e4 3e 00 00 0f b7 02 3e 79 5c 00 80 e2 aa 6f 3c
       2.2561e-41 0.12765144 -3.3173e-41 0.014628144
000120 f7 28 00 00 0e 97 00 80 d0 82 8f 3d 48 33 00 80
       1.4695e-41 -5.4188e-41 0.070073724 -1.8396e-41
000130 73 78 00 00 d9 03 00 00 58 fa 00 00 82 07 01 80
       4.3209e-41 1.38e-42 8.9806e-41 -9.4529e-41
000140 6f 84 00 80 2c 35 00 00 80 0f 00 00 b4 01 00 80
       -4.7508e-41 1.9074e-41 5.56e-42 -6.11e-43
000150 dd ad 00 00 ba 6a 09 bf 36 8c 00 3f 4e 24 00 80
       6.237e-41 -0.53678477 0.50213945 -1.3024e-41
000160 48 9f cb 3d ab f3 1a 3e 46 60 4a bd 70 52 00 00
       0.0994249 0.15132014 -0.04940822 2.9573e-41
000170 1f 7a 00 00 e1 86 aa bd 37 64 b7 bc 6e 7d 3c 3f
       4.3809e-41 -0.08326507 -0.022386653 0.7362889
000180 20 b6 01 80 1d 46 00 00 83 c1 83 bd d0 49 00 80
       -1.5717e-40 2.5152e-41 -0.06433394 -2.6479e-41
000190 16 e3 c7 bb 77 91 84 bd 95 01 db bc 97 e8 09 3b
       -0.006100069 -0.06473058 -0.026734153 0.0021043175
0001a0 e8 4c 62 3b ef 08 00 00 49 3b 00 80 a6 24 00 80
       0.0034530703 3.205e-42 -2.1268e-41 -1.3147e-41
0001b0 81 69 01 00 cb 18 f1 bd df ca 00 00 19 82 00 80
       1.29683e-40 -0.11772307 7.2776e-41 -4.667e-41
0001c0 5f f5 01 80 7b 9e 01 00 97 02 00 00 d3 4c 01 00
       -1.79858e-40 1.48688e-40 9.29e-43 1.19395e-40
0001d0 bb ab 01 80 13 4e 00 80 a6 24 00 00 d9 f1 00 00
       -1.53441e-40 -2.8008e-41 1.3147e-41 8.6759e-41
0001e0 5c 54 00 00 4d b6 00 80 e6 86 00 00 91 78 00 80
       3.0262e-41 -6.5397e-41 4.8392e-41 -4.3251e-41
0001f0 2d 11 01 00 2e 35 00 00 e0 06 eb bc 2c 2f 79 bc
       9.7997e-41 1.9077e-41 -0.028689802 -0.015209001
000200 0d 31 00 00 c6 2c 01 80 c6 4a 00 80 46 a4 01 80
       1.7596e-41 -1.07897e-40 -2.6824e-41 -1.50766e-40
000210 6e 8d 00 80 29 ce 34 bd 8b 96 00 00 2b a0 01 00
       -5.0735e-41 -0.044141922 5.4005e-41 1.49293e-40
000220 9a 63 57 bd ed 31 00 00 87 7f 01 be b2 69 00 80
       -0.05258522 1.791e-41 -0.12646304 -3.7916e-41
000230 d7 72 00 80 9c 19 c0 be d1 39 00 80 14 1c 00 00
       -4.1197e-41 -0.37519538 -2.074e-41 1.0073e-41
000240 dd 98 00 00 0a 35 01 00 2e 09 01 80 14 76 00 80
       5.4837e-41 1.10862e-40 -9.5129e-41 -4.2358e-41
000250 ca 64 00 80 8f 66 00 80 bb 12 00 00 2b 9e 00 80
       -3.6156e-41 -3.6791e-41 6.719e-42 -5.674e-41
000260 ed c9 49 bd f2 37 7c bd fb 2b 00 00 d2 74 50 be
       -0.049264837 -0.06157679 1.5777e-41 -0.20357063
000270 51 ed 08 bd 8d 6c 7c bd 94 39 00 80 35 14 01 80
       -0.033429448 -0.06162696 -2.0655e-41 -9.9084e-41
000280 cd 12 6e 3e 7a 11 97 bd 5c a9 ff bc ca 9a 00 80
       0.2324936 -0.0737638 -0.031208687 -5.5528e-41
000290 71 2b 01 00 99 be 4b 3f 4e 39 00 80 a8 f8 9a bd
       1.0742e-40 0.79587704 -2.0557e-41 -0.07566959
0002a0 ee d4 05 3e 67 e1 7a 3e 89 b4 38 bc a7 f2 0b bc
       0.13069507 0.24500047 -0.011273512 -0.00854174
0002b0 62 a5 01 80 32 51 00 00 a4 28 00 80 cb 4f 00 00
       -1.51164e-40 2.9127e-41 -1.4579e-41 2.8624e-41
0002c0 9a c1 77 be 56 28 00 80 f4 10 00 80 c0 39 00 00
       -0.24194947 -1.447e-41 -6.082e-42 2.0717e-41
0002d0 cb 7c 00 80 c3 32 00 00 c2 a2 00 80 5c b2 00 00
       -4.4767e-41 1.821e-41 -5.8387e-41 6.3983e-41
0002e0 d6 0b 01 80 e6 7c 00 00 58 84 00 80 1d 87 00 00
       -9.6081e-41 4.4805e-41 -4.7476e-41 4.847e-41
0002f0 f5 a1 00 80 e2 9c 00 00 7d 28 01 00 74 62 00 00
       -5.8099e-41 5.6279e-41 1.0636e-40 3.5318e-41
000300 7e 2e 00 80 b6 04 c0 3e 2c 4f be 3c 44 ff 00 00
       -1.6678e-41 0.37503594 0.023231111 9.1572e-41
000310 81 98 00 00 c3 46 00 00 53 32 00 80 79 04 00 80
       5.4708e-41 2.5385e-41 -1.8053e-41 -1.604e-42
000320 5f 95 d3 3c d1 cd 00 00 96 9d 00 80 2e d0 ef 3c
       0.025828062 7.3833e-41 -5.6531e-41 0.029274072
000330 7a 38 00 80 85 f8 ea 3d 27 28 00 80 66 70 00 00
       -2.026e-41 0.114731826 -1.4404e-41 4.0321e-41
000340 92 f1 86 3e e6 5d 00 00 c2 09 01 00 92 bf 00 80
       0.2635618 3.3684e-41 9.5336e-41 -6.8722e-41
000350 69 80 00 00 25 19 00 00 e6 00 00 00 38 42 01 00
       4.6065e-41 9.02e-42 3.22e-43 1.1559e-40
000360 24 5a 00 00 7a 91 01 80 3b ea 00 00 36 a7 8e bd
       3.2336e-41 -1.44023e-40 8.4026e-41 -0.06965487
000370 ff 40 36 3d 80 87 00 80 07 6f 42 3e eb e6 20 be
       0.04449558 -4.8608e-41 0.18987666 -0.15713088
000380 88 33 b9 3c 5c 25 01 00 3f 69 00 80 bb f2 08 be
       0.02260758 1.05238e-40 -3.7755e-41 -0.13373844
000390 1c cb 85 3c 18 9a 06 3c e1 1e 00 00 f4 0f 00 80
       0.016332202 0.00821545 1.1077e-41 -5.723e-42
0003a0 1c ba 01 be 98 10 01 00 8a 69 42 3d 55 7e 89 bd
       -0.12668651 9.7788e-41 0.04746393 -0.06713549
0003b0 52 4f 0a be c9 d6 c4 3b 36 3d 56 3b 2b bf 00 00
       -0.13506821 0.0060070497 0.0032690293 6.8578e-41
0003c0 31 04 01 80 54 e8 00 80 7e 9a 00 00 c5 65 dc bd
       -9.3339e-41 -8.3344e-41 5.5421e-41 -0.107615985
0003d0 c1 86 00 00 e7 f2 01 80 55 88 00 00 a7 fa 01 00
       4.834e-41 -1.78972e-40 4.8907e-41 1.81753e-40
0003e0 4f 46 01 00 df 32 00 80 37 52 00 00 73 2d 00 00
       1.17057e-40 -1.8249e-41 2.9493e-41 1.6304e-41
0003f0 a0 87 00 00 e3 77 00 00 e0 32 01 80 e4 a5 01 00
       4.8653e-41 4.3007e-41 -1.10086e-40 1.51346e-40

gats.0.lin_l.bias f4 [335]
000000 71 dd ee 3d b5 85 c0 3c d9 8c 97 bc 78 01 b1 3d
       0.1166333 0.023501256 -0.018499779 0.08642858
000010 41 ac a2 3a 96 9b 36 bc 70 e9 91 bc f1 7f 6b 3c
       0.0012410955 -0.011145493 -0.017811507 0.014373765
000020 a0 eb 2d bc 71 e5 a9 bd f4 d6 be bd b1 d5 ce bc
       -0.010615259 -0.082957156 -0.09318343 -0.02524838
000030 52 e2 e6 3d a7 0f cd bc 76 b5 73 bc 94 a6 e6 bb
       0.11273636 -0.025031878 -0.014874807 -0.0070389006
000040 cb e3 6b bb dd ca bd bd 64 25 cb bd ae 3a af bd
       -0.003599393 -0.09267209 -0.09919241 -0.08556114
000050 f1 19 9e bc 2b 5b 11 bc 0b 1a d6 bb ee ed 9f bc
       -0.01929948 -0.008871834 -0.0065338663 -0.019522633
000060 3f e4 93 bd 7e f0 bf 3c 75 09 b8 bb 67 71 45 3b
       -0.07221269 0.023430105 -0.0056163617 0.0030127408
000070 26 af ef bc 67 1d a9 bd e4 2a 4c bc 77 37 55 bd
       -0.029258322 -0.08257561 -0.012461398 -0.05205485
000080 af 54 01 3e 39 62 30 3b b8 e4 2e 3c 37 81 96 3d
       0.1262996 0.0026914014 0.010674648 0.073488645
000090 2c e5 cc bd d6 68 01 bd c8 93 ee 3d 1a 27 89 bd
       -0.100046486 -0.03159412 0.11649281 -0.06696911
0000a0 fc d3 0b bc 50 cd 04 bc 98 3e a1 bc 5c 91 5f 3c
       -0.008534428 -0.008105591 -0.019683167 0.013645496
0000b0 1a f5 0b bc 73 e1 c8 bb fe f1 24 bd a0 0b 5a 3d
       -0.0085423235 -0.0061303913 -0.040269844 0.053233743
0000c0 72 31 9b 3c ed 39 01 bc 99 a1 8b bd 5c c1 be bd
       0.018944476 -0.007887346 -0.06817932 -0.09314224
0000d0 33 72 cb bb 8d 04 01 be a9 6b 6c bd a2 39 86 3d
       -0.006208682 -0.12599392 -0.05771986 0.06553961
0000e0 b0 78 07 bd 51 5d c2 bd 3a f7 38 3d e7 aa 18 3b
       -0.03307408 -0.09490455 0.04515765 0.0023295225
0000f0 4f 6d 40 bc da 77 86 3d 33 6c a2 bc 00 59 19 bc
       -0.011744811 0.065658286 -0.019826984 -0.009359598
000100 04 98 05 bc 34 6c 35 bc d1 0f ef bc 72 38 69 3d
       -0.008153919 -0.011073161 -0.029182347 0.056938596
000110 6d 17 9a bd 46 ee fb bd 73 12 2b bc d4 62 d2 3d
       -0.07523999 -0.123013064 -0.01044141 0.10272756
000120 55 1c 38 bc b6 00 5d bc d2 49 e4 3c d8 c2 31 bc
       -0.011237224 -0.013488939 0.027867232 -0.010849677
000130 de 87 f6 3c 43 47 cc 3d ba 6f 68 3c 69 37 cd 3d
       0.030094083 0.099745296 0.014186794 0.10020334
000140 27 5e 40 bd 48 c7 d0 bb 65 37 e5 bb 91 b1 98 bb
       -0.04696479 -0.0063714124 -0.006995129 -0.0046598394
000150 57 15 94 3d 60 72 3c bd bc 0d 1e 3c f5 cc 09 bc
       0.07230633 -0.046007514 0.009646829 -0.008410682
000160 bb 60 0f bc 57 3f fb bb 30 8e 94 bc 1e 2e a0 bd
       -0.00875109 -0.007667463 -0.018134207 -0.07821296
000170 6b fb a4 3d 42 da d5 39 2a 13 f9 bb e9 aa 86 3d
       0.08055767 0.0004078914 -0.0076011615 0.06575567
000180 41 c5 d6 bd 06 d8 8f bd 97 01 18 bd 13 79 02 3e
       -0.10486842 -0.07023625 -0.03711089 0.12741499
000190 7f 2f d3 3b 59 c2 68 3c 3b 52 8f bc aa 33 c0 3b
       0.006444871 0.014206492 -0.017495265 0.005865534
0001a0 60 86 48 bd 90 1f 0f 3d 07 99 09 3b 51 0a 03 bc
       -0.048956275 0.03494221 0.0020995752 -0.007998065
0001b0 f7 dd 26 bc 60 9e 3a 3e 4d 4b 91 bd 43 25 14 bc
       -0.0101847565 0.18224478 -0.070944406 -0.009042087
0001c0 91 2d ce bb 14 78 70 bd 5f 91 3a 3d 4d 83 7d 3d
       -0.006292053 -0.058708265 0.045548793 0.061892796
0001d0 31 8d 1e 3e ae 1d c2 3c ad 0a 94 3c 35 94 cf bb
       0.15483548 0.023695793 0.018071497 -0.0063348063
0001e0 56 a4 ca bd b9 db 9d 3b 1d 75 c3 bd 31 33 00 be
       -0.09894626 0.0048174527 -0.09543822 -0.12519528
0001f0 62 19 6d bd 13 7b ed 3d b0 9b b6 bd 13 9f 43 bc
       -0.057885535 0.1159574 -0.08916414 -0.011939782
000200 5d 6d 75 ba dc 89 8b bd d5 b5 16 bc 2e 48 18 bc
       -0.00093623047 -0.06813404 -0.009198626 -0.009294553
000210 ed b7 06 bc 7e b7 fa bc 88 8e 5c 3c 3f a4 57 3e
       -0.008222562 -0.030605074 0.0134617165 0.21058749
000220 bd df 0a be 69 4d 44 bc 61 5d 19 3d 85 da 44 bc
       -0.13561912 -0.011981347 0.03744257 -0.01201499
000230 df 1d be bc 4a 77 cf 3c d4 be 39 bc 21 7a 05 3d
       -0.023207603 0.025325436 -0.011337001 0.032587174
000240 bb ff ff 3c 16 87 a9 bd 20 4e f4 bd 1e 22 91 bd
       0.031249871 -0.08277719 -0.11928964 -0.070865855
000250 12 ac 7e bc 0c 4b df bb 51 bd 95 bb 61 3d a8 3c
       -0.015543954 -0.006814366 -0.0045696874 0.02053708
000260 38 90 85 bd 15 04 27 3d f6 c9 c3 bc 57 2e 20 bc
       -0.06521648 0.040775377 -0.023900013 -0.009776673
000270 70 f3 00 bc fd ed de 3c 37 70 d5 bc 1d fa ed bc
       -0.00787054 0.027213091 -0.026054485 -0.029049927
000280 ce 14 0d be 81 12 34 3d 38 10 89 bd e2 47 95 3a
       -0.13777468 0.04396296 -0.066925466 0.0011389221
000290 5f 19 30 3d 96 63 6c bc d2 f9 fb 3d bd 93 9d 3c
       0.042992946 -0.01442804 0.12303509 0.019235486
0002a0 77 d5 78 bd 04 41 66 3d b3 d3 ed 3d d9 74 cd 3d
       -0.06075045 0.056214347 0.11612644 0.100320525
0002b0 a3 a4 fd 3c 67 1d 83 bd db 6d 16 bc 62 f3 0d bc
       0.030962294 -0.064020924 -0.009181465 -0.008663984
0002c0 b7 3d ac bc 4c 8b 84 3b bd a0 11 bc 4a b0 f3 bb
       -0.021025522 0.004044926 -0.008888421 -0.007436787
0002d0 28 56 83 3c 66 11 17 3c 7b e6 33 bc ab 26 7c bc
       0.016032293 0.009220457 -0.010980244 -0.015390079
0002e0 4b 07 77 bd 6a a7 8d bc 78 e5 02 3d 98 84 dd bd
       -0.06030969 -0.017291743 0.03195712 -0.10816306
0002f0 10 d8 80 bd 08 8b d5 3c 6c a9 89 3d f9 dc 9e 3c
       -0.06291211 0.026067272 0.06721768 0.019392477
000300 5f a3 0a bd 11 a2 a7 bd 2b 40 46 bc fa b4 fb bd
       -0.03384721 -0.081852086 -0.01210026 -0.12290378
000310 9c 7f bb 3c 6f 1e 23 bc 39 26 10 bc 8c 0b 16 bc
       0.022887997 -0.009955986 -0.0087981755 -0.009158026
000320 5a dc f9 3c 2b ae 9a bd 7e 6f 7c bd 46 3e 0a be
       0.03050058 -0.07552751 -0.061629765 -0.13500318
000330 7e 56 17 bc 63 b9 2e ba c9 7e 40 bc 98 28 a4 bb
       -0.00923693 -0.0006665198 -0.011748978 -0.005009722
000340 a8 d4 3a 3c 6a 29 4a bc aa 74 92 bd 72 fa d4 3c
       0.01140324 -0.012338975 -0.07151158 0.025998328
000350 35 7f f2 3c d8 ca 59 bd c2 b3 60 bc c3 38 39 3e
       0.029601673 -0.053171962 -0.013714733 0.18088059
000360 76 07 06 bc 7c 97 ab bb 0c a5 bf bd 28 e1 68 bd
       -0.00818049 -0.005236564 -0.09357652 -0.05685535
000370 90 06 af bc 11 99 50 bd 87 9e 20 bc 67 86 f0 bb
       -0.021365434 -0.050927226 -0.009803421 -0.0073402408
000380 68 59 e4 3d 0c 1b 8a bd e8 7f d2 3d 9a 63 86 bd
       0.111498654 -0.0674344 0.102783024 -0.06561966
000390 ba 74 fe 3c 9f 8b 35 bd 16 16 35 bd e2 06 f5 3d
       0.031061519 -0.044322606 -0.044210516 0.119642034
0003a0 d4 c8 a7 bc a3 07 1f 3e 6d 70 42 bd 0a 55 8a bd
       -0.020481504 0.15530257 -0.0474705 -0.06754501
0003b0 6a 05 92 bd b2 51 b9 bd 7a 4b 34 bd b5 6f 46 bd
       -0.07129939 -0.09048785 -0.044017293 -0.048446376
0003c0 60 93 72 bb ba 22 17 bc 4f ec 1a bc 70 a5 ac bc
       -0.0037014112 -0.009224588 -0.009455754 -0.02107498
0003d0 ae e8 19 bd bc 54 0d bc 5e b0 df bb ce 74 4a 3c
       -0.037575416 -0.008626159 -0.0068264445 0.01235695
0003e0 08 03 66 bd a6 08 0e 3d d1 86 84 bc 0b 99 cd 3d
       -0.056155235 0.034676217 -0.016177567 0.10038956
0003f0 aa 55 0b be 28 50 b0 bb ab 57 68 bc 6e 01 c8 bc
       -0.13606897 -0.005380649 -0.014181058 -0.024414744

gats.0.lin_r.weight f4 [335, 67]
000000 3c ae 01 00 42 4a 00 80 44 95 50 3d 71 19 00 00
       1.54339e-40 -2.6639e-41 0.0509236 9.127e-42
000010 63 4f 09 bd 89 3e 01 80 67 32 00 80 88 82 34 bb
       -0.033522975 -1.14269e-40 -1.8081e-41 -0.0027543623
000020 85 3f 00 00 d9 0c 00 80 a6 32 01 80 65 07 01 80
       2.2787e-41 -4.609e-42 -1.10005e-40 -9.4488e-41
000030 ef 39 00 80 19 3f 00 00 02 69 00 00 8a 90 00 00
       -2.0783e-41 2.2635e-41 3.767e-41 5.1851e-41
000040 93 56 00 80 59 01 01 00 26 dd 19 3c ec 57 8f 3d
       -3.1057e-41 9.2319e-41 0.009391105 0.06999192
000050 0e 54 00 80 7f 64 46 ba 5b 09 34 bc 9f ab 8d 3c
       -3.0153e-41 -0.00075680757 -0.010988559 0.01729375
000060 ab c9 00 80 c7 59 00 00 a4 a7 af bd a4 cc 64 3d
       -7.2345e-41 3.2206e-41 -0.08576897 0.055859223
000070 7e b8 e5 ba be 46 01 80 f3 88 00 00 9b 8b 25 3b
       -0.0017526296 -1.17213e-40 4.9128e-41 0.0025260213
000080 d7 18 01 80 08 e4 ee bc d6 ac a4 bc 28 f1 ba bd
       -1.00746e-40 -0.029161468 -0.020101946 -0.09128028
000090 bc c7 cf b6 0c f2 da b9 7b a0 00 00 68 fd 01 00
       -6.192333e-06 -0.0004176054 5.757e-41 1.8274e-40
0000a0 4d e3 00 80 37 82 00 00 89 71 4c bb 87 f4 00 00
       -8.154e-41 4.6712e-41 -0.0031195602 8.772e-41
0000b0 31 a2 00 80 b2 c5 01 00 c5 25 00 00 40 87 00 00
       -5.8183e-41 1.62755e-40 1.3549e-41 4.8519e-41
0000c0 bf 5e 00 00 7d 16 00 80 c1 39 00 80 77 20 00 80
       3.3988e-41 -8.067e-42 -2.0718e-41 -1.1646e-41
0000d0 d1 4f 01 00 5f dd 01 00 4b 78 01 80 a3 55 00 80
       1.20468e-40 1.71248e-40 -1.34988e-40 -3.072e-41
0000e0 44 ff 00 00 45 fa 00 00 e3 6a 00 80 45 ae 33 bd
       9.1572e-41 8.978e-41 -3.8344e-41 -0.04386737
0000f0 8b 97 e6 bd 6f 89 00 00 1e 1f 01 00 6a 42 00 00
       -0.11259373 4.9302e-41 1.02998e-40 2.3825e-41
000100 35 ff 00 00 97 51 00 00 99 00 38 bc 3c 00 01 80
       9.1551e-41 2.9269e-41 -0.011230611 -9.192e-41
000110 9e b6 00 00 8b 8b 79 3c 67 2b 01 80 44 9a 08 bc
       6.5511e-41 0.015231024 -1.07405e-40 -0.008337561
000120 32 40 01 00 c8 42 01 80 01 d4 81 bb a6 46 00 00
       1.14864e-40 -1.15792e-40 -0.0039620404 2.5344e-41
000130 05 fa 00 00 95 72 00 80 8d 85 00 80 e4 34 00 80
       8.969e-41 -4.1104e-41 -4.7909e-41 -1.8974e-41
000140 be 63 00 80 1b 16 01 80 a5 61 00 00 61 44 01 80
       -3.5781e-41 -9.9765e-41 3.5028e-41 -1.16365e-40
000150 49 44 00 80 db 7d 36 3c c9 1c 37 bc 8b 8e 00 00
       -2.4496e-41 0.011138405 -0.0111762965 5.1135e-41
000160 f4 cd 75 3b e1 2f 00 bb 6a c0 2e ba eb 8f 00 00
       0.003750679 -0.0019559788 -0.0006666245 5.1628e-41
000170 d7 73 01 00 cd db 5b ba 90 6b 56 3b 50 71 3a 3b
       1.33391e-40 -0.000838694 0.003271792 0.0028448887
000180 b7 9f 01 00 3f 93 00 00 23 15 b0 bb d8 a6 01 00
       1.4913e-40 5.2822e-41 -0.0053736134 1.51688e-40
000190 51 20 8c 3c e1 a9 d3 38 a5 e0 fa bb bf c7 6b 38
       0.017105253 0.000100929065 -0.0076561742 5.6214394e-05
0001a0 6e 8a a8 38 86 07 01 80 c7 75 00 80 63 c4 00 80
       8.036649e-05 -9.4534e-41 -4.225e-41 -7.045e-41
0001b0 4f 27 00 80 c3 6a b4 3b c2 cb 00 80 8f 07 01 80
       -1.4101e-41 0.005505891 -7.3095e-41 -9.4547e-41
0001c0 92 7c 00 00 18 3a 00 80 55 97 00 80 49 5c 00 00
       4.4687e-41 -2.084e-41 -5.4288e-41 3.3106e-41
0001d0 f7 81 00 00 af 3e 00 80 69 89 00 00 29 e8 00 80
       4.6623e-41 -2.2487e-41 4.9293e-41 -8.3283e-41
0001e0 cf 70 00 00 6b e7 00 80 b1 12 00 80 72 b3 00 80
       4.0468e-41 -8.3017e-41 -6.705e-42 -6.4373e-41
0001f0 3f 7b 00 80 63 ae 01 80 69 19 dd bb 2a 8c d9 bb
       -4.4212e-41 -1.54394e-40 -0.006747414 -0.0066390233
000200 22 7b 00 00 d8 1c 00 00 94 53 00 00 15 77 00 80
       4.4172e-41 1.0347e-41 2.9982e-41 -4.2719e-41
000210 41 16 00 80 cd ef fc 38 90 3c 00 00 b2 f1 00 00
       -7.983e-42 0.00012060963 2.1726e-41 8.6704e-41
000220 72 d3 a5 3b 5c 58 01 00 97 a0 ac b9 21 75 00 80
       0.0050606066 1.23533e-40 -0.00032926045 -4.2018e-41
000230 ff c3 00 80 d5 63 fb 3d c2 49 00 80 f4 86 00 80
       -7.031e-41 0.12274901 -2.646e-41 -4.8412e-41
000240 8b aa 01 00 2d ab 00 00 bd 45 00 00 9f 3a 00 00
       1.53015e-40 6.1406e-41 2.5017e-41 2.1029e-41
000250 90 7e 01 80 c5 fd 00 00 92 25 00 00 46 29 01 80
       -1.37238e-40 9.1035e-41 1.3478e-41 -1.06642e-40
000260 41 df a1 bc 1e 21 74 be 3f 99 01 80 68 ce b1 3d
       -0.019759776 -0.23840758 -1.4681e-40 0.08681947
000270 b3 ae 35 bc 4c 5e 5f bb 55 1a 01 00 96 32 01 00
       -0.011089015 -0.0034083305 1.01282e-40 1.09982e-40
000280 d3 35 93 bc f1 34 0a 3c c4 e1 b9 3b 84 a1 00 00
       -0.017970001 0.008435474 0.0056726653 5.7941e-41
000290 1c 53 00 00 90 d6 fb 3b 29 d8 00 00 03 99 d0 bc
       2.9814e-41 0.00768549 7.7544e-41 -0.025463587
0002a0 70 75 03 3a fe 0e 44 bb 15 f2 95 38 13 f8 a5 37
       0.0005014753 -0.0029916163 7.149965e-05 1.9785051e-05
0002b0 a8 60 00 80 0b 7a 00 80 fc 34 00 00 37 f5 00 00
       -3.4674e-41 -4.3781e-41 1.9007e-41 8.7967e-41
0002c0 e4 a3 21 3c 6c 20 00 80 f8 69 00 00 be 87 00 00
       0.009865735 -1.1631e-41 3.8014e-41 4.8695e-41
0002d0 91 26 00 80 a2 5f 00 00 d9 ca 00 80 f6 db 01 00
       -1.3835e-41 3.4307e-41 -7.2768e-41 1.70743e-40
0002e0 2d 55 00 80 4d a9 01 80 90 00 00 80 11 dc 00 00
       -3.0555e-41 -1.52569e-40 -2.02e-43 7.8945e-41
0002f0 b2 e7 01 80 52 bd 00 80 9e d2 00 00 48 bf 01 80
       -1.74952e-40 -6.7915e-41 7.5555e-41 -1.60454e-40
000300 bd 53 00 80 df bb 3c bb ae 28 85 ba ad 3e 00 00
       -3.004e-41 -0.0028798503 -0.0010159218 2.2484e-41
000310 41 fa 00 00 66 3e 01 80 8b ac 01 80 a6 5e 00 00
       8.9774e-41 -1.1422e-40 -1.53732e-40 3.3953e-41
000320 3b 8c 06 3c fd 71 01 00 42 bb 00 00 06 dd 32 bb
       0.0082121445 1.32727e-40 6.7175e-41 -0.0027292385
000330 e0 69 00 80 d8 33 3e 3a a0 26 00 00 79 86 00 00
       -3.7981e-41 0.000725565 1.3856e-41 4.824e-41
000340 d7 f2 01 00 94 59 00 80 b9 21 00 00 63 84 00 80
       1.7895e-40 -3.2135e-41 1.2097e-41 -4.7491e-41
000350 53 2f 01 00 2f 05 00 80 b3 07 01 00 28 3e 00 00
       1.08812e-40 -1.86e-42 9.4597e-41 2.2297e-41
000360 96 5c 00 80 13 7c 01 80 6e 33 00 80 b3 b8 f5 3c
       -3.3214e-41 -1.36345e-40 -1.845e-41 0.029995298
000370 56 25 4e bd af 91 00 80 30 36 00 80 7f a4 c5 bc
       -0.050328575 -5.2261e-41 -1.9439e-41 -0.02412629
000380 d7 45 9f bb 1f 13 00 00 54 4b 01 00 82 65 aa 3b
       -0.0048606205 6.86e-42 1.18858e-40 0.005200089
000390 6b 8a 8e 3c d9 1c a7 3c 49 12 01 80 5e a6 01 80
       0.017399987 0.020399498 -9.8395e-41 -1.51517e-40
0003a0 9c 39 1f 3c bc 1c 00 00 ce d5 37 3c 2a f7 29 bb
       0.009718325 1.0308e-41 0.011220409 -0.0025934675
0003b0 d2 19 b8 3a 1b 6e b3 39 63 7e 09 3a ba 8e 00 00
       0.0014045781 0.00034223575 0.00052449683 5.12e-41
0003c0 38 8a 00 80 ff 10 01 80 05 4d 00 00 e6 60 4a bd
       -4.9584e-41 -9.7933e-41 2.763e-41 -0.049408816
0003d0 6f 1c 01 00 d7 f4 00 00 f7 58 00 00 9d d0 00 00
       1.02036e-40 8.7832e-41 3.1915e-41 7.4836e-41
0003e0 70 e6 00 00 b6 6d 00 00 0b 87 00 00 0e b5 00 00
       8.2665e-41 3.9357e-41 4.8444e-41 6.495e-41
0003f0 9a 7d 00 80 8a 02 00 80 3b 01 00 00 7e 27 01 00
       -4.5057e-41 -9.11e-43 4.41e-43 1.06003e-40

gats.0.lin_r.bias f4 [335]
000000 9c a0 2d 3e 73 c8 d5 3c 2b d5 9a 3d 15 8f 06 3e
       0.16955799 0.026096558 0.0756019 0.13140519
000010 fe 11 85 ba 6a 95 08 3b 53 c9 12 3d fa f0 45 3e
       -0.0010152457 0.002084101 0.03583653 0.19330207
000020 34 c8 46 b9 b6 a1 1d bb ea 07 26 3e cd 13 b7 3d
       -0.00018957333 -0.0024052686 0.16213956 0.089393236
000030 ae ff 93 3e b0 11 43 3c b9 8e ec 3a 17 58 c3 ba
       0.28906006 0.0119060725 0.0018047906 -0.0014903572
000040 d0 e0 09 3b b0 a5 0a 3e e1 60 23 3c ca 4c f2 3a
       0.002103854 0.13539767 0.009971828 0.001848602
000050 b7 1c 60 ba ab 94 a6 3a b2 aa 05 bb b1 38 8b 3b
       -0.0008549201 0.0012709101 -0.0020395932 0.0042487015
000060 3b 70 ce 3b a4 c1 02 bb 6f c5 30 bb 1a a5 24 bc
       0.0063 -0.0019951845 -0.0026973148 -0.010049129
000070 ab ee 9c 3c 6c 5f 8f bb 2e 3c a9 3b 0a 93 d2 3b
       0.019156775 -0.004375389 0.0051646447 0.00642622
000080 76 69 73 3e ec ac 58 ba d7 8d 1a 3d 46 39 3e 3e
       0.23770699 -0.00082655135 0.037732925 0.18576536
000090 f6 29 aa bb 25 97 61 3d cd 49 a7 3d 3c 39 23 3b
       -0.0051929904 0.055075783 0.08168373 0.002490594
0000a0 e7 21 a6 38 32 ba 6e b9 ce 01 52 3b 8d 50 07 bc
       7.9218116e-05 -0.00022766812 0.0032044533 -0.008258951
0000b0 32 c6 ac b8 2b d8 11 3a b9 b4 33 3c e4 d3 2e ba
       -8.238516e-05 0.00055635226 0.010968381 -0.00066691474
0000c0 f2 a3 cb 39 65 f6 64 ba d3 cb 98 3c cf bf e6 3a
       0.00038841326 -0.00087342254 0.018651878 0.0017604771
0000d0 54 e0 4b ba 99 de 8d bb 71 90 c7 bb 7f 91 0e 3e
       -0.0007777263 -0.004329514 -0.006090217 0.1392269
0000e0 3d 0b ae bb 8b 98 74 3d 17 00 69 3e fe 93 9c 3c
       -0.0053113983 0.05971579 0.2275394 0.019113537
0000f0 ca 2d c9 39 3e 11 c2 3e 3b 21 1c bb 37 88 6b ba
       0.00038371823 0.3790378 -0.0023823518 -0.0008984836
000100 ec 2d 49 39 fb 41 0f b9 74 88 54 3a 6c 84 78 3d
       0.00019185961 -0.00013662122 0.00081074913 0.060673162
000110 83 86 c2 bc a7 df 00 b9 22 99 4e bb c4 6e d1 3e
       -0.02374578 -0.00012290348 -0.003152438 0.4090482
000120 31 e4 d8 3b 26 9a 43 3b 66 07 0c 3e fc de 8e 3a
       0.0066189994 0.0029846518 0.13674697 0.0010900195
000130 b8 f6 16 3d 4d d4 25 3e df a0 94 3c a9 5b e1 3d
       0.036856383 0.16194268 0.018143116 0.11003811
000140 1c 79 73 3c c3 7e 77 bb 86 91 44 39 75 c1 a9 bb
       0.014860418 -0.0037764765 0.00018746228 -0.0051805326
000150 d1 fd 2d 3e 47 a1 91 bc 06 ec c3 bc cb 62 9a 3d
       0.16991355 -0.017777098 -0.023916256 0.075383745
000160 26 93 34 ba 89 c0 81 39 0c ef 0d bb 7f b2 03 3c
       -0.0006888382 0.00024748247 -0.0021657376 0.008038162
000170 b5 99 a3 3b 37 74 81 bb e1 42 d1 3c e2 e7 97 3d
       0.0049926885 -0.0039506215 0.025544586 0.07417275
000180 7e 6c 8a b9 7c 41 06 3c 20 af 5c ba 45 a5 af 3e
       -0.00026402244 0.008194324 -0.00084184296 0.34305778
000190 a9 a9 a1 bb c1 9b 4c 3d 73 5e 9a 3a fb 72 57 3b
       -0.004933555 0.049953226 0.0011777416 0.003287493
0001a0 d9 32 01 3d 58 70 14 3d de 77 11 3a 71 77 04 3a
       0.031542633 0.03623995 0.00055491726 0.00050531985
0001b0 02 f1 9f ba 8c aa 7b 3d 65 0b 48 3c fd c7 d2 b9
       -0.0012202563 0.061441943 0.012209748 -0.00040203324
0001c0 20 d5 85 ba e1 52 65 3d 1a d4 d5 3c b2 2d ea 3c
       -0.0010210611 0.055987243 0.026102114 0.028586242
0001d0 ae f1 1a 3d f8 8d bf 3c fc 63 be 3c 93 a6 9c 3b
       0.03782814 0.023383126 0.023241036 0.0047805994
0001e0 8b b5 4a 3a ec 7f c9 3c e6 8f c2 bc fb 0e be bb
       0.00077327405 0.02459713 -0.023750257 -0.0058001257
0001f0 62 da 22 3d 63 98 88 3e 8f 37 dd bb 82 69 1a ba
       0.039759047 0.26678762 -0.006751008 -0.00058903557
000200 e1 07 c4 bc f6 d0 18 bb 0a 62 2c ba c1 5f 16 39
       -0.023929538 -0.002331791 -0.0006575888 0.00014340786
000210 a6 9c 2f 3a 37 e8 be bb e7 8a 88 3d 3c e6 af 3e
       0.00066990627 -0.005826022 0.066671185 0.34355342
000220 2f 63 9e bb 29 0d f8 ba 17 88 73 3d 40 dd 86 ba
       -0.004833601 -0.001892482 0.059455957 -0.0010289326
000230 89 3b a3 3d cf 04 4e 3d d4 32 89 3a c7 d6 1c bb
       0.0797034 0.050297555 0.0010467418 -0.0023931728
000240 78 c6 96 3e ed 3c 1a 3d 56 d8 c1 3b d8 75 fc 3d
       0.29448295 0.03765576 0.005915682 0.123271644
000250 31 d6 eb 3a 8b 11 6e ba c4 1a 1c bb 6b 39 79 3e
       0.0017992911 -0.00090815936 -0.0023819664 0.2433831
000260 89 54 67 3b 6c a5 2a 3e 99 b8 a5 3c d1 87 58 bb
       0.003529819 0.16664666 0.020229625 -0.0033039937
000270 63 3e 9f bb 2d ff 17 3e 93 9e b8 3b 60 0d c8 bb
       -0.004859732 0.14843436 0.005634138 -0.00610511
000280 2f fe 71 bb ea d7 a9 bc 8d 20 09 3b 7a 59 36 3e
       -0.0036925187 -0.020732839 0.0020923943 0.1780757
000290 30 39 c1 bc 45 de 45 3a 07 9f 88 3c 54 36 7c 3b
       -0.02358684 0.00075480744 0.016677393 0.003848453
0002a0 4c 72 66 3d 8a 03 af 3e f7 d4 0f 3e 9b df 7e 3e
       0.056261346 0.34182388 0.14046083 0.24889986
0002b0 13 90 4a 3d a7 fc c7 3d 19 bd 9b 3a 22 bd a4 3a
       0.049453806 0.097649865 0.0011881917 0.0012568573
0002c0 2d b6 80 3b 7e f6 8a 3c ee 93 ba b8 6d fe 47 3a
       0.003927967 0.01696324 -8.896725e-05 0.000762916
0002d0 77 ec 2f 3e 29 87 a7 bb c9 1f 08 3e 1c d1 41 b9
       0.17180048 -0.005112548 0.13293375 -0.00018483814
0002e0 95 13 f4 3b 15 a8 f2 3c cb 65 98 3d 26 aa 4d bc
       0.0074486234 0.029621163 0.074412905 -0.012552774
0002f0 9b 7c 24 3c bd d4 09 3e 2a f8 06 3e 16 fb 37 3d
       0.010039474 0.1346006 0.13180605 0.04491719
000300 79 55 a8 3d f1 5b ba bb 89 c2 66 39 af 53 5f 3c
       0.082194276 -0.00568723 0.00022006979 0.013630792
000310 95 ec 20 3b 90 79 dc ba cc 98 bc 39 2a 22 b4 ba
       0.0024555076 -0.0016820896 0.00035971997 -0.0013743092
000320 da 70 52 bb 6e 83 06 bd 29 1e 22 bd e9 ff b1 bb
       -0.0032110722 -0.032840185 -0.039579544 -0.005432118
000330 12 d0 50 bb 07 b1 70 3e 82 09 ad 3a 1b eb 93 bb
       -0.00318623 0.2350503 0.0013201686 -0.0045141107
000340 f7 56 94 3c 4e 53 38 ba 30 98 ce 3d 48 dd 8a 3d
       0.018107874 -0.00070314563 0.10087621 0.06780487
000350 33 fb e8 bd 1f 86 9c 3c b7 84 9e 3d c9 a4 11 3e
       -0.113760374 0.019106923 0.07740157 0.14223017
000360 1f 11 2c 3a 7e 71 3c b8 9f 43 37 3e 6b e6 86 3b
       0.00065638305 -4.492839e-05 0.17896889 0.0041168234
000370 75 73 0d bd 44 62 16 bc b3 00 30 bb 7c fa 9c 3b
       -0.034533937 -0.009178702 -0.0026855886 0.0047906023
000380 c9 bb ae 3d 28 d3 29 3c ee ee e7 3d 49 82 15 bc
       0.08531911 0.010365285 0.11324869 -0.009125301
000390 49 69 6a 3d 01 df 60 3c 7b 2c e1 3c d4 ed 20 3e
       0.057229314 0.013725043 0.02748703 0.15715724
0003a0 67 54 14 bb 91 77 40 bd 44 96 15 bb d1 5c 03 bc
       -0.0022633316 -0.046989027 -0.002282516 -0.008017735
0003b0 d2 1f df 3b cc 1f 29 3b 36 78 71 bd 1a d9 e7 3b
       0.006809213 0.0025806306 -0.058952533 0.007075441
0003c0 2d 22 a8 3b 7a a4 82 b9 72 6e b2 b9 02 b8 e6 b9
       0.005131027 -0.00024918077 -0.00034033094 -0.00044006115
0003d0 ab c9 16 bb 55 9c e3 39 7a a5 d7 39 b0 f0 79 3c
       -0.0023008387 0.0004341329 0.00041131285 0.015255138
0003e0 21 57 0d 3b c6 df c9 3d 2d 54 2b 3a 7e a1 3d 3e
       0.0021566825 0.098571345 0.00065356755 0.18518636
0003f0 88 c4 8d bb 9d ea 96 b9 09 90 47 3d d6 5a 06 bd
       -0.004326407 -0.0002878503 0.048721347 -0.03280147

gats.0.lin_edge.weight f4 [335, 1]
000000 a7 46 c0 3c 5e 2e b9 3b 71 31 d6 3e 60 8e c8 bd
       0.02347119 0.0056512794 0.41834596 -0.09792781
000010 fd 83 a7 bb 66 b8 fb ba ef 67 e9 bb fa d0 35 3e
       -0.00511217 -0.0019204735 -0.0071229856 0.177555
000020 16 ca c0 39 a6 6a 56 bb b4 4f 69 3e 0c 5a 1e 3e
       0.0003677166 -0.0032717376 0.2278431 0.15464038
000030 21 b6 c7 bd da a3 95 3d 1c 47 e8 38 3b 9a fc 39
       -0.09751535 0.07306643 0.00011075867 0.00048180096
000040 3a ef d9 3b b9 27 60 3e 61 38 ba 3b 76 61 fe 3a
       0.0066508325 0.21890153 0.0056829904 0.0019407708
000050 b2 ec 1b 39 b0 c9 d7 ba f8 74 a8 b9 ae 37 42 3a
       0.00014870128 -0.0016463306 -0.00032130606 0.00074088096
000060 4c 5a f9 ba 41 58 16 bb 3b c5 a2 bb 3c 48 3b bc
       -0.0019024103 -0.0022940787 -0.0049673594 -0.011430796
000070 53 64 59 3c 39 35 b0 bb 29 65 7d 3d ca 2f 31 ba
       0.013268548 -0.0053774384 0.061864052 -0.0006759135
000080 d1 e4 85 3d 04 d2 ff 3a b9 ae 96 3d fe 3f d2 3e
       0.06537784 0.0019517546 0.073575445 0.41064447
000090 e7 af 70 ba 53 a0 05 3c 96 7f 7c bd 8a 8d c2 bb
       -0.0009181485 0.0081559 -0.061645113 -0.005937283
0000a0 c8 c6 3e 39 c0 9a 5c 39 b7 76 33 3b 67 15 15 3b
       0.00018193864 0.00021038484 0.0027383992 0.0022748352
0000b0 75 b4 af 39 a4 a6 7d b7 6e 84 1f b9 78 3e 19 bb
       0.00033513052 -1.5118774e-05 -0.00015212756 -0.0023383182
0000c0 3b 60 2d 3d ec 83 34 b9 e3 0e 51 3c 1a 3a 34 bb
       0.0423281 -0.00017215282 0.012759897 -0.0027500452
0000d0 57 a7 b9 b8 39 32 5d 3b ad 86 f8 b9 ab 90 ab bc
       -8.852657e-05 0.003375186 -0.00047402587 -0.020943007
0000e0 96 53 d1 ba f4 89 27 3d bf 95 bd bd 9d b9 10 3e
       -0.0015970345 0.040903047 -0.092570774 0.14133306
0000f0 02 53 48 b9 fb 62 be bd ec 2a 9a bb 12 b3 47 bb
       -0.00019104409 -0.09296223 -0.0047048237 -0.0030471724
000100 41 50 d3 b9 ff 1f c0 3a 13 dc bc bb 7b 86 84 3e
       -0.0004030485 0.0014657973 -0.0057635396 0.2588385
000110 a6 36 c2 bb b3 78 66 3b 3a 24 bf ba 64 ef 66 be
       -0.0059269248 0.0035167157 -0.001458294 -0.22552258
000120 6c b2 fa 39 f4 ad 1a bc 7d 2a 54 bd 61 f6 0a 3b
       0.0004781665 -0.009440888 -0.051798332 0.0021203982
000130 bf ae ca bc 1a cf d8 3e 02 73 41 3d a8 8a b7 3e
       -0.024741529 0.42345506 0.04722882 0.35847974
000140 cf 29 c3 3c 90 35 02 3b 79 d3 2c 3a 99 26 85 39
       0.023823647 0.0019868352 0.0006592791 0.00025396494
000150 d0 14 d7 3e 49 9d 0e bb 84 1f c8 ba df 17 5c bd
       0.42008066 -0.002176123 -0.0015268181 -0.053733703
000160 00 df 90 bb b6 c3 25 3b c8 54 f3 ba fd 30 cc 3c
       -0.004421115 0.0025293655 -0.0018564695 0.024925703
000170 47 76 3b 3e 6a a0 be 39 68 45 0b 3d 20 46 92 3e
       0.18306838 0.00036359142 0.034001738 0.28569126
000180 d7 75 39 bc b2 c4 0e 3d 37 7e d5 3b 18 c9 7b be
       -0.011319599 0.034855552 0.00651529 -0.2458843
000190 89 b3 44 bb a3 87 3a 3e ed 3b 43 3c 03 ae 3c 3c
       -0.0030014238 0.18215804 0.011916143 0.011516097
0001a0 36 5e a5 3d 87 83 49 3d ff 21 62 bc 27 c1 8d 3a
       0.0807461 0.0491977 -0.013802051 0.001081501
0001b0 57 78 0f bb 50 41 ad 3e c3 e6 d8 3a 84 91 ec b9
       -0.0021891796 0.33838892 0.0016548265 -0.00045121845
0001c0 a2 da 17 bb 86 3f a5 3d 13 02 87 3d cd 55 27 3e
       -0.0023171087 0.08068757 0.065921925 0.16341324
0001d0 99 25 9e 3e 35 fa a5 3c a6 01 8e 3d 73 74 61 3b
       0.3088806 0.02026091 0.06933908 0.0034401685
0001e0 af 61 d7 bb f5 a5 59 3d 33 bd d7 3a 34 2d 9b bb
       -0.006572924 0.053136785 0.0016459584 -0.0047356132
0001f0 23 74 b1 3d 64 10 11 be 66 86 36 bb 0f 4e 6a 38
       0.086647294 -0.14166409 -0.0027851104 5.5862645e-05
000200 c9 fd db bb c1 6b 34 ba 04 a9 33 ba b3 0e a0 ba
       -0.006713603 -0.00068825117 -0.00068534934 -0.0012211412
000210 32 92 de 3a c8 1d 9d bb d7 d9 5b bd 15 cc aa 3e
       0.0016980825 -0.00479481 -0.053674545 0.33358827
000220 64 2a b4 3b 0c 6d 2b 3a 2b 9c b2 bd 48 dc 82 3a
       0.0054982174 0.00065393816 -0.08721193 0.0009983862
000230 04 5d df bc b5 7d a4 bc 1a 17 a6 39 9c 80 0c bb
       -0.027266033 -0.020079473 0.000316792 -0.0021438962
000240 10 52 89 3e 0b 33 86 3c 28 8b 10 3b 90 3e 97 3c
       0.2682042 0.016381761 0.00220556 0.01846245
000250 b9 0f cf 3a 43 79 03 3b bd 00 0f bb 93 73 2e 3e
       0.0015797532 0.0020061291 -0.0021820508 0.17036276
000260 e3 12 d5 ba 1c 3a 0b be 26 f3 0a 3c 2f 9a 86 ba
       -0.0016256239 -0.13596386 0.008480823 -0.0010269339
000270 43 57 20 3a 0e 44 1d be 2d a0 8b 3a 60 e5 41 bb
       0.00061165186 -0.15357992 0.0010652595 -0.002958618
000280 40 0a 0b 3b 37 13 ab 3a 74 55 a2 37 5f e8 22 bd
       0.0021215826 0.0013051991 1.9351697e-05 -0.039772388
000290 3f 37 f9 3b 92 f9 b3 b9 c4 35 66 bc 07 bb 1b 3b
       0.007605463 -0.00034327485 -0.014050905 0.00237626
0002a0 56 a5 a0 3c 8c 9e 5c 3e a0 5e fa 3d 65 97 1b be
       0.019610088 0.21544856 0.122250795 -0.15194471
0002b0 6b 1c 94 3b 88 da c1 bb 38 87 19 ba 3e 0d 9c 39
       0.0045199892 -0.0059159435 -0.0005856636 0.00029764505
0002c0 ee 32 ab 3a dd 4a 82 bb 72 d0 32 3a 14 99 00 3b
       0.0013061443 -0.0039762096 0.0006821222 0.0019622492
0002d0 fc af 0a 3d 38 89 2e bb 38 06 88 ba c6 9b a9 38
       0.033859238 -0.0026632082 -0.001037783 8.087563e-05
0002e0 7a c1 4d b9 0c 4a 44 3c c2 af 16 3d 26 ca 15 bc
       -0.00019622399 0.011980545 0.03678871 -0.009142434
0002f0 4c 33 30 3c f7 5b 9f 3d b7 97 bd 3d ea 05 0d bd
       0.010754418 0.07781213 0.09257453 -0.03442947
000300 5c 15 83 3b a1 da d2 3a 64 d1 d4 3a 3b 46 6b 3c
       0.004000349 0.0016086885 0.001623672 0.014360006
000310 e5 d1 44 3b 5f 99 3c b9 be b1 f4 b8 8d 0b a2 3a
       0.0030032333 -0.00017986212 -0.00011667934 0.0012363062
000320 a2 9c f8 bc 34 c2 d8 bb bf 7b 7d bb 82 c9 31 bc
       -0.030348126 -0.0066149477 -0.0038678495 -0.010851266
000330 cb 77 0b bb 9f 23 57 be 52 c6 72 3b 31 e6 9f ba
       -0.002128112 -0.21009682 0.0037044478 -0.001219934
000340 36 d2 0b bc cd 09 7f 3b 6d f0 8c 3d 0d 9f 7b 3e
       -0.008534005 0.0038915754 0.06881795 0.24572392
000350 8c 93 39 be 36 cf 40 3b 9a b5 3d 3e af 56 e6 3e
       -0.18122691 0.0029420382 0.18526307 0.4498801
000360 df 91 a4 3a 18 3d 9a 3b 27 d8 af 3a 15 d1 5b 3d
       0.001255568 0.00470699 0.0013415859 0.053666193
000370 d3 7b df bb d5 bb 92 b9 3d 1e 2a bb d2 e7 cf 3b
       -0.006820181 -0.00027987236 -0.0025957965 0.006344774
000380 23 67 a9 3e 48 a8 66 3c a8 37 ae 3e f3 1e 1e 3b
       0.330865 0.014078207 0.34026837 0.0024127334
000390 4a 86 9a 3d 81 da 82 3c b5 d6 8a 3e f9 8a eb 3e
       0.07545145 0.015973331 0.27116933 0.46004465
0003a0 fb b6 be 38 b0 6c 9c bc 8b c0 cc 3b c9 86 e5 bb
       9.093989e-05 -0.019094795 0.006248539 -0.007004593
0003b0 2e 18 d2 3b b6 73 bb 3c 2f 20 7b be 29 da 9c 3c
       0.006411574 0.022882324 -0.24523996 0.019146996
0003c0 a6 4a 8c 3c cc b8 a8 b9 24 ec 6e b7 77 51 1e 3a
       0.017125439 -0.0003218114 -1.4240886e-05 0.0006039361
0003d0 2e 95 08 3b a7 f9 19 3a 59 3e 4a ba 9d c3 b6 3d
       0.002084087 0.0005873688 -0.0007714979 0.08924029
0003e0 f2 8a fd 3b d9 a9 87 3e 60 73 18 3b de 85 f0 3e
       0.007737511 0.2649677 0.0023262128 0.46977133
0003f0 66 c9 31 bb b2 3f c4 ba ac 3f 16 3d 0b ba c6 bb
       -0.00271281 -0.0014972596 0.036681816 -0.0060646585
