inference/BMC/model_checkpoints/BMC_model_9.pt (torch, 503011 bytes, 21 tensors)

gats.0.att f4 [1, 5, 67]
000000 c3 ee 02 3c 39 62 e2 ba af d6 ac 3e 00 ed f3 bb
       0.007991496 -0.0017271704 0.3375754 -0.007444024
000010 a1 94 28 3f 7c 5a a9 bc f0 91 13 bf 38 21 c1 bc
       0.6585179 -0.02067303 -0.5764456 -0.02357541
000020 b2 23 4f 3f cd ee f1 3e 1b 59 0c bd 08 b8 e3 3e
       0.8091384 0.47252503 -0.034264665 0.44476342
000030 9a c7 45 3d fa a1 41 3c cc 8b 17 ba 54 56 3a 3f
       0.048286058 0.011818403 -0.0005781024 0.72787976
000040 1e 94 47 bf 29 24 50 3d d8 e2 07 bd 99 28 28 bd
       -0.77960384 0.050815735 -0.03317532 -0.041054342
000050 3b 9f 7c bd e5 68 60 3f ee 03 c0 3e ec ee 2b b8
       -0.06167529 0.87660056 0.37502998 -4.099209e-05
000060 8d da 81 bd c3 a7 ea 3b 56 7d 3f 3d 01 2b d0 3c
       -0.063405134 0.007161112 0.04675039 0.02541113
000070 e9 db 47 bf 47 6b f9 3c 3e 2f 05 3b 13 80 21 bf
       -0.7806993 0.030446662 0.0020322348 -0.6308605
000080 c5 2d 4e b8 92 f6 10 b7 c7 45 61 3a cc 76 b8 3e
       -4.9156853e-05 -8.640478e-06 0.00085934665 0.36028135
000090 08 bf 10 3d 12 6b e3 3e 26 32 0e 3f 8f 7c 0a ba
       0.03533843 0.44417626 0.5554527 -0.0005282843
0000a0 2b 16 17 3b 18 10 52 3f 90 26 81 3d af c2 16 3f
       0.0023053985 0.8205581 0.06306183 0.58890814
0000b0 96 a9 0f 3f 12 76 df 39 7e d9 30 3f 01 6c 8a 3c
       0.5611814 0.00042621844 0.69081867 0.016897203
0000c0 7a 05 4b 3f fa 15 0d 3b ee ca b9 be 1a 18 2e be
       0.7930523 0.0021527992 -0.36287636 -0.17001382
0000d0 5a e7 0c 3b 9a 0f 09 3c 21 3c ba 3c c4 d7 53 3f
       0.00215002 0.008365536 0.02273375 0.8275111
0000e0 eb f9 d0 3c a1 28 7d 3f 5c 98 80 3c 5c 27 a8 3d
       0.025509795 0.9889012 0.01569765 0.08210632
0000f0 a2 9e 9f 3e 6e a6 84 ba c3 9b 22 3e 04 3f e6 3c
       0.31175715 -0.0010120401 0.15879731 0.02810622
000100 d2 15 8f 3e 25 30 15 3c b2 05 54 3e 4e 49 18 3b
       0.27946335 0.009105717 0.20705298 0.0023237052
000110 fb d1 3a bf ce 4f 8c 3c b5 81 a3 3e 34 86 38 bf
       -0.72976655 0.017127898 0.31934896 -0.7207978
000120 d0 fa 5a bf 8b d4 87 3f 3a 7f a3 ba 6a 2b 67 ba
       -0.8553896 1.0611738 -0.001247383 -0.000881842
000130 53 bc bc 3e 48 bd 50 3e b8 28 a8 3c 12 36 e1 bd
       0.3686243 0.20384705 0.020527229 -0.10996641
000140 57 fc 95 3e 5d d7 fa b9 2c cf c8 3e fa 52 4f bf
       0.29294083 -0.00047844174 0.3922056 -0.8098599
000150 fb 77 85 3e 9b 14 29 bc f5 3c d0 bc df 3f 35 3e
       0.260681 -0.010319854 -0.025419692 0.17700146
000160 26 13 10 3f 62 31 14 3f 29 a5 42 39 13 f4 b9 be
       0.5627922 0.5788785 0.00018562809 -0.36319026
000170 d2 02 b8 3d e4 ec a1 3c dd 0e 0f 3c e9 e4 0a bf
       0.08984913 0.019766279 0.008731571 -0.5425554
000180 fe 34 bd 3e 3d af c1 3e 6b ed 3c 3d 75 ea 8f 3d
       0.36954492 0.3782901 0.046124857 0.07027141
000190 40 1e c3 b7 92 ff 23 3a ab 74 16 bb 35 5d bb 3b
       -2.3259898e-05 0.00062560395 -0.0022957723 0.0057178983
0001a0 d7 c1 5a 3c d2 ee ec 39 56 26 20 3c 5f 6b 02 3f
       0.013351879 0.00045191363 0.009774765 0.50945085
0001b0 0a a9 a5 3d 1d 41 98 be 30 b8 bd 3e b0 e9 b4 be
       0.08088882 -0.29737177 0.37054586 -0.3533454
0001c0 ad 46 26 bf 25 aa 6c 39 3f 0c 63 3d 6c 9a b5 3d
       -0.6495159 0.00022570098 0.0554316 0.08867344
0001d0 96 cd 27 ba 99 a6 08 3f e8 f8 3d bf f9 df 07 3b
       -0.0006401179 0.5337921 -0.74207926 0.0020732863
0001e0 6b 01 75 3d 0d 14 08 bf c7 b1 94 3d 8f 12 20 3c
       0.059815805 -0.53155595 0.07260471 0.00977005
0001f0 44 9b 27 bf 3f 8a 1a bf 61 e0 08 3d 3b 3d 6a bf
       -0.6547129 -0.60367197 0.03341711 -0.9149968
000200 98 a5 27 3b 86 80 bb 3c 59 0b 00 bf d3 1f 4d 3d
       0.002558088 0.022888433 -0.50017315 0.050079178
000210 eb 98 f4 be 86 19 34 3f a6 4a b7 bb bf 15 19 bf
       -0.47772917 0.70351446 -0.0055936156 -0.59798807
000220 ad e8 85 3c 4c 52 41 3e a9 45 62 bf 55 26 f5 3d
       0.0163463 0.1887905 -0.8838754 0.11970202
000230 d5 f4 3f 3f bd 16 38 3e c2 50 3a 3a 0e fa 93 bc
       0.7498296 0.17977424 0.0007107371 -0.018063571
000240 26 01 2a bf a5 8d 76 3b 49 6b 8c 3d 3f 26 8c 3d
       -0.66408 0.0037621048 0.068564005 0.06843232
000250 3a 0e 93 3e cc 52 bb 3d 3d 87 ab bb 46 28 51 3d
       0.28721792 0.091466516 -0.0052346275 0.0510638
000260 4d 25 6e bc 76 04 4b 3d bc 70 3c 3e 85 42 38 bf
       -0.01453526 0.0495648 0.1840238 -0.719765
000270 2c 50 3b 3f 5b 32 7f 3a 46 d0 b6 3e d1 fd 36 3b
       0.7316921 0.00097349816 0.35705775 0.0027922282
000280 5d 3f 51 3d 46 78 10 3f c7 87 85 3e fb 98 87 bc
       0.05108582 0.5643352 0.26080152 -0.016552439
000290 20 e5 0a 3e aa 3a 2f 3d 0b b1 84 3a 7a 68 8a b8
       0.13563967 0.042780556 0.0010123564 -6.599813e-05
0002a0 04 00 ae be 20 8e e8 3c f4 e9 89 bb 18 c1 d5 3e
       -0.33984387 0.028388083 -0.0042087976 0.4174888
0002b0 a3 e8 80 3d 16 49 aa 3c 7a 3b 8b 3c 9b be bb 3e
       0.06294372 0.020786803 0.016996134 0.36668858
0002c0 4b 71 32 3f 84 8d cb be 2b 7a c7 3c 98 82 8b ba
       0.6970412 -0.39756405 0.024350246 -0.0010643778
0002d0 23 f1 cd 3e 1e 58 8b 3d c0 2d 03 3f fd c4 cf 3e
       0.40223035 0.068039164 0.51241684 0.40579978
0002e0 f8 16 74 3e 45 eb c2 3c ad ae 81 be 00 2b 0a bf
       0.23836887 0.023793826 -0.2532858 -0.5397186
0002f0 c8 22 7a 3f 10 2a 03 be 7c 4d 84 3f fe d4 0a 3f
       0.9770932 -0.12809014 1.0336146 0.5423125
000300 d5 e2 9d 3a d9 fd af 3b 08 d7 c9 3e 15 db 37 3f
       0.0012045751 0.005370837 0.39421868 0.7181867
000310 d5 9e d0 3c 7b bc 9e 3d 18 2e 00 3e 6e 30 e3 3a
       0.025466362 0.077507935 0.12517583 0.0017333159
000320 16 23 02 3d 8a 88 ec 3b 66 30 bc be ca d5 09 3f
       0.03177174 0.007218425 -0.36755675 0.5384184
000330 8c 32 35 3f ec 4e 51 3e bf 95 1b 3f 32 f6 d0 3e
       0.70780253 0.20440263 0.6077537 0.40812832
000340 2a 04 38 bc 21 4e 85 be fe 3a 14 3d 3e b1 27 3f
       -0.011231462 -0.2603617 0.03618907 0.65504825
000350 7b 80 b6 ba 83 57 fe 3c 3c c8 51 3c f1 8f 33 39
       -0.0013923788 0.031047588 0.012804087 0.00017124393
000360 d8 08 91 3e da ce ae bd 39 d7 30 be e2 1f 73 3f
       0.2832706 -0.085355476 -0.17269601 0.94970524
000370 81 a7 9a 3d 73 21 ae be 6f ad 41 ba 90 76 f9 bb
       0.0755148 -0.34009895 -0.00073882093 -0.0076130107
000380 2a 4d 50 3e 0b 1e 53 bf 6c b3 d8 ba 86 cd e8 bd
       0.20341936 -0.82467717 -0.0016532964 -0.113673255
000390 bf 42 4b 3f 23 04 12 3d 79 94 ae 3e 9c 9b a1 3e
       0.7939872 0.035648476 0.3409765 0.31564033
0003a0 80 03 c3 bc a3 07 ac ba d1 9f ca b7 e6 18 c9 bd
       -0.02380538 -0.0013124835 -2.4154697e-05 -0.09819202
0003b0 5a 18 af 3b 2f 22 2d 3f 89 f9 62 bc 6d 07 e7 3d
       0.005343479 0.67630285 -0.013853439 0.11280713
0003c0 78 e3 60 39 df c7 ef 3e 41 8d 65 bd 57 7a 9c 3e
       0.00021447043 0.46832177 -0.056042913 0.30562088
0003d0 e3 83 5e 3f c4 cb 9a 3d 07 bd 62 ba 28 db 7e 3f
       0.86919993 0.075583965 -0.0008649383 0.99553156
0003e0 99 ae 8d bc fa 8d cf 3e a3 3f 8e 3d 32 31 12 3d
       -0.017295169 0.40538007 0.069457315 0.035691448
0003f0 32 07 8b ba 50 08 8a 39 a4 33 80 3f 66 6f 87 3a
       -0.0010607003 0.00026327604 1.001576 0.0010332882

gats.0.bias f4 [67]
000000 a5 91 20 bd d4 c4 80 bd ce 16 95 bd 52 88 ae bd
       -0.039201397 -0.06287542 -0.0727974 -0.08522095
000010 99 bf ff bc 48 de b5 bc b5 32 76 bc d3 10 44 bd
       -0.03121929 -0.022200719 -0.015026738 -0.047867607
000020 df c4 c0 bc 38 b9 1b bd 4d a7 b3 bc 1b 54 91 bc
       -0.023531375 -0.038018435 -0.021930361 -0.0177403
000030 d1 4c 4b bd de 15 76 bc 68 58 b8 bc 90 38 86 bd
       -0.049633805 -0.015019862 -0.022503093 -0.06553757
000040 9e 6f e4 bc a1 91 7f bd f8 00 3a bd fd 0d 88 bd
       -0.027885254 -0.062394742 -0.04541108 -0.06643293
000050 9a 12 07 bc 1c 46 de bc c6 68 fe bb 4c f7 12 3b
       -0.008244181 -0.02713304 -0.007763955 0.0022425232
000060 94 d6 16 3d 68 ca 21 bd d6 ed 11 bd 4c fd 78 bd
       0.03682573 -0.03949967 -0.03562721 -0.060788438
000070 98 55 2d bd 90 de 5d bd af e8 7d bd 3a 85 e2 bc
       -0.042317957 -0.05416733 -0.061989482 -0.027651418
000080 19 c6 8d 3c ae 27 f0 39 16 c2 ff 3b 51 05 9c bd
       0.017306374 0.0004580593 0.0078051193 -0.076182015
000090 5d 9d 10 bd 12 98 b2 bd 12 ad 9e bd c8 ce 1c bd
       -0.035306323 -0.08720411 -0.07747854 -0.03828314
0000a0 5c 77 99 bd 71 69 69 3c 5e d0 1a bd 50 f1 b7 bd
       -0.07493469 0.014246331 -0.03779637 -0.089815736
0000b0 cd 7c 6e 3a 4a 5a 8d bd 62 b4 83 bd ce b7 57 bd
       0.0009097576 -0.06901987 -0.0643089 -0.052665524
0000c0 1c 1b 55 bd 89 bd 99 bc e9 69 e1 ba 23 49 0c bd
       -0.052027807 -0.018767135 -0.0017197701 -0.034249436
0000d0 1f 15 cf bb 99 ae 05 bd e6 2c 9e bd e9 5c af 3c
       -0.0063196565 -0.032637212 -0.077234074 0.021406608
0000e0 e4 b4 57 bd 60 99 e3 bd e7 ca 43 bd 8f a9 12 bd
       -0.052662745 -0.11113238 -0.047800925 -0.035806235
0000f0 0f d3 4f bb 40 48 48 bd 89 99 73 bd 81 fe 98 ba
       -0.0031711494 -0.048897028 -0.059472594 -0.0011672528
000100 53 40 bc bd ad 22 93 bd 28 12 8c bc
       -0.09191956 -0.07184348 -0.017098501

gats.0.lin_l.weight f4 [335, 67]
000000 4c b0 00 00 57 9a 00 00 95 37 b7 3a ba 49 00 80
       6.3243e-41 5.5367e-41 0.0013978357 -2.6448e-41
000010 7f 4f 81 b9 cc 87 00 80 27 52 00 00 03 0f e8 bb
       -0.00024664027 -4.8715e-41 2.9471e-41 -0.0070818677
000020 1e 73 00 00 60 7c 00 00 d0 71 00 00 5c 1e 00 00
       4.1296e-41 4.4617e-41 4.0828e-41 1.0891e-41
000030 7e 5f 00 00 6a 69 00 80 70 9c 00 00 7f 6f 00 00
       3.4256e-41 -3.7815e-41 5.6119e-41 3.9997e-41
000040 61 6d 00 00 73 a2 00 80 5a 81 e5 b9 8d d6 7b 3c
       3.9238e-41 -5.8276e-41 -0.00043774658 0.015370977
000050 a1 a7 00 00 74 b2 de 3a 08 9d 7a bc 7b 66 66 bc
       6.0134e-41 0.0016990439 -0.015296228 -0.014062519
000060 85 92 00 80 08 79 00 00 bc 25 eb ba 75 ba 20 bb
       -5.2561e-41 4.3418e-41 -0.0017940323 -0.00245252
000070 4b 84 ae ba b3 a9 00 80 be 6b 00 00 16 fb d1 3a
       -0.0013314573 -6.0877e-41 3.865e-41 0.0016020264
000080 25 9a 00 80 5a bd b5 b9 c5 e0 27 3b 6d 44 79 3d
       -5.5297e-41 -0.00034664088 0.002561615 0.06085627
000090 28 45 a7 36 9b 97 8e 35 f9 56 00 80 31 6f 00 80
       4.9850387e-06 1.0623947e-06 -3.12e-41 -3.9888e-41
0000a0 bb a8 00 80 33 38 00 00 ef b3 10 ba a6 49 00 00
       -6.0529e-41 2.016e-41 -0.0005519976 2.642e-41
0000b0 5f 23 00 80 7b 9b 00 80 aa 6d 00 80 1d 1b 00 80
       -1.2689e-41 -5.5776e-41 -3.934e-41 -9.726e-42
0000c0 8b 04 00 00 62 a8 00 00 9f 71 00 00 9d 60 00 00
       1.63e-42 6.0404e-41 4.076e-41 3.4658e-41
0000d0 43 7e 00 00 a0 79 00 80 6c 7f 00 80 e9 a5 00 00
       4.5294e-41 -4.3631e-41 -4.571e-41 5.9517e-41
0000e0 47 92 00 80 6a 71 00 00 65 3a 00 00 4b 08 1d ba
       -5.2474e-41 4.0685e-41 2.0948e-41 -0.00059903105
0000f0 a9 cd 13 3b f7 75 00 00 34 7a 00 80 e9 02 00 00
       0.0022553003 4.2318e-41 -4.3838e-41 1.044e-42
000100 a4 72 00 00 84 14 00 00 a9 42 10 b9 b8 71 00 80
       4.1125e-41 7.36e-42 -0.00013757743 -4.0795e-41
000110 66 a2 00 00 de 03 ea 3c ed 7a 00 00 bc 81 1f 3b
       5.8258e-41 0.028566297 4.4097e-41 0.0024338802
000120 ec 70 00 00 6c 77 00 80 fa 74 46 3d 8d 8c 00 00
       4.0509e-41 -4.284e-41 0.0484514 5.042e-41
000130 93 96 00 00 0e 43 00 80 5b 78 00 00 17 7c 00 00
       5.4016e-41 -2.4055e-41 4.3175e-41 4.4515e-41
000140 ca 78 00 80 97 7c 00 00 ca 7a 00 00 01 7b 00 80
       -4.3331e-41 4.4694e-41 4.4048e-41 -4.4125e-41
000150 17 76 00 00 1c 66 1a ba 28 57 67 bd 96 66 00 00
       4.2363e-41 -0.0005889849 -0.056479603 3.6801e-41
000160 e3 ac d5 3a a9 06 01 3e 8f 62 56 bd c7 a1 00 80
       0.0016302135 0.12600197 -0.052340087 -5.8035e-41
000170 69 74 00 00 58 08 bb ba ff a4 2f 3a 4b df f6 b9
       4.176e-41 -0.0014269454 0.00067003065 -0.00047087143
000180 76 72 00 80 a9 18 00 00 81 b6 13 3c d7 79 00 00
       -4.1061e-41 8.846e-42 0.00901568 4.3708e-41
000190 1d a1 09 bc 03 02 37 3b f8 8f 26 ba 79 8f 20 b8
       -0.008400229 0.0027924783 -0.00063538505 -3.8280592e-05
0001a0 95 59 8a b7 aa 71 00 80 70 6e 00 80 30 7a 00 00
       -1.6492597e-05 -4.0775e-41 -3.9618e-41 4.3833e-41
0001b0 a0 72 00 00 26 e9 a1 39 d2 83 00 00 5f 70 00 80
       4.112e-41 0.00030882022 4.7288e-41 -4.0311e-41
0001c0 f0 90 00 00 22 7a 00 00 19 af 00 00 18 26 00 00
       5.1994e-41 4.3813e-41 6.2813e-41 1.3665e-41
0001d0 19 77 00 80 e0 9a 00 00 2c a2 00 80 fb 6d 00 80
       -4.2724e-41 5.5559e-41 -5.8176e-41 -3.9454e-41
0001e0 c6 7d 00 00 38 7d 00 80 78 b3 00 80 61 7c 00 80
       4.5119e-41 -4.492e-41 -6.4381e-41 -4.4619e-41
0001f0 9a 77 00 00 6a a7 00 80 63 8e ce 3c c7 aa d5 ba
       4.2905e-41 -6.0057e-41 0.02521438 -0.0016301506
000200 8b 6f 00 00 3c b0 00 80 ba 55 00 80 c2 39 00 80
       4.0014e-41 -6.3221e-41 -3.0753e-41 -2.072e-41
000210 56 34 00 00 ed 77 1a ba 50 7b 00 80 59 a6 00 00
       1.8775e-41 -0.0005892504 -4.4236e-41 5.9674e-41
000220 fb 9e 06 3e 68 7a 00 00 7a c1 ab 3c 31 69 00 80
       0.13146584 4.3911e-41 0.02096628 -3.7736e-41
000230 66 78 00 00 e7 2f f8 bd 8c 6f 00 80 25 71 00 00
       4.3191e-41 -0.12118512 -4.0015e-41 4.0589e-41
000240 41 41 00 80 ed 56 00 00 47 6b 00 00 40 a9 00 00
       -2.3409e-41 3.1183e-41 3.8484e-41 6.0715e-41
000250 63 7d 00 00 4e 8b 00 00 5f 81 00 80 3e a7 00 80
       4.498e-41 4.9973e-41 -4.641e-41 -5.9995e-41
000260 dd ed a8 bc 63 62 45 3c eb 99 00 80 f0 26 2d be
       -0.020621235 0.012047383 -5.5215e-41 -0.16909385
000270 6e 43 91 3d f7 78 f4 3c f9 a4 00 00 ab 77 00 00
       0.07092939 0.029842837 5.9181e-41 4.2929e-41
000280 4f 31 f8 3c e5 a0 07 be ca 71 ad 3a 07 3b 00 80
       0.03029695 -0.1324497 0.0013232764 -2.1175e-41
000290 67 6d 00 00 03 0c 72 3e dc 6c 00 00 a7 b9 07 3d
       3.9246e-41 0.23637395 3.9051e-41 0.033136036
0002a0 4f 1a 9b 3c 4d 2f 8b 3d fb d2 94 b9 93 2c 84 38
       0.018933443 0.06796131 -0.00028385952 6.302553e-05
0002b0 95 a7 00 00 fa 7b 00 80 5b 99 00 00 08 10 00 00
       6.0117e-41 -4.4474e-41 5.5014e-41 5.751e-42
0002c0 65 10 20 be a2 4d 00 80 63 1a 00 00 24 87 00 80
       -0.15631254 -2.785e-41 9.466e-42 -4.848e-41
0002d0 13 6e 00 00 30 7e 00 80 79 b3 00 00 3b ac 00 80
       3.9487e-41 -4.5268e-41 6.4383e-41 -6.1785e-41
0002e0 7d 78 00 00 01 28 00 80 8a 49 00 80 aa 7a 00 80
       4.3223e-41 -1.435e-41 -2.6381e-41 -4.4004e-41
0002f0 93 62 00 80 40 75 00 00 29 76 00 00 37 a0 00 80
       -3.5362e-41 4.2061e-41 4.2388e-41 -5.7474e-41
000300 ad 7c 00 80 37 49 04 3e a8 08 8f 3c ba 6b 00 00
       -4.4725e-41 0.12918554 0.017460182 3.8645e-41
000310 6f 86 00 80 b1 89 00 80 f6 7c 00 00 f8 6c 00 80
       -4.8226e-41 -4.9394e-41 4.4828e-41 -3.909e-41
000320 56 44 3b bc 94 17 00 00 bf 90 00 00 79 bd 54 3b
       -0.011429867 8.458e-42 5.1925e-41 0.0032461567
000330 f4 7b 00 80 57 cb bc 3b 6f 7c 00 00 7f 75 00 80
       -4.4466e-41 0.0057615447 4.4638e-41 -4.215e-41
000340 b7 a0 20 3d aa 64 00 80 39 b1 00 80 72 4e 00 80
       0.03921577 -3.6111e-41 -6.3576e-41 -2.8141e-41
000350 38 94 00 00 ee 70 00 00 87 7c 00 80 cf 71 00 80
       5.3171e-41 4.0512e-41 -4.4672e-41 -4.0827e-41
000360 26 14 00 80 3e 79 00 00 57 b3 00 80 e1 a3 1f 3c
       -7.228e-42 4.3494e-41 -6.4335e-41 0.009743662
000370 0c 25 15 3c 25 b3 00 00 d4 46 e2 3a 2f 2e ca 3b
       0.009103071 6.4265e-41 0.001726354 0.0061700563
000380 ee 0a ae bb 72 07 00 00 2f 79 00 80 91 9e 32 3b
       -0.0053113615 2.671e-42 -4.3472e-41 0.0027255157
000390 14 92 2f 3c 1f e9 00 3a 83 6b 00 00 a8 9f 00 00
       0.01071598 0.000491755 3.8568e-41 5.7274e-41
0003a0 bc 5e 09 bc cd 98 00 00 cd cd db bb d3 94 13 38
       -0.008384403 5.4815e-41 -0.006707883 3.5186134e-05
0003b0 0a 03 b9 3a d3 6f 60 38 da 5a 0c b9 c8 77 00 00
       0.0014115286 5.3509906e-05 -0.00013385285 4.297e-41
0003c0 c2 6a 00 80 4e 93 00 80 ac a4 00 00 5e 81 2d bb
       -3.8297e-41 -5.2843e-41 5.9073e-41 -0.0026474814
0003d0 75 20 00 00 46 ae 00 80 e2 36 00 00 0f 6f 00 80
       1.1643e-41 -6.2518e-41 1.9688e-41 -3.984e-41
0003e0 a0 95 00 80 da 77 00 80 ff 7b 00 00 e2 4b 00 80
       -5.3675e-41 -4.2995e-41 4.4481e-41 -2.7222e-41
0003f0 18 a7 00 80 69 72 00 80 e8 61 00 00 7f 7f 00 00
       -5.9942e-41 -4.1043e-41 3.5122e-41 4.5737e-41

gats.0.lin_l.bias f4 [335]
000000 af ba d5 bb 0c 58 0d bc 9c 76 24 bd f6 e7 ad bd
       -0.0065224986 -0.008626949 -0.040152177 -0.08491509
000010 a0 21 82 3d 51 cb e6 bd 2d 55 14 3d 05 4f 99 bd
       0.0635407 -0.11269248 0.036214042 -0.07485775
000020 d3 3b 10 3d fe 30 de bd 8a 18 92 3a 32 6f c0 3d
       0.035213303 -0.10849188 0.0011146229 0.09396209
000030 bf 11 21 3b c0 a2 85 bd 57 0c 1f bc 66 2d 22 bd
       0.0024577228 -0.06525183 -0.009707532 -0.039594077
000040 44 bb e5 3d 8c c9 20 bd b2 de 22 3c eb b0 db bc
       0.11217359 -0.03925471 0.00994079 -0.02681776
000050 eb 68 29 3c 1a d6 00 3e 31 9b 60 3d cb f5 19 bc
       0.010339956 0.12581673 0.054835502 -0.0093969805
000060 01 79 0e 3d 20 9f 0c 3d fa 38 4c 3b be 2b dc bc
       0.034783367 0.03433144 0.003116189 -0.026876327
000070 b7 2e da 3d 7f 5b 39 bd d3 7a a5 bc c1 e5 62 3d
       0.106534414 -0.045253273 -0.020200169 0.05539489
000080 13 52 e4 bb d2 3e 78 b9 5b 65 a6 bb a2 e1 b9 3c
       -0.006967792 -0.00023674525 -0.0050780005 0.022690598
000090 63 e2 7f 3c cf 68 75 3d 5a 5f d8 3c 01 15 53 3d
       0.01561794 0.059914406 0.026412655 0.051533703
0000a0 2c e4 bf bd 7f ec 0d 3e ce 7c 63 bd fe 9c 0f bd
       -0.09369692 0.13859747 -0.055538945 -0.03506183
0000b0 d7 7b 40 bb dd 27 98 bb ad f6 ff bb e5 cb ef 3b
       -0.002937069 -0.004643424 -0.0078113885 0.0073180073
0000c0 35 5e 93 3d 65 f3 a9 bb 2f 9c 13 bd 19 90 ea bd
       0.07195703 -0.0051864856 -0.03603762 -0.11453266
0000d0 2e bb a8 bc 04 f8 d6 bd 1c 96 37 bd 82 6c 8a bb
       -0.020597067 -0.10496524 -0.04482089 -0.004224361
0000e0 ac 26 16 3d c6 71 13 3e 68 db 6c bc 75 db d9 3c
       0.036657974 0.1439887 -0.014456607 0.026593903
0000f0 70 30 1d bc 1b 97 e4 bc 35 bd d1 b9 c8 ae 82 3d
       -0.009594068 -0.027904084 -0.00040004557 0.06380993
000100 0e e0 cb 3c fa ba a6 bd f6 7c 81 3d d6 f3 21 bc
       0.024887111 -0.08141132 0.063226625 -0.009884795
000110 c1 ce f5 bd 6c e8 a6 bd 0f 3e 6c bd 7b 40 3e 3c
       -0.12002326 -0.081498 -0.05767637 0.011612053
000120 d1 08 8e 3d 7f bc 63 bc c3 43 96 3c 5b 51 fa bb
       0.06935275 -0.013899921 0.018342858 -0.007639093
000130 62 ce a4 bc 4d 84 1d 3d b5 80 08 3c 9a c7 bf 3c
       -0.020117942 0.03845625 0.008331467 0.023410607
000140 40 ad 2f bd bb f1 27 bc 8a f9 d4 bb 0c d8 d5 3b
       -0.042889833 -0.010250504 -0.006499474 0.006525999
000150 97 7d 67 3d c3 52 c6 bd 26 b3 bf bd 47 47 e4 bd
       0.056516256 -0.09683754 -0.09360342 -0.111464076
000160 80 24 4f 3d 2b 66 88 bb f1 63 1d bc 0d 79 b0 3c
       0.05057192 -0.00416257 -0.009606347 0.021542097
000170 70 42 a8 bd a7 44 bb bc 48 99 d7 bc 6c f7 de 39
       -0.08215797 -0.022859884 -0.026318207 0.00042527483
000180 d1 b6 94 3d 36 b8 ef b9 71 cf db 3c 62 1b 21 bd
       0.07261432 -0.0004572288 0.026832314 -0.039332755
000190 c1 c7 a0 b9 0d 65 c2 bb 19 48 ef bc b9 f0 3c b9
       -0.00030666406 -0.0059324563 -0.029209184 -0.00018018753
0001a0 85 65 7c bd e8 e9 a3 38 8e 45 12 bd 8a f6 53 bd
       -0.061620254 7.816014e-05 -0.035710864 -0.05174879
0001b0 30 0d 61 bc 59 43 59 bd 36 77 d4 bb 30 a1 a9 3d
       -0.013736054 -0.053042743 -0.0064839376 0.08282697
0001c0 a5 53 3f bd d4 a9 6f bd f0 cf 42 bd d2 97 e0 bc
       -0.04671063 -0.05851157 -0.047561586 -0.027416144
0001d0 51 99 18 bc ee 10 a2 3d 9d 1c 0a bd 5a a3 b4 bc
       -0.009313897 0.07913385 -0.033718694 -0.022050548
0001e0 3d d2 0a bd a1 63 b8 bd 54 e3 e8 bb c8 00 78 bc
       -0.033891905 -0.09003378 -0.0071071777 -0.015136905
0001f0 96 88 87 bd 7a 9e ac bb 94 7b 6f bc 83 4e f0 bc
       -0.066178486 -0.0052679153 -0.014616866 -0.029334312
000200 22 65 d1 bc 23 09 4b bd 2d b7 67 3c f1 fc 58 3c
       -0.02556092 -0.04956926 0.014142794 0.0132439
000210 03 a9 39 bc f1 aa e9 3b 51 df c0 b9 4e 4b 1d 3d
       -0.011331799 0.0071309735 -0.00036787477 0.038401894
000220 9a d7 1f bd 22 01 a8 3b 7e 0c 0f 3e 94 d4 5e 3d
       -0.039023973 0.005127088 0.13969609 0.05440195
000230 bc 4c 68 3d f5 2c 8d 3c ab 9c d8 bb 1c 76 c7 bd
       0.056713805 0.017233351 -0.006610473 -0.097393245
000240 76 db d3 3d 2d 15 bd bd 69 b8 2c bc 52 6d c4 3b
       0.10344593 -0.092325546 -0.010542014 0.0059944773
000250 fb 61 59 3d 90 3f f5 3c 83 30 f6 bd 50 e7 d5 bd
       0.053071957 0.029937536 -0.120209716 -0.1044451
000260 f9 57 03 be fb 79 16 bd 0f 7e 5c bc 23 d8 41 3d
       -0.12826528 -0.036737423 -0.013457789 0.047325265
000270 bf 44 9a 3c 57 86 0d bc d9 ac 1a 3d ab d2 be 3c
       0.018831609 -0.008637986 0.037762497 0.023293814
000280 4e 62 f1 3c d0 f7 9f 3d a8 fc 01 bd 99 22 48 bd
       0.02946582 0.07810938 -0.031735092 -0.04886112
000290 40 5b 06 bd 8f 7b ff bc 0e 62 0e bc 0c 75 5b b9
       -0.032801867 -0.031186847 -0.00869037 -0.00020929071
0002a0 86 6e bc bc a0 04 6f bd 33 6b 0a bb 5a b6 8f 3d
       -0.02300192 -0.05835402 -0.0021121025 0.07017203
0002b0 7c dd f6 bd 1b b6 6a bd 71 b5 ab bd a6 8d 05 bd
       -0.120539635 -0.057302576 -0.083842166 -0.03260579
0002c0 e3 3d d9 3d d7 bc 94 bd d9 ee 79 bd 3d 0a f9 bb
       0.10607507 -0.07262581 -0.0610188 -0.0076000975
0002d0 ba 5a 0b 3d 35 e1 a7 3d 6b e4 0f 3d cd e7 9a 3d
       0.03402207 0.08197252 0.035129946 0.07563744
0002e0 4b 49 c5 3c d9 27 0f 3d 8b 20 89 bd 05 bc aa 3d
       0.0240828 0.03495011 -0.0669566 0.08336643
0002f0 64 e3 43 3e 40 3c cc bd b1 e2 88 3d 21 c2 eb 3d
       0.19129711 -0.09972429 0.06683863 0.115116365
000300 73 61 84 bc c1 5c b9 bc 40 df ff 3b 45 83 0c 3e
       -0.016159749 -0.022627236 0.007808596 0.1372195
000310 c0 dc c8 b9 60 7d 32 3b a8 03 95 bc a7 8f a9 bc
       -0.00038311444 0.0027235374 -0.01819022 -0.020698382
000320 87 2b 3a 3d c7 4e 00 3c 83 4e a6 3d da 98 bc bd
       0.045451667 0.007831282 0.08120444 -0.092088416
000330 ee 37 ce bd b4 8a 6c bd 5d 97 27 3c 11 ef b7 3b
       -0.100692615 -0.057749465 0.010228959 0.0056132157
000340 59 24 87 bd 7e 35 53 3c 14 40 61 3d 8e 14 ae bd
       -0.0659873 0.0128911715 0.05499275 -0.08500014
000350 81 19 72 3d 71 a2 ce bc 74 aa 9e bd 44 4a 0a bc
       0.059106354 -0.025223942 -0.07747355 -0.008440558
000360 40 68 95 3c d5 ca 08 bc ef 22 7b bd 1d f7 07 3d
       0.018238187 -0.00834914 -0.061312612 0.03319465
000370 d7 a6 87 bd 79 89 4a 3d 18 12 67 bd f4 9e 14 bd
       -0.06623619 0.04944751 -0.05641374 -0.036284402
000380 30 36 02 bc e0 fb 1c 3d 67 d5 04 be 7d 7f 11 3d
       -0.00794749 0.038326144 -0.12972032 0.035521973
000390 8e 81 0e bd d0 fe b2 3c 4d 92 0d 3c 27 7f 71 3c
       -0.03479152 0.02185002 0.008640838 0.014739788
0003a0 2b 4f af bd 0f 89 e2 bb 21 a9 62 b9 44 54 9e bc
       -0.08560022 -0.0069133113 -0.00021616045 -0.01932729
0003b0 01 c4 84 3c a7 75 86 3d 91 02 d7 bd 94 fb 72 bd
       0.016206743 0.06565409 -0.104985364 -0.059321955
0003c0 b1 ba e6 bd 9c 18 cd 3c 80 2c 4e 3d a6 1e 3c bd
       -0.11266077 0.025036149 0.050335407 -0.045927666
0003d0 41 8c 95 bd 8a 45 2f 3c 0e 92 52 bc d5 1e 78 3d
       -0.07302142 0.010697732 -0.012852205 0.06057628
0003e0 29 07 ac 3c d5 0f 70 3d d8 ba 02 bd 63 89 26 bd
       0.020999508 0.05860885 -0.03191647 -0.040658366
0003f0 2d 88 80 bd c5 11 89 bc 76 07 14 bd 60 99 69 bd
       -0.062759735 -0.016732106 -0.036139928 -0.057031035

gats.0.lin_r.weight f4 [335, 67]
000000 55 6e 00 00 9c 83 00 80 38 7b c7 b9 dc 6f 00 00
       3.958e-41 -4.7213e-41 -0.00038048043 4.0128e-41
000010 be 86 b3 33 3e 6f 00 80 2c 79 00 80 5d d3 42 38
       8.3598465e-08 -3.9906e-41 -4.3468e-41 4.645005e-05
000020 b0 8d 00 00 69 7b 00 00 00 7b 00 80 2d 70 00 80
       5.0828e-41 4.4271e-41 -4.4124e-41 -4.0241e-41
000030 71 74 00 00 7f 08 00 00 fd 7d 00 00 de 68 00 00
       4.1771e-41 3.048e-42 4.5196e-41 3.7619e-41
000040 2c 19 00 80 6e 8f 00 80 82 83 2c ba 7d 3f 3e 3b
       -9.03e-42 -5.1453e-41 -0.00065808755 0.0029029541
000050 4e 90 00 00 4c e2 fb b9 ca b8 95 ba 72 43 0a ba
       5.1767e-41 -0.00048043055 -0.0011422869 -0.00052743324
000060 a3 9c 00 00 c8 70 00 80 85 a5 71 ba c4 2d df 39
       5.619e-41 -4.0458e-41 -0.0009218085 0.00042567973
000070 74 48 11 38 95 45 00 00 0a 78 00 00 fa 6a ad 39
       3.463817e-05 2.4961e-41 4.3062e-41 0.00033076835
000080 63 7d 00 00 c5 c6 08 3a f1 66 dc 38 26 67 fa 39
       4.498e-41 0.0005217607 0.00010509592 0.00047760567
000090 f7 bf 0a b0 ee 77 06 b3 c8 19 00 80 a4 6c 00 00
       -5.0476906e-10 -3.130838e-08 -9.249e-42 3.8973e-41
0000a0 f2 7f 00 00 48 5d 00 00 e7 28 37 ba d6 5e 00 80
       4.5898e-41 3.3463e-41 -0.0006986991 -3.4021e-41
0000b0 09 7b 00 80 e0 98 00 00 2d a3 00 00 bf 1a 00 00
       -4.4137e-41 5.4841e-41 5.8536e-41 9.595e-42
0000c0 74 58 00 00 5c 63 00 80 21 5b 00 00 ef 7f 00 00
       3.1731e-41 -3.5643e-41 3.2691e-41 4.5894e-41
0000d0 60 a2 00 00 50 69 00 80 20 6d 00 00 4a aa 00 00
       5.8249e-41 -3.7779e-41 3.9147e-41 6.1088e-41
0000e0 bd 99 00 00 1b a3 00 00 c6 77 00 80 9e 69 7f 39
       5.5151e-41 5.8511e-41 -4.2967e-41 0.0002435804
0000f0 3d 32 3b 38 dc 6a 00 00 27 68 00 80 93 6a 00 00
       4.4631062e-05 3.8334e-41 -3.7363e-41 3.8232e-41
000100 1a 5f 00 00 b5 77 00 00 49 bd 6a 38 47 76 00 80
       3.4116e-41 4.2943e-41 5.5966233e-05 -4.243e-41
000110 54 4d 00 00 82 61 ea b9 1f 03 00 00 72 6d b1 35
       2.774e-41 -0.00044704607 1.12e-42 1.321938e-06
000120 33 84 00 00 55 9e 00 80 fd 80 bd 39 b4 8c 00 00
       4.7424e-41 -5.6799e-41 0.00036144993 5.0475e-41
000130 bf 77 00 00 10 b3 00 80 a8 9d 00 00 99 87 00 80
       4.2957e-41 -6.4236e-41 5.6556e-41 -4.8643e-41
000140 f7 68 00 00 fb 7a 00 80 ac 4a 00 80 11 7a 00 00
       3.7654e-41 -4.4117e-41 -2.6787e-41 4.3789e-41
000150 6d 79 00 80 b3 85 61 39 bc 2c 21 b9 be 7a 00 00
       -4.356e-41 0.00021507479 -0.00015370821 4.4032e-41
000160 6e 32 09 b9 9b 17 ff b9 40 5f e7 38 7e 78 00 80
       -0.00013084125 -0.00048654978 0.0001103268 -4.3224e-41
000170 f1 72 00 00 c8 52 38 3a b5 1e c3 ba b4 2b f4 b6
       4.1233e-41 0.00070313783 -0.0014886471 -7.2768544e-06
000180 3a 97 00 00 b3 27 00 00 fc 14 03 b9 a0 96 00 80
       5.425e-41 1.4241e-41 -0.00012500951 -5.4034e-41
000190 69 10 35 39 0f 0a 30 a8 4f ef 07 38 36 23 4e 9b
       0.00017267618 -9.772144e-15 3.240938e-05 -1.7051298e-22
0001a0 9b 0e 00 00 61 6c 00 00 42 78 00 00 d4 82 00 80
       5.24e-42 3.8879e-41 4.314e-41 -4.6932e-41
0001b0 02 7b 00 00 ec 1e 19 ba 59 7c 00 00 da 8a 00 80
       4.4127e-41 -0.00058410945 4.4608e-41 -4.981e-41
0001c0 29 a6 00 00 6d 6e 00 80 01 4b 00 00 38 80 00 00
       5.9607e-41 -3.9613e-41 2.6906e-41 4.5996e-41
0001d0 3c 7a 00 00 2b 77 00 80 c2 99 00 80 4e 9d 00 80
       4.385e-41 -4.275e-41 -5.5158e-41 -5.643e-41
0001e0 48 9d 00 00 90 6d 00 80 ee 18 00 80 e4 86 00 00
       5.6422e-41 -3.9304e-41 -8.943e-42 4.839e-41
0001f0 f2 a0 00 80 7f 99 00 80 2b 42 ab 3a 8c a7 e9 39
       -5.7736e-41 -5.5064e-41 0.0013065984 0.00044566055
000200 b9 77 00 00 dd 3e 00 80 89 ae 00 00 40 03 00 00
       4.2948e-41 -2.2551e-41 6.2611e-41 1.166e-42
000210 76 4a 00 00 e1 16 31 b8 a3 7a 00 80 54 78 00 00
       2.6712e-41 -4.2221396e-05 -4.3994e-41 4.3166e-41
000220 79 15 34 ba 05 65 00 00 f9 d5 8f 3a 03 70 00 80
       -0.0006869655 3.6239e-41 0.0010973803 -4.0182e-41
000230 df a2 00 80 27 7c a1 3b 06 78 00 80 1e 6b 00 00
       -5.8427e-41 0.00492813 -4.3056e-41 3.8426e-41
000240 03 79 00 00 de 7a 00 00 01 16 00 00 a7 68 00 00
       4.3411e-41 4.4076e-41 7.894e-42 3.7542e-41
000250 ce 4a 00 00 bf 95 00 80 6d 85 00 00 52 8b 00 00
       2.6835e-41 -5.3719e-41 4.7864e-41 4.9979e-41
000260 0e 5b 66 3b d5 ed b8 bb b2 6b 00 00 92 ca 86 3c
       0.0035149488 -0.005643586 3.8634e-41 0.016454015
000270 c2 c0 91 3b 88 fd 28 3b e0 ab 00 00 64 7c 00 00
       0.0044480274 0.0025785882 6.1657e-41 4.4623e-41
000280 b1 7f 8d 3a 71 ea 01 3c 02 7d 56 39 38 41 00 00
       0.0010795501 0.00792943 0.000204552 2.3396e-41
000290 fa 77 00 00 c4 01 36 3a 5d 7b 00 80 7a f8 fb 38
       4.304e-41 0.0006943012 -4.4254e-41 0.00012014895
0002a0 0f 32 38 b7 d1 63 06 3a c4 93 30 b8 8e 72 13 37
       -1.097891e-05 0.0005126568 -4.2099287e-05 8.788555e-06
0002b0 0b 5f 00 80 c7 6c 00 00 f8 a0 00 80 ba 27 00 00
       -3.4095e-41 3.9022e-41 -5.7745e-41 1.4251e-41
0002c0 30 6c 22 bd 2f a3 00 00 1a 67 00 00 31 7d 00 00
       -0.039653957 5.8539e-41 3.6986e-41 4.491e-41
0002d0 99 95 00 00 ed 6a 00 00 9f a4 00 00 7d 3a 00 80
       5.3666e-41 3.8358e-41 5.9055e-41 -2.0982e-41
0002e0 c3 77 00 80 ba 8c 00 80 c6 39 00 00 b4 ad 00 80
       -4.2962e-41 -5.0483e-41 2.0725e-41 -6.2313e-41
0002f0 26 5f 00 00 a8 6a 00 80 d3 39 00 80 dc 68 00 80
       3.4133e-41 -3.8261e-41 -2.0743e-41 -3.7616e-41
000300 16 7a 00 80 d1 9a 0b 3a 96 aa 6d 39 8a 71 00 80
       -4.3796e-41 0.00053254986 0.0002266563 -4.073e-41
000310 8b 7c 00 80 bd 7d 00 00 77 4a 00 80 ad 77 00 80
       -4.4678e-41 4.5106e-41 -2.6713e-41 -4.2932e-41
000320 e4 55 48 3b ff 9b 00 00 3a 6f 00 80 f0 8a ed b8
       0.0030568773 5.5961e-41 -3.99e-41 -0.0001132692
000330 30 ab 00 80 14 e8 0a 37 c9 6d 00 00 39 17 00 80
       -6.141e-41 8.279476e-06 3.9383e-41 -8.331e-42
000340 4b 2d 57 b7 20 72 00 80 d9 86 00 80 22 65 00 80
       -1.2825544e-05 -4.094e-41 -4.8374e-41 -3.628e-41
000350 4d 9a 00 00 36 2e 00 00 ca 91 00 80 d3 6f 00 80
       5.5353e-41 1.6577e-41 -5.2299e-41 -4.0115e-41
000360 2d 9e 00 00 90 69 00 80 bd 7e 00 00 fc 99 24 ba
       5.6743e-41 -3.7869e-41 4.5465e-41 -0.0006279049
000370 b7 d0 ba 38 bc 93 00 00 bf bd 18 3b 7f c6 50 39
       8.908047e-05 5.2997e-41 0.0023306457 0.00019910371
000380 ce 82 8f 38 f1 59 00 00 3f 73 00 80 f5 79 5e ba
       6.8431356e-05 3.2265e-41 -4.1343e-41 -0.0008486801
000390 18 00 40 ba 7a f8 9c b6 e2 5f 00 00 d3 6a 00 00
       -0.0007324233 -4.6780888e-06 3.4396e-41 3.8321e-41
0003a0 e0 5e 05 39 9f 79 00 80 73 dc cd b9 25 80 12 b5
       0.00012719212 -4.363e-41 -0.00039264894 -5.4575713e-07
0003b0 69 ae 73 38 8a 24 89 b4 34 25 97 2e d5 70 00 00
       5.8098147e-05 -2.5544824e-07 6.8732936e-11 4.0477e-41
0003c0 2e 7d 00 80 03 79 00 80 c3 7c 00 80 de e5 03 ba
       -4.4906e-41 -4.3411e-41 -4.4756e-41 -0.00050315063
0003d0 08 8d 00 80 a7 a3 00 80 79 89 00 80 1d 79 00 00
       -5.0592e-41 -5.8707e-41 -4.9316e-41 4.3447e-41
0003e0 04 6d 00 00 8f 71 00 80 bc 5a 00 00 a7 7c 00 00
       3.9107e-41 -4.0737e-41 3.255e-41 4.4717e-41
0003f0 b3 6a 00 80 3b 7f 00 00 5b 01 00 00 25 10 00 80
       -3.8276e-41 4.5642e-41 4.86e-43 -5.792e-42

gats.0.lin_r.bias f4 [335]
000000 72 31 15 3b 03 7c f0 ba 6f 98 2f 3d 7a 6f ce b9
       0.0022765067 -0.0018347505 0.04286998 -0.00039374438
000010 55 67 d1 3d a3 98 65 bc 01 86 0f 3e 6f ef 2d bc
       0.10224787 -0.014013442 0.14015962 -0.010616167
000020 c4 2a 9b 3d 4a 12 f9 3d a9 a3 2d bc 15 9b 68 3d
       0.07576516 0.121616915 -0.010598102 0.056788523
000030 2c db e7 3b 71 23 23 3a b7 2a 2c ba 4a ca 50 3e
       0.007075688 0.0006223238 -0.00065676443 0.20389667
000040 ff f9 82 3e b5 05 a2 3c 1a 6f 08 bd fa 9d de 3b
       0.25581357 0.019778112 -0.03330908 0.0067937346
000050 1d 56 2d 3c bf 56 af 3d 1a 91 44 3d 63 e9 16 b8
       0.010579613 0.085614674 0.047989942 -3.5980145e-05
000060 fa 39 45 bd 57 54 f9 3b d7 10 29 3c 9c 69 2c bb
       -0.048150994 0.007608931 0.010318956 -0.0026308065
000070 32 5d 69 3e 26 03 5b 3b 7b 24 26 b9 7e 35 62 3e
       0.22789457 0.0033418625 -0.00015844584 0.22090718
000080 64 5a 8e b8 10 7e 34 b5 ee be e3 37 16 4c 62 3d
       -6.787924e-05 -6.723867e-07 2.7149417e-05 0.055248342
000090 2a 0e 3c bc 70 f0 e1 3d fb 9a 74 3d c9 2b 75 ba
       -0.011477986 0.11032188 0.059718113 -0.0009352533
0000a0 2d 13 70 ba dc 00 1a 3d 10 8b cd 3c 79 94 a3 3d
       -0.0009158131 0.037598476 0.025090724 0.07987303
0000b0 d6 79 89 3d aa 93 bc 39 f0 65 10 3e d0 56 9c bb
       0.067126915 0.00035968173 0.14101386 -0.004771091
0000c0 b0 c6 e7 3d fe e9 4c 39 d1 e4 c5 3c 94 3c d1 3c
       0.113171935 0.00019542125 0.02415696 0.025541581
0000d0 28 67 1c 3a 4e 9c ce 3b 6b c1 02 3c 44 b7 b4 3d
       0.0005966299 0.006305254 0.007980685 0.08824018
0000e0 45 13 08 3c c1 5e 5a 3d 27 73 9b ba fc 45 b2 bb
       0.008305375 0.05331302 -0.001185988 -0.0054404717
0000f0 3b 69 58 3d 05 39 4a 3a 95 9f 7a 3c d3 ee fc bb
       0.05283473 0.0007714185 0.015296836 -0.0077188998
000100 9d 52 76 3c e8 a5 eb ba 8c 82 c6 3c b1 b4 2c ba
       0.015034345 -0.0017978521 0.024232171 -0.00065882044
000110 49 0c 0a 3e d5 b6 3f bb df fe 3a 3d b3 8e 18 3d
       0.13481249 -0.0029253263 0.04565322 0.037245464
000120 b1 b2 c5 bc e4 a7 85 3e b1 b2 bf 39 37 a9 ad ba
       -0.024133058 0.26104653 0.00036563494 -0.0013249282
000130 0f 11 b6 3c 73 e5 69 3c 69 f7 2a bb af b0 12 3c
       0.022224931 0.014275896 -0.002608741 0.008953257
000140 ab 09 4d 3d ed bd f5 b9 1c fd 2a 3d dd 1c 11 3e
       0.05005805 -0.00046871547 0.04174529 0.14171167
000150 e9 c3 07 3b d5 bf 82 3b ee 99 5b 3b 01 6c 13 3d
       0.0020716137 0.0039901533 0.0033508497 0.035991672
000160 83 5d dc 3d 68 2c ad 3d 58 30 fb 38 39 53 88 3d
       0.107600234 0.084557354 0.000119776174 0.066564985
000170 1c 54 70 3c a1 df ab bb cb 40 f0 3a 05 e7 42 3c
       0.014668491 -0.0052451645 0.0018329857 0.0118959
000180 3c f7 fe 3c 10 cf de 3d 48 bd 1c 3d 33 56 0c 3d
       0.03112375 0.10879338 0.03826645 0.034261893
000190 12 3d c9 b6 20 24 15 3a dd 38 91 ba 6e 78 19 bb
       -5.9973763e-06 0.0005689282 -0.0011079569 -0.002341773
0001a0 59 8b 01 bb 50 3c 53 ba fc a6 98 bb b8 18 df 3d
       -0.0019766896 -0.00080579985 -0.004658578 0.108933866
0001b0 c7 0a d6 3c d2 8f 6f 3c 56 9e 1c 3d 46 96 0d bd
       0.026128186 0.014621692 0.03823694 -0.03456714
0001c0 47 4a ca 3d 9c 0d c5 b9 c1 b4 9a 3a 94 f1 50 3c
       0.098774485 -0.00037584908 0.0011803136 0.012752909
0001d0 78 36 76 38 4d 8e d7 3d f7 0c 4e 3e e3 88 dd 39
       5.87017e-05 0.105251886 0.20122133 0.00042254393
0001e0 07 7a d7 bb 29 15 a9 3d 67 69 f1 3b 30 72 98 bb
       -0.006575826 0.08255989 0.0073673013 -0.004652284
0001f0 23 cb c3 3d 97 92 30 bd 24 74 08 3b 3e 83 5c 3d
       0.0956023 -0.04310855 0.0020821178 0.0538361
000200 d2 0f 29 3a cc 65 20 bc ea c7 90 3d 88 db b9 3c
       0.0006449196 -0.009789895 0.070693806 0.022687688
000210 db cf ea 3d e3 98 8e 3d 5e 60 4d 3b 71 3d da 3d
       0.114654265 0.069627546 0.0031337957 0.1065625
000220 a6 a8 86 b9 c1 45 a7 bc 3d 2b 11 3e a2 0f 2d 3b
       -0.00025684125 -0.020419003 0.1417665 0.0026407023
000230 55 10 3a 3e 8f 20 00 3d e8 7a 0f 3a ca 5b 93 3b
       0.18170293 0.03128105 0.00054733315 0.004497026
000240 a9 a3 a0 3e 42 ba 8b b9 9f 2f c9 3c 1e 0f f4 3b
       0.31374863 -0.0002665092 0.02455884 0.007448091
000250 f5 36 39 3d 13 b9 81 3c 08 be a6 3a 10 1a 35 3c
       0.045218427 0.01583532 0.0012721429 0.011053577
000260 c0 b8 8f ba 18 28 f8 3b cc b1 59 3d 1a dd d6 3d
       -0.0010965094 0.007573139 0.053148076 0.104913905
000270 83 e2 44 3e fd e6 eb b7 c3 53 d6 3d 40 ee c0 3a
       0.19227032 -2.8121745e-05 0.10465195 0.0014719442
000280 57 50 83 bc d4 61 c8 3d 11 ba bc 3d 9c db 4a bb
       -0.01602952 0.09784284 0.09215177 -0.0030953651
000290 c7 e5 37 3d ac 8a b5 3b 9e 59 f5 b6 f7 78 68 b7
       0.044896867 0.0055402126 -7.312002e-06 -1.3856442e-05
0002a0 01 df c0 3d 6a 02 0e 3c 6a 1c 21 bb b0 b2 17 3e
       0.094175346 0.008667568 -0.0024583586 0.14814258
0002b0 da c5 a7 3c 1d 7d 86 ba e8 12 e3 bb ed 2f cd 3d
       0.020480085 -0.0010260675 -0.006929744 0.10018907
0002c0 a0 36 07 3e a4 33 42 3e c8 b6 32 3c 9b 5b 29 3a
       0.13204432 0.18965012 0.010907836 0.00064604887
0002d0 6b 2e 94 3d ac 44 99 bc ec eb 0e 3e 9d 3f 82 3d
       0.07235416 -0.018709503 0.13957185 0.063597895
0002e0 9c b0 68 3d 88 73 18 3c 19 2e b7 3d 59 19 5a 3e
       0.056809053 0.009304889 0.08944339 0.21298732
0002f0 bd 4b 3b 3e f3 7e 87 bd 2e 7d 8f 3e 2c 5b ad 3d
       0.1829061 -0.066160105 0.28025192 0.08464655
000300 95 41 dd 39 3b d7 1f b9 b5 33 cf 3d 28 59 ed 3d
       0.00042201267 -0.00015243601 0.10117284 0.11589271
000310 b2 01 04 3c 05 0d 6f bc eb 1f 28 3d d4 42 85 39
       0.008057045 -0.014590506 0.041046064 0.00025417528
000320 51 7d df 3b d2 f8 88 3b 6b 6c 0c 3e 14 04 cc bb
       0.006820359 0.0041800523 0.13713233 -0.006226072
000330 1f 83 06 3d 49 97 50 3d 07 3d dd 3c 40 9c b1 bc
       0.03283989 0.050925527 0.02700664 -0.021680951
000340 d1 ce cd 39 08 1f bb 3d 8f 7a e6 3b 4c 81 fa b9
       0.00039254737 0.09136778 0.007033653 -0.0004778005
000350 93 00 fa ba 13 53 44 3b 78 46 b7 3a 80 2a 64 b8
       -0.0019073657 0.0029956743 0.0013982793 -5.4399017e-05
000360 82 17 8f 3d 08 f5 c0 3b d1 be 10 3d 17 df ba bd
       0.06986906 0.005888585 0.035338227 -0.09124582
000370 a3 15 86 3c 2b 0f fb 3d 95 08 4e ba 93 55 3c b8
       0.016367739 0.122587524 -0.0007859555 -4.490239e-05
000380 b7 29 9c 3c d7 1d 89 3e 78 a5 d9 3a 47 00 fb bc
       0.01906286 0.26780578 0.00166051 -0.03063978
000390 c6 7d 06 3e 2c 54 6d 3c 41 75 c0 3d be ef 39 3b
       0.13133916 0.0144854 0.093973644 0.0028371657
0003a0 40 c6 8c 3b ed b5 dc 39 f3 e3 8e b7 16 21 57 3d
       0.004296094 0.00042097215 -1.7033866e-05 0.052521788
0003b0 67 4e c7 3b 07 5f 88 3d 38 b7 80 bb d8 0f 5a 3c
       0.0060823443 0.0665875 -0.0039280914 0.0133094415
0003c0 c1 98 e0 38 b0 e8 55 3c eb 68 8d bc fc f0 61 3d
       0.00010709605 0.013055965 -0.017261943 0.05516146
0003d0 b9 6f 9a 3d f4 6e 55 bb 46 e2 16 b9 5a 46 bc 3d
       0.07540841 -0.0032567354 -0.00014389408 0.09193106
0003e0 e4 43 36 3a 45 05 ab 3c 7b e4 1a 3a 94 45 72 3c
       0.00069528655 0.020876536 0.000590868 0.0147870965
0003f0 33 f1 f8 ba 4a cd 03 39 6a 16 46 3d 06 ca d1 36
       -0.0018992781 0.0001256961 0.04836122 6.252204e-06

gats.0.lin_edge.weight f4 [335, 1]
000000 fd 11 a6 3a f4 fb 3f ba a6 2a a0 3e a5 4c c6 ba
       0.0012670156 -0.0007323616 0.31282538 -0.0015129043
000010 fe 9d f9 3e ee 68 9d bc 53 d0 29 be e7 ee 71 bc
       0.4875335 -0.019215073 -0.16583376 -0.014766431
000020 af 1e 0f 3f 73 1e b6 3e 33 4b 82 bc 4a 4b b3 3e
       0.55906194 0.35570106 -0.015904998 0.35018378
000030 40 58 27 3c d1 26 03 bb 6f 54 9e b9 0b ae e9 3e
       0.0102139115 -0.002001215 -0.00030199016 0.45640597
000040 1b d5 ca be 45 e1 28 3c 29 59 f6 bc b4 26 38 3c
       -0.39615712 0.010307615 -0.030071812 0.011239696
000050 0d c6 89 bc ba 50 10 3f 25 a3 90 3e 20 25 16 b8
       -0.01681807 0.5637318 0.2824947 -3.5797362e-05
000060 07 38 b5 bc 63 bd 00 3c f7 65 19 bb 48 eb 45 bc
       -0.022121442 0.007857653 -0.0023406723 -0.012080021
000070 2a ed e2 be 97 f3 af 3b 47 59 6a 39 d5 03 99 be
       -0.44321567 0.0053696143 0.00022349237 -0.29885736
000080 7a f2 88 b8 f2 c8 16 36 24 9e c6 b9 db 2f 57 3e
       -6.53015e-05 2.2468707e-06 -0.00037883327 0.21014349
000090 c7 b9 83 bb d7 59 a2 3e 99 24 d5 3e 1f f1 28 ba
       -0.004019949 0.31709167 0.41629484 -0.0006444621
0000a0 98 cc bd b9 e1 44 8a 3e 64 dd da 3b 09 a0 d5 3e
       -0.00036201323 0.27005675 0.006679224 0.4172366
0000b0 2a c5 d1 3e 59 cf 8b 38 55 de dc 3e 91 3f 14 bc
       0.40970737 6.666658e-05 0.43138376 -0.009048359
0000c0 ec e2 63 3e 60 58 e5 b8 e4 86 8c bd e1 00 86 bd
       0.22254533 -0.00010936032 -0.06861666 -0.065431364
0000d0 7a d7 ae 39 14 15 00 3b 1d 6f f9 3b 33 69 1d 3f
       0.0003334841 0.0019543814 0.0076121227 0.61488646
0000e0 bd 93 38 bb b5 98 23 3f c9 69 c9 ba d2 5a c8 3b
       -0.002816423 0.6390489 -0.001536661 0.0061143422
0000f0 63 42 90 3e 8e 2c 72 3a a7 ac bf 3d 52 43 a6 bc
       0.2817565 0.00092382065 0.09359103 -0.020295773
000100 b9 fe 6f 3e 5c a6 67 b9 45 3a 2a 3e 8e a2 ce ba
       0.23437013 -0.0002209185 0.1662379 -0.0015764998
000110 a1 58 ec 3d 5a 5e b4 ba a1 45 4b bd 1c c8 03 3e
       0.11540342 -0.0013761029 -0.04962695 0.12869304
000120 12 13 b4 3d b5 49 ac 3e 62 ba 4a 3a af be 7f b8
       0.087927 0.33649984 0.00077334617 -6.0974326e-05
000130 8f bf 93 3b d5 17 1c 3e 69 e2 71 3c 1d 2b bb bc
       0.0045089195 0.15243466 0.014763453 -0.022847706
000140 2b 45 74 3c b9 c9 4f b7 bc 8f 65 3c 9f fb 4f 3d
       0.014909069 -1.2385129e-05 0.01401132 0.050777074
000150 34 1f 9d bc 9e e5 4d 3a 1f 9f 73 3b 56 65 2b 3e
       -0.019179918 0.0007854345 0.00371737 0.16737875
000160 9f 88 77 3e df 8a 45 3d 92 19 bd 38 c5 3c da 3c
       0.2417321 0.04822814 9.016985e-05 0.026640305
000170 98 ca 36 3b 8e b8 0c bb b9 a5 b8 ba 35 4b 9a 3d
       0.0027891751 -0.0021472308 -0.0014087475 0.07533876
000180 03 8e d9 3d 57 af 55 3e 23 00 e2 3c a0 d7 3c 3d
       0.1062279 0.20867668 0.027587956 0.046104074
000190 9e 17 e3 36 a3 ce 0a b9 a8 6c 5c 39 12 33 df 39
       6.7678766e-06 -0.00013237684 0.00021021313 0.00042571925
0001a0 5a ee 7b ba 59 45 04 ba 57 a7 0f 3a da 41 69 3e
       -0.0009610407 -0.0005045734 0.00054799527 0.22779027
0001b0 5d a3 da 3b 3e b8 a0 3d 30 3e 22 3e 84 93 77 3b
       0.0066723065 0.078476414 0.15844035 0.0037777135
0001c0 71 27 d5 bc 42 6e 2b ba 07 74 76 3b 01 7f aa bb
       -0.026019784 -0.0006539562 0.0037605779 -0.0052031283
0001d0 1f 8d 39 3a 17 db 2c 3e d5 99 b4 bd a5 65 8e ba
       0.00070782186 0.16880451 -0.08818404 -0.0010864033
0001e0 ee db 2b 3d 68 5f b9 3d 31 66 31 3d 17 0f 45 ba
       0.04195779 0.090514004 0.043310348 -0.0007517202
0001f0 32 a2 d7 3d 97 0c e9 3d 6d a2 79 3c 3c 16 23 3e
       0.10528983 0.113793544 0.015236479 0.1592645
000200 e8 9a 8d b9 aa a7 d5 3a 8a b3 1e 3d 3e 99 fb 3c
       -0.0002700903 0.0016300578 0.03874544 0.03071272
000210 ab ef 1e be 84 3a 9c 3e d6 38 80 3b f7 bd a9 3c
       -0.15521114 0.30513394 0.0039130254 0.020720465
000220 ec ed c2 3b 8c 42 09 3d 48 9e 81 3d 1d dc 01 bd
       0.0059487727 0.03351073 0.06329018 -0.031704057
000230 8d 31 b6 3d 8a 53 4d bc de 46 ff 36 b3 44 fa ba
       0.0889617 -0.012532124 7.6078422e-06 -0.001909396
000240 b6 55 17 3e d9 c2 49 ba e0 b5 30 3c 50 d3 70 b9
       0.1477879 -0.0007696576 0.01078555 -0.00022966904
000250 17 79 20 3d 36 01 90 3c 16 f3 05 3a 70 e3 90 3c
       0.03917798 0.017578702 0.000510977 0.017686576
000260 ed ae 88 bb db f8 fa 3a 59 29 72 3b f3 27 1b 3e
       -0.0041712434 0.0019147651 0.0036950915 0.15151958
000270 b7 c5 9f 3d ef 19 cc b9 30 30 ba 3c 05 4e ac 3a
       0.07801383 -0.00038929234 0.022728056 0.001314581
000280 68 a3 07 bc f3 99 03 3d 33 46 ca 3c 23 a9 8a 3b
       -0.008278705 0.03212924 0.024691677 0.0042315884
000290 c0 64 98 3c 18 18 92 3c 01 4e e8 b9 99 24 6c b7
       0.018602729 0.017833754 -0.00044308606 -1.4075217e-05
0002a0 7b be 2b 3d 57 6d 6e 3b 3b 09 dc ba 75 a2 8e 3d
       0.041929703 0.003638109 -0.0016787419 0.0696458
0002b0 07 a8 0b 3c 4e 81 93 3b db da 53 3a c3 60 42 3d
       0.008523948 0.0045014983 0.0008081623 0.04745556
0002c0 97 e8 83 3d 4f 06 13 3d 25 63 1e 3b 41 3a 20 3a
       0.06440847 0.03589469 0.0024167981 0.0006112196
0002d0 fd 7d 69 3d 78 5f d2 bc 03 c7 85 3d 4d a3 49 3d
       0.057004917 -0.025680289 0.06532099 0.049228
0002e0 c9 04 20 bd ea 70 dc 3a 27 b0 8f 3d 6a 61 dd 3d
       -0.039067063 0.0016818319 0.0701602 0.10809596
0002f0 e0 e7 df 3d b3 0e 63 bd 34 94 cf 3d 2c 0c 79 3d
       0.109328985 -0.05543394 0.101356894 0.060802624
000300 49 25 29 ba 8e 62 1e b9 6d 04 b6 3c d0 90 9f 3d
       -0.00064523943 -0.00015104769 0.022218907 0.07791293
000310 d3 8f 59 3c 8f 7c a7 3b 85 31 43 3b ee 75 50 b9
       0.013278919 0.005111284 0.0029784155 -0.00019880358
000320 2f 13 79 3a 54 21 98 3b cd 43 7c be 2d fe d4 3e
       0.0009501455 0.004642645 -0.24635239 0.4160017
000330 36 ba 16 3f f5 a3 22 3e 34 ae c6 3e b1 56 8d 3e
       0.58877885 0.15882857 0.3880478 0.27605203
000340 f0 15 94 bb 0b 92 03 be 3e 36 1d 3c bd 19 f4 3e
       -0.0045192167 -0.1284868 0.009595452 0.47675887
000350 5a 88 ee ba 65 0f 15 bb e1 01 09 3b f2 2c 4b b8
       -0.0018198595 -0.0022744772 0.002090566 -4.844083e-05
000360 5d e2 44 3e ae 8e 92 bc de e8 ca bd f2 54 0f 3f
       0.19226976 -0.0178903 -0.09907697 0.5598899
000370 15 02 ad 3d 52 9c 08 be f8 b0 08 ba 12 b2 2a 39
       0.08447663 -0.13340881 -0.00052143587 0.000162788
000380 92 b6 43 3e 54 ac 0a be 07 39 a6 3a 83 91 bd bd
       0.19112614 -0.135423 0.001268179 -0.0925627
000390 43 74 15 3f 09 dd ab 3c 35 f4 8b 3e f1 d2 72 3e
       0.58380526 0.020979421 0.27334753 0.2371328
0003a0 d7 cc 47 bb da 7b d6 38 26 cc 6e b7 6a e9 2b bd
       -0.0030487084 0.00010227384 -1.42334375e-05 -0.041970648
0003b0 b2 32 b4 3b 50 96 10 3f bb f8 a3 bb b7 3b 80 3d
       0.0054992074 0.5647936 -0.005004016 0.0626139
0003c0 b7 f5 c2 38 68 91 c5 3e 0b 27 32 bd 07 09 71 3e
       9.296409e-05 0.385875 -0.043494266 0.235386
0003d0 96 07 23 3f 0d 29 2a 3b ab 0f 1e b9 c6 a0 31 3f
       0.6368345 0.002596441 -0.00015073891 0.69385946
0003e0 61 f5 ca 39 48 f8 a0 3e ed c1 a1 3d 95 34 16 3c
       0.00038711264 0.31439424 0.078983165 0.00916781
0003f0 cc 4d 92 ba 00 64 25 39 e6 f4 42 3f d9 a3 b3 39
       -0.0011162101 0.00015772879 0.76154935 0.00034263617
