inference/BMC/model_checkpoints/BMC_model_7.pt (torch, 503011 bytes, 21 tensors)

gats.0.att f4 [1, 5, 67]
0.6171101 -0.04039409 -0.037777662 0.05230233 -0.5689969 0.20325063 0.008571616 0.19673504
0.31872278 0.014811262 -0.10253395 0.41175276 0.94322306 -0.32740623 -0.09701579 0.0030938834
-0.33307987 -0.0060211434 -0.8663438 0.00035362635 0.042396832 0.060139574 0.124032274 -0.011447385
-0.99416053 -0.5741893 0.42237577 0.17172405 -0.5302636 -0.6586379 -0.028420055 0.0027431794
-0.004116821 0.1542475 0.0008399565 0.7233403 0.53931636 0.8869203 -0.49430838 0.32630962
-0.4263744 -0.07653316 -0.0026563166 0.8033095 -0.34390184 0.29032987 0.28517878 0.2885662
0.21275866 0.04939209 -0.6993987 -0.2754055 -0.015320154 -0.51596063 -0.25074524 -0.13185932
-0.48643833 0.06583483 0.045354366 -7.1367336e-05 -0.0827739 0.53661513 -0.015150536 0.024716737
0.88416886 0.8569235 -0.028646244 -0.64556235 -0.026061555 -0.25300843 0.006921689 -0.44431934
-0.14064506 -0.16897185 -0.84847933 0.0021443486 0.27445635 0.12126081 0.01905843 0.97116804
0.2907106 -0.0007341547 0.26725623 0.42884776 0.0035258834 0.5541319 -0.00056146283 0.22751352
0.25720882 0.04811531 -0.060213204 -0.6863082 0.550404 0.8078878 0.17057063 0.5317757
-0.71469426 0.17339578 0.008246054 0.34463117 0.007906781 -0.78864056 0.94503266 0.31234124
0.74405533 0.28339338 0.009037974 0.6228283 0.0050124987 0.021916434 -0.24801704 0.26567668
0.46806124 0.12463002 -0.3074019 0.0013105719 0.0018530394 -0.055670742 0.6531262 0.089472145
-0.0064665745 0.79594564 0.091070645 0.20836762 -0.21980034 0.07070128 0.6899702 -0.06159818
0.27531806 0.05919691 0.93250966 -0.6940177 0.32044074 0.45203263 0.7366504 0.20060034
-0.09346596 0.020411205 0.6253347 0.25464535 -0.18697926 0.027060485 0.0021408682 -0.6247943
-0.17144635 0.025516154 1.0252379 0.0066321343 0.19724044 -0.30087686 -0.3508839 0.46815765
-0.3063295 -0.00037040308 -0.41064987 -0.11371244 0.59943086 -0.25672948 -0.39730734 -0.5704737
0.0035125923 0.09025348 -0.0034795657 -0.08561348 0.4008198 -0.003283217 0.08070268 0.117973454
0.21991843 -0.75599724 0.29826128 0.007777814 -0.60017097 0.36955473 -0.6942049 -0.016036434
-0.39217004 -0.7850947 0.33475915 0.22135721 0.013929742 -0.08337301 0.31034505 0.03410541
0.5637856 0.15586941 -0.20945325 0.44634062 0.47151396 0.19484499 0.0031370386 -0.28994876
0.5321668 -0.30633804 -0.15171395 0.3598184 -0.016767401 0.99814904 0.3903375 0.7190869
-0.0509705 0.015544097 -0.021487098 -0.4584161 -0.0062387884 0.22778842 -0.0026000403 -0.20501505
0.063051686 -0.4582021 0.42967427 -0.13259234 0.044613514 -0.72971886 0.08797021 -0.03564789
-0.034630638 0.41591412 0.8203328 0.39519572 -0.00079729635 -0.50668234 0.52331215 -0.22507317
-0.018790228 -0.43352994 0.49330366 0.6157085 0.19265792 -0.00019149386 -0.13821493 0.08808316
-0.35857037 0.34443617 0.11248868 -0.0016573365 -0.013140909 -0.49644595 0.8678608 0.31781277
0.02514213 0.21556294 0.21791503 0.07372687 0.8726849 -0.38194486 -0.14967577 -0.43710843
0.56429225 -0.33793077 -0.0072093937 -0.8651472 0.5735018 -0.05114681 0.6109775 -0.4726442
00000000: edfa 1d3f 4674 25bd c0bc 1abd f83a 563d
00000010: c8a9 11bf ef20 503e f76f 0c3c e974 493e
00000020: a22f a33e efaa 723c 52fd d1bd 42d1 d23e
00000030: 1177 713f caa1 a7be 37b0 c6bd c0c2 4a3b
00000040: 7289 aabe 034d c5bb b5c8 5dbf ed66 b939
00000050: 4da8 2d3d ea54 763d a204 fe3d d08d 3bbc
00000060: 4e81 7ebf 12fe 12bf a341 d83e 6ed8 2f3e
00000070: 5bbf 07bf 7e9c 28bf 2dd1 e8bc eac6 333b
00000080: 66e6 86bb 0ef3 1d3e 8730 5c3a d42c 393f
00000090: a310 0a3f 350d 633f fd15 fdbe 0e12 a73e
000000a0: bf4d dabe 6bbd 9cbd 9915 2ebb b1a5 4d3f
000000b0: e713 b0be 1ea6 943e f402 923e f3be 933e
000000c0: 68dd 593e 5c4f 4a3d cb0b 33bf f301 8dbe
000000d0: 6201 7bbc ff15 04bf ae61 80be 2106 07be
000000e0: 720e f9be 69d4 863d 80c5 393d 0cab 95b8
000000f0: 5d85 a9bd 9c5f 093f f439 78bc c17a ca3c
00000100: e458 623f 575f 5b3f 87ab eabc 9343 25bf
00000110: 0b7f d5bc 528a 81be 56cf e23b d37d e3be
00000120: 4205 10be f506 2dbe f135 59bf 3388 0c3b
00000130: 8b85 8c3e 9657 f83d 6d20 9c3c 789e 783f
00000140: 05d8 943e 4a74 40ba cfd5 883e ef91 db3e
00000150: 8212 673b 97db 0d3f 222f 13ba 4ef9 683e
00000160: e0b0 833e 8f14 453d 1fa2 76bd e5b1 2fbf
00000170: 47e7 0c3f bcd1 4e3f 11aa 2e3e 7422 083f
00000180: 34f6 36bf aa8e 313e 751a 073c 7f73 b03e
00000190: 718b 013c 59e4 49bf a9ed 713f 31eb 9f3e
000001a0: 697a 3e3f f018 913e 0314 143c ad71 1f3f
000001b0: e33f a43b 188a b33c 2ef8 7dbe c606 883e
000001c0: b9a5 ef3e 063e ff3d c863 9dbe 7fc7 ab3a
000001d0: afe1 f23a 0107 64bd 4733 273f 2c3d b73d
000001e0: 8fe5 d3bb 18c3 4b3f 3f83 ba3d 525e 553e
000001f0: 5713 61be d5cb 903d e3a1 303f 604e 7cbd
00000200: 7df6 8c3e 7678 723d f4b8 6e3f 25ab 31bf
00000210: cf10 a43e d270 e73e 1f95 3c3f 2d6a 4d3e
00000220: 156b bfbd 6635 a73c ef15 203f e060 823e
00000230: 7e77 3fbe f3ad dd3c cf4d 0c3b 85f2 1fbf
00000240: a28f 2fbe 4107 d13c ff3a 833f 6052 d93b
00000250: 66f9 493e 880c 9abe 0ea7 b3be 5cb2 ef3e
00000260: 38d7 9cbe a932 c2b9 b340 d2be 11e2 e8bd
00000270: 4d74 193f 0c72 83be de6b cbbe 900a 12bf
00000280: 8533 663b d1d6 b83d 6d09 64bb 1f56 afbd
00000290: 4138 cd3e 3e2b 57bb 7247 a53d 119c f13d
000002a0: 4c32 613e 0989 41bf b4b5 983e 08dd fe3b
000002b0: cea4 19bf 4736 bd3e 6ab7 31bf d75e 83bc
000002c0: 83ca c8be f7fb 48bf 8d65 ab3e 77ab 623e
000002d0: 9339 643c 78bf aabd 8ce5 9e3e 1db2 0b3d
000002e0: 4154 103f 3b9c 1f3e ea7a 56be c286 e43e
000002f0: 476a f13e 7285 473e c696 4d3b 2a74 94be
00000300: 153c 083f 57d8 9cbe e75a 1bbe 1e3a b83e
00000310: ca5b 89bc b286 7f3f 51da c73e 1416 383f
00000320: 71c6 50bd abac 7e3c b605 b0bc 84b5 eabe
00000330: c06e ccbb 5e41 693e 7065 2abb 77ef 51be
00000340: 3e21 813d 7799 eabe 44fe db3e 49c6 07be
00000350: a9bc 363d dbce 3abf ba29 b43d 8603 12bd
00000360: dbd8 0dbd b2f2 d43e 5501 523f 1857 ca3e
00000370: a701 51ba efb5 01bf c9f7 053f 9579 66be
00000380: f7ed 99bc a3f7 ddbe 4c92 fc3e 129f 1d3f
00000390: 1e48 453e becb 48b9 3788 0dbe f264 b43d
000003a0: 8996 b7be f059 b03e 7760 e63d fc3a d9ba
000003b0: f84c 57bc 2a2e febe 202c 5e3f 5bb8 a23e
000003c0: def6 cd3c 88bc 5c3e 1e25 5f3e 1dfe 963d
000003d0: 4768 5f3f 478e c3be 9b44 19be adcc dfbe
000003e0: 7575 103f 4305 adbe c73c ecbb 497a 5dbf
000003f0: 04d1 123f 517f 51bd 0569 1c3f 6cfe f1be

gats.0.bias f4 [67]
-0.005213072 -0.018337715 0.0069256686 -0.04207822 -0.03004055 -0.08771048 -0.017010815 -0.11920684
0.0014334812 -0.03699319 0.019232497 -0.0514282 0.10706499 -0.041543514 -0.03396737 -0.047548313
-0.09230796 -0.04141107 -0.035374466 -0.019166548 -0.003172691 -0.05365263 -0.095897414 0.007910488
0.035834715 -0.042135853 -0.091396384 -0.086596176 -0.04667949 0.029532665 -0.051035665 -0.023651486
-0.059230704 -0.025310038 0.01018275 -0.10436428 -0.0533713 -0.12842731 -0.028381256 -0.031875737
-0.03373385 -0.050644938 -0.06903177 -0.035167463 0.009723523 -0.08230806 -0.04450828 -0.07061914
-0.046796575 -0.09121995 -0.021343006 -0.0744442 -0.036064893 -0.04743505 -0.04475163 0.00016770732
0.0036518455 -0.017982962 -0.062182978 -0.0011117772 -0.038814995 -0.06347555 -0.013656335 -0.032305736
-0.05314875 -0.035635553 0.007351734
00000000: 6bd2 aabb fa38 96bc b8f0 e23b 365a 2cbd
00000010: 9917 f6bc 8da1 b3bd 445a 8bbc b722 f4bd
00000020: a6e3 bb3a 2c86 17bd 788d 9d3c 60a6 52bd
00000030: e444 db3d 8829 2abd 5e21 0bbd 05c2 42bd
00000040: f50b bdbd a79e 29bd d1e4 10bd 2a03 9dbc
00000050: ecec 4fbb dcc2 5bbd dd65 c4bd fe9a 013c
00000060: 6cc7 123d a596 2cbd 072e bbbd 5659 b1bd
00000070: fe32 3fbd 7dee f13c c60a 51bd c3c0 c1bc
00000080: e59b 72bd ff56 cfbc 8dd5 263c f1bc d5bd
00000090: dd9b 5abd 7382 03be cf7f e8bc 2290 02bd
000000a0: 812c 0abd 1171 4fbd 8760 8dbd c20b 10bd
000000b0: 694f 1f3c 2191 a8bd 504e 36bd c5a0 90bd
000000c0: c4ad 3fbd 86d1 babd 87d7 aebc 3376 98bd
000000d0: c8b8 13bd 414b 42bd 7c4d 37bd 97da 2f39
000000e0: cd53 6f3b 0151 93bc 94b3 7ebd 0db9 91ba
000000f0: 79fc 1ebd 78ff 81bd d2be 5fbc 0553 04bd
00000100: 81b2 59bd 96f6 11bd d1e6 f03b

gats.0.lin_l.weight f4 [335, 67]
-3.6742e-41 4.3324e-41 -0.02883346 -4.2469e-41 -0.084535874 -2.5421e-41 2.6361e-41 -0.21337004
2.2164e-41 2.0364e-41 6.3470916e-06 2.5382e-41 -2.7053e-41 -2.546e-42 2.0551e-41 -2.5949e-41
4.8712e-41 3.419e-42 -0.22008045 -0.13219556 -2.7266e-41 0.11421297 -0.14302705 -0.08350743
2.3112e-41 2.3291e-41 0.29593033 -0.06554023 -0.03694509 1.6702e-41 -9.397e-42 -0.010055848
1.1355e-41 -0.15215375 0.13623658 0.15637814 0.000842693 -0.00049935817 -9.282e-42 2.0205e-41
5.1921e-41 1.9315e-41 0.20077069 -3.2953e-41 2.096e-41 2.0592e-41 3.1165e-41 -2.029e-41
-1.4935e-41 2.0718e-41 9.181e-42 2.67e-42 8.902e-42 -3.8107e-41 -1.0053e-41 -2.2332e-41
2.6263e-41 -2.2841e-41 2.0584e-41 0.501353 0.42891216 2.4034e-41 5.5825e-41 3.38e-42
-6.2452e-41 -1.3197e-41 -0.039756216 3.264e-42 2.3735e-41 -0.040747825 1.9873e-41 0.0037856565
1.0246e-41 -2.6559e-41 -0.0014009387 4.3147e-41 1.547e-41 -6.2972777e-06 -4.5656e-41 -2.1029e-41
-2.2354e-41 4.2686e-41 -2.2879e-41 -2.49e-42 -2.1296e-41 -0.036128234 0.43460643 -1.9149e-41
0.019771125 -0.17522939 -0.016067062 -2.4387e-41 -2.1495e-41 -0.07935865 -0.0655044 -0.014507117
2.6067e-41 2.0913e-41 -0.011206004 1.988e-41 -0.0044940324 -0.005852946 0.24864243 -7.289794e-05
-5.654035e-05 1.6115e-41 -2.849e-41 3.261e-41 -1.5929e-41 -0.16825463 -6.218e-42 1.4962e-41
-4.3678e-41 5.373e-42 2.2882e-41 -5.7627e-41 6.3002e-41 3.0306e-41 2.8196e-41 -2.2574e-41
3.2241e-41 -9.222e-42 4.4951e-41 -2.328e-42 -2.7153e-41 6.227e-42 -0.02059744 -0.07508093
2.7195e-41 -2.6637e-41 3.7396e-41 9.7e-42 7.96e-42 -0.007571522 2.7216e-41 4.4661e-41
-0.035484184 -5.421e-41 0.5264133 -4.466e-42 2.9384e-41 0.06477019 -1.5347e-41 2.0167e-41
-6.3505972e-06 6.1426e-41 4.15e-42 1.9973e-41 -2.21e-42 -2.2627e-41 2.9883e-41 -4.6827e-41
0.020500228 0.025988113 -1.9304e-41 0.02606349 -0.16250193 0.4134043 -6.054e-42 -2.0924e-41
-0.009038685 0.26722512 -0.13561112 2.2971e-41 -1.1586e-41 -0.028958814 2.1965e-41 -0.0005035955
-0.0049640527 0.006177167 -5.73645e-05 -0.00012862215 -2.2815e-41 -5.6177e-41 -2.104e-41 -2.0926e-41
-0.0977201 -2.215e-41 -1.896e-41 5.6161e-41 5.41e-42 -1.5678e-41 2.5225e-41 -1.3637e-41
4.987e-42 -2.493e-41 2.7115e-41 1.7631e-41 2.5529e-41 2.1642e-41 -2.0022e-41 1.6017e-41
-2.2421e-41 -0.09015303 0.29219264 -2.1664e-41 3.1086e-41 2.1249e-41 4.3548e-41 -1.587e-41
-0.02165228 -2.3372e-41 3.8788e-41 0.0063509797 -1.8178e-41 0.00046374285 -6.0899e-41 -6.3123e-41
0.03187958 2.697e-42 3.7516e-41 6.3380016e-06 1.9607e-41 -8.73e-43 4.4536e-41 -9.932e-42
-3.1047e-41 -7.163e-42 1.9558e-41 0.00020270125 -0.020624686 -9.553e-42 0.07236539 -0.08291918
0.19715492 1.155e-42 -1.9248e-41 0.14489031 0.42943466 0.021481508 -2.0798e-41 -1.5962e-41
-0.0022237217 5.6978e-41 0.034870032 0.00097414135 0.00813392 -0.00014327026 -0.00014304554 -1.0747e-41
4.239e-42 4.03e-41 -2.2949e-41 0.13067175 2.6434e-41 -3.7616e-41 3.4115e-41 -7.52e-42
-3.6947e-41 2.6577e-41 5.6307e-41 2.1445e-41 -3.2807e-41 2.1495e-41 2.047e-41 1.8927e-41
00000000: 6c66 0080 c578 0000 2634 ecbc 6376 0080
00000010: 2521 adbd dd46 0080 7c49 0000 ad7d 5abe
00000020: c93d 0000 c438 0000 1af9 d436 c146 0000
00000030: 6a4b 0080 1907 0080 4a39 0000 5648 0080
00000040: ca87 0000 8809 0000 c55c 61be 465e 07be
00000050: 024c 0080 7de8 e93d af75 12be f205 abbd
00000060: 6d40 0000 ed40 0000 2e84 973e f539 86bd
00000070: bc53 17bd 8f2e 0000 321a 0080 49c1 24bc
00000080: a71f 0000 31ce 1bbe 9a81 0b3e 9721 203e
00000090: 2ce8 5c3a 5ce7 02ba e019 0080 5338 0000
000000a0: bc90 0000 d835 0000 d596 4d3e dc5b 0080
000000b0: 6e3a 0000 6739 0000 e056 0000 8f38 0080
000000c0: a229 0080 c139 0000 9819 0000 7107 0000
000000d0: d118 0000 3a6a 0080 061c 0080 413e 0080
000000e0: 3649 0000 ac3f 0080 6139 0000 ac58 003f
000000f0: 609a db3e ff42 0000 9e9b 0000 6c09 0000
00000100: 17ae 0080 ca24 0080 6ad7 22bd 1909 0000
00000110: 2a42 0000 31e7 26bd 6637 0000 c718 783b
00000120: 901c 0000 094a 0080 b49f b7ba 4778 0000
00000130: 202b 0000 344d d3b6 457f 0080 9f3a 0080
00000140: 503e 0080 fe76 0000 c73f 0080 f106 0080
00000150: 5d3b 0080 33fb 13bd bc84 de3e 6135 0080
00000160: 0ef7 a13c 556f 33be 129f 83bc fb43 0080
00000170: eb3b 0080 ca86 a2bd 2c27 86bd 42af 6dbc
00000180: aa48 0000 4c3a 0000 6399 37bc 6b37 0000
00000190: ad42 93bb 12ca bfbb 1f9c 7e3e c9e0 98b8
000001a0: bd25 6db8 ec2c 0000 6b4f 0080 e75a 0000
000001b0: 672c 0080 f14a 2cbe 5511 0080 b529 0000
000001c0: c279 0080 fa0e 0000 c93f 0000 a4a0 0080
000001d0: a0af 0000 7b54 0000 994e 0000 ed3e 0080
000001e0: e059 0000 b519 0080 4e7d 0000 7d06 0080
000001f0: b14b 0080 5c11 0000 f6bb a8bc 08c4 99bd
00000200: cf4b 0000 414a 0080 3f68 0000 0a1b 0000
00000210: 3016 0000 881a f8bb de4b 0000 7f7c 0000
00000220: dd57 11bd 1e97 0080 06c3 063f 730c 0080
00000230: e951 0000 3ca6 843d c82a 0080 3838 0000
00000240: 3717 d5b6 3bab 0000 920b 0000 ad37 0000
00000250: 2906 0080 133f 0080 4d53 0000 8982 0080
00000260: 18f0 a73c 06e5 d43c d035 0080 1a83 d53c
00000270: e866 26be baa9 d33e e010 0080 543a 0080
00000280: fe16 14bc bbd1 883e a4dd 0abe 0940 0000
00000290: 4c20 0080 093b edbc 3b3d 0000 b903 04ba
000002a0: 7ea9 a2bb d569 ca3b aa9a 70b8 bfde 06b9
000002b0: 993f 0080 999c 0080 a73a 0080 553a 0080
000002c0: 7a21 c8bd bf3d 0080 da34 0080 8e9c 0000
000002d0: 150f 0000 b42b 0080 5146 0000 0426 0080
000002e0: e70d 0000 7f45 0080 964b 0000 2631 0000
000002f0: 2a47 0000 543c 0000 d037 0080 a62c 0000
00000300: 803e 0080 27a2 b8bd 469a 953e 643c 0080
00000310: a856 0000 3c3b 0000 6579 0000 3d2c 0080
00000320: 1f60 b1bc 2741 0080 206c 0000 e11b d03b
00000330: ac32 0080 8322 f339 c3a9 0080 f6af 0080
00000340: 2a94 023d 8507 0000 9468 0000 05ab d436
00000350: a836 0000 6f02 0080 267c 0000 b01b 0080
00000360: 8c56 0080 f813 0080 8536 0000 348c 5439
00000370: 1af5 a8bc a11a 0080 4e34 943d 88d1 a9bd
00000380: fbe2 493e 3803 0000 a835 0080 205e 143e
00000390: dcde db3e fdf9 af3c fa39 0080 7f2c 0080
000003a0: dcbb 11bb d59e 0000 e1d3 0e3d 855d 7f3a
000003b0: 2244 053c d13a 16b9 7ffe 15b9 f51d 0080
000003c0: d10b 0000 5770 0000 f93f 0080 d1ce 053e
000003d0: b049 0000 dc68 0080 195f 0000 f614 0080
000003e0: fe66 0080 164a 0000 f69c 0000 c83b 0000
000003f0: 745b 0080 eb3b 0000 1039 0000 c334 0000

gats.0.lin_l.bias f4 [335]
-0.038172778 -0.1348514 0.03411635 -0.09552927 0.051745694 -0.09263424 -0.054581612 0.053408727
0.081942804 -0.11496442 0.0071891784 -0.0050765662 0.14007667 -0.06454794 -0.057917267 -0.11446887
0.037732903 -0.08700794 0.08425808 -0.008532994 -0.1037153 0.026609186 -0.01571239 -0.014892486
0.011398102 0.01727139 -0.110967375 0.024908733 -0.00014912977 0.02875512 -0.030990515 -0.09570522
-0.052386586 -0.088692695 -0.022255346 0.10853131 -0.015081658 -0.010510575 -0.014032516 0.0883483
-0.070900664 -0.0549856 -0.06347856 -0.03351516 0.08078596 0.020046622 -0.006667431 -0.06170248
-0.047769994 -0.063406736 -0.01693243 6.589557e-05 -0.065645896 0.009589019 0.027202193 -0.028287759
-0.0045585847 -0.012400634 -0.057453513 0.017847175 0.00095217326 -0.08034997 -0.026727436 -0.12970003
0.07646399 -0.032346833 0.04802527 0.060152806 0.06127294 0.086580835 -0.05535292 0.009008408
-0.10577886 0.015481917 0.027495064 -0.0071005938 0.02130759 -0.027369568 0.0126216 0.07849573
0.048324283 0.05172746 -0.07699714 0.03353785 -0.09542218 -0.00408499 -0.008839478 -0.011761027
-0.05510876 0.004210449 -0.005084872 -0.0025035043 -0.027677888 0.084812656 -0.14587106 0.13265617
0.011660113 0.02333209 -0.051825486 -0.015129346 -0.049720503 0.010251747 0.1126592 -0.098849945
0.07088306 -0.06347097 -0.024295554 0.1071694 0.026137015 -0.085676424 -0.045792643 0.043541495
0.06541926 -0.005484221 0.009582591 0.050718345 -0.025186442 -0.030277355 0.038274523 -0.009347626
-0.12027867 0.08080135 -0.013221319 0.051379442 0.045513697 0.009827726 -0.025598109 -0.032426104
0.0016203623 -0.08221689 0.111090116 -0.022685956 0.091663696 0.08136137 -0.023536736 0.05666006
-0.07422888 0.07288914 0.013137464 -0.023791835 -0.04180045 -0.048780005 -0.0076243887 -0.0044838027
-0.08290431 0.021815788 0.07521331 0.028628549 -0.0020559838 -0.031343427 0.0076453662 -0.009086285
0.015408967 -0.011927394 -0.0582975 0.025030497 0.05158643 -0.0486642 0.040406596 0.0032809838
-0.12566806 -0.008534048 -0.018596368 -0.005929345 0.020181157 -0.08732665 -0.13257328 -0.029416423
-0.04923001 -0.07826449 0.031668503 -0.09839605 -0.01605731 -0.007093224 -0.052593186 -0.026997486
-0.038508907 0.06617408 -0.05426146 0.02505096 -0.10686022 -0.039557032 0.003991647 -0.068205476
0.065572105 -0.035016425 0.06485917 1.6844226e-05 -0.058011025 -0.10387427 0.04628103 0.06654803
0.058299575 -0.002286409 -0.06057046 0.054110184 -0.0037981807 0.09577505 -0.09380165 -0.038410395
-0.059954643 -0.10975012 -0.010152005 -0.023648508 -0.12813757 0.048384592 -0.110170916 -0.053302426
-0.1396611 -0.09983653 -0.090596914 -0.00958598 -0.021054165 0.11117416 -0.002840922 0.026696587
-0.14440005 -0.031237014 0.060753305 -0.071296185 -0.00961178 0.103320934 -0.0020786645 -0.07111967
0.06315069 -0.003551342 0.03468264 0.052819252 0.047075216 -0.016126104 0.058688708 -0.022376517
0.07587891 0.043873657 0.02634627 -0.044793874 -0.014882192 -0.100404575 0.061681893 -0.022886936
-0.021099929 -0.041425414 -0.014897641 0.013102529 -0.006626284 -0.043585204 -0.07179866 0.033454742
-0.058265883 -0.005186199 -0.09456929 0.15335417 -0.08256244 0.07363719 0.037284512 0.04222815
00000000: 0f5b 1cbd 7c16 0abe 96bd 0b3d daa4 c3bd
00000010: 4bf3 533d 05b7 bdbd f890 5fbd 1cc3 5a3d
00000020: a1d1 a73d 7772 ebbd 3393 eb3b 5359 a6bb
00000030: 4270 0f3e b631 84bd a83a 6dbd a86e eabd
00000040: d18d 1a3d 3831 b2bd 808f ac3d f9cd 0bbc
00000050: b068 d4bd 82fb d93c 45b7 80bc 9dff 73bc
00000060: 1bbf 3a3c bb7c 8d3c dd42 e3bd 660d cc3c
00000070: b85f 1cb9 db8f eb3c d2df fdbc 1901 c4bd
00000080: 5193 56bd 84a4 b5bd d850 b6bc aa45 de3d
00000090: 0f19 77bc 8c34 2cbc a3e8 65bc f4ef b43d
000000a0: 5e34 91bd 9538 61bd 0c01 82bd 3147 09bd
000000b0: 1c73 a53d d038 a43c 777a dabb bdbb 7cbd
000000c0: 78aa 43bd 64db 81bd e1b5 8abc 6a31 8a38
000000d0: 5b71 86bd 431b 1d3c 22d7 de3c bbbb e7bc
000000e0: 2e60 95bb 072c 4bbc 6054 6bbd 3d34 923c
000000f0: 449b 793a 868e a4bd 7ff3 dabc 16d0 04be
00000100: 2799 9c3d 1d7e 04bd 25b6 443d ca62 763d
00000110: 56f9 7a3d 4b51 b13d beb9 62bd 0098 133c
00000120: 96a2 d8bd dea7 7d3c 543d e13c 19ac e8bb
00000130: 418d ae3c 2536 e0bc d4ca 4e3c 5fc2 a03d
00000140: afef 453d 2ce0 533d adb0 9dbd fc5e 093d
00000150: b46c c3bd 61db 85bb 75d3 10bc 53b1 40bc
00000160: b9b9 61bd cef7 893b ff9e a6bb d511 24bb
00000170: bdbc e2bc 42b2 ad3d 395f 15be 05d7 073e
00000180: 0f0a 3f3c f022 bf3c f646 54bd 14e1 77bc
00000190: baa7 4bbd f2f6 273c deb9 e63d d771 cabd
000001a0: 232b 913d 11fd 81bd 7807 c7bc a17b db3d
000001b0: 4b1d d63c 1f77 afbd 1191 3bbd 9158 323d
000001c0: 88fa 853d fbb4 b3bb 4d00 1d3c 0abe 4f3d
000001d0: cc53 cebc 3708 f8bc bfc5 1c3d c926 19bc
000001e0: aa54 f6bd 2e7b a53d 3b9e 58bc 4073 523d
000001f0: 926c 3a3d 7804 213c 20b3 d1bc 3cd1 04bd
00000200: 5662 d43a 5461 a8bd 3783 e33d e6d7 b9bc
00000210: 2dba bb3d caa0 a63d 1dd0 c0bc 6114 683d
00000220: 5005 98bd e746 953d 853e 573c 18e7 c2bc
00000230: f336 2bbd 8bcd 47bd 02d6 f9bb ddec 92bb
00000240: bcc9 a9bd 06b7 b23c 7009 9a3d 6b86 ea3c
00000250: afbd 06bb f761 00bd fb85 fa3b a4de 14bc
00000260: e475 7c3c 1e6b 43bc 5cc9 6ebd c20c cd3c
00000270: 4b4c 533d 1d54 47bd 6381 253d c605 573b
00000280: 21af 00be 64d2 0bbc 6957 98bc f34a c2bb
00000290: f452 a53c 51d8 b2bd 4ac1 07be b6fa f0bc
000002a0: 68a5 49bd 2249 a0bd d5b6 013d de83 c9bd
000002b0: 9f8a 83bc 476e e8bb f46b 57bd d529 ddbc
000002c0: 84bb 1dbd 4786 873d 4441 5ebd ac37 cd3c
000002d0: 88d9 dabd 8e06 22bd 5dcc 823b 50af 8bbd
000002e0: ab4a 863d 626d 0fbd e2d4 843d b34c 8d37
000002f0: f89c 6dbd 09bc d4bd 2d91 3d3d 554a 883d
00000300: 89cb 6e3d 94d7 15bb bb18 78bd a4a2 5d3d
00000310: e6ea 78bb b625 c43d 141b c0bd 3854 1dbd
00000320: 0093 75bd acc4 e0bd 9854 26bc 84ba c1bc
00000330: 7f36 03be ec2e 463d 4aa1 e1bd a553 5abd
00000340: 5203 0fbe 1877 ccbd e08a b9bd 840e 1dbc
00000350: c979 acbc 47af e33d c32e 3abb cdb2 da3c
00000360: 9bdd 13be c4e4 ffbc 75d8 783d bc03 92bd
00000370: ba7a 1dbc ed99 d33d 343a 08bb 31a7 91bd
00000380: 2655 813d a2bd 68bb 620f 0e3d 0059 583d
00000390: f1d1 403d e41a 84bc 9263 703d f54e b7bc
000003a0: 6766 9b3d ddb4 333d 22d4 d73c c879 37bd
000003b0: 70d4 73bc eaa0 cdbd 27a6 7c3d 627d bbbc
000003c0: c2d9 acbc b2ad 29bd 3c15 74bc fdab 563c
000003d0: 4d21 d9bb 6686 32bd 2d0b 93bd d707 093d
000003e0: 35a8 6ebd fef0 a9bb 8bad c1bd e008 1d3e
000003f0: 7f16 a9bd 18cf 963d a5b7 183d 6df7 2c3d

gats.0.lin_r.weight f4 [335, 67]
-3.138e-41 3.317e-42 0.007449537 -3.4727e-41 0.001202264 -9.054e-42 -2.6245e-41 -0.0042066867
1.9411e-41 2.7087e-41 2.6231e-41 1.4457e-41 2.1422e-41 -3.587e-42 -5.022e-42 2.1284e-41
-1.8723e-41 -1.683e-42 0.039166693 -0.14343485 -4.3806e-41 0.056980345 -0.0021849312 -0.054294277
2.2219e-41 2.1943e-41 0.013012087 0.06400214 0.00566231 -2.0009e-41 -1.031e-41 0.005540313
1.9152e-41 0.013200385 0.0070381165 0.010216743 -1.749346e-05 -2.0837664e-05 3.2523e-41 1.7139e-41
-2.3839e-41 -2.744e-42 0.0014052234 -2.1581e-41 -2.5251e-41 -2.6208e-41 -2.1476e-41 2.1958e-41
2.5689e-41 2.1286e-41 2.0938e-41 -1.9453e-41 -4.3024e-41 2.0053e-41 2.5108e-41 2.324e-41
2.5593e-41 -1.8951e-41 -2.677e-41 -0.0011937123 -0.00020460087 2.6702e-41 -2.263e-41 2.0341e-41
2.7265e-41 1.4177e-41 0.01767844 -3.443e-42 1.3992e-41 0.0006177954 -2.2816e-41 0.00039280648
2.1954e-41 2.0131e-41 0.004252721 4.861e-42 -9.655e-42 2.6979e-41 -2.5963e-41 -9.223e-42
-2.1116e-41 1.6366e-41 -2.2136e-41 2.5749e-41 -4.6952e-41 0.008969863 -0.010042378 3.5684e-41
0.015830636 -0.00027588828 -0.00039914565 -5.63e-43 -2.0847e-41 0.00025890497 0.004195091 0.0003514683
-4.0192e-41 -6.3084e-41 0.0017247044 6.03e-42 -0.0002915191 5.1919495e-05 -0.002654224 -1.4236623e-06
6.185122e-07 -5.6001e-41 -1.8133e-41 -2.2178e-41 4.4086e-41 -0.0008701687 -1.4311e-41 1.136e-42
-2.4489e-41 2.0432e-41 -2.5575e-41 2.881e-42 -2.3615e-41 -2.1723e-41 -3.1346e-41 3.8261e-41
1.516e-41 6.823e-42 -3.615e-42 4.5546e-41 -1.5714e-41 -1.9245e-41 -0.0009173232 0.00090281205
-2.1227e-41 -8.6e-42 4.3527e-41 1.3555e-41 2.1391e-41 7.844811e-05 -2.2241e-41 1.9072e-41
0.0043763295 3.8257e-41 0.0028985976 -2.1595e-41 -1.5456e-41 6.713485e-05 -3.2263e-41 -2.0097e-41
2.5488e-41 -2.2089e-41 -2.15e-41 2.4653e-41 2.9828e-41 -3.1917e-41 -1.5899e-41 3.176e-41
0.0025877247 -0.005726735 -2.1702e-41 1.9328432e-05 -0.0017618047 0.0009786543 6.149e-42 -2.1569e-41
-0.0044651064 0.0031716095 0.0005679636 2.976e-42 2.0375e-41 -0.004281911 1.9826e-41 -0.0019928834
-0.00062690396 -0.00022560575 -4.985239e-06 8.334023e-06 -2.6375e-41 1.3964e-41 -1.5155e-41 -7.208e-42
0.0031917726 2.0365e-41 -2.6199e-41 4.7211e-41 2.6067e-41 3.209e-41 2.1472e-41 -3.7443e-41
-3.0914e-41 -2.4698e-41 2.4331e-41 1.4677e-41 -3.772e-42 -1.4969e-41 -4.6806e-41 1.6132e-41
-3.7483e-41 0.001465019 0.0021124054 -3.7824e-41 1.874e-41 3.0737e-41 -2.0941e-41 -3.338e-41
-0.0007942924 -2.5701e-41 -1.9652e-41 0.0017263456 -2.8444e-41 -0.0002901226 -3.2185e-41 -3.1903e-41
0.0005028326 1.7932e-41 -3.2035e-41 -2.0692e-41 4.657e-42 3.3621e-41 4.48e-43 -2.168e-41
-1.4691e-41 3.6874e-41 1.8141e-41 -0.0020216769 0.0044770227 -2.2077e-41 0.0023283774 -0.00038397522
-0.0085417945 -9.289e-42 2.099e-41 0.0053018127 0.0067754523 0.0030766597 1.9842e-41 2.0661e-41
-0.0028283854 -6.1932e-41 -0.009193935 0.0001282086 -0.0006781429 1.1834135e-05 -4.1333456e-05 3.0517e-41
3.7531e-41 3.2796e-41 1.258e-42 -0.00048012022 -2.1155e-41 -9.44e-43 1.1887e-41 -1.8695e-41
3.282e-42 6.2593e-41 2.583e-41 2.5903e-41 4.759e-42 4.198e-42 3.1419e-41 2.0686e-41
00000000: 7a57 0080 3f09 0000 3f1b f43b ce60 0080
00000010: 4995 9d3a 3d19 0080 2949 0080 3fd8 89bb
00000020: 1c36 0000 824b 0000 1f49 0000 4d28 0000
00000030: b73b 0000 000a 0080 000e 0080 553b 0000
00000040: 3134 0080 b104 0080 416d 203d 96e0 12be
00000050: 1d7a 0080 3964 693d 1031 0fbb ad63 5ebd
00000060: f03d 0000 2b3d 0000 a630 553c 8e13 833d
00000070: e68a b93b c737 0080 bd1c 0080 848b b53b
00000080: 6335 0000 6d46 583c 00a0 e63b 2064 273c
00000090: ebbe 92b7 8bcc aeb7 a95a 0000 c72f 0000
000000a0: 7442 0080 a607 0080 792f b83a 293c 0080
000000b0: 6446 0080 0f49 0080 de3b 0080 363d 0000
000000c0: 9c47 0000 563b 0000 5e3a 0000 3a36 0080
000000d0: ef77 0080 e637 0000 fe45 0000 c940 0000
000000e0: 5847 0000 d434 0080 a04a 0080 5776 9cba
000000f0: 218a 56b9 6f4a 0000 153f 0080 b438 0000
00000100: 014c 0000 8527 0000 60d2 903c 9909 0080
00000110: 0127 0000 8cf3 213a 9a3f 0080 98f1 cd39
00000120: 333d 0000 1e38 0000 695a 8b3b 8d0d 0000
00000130: ea1a 0080 354b 0000 6048 0080 b619 0080
00000140: dd3a 0080 9f2d 0000 b53d 0080 c747 0000
00000150: e282 0080 55f6 123c c988 24bc 7963 0000
00000160: 40af 813c 19a5 90b9 6c44 d1b9 9201 0080
00000170: 1d3a 0080 a3bd 8739 f976 893b 4745 b839
00000180: 0a70 0080 daaf 0080 7a0f e23a cf10 0000
00000190: 08d7 98b9 22c4 5938 7df2 2dbb aa14 bfb5
000001a0: d607 2635 1c9c 0080 8c32 0080 d33d 0080
000001b0: e57a 0000 081c 64ba e527 0080 2b03 0000
000001c0: 4444 0080 f538 0000 4b47 0080 0808 0000
000001d0: d441 0080 8e3c 0080 6157 0080 a86a 0000
000001e0: 432a 0000 0513 0000 140a 0080 f77e 0000
000001f0: ce2b 0080 a635 0080 8578 70ba b1aa 6c3a
00000200: 2c3b 0080 f917 0080 5679 0000 c925 0000
00000210: a13b 0000 8284 a438 003e 0080 2a35 0000
00000220: 5067 8f3b a56a 0000 66f6 3d3b 333c 0080
00000230: 162b 0080 c0ca 8c38 f059 0080 0638 0080
00000240: 0d47 0000 933d 0080 ef3b 0080 b944 0000
00000250: 2653 0000 f958 0080 522c 0080 8958 0000
00000260: d196 293b 56a7 bbbb 7f3c 0080 7e23 a237
00000270: 5bec e6ba 3046 803a 2411 0000 203c 0080
00000280: 0750 92bb c7da 4f3b 64e3 143a 4c08 0000
00000290: cc38 0000 464f 8cbb 4437 0000 099b 02bb
000002a0: d056 24ba 9590 6cb9 e046 a7b6 5bd2 0b37
000002b0: 8649 0080 ed26 0000 3f2a 0080 1814 0080
000002c0: 0f2d 513b c538 0000 0849 0080 9b83 0000
000002d0: aa48 0000 7459 0000 db3b 0000 6068 0080
000002e0: 2d56 0080 d944 0080 d343 0000 ea28 0000
000002f0: 840a 0080 ba29 0080 7a82 0080 f82c 0000
00000300: 7d68 0080 e105 c03a 4870 0a3b 7069 0080
00000310: 3d34 0000 af55 0000 603a 0080 0d5d 0080
00000320: 1038 50ba a547 0080 c836 0080 8c46 e23a
00000330: 4a4f 0080 991b 98b9 b859 0080 ef58 0080
00000340: 86d0 033a fd31 0000 4d59 0080 ae39 0080
00000350: fb0c 0000 b95d 0000 4001 0000 6f3c 0080
00000360: f428 0080 ca66 0000 9232 0000 1c7e 04bb
00000370: fdb3 923b 8b3d 0080 b197 183b 4850 c9b9
00000380: e2f2 0bbc e519 0080 833a 0000 d4ba ad3b
00000390: 9d04 de3b c9a1 493b 5037 0000 9839 0000
000003a0: 6f5c 39bb a4ac 0080 29a2 16bc bc6f 0639
000003b0: 66c5 31ba 398b 4637 765d 2db8 1255 0000
000003c0: 9f68 0000 6c5b 0000 8203 0000 a5b8 fbb9
000003d0: f93a 0080 a202 0080 2321 0000 1d34 0080
000003e0: 2609 0000 7cae 0000 0148 0000 3548 0000
000003f0: 440d 0000 b40b 0000 9557 0000 aa39 0000

gats.0.lin_r.bias f4 [335]
0.11432947 0.021408483 0.0009791526 0.010320154 0.022860594 0.07094575 0.0014971129 0.07527867
0.045875423 0.0026608747 0.03562374 -0.01847912 0.1489346 0.19898318 -0.0037308903 0.0014092245
0.13102841 -0.001139353 0.2997014 7.237028e-05 0.01484675 0.011893312 0.032272838 0.004637786
0.1392528 0.25290918 0.09620155 0.030721696 0.19605117 0.076698795 0.0071877004 -0.0023762677
-0.006586914 0.09220718 -3.8730766e-05 0.116671376 0.030137813 0.08884474 0.26649734 0.043734316
0.11587388 0.0064769047 0.00019502842 0.21038872 0.13798223 0.003586486 0.002859235 0.045241546
0.07864572 0.012195945 0.23894377 0.12852435 -0.0073477533 0.20705408 -0.047914334 -0.039196614
0.13742137 0.028060101 0.032446943 9.145933e-07 -0.022954248 0.18887343 -0.0054899827 0.008688409
0.15519994 0.17338315 0.010162202 0.09142748 -0.013893287 -0.02014592 0.00034378265 0.16568676
0.04314047 -0.047716435 0.17299284 -0.00030012967 0.06638511 0.017208965 -0.030760234 0.34254712
0.09366482 0.0005119514 0.0708376 0.050823014 -0.0019282388 0.20547241 1.4130131e-05 0.10148727
0.08741111 0.00621647 -0.0060987524 0.0731067 0.18951099 0.21335508 0.083792366 0.114335746
0.07192759 0.058146454 0.0011896518 0.11052893 0.006043753 0.17018689 0.24855468 0.10184837
0.18865801 0.11506863 0.004020001 0.16945532 0.00055058725 0.00803574 0.116475716 0.12528887
0.122238114 0.035860814 0.06262458 -0.0030556268 -0.007852256 -0.014545845 0.20074213 0.05064686
-0.006262599 0.22222689 0.056356307 -0.0049591865 0.07647102 -0.007449907 0.18592674 0.0029861021
0.061352447 -0.0034847828 0.18835129 0.07837425 0.085114546 0.16327995 0.19291215 0.017774815
-0.047740873 0.012934907 0.16579816 0.06747214 -0.036494583 0.014216445 -0.0008062494 0.11786005
-0.06163013 0.013320325 0.30807272 -0.01291751 0.03407754 -0.032690696 0.06937876 0.1846516
0.05362569 -0.00024257494 0.22692363 0.014333761 0.19154626 -0.06556188 -0.015760614 0.10609043
-0.0011679595 -0.017928211 -0.00052971335 -0.00624907 0.04466564 -0.003604347 0.013564521 0.019174049
0.076879926 0.17172132 0.0119163 -0.0065610255 0.04538459 0.122831725 0.098703325 0.0042736367
-0.010001748 0.15847565 -0.059397474 0.061311103 0.01000417 0.008545279 0.095327675 0.013917668
0.2067572 0.069869995 -0.04451204 0.16846609 0.1798842 0.006460514 0.0011292855 0.0010862568
0.091834 -0.008617004 -0.033833824 0.08758125 0.0047168666 0.12336358 0.17395252 0.18496925
-0.009439794 -0.0049459348 -0.0033526728 0.108012706 -0.002033558 0.11177076 -0.00047235246 -0.028500702
-0.029041436 0.10516922 0.08786776 -0.060839415 0.0084924605 0.07071229 -0.028287778 -0.020094512
-0.011948605 0.017065467 0.23172359 0.07442563 -0.00030780822 0.028551307 0.15162405 0.09686193
0.0098455055 0.049277175 0.14588673 0.16990286 0.043140344 0.00016613287 -0.024332892 -0.032740355
0.043962505 0.08719287 0.026069803 9.343414e-05 -0.0033194514 0.15142763 0.2357247 0.03313666
0.009522285 0.05635253 0.028139083 0.05873085 0.32187122 -0.051564887 0.025937125 0.06702221
0.22323328 -0.060660616 0.008717569 0.22480588 0.019822996 -0.019605074 0.20914209 0.17310844
00000000: 9225 ea3d d860 af3c e956 803a dd15 293c
00000010: 2446 bb3c 014c 913d c63a c43a b42b 9a3d
00000020: dee7 3b3d 1262 2e3b 33ea 113d 8661 97bc
00000030: 5082 183e 3fc2 4b3e f481 74bb bab5 b83a
00000040: 502c 063e 5856 95ba 7672 993e 80c5 9738
00000050: c83f 733c 2bdc 423c 8630 043d 92f8 973b
00000060: 4998 0e3e 507d 813e 5105 c53d 11ac fb3c
00000070: a3c1 483e 4214 9d3d cd86 eb3b 28bb 1bbb
00000080: 0ad7 d7bb 1ed7 bc3d d872 22b8 67f1 ee3d
00000090: 93e3 f63c 3bf4 b53d 5772 883e c122 333d
000000a0: 494f ed3d 373c d43b 8b80 4c39 2470 573e
000000b0: 374b 0d3e 400b 6b3b 0162 3b3b 334f 393d
000000c0: 0211 a13d 80d1 473c adad 743e e39b 033e
000000d0: 6cc5 f0bb fc05 543e d241 44bd a18c 20bd
000000e0: 30b8 0c3e 4cde e53c 16e7 043d 5f82 7535
000000f0: 8c0a bcbc 0968 413e 50e5 b3bb d459 0e3c
00000100: bcec 1e3e 5a8b 313e 5d7f 263c 553e bb3d
00000110: aba0 63bc 0e09 a5bc ba3d b439 caa9 293e
00000120: 10b4 303d 4f72 43bd 0925 313e b95a 9db9
00000130: ebf4 873d d1f9 8c3c e3fc fbbc 5662 af3e
00000140: 57d3 bf3d 7a34 063a 4e13 913d cb2b 503d
00000150: f5bc fcba 5c67 523e 7310 6d37 8fd8 cf3d
00000160: 9904 b33d 88b3 cb3b 0bd8 c7bb f7b8 953d
00000170: 2b0f 423e c179 5a3e 559b ab3d dc28 ea3d
00000180: c64e 933d fa2a 6e3d 17ee 9b3a fe5c e23d
00000190: ad0a c63b 7945 2e3e 1e85 7e3e e195 d03d
000001a0: 912f 413e 1aa9 eb3d 36ba 833b b285 2d3e
000001b0: 4955 103a 56a8 033c d28a ee3d ba4b 003e
000001c0: fa57 fa3d cae2 123d 5141 803d e940 48bb
000001d0: c0a6 00bc b251 6ebc 588f 4d3e 1573 4f3d
000001e0: 7d36 cdbb 728f 633e dfd5 663d ac80 a2bb
000001f0: d79c 9c3d 591e f4bb 9463 3e3e 7bb2 433b
00000200: b44c 7b3d f460 64bb 29df 403e ae82 a03d
00000210: 8950 ae3d dc32 273e c38a 453e 7d9c 913c
00000220: ef8b 43bd efec 533c fec6 293e d52e 8a3d
00000230: 587b 15bd 18ec 683c 7b5a 53ba 9c60 f13d
00000240: e06f 7cbd 7e3d 5a3c b5bb 9d3e f7a3 53bc
00000250: e494 0b3d aee6 05bd 7416 8e3d 4f15 3d3e
00000260: 9da6 5b3d b75b 7eb9 ab5e 683e 27d8 6a3c
00000270: b424 443e 4f45 86bd 671c 81bc f045 d93d
00000280: 3816 99ba 2fde 92bc 76dc 0aba 00c5 ccbb
00000290: 51f3 363d e836 6cbb ba3d 5e3c e512 9d3c
000002a0: 3973 9d3d b7d7 2f3e 963c 433c dffd d6bb
000002b0: 31e5 393d 338f fb3d f824 ca3d dd09 8c3b
000002c0: 5fde 23bc 7147 223e c44a 73bd 5a21 7b3d
000002d0: 88e8 233c 7f01 0c3c 283b c33d ee06 643c
000002e0: 29b8 533e 0018 8f3d 4252 36bd 6082 2c3e
000002f0: 9033 383e b8b2 d33b 8904 943a bb60 8e3a
00000300: 7713 bc3d 562e 0dbc 5695 0abd cc5d b33d
00000310: f28f 9a3b 0ba6 fc3d 9c20 323e 9468 3d3e
00000320: 5ea9 1abc 8211 a2bb 84b8 5bbb c435 dd3d
00000330: 7145 05bb 11e8 e43d 13a6 f7b9 4e7a e9bc
00000340: 4ee8 edbc f662 d73d 03f4 b33d c032 79bd
00000350: f623 0b3c 9bd1 903d c5bb e7bc 3f9d a4bc
00000360: 15c4 43bc e1cc 8b3c f348 6d3e 776c 983d
00000370: 5261 a1b9 6ee4 e93c 5643 1b3e 8c5f c63d
00000380: 0b4f 213c ddd6 493d 5563 153e 04fb 2d3e
00000390: eeb3 303d f433 2e39 c655 c7bc c01a 06bd
000003a0: 0712 343d 2d92 b23d 5790 d53c 12f2 c338
000003b0: 278b 59bb d80f 1b3e d161 713e 4eba 073d
000003c0: 5c03 1c3c e9d1 663d ef83 e63c c38f 703d
000003d0: 4ecc a43e b435 53bd 187a d43c f142 893d
000003e0: 4497 643e 4477 78bd 22d4 0e3c 8333 663e
000003f0: d663 a23c d29a a0bc 5829 563e 5743 313e

gats.0.lin_edge.weight f4 [335, 1]
0.32998592 -0.0036911955 -0.011226085 0.01390038 0.090709835 0.007751798 0.00032759074 0.1069263
0.23709367 0.0033996615 -0.038307715 0.25202677 0.4064413 -0.12880985 -0.0038868648 0.0011742677
-0.089818425 -0.0011474878 -0.08163967 0.00012722649 0.019947264 0.023886805 0.047049593 0.0068965554
-0.11139732 -0.2142198 0.25364545 0.11090355 -0.14417292 -0.113966174 -0.006509577 -0.0002975337
-0.0028910348 0.09811063 9.220845e-05 0.3778435 0.29194397 0.38656536 -0.22319512 0.23538864
0.07237094 0.0072528296 -0.0013024932 0.39137062 -0.09222025 0.1794514 0.16198705 0.15928233
0.21133785 -0.008979535 -0.13245875 -0.12971497 -0.007135029 -0.22359098 0.076966755 -0.06070756
-0.0062246514 0.0121499915 0.018823562 -3.983467e-05 -0.03487799 0.32464394 -0.009342349 0.008225163
0.3951881 0.22245614 0.0013351266 0.036441326 -0.012118595 -0.002069149 -0.001472303 0.045826975
-0.0029020363 -0.039751854 0.051615 -0.0008291329 0.000591368 0.049110185 -0.010627214 0.11385914
0.07172085 0.001280439 0.04788214 0.0405404 -0.0026833299 0.072362885 0.00012175281 0.03872955
0.032662243 -0.0021874334 -0.0063056177 -0.016192086 0.03992292 0.072589874 0.072563514 0.08292129
0.006312466 0.048433322 -0.000868706 0.07692334 6.0364557e-05 0.058813266 0.1033502 0.03644757
0.077692464 0.019428967 0.0016209912 -0.017495543 -0.00041948011 0.0017563803 0.07720955 0.06717433
0.07857126 -0.0029345162 -0.066035844 -0.0031759061 -0.0069285855 -0.00023497407 0.0758249 -0.0036892456
-0.0025317892 0.093555614 0.04860745 0.04267535 0.0047052894 -0.01631957 0.14139795 -0.0065100645
0.029879551 -0.00678071 0.07406542 0.015245591 0.034021083 0.11436851 -0.25252762 0.036553796
0.030540291 0.0013122883 0.13982731 -0.10460352 0.00553058 0.0062341774 -0.0016337535 0.06684586
-0.116287604 0.008939189 0.28061998 -0.011379584 -0.11474289 0.11137282 0.15921211 0.14658454
0.10149997 -0.00031729 -0.071393505 -0.028241606 0.06103812 -0.19810769 0.026202276 0.14816321
-0.0021868688 -0.04977779 0.00044376333 -0.0012300323 0.21714824 -6.8680914e-05 -0.011000621 -0.039128706
-0.012487344 0.12825626 -0.08024646 -0.0068466617 0.26644275 -0.11715577 0.17641774 0.0059019653
0.22514483 0.11263434 0.14629778 -0.10665024 -0.00015639201 -0.02508068 0.07572624 -0.009331406
0.07511328 -0.045196883 0.11184589 0.20736213 0.12696047 0.11828671 -0.0006390493 0.039669786
0.15634392 0.123822406 -0.12246217 0.13892148 0.009568422 0.05251114 0.05417232 0.20462778
-0.04076699 -0.00931232 -0.0021885643 0.058225423 -0.0008778884 0.092304446 0.001688024 -0.101582184
0.022710133 0.07896948 -0.11804149 -0.07504558 0.008089647 0.00734064 0.07991924 -0.005795714
-6.3290456e-05 0.17205611 0.21483934 0.18095139 5.9952232e-05 0.010811249 0.1775095 0.09063017
0.004356408 0.025798608 0.1387738 0.17782415 0.06189433 0.000111518595 -0.040979736 0.06329683
0.0008501108 0.10419958 0.008519365 0.00097017013 0.00320925 0.009333963 0.23095399 0.11721183
-0.00029143173 0.13986231 0.10366903 0.038049158 0.24736299 -0.17881916 -0.064311884 0.020727126
0.20125364 -0.16818316 0.006307841 0.0005239807 0.24263063 -0.018417472 0.1881394 -0.049436107
00000000: eaf3 a83e fce7 71bb 9ded 37bc 6bbe 633c
00000010: 14c6 b93d cb02 fe3b 7cc0 ab39 2dfc da3d
00000020: afc8 723e dbcc 5e3b 8de8 1cbd a709 813e
00000030: 1319 d03e bbe6 03be c5ba 7ebb e3e9 993a
00000040: b9f2 b7bd 4d67 96ba b332 a7bd 1a68 0539
00000050: 7268 a33c 43ae c33c 13b7 403d 80fc e13b
00000060: 4724 e4bd 6f5c 5bbe d1dd 813e 6721 e33d
00000070: 11a2 13be 1967 e9bd 4a4e d5bb 4cfe 9bb9
00000080: 8477 3dbb 3aee c83d 0960 c138 b474 c13e
00000090: ae79 953e e5eb c53e 438d 64be b809 713e
000000a0: 3737 943d 25a9 ed3b 6bb8 aaba bb61 c83e
000000b0: f8dd bcbd 1cc2 373e efdf 253e e81a 233e
000000c0: f368 583e e61e 13bc 44a3 07be 00d4 04be
000000d0: f6cc e9bb 09f5 64be bfa0 9d3d 7ea8 78bd
000000e0: 29f8 cbbb c210 473c df33 9a3c 2714 27b8
000000f0: 39dc 0ebd bb37 a63e a710 19bc d6c2 063c
00000100: 1856 ca3e 8bcb 633e 6aff ae3a 8043 153d
00000110: 128d 46bc 8f9a 07bb 4afa c0ba 11b5 3b3d
00000120: 1730 3ebb d7d2 22bd 406a 533d 2b5a 59ba
00000130: 0906 1b3a c327 493d c41d 2ebc fb2e e93d
00000140: 62e2 923d 67d4 a73a 1020 443d b10d 263d
00000150: ceda 2fbb fe32 943d 8b55 ff38 e0a2 1e3d
00000160: d8c8 053d 0b5b 0fbb 5b9f cebb 44a5 84bc
00000170: 3786 233d 00aa 943d 2e9c 943d a3d2 a93d
00000180: ced8 ce3b 0562 463d dfb9 63ba fc89 9d3d
00000190: f32f 7d38 2ee6 703d 45a9 d33d 0c4a 153d
000001a0: 3a1d 9f3d 7f29 9f3c 7077 d43a d052 8fbc
000001b0: abed dbb9 5836 e63a 0a20 9e3d b292 893d
000001c0: f8e9 a03d 0351 40bb cd3d 87bd dd22 50bb
000001d0: 3009 e3bb 5f63 76b9 164a 9b3d 45c7 71bb
000001e0: 60ec 25bb 169a bf3d 9b18 473d 59cc 2e3d
000001f0: d42e 9a3b 9eb0 85bc a0ca 103e 6152 d5bb
00000200: f6c5 f43c b830 debb 9caf 973d a5c8 793c
00000210: b159 0b3d 0a3a ea3d 4d4b 81be 6fb9 153d
00000220: a22f fa3c 1701 ac3a e42e 0f3e 5f3a d6bd
00000230: de39 b53b 1248 cc3b ac23 d6ba 7be6 883d
00000240: 3228 eebd ad75 123c 6cad 8f3e 6f71 3abc
00000250: 52fe eabd 6f17 e43d 8008 233e 421a 163e
00000260: 37df cf3d f159 a6b9 c236 92bd f15a e7bc
00000270: 1c03 7a3d bedc 4abe 28a6 d63c 19b8 173e
00000280: 9251 0fbb cce3 4bbd e8a8 e839 0939 a1ba
00000290: 1c5c 5e3e c908 90b8 f33b 34bc 6c45 20bd
000002a0: b897 4cbc 9c55 033e 4258 a4bd f659 e0bb
000002b0: 2f6b 883e 5def efbd daa6 343e 4665 c13b
000002c0: 5e8c 663e d5ac e63d 16cf 153e 716b dabd
000002d0: 29fd 23b9 0076 cdbc 5c16 9b3d c1e2 18bc
000002e0: fed4 993d 5e20 39bd 750f e53d bd56 543e
000002f0: ed01 023e 4d40 f23d df85 27ba c97c 223d
00000300: 9f18 203e 9a96 fd3d 72cd fabd 6f41 0e3e
00000310: dfc4 1c3c ec15 573d cbe3 5d3d f289 513e
00000320: 4afb 26bd b392 18bc 046e 0fbb c87d 6e3d
00000330: 1822 66ba 1d0a bd3d b040 dd3a 520a d0bd
00000340: 9a0a ba3c c0ba a13d bdbf f1bd 7fb1 99bd
00000350: 708a 043c c089 f03b b3ac a33d f9e9 bdbb
00000360: ceba 84b8 7a2f 303e d8fe 5b3e 524b 393e
00000370: 3875 7b38 aa21 313c 0dc5 353e 509c b93d
00000380: 33c0 8e3b 9a57 d33c b81a 0e3e 8917 363e
00000390: e984 7d3d 17df e938 5eda 27bd c5a1 813d
000003a0: f8d9 5e3a 9766 d53d cf94 0b3c 0453 7e3a
000003b0: 4852 523b 7aed 183c 347f 6c3e c20c f03d
000003c0: 4ecb 98b9 1138 0f3e 6e50 d43d 6fd9 1b3d
000003d0: b94c 7d3e 5f1c 37be f3b5 83bd efcb a93c
000003e0: 6f15 4e3e 3538 2cbe 01b2 ce3b c05b 093a
000003f0: 2a74 783e 3de0 96bc 9da7 403e 847d 4abd

gats.1.att f4 [1, 5, 67]
-8.946289e-06 -1.11762276e-07 -3.122901e-07 -7.741721e-09 1.5680157e-06 3.7293998e-07 1.9738854e-05 -2.0496991e-05
2.7759183e-06 3.7666027e-07 1.2349903e-06 -7.513056e-06 -1.5228968e-06 3.2257533e-06 -4.3932988e-07 -8.255755e-06
3.3061497e-07 -3.86755e-07 -3.6334325e-07 2.9311652e-06 -5.4956394e-07 6.154938e-07 5.978554e-06 5.480784e-05
3.7673242e-06 0.00010758182 -8.265097e-06 2.8758477e-06 5.510352e-07 1.3620933e-05 2.332586e-08 1.1861402e-07
-2.5306804e-07 -1.0605677e-06 -1.2909212e-05 1.7523224e-05 2.6499824e-06 9.637312e-07 2.6111362e-08 1.3782387e-07
2.2961314e-05 3.396722e-05 7.559997e-05 -7.0186597e-06 -3.664585e-06 2.9198955e-05 -3.9053443e-06 7.7903984e-05
-4.9934516e-07 1.9971578e-06 -2.0655624e-10 -8.9090025e-07 2.32489e-07 2.3449361e-07 5.2533218e-05 1.7066568e-05
1.342612e-06 4.576208e-07 -1.6496743e-07 4.3588887e-05 0.00012800943 5.315119e-05 -1.6195853e-06 3.245048e-08
-2.7028278e-07 -3.1481378e-07 5.480787e-07 -8.955454e-06 -1.1194544e-07 -3.1731372e-07 -7.683877e-09 1.5683405e-06
3.7380804e-07 1.9760919e-05 -2.0418713e-05 2.7784577e-06 3.7693894e-07 1.237358e-06 -7.5590365e-06 -1.5244784e-06
3.2376024e-06 -4.3909571e-07 -8.275283e-06 3.3155197e-07 -3.856733e-07 -3.63135e-07 2.9328576e-06 -5.4842747e-07
6.1556045e-07 5.975112e-06 5.4730343e-05 3.7707737e-06 0.00010522732 -7.5554794e-06 2.887623e-06 5.5410214e-07
1.3560805e-05 2.3318174e-08 1.2454771e-07 -2.5381775e-07 -1.0605999e-06 -1.2834945e-05 1.7771687e-05 2.6476685e-06
9.64074e-07 2.4513612e-08 1.3914526e-07 2.29579e-05 3.398175e-05 7.5640615e-05 -6.999319e-06 -3.567388e-06
2.9221355e-05 -3.9072606e-06 7.783619e-05 -4.933389e-07 1.9737743e-06 -3.4420833e-10 -8.919376e-07 2.3335775e-07
2.3367924e-07 5.2349227e-05 1.7068329e-05 1.3448451e-06 4.5736635e-07 -1.653867e-07 4.3580527e-05 0.00012844201
5.3153966e-05 -1.6159371e-06 3.3228588e-08 -2.7274118e-07 -3.1472914e-07 5.495283e-07 -8.952515e-06 -1.0889401e-07
-3.3622965e-07 -7.6224005e-09 1.5696002e-06 3.7435677e-07 1.9727666e-05 -2.070549e-05 2.7735387e-06 3.7606088e-07
1.2344781e-06 -7.2151834e-06 -1.5231761e-06 3.2318953e-06 -4.3964317e-07 -8.2626275e-06 3.3055008e-07 -3.861417e-07
-3.5945874e-07 2.9344437e-06 -5.474855e-07 6.1843656e-07 5.9538356e-06 5.4644548e-05 3.7772945e-06 0.00010648694
-7.61875e-06 2.8740917e-06 5.806638e-07 1.4453168e-05 2.3548118e-08 1.2465566e-07 -2.5087868e-07 -1.0587923e-06
-1.1939774e-05 1.7773451e-05 2.6462835e-06 9.642785e-07 2.4189966e-08 1.3725834e-07 2.2960501e-05 3.3993314e-05
7.564654e-05 -7.0186106e-06 -3.5910032e-06 2.9198854e-05 -3.906578e-06 7.781672e-05 -4.971838e-07 1.9253068e-06
5.658771e-11 -8.9100075e-07 2.3262473e-07 2.3434097e-07 5.2522613e-05 1.7067034e-05 1.3430614e-06 4.543284e-07
-1.651236e-07 4.3506883e-05 0.00012763197 5.3151514e-05 -1.6159355e-06 3.4467575e-08 -2.7476537e-07 -3.1488727e-07
5.573047e-07 -8.950687e-06 -1.1031158e-07 -3.3480057e-07 -7.4736e-09 1.5687959e-06 3.7353917e-07 1.9814737e-05
-2.0504518e-05 2.77687e-06 3.8306797e-07 1.2414012e-06 -7.2795956e-06 -1.522874e-06 3.2324313e-06 -4.3903398e-07
-8.2519055e-06 3.2944203e-07 -3.8636355e-07 -3.6387593e-07 2.9314342e-06 -5.475054e-07 6.1863716e-07 5.96403e-06
5.4751417e-05 3.7723698e-06 0.00010539743 -7.4147592e-06 2.8918516e-06 5.795061e-07 1.4282715e-05 2.3621595e-08
1.2282926e-07 -2.5388385e-07 -1.0590405e-06 -1.198802e-05 1.7870125e-05 2.6470818e-06 9.631938e-07 2.5450781e-08
1.3778563e-07 2.2980157e-05 3.397308e-05 7.56044e-05 -6.9831985e-06 -3.501579e-06 2.9193576e-05 -3.9104966e-06
7.780109e-05 -5.01475e-07 1.9167485e-06 2.0744912e-09 -8.9036627e-07 2.3240219e-07 2.349229e-07 5.2401323e-05
00000000: 0518 16b7 f601 f0b3 d3a8 a7b4 7300 05b2
00000010: 9c74 d235 7b38 c834 de94 a537 f4f0 abb7
00000020: ea49 3a36 cb37 ca34 f2c1 a535 a918 fcb6
00000030: 5666 ccb5 057a 5836 0add ebb4 3382 0ab7
00000040: 607f b134 34a3 cfb4 8411 c3b4 09b5 4436
00000050: bf85 13b5 6938 2535 639b c836 78e1 6538
00000060: 23d2 7c36 8d9d e138 52aa 0ab7 b0fe 4036
00000070: daea 1335 7685 6437 1c5e c832 bfb8 fe33
00000080: 68dd 87b4 d458 8eb5 a594 58b7 d6fe 9237
00000090: 5ad6 3136 8d59 8135 7e4b e032 bdfc 1334
000000a0: 0c9d c037 0678 0e38 6d8b 9e38 d481 ebb6
000000b0: 17ed 75b6 47f0 f437 a70a 83b6 6260 a338
000000c0: bd0a 06b5 e906 0636 6a1c 63af 3326 6fb5
000000d0: 17a2 7934 1dc9 7b34 1d57 5c38 2d2a 8f37
000000e0: cc33 b435 edae f534 e721 31b4 36d3 3638
000000f0: 453a 0639 a8ee 5e38 8760 d9b5 ae5f 0b33
00000100: 621b 91b4 ad03 a9b4 ae1f 1335 623f 16b7
00000110: a866 f0b3 445b aab4 0c02 04b2 c57f d235
00000120: c9af c834 40c4 a537 da48 abb7 8a75 3a36
00000130: 185e ca34 4c13 a635 a1a3 fdb6 ae9c ccb5
00000140: 9645 5936 dbbc ebb4 12d6 0ab7 2800 b234
00000150: 890e cfb4 e5f4 c2b4 1cd2 4436 a637 13b5
00000160: fe3c 2535 d27d c836 428e 6538 660d 7d36
00000170: 7dad dc38 1385 fdb6 fcc8 4136 9cbd 1435
00000180: 3783 6337 354d c832 6abb 0534 7244 88b4
00000190: ef59 8eb5 ab55 57b7 6814 9537 99ae 3136
000001a0: 5565 8135 0192 d232 f567 1534 b795 c037
000001b0: a087 0e38 3fa1 9e38 b1db eab6 4267 6fb6
000001c0: 6220 f537 1d1b 83b6 fc3b a338 fe6d 04b5
000001d0: 2f75 0436 043b bdaf 7c6d 6fb5 e490 7a34
000001e0: 43e9 7a34 8e91 5b38 f52d 8f37 8780 b435
000001f0: f48b f534 2695 31b4 3cca 3638 64ae 0639
00000200: a3f1 5e38 2de3 d8b5 38b7 0e33 436d 92b4
00000210: 0bf8 a8b4 4c83 1335 c232 16b7 1dd9 e9b3
00000220: 0d83 b4b4 acf3 02b2 0dab d235 34fb c834
00000230: d77c a537 b4b0 adb7 0821 3a36 6ae5 c934
00000240: 58b0 a535 f419 f2b6 ef6f ccb5 8ae3 5836
00000250: 1908 ecb4 b79f 0ab7 7576 b134 e94e cfb4
00000260: a2fb c0b4 5ced 4436 ebf6 12b5 a302 2635
00000270: 0fc7 c736 2332 6538 6d7d 7d36 be51 df38
00000280: 90a4 ffb6 85e0 4036 eade 1b35 e27b 7237
00000290: dc46 ca32 16d9 0534 81b0 86b4 d41b 8eb5
000002a0: f050 48b7 3218 9537 ce96 3136 5b6c 8135
000002b0: 4cca cf32 4961 1334 4d9b c037 0b94 0e38
000002c0: 6da4 9e38 6881 ebb6 f7fc 70b6 10f0 f437
000002d0: 4015 83b6 8931 a338 3676 05b5 8534 0136
000002e0: 19e0 782e 1b2d 6fb5 66c7 7934 289f 7b34
000002f0: ba4b 5c38 2d2b 8f37 3d43 b435 6bea f334
00000300: d44c 31b4 297b 3638 f2d4 0539 01ef 5e38
00000310: 1fe3 d8b5 8009 1433 7783 93b4 c70d a9b4
00000320: b099 1535 e82a 16b7 6fe4 ecb3 a4be b3b4
00000330: 3e65 00b2 6b8f d235 d58a c834 d337 a637
00000340: 1e01 acb7 435a 3a36 76a8 cd34 389e a635
00000350: 4043 f4b6 8d65 ccb5 bfec 5836 5fb4 ebb4
00000360: aa71 0ab7 2bde b034 676d cfb4 ba5a c3b4
00000370: a8b9 4436 49f8 12b5 6c10 2635 a11e c836
00000380: e3a4 6538 d228 7d36 d008 dd38 4ccc f8b6
00000390: a211 4236 5b8f 1b35 cb9f 6f37 70e8 ca32
000003a0: 0de3 0334 884d 88b4 5b24 8eb5 2720 49b7
000003b0: cde7 9537 85a4 3136 1647 8135 dc9e da32
000003c0: 3af2 1334 83c5 c037 517e 0e38 ce8d 9e38
000003d0: 3851 eab6 abfc 6ab6 bae4 f437 e936 83b6
000003e0: 2429 a338 199d 06b5 7da1 0036 d68e 0e31
000003f0: 8101 6fb5 3a8a 7934 1d3f 7c34 7ec9 5b38

gats.1.bias f4 [67]
0.009791409 0.007616669 0.0021762461 0.00021738073 0.0014321593 0.0011223359 0.0034085694 0.020075917
0.0013778126 0.005669659 0.010233395 0.0040777363 0.0046696467 0.005231215 0.0038387247 0.0014959258
0.004603748 0.00059154135 0.0040084436 0.009798057 0.0035186296 0.0034373053 0.009686819 0.0015671445
0.0071211765 0.02298309 0.0059625916 0.002251629 0.002380705 0.0007306113 0.00064828637 0.006474906
0.00171306 0.0026469128 -0.0003039504 0.006511354 0.006950684 0.0019047587 0.0016406099 0.003745865
0.0024531058 0.00075440045 0.011325124 0.0072974497 8.780732e-05 0.0045182384 0.005897793 0.008021278
0.009579817 0.006239068 0.0029173656 0.005451435 0.004246641 0.00376787 0.012610358 -0.00026596567
0.0064983196 0.006442578 0.001093115 0.0033501345 0.011686506 0.0059165754 0.009604793 0.0032458247
0.006872967 0.00202188 0.00032462194
00000000: 256c 203c 4095 f93b 5a9f 0e3b b2f0 6339
00000010: 4bb7 bb3a 581b 933a 4e62 5f3b 4076 a43c
00000020: b897 b43a 8cc8 b93b f8a9 273c 889e 853b
00000030: d603 993b 9d6a ab3b 1d93 7b3b f112 c43a
00000040: 0adb 963b ab11 1b3a 4359 833b 0888 203c
00000050: cf98 663b 6a44 613b 77b5 1e3c a568 cd3a
00000060: c258 e93b 0847 bc3c d861 c33b 1190 133b
00000070: 9a05 1c3b 7f86 3f3a c3f1 293a 732b d43b
00000080: c188 e03a d477 2d3b 885b 9fb9 325d d53b
00000090: 90c2 e33b 19a9 f93a bc09 d73a 307d 753b
000000a0: 49c4 203b f5c2 453a 038d 393c 721f ef3b
000000b0: 3225 b838 bb0d 943b 4642 c13b ae6b 033c
000000c0: aaf4 1c3c 1971 cc3b 4631 3f3b f4a1 b23b
000000d0: 6827 8b3b 5eee 763b ad9b 4e3c 4f71 8bb9
000000e0: dbef d43b 431c d33b da46 8f3a ee8d 5b3b
000000f0: c278 3f3c d5df c13b 6c5d 1d3c e7b7 543b
00000100: a036 e13b 8481 043b 0532 aa39
