inference/BMC/model_checkpoints/BMC_model_2.pt (torch, 503011 bytes, 21 tensors)

gats.0.att f4 [1, 5, 67]
000000 75 8c 4b ba a0 ee ae b8 82 68 06 b8 a3 c2 15 3e
       -0.0007764765 -8.341414e-05 -3.204542e-05 0.1462503
000010 8a 2b b2 38 ec 9d d7 3e 10 34 6d 3a 43 cd 98 3d
       8.495811e-05 0.42112672 0.00090485904 0.074610256
000020 ca 45 a0 3e c6 8b 05 3c 8d 4b 80 b9 ec 18 99 3c
       0.31303245 0.008151 -0.00024470352 0.018688641
000030 a9 85 28 b8 a4 10 35 bf 76 02 ec 3e 03 3b ab 3e
       -4.0178802e-05 -0.70728517 0.46095628 0.3344346
000040 7f 8c ea bc de 39 95 b7 df 08 bc 37 2b f9 87 3f
       -0.028631447 -1.778913e-05 2.2415477e-05 1.0622915
000050 6d 67 57 bf 1c 95 71 3b 3b a6 ec 3e fe 9d fb 3e
       -0.8414219 0.0036862558 0.46220574 0.49143976
000060 f3 18 15 3e 54 02 13 3f a9 7d 3c 3b f7 40 1b bf
       0.14560299 0.5742543 0.0028761423 -0.60646003
000070 87 ab 49 bf 4c 56 98 3d 0b 07 a7 bf 57 1a ea 3e
       -0.78777355 0.07438335 -1.3049024 0.4572322
000080 4c e8 23 3f f6 a8 f0 be 8d a0 89 ba 68 03 15 ba
       0.6402633 -0.47003907 -0.0010500118 -0.00056844065
000090 ca 14 ce 3d 37 ea e1 3b 57 f4 81 3f 3f cd 66 bc
       0.10062559 0.0068943757 1.0152692 -0.01408702
0000a0 7e 0e 98 3f 72 a2 90 3d 96 68 59 bb 23 91 ed 3d
       1.1879423 0.07062234 -0.003317391 0.11599948
0000b0 fe d9 f8 3c 52 f2 50 39 a2 8c fe bb 90 7a 96 3e
       0.030377384 0.00019926697 -0.0077682296 0.29390383
0000c0 06 de 4d b7 3e 87 c2 3c f8 a5 87 bc d4 cf 2a 3e
       -1.2270646e-05 0.02374613 -0.016558632 0.16680843
0000d0 50 75 0f 38 73 01 32 3e b2 9c 8b bb 20 29 8e be
       3.4203113e-05 0.17383365 -0.004260623 -0.2776575
0000e0 7d 0b af b8 fb 4a 26 b5 0f 36 ab 3e 09 4e 1c b9
       -8.34679e-05 -6.194893e-07 0.3343968 -0.0001490639
0000f0 44 8c d8 3d 47 e3 56 3f 54 4d 70 3e d5 89 e4 3b
       0.105736285 0.8394055 0.23466998 0.0069744387
000100 b2 3a c3 3b a9 cc 07 3f 5d fe 68 bf 37 df 27 be
       0.0059579248 0.5304666 -0.9101313 -0.16393743
000110 29 17 48 bb ba a7 89 b8 a8 ab 22 bf 30 21 1d 3e
       -0.0030531383 -6.5639106e-05 -0.63543177 0.15344691
000120 9b c0 d0 3c 7b 69 99 3b 2d ea 41 bf 7d 35 f0 b9
       0.025482466 0.0046817637 -0.7574795 -0.0004581622
000130 c2 a1 16 3d 2f 6b 19 39 bf 68 fd 3d f2 c3 9c b8
       0.036775358 0.00014631146 0.12373494 -7.475157e-05
000140 23 11 bc 3c 83 48 3c 3e dd a4 86 3c 41 68 a0 3b
       0.02295739 0.18387036 0.016436035 0.0048952405
000150 83 23 8b b9 87 5d 08 b7 12 7a 4c 3b 77 6c 3b 3f
       -0.00026538604 -8.128008e-06 0.003120069 0.7321238
000160 32 bd 85 3f f1 a2 fc 3e 73 52 15 3f b4 28 91 be
       1.0448363 0.49343064 0.5832893 -0.28351367
000170 a5 c4 c6 be 53 ba a2 3b ca 26 2d 3f 78 9b 33 bf
       -0.38821903 0.0049660592 0.6763731 -0.701591
000180 32 68 f8 3e d3 b0 64 3e 94 24 a3 3d 50 bd ac 3c
       0.48516995 0.22333078 0.07965961 0.021086365
000190 17 e9 c2 3e 19 94 80 3a 4d 40 de 3c 7c cd 85 3b
       0.38068458 0.0009809762 0.02713027 0.0040833335
0001a0 72 ab 67 3c 8a 56 14 bf ac a3 22 3e e5 3d 8a bc
       0.014139997 -0.5794455 0.15882748 -0.016875217
0001b0 59 97 0b bf 67 69 89 bb 0f f7 08 3f 4a 50 44 3c
       -0.54527813 -0.004193473 0.5350198 0.011982033
0001c0 3d d4 27 3a f9 8e 17 3f 4f df 8a 3d 4b de 33 b8
       0.00064021704 0.59202534 0.06780874 -4.2883952e-05
0001d0 55 9e f3 3e ea da e5 39 2b 7c 4b 3c 7d 4d 5c b9
       0.47581735 0.00043841387 0.012419741 -0.00021009702
0001e0 b4 b0 d1 3c 13 ea d8 bb 84 d5 53 3f 2d f2 01 b9
       0.025596954 -0.0066197007 0.82747674 -0.00012392616
0001f0 15 64 b5 39 8b 1f a7 3b 19 2f 20 b8 fd 3e 6b 3e
       0.00034597577 0.0051001958 -3.8190836e-05 0.22973247
000200 af 6b 1b bf 6b 4a 2a 3d 08 71 9e bd 01 9f 04 3f
       -0.6071119 0.041574877 -0.07736403 0.5180512
000210 48 e8 90 3e 6e 2b ab 3f 8d 81 71 bc cf f9 3e 39
       0.28302217 1.3372629 -0.01474036 0.00018212873
000220 72 af 24 38 94 b9 6a 3c f5 37 22 bd f1 18 03 3c
       3.9264043e-05 0.014326472 -0.039604146 0.008001552
000230 8a 6b 38 be 98 d9 02 bc 7c 59 13 3f 09 13 91 3b
       -0.18009773 -0.007986449 0.5755842 0.004427318
000240 e3 42 95 b9 7a 4c 2a bd c2 d6 23 b7 8f eb d5 3e
       -0.0002846933 -0.04157684 -9.765559e-06 0.4178128
000250 3e a5 33 3e 6d eb 55 3f e4 f6 9d bb 3f 20 93 38
       0.17543504 0.83562356 -0.0048206914 7.0155125e-05
000260 db ec db b7 50 33 f7 ba 7f 52 89 3d f4 e9 04 3b
       -2.6217129e-05 -0.0018859897 0.06705188 0.0020281048
000270 43 a7 9f 3e 24 e6 45 3d 6a 9c 50 bc 54 ee 9c be
       0.31182298 0.048315182 -0.0127326045 -0.3065058
000280 a1 1c c5 3b e7 9d 5a bf a9 6e 63 bf d8 1a 95 3c
       0.0060153757 -0.8539719 -0.8884073 0.018201277
000290 ca 60 e6 3e c1 d2 f3 3c 51 75 04 bf fe bc c5 3d
       0.4499572 0.029763581 -0.5174151 0.09655188
0002a0 3a f7 d7 3e 9d 16 29 3c 9f 7b 97 3c 4a e2 80 bc
       0.42180806 0.010320333 0.018491564 -0.015732903
0002b0 cf 15 77 3e af 98 e4 3d 07 9c ef 3c f6 9f 88 3f
       0.24129413 0.111619346 0.029249204 1.0673816
0002c0 dd 1b a7 bd 9f 6c 02 3e 61 6b 06 3d 3f 85 6d 38
       -0.081596114 0.12736748 0.03281725 5.66293e-05
0002d0 6d b8 1a 3d c8 45 89 3e cb 8e 74 b9 be a4 a3 3c
       0.03777354 0.2681105 -0.00023322848 0.019976016
0002e0 1e 48 51 3f d2 4d 11 3c 45 58 98 37 8e 2d 0f 3e
       0.8175067 0.008868651 1.8160916e-05 0.13982221
0002f0 b0 5a 1a bf 89 d3 69 bc a5 49 c1 b8 f9 f6 ba 38
       -0.6029463 -0.014271625 -9.2166745e-05 8.9151734e-05
000300 e1 58 31 3f d1 6d f9 b8 0a f1 2c 3f 13 f0 4e 3f
       0.69276243 -0.000118937 0.67555296 0.80835074
000310 44 db ef 3a 2d 4f 68 3e b4 28 70 3d be 53 82 3f
       0.0018299599 0.22686453 0.058632568 1.0181806
000320 3b b7 ca 3c 5a 3c a2 be bb 03 2e 3a da 66 15 38
       0.024745574 -0.3168667 0.0006638129 3.5620156e-05
000330 db 0f b0 3e fe f2 4b 3f fb b3 60 be b7 61 eb bc
       0.34387097 0.7966765 -0.21943657 -0.028733118
000340 97 b1 d5 3e 00 73 44 3d 84 29 9e 3d 26 9e 83 b9
       0.41737053 0.047961235 0.07722762 -0.00025104097
000350 8e a6 f6 3e 93 f2 3f 39 3e 9c 99 3d 60 c1 28 bf
       0.48173946 0.00018305545 0.07500504 -0.65920067
000360 3d 09 07 3e 27 7a 0e 3c 19 fe 75 37 01 8f 5c 37
       0.13187118 0.008696116 1.46623e-05 1.31463175e-05
000370 6f 7f 73 3f 2d 71 32 bf bb ef a5 be 97 37 27 3f
       0.95116323 -0.6970394 -0.32409462 0.653192
000380 36 db 1b 3d 66 5e 08 bc b6 6b 4d be 0f d7 b8 39
       0.038050853 -0.008323288 -0.2006062 0.00035255446
000390 25 8a f6 3e c5 7b 9f bf 25 cc 8b 3e 6f 3e 55 3f
       0.4815227 -1.2459646 0.27304187 0.8329839
0003a0 a9 74 6b 3e f8 49 2d 3d 77 57 e3 3e e9 8b ab b9
       0.22993721 0.04230687 0.44402668 -0.00032719903
0003b0 fc 70 1c 3d 02 9a de 3e 9f b9 f8 be be 71 09 bf
       0.038193688 0.43476874 -0.48579118 -0.5368918
0003c0 9f 61 e5 3d 1c 04 a3 bf 98 4a c1 3d f6 34 5f 3f
       0.1120026 -1.2735629 0.09438056 0.87190187
0003d0 eb 6d 09 3e da d2 02 3d 92 95 46 39 8b e3 25 3e
       0.13420837 0.031939365 0.00018938471 0.16200082
0003e0 07 8c f7 bb 10 23 59 39 94 47 40 3d 39 dc b9 3c
       -0.0075545344 0.00020707794 0.046943262 0.022688018
0003f0 e8 73 5a 3c fc ca b8 38 26 19 16 3e a0 74 35 3e
       0.013333298 8.8116125e-05 0.14658031 0.1772027

gats.0.bias f4 [67]
000000 08 53 65 3c 39 f3 cb 39 12 87 49 3b c6 c5 80 ba
       0.013996847 0.00038900392 0.0030750674 -0.0009824566
000010 ec 79 df bd 1c 48 cd bc fb df 9f 3c 2a 0b 90 3c
       -0.109119266 -0.025058798 0.019515982 0.017583448
000020 e8 90 c6 bc 3b e0 fd bc 39 34 40 3b 8b fa d2 bd
       -0.024239019 -0.03099071 0.0029328002 -0.103016935
000030 47 64 09 3a 78 63 5c bd 9a 7e e1 bc f4 5f bf bd
       0.0005241078 -0.0538058 -0.027526189 -0.093444735
000040 f2 37 5f bd 69 91 22 3a 69 a5 64 3b ee 8c ec bd
       -0.054496713 0.00062014774 0.0034888631 -0.11550318
000050 a8 75 d0 bd ad 75 2a 3d 3b c1 a1 bd d6 e5 95 bd
       -0.10178691 0.04161613 -0.07898184 -0.07319228
000060 7b ea a8 bc e7 8e 18 bc 76 43 9e ba d3 80 be bd
       -0.020619622 -0.009311414 -0.0012074548 -0.09301915
000070 ff 95 21 3d 88 b2 f9 bd cd 68 53 bd 16 14 7e bd
       0.039449688 -0.12192255 -0.051613618 -0.062030874
000080 c9 f9 47 bd d7 4e 22 bd 2c 17 31 bd b8 93 79 bd
       -0.048822198 -0.03962597 -0.04323499 -0.06093189
000090 41 ce 93 bd 31 1d c2 3b 84 37 a8 bd 25 75 af bd
       -0.07217074 0.00592389 -0.08213714 -0.085672654
0000a0 5d c5 c8 bd 6b 64 37 bd f9 05 83 bd 3e ff 0e 3d
       -0.09803269 -0.0447735 -0.063976236 0.034911387
0000b0 2d ed 04 bd 83 61 88 3a 3b ea f9 bd 4a 44 2a 3c
       -0.03245275 0.0010405037 -0.12202879 0.010392258
0000c0 76 bd 01 3b e1 d4 94 bd eb 9d 8a bd 89 8e a5 bd
       0.0019796765 -0.07267166 -0.06768402 -0.08083827
0000d0 0e 2f f0 3a 84 01 84 bd 3c 58 08 bd 87 56 86 bd
       0.001832457 -0.064456016 -0.03328727 -0.065594725
0000e0 3c 27 a4 3a a8 42 d1 3a 7f 6f 32 3b ea 47 06 3b
       0.00125239 0.00159653 0.0027227101 0.0020489641
0000f0 20 3b 89 bd 5f cd 16 bd d6 1b 82 bd 21 69 0d bd
       -0.0670073 -0.03681695 -0.063529655 -0.034524087
000100 fc a0 c3 bd b3 a6 f4 3a de df ae bd
       -0.0955219 0.0018665403 -0.08538793

gats.0.lin_l.weight f4 [335, 67]
000000 46 4f 00 00 d7 34 00 00 6c 1e cc bc 79 a6 00 00
       2.8438e-41 1.8955e-41 -0.02491685 5.9719e-41
000010 03 1a 66 bb 0e 36 00 00 1d 44 00 80 51 a8 2e bd
       -0.003511072 1.9391e-41 -2.4434e-41 -0.042640988
000020 d0 0d 00 00 a9 0f 00 00 fb 0d 00 80 a0 16 00 80
       4.955e-42 5.618e-42 -5.015e-42 -8.116e-42
000030 2e 31 00 00 be 3f 00 00 f2 5b 00 00 99 31 00 00
       1.7642e-41 2.2866e-41 3.2984e-41 1.7792e-41
000040 8a 5b 00 00 07 4d 00 80 91 69 1c bd 41 87 f5 3e
       3.2838e-41 -2.7632e-41 -0.038186613 0.47954753
000050 8e 3e 00 80 fe 43 93 bc 20 d0 85 bc cc a9 9a bc
       -2.244e-41 -0.017976757 -0.016334593 -0.018879794
000060 b6 37 00 80 59 3c 00 80 8e 6a dc 3b 8a 11 15 bd
       -1.9985e-41 -2.1649e-41 0.0067265695 -0.03639368
000070 12 d6 92 bc 8b 6e 00 80 bd 2c 00 00 e3 a3 b2 bc
       -0.017924342 -3.9655e-41 1.6049e-41 -0.021806663
000080 56 1f 00 00 b9 4e c9 3e c1 3c 2a bc da e3 37 bc
       1.1241e-41 0.39317873 -0.010390461 -0.011223758
000090 65 4f 09 b9 83 f3 2e b9 d0 4a 00 80 51 11 00 00
       -0.00013094915 -0.00016684648 -2.6838e-41 6.212e-42
0000a0 46 7b 00 80 b7 45 00 80 d7 2b 30 3c 65 2f 00 80
       -4.4222e-41 -2.5009e-41 0.01075264 -1.7002e-41
0000b0 ef 32 00 80 ff 4e 00 80 f7 3e 00 80 cd 0e 00 00
       -1.8272e-41 -2.8338e-41 -2.2588e-41 5.31e-42
0000c0 68 00 00 80 99 37 00 80 26 20 00 80 9b 3c 00 00
       -1.46e-43 -1.9945e-41 -1.1533e-41 2.1741e-41
0000d0 35 41 00 00 38 39 00 80 34 38 00 00 64 36 00 80
       2.3392e-41 -2.0526e-41 2.0162e-41 -1.9512e-41
0000e0 08 61 00 00 68 0c 00 00 bf 11 00 00 6f a1 dc 39
       3.4808e-41 4.45e-42 6.366e-42 0.00042081947
0000f0 01 41 76 39 b2 5b 00 00 c5 59 00 00 9b 78 00 00
       0.00023484604 3.2894e-41 3.2203e-41 4.3265e-41
000100 ab 39 00 00 80 3a 00 80 f4 8d 02 bb 36 5a 00 00
       2.0687e-41 -2.0986e-41 -0.0019921036 3.2362e-41
000110 77 1b 00 00 eb 14 83 b7 6e 32 00 00 ad 4e a5 38
       9.853e-42 -1.5626158e-05 1.8091e-41 7.8824676e-05
000120 43 44 00 00 de 0f 00 80 ac eb 1f 37 c0 0e 00 00
       2.4488e-41 -5.692e-42 9.53201e-06 5.291e-42
000130 eb 19 00 00 c1 af 00 00 a5 30 00 80 05 02 00 80
       9.298e-42 6.3049e-41 -1.745e-41 -7.24e-43
000140 15 45 00 80 25 2f 00 00 c2 5e 00 80 42 67 00 80
       -2.4782e-41 1.6912e-41 -3.3993e-41 -3.7042e-41
000150 1b 49 00 80 69 9b f0 b7 67 f4 d7 3a d9 5a 00 00
       -2.6225e-41 -2.8682598e-05 0.0016476036 3.259e-41
000160 0a 53 5b b8 aa d2 64 b8 7b 8e 26 b8 24 31 00 80
       -5.2291005e-05 -5.4555632e-05 -3.971018e-05 -1.7628e-41
000170 0c 22 00 00 81 35 e1 37 2c 8d 2c b7 b4 05 61 36
       1.2214e-41 2.6847005e-05 -1.0284868e-05 3.3530932e-06
000180 d5 39 00 00 f4 6d 00 00 97 cc 48 b5 35 3a 00 00
       2.0746e-41 3.9444e-41 -7.4803523e-07 2.0881e-41
000190 8f 9c 7b b8 ca 8f a0 37 5f 26 56 b7 56 49 ab 17
       -5.998887e-05 1.9140443e-05 -1.2764328e-05 1.1069129e-24
0001a0 7d 95 00 80 3d 27 00 00 d8 8b 00 80 59 39 00 80
       -5.3626e-41 1.4076e-41 -5.0166e-41 -2.0572e-41
0001b0 64 47 00 80 22 19 3d 38 d7 3c 00 80 9e 38 00 80
       -2.561e-41 4.508452e-05 -2.1825e-41 -2.031e-41
0001c0 20 32 00 00 d4 40 00 80 e9 1e 00 00 2c 4c 00 00
       1.7981e-41 -2.3256e-41 1.1088e-41 2.7325e-41
0001d0 c2 2e 00 80 16 3a 00 00 fc 9b 00 00 ad 00 00 80
       -1.6774e-41 2.0837e-41 5.5957e-41 -2.42e-43
0001e0 ce 2c 00 00 fa 68 00 80 2a 26 00 00 24 af 00 80
       1.6073e-41 -3.7658e-41 1.369e-41 -6.2829e-41
0001f0 bb 3d 00 00 4b 32 00 00 75 7f 8c b8 65 d2 2b b8
       2.2145e-41 1.8042e-41 -6.699461e-05 -4.0965522e-05
000200 02 34 00 00 9e 7a 00 80 a7 04 00 80 cc 2e 00 00
       1.8657e-41 -4.3987e-41 -1.669e-42 1.6788e-41
000210 e3 35 00 80 1c 3b 12 3b 71 2a 00 00 e5 27 00 80
       -1.9331e-41 0.0022313064 1.5225e-41 -1.4311e-41
000220 21 d5 c9 b6 2d 3b 00 80 bc 48 8c 3a dd 49 00 80
       -6.0150783e-06 -2.1228e-41 0.0010702829 -2.6497e-41
000230 f1 3c 00 80 cc 75 8a b5 e1 1a 00 80 02 32 00 00
       -2.1862e-41 -1.0316085e-06 -9.642e-42 1.794e-41
000240 28 2e 00 80 e2 19 00 80 1c 5c 00 00 c3 4d 00 80
       -1.6558e-41 -9.285e-42 3.3043e-41 -2.7896e-41
000250 24 40 00 80 60 02 00 00 29 11 00 80 45 71 00 00
       -2.301e-41 8.52e-43 -6.156e-42 4.0633e-41
000260 b6 91 1e b9 e2 e6 e4 b8 e5 5f 00 80 ca c2 73 b8
       -0.00015122336 -0.000109148925 -3.44e-41 -5.8117126e-05
000270 78 54 cf b7 ab c1 e4 b8 0f 2f 00 80 9c 3b 00 80
       -2.4715657e-05 -0.00010907961 -1.6881e-41 -2.1384e-41
000280 e3 d6 a1 b8 5a 60 74 38 69 d1 94 37 f6 0f 00 00
       -7.717104e-05 5.8263868e-05 1.7740489e-05 5.726e-42
000290 cb 5e 00 80 f4 44 09 b9 42 02 00 00 b5 32 61 b8
       -3.4005e-41 -0.00013091025 8.1e-43 -5.3691405e-05
0002a0 48 aa 36 39 c4 2a 5d 37 5f a9 a4 2f d2 51 c0 23
       0.00017420307 1.3182584e-05 2.9951772e-10 2.0851334e-17
0002b0 03 41 00 80 67 01 00 00 14 36 00 80 e7 97 00 00
       -2.3322e-41 5.03e-43 -1.94e-41 5.4492e-41
0002c0 8e 93 09 b9 a2 34 00 00 20 5d 00 00 c3 1b 00 00
       -0.00013120307 1.8881e-41 3.3407e-41 9.959e-42
0002d0 82 40 00 00 a9 3a 00 00 46 13 00 00 b6 11 00 80
       2.3141e-41 2.1043e-41 6.914e-42 -6.353e-42
0002e0 4e 38 00 00 fb 6d 00 80 07 37 00 80 32 08 00 00
       2.0198e-41 -3.9454e-41 -1.974e-41 2.94e-42
0002f0 75 33 00 00 f3 3b 00 00 49 25 00 00 f9 79 00 00
       1.846e-41 2.1506e-41 1.3375e-41 4.3756e-41
000300 d9 36 00 00 3f 13 ed 38 ce 94 9b b9 5f 5e 00 00
       1.9676e-41 0.000113046255 -0.00029674772 3.3854e-41
000310 13 13 00 00 38 41 00 00 38 36 00 80 2c 39 00 00
       6.843e-42 2.3396e-41 -1.945e-41 2.051e-41
000320 9a 44 59 39 e4 32 00 80 c4 5f 00 80 12 a9 11 bd
       0.00020720289 -1.8256e-41 -3.4354e-41 -0.03556163
000330 a0 26 00 00 ef 25 84 3a d3 3d 00 80 21 18 00 00
       1.3856e-41 0.0010082106 -2.2178e-41 8.656e-42
000340 52 99 4e bd 01 0f 00 80 26 78 00 80 9c 7c 00 80
       -0.050439186 -5.382e-42 -4.3101e-41 -4.4701e-41
000350 31 5c 00 00 13 58 00 00 e0 89 00 80 ef 6c 00 00
       3.3072e-41 3.1595e-41 -4.946e-41 3.9078e-41
000360 7f 8a 00 80 9b 37 00 00 9b 37 00 80 d0 00 51 bd
       -4.9683e-41 1.9947e-41 -1.9947e-41 -0.051026165
000370 92 4d 43 3e 6a 39 00 80 51 f1 5e bd aa d1 7e bb
       0.1907256 -2.0596e-41 -0.054429356 -0.0038882294
000380 7e a1 5a bd 4a 39 00 00 57 2a 00 80 a1 64 e2 3e
       -0.053376667 2.0551e-41 -1.5189e-41 0.442174
000390 06 1b b6 bd 68 bb c6 3b 97 65 00 80 20 31 00 00
       -0.08891873 0.006064821 -3.6444e-41 1.7623e-41
0003a0 0c 66 c6 bc 1c 3f 00 80 60 4a 3d bc 53 6c 49 3e
       -0.024218582 -2.264e-41 -0.011553377 0.19670229
0003b0 5c fa c3 3e 90 94 dd b9 38 d8 02 b9 40 6d 00 00
       0.38276947 -0.00042263092 -0.00012478314 3.9192e-41
0003c0 1d 10 00 00 5d 40 00 00 b4 01 00 00 1b 8a 7a bc
       5.78e-42 2.3089e-41 6.11e-43 -0.015291716
0003d0 b4 2e 00 00 28 a7 00 80 e7 7d 00 80 eb 16 00 80
       1.6754e-41 -5.9964e-41 -4.5165e-41 -8.221e-42
0003e0 71 6d 00 00 89 18 00 80 56 45 00 00 a7 3a 00 00
       3.926e-41 -8.802e-42 2.4873e-41 2.104e-41
0003f0 0f 7b 00 00 a6 30 00 00 d1 13 00 80 74 31 00 00
       4.4145e-41 1.7452e-41 -7.109e-42 1.774e-41

gats.0.lin_l.bias f4 [335]
000000 19 47 78 3d d4 3e c2 ba eb 17 61 bb ba d0 71 3d
       0.06061468 -0.001481975 -0.0034346532 0.059036948
000010 fd c4 46 bc 7a b1 a3 bd ae c8 27 3d 33 12 6b bd
       -0.012131927 -0.07992835 0.040962867 -0.057390403
000020 9f 1e 54 bc a7 aa 6f bc d1 ef 5c bb 70 d4 38 be
       -0.012946754 -0.014628089 -0.0033712278 -0.18049788
000030 5c b2 6b b9 6d d8 e4 3b 4e aa 25 bc 5e 1f ef bc
       -0.0002247779 0.006983808 -0.010111405 -0.029189762
000040 a8 d7 88 3d 42 35 bf b9 0b 26 91 bb 13 23 54 3e
       0.06681758 -0.0003647004 -0.004429584 0.20716505
000050 9a c3 4d 3d 1b f8 99 bc b7 ca 07 3d f1 ad ce bc
       0.05023537 -0.018795064 0.03315231 -0.025229426
000060 c7 14 f3 bc 8a 7a 85 3d 9e 2e fd bb 60 48 93 bc
       -0.029672993 0.06517513 -0.0077265045 -0.017978847
000070 c5 99 53 3d 4e 10 47 bd 69 83 a7 3d 33 6a bf 3c
       0.051660318 -0.048599534 0.081793614 0.02336607
000080 8c f5 a5 3d cf 2c 78 3c ac 3e bc bc e6 82 2f 3d
       0.08103475 0.015147402 -0.022979103 0.042849444
000090 3e 1f ac bd a0 5c 5e 3d 4c 8a a3 3d 36 55 d3 bd
       -0.084043965 0.054287553 0.079853624 -0.10318987
0000a0 d0 1b 84 3e a1 40 92 bd 3c 91 6c bd 8b 03 91 bc
       0.2580247 -0.07141233 -0.057755694 -0.017701885
0000b0 5d 60 2a bd 60 8c c6 ba 60 1d 8f bd 82 14 cb 3d
       -0.041595805 -0.0015148036 -0.06988025 0.09916021
0000c0 3e 0d 01 bb 4f 61 73 bd db 7d 43 bd 89 28 ab 3d
       -0.001969173 -0.059418973 -0.047727447 0.08357341
0000d0 b7 82 fa ba 5f 4d ef 3c 25 23 e8 ba 27 49 5b 3d
       -0.0019112442 0.029211698 -0.0017710669 0.05353656
0000e0 f1 01 8f ba 64 4a 84 ba 97 22 90 3c 84 ea ed ba
       -0.0010910613 -0.0010092971 0.017594619 -0.0018151556
0000f0 56 e7 19 bd 05 d6 04 3e 91 14 1f bc 7d e3 79 bd
       -0.037574135 0.12972267 -0.009709493 -0.061007965
000100 b1 40 ba bd ec ae 90 bc 4e 1e 96 3d 4a f3 f4 bd
       -0.0909437 -0.017661534 0.07329999 -0.11960466
000110 35 c7 17 bb 9b 6a 3f bb 4c 75 c8 bc ff 09 f6 3c
       -0.0023159508 -0.002920783 -0.024469994 0.030034063
000120 31 5b 07 be 01 c7 f8 bd b8 59 95 bc 38 65 9a 3d
       -0.1321838 -0.12147332 -0.018231258 0.07538837
000130 0f 82 31 bd 58 48 4f bb 30 9f 08 be d8 08 55 b9
       -0.043336924 -0.0031628814 -0.13341975 -0.00020316557
000140 21 d7 7b bc 71 c7 79 3d b7 c3 cd bc 5a 4e d7 bd
       -0.015371115 0.060981218 -0.025117738 -0.10512991
000150 4d 3d d6 b9 8e 0c 88 bb ca df 24 bd 61 03 55 3d
       -0.00040862933 -0.0041518873 -0.040252484 0.052005176
000160 0c ce b1 3d 9a 9f 97 bd d8 3b a9 bc 44 29 3a 3d
       0.086818784 -0.074034885 -0.020658419 0.04544951
000170 4f d3 c1 3c 63 08 e8 bb 79 43 9a 3c e2 13 00 bc
       0.02366033 -0.007081078 0.018831002 -0.00781724
000180 58 a6 ee 3d fb 24 07 bd 00 7b 35 bc d2 1b bc bd
       0.11652821 -0.03299425 -0.011076689 -0.09184994
000190 5d c5 8c bd 6a 96 1f bd 97 f7 20 bd a2 b1 00 be
       -0.068735816 -0.038961805 -0.03929862 -0.12567762
0001a0 56 20 2f bd a0 c8 e5 bc 86 b1 35 bd 98 d2 2b bc
       -0.042755447 -0.028049767 -0.044358753 -0.010487221
0001b0 ea fc 50 3d 09 3c e2 bd bf 4e 5d 3d 32 39 8c bc
       0.051022448 -0.11046607 0.054030176 -0.017117117
0001c0 6d d2 d3 ba 69 27 be 3c bb 3d 2e 3c f6 1f fb ba
       -0.0016160734 0.023212152 0.010634835 -0.0019159305
0001d0 e1 bb 16 3d a6 6c 82 bd e6 d1 da 3c a8 0b e1 ba
       0.03680027 -0.06368379 0.026711415 -0.0017169612
0001e0 55 b8 82 bd 1a e3 41 bc fa 4f 2d 3d 10 34 ae ba
       -0.06382815 -0.01183393 0.0423126 -0.0013290662
0001f0 5f 45 c2 ba 53 34 af bc 72 92 fe ba 63 69 09 be
       -0.00148217 -0.021387255 -0.0019422306 -0.13419108
000200 54 04 40 bd 5f 52 f8 bc ed 53 52 bb 8f c5 88 3d
       -0.046879128 -0.030312715 -0.003209348 0.06678306
000210 1c de e9 3d 91 31 0f 3d 54 de 01 be 06 8d 9f ba
       0.11419317 0.03495938 -0.12682468 -0.0012172766
000220 91 e3 56 bb e2 a4 bd bd 74 1f 95 bc e5 85 1a be
       -0.0032789449 -0.092599645 -0.018203475 -0.15090139
000230 84 c4 11 bd 80 28 6b bd 6b 09 1e bd 57 06 26 bd
       -0.035587803 -0.05741167 -0.0385832 -0.04053339
000240 22 b3 61 bb 82 50 d7 bd f8 6c 52 b9 2e c8 03 3e
       -0.0034439047 -0.105134025 -0.00020067755 0.12869331
000250 5b 56 ad bb 8d 30 8f 3d 60 81 33 bd 61 af b6 b9
       -0.0052898354 0.06991682 -0.043824553 -0.00034844413
000260 46 26 8b bb 32 36 42 bd 3f cc b9 bd c3 4a 6b bc
       -0.004246506 -0.047414966 -0.0907216 -0.014361086
000270 ef 1c 1a bb 4e e2 cb bd 1c a9 7b 3d aa cf e8 bc
       -0.002351578 -0.099552736 0.061440572 -0.028419334
000280 80 fa e3 bb d6 6d 37 bc 91 f5 b4 3c f1 0d 75 bd
       -0.006957352 -0.0111956205 0.022089751 -0.05982775
000290 8c b0 58 bb 57 14 1b be a8 a4 a1 bd f2 f2 25 bc
       -0.0033064215 -0.15144478 -0.07892734 -0.010128723
0002a0 04 32 79 3e 78 30 9d bd 1b 7e 9c bd 80 f9 ea bd
       0.24335486 -0.0767526 -0.0764124 -0.114733696
0002b0 04 8d a8 3d a5 13 60 3d f6 c9 81 ba dc d0 40 3e
       0.082300216 0.054706234 -0.0009902108 0.18829674
0002c0 34 dc 04 be cf 3c a7 bd 55 fe c5 3c 80 a6 c6 ba
       -0.12974626 -0.08165895 0.024169127 -0.0015155822
0002d0 21 37 dc bb 93 ee 2a 3c f3 7c f8 ba 09 35 d7 bd
       -0.006720439 0.010432857 -0.0018958136 -0.105081625
0002e0 3b 03 4c 3e 10 9d 8f bc cc c5 dd ba 64 4e a2 3d
       0.19923107 -0.017530948 -0.001691991 0.07925108
0002f0 5d d4 1d be 98 38 15 be 7f 17 98 ba 5a 37 94 ba
       -0.15413041 -0.1457237 -0.0011603682 -0.0011308
000300 58 32 3b 3d 2e fa de ba 5b 51 5e 3d 5b 19 04 3e
       0.04570231 -0.0017011815 0.054276805 0.12900297
000310 db a7 01 bd 78 72 01 3d fc 50 4a bd ee 87 2e 3e
       -0.03165422 0.031603307 -0.04939364 0.1704404
000320 fd 49 6a bd e5 be dd bc c7 7d bd ba 15 75 53 bb
       -0.057199467 -0.027068565 -0.001445704 -0.0032265831
000330 2b cc e9 3d 26 60 d2 3c 40 17 4e bd 94 9c b6 bd
       0.11415895 0.025680613 -0.05031514 -0.08916584
000340 76 4a f3 3d aa 11 57 3d ee 6d aa ba 75 a7 66 bb
       0.11879437 0.05250708 -0.0013002732 -0.0035195027
000350 21 d4 db 3c 88 a4 8c b9 b8 2b 6e bc da fd 37 3d
       0.02683455 -0.00026825466 -0.014536791 0.044919826
000360 af 88 66 bd 4c 1e 55 bd 5f 7e a6 b9 b1 1c 9d bb
       -0.056282695 -0.052030846 -0.0003175614 -0.00479468
000370 6c f2 03 3f 0c a8 bb bd cd 75 0a be 08 e5 d8 bc
       0.5154178 -0.09162912 -0.135215 -0.026476398
000380 a7 41 5c bd 3d 6c b5 bd dd 00 ae bd a7 29 0e bc
       -0.05377355 -0.088585354 -0.084962584 -0.008676923
000390 10 ec 62 bc 2f ea 10 bc 0c 83 01 3d 37 0c 61 3d
       -0.013850227 -0.008844896 0.031619117 0.05494329
0003a0 39 02 b3 bd 43 a6 0c be 44 3d 33 bd 00 dd aa bc
       -0.08740658 -0.13735299 -0.0437596 -0.020857334
0003b0 06 ec b0 3c aa f5 09 3e af c1 56 bd 9f ff da bd
       0.02159692 0.1347262 -0.052430805 -0.10693287
0003c0 ff a3 6e 3d 5f 91 dd bd ff e1 c3 3a 28 d5 f1 3e
       0.058261868 -0.10818743 0.0014944671 0.47232938
0003d0 67 d9 84 bd 01 f6 a0 3d 67 df cf ba e2 54 f5 bd
       -0.06486779 0.078594215 -0.0015859426 -0.11979081
0003e0 39 ab af 3d 76 cb 01 bb 01 f5 c4 bd f0 bd dd bd
       0.0857758 -0.001980511 -0.09617043 -0.10827243
0003f0 87 a9 b2 3d ac 7f f4 ba 68 88 0d bd 42 f6 39 3e
       0.08723741 -0.0018653772 -0.034553915 0.18160346

gats.0.lin_r.weight f4 [335, 67]
000000 d3 16 00 80 a6 40 00 00 bd f9 a5 38 0b 38 00 00
       -8.188e-42 2.3191e-41 7.9143305e-05 2.0104e-41
000010 08 df 4e 35 37 61 00 80 6c 23 00 00 f7 47 00 00
       7.7065533e-07 -3.4874e-41 1.2707e-41 2.5816e-41
000020 7d 7e 00 80 44 2b 00 80 77 34 00 00 41 2f 00 00
       -4.5375e-41 -1.5521e-41 1.8821e-41 1.6952e-41
000030 6b 59 00 80 09 3d 00 00 67 40 00 80 9b 20 00 00
       -3.2077e-41 2.1895e-41 -2.3103e-41 1.1697e-41
000040 c6 03 00 80 95 2a 00 80 0b 5a 17 ba 47 b1 34 b9
       -1.354e-42 -1.5276e-41 -0.00057736103 -0.00017232179
000050 7c 57 00 00 5b 60 00 80 26 a3 cc 39 af 2a 86 b9
       3.1383e-41 -3.4566e-41 0.00039031467 -0.00025590273
000060 61 5d 00 00 0e 4c 00 80 6f d8 a5 b9 5c e4 9a 39
       3.3498e-41 -2.7283e-41 -0.00031632508 0.0002954331
000070 d3 6e cb b7 67 59 00 00 a2 31 00 80 37 e1 1c 39
       -2.4251092e-05 3.2072e-41 -1.7805e-41 0.00014961218
000080 c9 00 00 80 e1 dc 4e b8 d9 16 8b 38 d7 f8 c2 38
       -2.82e-43 -4.9319937e-05 6.632292e-05 9.296991e-05
000090 ad e8 12 9f 48 3c 5e 9c bf 6b 00 80 a8 24 00 80
       -3.1109167e-20 -7.353155e-22 -3.8652e-41 -1.315e-41
0000a0 54 71 00 80 b8 76 00 80 25 3b b1 b9 63 29 00 80
       -4.0654e-41 -4.2588e-41 -0.00033804137 -1.4847e-41
0000b0 14 7b 00 80 a2 2d 00 00 f9 6c 00 80 00 85 00 80
       -4.4152e-41 1.637e-41 -3.9092e-41 -4.7711e-41
0000c0 2b 35 00 80 85 4f 00 80 2f 3e 00 00 9b 34 00 00
       -1.9073e-41 -2.8526e-41 2.2307e-41 1.8871e-41
0000d0 7e 69 00 80 3c 02 00 80 2f 4e 00 80 de 51 00 80
       -3.7843e-41 -8.02e-43 -2.8047e-41 -2.9368e-41
0000e0 1e 1e 00 80 96 28 00 80 fd 4c 00 00 88 86 0f b8
       -1.0804e-41 -1.456e-41 2.7618e-41 -3.421915e-05
0000f0 81 b3 62 b8 6c 3e 00 00 7d 3d 00 80 c4 37 00 80
       -5.4049775e-05 2.2393e-41 -2.2058e-41 -2.0005e-41
000100 d0 2f 00 80 fd 0d 00 80 70 ad c8 38 87 1b 00 80
       -1.7152e-41 -5.018e-42 9.5690484e-05 -9.875e-42
000110 4f 38 00 80 94 d2 42 38 10 ac 00 80 36 22 00 80
       -2.02e-41 4.644932e-05 -6.1724e-41 -1.2273e-41
000120 57 11 00 80 9b 5a 00 80 fb 7b 00 00 e5 39 00 80
       -6.22e-42 -3.2503e-41 4.4476e-41 -2.0769e-41
000130 1a 38 00 00 ac 30 00 00 1e 12 00 00 bc 25 00 00
       2.0125e-41 1.746e-41 6.499e-42 1.3537e-41
000140 fb 34 00 80 0e 36 00 80 73 36 00 00 a2 37 00 80
       -1.9006e-41 -1.9391e-41 1.9533e-41 -1.9957e-41
000150 f4 6e 00 00 73 84 87 b7 47 f8 8f 38 72 21 00 80
       3.9802e-41 -1.615493e-05 6.8650166e-05 -1.1998e-41
000160 a6 77 00 00 ff 45 1e 38 81 db e0 36 37 01 00 00
       4.2922e-41 3.7735324e-05 6.701274e-06 4.36e-43
000170 21 3f 00 00 a4 7c a4 b5 3e 5f 44 b7 5a a4 a4 b7
       2.2646e-41 -1.2255227e-06 -1.1704686e-05 -1.9626856e-05
000180 5d 67 00 00 c5 8e 00 00 71 f2 01 b7 b9 4f 00 00
       3.708e-41 5.1216e-41 -7.745447e-06 2.8599e-41
000190 8a ee e0 b6 7b b6 d4 2d 61 a9 55 b7 9c 1e 00 80
       -6.70349e-06 2.4182647e-11 -1.2735226e-05 -1.098e-41
0001a0 cf 42 00 80 89 38 00 00 38 38 00 80 17 3e 00 00
       -2.3966e-41 2.0281e-41 -2.0167e-41 2.2274e-41
0001b0 16 20 00 80 5b 47 e8 b8 52 1c 00 00 62 49 00 00
       -1.151e-41 -0.00011075913 1.016e-41 2.6325e-41
0001c0 38 42 00 80 8f 11 00 80 ad 1f 00 00 6f 1b 00 00
       -2.3755e-41 -6.299e-42 1.1363e-41 9.841e-42
0001d0 f8 4f 00 80 7a 4e 00 80 3e a1 00 80 2b 4a 00 80
       -2.8687e-41 -2.8152e-41 -5.7843e-41 -2.6606e-41
0001e0 13 2c 00 80 06 3b 00 00 ab 3c 00 80 d3 36 00 00
       -1.5811e-41 2.1174e-41 -2.1764e-41 1.9667e-41
0001f0 88 0d 00 80 58 37 00 80 84 fe ba 0f 4b 6a 8a b6
       -4.854e-42 -1.9854e-41 1.8439052e-29 -4.1250946e-06
000200 f6 6e 00 00 1d 39 00 00 ca 2e 00 00 23 34 00 00
       3.9805e-41 2.0488e-41 1.6785e-41 1.8703e-41
000210 60 35 00 00 32 1c da b6 1a 27 00 80 66 36 00 00
       1.9147e-41 -6.5001886e-06 -1.4027e-41 1.9514e-41
000220 cc 24 c8 36 1e 4f 00 80 f2 1e 00 00 b2 3f 00 80
       5.964748e-06 -2.8382e-41 1.1101e-41 -2.285e-41
000230 86 36 00 80 e8 68 00 80 d5 73 00 00 73 10 00 80
       -1.956e-41 -3.7633e-41 4.1553e-41 -5.901e-42
000240 40 39 00 80 74 44 00 00 a6 3a 00 80 88 88 00 00
       -2.0537e-41 2.4556e-41 -2.1039e-41 4.8978e-41
000250 41 41 00 00 85 2c 00 80 3a 39 00 80 a5 39 00 80
       2.3409e-41 -1.597e-41 -2.0529e-41 -2.0679e-41
000260 2c 92 8e 36 0d f4 3a 37 0b 7b 00 80 bc 31 00 80
       4.2489464e-06 1.1143286e-05 -4.414e-41 -1.7841e-41
000270 ff 6e 8d b5 89 a7 3c b5 69 40 00 00 e0 84 00 80
       -1.0537623e-06 -7.0279253e-07 2.3106e-41 -4.7667e-41
000280 40 2d 85 b5 34 1d 3a 32 5c 22 ab b0 d3 83 00 80
       -9.922442e-07 1.0833265e-08 -1.2451653e-09 -4.729e-41
000290 23 44 00 00 89 c0 d1 b6 1d 11 00 00 3c 6f 38 35
       2.4443e-41 -6.2510994e-06 6.139e-42 6.870721e-07
0002a0 e9 37 d2 02 dd 23 d4 30 c6 37 00 00 fc 7c 00 80
       3.0888818e-37 1.5435223e-09 2.0008e-41 -4.4836e-41
0002b0 a2 30 00 80 4d 05 00 80 cd 6e 00 80 78 03 00 00
       -1.7446e-41 -1.902e-42 -3.9748e-41 1.244e-42
0002c0 fe 6e 74 35 51 39 00 80 21 81 00 00 e8 5e 00 80
       9.10586e-07 -2.0561e-41 4.6323e-41 -3.4046e-41
0002d0 b0 00 00 80 1f 67 00 00 d7 79 00 80 02 49 00 00
       -2.47e-43 3.6993e-41 -4.3708e-41 2.619e-41
0002e0 d7 73 00 00 5c 33 00 80 7e 11 00 80 82 35 00 00
       4.1556e-41 -1.8424e-41 -6.275e-42 1.9195e-41
0002f0 97 31 00 80 4e 11 00 00 96 2c 00 80 e1 49 00 00
       -1.779e-41 6.208e-42 -1.5994e-41 2.6503e-41
000300 28 41 00 00 ac 40 00 00 72 aa 22 36 3d 02 00 00
       2.3374e-41 2.32e-41 2.4239093e-06 8.03e-43
000310 ac 48 00 80 7e 3e 00 00 55 3c 00 80 cc 2f 00 00
       -2.607e-41 2.2418e-41 -2.1643e-41 1.7146e-41
000320 fd ae 00 00 26 37 00 00 3a 3c 00 00 b7 4a 2b bc
       6.2774e-41 1.9784e-41 2.1605e-41 -0.010454825
000330 8b 9b 00 00 85 1c 32 ba 97 16 00 80 80 00 00 00
       5.5798e-41 -0.0006794411 -8.104e-42 1.8e-43
000340 d7 2e eb bb 95 1d 00 00 11 34 00 80 ab 39 00 00
       -0.0071772146 1.0612e-41 -1.8678e-41 2.0687e-41
000350 24 21 00 00 cb 9c 00 80 1d 38 00 00 29 7e 00 80
       1.1889e-41 -5.6247e-41 2.013e-41 -4.5258e-41
000360 e5 27 00 00 8c 63 00 00 11 41 00 80 f4 53 a7 bb
       1.4311e-41 3.571e-41 -2.3341e-41 -0.0051064435
000370 d4 c0 4e 3c 6f 1f 00 00 81 17 4c bc ab 88 fa 3b
       0.012619216 1.1276e-41 -0.012456776 0.0076456866
000380 69 6e 52 bc ad 3b 00 00 7a 21 00 80 88 c5 a7 bb
       -0.012843707 2.1408e-41 -1.2009e-41 -0.005119983
000390 d2 d6 b2 bc 9b 22 08 ba e5 2e 00 80 62 42 00 80
       -0.02183095 -0.0005193145 -1.6823e-41 -2.3814e-41
0003a0 d0 60 f1 3b cc 10 00 80 40 f8 13 bb e2 37 0c b9
       0.0073662773 -6.026e-42 -0.0022578388 -0.00013372258
0003b0 51 1f aa 3a f4 25 5a 38 15 08 87 b8 ed 36 00 00
       0.0012979304 5.2010597e-05 -6.438807e-05 1.9704e-41
0003c0 ad 5a 00 80 9a 43 00 00 21 2b 00 00 14 00 36 bc
       -3.2528e-41 2.4251e-41 1.5472e-41 -0.011108417
0003d0 b2 10 00 80 4b 0c 00 00 05 3b 00 00 f5 32 00 00
       -5.989e-42 4.41e-42 2.1172e-41 1.828e-41
0003e0 50 1a 00 80 02 67 00 00 84 30 00 80 13 35 00 80
       -9.439e-42 3.6952e-41 -1.7404e-41 -1.904e-41
0003f0 da 1f 00 00 c0 38 00 80 30 4b 00 00 68 1c 00 80
       1.1426e-41 -2.0358e-41 2.6972e-41 -1.019e-41

gats.0.lin_r.bias f4 [335]
000000 62 ae 0f ba cb e2 39 b6 b6 b0 0d 37 07 59 23 bd
       -0.0005481002 -2.769916e-06 8.445399e-06 -0.039879825
000010 ce 6c 39 b9 7d 22 cd 3d 05 49 2e 3a a8 2d bb bb
       -0.00017683508 0.10016344 0.0006648454 -0.0057122298
000020 0f 45 ad 3d 7e f3 f0 bb 94 5f 1f b9 43 c6 05 3b
       0.084604375 -0.0073532453 -0.00015199027 0.0020412363
000030 f8 0e 08 b7 4c a3 73 3e 3a fc b0 3d 69 4f 8e 3d
       -8.109717e-06 0.23792762 0.086418584 0.0694874
000040 9f 6b a0 3b db e9 b8 37 d4 c1 92 36 53 de 5a 3e
       0.004895642 2.2043407e-05 4.3737036e-06 0.21373872
000050 bb 23 5c 3e 51 bd 84 3a 5a d1 9d 3c d5 ed 78 3d
       0.21498005 0.0010127221 0.019264866 0.06077369
000060 47 80 14 bd 81 dc 1b 3e ad 94 e2 3a 04 1a 64 3d
       -0.036255147 0.15220834 0.001728674 0.055688873
000070 48 f1 90 bd d1 f2 9e 3c c3 c2 2d 3e b8 99 7e 3d
       -0.07077271 0.019402893 0.16968827 0.062158316
000080 27 6d 16 3e 95 ec 2b 3e 9e cd aa 37 cf 5e fd ba
       0.14690076 0.16789468 2.0361327e-05 -0.0019330623
000090 9f 5e 27 3d 27 3c 92 3b b7 05 88 3e 07 7f 6a b9
       0.040861722 0.004462737 0.2656686 -0.000223633
0000a0 3f 9e 5d 3e 29 3c 00 bc 8f 40 9c b8 26 7a e9 3b
       0.21642397 -0.007826843 -7.450685e-05 0.007125157
0000b0 68 4d 33 3b d6 b2 eb b4 ba 6f 0e 38 bb 83 9d 3d
       0.002735937 -4.390228e-07 3.395949e-05 0.07691141
0000c0 a8 2b 95 37 90 30 b8 3b 23 d8 20 bb 34 b8 cc bb
       1.7782513e-05 0.0056210235 -0.002454289 -0.0062475447
0000d0 9c 17 a7 b6 ea 6f 14 3d b0 2a ad 3a e6 49 a5 3c
       -4.9797363e-06 0.036239542 0.0013211574 0.02017684
0000e0 82 3d a1 b5 53 88 9e b7 1e be 68 3d 55 b8 83 37
       -1.2013336e-06 -1.8898549e-05 0.056821935 1.5702253e-05
0000f0 89 33 67 3b 19 dc 5d 3e 27 d2 e0 3c e3 1f 92 bb
       0.003527852 0.21665992 0.027443958 -0.0044593676
000100 7f 5a 1a bb 63 e3 4b 3e ad ea b2 3e 9c 2f 59 bd
       -0.0023552475 0.1991096 0.34944668 -0.05302392
000110 83 23 1c 3b 3a f5 91 b7 d5 b9 90 3e 22 fa 5e 3d
       0.0023824878 -1.739954e-05 0.2826678 0.054437764
000120 05 c9 6a 3c 86 b9 68 bc 4e da 9f 3e a2 35 66 b9
       0.014330153 -0.0142043885 0.3122124 -0.00021954489
000130 87 fe 03 3b 1e a7 1e b7 43 a6 84 3c 76 e0 26 b8
       0.0020140724 -9.456444e-06 0.016192561 -3.978653e-05
000140 58 a1 92 3c 85 87 72 3d ed 5f e9 ba a4 7f d9 bb
       0.0178992 0.059211273 -0.0017805077 -0.0066375304
000150 57 c9 35 b9 11 db b3 36 d3 a8 c5 3a 91 1d 5f 3d
       -0.0001733651 5.3601184e-06 0.0015080221 0.054471556
000160 43 67 46 3d 6e af ca 3d 94 75 df bc 0c d6 88 3d
       0.04843832 0.09896742 -0.027277745 0.06681451
000170 e7 ee 0d 3e 2b b7 30 3b 35 05 e3 3c 35 5f a2 3e
       0.13860665 0.0026964645 0.027712444 0.31713262
000180 c5 59 89 3d 6b dc 50 3e f6 b0 8f 3b 3c ed 59 3b
       0.06706575 0.20396583 0.004385109 0.0033252975
000190 10 c9 c2 3d 47 3d ef b9 a9 aa f7 bc c6 42 bf 3a
       0.09511006 -0.00045631288 -0.030232744 0.0014592044
0001a0 be 2c 88 bc d9 4c 92 3e 9f b1 e5 3c a3 e2 05 bc
       -0.016622897 0.28574255 0.028038798 -0.00817171
0001b0 93 f4 22 3e 4c fd fc 39 c6 b8 29 3d 2e 2c 0c 3b
       0.1591361 0.00048253906 0.04143598 0.0021388638
0001c0 8b a2 ca b9 aa 96 3b 3c 3d 49 88 3b ba 2e 2d 38
       -0.00038649546 0.011449495 0.0041591213 4.128993e-05
0001d0 7a 00 26 3e e2 40 73 3a a8 22 b5 ba cd 82 f5 b8
       0.1621112 0.00092793826 -0.0013819532 -0.00011706874
0001e0 4d bc 46 3b 76 b0 17 ba 65 48 2f bc ed 4a b7 b6
       0.0030324638 -0.00057864876 -0.010698413 -5.4625475e-06
0001f0 51 d0 f3 38 f9 5e 26 bc e1 f5 96 b6 59 e8 98 3d
       0.00011625945 -0.010154479 -4.4989724e-06 0.07466192
000200 01 d0 84 bd d1 49 ad bb 7d 6c 5c bd a5 21 a5 3c
       -0.06484986 -0.0052883406 -0.0538144 0.020157645
000210 a9 cc 05 be 69 df 06 3e 02 c7 9b 3c e6 8e 3f b8
       -0.13066353 0.13171162 0.019015793 -4.5671033e-05
000220 ab 47 e6 33 2a 73 d6 bc a4 1f 33 3c 75 f7 6d bc
       1.0723246e-07 -0.026177961 0.010932837 -0.01452433
000230 51 8d 35 bc 29 fa a7 3b 7d 85 43 3e 11 74 87 39
       -0.011081056 0.005126257 0.1909389 0.00025835683
000240 cc cf 3d 39 77 e5 b1 bc 7f bd 85 b5 1b 18 99 3d
       0.00018101855 -0.021715863 -9.964423e-07 0.07475301
000250 17 a4 d0 3b ab be 40 3e 8e 6a 51 3c 11 9a 02 37
       0.0063672173 0.18822734 0.012781752 7.784475e-06
000260 2a 87 a9 b7 f5 95 e4 39 88 b1 d7 3c 79 b6 04 bb
       -2.020931e-05 0.00043599276 0.02632977 -0.0020250364
000270 8f 41 06 3d cf 57 12 3c 9e 2b 81 3b 22 8d 0e 3e
       0.032777365 0.008932068 0.003941967 0.13921025
000280 6c a9 1f 3c 41 66 4e 3e b5 1e 06 3e 0c 36 07 bd
       0.009744983 0.20156194 0.13097651 -0.033010527
000290 1d 06 3b 3e 38 f7 e2 3b 45 f7 56 3e ee b8 f4 3b
       0.18264051 0.0069264434 0.20992763 0.0074683344
0002a0 8f b0 92 3c ab 46 cd bc b7 76 97 bb 5e 95 bb 3c
       0.017906455 -0.025058111 -0.004622306 0.022898372
0002b0 3a 0a 1c 3d 77 02 e1 3c 09 cf 96 3c 4c 13 b4 3d
       0.03809569 0.027466996 0.018409269 0.08792743
0002c0 63 c0 cf 3d c2 b3 06 3d f1 d8 0e 3d cf 72 c5 36
       0.10144117 0.032886274 0.03487486 5.884423e-06
0002d0 2d e2 72 3c 5c fa 02 3e 87 00 89 39 05 86 60 3b
       0.014824432 0.12790817 0.0002613107 0.003425957
0002e0 ba ca 1e 3e 77 04 21 bc a0 2e 67 b7 e4 ed 12 3d
       0.15507022 -0.009827725 -1.3779529e-05 0.0358714
0002f0 2e 3c 74 3e 04 35 94 3b c7 4b 86 b8 a5 ae d5 37
       0.23851082 0.0045229215 -6.4037326e-05 2.5472904e-05
000300 76 3b 0d 3e 46 84 b9 b8 85 2c 1e 3e be de 45 3e
       0.13792214 -8.846125e-05 0.1544667 0.1932325
000310 24 19 86 ba ef 46 17 3d 25 54 34 3d 69 46 51 3e
       -0.0010230881 0.036932882 0.04402556 0.20437016
000320 9f e4 8f bc e5 c5 88 bd 14 63 b7 39 1c f1 91 b7
       -0.01756507 -0.066783704 0.000349783 -1.7397622e-05
000330 f7 0a 44 3d 47 d1 2b 3e 7e 0a 05 3a c8 96 18 bb
       0.04786202 0.16779052 0.0005075111 -0.0023283232
000340 cb 84 4f 3d ca d9 b6 3c 52 15 58 3c 90 b1 a8 b7
       0.05066375 0.022320647 0.013188677 -2.0109845e-05
000350 e4 cd c1 3d cf 3b 7b 39 e7 24 1d 3d 96 ba 47 3e
       0.09463099 0.00023959506 0.03836527 0.1950477
000360 e2 0a 44 3d 28 28 bb bc 63 cf 92 36 78 b3 1e 36
       0.04786194 -0.022846296 4.375282e-06 2.36483e-06
000370 7a d0 ce bb 2f 59 ba 3e 2b ba 06 3e 54 7f 9b 3d
       -0.0063114734 0.36396167 0.13156955 0.07592645
000380 73 82 1b bc 4c 32 0c bc 6d 53 d5 bc c4 f7 ac 38
       -0.009491551 -0.008556914 -0.026040757 8.247749e-05
000390 93 df 18 3d b3 37 4a 3e c8 85 95 3d 97 4b 4f 3e
       0.037322592 0.1974781 0.073009074 0.20243679
0003a0 1e 1b 87 3c 94 82 91 3c 12 fe 22 3e 60 67 0e b7
       0.016492423 0.01776246 0.15917233 -8.487928e-06
0003b0 51 b0 c9 3c 21 18 14 3d 45 25 46 3e 7f 1f 34 3e
       0.024620207 0.036155824 0.19350155 0.1759014
0003c0 e9 8d 05 ba e9 1c c8 3e ae 51 51 bc 5e 6f 65 bc
       -0.00050946936 0.39084557 -0.012775822 -0.014003603
0003d0 60 b2 11 3d a4 e0 7e 3d c7 89 10 39 9b f1 63 3d
       0.035570502 0.062225953 0.00013784236 0.055650335
0003e0 65 f6 d9 39 de 6e 84 b9 b8 25 f7 3c e7 f5 05 bd
       0.00041573044 -0.00025259604 0.030169353 -0.032705214
0003f0 81 d3 0c 3c 4e b7 4d 38 5b f0 e0 3c 2b c0 06 3d
       0.008595348 4.9046525e-05 0.02745836 0.03289811

gats.0.lin_edge.weight f4 [335, 1]
000000 ab 68 65 3a 46 72 c3 38 bb 05 35 37 49 d6 db 3c
       0.00087512535 9.31961e-05 1.0789775e-05 0.026835578
000010 9e 96 14 b9 8f 37 5c 3e 34 db bd 37 c6 30 dd 3c
       -0.00014170489 0.21505569 2.263263e-05 0.027000796
000020 6c aa da 3d e8 1f c2 ba d8 ec 9c b7 e3 5a 30 ba
       0.10677037 -0.0014810534 -1.8706938e-05 -0.00067274104
000030 c3 16 48 37 01 20 4d 3e d5 80 4d 3e d1 1d ad 3d
       1.1926229e-05 0.2003174 0.20068677 0.08452953
000040 61 0f dc 3b f5 6a 91 37 62 56 db b4 96 6c 36 bd
       0.0067157005 1.7335153e-05 -4.085478e-07 -0.04453715
000050 f7 9c 51 3e 2b 13 91 39 12 ae 1f 3e 19 54 2b 3e
       0.20470034 0.00027670836 0.15593746 0.167313
000060 b0 dd 5b 3b d8 50 30 3d 91 4b cd 38 7b 86 99 3e
       0.0033548884 0.04304585 9.789237e-05 0.29985413
000070 20 41 3e 3e bf 47 5d 3d 5a da 95 3e bd 98 03 3e
       0.1857953 0.0540235 0.29268152 0.12851234
000080 7d 97 9e bc 64 17 0a 3e 6b 4d 1b 3a 99 c8 e3 38
       -0.019359345 0.13485485 0.0005924317 0.00010861568
000090 81 ee 1e 3d 56 f3 44 3a 3d 13 32 3c 89 58 ba ba
       0.038801674 0.00075130665 0.010868845 -0.0014217059
0000a0 98 24 2e bd e0 29 0e 3d c8 22 2d 3a 4e 9e b6 3b
       -0.042515367 0.034707904 0.0006604609 0.0055730706
0000b0 7e bb a6 ba a5 f2 ca b8 d4 bb 46 bb f2 db d7 bc
       -0.0012720672 -9.677307e-05 -0.0030324357 -0.026349995
0000c0 0e ec 89 36 36 63 58 bb 8b 16 2a bb 96 6f db 3c
       4.1103985e-06 -0.0033018119 -0.0025953378 0.026786607
0000d0 8b 44 89 b7 b1 3c 96 3c 43 eb 7a 3b 51 a2 ba 3d
       -1.636359e-05 0.018339487 0.00382872 0.09112991
0000e0 1f d3 86 34 8d d0 90 36 92 76 f2 3d 78 33 38 38
       2.5113056e-07 4.315813e-06 0.11839022 4.3916953e-05
0000f0 48 e7 8e 3d de f7 43 bd a8 84 fc 3d 0e 54 03 bb
       0.06977707 -0.047843806 0.1232999 -0.0020039114
000100 3e 07 ba ba ec 70 d6 3d 0a 7c 3e 3e 53 b9 9c 3d
       -0.0014192832 0.10470757 0.18602005 0.07652535
000110 13 fc 21 3b d2 7d fd b7 41 d1 8c be dd 78 d6 3d
       0.0024716898 -3.021854e-05 -0.27503398 0.104722716
000120 d3 57 b2 bb b6 95 cb bb ad ca 27 3e 87 b2 87 b9
       -0.0054425984 -0.0062129153 0.16385908 -0.0002588222
000130 18 b9 8c ba 08 c7 80 38 50 c7 ca 3c 4d 76 81 b8
       -0.0010736315 6.140588e-05 0.024753243 -6.1732346e-05
000140 41 c9 8a 3b 4b a8 bd 3d 56 61 45 3c 38 a4 41 3b
       0.004235417 0.09260615 0.0120471325 0.0029547345
000150 72 69 27 b9 dd c9 01 37 f6 35 06 b9 c1 81 bb 3e
       -0.00015965643 7.735999e-06 -0.00012799338 0.36622432
000160 8a a5 e4 3e e7 56 8f 3e 9b 6a d9 3e a4 38 21 be
       0.44657546 0.2799599 0.42464146 -0.15744263
000170 b1 de 1c be 8a 83 30 3b b5 ab b1 3e 37 e8 5b be
       -0.15319325 0.0026933872 0.34701315 -0.21475302
000180 fb 5e 5e 3e 2a 54 04 3e 06 46 db 3c 19 bc 51 bb
       0.2171592 0.12922731 0.026766788 -0.0032002984
000190 52 7a 49 3e 33 da b6 b9 87 a2 99 3b f0 cc 37 3a
       0.19675568 -0.00034876316 0.004688564 0.0007011434
0001a0 9b 74 21 bc c1 b6 7d be 9c 79 a6 3c f2 81 15 3c
       -0.009854461 -0.24776746 0.02032166 0.00912522
0001b0 23 5c 9b be 4b 4c c3 3a 4e ee 78 3e ec 9b 4c 3b
       -0.30343732 0.0014900056 0.24309656 0.0031220866
0001c0 22 c0 2f 39 eb 3b a7 3e ad 7b 20 bb cb 6f f9 36
       0.00016760876 0.326629 -0.002448778 7.4337927e-06
0001d0 72 e3 47 3e 5e b8 21 3a c7 f9 4e ba 9c fb 1f b9
       0.19520357 0.00061691354 -0.0007895496 -0.00015257153
0001e0 96 24 02 bb ed 50 b1 b9 9e db b7 3e c7 8a 43 b8
       -0.0019858233 -0.00033820365 0.35909742 -4.662087e-05
0001f0 02 37 26 39 ff d8 97 ba f4 f3 12 b7 d5 f9 ae 3c
       0.00015851486 -0.0011585056 -8.759078e-06 0.021359364
000200 a7 a7 8d 3e a8 34 7e bb bc a2 11 bd c2 0c 96 3e
       0.2766697 -0.003878871 -0.035555586 0.29306608
000210 5f 18 fa 3d 6a 92 02 3f 31 c6 a8 bb a5 ab 7d b8
       0.1221168 0.5100466 -0.0051505794 -6.0479757e-05
000220 60 09 56 36 d2 de 21 bb e0 e1 d9 3b 0e 48 9d bb
       3.1893942e-06 -0.0024699462 0.006649241 -0.0047998494
000230 5c c7 08 3c ac d5 f5 ba 60 76 f9 3d 82 fa de b8
       0.008348312 -0.0018755696 0.12180781 -0.000106324456
000240 6e dd 3c 39 c8 7a 8a bc e8 f5 89 b5 e5 4b d0 3d
       0.00018011566 -0.01690425 -1.0278864e-06 0.10170726
000250 89 c0 32 3d 92 f9 3a 3e e5 4b 03 3c 64 16 35 38
       0.043640647 0.18259266 0.0080137 4.3174616e-05
000260 6e c1 6d b7 4e f8 76 3a ec 3c 0a 3d 01 1c c8 ba
       -1.4171337e-05 0.00094211556 0.033749506 -0.0015267135
000270 de 58 f0 3c 41 65 87 3c f9 83 79 bb e3 92 53 3c
       0.02933925 0.016527774 -0.0038073047 0.0129134385
000280 c2 8e 14 3b 88 14 5c 3d 0f 78 39 3c ed a0 f3 bb
       0.0022668098 0.053730518 0.011320128 -0.0074349553
000290 11 63 0e 3e b6 d7 39 3a b8 f6 59 bc e6 cb e9 3c
       0.13904978 0.00070893334 -0.013303451 0.02853961
0002a0 8b cc f4 3d 9b 84 8a bb bd 43 dd bb 61 22 81 ba
       0.11953076 -0.0042272336 -0.00675246 -0.0009852165
0002b0 f8 bb c3 3d 36 07 6b 3d 08 ae 77 3b e4 76 69 3e
       0.095573366 0.057379924 0.003779294 0.2279926
0002c0 cf 9f aa 3c ee 6b 0a 3d b1 87 c9 3c d1 5d a1 37
       0.020828156 0.033794336 0.024600836 1.9236382e-05
0002d0 56 47 af 3c 3e b4 ad 3d a7 e4 a0 39 ad c0 09 3a
       0.02139632 0.08481644 0.00030687937 0.0005254846
0002e0 54 b7 26 3e 88 59 dc bb 59 d2 3d 36 4e 48 85 3d
       0.16280872 -0.00672454 2.8285633e-06 0.06507932
0002f0 07 0b f4 3b 8f f7 fa 3b 55 7a 81 b8 0f e2 ee 37
       0.0074476036 0.007658906 -6.1739855e-05 2.8477078e-05
000300 0f 3c d3 3d 4e bd a9 b8 1f 00 13 3e 11 1d 29 3e
       0.1031419 -8.093809e-05 0.14355515 0.16514994
000310 08 1b 34 ba fd e9 d1 3d 52 40 2a 3d 6a 77 1b 3e
       -0.0006870483 0.10249708 0.041565247 0.15182272
000320 32 0a 1a 3b cd 9d b6 bd fb 08 1a b9 c8 a5 43 b7
       0.0023504612 -0.08916817 -0.0001468993 -1.1661505e-05
000330 b5 79 20 3e 52 32 91 3e 6e 47 86 bc e9 22 a4 bc
       0.15671428 0.28358704 -0.016391482 -0.020036178
000340 ec f8 3d 3e 25 0d 15 3d f9 92 3d 3b c8 56 aa 38
       0.18551987 0.03638949 0.0028926714 8.122396e-05
000350 09 23 26 3e 30 40 11 b9 57 86 7b 3c 81 46 8e ba
       0.16224302 -0.0001385219 0.015351853 -0.0010854752
000360 2c f2 4c 3d a6 48 3b bc 60 64 98 35 58 0e 43 36
       0.05003564 -0.011430895 1.1354095e-06 2.9065613e-06
000370 9d 84 88 3e 9e 66 96 3c 31 db ae 3d ad 4a 91 3e
       0.26663676 0.018359479 0.08537901 0.28377286
000380 c4 19 5a 3b f7 6e 55 ba 42 49 be bd 4d d3 08 ba
       0.0033279518 -0.000814184 -0.092913166 -0.00052194746
000390 15 3f 01 3e 2c e8 0f 3e 05 8f ee 3d 70 22 99 3e
       0.1262172 0.1405341 0.116483726 0.29909086
0003a0 a9 30 93 3d b6 c8 27 3c ff 20 24 3e d7 4c dd 38
       0.071870156 0.010240724 0.16028212 0.00010552414
0003b0 3c ef f6 3c 57 1f 31 3e 70 4f 8d 3c 6f 51 32 3d
       0.030143373 0.17297111 0.017249793 0.043534692
0003c0 77 61 67 3d ca 74 2f 3d e8 e0 27 3d f4 01 81 3e
       0.056489434 0.042835988 0.04098597 0.25196803
0003d0 e1 ba f3 3c 16 0b 2f 3d 1c 39 a9 b7 e0 ea 08 3d
       0.029752197 0.04273518 -2.0172964e-05 0.03342712
0003e0 b9 39 d6 39 26 3f d9 b9 64 e8 70 3c 0a 80 38 bb
       0.00040860267 -0.00041436515 0.014703844 -0.002815249
0003f0 25 19 2b 3c 1a 4e 6a 38 ae 82 e2 3c 0f 3c c1 3d
       0.010443007 5.5862685e-05 0.027650204 0.094352834
