inference/SymEx/model_checkpoints/SymEx_model_1.pt (torch, 503011 bytes, 21 tensors)

gats.0.att f4 [1, 5, 67]
00000000: 8236 ab3e 4b2d 353d 29c1 39bf b690 b63c
00000010: 5a88 843d d6a9 e33b d252 c3bb 575a 14bb
00000020: cd02 99bf 632e 3d3b 92f7 17bf 4246 83bf
00000030: 95c5 dd38 9125 54bb 7ab7 e1be 8fac fabe
00000040: 9aa5 17bf 4eea 2bbb 903e 88bb 9fca 8dbe
00000050: 16c0 cbbc 92c7 f6bb fe23 3f3e a7bc 573d
00000060: 4382 7c3c 0a48 d33a ef92 f638 4e6a 24bc
00000070: c95a 30bf 7d64 7bbb 0d69 f7b9 6499 8bba
00000080: 54ec 74b9 f347 8a3d 64c1 7d3b 3ee8 443e
00000090: 4dcc 9f3a a06c 1abd 774d e33e cdaa 123b
000000a0: b023 133e 9830 a9bb 7b17 603c 752d d0be
000000b0: 0305 353d d990 c8bc 79f1 553a ff06 afbd
000000c0: 5939 7c3d 73b4 27be 41e6 a73d 22e4 a43b
000000d0: c7cb 08bf fb70 c33b 51c2 f33a 11b1 223b
000000e0: 4fc0 b9bb 417b adba 2794 c5bd 957f 403d
000000f0: 0ba4 34bb d522 063d 33f1 baba d4a9 80b9
00000100: 9a41 403e 2b55 7c3d 98b1 68bb 6f15 d939
00000110: 8f80 943c d5fe 56bb dce5 7a3d 538e e9be
00000120: b1b0 edbb 99bf 8cbd 7443 9bb9 b28b 173d
00000130: cc42 4e3c e6b6 01bf 7b53 8bba d55a c53a
00000140: a3b5 9d3b 4f62 8138 5bcc 68bc 7da6 7cba
00000150: 18d6 c33a 635d d9b9 9e4c 01bc 1671 c1bc
00000160: 8ca3 85bc 5de2 5c3e 9573 4ebc 75b1 37be
00000170: 55af 07bf 90cd 58bc 0949 07be 98ed 3cbc
00000180: 644f 223f f3a5 1f3a 06e9 47ba 0c10 85bb
00000190: 038e a2bb 9409 883c 3245 903c 9f7c 18bb
000001a0: 4aa7 18be 0c7e 8ebe 3fee 19bc 4cd1 493e
000001b0: 7fb4 0f3d c072 723a 73de 23bf c241 03bc
000001c0: 8ce7 3e3c b114 cdbb 5ec2 04bf 663a 383d
000001d0: b8ee 30bc 5dff c7ba cad1 a1bb 474d 97bb
000001e0: a4c8 4abc 8f8f 01bf 5b12 20bc 4428 ba3c
000001f0: b3df 8cbe af39 3cbc 97f3 a6bc 3e30 343b
00000200: af9f 55bb 80fb 1dbb c2bc a23c 8f5a ab3c
00000210: d655 14bf 7dc2 90bc 13c3 ba38 cef3 d83d
00000220: 5256 84bf 00e0 ee3c 8b09 6dbc c012 39bc
00000230: d001 3bbb 02b4 d438 9c1f 4bbf fe21 563a
00000240: 1ccd 5dbf 6694 8fbb 435c 21b8 10e8 81bb
00000250: c43c a7be 57f0 a0bc e6c7 b8be 5fc8 6fbb
00000260: 9afc 97bb 76e4 41bf c797 01be b478 d7be
00000270: 85a8 153e e1cd 93be 93e2 f23e 7b0b 12bf
00000280: 2c31 29ba f3c8 653b 3824 413c e874 5e3f
00000290: 0d4a 31ba b8cc 00bf 5be2 5fba 68f5 92bc
000002a0: 4e9d d83a aee6 81bc 2ec6 b5ba 9c6a 91be
000002b0: 31b2 0f3f b921 763a 4cc4 cf3d 88ef b23d
000002c0: 7a0d ea3e 6b02 9dbb f136 44bf 3e35 85bc
000002d0: 37d8 78b9 ee07 d8be 7965 9abd 0f96 f83b
000002e0: 4484 babc 625f 81ba 17e4 5bbf 0c0c ab3a
000002f0: b8ec 8dbe fdf8 2e3b 0771 9cba b017 bcb8
00000300: 932f 75bd 5fca 51be cf15 02ba 6cbd 0bbc
00000310: 5f2f 85ba 0a07 613a 87a7 153c 4f7e 1c3e
00000320: 6b93 843c 4e19 8939 83d1 55bf feba 95bf
00000330: b7c6 e4b9 0a28 203f 657f 993a 2d58 8ebb
00000340: dd9f 5c39 b600 82bf 7759 5339 180a e13e
00000350: ae2a 71ba be03 c836 ea13 3dbf 2424 a8be
00000360: 79bd cf3e 7689 a8b9 cb7e deba cb32 6cbf
00000370: 8b91 8b3e 7f15 373c aa1b 923e 4622 7d3c
00000380: 166f eebb e424 9c3e f8aa 18bf 61a2 3e3a
00000390: 62e4 22bc dd48 ae3e 6e42 12bf db73 af39
000003a0: 110c 50ba 0f1e 5bba 3b09 293e 537b 143b
000003b0: 7719 d63e 802c c2ba 89fc 95bf 21f3 b43e
000003c0: a420 a238 a3ef c8bd 91c7 90bb 5f07 e33e
000003d0: 7855 5abf b8b4 1dbe aaa6 a8be c8fc 6138
000003e0: 1c22 653c 5ec0 86bd 5347 0b3d edc9 6e3d
000003f0: 8839 bbba ad36 f6bd f4ce c03a 79e8 7439
0.33440024 0.044232648 -0.72560364 0.0222858 0.064713195 0.0069477363 -0.0059608007 -0.0022636855
-1.195398 0.002886676 -0.5936214 -1.0255816 0.00010574904 -0.0032371024 -0.44085294 -0.48959777
-0.5923706 -0.0026232186 -0.0041578487 -0.2769365 -0.024871867 -0.007531115 0.18666074 0.052670147
0.015411916 0.0016119492 0.000117575626 -0.010035111 -0.6888853 -0.0038359456 -0.0004718978 -0.0010650572
-0.00023357692 0.067520045 0.0038720006 0.19229218 0.0012191624 -0.03770125 0.44395038 0.0022379637
0.14369082 -0.0051632635 0.013677473 -0.4065968 0.044194233 -0.024483131 0.00081612874 -0.08546256
0.06157813 -0.1637743 0.08198214 0.0050320784 -0.5343594 0.005964396 0.001859734 0.0024824778
-0.005668677 -0.0013235585 -0.096473984 0.04699667 -0.0027563598 0.032748062 -0.0014262557 -0.00024540594
0.18775025 0.06160466 -0.0035506245 0.00041405435 0.018127708 -0.00328057 0.061254367 -0.45616397
-0.0072537293 -0.06872482 -0.0002961416 0.03699846 0.012589168 -0.50669706 -0.0010629738 0.0015056977
0.0048129125 6.169511e-05 -0.014208878 -0.0009637846 0.0014941124 -0.00041459044 -0.007891802 -0.023613494
-0.016313337 0.21570726 -0.012600799 -0.17938788 -0.5300191 -0.013232604 -0.13211454 -0.011531256
0.6340239 0.0006090097 -0.0007625971 -0.004060751 -0.004960777 0.01660613 0.01761112 -0.002326764
-0.14907566 -0.2783054 -0.009395181 0.19708747 0.035084244 0.00092486665 -0.64011306 -0.008011283
0.011651885 -0.00625857 -0.5185908 0.044977568 -0.0107991025 -0.0015258599 -0.004938339 -0.0046173665
-0.012376938 -0.5060968 -0.009770001 0.022724278 -0.2751442 -0.011488362 -0.020379825 0.0027494575
-0.00325964 -0.0024106205 0.019865397 0.020917205 -0.57943475 -0.017670864 8.9055065e-05 0.10593377
-1.0338843 0.029159546 -0.014467607 -0.011295974 -0.0028535016 0.00010142477 -0.7934511 0.00081685174
-0.866411 -0.004381704 -3.8471317e-05 -0.0039644316 -0.32663548 -0.019645853 -0.3609001 -0.0036587936
-0.0046382667 -0.7573923 -0.12655555 -0.42084277 0.14615066 -0.2886801 0.47438487 -0.5704877
-0.00064541656 0.0035062402 0.01178842 0.86897135 -0.00067630486 -0.50312376 -0.00085405045 -0.017939284
0.0016526373 -0.015857067 -0.0013868266 -0.2840165 0.56131274 0.00093891803 0.101448625 0.08737093
0.45713407 -0.004791548 -0.76646334 -0.01626074 -0.0002373167 -0.4219355 -0.075388856 0.0075862478
-0.022768147 -0.0009870345 -0.8589491 0.0013049855 -0.27719665 0.0026698702 -0.001193554 -8.968951e-05
-0.059859823 -0.20487355 -0.0004962356 -0.008529048 -0.0010161212 0.0008584118 0.00913418 0.15282558
0.016183576 0.0002614953 -0.83522815 -1.169769 -0.00043635603 0.62561095 0.001171094 -0.0043440075
0.00021040389 -1.0156467 0.00020155856 0.43953013 -0.000919978 5.9609e-06 -0.7385851 -0.32840073
0.40574244 -0.00032145873 -0.0016975043 -0.92265004 0.27259478 0.011174559 0.2853673 0.015450066
-0.007276426 0.30496895 -0.5963588 0.0007272121 -0.009942146 0.34039965 -0.57132614 0.0003346492
-0.00079363683 -0.0008358666 0.16507427 0.0022656515 0.41816303 -0.0014814287 -1.1717693 0.35341743
7.730842e-05 -0.09811332 -0.0044183214 0.4434156 -0.85286665 -0.1540097 -0.32939655 5.38796e-05
0.013985183 -0.0657966 0.034003567 0.05829804 -0.0014284113 -0.12022147 0.0014710114 0.00023356256

gats.0.bias f4 [67]
00000000: 91a8 1abd 4bf1 e0bb e013 96bd 12d4 e738
00000010: 623a 16bd f740 4a3a 0c58 9f3b 44b2 c93a
00000020: c748 02bd 4911 323b d39c 6e3d 1279 6ebd
00000030: 5176 b6b7 c5a7 efba e8ab 3dbd 148c 92bb
00000040: 3a43 8abc 93cb 0abc 8405 61bc 5f63 053b
00000050: 5cb9 b4bd 3511 91bc ebce 193d 11de 5ebd
00000060: 2314 89bd 1946 84bd 663b 8b39 c2cc cb3b
00000070: 377d f6bc 7987 1d3d dfdf cd39 cb14 dcbc
00000080: 77db 673a 1c87 75bd 8bc5 d039 65c3 d7bc
00000090: f3b1 c4bb 4858 1dbc 8273 b93b 0bb1 9e39
000000a0: b917 7e3c dcd6 d8bb 19fa 843b a9bd 0ebd
000000b0: de70 b1bc cd49 c0bc b1e7 3f3a 05ec b4bc
000000c0: 9d2b a8bc 391f 303d c14a 0abc f390 e5bb
000000d0: 5781 98bd 9217 c23a 0026 bebb 0ce2 a7b9
000000e0: 91f7 01bd 44d8 ef3b 2368 063c f106 81bd
000000f0: 5ccc 0dbb 743e 283d 8f97 7a3a 4d0f 89bc
00000100: 5648 96bc 59f7 483a 097a 8dbc
-0.037758414 -0.006864702 -0.073280096 0.000110544395 -0.036676772 0.0007715369 0.004862791 0.001538821
-0.031807687 0.0027170947 0.058255028 -0.05822093 -2.1751186e-05 -0.0018284252 -0.04630652 -0.004472265
-0.01687776 -0.008471387 -0.013734225 0.002035342 -0.08824417 -0.0177084 0.037550848 -0.054410998
-0.06693294 -0.064586826 0.000265564 0.0062194774 -0.030089004 0.038459275 0.00039267444 -0.026865384
0.00088446535 -0.059943303 0.00039820033 -0.026338289 -0.0060026585 -0.009603567 0.0056595216 0.00030268016
0.015508586 -0.00661741 0.0040581343 -0.034848843 -0.021660265 -0.023472691 0.00073205965 -0.0220852
-0.020528609 0.042998526 -0.008440674 -0.0070058047 -0.074465446 0.001480805 -0.00580287 -0.0003202114
-0.03173024 0.007319482 0.008203539 -0.06300152 -0.00216367 0.041075185 0.0009559327 -0.016730929
-0.01834504 0.0007666252 -0.017270105

gats.0.lin_l.weight f4 [335, 67]
00000000: 3d97 0080 0c99 0000 d23c 92bd afd9 87ba
00000010: e708 5eb9 5440 0080 4584 023e 1c7e 2abd
00000020: aa95 0080 c595 0080 c6e1 55bc 3890 0080
00000030: a080 0080 2754 0000 84ad 0000 1d8b 0080
00000040: 488c 0000 297b 0000 3546 a73d f1d4 5b3e
00000050: ce07 0000 84ae b43d e088 0080 60a0 9d39
00000060: a1a5 8aba 5de0 7d3c 6d09 263d 530b 1cbe
00000070: e552 76bc d783 903c 8486 0080 1f29 eabd
00000080: 2a0b c73b 6fa2 50bd 8285 143d 0a2a c83d
00000090: fcc4 013c 7928 efbc e388 0000 1789 0080
000000a0: 4d94 c9bd 87c0 063d 106f cebc dd11 0e3d
000000b0: 2898 0080 8a05 b938 512e 88b2 4709 e03c
000000c0: 09a9 0000 cd88 0080 ed5c 0080 1c52 0080
000000d0: 9683 0000 139c 0000 5fa9 0080 cd8f 0000
000000e0: b788 0000 8886 0080 268f 0080 622f 50bb
000000f0: 93ec 49bb d263 0000 f897 0080 4d4e 0000
00000100: fd81 0080 707c 0080 9b5a bd3c da8a 0080
00000110: 8e91 0080 3382 c33d c4a8 5cbc 16cf d0b6
00000120: 979b 0000 4ac5 933d 2811 a2bc 869d 0000
00000130: 378d 0000 e55a 8cbb f194 0080 4647 0080
00000140: 3254 0080 b073 0080 2182 0080 a08f 0000
00000150: 084b 0080 48f7 4cbd d44c 623e ac5b 0080
00000160: 4fd3 acbc 4c96 0000 8b1e 5c3e bd0d 37bc
00000170: d81b b63b fb7a 08bd e7be 0ebd aea2 843c
00000180: 917a 203d 3f93 0080 5738 d2bc 8e28 353a
00000190: b1b3 4fbc ddf4 d63e 1349 373e 8a67 36bc
000001a0: cd17 6c3c e886 0080 ffa6 0080 e0e5 d5bb
000001b0: b66a 97bc e73a 2b3d 5e6f 8fbd 4a88 0000
000001c0: 13d5 14b8 592d e233 5859 a0bc 4191 0080
000001d0: c990 0000 f08e 0080 1f9b 0080 66a7 0000
000001e0: de74 0000 ed9a 0000 6d93 0000 c98f 0000
000001f0: 3b31 0000 ba8c 0000 4b25 89bc 2fa3 383b
00000200: 9d83 0080 1798 0000 1904 0000 479a 0080
00000210: c381 0000 1f66 f3b9 fe8b 0080 f57b 0000
00000220: d3f0 be3e d450 82bb 9c57 e639 8d8c 0080
00000230: db21 a0be 0928 f33d 1587 0000 82a6 0000
00000240: bfa9 f13c 7b93 0080 bf60 0000 388c 0080
00000250: c892 0000 9e82 0000 f17e 0080 7f8a 0000
00000260: 9a6a 01be d6b5 70be ef86 0080 51e8 e33a
00000270: 4824 0080 6b89 b6bd 3bbb 4d3c 0eea b6bc
00000280: 0af7 eabc ccd9 60bb b6dc 2c3d 9ff4 5c3c
00000290: 99ae 0080 7d77 d03d 5244 a0bc d7a3 0b3e
000002a0: a05d 2ebd cb53 b0bd 29ba c1bb 7bfc c23d
000002b0: b588 0080 e286 0080 3b0f 533e bacc fdbd
000002c0: ba99 453d 0f76 653d f677 0000 72a5 8cb8
000002d0: 07f4 9035 a4c8 f9bc 3a98 0080 df5b 0080
000002e0: ad8a 0080 5494 0080 c853 0000 008a 0080
000002f0: 678c 0000 04a4 0000 5d9f 0000 ab79 0000
00000300: fc31 0000 114d 563d 26bb 2f3b b48e 0000
00000310: fda0 0000 6e84 0080 b37f 0080 7f62 0000
00000320: 256f 42be ba5f 0000 4582 0000 a0c7 97bc
00000330: 6af9 403b 17fe 92b7 1824 0000 1bbf 8c3c
00000340: 3d8b 11bc f481 0080 b58e 0080 4a32 70b9
00000350: f28d 0000 6c64 0080 a181 0080 0741 0080
00000360: 21ad 0080 e05a 0080 3554 0080 a789 1bbc
00000370: 3d84 543c 0c91 0080 e930 c6bb 066a 0080
00000380: 928f 14bc f73a d83a 194b 213a 8b39 403b
00000390: 626a 70bb 4fb5 00bc 73bd c637 c079 0000
000003a0: de1e 1cbc 93ad 2439 c4ca fbbb 968a 453e
000003b0: 7868 97bc ed5c b43a eda0 813a 2b9f 0000
000003c0: 2084 0080 419f 39bc 886b feb9 6bdb 77bb
000003d0: 254e a4bb 1f8f 0080 80ae d338 917c b232
000003e0: 951e 313c 30ad 0000 ab8e 0080 4c42 0080
000003f0: f183 0000 f1a2 0000 d734 0080 686a 0000
-5.4254e-41 5.4903e-41 -0.07140507 -0.0010364557 -0.00021174886 -2.3077e-41 0.1274577 -0.041624174
-5.369e-41 -5.3727e-41 -0.013054317 -5.1736e-41 -4.6142e-41 3.0188e-41 6.2246e-41 -4.9904e-41
5.0323e-41 4.4182e-41 0.08167688 0.2146795 2.8e-42 0.08822349 -4.9101e-41 0.00030064862
-0.0010577926 0.015495387 0.040536333 -0.15238695 -0.015034412 0.017640991 -4.8255e-41 -0.114336245
0.006074329 -0.05093616 0.036260135 0.09773643 0.0079205 -0.029194104 4.9106e-41 -4.9179e-41
-0.09842739 0.032898452 -0.025199443 0.034685005 -5.4583e-41 8.822519e-05 -1.5853546e-08 0.027348174
6.0638e-41 -4.9075e-41 -3.3335e-41 -2.9455e-41 4.7204e-41 5.5989e-41 -6.0759e-41 5.1586e-41
4.9044e-41 -4.8261e-41 -5.1352e-41 -0.0031766524 -0.0030811175 3.5809e-41 -5.4516e-41 2.8089e-41
-4.6631e-41 -4.464e-41 0.023114493 -4.981e-41 -5.2215e-41 0.09546318 -0.013467971 -6.222991e-06
5.5815e-41 0.07215364 -0.019783571 5.6509e-41 5.0658e-41 -0.0042832964 -5.343e-41 -2.5568e-41
-3.0204e-41 -4.1501e-41 -4.6681e-41 5.1523e-41 -2.6916e-41 -0.050040513 0.2209962 -3.2886e-41
-0.021096854 5.3916e-41 0.21496026 -0.011172709 0.0055575185 -0.03332041 -0.034850027 0.016190853
0.03917939 -5.2822e-41 -0.02566163 0.0006910645 -0.012677119 0.4198369 0.1789897 -0.011133084
0.014409971 -4.8395e-41 -5.9907e-41 -0.0065276474 -0.0184835 0.04180422 -0.070036635 4.8891e-41
-3.548439e-05 1.0532194e-07 -0.019573852 -5.2107e-41 5.1939e-41 -5.1276e-41 -5.5647e-41 6.0051e-41
4.1924e-41 5.5577e-41 5.2886e-41 5.158e-41 1.766e-41 5.0483e-41 -0.016741415 0.0028173437
-4.7214e-41 5.456e-41 1.47e-42 -5.5344e-41 4.655e-41 -0.00046424658 -5.022e-41 4.4467e-41
0.3729311 -0.0039769206 0.00043934293 -5.042e-41 -0.3127583 0.118728705 4.8458e-41 5.9732e-41
0.029499887 -5.2906e-41 3.4706e-41 -5.0301e-41 5.2655e-41 4.6857e-41 -4.5538e-41 4.9683e-41
-0.12638322 -0.23506865 -4.8405e-41 0.0017387961 -1.3015e-41 -0.08912929 0.012556846 -0.022328403
-0.02868225 -0.0034309505 0.042202674 0.013486057 -6.2634e-41 0.101790406 -0.019563828 0.13636719
-0.042569757 -0.08609732 -0.0059120846 0.09520813 -4.9041e-41 -4.8387e-41 0.20611279 -0.12392564
0.04824231 0.056020793 4.3034e-41 -6.706537e-05 1.0799857e-06 -0.03049118 -5.4609e-41 -3.2957e-41
-4.9747e-41 -5.321e-41 3.0055e-41 -4.9505e-41 5.0367e-41 5.8838e-41 5.7169e-41 4.3646e-41
1.7931e-41 0.05231959 0.002681443 5.1192e-41 5.7752e-41 -4.7507e-41 -4.581e-41 3.5334e-41
-0.18987711 3.434e-41 4.6732e-41 -0.018527806 0.0029445537 -1.7522876e-05 1.2948e-41 0.01718097
-0.008883295 -4.6618e-41 -5.1194e-41 -0.00022906918 5.092e-41 -3.6025e-41 -4.6502e-41 -2.3327e-41
-6.2107e-41 -3.26e-41 -3.0208e-41 -0.009493268 0.012970981 -5.2033e-41 -0.006048311 -3.8034e-41
-0.009067433 0.0016497065 0.0006152853 0.0029331173 -0.0036684503 -0.007855727 2.3691658e-05 4.3676e-41
-0.009528844 0.0001570492 -0.0076840837 0.19291148 -0.018482432 0.0013760604 0.0009889879 5.7099e-41
-4.7398e-41 -0.011329473 -0.00048526772 -0.0037819992 -0.0050141984 -5.1342e-41 0.00010093767 2.0778574e-08
0.010810514 6.2128e-41 -5.118e-41 -2.3783e-41 4.7332e-41 5.8452e-41 -1.8955e-41 3.8171e-41

gats.0.lin_l.bias f4 [335]
00000000: 2629 e23d 0b87 23bc 6bb3 2fbb b53f e63a
00000010: 7466 5fbd f7f6 ab39 0a09 ea3a a1cb da3a
00000020: 7ded c33d 84c5 b73a 68ab 153e f6a6 903d
00000030: 484a a8b7 b7cd 9eba 7683 3b3d 72ad 5a3d
00000040: b9b3 0e3c dc69 5cbc 8744 bcbb 3185 3a3c
00000050: 2f3c 97bd 879c b7bd 00ee 513c 5df0 73bd
00000060: 2511 bebd f953 f9bd bccf d039 5a9f 4c3c
00000070: 93fb 6c3d 81c6 813c e695 ab3a 646d 6cbb
00000080: 93ef d739 c4f6 1bbd 92e9 103a c3ec e7bc
00000090: a8e4 2c3b 5207 debc 07b2 2d3d d398 5237
000000a0: 0f0d a23c ed66 4e3d 0ce8 c9bd f023 77bd
000000b0: 1efd 903c 87e9 9dbd e093 813a 3566 53bd
000000c0: a909 e03c 16c6 6abc dac2 503d 35db 7a3b
000000d0: b768 20bc 62bb e239 56f8 e13b ccb0 d939
000000e0: 1cf6 b1bd 0931 ba3a 1d91 b73c 88b7 e0bd
000000f0: 1662 903b d898 dd3d 93bc bc39 e7b9 403c
00000100: 87fb a2ba 360f 94bd 5bce e03a 9567 3cbb
00000110: 0a8d 9abd 7d0d a9bb a013 91bb 4d99 bb3d
00000120: 556c 1e3a feaf cdbc cb58 e23a b26e dcbc
00000130: 7ecc 8dbc 0c74 2d3e 5802 9fbc 8b64 2039
00000140: 28cf 01bb 5e57 20bc 1581 3dbd 5360 59bb
00000150: 724a a2bc c8ca f8bc 000f 25bd 7799 44bc
00000160: 98cc 81bd 9043 ec3d d8f1 86bc 9829 98bd
00000170: 3d8c 51bd 250e e4ba 99cf bcbd 4d7a b7bd
00000180: 9cc7 923c b5ac 13bb 074c 93bb c64f f1b8
00000190: e8e0 16be e4fe d4ba 0fe3 5d3d 5feb d93a
000001a0: a215 12bd 1a43 823c e04f bfba e49d 33bd
000001b0: 6185 50bd db1d 3dbd 514f f6bd af11 5abd
000001c0: d36f abbc 929e cd3a 02f4 b13c 0042 71bd
000001d0: 3470 39bd e4c3 07bd ab64 993b f35c 4abd
000001e0: 3ea9 90ba 0f3e a8bd 4674 ca3a 4da3 51bd
000001f0: fc6a fcbd da81 943d 874c bdbd 64f4 2e3b
00000200: 0d45 1a3e 1884 7a38 c11f 01bd a2af 10bd
00000210: 5853 b3bd e381 8abd 192c 6bbb 3721 973d
00000220: 2031 c7bd 8da3 28bb baa0 163d c3fb 96bb
00000230: 4152 4639 cdfa d53a c2eb 58bd 94bf d33a
00000240: 100a 373e 904f 4bbc 9286 5f37 2761 acb9
00000250: 6301 b93c b251 fd3c 864e e5bd c94a 63bc
00000260: ff3a 10bc f478 7cbd fca9 10bd 61ce de3b
00000270: 3c8d ad3d 7cf7 3fbd 8b17 82bd a111 e83c
00000280: 6e9b 9c39 46de 7d3b 1088 793d 6f75 1a3e
00000290: 25f0 5eb8 ef90 363d 2b41 1e3a c832 cebd
000002a0: 9fd8 6b39 3172 b9bd 12a4 253b dd5e a03a
000002b0: 1a0c aa3d 79b5 cb38 876e c73d 0a56 0ebd
000002c0: a6ca 153e 8037 ccba 9d45 643d 57e6 ff3c
000002d0: 3a06 8d3a 31ae 0ebc c4c6 523d a33b dc3d
000002e0: 138b 00bd fe7c 8f3b ead0 91bd f556 c6ba
000002f0: 2856 3ebc 732a 4737 d98e 34bd 2bf9 cc3a
00000300: d451 293d febd a33c f9d2 9d3b 65bf 98bd
00000310: 24f9 393a 5f82 70bd 4ccc f53c e6da 23bd
00000320: 257a 9c3c 1524 3bbb 9c35 4bbc 44d9 023e
00000330: 3dbb bc3a 305b ee3d 7cf3 c639 0d2e 293b
00000340: 8eee bb3a 1ea7 743d d950 aa3a 5b36 803d
00000350: b84c 67bb 7323 3a37 bf18 98bc 8ae0 293d
00000360: 6180 90bc e637 3fbb 6b43 01bc 3fe5 b73d
00000370: 92bd 02bd da09 8a3b d3fe c53d 7315 edbc
00000380: be9c 6abc 8926 4dbd 67c9 f7bc 723a 103a
00000390: 70d8 213c 388a 8c3d e391 be3c b50b a637
000003a0: b6a7 cdba 4f27 963a 49d9 023d 0ee1 9a39
000003b0: dc33 5a3d b4c2 363b 62c7 833c 5404 193d
000003c0: ca83 f1b7 f979 50bd 8ee6 e43b 7e83 b83d
000003d0: 223f c43d a904 fb3c 2b02 a33d 4734 9e3a
000003e0: 25a0 ebbd cf1c eebc 5a42 963d cabc a4bd
000003f0: 548b 9d3b 9b90 3f3d d51f 96b9 19f3 903b
0.11043005 -0.009980927 -0.0026809822 0.0017566594 -0.054541066 0.00032799665 0.0017855477 0.0016692766
0.09566782 0.0014020656 0.14616168 0.07063095 -2.006175e-05 -0.0012115751 0.045779668 0.053388067
0.008709841 -0.013452973 -0.005745474 0.011384294 -0.07384526 -0.08965402 0.012813091 -0.0595554
-0.09280614 -0.1217422 0.00039827626 0.012489164 0.057857107 0.015841724 0.0013090938 -0.0036075944
0.00041186492 -0.03807713 0.0005527969 -0.028311139 0.0026381407 -0.0271031 0.04240611 1.2552558e-05
0.019781617 0.050391126 -0.098587126 -0.060337007 0.01769882 -0.077105574 0.0009885989 -0.051611144
0.027348356 -0.014329454 0.050967075 0.003827763 -0.009790591 0.0004324569 0.006896059 0.0004152119
-0.0868952 0.0014205287 0.022408063 -0.10972506 0.004406224 0.10820168 0.00035998653 0.011763073
-0.001243458 -0.07229464 0.0017151342 -0.0028748263 -0.07546432 -0.0051590786 -0.0044273883 0.09160099
0.00060433644 -0.025108334 0.0017268894 -0.026908252 -0.017309424 0.169388 -0.019410297 0.00015296244
-0.0019807313 -0.009786455 -0.04626568 -0.0033168986 -0.019810889 -0.030370131 -0.04029751 -0.0119994795
-0.06337851 0.11536324 -0.016472742 -0.074298084 -0.051159132 -0.0017399235 -0.092192836 -0.08958874
0.017917447 -0.0022533361 -0.004495147 -0.000115066345 -0.14734232 -0.001625028 0.054171618 0.0016625932
-0.035665162 0.015901137 -0.0014595948 -0.043851748 -0.05090845 -0.04617105 -0.12026847 -0.05323952
-0.020927345 0.0015687516 0.021722797 -0.058900833 -0.04527302 -0.0331458 0.00468119 -0.04940505
-0.0011036766 -0.08214962 0.0015446029 -0.051181126 -0.12325093 0.0725133 -0.09243112 0.002669596
0.15065403 5.9727667e-05 -0.031524424 -0.035323747 -0.08756131 -0.06763055 -0.0035884439 0.07379382
-0.09726167 -0.002573225 0.036774375 -0.004607649 0.00018913393 0.0016325355 -0.05295921 0.0016155117
0.17874932 -0.012409106 1.3323168e-05 -0.0003287878 0.022583669 0.030922744 -0.11196618 -0.013872811
-0.008803128 -0.061638787 -0.03531836 0.0067995046 0.08474204 -0.04686688 -0.06352147 0.028328719
0.00029870443 0.0038737222 0.060920775 0.1508386 -5.3152577e-05 0.044571813 0.00060369325 -0.100682795
0.00022492044 -0.090549834 0.0025274795 0.0012235303 0.083030894 9.713596e-05 0.09737878 -0.034750022
0.14628085 -0.0015580505 0.05573045 0.031237764 0.0010759302 -0.008708523 0.05145909 0.10753562
-0.03138263 0.004378914 -0.07119925 -0.0015132116 -0.011617221 1.1871208e-05 -0.044081543 0.0015638223
0.041337803 0.019988056 0.0048164097 -0.074583806 0.0007094315 -0.05871808 0.030004643 -0.04000368
0.019101212 -0.0028555442 -0.012402918 0.12778193 0.0014399063 0.116384864 0.00037946913 0.0025814802
0.0014338063 0.059729688 0.0012994065 0.062603675 -0.003529353 1.1094718e-05 -0.018566487 0.041473903
-0.01763934 -0.0029177605 -0.007889609 0.08979272 -0.03191907 0.0042126 0.096677445 -0.028940892
-0.014319597 -0.050085578 -0.030247403 0.0005501873 0.009878263 0.06862301 0.023262924 1.9794194e-05
-0.001569024 0.0011455807 0.0319455 0.00029540848 0.053272113 0.0027887048 0.016086284 0.037357643
-2.8790808e-05 -0.050897572 0.006985492 0.09009455 0.09582354 0.03064187 0.07959398 0.0012070023
-0.115051545 -0.029066471 0.07336874 -0.08043821 0.004807869 0.046768766 -0.00028633946 0.0044235107

gats.0.lin_r.weight f4 [335, 67]
00000000: 32a9 0080 745f 0080 37f7 8c3d f0aa c3b9
00000010: eb43 28b3 839a 0000 4080 be39 4053 0080
00000020: 8e70 0080 d059 0080 3b9a 0080 f48c 0080
00000030: 7b67 0000 34a0 0080 bb9d 0000 4877 0080
00000040: 5784 0000 0584 0000 339c 6a3b 1f6e ad3c
00000050: 6f14 0000 de8b 0000 378b 0000 97f0 e136
00000060: fe62 74bb 1d76 0bbb 54dc a2bc 5f2a 403b
00000070: 096c 6039 d120 7c37 cc22 0000 0522 853b
00000080: 89e3 e738 3293 4b39 527a 94b9 77d5 503b
00000090: 72e4 ddb8 c746 6338 197b 0080 c589 0000
000000a0: e592 7d3b b973 1a3b 218b cab8 7417 0bbc
000000b0: 695b 0000 668f 30b6 ae55 81af b6d9 2dba
000000c0: 9d85 0000 249d 0080 ad5a 0080 5da5 0080
000000d0: 8f8f 0080 c786 0080 ac71 0000 108e 0080
000000e0: 8b54 0080 ed78 0080 617f 0080 0c9c b4bb
000000f0: ab58 e8b9 c096 0080 c582 0080 b26d 0000
00000100: a9a9 0080 0184 0000 2b21 2639 d583 0080
00000110: bf8d 0080 e9ff df39 e4a0 24b9 ad71 8db5
00000120: 537f 0080 4655 a539 1e2b 0000 0c8e 0080
00000130: f276 0000 52c5 333a ea73 0080 8e8b 0080
00000140: b487 0080 b477 0080 ec87 0080 0c9e 0080
00000150: 6185 0080 bace 4fbb 4294 133d 2d98 0080
00000160: 6d26 4d3a fd82 0000 fcf3 7d3b 6f29 2bb9
00000170: 07e2 19bb f922 8bbc 14f8 48b9 ac56 5fbb
00000180: 1e5d 9139 4781 0080 504a 2e3a c995 69ba
00000190: 1e0a 343b a295 c4b9 9546 bd3a afe1 b5ba
000001a0: 82af 2438 c6a5 0000 193d 0080 8780 f0bb
000001b0: 97b2 8938 d74a 4fb9 dec8 263b 4481 0080
000001c0: 28d5 232e b71f 85ae 3dc4 5fbb 0ab0 0000
000001d0: 14ad 0000 4f4f 0000 3b83 0080 048d 0080
000001e0: d375 0080 9285 0080 2d84 0080 3892 0080
000001f0: e281 0080 e8a2 0000 0bd5 d339 d847 3bb9
00000200: 277e 0080 ae79 0080 bd8a 0080 838b 0080
00000210: 5b98 0000 6bfe 39b9 9733 0000 31a1 0080
00000220: cbe1 1d39 ab96 9036 719b c136 089b 0080
00000230: b00b bb39 a75c 0000 e071 0000 e099 0080
00000240: 89e5 b33c 887b 0000 fc40 0080 9581 0000
00000250: b063 0000 b07c 0080 ba86 0000 a544 0080
00000260: 8e09 ab3d 35b8 0fbd f59c 0000 d2e4 cabd
00000270: f952 0000 bdd8 09bd 598b b93a d505 f03a
00000280: 81e9 58bd 4747 7cbb 9a08 00bc 3fa9 4b3a
00000290: 4182 0000 0fc9 24bd 42e5 6ebb 7997 983d
000002a0: 83b5 26bc d5d1 a839 39f2 abbc c1d4 2937
000002b0: 9779 0000 ff99 0080 b023 f13c 3fff 5dbe
000002c0: 333d 6abb 87d1 883b 4c7f 0080 2284 9937
000002d0: e1fb d52b 9867 c8bc 098b 0000 d087 0080
000002e0: cdad 0080 e267 0000 b8a9 0080 9b88 0080
000002f0: f188 0000 f157 0080 984f 0000 9f60 0000
00000300: 6062 0080 6e32 993c c80e 86b8 d08a 0000
00000310: 8e76 0080 f583 0000 fd85 0080 1972 0000
00000320: 108b 5839 8d4b 0000 374e 0080 6584 f0ba
00000330: ec6e 0c39 dda7 3cae a58d 0000 5a77 bbb9
00000340: 59a8 f1ba 648d 0080 8c62 0080 bbab 0080
00000350: bd8f 0080 0282 0000 c7a5 0080 9421 0080
00000360: b1a7 0080 c194 0000 ab9f 0080 b6f5 033b
00000370: 0acf a23b d77e 0000 f91f 413a b481 0080
00000380: 566a 9a3a 635a 2338 d7ba 3f3a 0695 683b
00000390: 8eb5 133a 708a 9b37 fce0 0f39 3584 0000
000003a0: febb 0db8 cc19 c839 5498 1b3b 28fa 94b8
000003b0: d475 393b 939c e639 5be4 0037 1ea0 0000
000003c0: cf42 0080 025e 93b9 6d78 af39 6b07 b9b8
000003d0: 0e11 093a b4a9 0000 0a0e 2038 1cd9 802e
000003e0: 238a f9b8 7786 0000 a572 0080 986c 0000
000003f0: 0a8a 0000 a086 0080 799f 0000 1478 0000
-6.0696e-41 -3.4242e-41 0.0688309 -0.00037320657 -3.917732e-08 5.5428e-41 0.00036335178 -2.9864e-41
-4.0377e-41 -3.2219e-41 -5.5327e-41 -5.0564e-41 3.7122e-41 -5.747e-41 5.6583e-41 -4.279e-41
4.7475e-41 4.736e-41 0.0035798668 0.021170674 7.33e-42 5.0175e-41 4.9941e-41 6.733531e-06
-0.003729045 -0.0021280118 -0.019880451 0.002932213 0.00021402551 1.5028011e-05 1.2483e-41 0.0040628933
0.0001105732 0.00019414423 -0.00028319896 0.0031865516 -0.000105806525 5.4186934e-05 -4.4159e-41 4.9422e-41
0.0038692292 0.0023567511 -9.6580254e-05 -0.008489478 3.2792e-41 -2.6309513e-06 -2.3525842e-10 -0.0006631868
4.7931e-41 -5.6371e-41 -3.2528e-41 -5.9321e-41 -5.1499e-41 -4.8349e-41 4.0778e-41 -5.0962e-41
-3.0328e-41 -4.338e-41 -4.5695e-41 -0.0055117663 -0.0004431655 -5.4079e-41 -4.6911e-41 3.9351e-41
-6.0863e-41 4.7354e-41 0.0001584335 -4.7292e-41 -5.0849e-41 0.00042724542 -0.00015700195 -1.0538403e-06
-4.5675e-41 0.00031534786 1.5468e-41 -5.0957e-41 4.267e-41 0.0006857711 -4.1582e-41 -5.0063e-41
-4.8681e-41 -4.2941e-41 -4.876e-41 -5.6697e-41 -4.7847e-41 -0.0031708912 0.03603006 -5.459e-41
0.0007825855 4.699e-41 0.0038750162 -0.00016323266 -0.002348067 -0.01698445 -0.00019165903 -0.003407876
0.00027725933 -4.6376e-41 0.00066486467 -0.00089105644 0.002747185 -0.00037495518 0.0014440591 -0.0013876463
3.92641e-05 5.9468e-41 -2.1918e-41 -0.0073395404 6.565934e-05 -0.00019768938 0.0025449316 -4.6372e-41
3.725123e-11 -6.0537735e-11 -0.0034144067 6.3151e-41 6.2089e-41 2.845e-41 -4.7077e-41 -5.0587e-41
-4.2267e-41 -4.7916e-41 -4.7416e-41 -5.2453e-41 -4.6593e-41 5.844e-41 0.00040403786 -0.00017860474
-4.5255e-41 -4.365e-41 -4.977e-41 -5.0047e-41 5.4655e-41 -0.00017737753 1.8507e-41 -5.7825e-41
0.00015056801 4.3090745e-06 5.769944e-06 -5.5615e-41 0.00035676127 3.3237e-41 4.085e-41 -5.52e-41
0.021960037 4.4315e-41 -2.3312e-41 4.6485e-41 3.5761e-41 -4.473e-41 4.8331e-41 -2.4625e-41
0.08351432 -0.035087783 5.6306e-41 -0.09906925 2.9765e-41 -0.033653963 0.0014155909 0.0018312285
-0.05295706 -0.0038494633 -0.007814551 0.0007769055 4.6726e-41 -0.040230807 -0.0036452566 0.07450766
-0.010175112 0.00032199794 -0.020989524 1.0122721e-05 4.3618e-41 -5.5243e-41 0.029435962 -0.216794
-0.0035742044 0.004175368 -4.5666e-41 1.830055e-05 1.5204471e-12 -0.02446346 4.9876e-41 -4.872e-41
-6.2348e-41 3.7266e-41 -6.0884e-41 -4.9005e-41 4.9125e-41 -3.1547e-41 2.8553e-41 3.4661e-41
-3.529e-41 0.018700805 -6.392371e-05 4.9797e-41 -4.253e-41 4.7337e-41 -4.8066e-41 4.093e-41
0.0002065117 2.7103e-41 -2.8058e-41 -0.0018350004 0.00013392762 -4.2895344e-11 5.0812e-41 -0.00035756343
-0.0018437012 -5.0721e-41 -3.5352e-41 -6.1605e-41 -5.1564e-41 4.6638e-41 -5.947e-41 -1.2046e-41
-6.0156e-41 5.3363e-41 -5.7278e-41 0.0020135469 0.0049685286 4.5502e-41 0.000736713 -4.6529e-41
0.0011780958 3.8946408e-05 0.0007313913 0.0035489216 0.0005634659 1.8541905e-05 0.00013721356 4.7427e-41
-3.37921e-05 0.00038166193 0.0023741918 -7.103785e-05 0.002829899 0.00043985675 7.682563e-06 5.7439e-41
-2.3966e-41 -0.00028108066 0.00033468325 -8.822869e-05 0.00052286766 6.0878e-41 3.8160048e-05 5.8593325e-11
-0.00011898975 4.8237e-41 -4.1127e-41 3.8956e-41 4.9519e-41 -4.8294e-41 5.7208e-41 4.3076e-41

gats.0.lin_r.bias f4 [335]
00000000: b8f3 f33d e39c 913b cdc6 b43d bd7a 743b
00000010: 5563 bebc faf2 cf3a cbd4 053b 671a a9b8
00000020: c4c2 803e 4464 1739 0ef6 483e 6d01 693e
00000030: 31b9 0ab7 9c2c 9c3a a4ce e53d f395 623e
00000040: 13cf 273e 32a2 a8b7 cdac 023b 24ef 313e
00000050: 6aa5 8d3b e006 11ba ed92 c93d 0f58 d03a
00000060: 8201 223b 7979 163a 0f9d e7b7 198e a83a
00000070: 64cc 753e de7f 0fbb ecf2 a9b8 5cb2 0cba
00000080: 8946 bdb9 38ee b5bb bebe 813a 06e4 9d3d
00000090: 0a8c 36b8 7836 943b 78ec 413e 7267 8d3a
000000a0: 6bf5 46bc f73c 3c3b aa1d 573a a809 2d3d
000000b0: aba6 1abc 4eac 703b 9bf1 bf39 00c1 a0bc
000000c0: c20d 58bb 9e88 123e 984b baba b849 da39
000000d0: 6c4f f13d cc71 ae3a a9df 0b39 ffd2 123a
000000e0: 4b1f 0bbb 7900 9bb8 71cb 353d aa35 833c
000000f0: 14ab f8b7 8928 a3bc 6fbb 9839 e80c 07ba
00000100: 272c d23d b133 ce3c cedb a0b9 9c30 3ab9
00000110: da48 97bc 0bbf f0ba c575 963c f2a3 233d
00000120: 1760 bf3a b938 d83c cb91 a039 5130 473c
00000130: ab34 273c 8786 fe3c 56a8 d1b8 2081 ff39
00000140: 1fb1 9f3a bcad 17b8 3a8c 2f3b 378e d8b8
00000150: de12 9cb9 dab0 e8b7 9319 0ebc 4711 6739
00000160: 64ca dabc bf6d 35bc d1ba 673b cc7c 633b
00000170: 1903 8c3d c5f2 063a 6ce7 b13c 6a11 f6bb
00000180: 9919 91bc 72ff d439 c092 20b9 d000 433a
00000190: cea0 acbb 029a 903a 396d 9bba d7fd eab9
000001a0: 4566 3b3d e3c9 16bc ac99 8f39 3206 023d
000001b0: b2eb 5ab9 a00d 1cbb 7957 89bc a5ea 30bc
000001c0: 963b 16ba b14f d53a 924b 87bc c54d fabc
000001d0: 81b5 e7bb e938 86ba fa27 203b 21e4 74ba
000001e0: 310e 6839 007e e3bc 80c4 ed3a e08e 1c3a
000001f0: da33 4c3d 6889 debb 5e3f ce3a 89f1 6739
00000200: ba03 e9bb dc2b 0d3a 8cdd 18ba f865 0dbd
00000210: 0856 04bc 59f5 3dbc 26fd efb6 75e5 c83c
00000220: 05d0 a73c 68cb fbb9 eaa8 e1ba 9430 20ba
00000230: dcc1 253a 5f6b e4b6 f329 8e3b a3a0 67b9
00000240: e40c 643d d09d a337 ba14 74b6 02dc 363a
00000250: 22d4 583d 4365 a8bc 141a 143d 9fbf d23a
00000260: a1c1 fc3a 74e5 6d3d 691d dc3c 0aee aa3d
00000270: 43eb 1e3d d4d2 4b3d adeb 1f3e ac82 e239
00000280: 2951 5c39 7ea9 723a 90d7 d83a d835 243e
00000290: b22e 5239 8c8f 743d 3932 c438 5e01 e03b
000002a0: e84d 7139 5ec3 23bb 16dd 1039 575b 41bd
000002b0: 50b6 313e 45a9 6139 5c45 d2bb 7a16 533c
000002c0: 45ef 8f3d e71a 6438 77a5 193e d4c8 46ba
000002d0: be69 4cb9 52da a93d 2eb9 44bd e3d3 4abb
000002e0: 949a 42bb 0a84 8339 ca9e f7bc 04b5 4339
000002f0: de76 a1bb 4a80 9939 a8ac 3dba 5c54 bf38
00000300: 6a8e 68bd d350 1f3d b22c a639 0e48 a9bb
00000310: a3df c639 7975 c939 58d3 233b 44f9 443d
00000320: 9efc b0ba 6440 3ab8 9703 0a3e e0ab 083e
00000330: 9497 ab38 6b57 c33d 2b3f ad39 86c8 99b8
00000340: 46e1 93b8 b35c 1a3e c79d f8b8 399a 443d
00000350: 986e c039 b9e2 53b7 e2aa 823d 0a0a 363d
00000360: 6b67 413e 1ac5 df38 757f 773a 1a8f fb3d
00000370: 4e85 a83d 25be 0fbc 661f c23c a315 cbbb
00000380: 07d4 913a f7be 213e de70 b2bc cac2 1d39
00000390: 5c19 893a 4574 c73d 9411 b73e 7291 3339
000003a0: 6548 b939 1015 5cb9 6b2b 18bd 800f ce39
000003b0: fcae 053d 0f0a 70ba 66ab fe3d 9948 db3d
000003c0: 069e 0837 4e06 24ba dcd0 06bb 7bb5 e33d
000003d0: bbd2 e13d 1828 dd3c 46ef b53d 54ee 0738
000003e0: cffc 1eba 6437 b5bc bd14 23bd e197 d43b
000003f0: 7b82 9a39 c0a1 143d 242f eb39 9698 72b7
0.1191172 0.004443751 0.08826981 0.0037304603 -0.023240725 0.0015865259 0.0020421024 -8.063466e-05
0.25148594 0.00014437834 0.19625112 0.2275445 -8.268559e-06 0.001191515 0.11221054 0.22127514
0.16387586 -2.0102689e-05 0.0019939423 0.17376381 0.0043226974 -0.00055323355 0.09842477 0.0015895384
0.0024720137 0.0005740147 -2.7610482e-05 0.0012859731 0.2400375 -0.0021896283 -8.103796e-05 -0.0005367154
-0.00036101442 -0.0055520795 0.0009898765 0.07709508 -4.3522603e-05 0.0045230947 0.18937862 0.0010788275
-0.012143473 0.0028722861 0.00082060194 0.042245537 -0.009439151 0.0036723795 0.0003661037 -0.01962328
-0.0032967185 0.14309928 -0.0014213203 0.00041635125 0.11782727 0.0013309061 0.00013339393 0.0005600899
-0.002122837 -7.391064e-05 0.04438347 0.0160168 -2.9643568e-05 -0.01991679 0.00029131348 -0.00051517645
0.10262328 0.025171133 -0.00030681345 -0.0001775645 -0.018467356 -0.0018367482 0.018366704 0.039951272
0.001460078 0.026394235 0.00030626202 0.012157516 0.010205428 0.031070007 -9.9972516e-05 0.00048733596
0.0012183524 -3.616301e-05 0.0026786462 -0.00010326172 -0.00029768696 -2.7738908e-05 -0.00867309 0.00022036313
-0.026707835 -0.011073529 0.0035359154 0.0034711836 0.06836528 0.000514787 0.021716796 -0.0075094
-0.017712401 0.00040626113 -0.00015313458 0.0007438781 -0.005268193 0.0011032226 -0.0011858112 -0.00044821083
0.04575183 -0.009203407 0.0002738958 0.03174419 -0.00020877903 -0.0023811832 -0.016765343 -0.010798131
-0.0005730925 0.001627436 -0.016515527 -0.030554662 -0.0070711975 -0.0010240349 0.002443789 -0.0009341855
0.00022130531 -0.027770042 0.0018140227 0.0005972218 0.049854137 -0.0067912824 0.0015735438 0.00022119856
-0.00711104 0.00053852587 -0.0005831353 -0.034521073 -0.008077152 -0.01159414 -7.1522254e-06 0.024523476
0.020484934 -0.00048026 -0.0017216478 -0.00061107543 0.0006323138 -6.807429e-06 0.004338497 -0.00022089719
0.055676356 1.9504601e-05 -3.6370898e-06 0.0006975533 0.05293668 -0.020556098 0.036157683 0.0016078836
0.001928378 0.05808015 0.026869493 0.083461836 0.03879858 0.04976161 0.15617247 0.00043203437
0.0002101107 0.00092568237 0.0016543735 0.16036165 0.00020044556 0.05970721 9.355363e-05 0.0068361005
0.00023012573 -0.0024988274 0.00013815271 -0.04720625 0.17354703 0.0002152073 -0.0064169597 0.012883777
0.07028059 5.438449e-05 0.15004526 -0.00075830263 -0.00019494348 0.082935944 -0.048028164 -0.0030949048
-0.0029694187 0.00025084644 -0.030227084 0.00018664083 -0.0049275 0.00029278017 -0.00072355056 9.123303e-05
-0.05677644 0.03889544 0.00031695288 -0.0051660603 0.00037932125 0.00038425231 0.0024997797 0.04808928
-0.001350302 -4.4405824e-05 0.13477932 0.13346815 8.182149e-05 0.09538158 0.00033044195 -7.332959e-05
-7.051467e-05 0.15074424 -0.0001185495 0.04799864 0.00036703493 -1.2629368e-05 0.063802496 0.044443168
0.18887107 0.00010670182 0.0009441295 0.12283154 0.08228551 -0.008773361 0.023696613 -0.0061976477
0.0011125811 0.15795504 -0.021782335 0.00015045251 0.0010459828 0.097389735 0.357556 0.00017124953
0.00035339888 -0.00020988681 -0.03715078 0.0003930293 0.03263758 -0.0009156772 0.124350354 0.10707206
8.143024e-06 -0.0006257043 -0.0020571267 0.11118599 0.11026522 0.026996657 0.088835284 3.240847e-05
-0.0006064893 -0.022121139 -0.0398147 0.006487832 0.00029470384 0.03628707 0.00044857815 -1.4459851e-05

gats.0.lin_edge.weight f4 [335, 1]
00000000: 5b68 89be 9666 9cbc 1a1e 343f b77e 95bb
00000010: 228a 29bc 17e4 d5ba 10af 163b f432 7d3a
00000020: 2e03 783f 7aee 84ba c048 223f 0181 5b3f
00000030: d0d3 0d38 0bba 513a 60b7 fa3e f91b 0c3f
00000040: 9ec5 0a3f a624 3d3a 426a ef3a 42b9 a23e
00000050: eb67 6a3b 7429 5339 8d72 fbbc 37f2 87bb
00000060: 5e90 88bb 9200 beb9 0d7f 26b8 0bde 633b
00000070: cd6d 2d3f e9f0 75bb 1756 573a 1f11 c939
00000080: 30f7 4339 068f a3bb 0eb9 95ba 4bd5 34bd
00000090: f0a0 4bba 4d85 c83c cf9d 85be 4e85 28ba
000000a0: 9b9a 66bd 5f93 2c3b c453 323a 9d52 de3e
000000b0: d991 03bc 2616 17bc 7023 07ba c716 d23c
000000c0: 8f6d c9bc 87a6 563e a6cb 14bd 0c72 8bba
000000d0: 7306 033f 8a1d 7cba e4ba 5cba d4d1 55ba
000000e0: 4557 b63a 4f21 253a 718b e43d 46e7 cabb
000000f0: ce46 ac3a 5d37 25bc c59a 693a a28c 143a
00000100: 3d67 e5bd 9928 8ebc fc61 f53a 390f 55b7
00000110: d53d f3ba fdc7 b93a 427f ec3c e7a8 253e
00000120: da24 733b 9263 0e3d 7ccc e538 5dcf 093c
00000130: 12f6 4d3c 6337 b93d cbfe f639 10c8 6f3a
00000140: 3e5a 84ba 9378 27b7 bb6c 653b a5f8 ee39
00000150: efda 78b9 197a 2139 0866 c1ba 4bad 783c
00000160: c893 393b 6958 d93c b9c3 483b aa3b 793d
00000170: 70ea 683e b2c7 053c 6e04 e73d 729e bd3b
00000180: 9406 133e 450f 6739 6372 8f39 2ee4 fa3a
00000190: df84 93bb 1584 38bc 0d12 88ba 8c26 203a
000001a0: 55a5 a1bc 089f 133e c285 cb3b 5648 e6bc
000001b0: c0f5 15bc 1cdd 89ba 6ca2 a33e e8d8 b0bb
000001c0: f2d5 9ebb 7006 993b 840d 963e c7b9 b8bc
000001d0: 74ad d839 369d 233a 3e2b 8e3b f7b3 0b3b
000001e0: a4aa d13b ca19 593e bbfd 543c ae6c cdbb
000001f0: 9f49 1c3e cc13 933b d119 913b 378e 8bba
00000200: e967 143c 8b27 263a 761b cabb 27dc e0bb
00000210: 6790 613e 056e 98bb 0f80 d837 cd19 66bb
00000220: b290 2a3f 7bf7 b2bb e5da c33b 6fa5 6f3c
00000230: 461d 2b39 99bc 3638 ac1d 013f b96c fab9
00000240: 58b7 fe3e 01e6 063b 0e6d 7c38 a4f3 023b
00000250: 2ac7 a53e a5a4 f83a 9dc8 9c3e 4b59 783a
00000260: a0ba cf3a e478 123f 5ae2 df3d 8cc5 d43e
00000270: 3007 9bbc 4d5e aa3d 4285 d33b 5f59 db3e
00000280: 8d29 6e3a ba9d 02bb 3cfd 98ba ea17 45bd
00000290: 7a96 5b3a 8ac1 b13e fe26 4f3a f9a0 4e3b
000002a0: ecd3 3eba e798 003c b692 5b3a 1046 783e
000002b0: b524 1cbd 4d22 2eba 2e54 99bc c059 b5ba
000002c0: cc51 98bd 60cf a83b a0ff e23e dd9f 493c
000002d0: 55fe 1b39 3813 553e 2c4a f9ba 83a0 01bb
000002e0: f583 813b 2d25 043a 7ce9 e33e c5a8 08bb
000002f0: 239d 883e 56b3 11bb 43ae 8f39 8b5b e037
00000300: 2869 23bd 18c5 4d3e 5693 093a fcf1 96bb
00000310: 0ce9 743a 6b2e 9838 2d4b b3bb 3edc f0bb
00000320: 9f3a 56bc 5e1d d9b7 852f 093f 060c 2a3f
00000330: 0b38 f839 3ce8 64be 5761 86ba 6fd1 563a
00000340: 46dc 17b9 50ae 223f a279 5db9 c96f e7bd
00000350: f09c 65b9 7fb4 4b36 d344 1e3f 668a ad3e
00000360: 5a0b 27be da3d 83b9 36ab e739 9bb1 183f
00000370: d942 8abd 044a dbbb ce62 19be bdf2 fabb
00000380: cb14 993b 606e b9bd d8a1 bf3e 7570 4fb9
00000390: 876e 523b 7978 3fbe ba4a c23e b479 b8b8
000003a0: faf1 0b3a 6a43 293a ff5b d9bc efb9 abba
000003b0: cf55 88be 9d9a 753a efb3 183f e1e7 cabd
000003c0: aa79 c7b8 c601 983c 1147 143b 51b7 11be
000003d0: d74a 1a3f c7d0 263e cdbd 863e 817f 0f35
000003e0: 491f 20bc 5a05 9a3d 215c 9ebc f931 f1bc
000003f0: 5f49 083a 91e7 443e eaf7 17ba ad84 3cb9
-0.2683743 -0.019091886 0.7035843 -0.0045622247 -0.010347875 -0.0016318586 0.002299253 0.00096587767
0.9687985 -0.0010141872 0.6339226 0.8574372 3.3814285e-05 0.000800044 0.4896803 0.5473018
0.5420779 0.0007215239 0.001826592 0.31781965 0.0035767506 0.0002013797 -0.03069427 -0.0041487473
-0.0041676005 -0.0003624005 -3.969581e-05 0.00347698 0.6774567 -0.0037527627 0.00082144275 0.00038350464
0.00018688734 -0.004991415 -0.0011422948 -0.044148725 -0.0007767817 0.024477625 -0.2609696 -0.00064285554
-0.056299787 0.0026332957 0.0006802643 0.43422404 -0.008030378 -0.009221589 -0.0005155122 0.025645627
-0.024588374 0.20961963 -0.036327027 -0.0010638847 0.51181716 -0.0009617439 -0.0008420183 -0.0008156572
0.0013911506 0.0006299214 0.11159409 -0.0061921207 0.001314366 -0.010084 0.0008911307 0.0005666708
-0.11201332 -0.017353343 0.0018721218 -1.2699334e-05 -0.0018557856 0.0014173981 0.028869275 0.16177712
0.0037100823 0.034762926 0.00010957659 0.008411256 0.012570875 0.09043767 0.00047110612 0.0009146938
-0.0010097695 -9.982049e-06 0.0035007435 0.00045580152 -0.00023732682 0.00015399641 -0.0014755139 0.015178035
0.0028316844 0.026531415 0.0030634238 0.060847916 0.22745681 0.008165287 0.11280142 0.0057867104
0.14357978 0.00022035565 0.0002736031 0.0019141489 -0.0045019235 -0.01126196 -0.0010381356 0.00061092596
-0.019732157 0.14416134 0.0062110135 -0.028110664 -0.00915283 -0.0010518166 0.31959856 -0.005396951
-0.0048472816 0.004669957 0.29307187 -0.022549523 0.00041327963 0.0006241383 0.004338651 0.0021316984
0.006398516 0.21201244 0.012999947 -0.006269059 0.15262459 0.004488444 0.0044281264 -0.0010647242
0.009057977 0.000633829 -0.0061678244 -0.0068621817 0.22027741 -0.004651787 2.5808838e-05 -0.0035110593
0.6662704 -0.005461631 0.005977022 0.014626845 0.00016318736 4.3567827e-05 0.504359 -0.0004776472
0.49749255 0.002058387 6.0183047e-05 0.0019981647 0.32378513 0.0018969966 0.30621806 0.0009473755
0.0015848465 0.57215714 0.10931845 0.41556966 -0.018924326 0.08318768 0.0064550946 0.42841622
0.0009085171 -0.0019930438 -0.0011672149 -0.04811851 0.000837661 0.3471797 0.00079022336 0.0031529053
-0.00072795036 0.007848955 0.00083760486 0.24245477 -0.038120944 -0.00066426845 -0.018716898 -0.0013835952
-0.074374765 0.005151674 0.4433565 0.012306181 0.00014876698 0.20808113 -0.0019019297 -0.001977951
0.003952498 0.000504094 0.44514072 -0.0020852548 0.26682386 -0.0022232137 0.0002740492 2.6745509e-05
-0.039895207 0.20094717 0.000524809 -0.0046064835 0.0009342588 7.256571e-05 -0.005471608 -0.0073504737
-0.0130755 -2.5882091e-05 0.53588134 0.66424596 0.00047344 -0.22354215 -0.0010252398 0.000819466
-0.0001448254 0.6354723 -0.00021121514 -0.11300618 -0.00021897606 3.035442e-06 0.6182377 0.33894652
-0.16312924 -0.0002503235 0.00044187316 0.59646004 -0.067510314 -0.006692173 -0.14979097 -0.007658331
0.004671668 -0.090542555 0.37428164 -0.00019782952 0.0032109336 -0.186983 0.37947637 -8.796473e-05
0.00053384865 0.0006456884 -0.026533125 -0.0013101677 -0.26627967 0.00093690475 0.59649557 -0.09907509
-9.511721e-05 0.018555533 0.0022625367 -0.14230086 0.60270447 0.1629058 0.26316682 5.3457194e-07
-0.009773084 0.07520552 -0.01933104 -0.029442774 0.00051989214 0.1922896 -0.0005797135 -0.00017978503

gats.1.att f4 [1, 5, 67]
00000000: aed6 4f3a 663b 4fbf cbca 9d38 24ba 093a
00000010: 5f3b d7b8 7ba0 9d3a 519c 9bb7 f6d3 8039
00000020: c75b 483a 091d e63a 76c5 9238 be12 0d3b
00000030: 9062 2e3a f415 20bd 7308 1d39 1ab2 db36
00000040: 99c8 4e39 6faa 3039 8e8f dbbe 844f c138
00000050: 6c46 c03a 2ec5 f738 3293 ac3a 6d70 88b7
00000060: 509f bd38 aa16 6c3b e27e 4a3a 19b7 b73a
00000070: b081 bc3a e74c ae39 cd1e 1339 5695 563c
00000080: f371 dfb4 b1ad c03b 36b0 973b e8af a23a
00000090: 1e52 d3b6 5a06 22bf 3f99 d1bd 51ce 0b3c
000000a0: d5e9 f2be 067c 2aba 213d bf3a c54c e73b
000000b0: e527 6c3b 2a37 4b39 9266 8e3a 3746 2a3b
000000c0: 85b5 8b39 e91b 533e e64d 073b cebd 0e3b
000000d0: 57bf 3c3c f96b 093c 6378 4b37 eafc 5bba
000000e0: 0e78 31bf 1329 96be 1a21 b43a a157 c73a
000000f0: 65de e338 d44b d13a 909a f939 c469 b4b6
00000100: 93b0 a33a 46b7 8a3a f81a e93a 49d6 563a
00000110: ed8b 58bf 35ab 4638 36e8 b43a f571 ad39
00000120: 7282 ba3a ab6e 19b8 e296 063a 9b0d 453a
00000130: be6c bf3a bf0b a338 ad9c 013b cedc 283a
00000140: dd9c 85bd b9ad 3239 c658 5738 89e5 4c39
00000150: 1b20 4039 f000 d6be 2793 7a37 0f5e ab3a
00000160: 6e3e 0739 372b d33a 95e2 88b7 36af 1fb6
00000170: fb82 b43b deed b73b 0803 c73a 43c0 6f3a
00000180: 56b6 e339 87c7 f638 6961 723c df8e 11b9
00000190: 9506 b73b 3eed b73b b6b2 0d3c b044 c1b6
000001a0: b424 2ebf ebe9 f6bd 7681 c13a f712 ecbe
000001b0: 9b8a 03b7 3f9a 933b 8020 c23b 63c1 b7b8
000001c0: ff60 393a b7aa ba3a 447f 783b c083 9c3a
000001d0: f7da a23e 5aa5 8d3b 8082 113b ddf7 293c
000001e0: d4e2 0a3c d310 5b37 3169 d7b8 f798 21bf
000001f0: a668 9ebe a2b4 ea3a 2e00 ae3a 5749 1639
00000200: efd8 d63a b1f4 033a d005 feb6 7e8c 38b8
00000210: e8a0 893a 8fd9 e03a f0b5 633a e0a6 54bf
00000220: c288 9c38 039b a03a 62aa da39 1f6c de39
00000230: 909b 24b8 4a36 af39 0ec3 873a 4794 e03a
00000240: 31e2 6038 5e2b 073b 154e 253a 89ab aabd
00000250: 2afa 1739 a663 3438 c14d c6b7 b782 2c39
00000260: bcdd c9be 1f15 89b8 904d a33a f4ee 8c38
00000270: dcfc b13a e6ca 87b7 7c53 12b6 50ed 103b
00000280: 3b4d 923a 2604 ac3a 1fa3 91ba a37c e13a
00000290: 81f5 77b5 9bf9 583c b349 11b5 c9e3 c23b
000002a0: 5cd8 ac3b 661d b03b 01bd bbb6 9b0f 16bf
000002b0: dd86 2fbe 81a7 a43a f35b f6be ee74 dd39
000002c0: 4ae7 ab3a aff5 d63b f965 b33a 440b 9839
000002d0: 445f b23a 3a03 243b bf34 ba39 7758 9f3e
000002e0: 9eba e73b 0732 0d3b cc6d 303c 03fa 083c
000002f0: 30c5 5437 26ef 25b7 4d8a 33bf 0f2c a6be
00000300: 302a da3a 224d c13a 5919 1639 49e1 bc3a
00000310: cc59 1c3a 5965 64b7 16a9 6dba fda6 0d3b
00000320: 493d fb3a 635f d73a 93bb 30bf 948c 3b39
00000330: 3676 c33a 2059 b0b7 ef07 b43a 93f7 d6b7
00000340: b6a9 ae38 6a29 aa3a 11e6 c33a dfd0 c738
00000350: 7baf f53a 0a03 063a ce83 25be 0727 2f39
00000360: fa94 6838 9ac5 09b8 a3cd c13a 5dd5 adbe
00000370: eabe 5e39 1595 fe3a 34df a53a becd dc3a
00000380: 273a 8ab7 75ec 16b6 313a 14b8 22d2 a23a
00000390: 76ec 3739 6d0e 843a 894e 8c39 f643 5638
000003a0: 12bf 393c da95 12b5 6ec7 a63b 69b3 ad3b
000003b0: 375a 583b 0ea4 88b6 55d3 e4be aae7 6fbc
000003c0: 2cf0 bc3a 9176 9dbe 110d ccb9 dc18 b43a
000003d0: 4f34 dc3b a970 a2b8 862b 003b c4b9 db3a
000003e0: a258 003b 18b3 323a b226 b73d af28 ed3a
000003f0: 83d6 fa3a 0d62 2a3c 7904 fe3b f331 ca38
0.0007928413 -0.8095001 7.5241165e-05 0.00052538724 -0.000102630576 0.0012025976 -1.855023e-05 0.00024571986
0.00076430704 0.001755626 6.9986025e-05 0.0021526064 0.000665226 -0.039083436 0.00014975834 6.5474424e-06
0.0001972042 0.0001684816 -0.4288296 9.217768e-05 0.0014669425 0.000118146054 0.0013166426 -1.6264816e-05
9.0418966e-05 0.003602425 0.00077245955 0.0014016359 0.0014381912 0.00033245163 0.00014030487 0.013097128
-4.1619896e-07 0.0058800806 0.0046291603 0.0012412043 -6.2978497e-06 -0.6329094 -0.102343075 0.008533076
-0.47444025 -0.0006503466 0.0014590361 0.007058712 0.0036034521 0.00019380139 0.0010864309 0.0025981793
0.0002664739 0.20616116 0.0020645796 0.0021780613 0.011520228 0.008387559 1.2127773e-05 -0.0008391874
-0.69323814 -0.29328212 0.0013742775 0.001520861 0.00010865628 0.0015968033 0.0004760814 -5.3767308e-06
0.0012488536 0.0010583184 0.0017784527 0.0008195383 -0.8458851 4.7366328e-05 0.0013802114 0.00033082036
0.001422955 -3.658111e-05 0.00051341776 0.0007516981 0.0014604551 7.7746336e-05 0.0019777224 0.0006441594
-0.0652406 0.0001704012 5.134267e-05 0.00019540465 0.00018322507 -0.4179759 1.4935423e-05 0.0013074296
0.0001289786 0.0016110901 -1.6317974e-05 -2.3794832e-06 0.005508778 0.005613073 0.0015183399 0.00091457757
0.00043432665 0.00011767359 0.014793732 -0.00013881501 0.0055855014 0.0056129983 0.008648565 -5.7598445e-06
-0.68024755 -0.12056335 0.0014763314 -0.4610822 -7.84048e-06 0.0045044716 0.0059242845 -8.762141e-05
0.00070716435 0.0014241551 0.0037917653 0.001194112 0.31807682 0.00432269 0.0022203028 0.010374037
0.008476932 1.3057334e-05 -0.00010271592 -0.6312403 -0.30939215 0.0017906616 0.00132752 0.00014332436
0.0016391556 0.0005033715 -7.5704666e-06 -4.3999862e-05 0.0010500224 0.0017154681 0.00086864736 -0.8306713
7.464133e-05 0.0012253228 0.00041707145 0.00042423696 -3.9245526e-05 0.0003341905 0.0010357813 0.0017134034
5.361642e-05 0.0020625214 0.00063058856 -0.08333499 0.00014493676 4.300815e-05 -2.3639646e-05 0.00016451893
-0.39426982 -6.536603e-05 0.0012459029 6.720229e-05 0.0013579386 -1.6187736e-05 -2.180429e-06 0.0022114106
0.0011161932 0.0013123795 -0.0011111236 0.0017203282 -9.2371926e-07 0.013243104 -5.4123956e-07 0.0059475643
0.0052748155 0.0053745983 -5.5950372e-06 -0.5861756 -0.1714129 0.0012562127 -0.48117027 0.00042239524
0.0013115194 0.0065600495 0.0013687006 0.00029000093 0.0013608714 0.0025026337 0.00035515983 0.3112218
0.007071807 0.0021544711 0.010768365 0.008360389 1.2682096e-05 -9.8904475e-06 -0.70132905 -0.3245549
0.0016644653 0.0014747719 0.00014314557 0.0014410402 0.00059643085 -1.3613456e-05 -0.0009066028 0.0021614425
0.0019168045 0.0016431626 -0.69036216 0.00017886079 0.0014912549 -2.1022337e-05 0.0013735275 -2.5626074e-05
8.328578e-05 0.0012982313 0.0014945884 9.527965e-05 0.0018744314 0.0005112147 -0.16163561 0.0001670384
5.5451856e-05 -3.2847376e-05 0.0014786016 -0.33951846 0.00021242691 0.0019423092 0.0012655021 0.0016845984
-1.6477961e-05 -2.2489378e-06 -3.5340145e-05 0.0012422244 0.00017540329 0.00100751 0.00026761394 5.108487e-05
0.011337059 -5.46073e-07 0.005089692 0.0053009284 0.0033012757 -4.0722143e-06 -0.44692484 -0.014642635
0.0014414839 -0.3075452 -0.00038919647 0.0013740319 0.006720103 -7.7457466e-05 0.0019557192 0.0016763736
0.001958408 0.0006816848 0.089429274 0.001809379 0.0019137416 0.010399354 0.007751998 9.641414e-05

gats.1.bias f4 [67]
00000000: ab49 5eba f76a 023d abf6 9d37 9a84 b4b9
00000010: 026a f6b8 7459 aab9 301f b4b8 f768 9839
00000020: 6602 4cb9 c073 2f38 3e72 a037 1eef f638
00000030: 8aad 8438 df64 bebd dd0b 5ab8 97a8 fd38
00000040: 50d8 72b8 11c1 8f38 ec84 9cbd dc43 a138
00000050: ee0c 17b7 b028 dd36 b74b 7fba f227 d5b8
00000060: 8213 07b8 097d a938 6910 203a ff13 26ba
00000070: c275 bf38 d063 1fb9 4d5a e4b7 adda 093b
00000080: e597 c2b7 d808 83b9 82cf feb8 4bc7 96ba
00000090: 46b8 3636 0ffd b6bd 137d 63bd 77a0 99ba
000000a0: d198 29bd 3a5b 453a e284 22ba 7f3f 293b
000000b0: f5df bfbb 2b2e 32ba 40c8 3cb9 b14b 1c3b
000000c0: cf1c 2fb9 1aea 09be da1b a739 74d7 543a
000000d0: 86d9 59bb 483d 2ebb a626 bdb7 01bd 1138
000000e0: 134b 653c 0e82 5bbd 9d66 b93a 2644 e238
000000f0: 652f d838 5a25 17ba f40b 9e3a 06d5 0cb9
00000100: 27da 80b8 7f1a 95b9 3b82 b7b8
-0.00084796053 0.03184029 1.8830722e-05 -0.0003443107 -0.000117499396 -0.00032491575 -8.588878e-05 0.00029069904
-0.0001945585 4.1831052e-05 1.9126684e-05 0.00011774733 6.326575e-05 -0.092965834 -5.19863e-05 0.000120953824
-5.7898753e-05 6.854733e-05 -0.0764254 7.689718e-05 -9.003312e-06 6.59105e-06 -0.00097387604 -0.00010164072
-3.2204676e-05 8.0818376e-05 0.0006105961 -0.0006335377 9.129524e-05 -0.00015200605 -2.7221768e-05 0.0021034882
-2.3197334e-05 -0.00024992856 -0.00012150315 -0.0011503486 2.7227375e-06 -0.08934986 -0.055539202 -0.0011720796
-0.041405503 0.00075285474 -0.00061996107 0.00258252 -0.005855555 -0.00067970407 -0.00018003676 0.0023848827
-0.00016700033 -0.13468209 0.00031873473 0.0008119263 -0.0033241226 -0.002658682 -2.2548553e-05 3.4746718e-05
0.01399495 -0.053590827 0.0014144961 0.000107892134 0.000103085105 -0.00057657587 0.0012058006 -0.00013430798
-6.14415e-05 -0.00028439236 -8.750377e-05
