inference/SymEx/model_checkpoints/SymEx_model_7.pt (torch, 503011 bytes, 21 tensors)

gats.0.att f4 [1, 5, 67]
00000000: f96b e83c 5bb8 d6bd b7c1 4d37 0d10 0d3e
00000010: 6ad3 c2bb 4e17 65bf 2620 42bf af2e 9fb9
00000020: 8fe0 273b 6aa2 c4ba 3d98 d2bc d8ae 1fbf
00000030: e1df 8f39 48d8 dcbd 89a2 3db7 7f18 7438
00000040: 6411 96bf 04a3 2abf 21bd fc3c 5550 43ba
00000050: f947 12b9 35f5 9abc 9730 93be c89a 60bf
00000060: 88ba 053a 5be7 81bc a8f5 0fbf d3bd 0b39
00000070: 5eb4 493a 810c 09bb 8830 9d3c b9e7 a937
00000080: 5b0e edba 9048 d8b6 fdbb af39 3965 27bf
00000090: c251 2639 efe0 0b38 9980 a4ba 4244 093a
000000a0: 4935 03bd 0713 dcbb 9ea2 9e37 558f 5f37
000000b0: 2e1f 9c3c 79ec 05bf 36a2 e0bc f8d4 ea36
000000c0: 7993 8cb9 e414 2f3b 09ad 1dbf b443 c837
000000d0: d966 07bb cbc5 c4ba d7b1 203b df77 843d
000000e0: 52ae 83ba bb75 9937 c397 89bf 01dc a1bf
000000f0: 35ee 87bf ffd4 47bd 3498 8439 0997 42b9
00000100: c641 e0b9 71e5 efb9 9981 23bf fc98 9e3d
00000110: 99b6 81bd 062d 4ab9 901d 00bd 486c bd3c
00000120: fd70 383c 2760 36bf ade4 9cba 36ae ad3c
00000130: 45e9 feba cac6 8439 31a4 37bf 8c3d 1cbf
00000140: 705b 3dbf 2c68 1337 bfa0 333a ae60 16ba
00000150: 9811 2b3e 44ae b03c ca27 7ebf 022c adba
00000160: 8521 68bf b7c5 b4bf 17a6 a6bb 2c29 76ba
00000170: 0864 fdbe cc47 f9be 34ae beb7 8b2b 3eb6
00000180: 9fce 66bf 4ffe e63c e635 a03a 7d3f f2be
00000190: 1529 a7b9 496a c7b9 c5bc a2bc f759 c638
000001a0: 201b 44b6 8dd4 a6b9 b745 093a a609 27bd
000001b0: 9b03 39bf 1991 7337 20f2 8c37 fd58 2d3d
000001c0: 2ad2 093e dace 23bf 34f0 cf39 d43a 50b9
000001d0: 7604 213a a927 47bd 3cd0 82b9 0638 05bd
000001e0: c544 163b d83b 0f3c 5e77 3fbf 4bbf 14bf
000001f0: a3b8 ef37 83a2 44bd 8602 4cbe 714e 68ba
00000200: 1f04 0f3e 7c8c 3e39 ae9c e0b4 2b4d 9b39
00000210: 751e ca3b 3557 fc3b a232 713d 0337 ff3e
00000220: bbd2 1337 efaa 883e 9716 e0bd df3d 893d
00000230: 7d61 153d 6712 6aba ddcc 283a be53 563f
00000240: bdd5 dc3c d7e5 923f 2eaa 973f 1ad4 8f3d
00000250: 4101 c3b7 b5e7 a2b7 ca71 cfba 3829 49bf
00000260: a4fc 81bc d651 263f e550 413f ff48 4b3d
00000270: cdef a1be 94d8 03bb b2e0 8c3a 4119 34be
00000280: e6da d6bc 1d93 81b7 518b 6d39 966a 3cbb
00000290: 012f 053f 336d 3cb9 b3cc d83b 0c6a f13a
000002a0: d0fb d5b9 ca09 463d e3a4 b336 38f1 00ba
000002b0: 8849 5139 d0ee 583f 8e6b a33f 4235 ad3f
000002c0: 9815 6937 8964 61ba bd79 bdbe ecc6 9c3e
000002d0: 62c7 053e 8a95 0337 54fd 1139 fbf7 9039
000002e0: 7c77 7fbf 38bc 2bb9 6f0d 9cbc 073b 173f
000002f0: 6f45 573d aa81 cdbd b3e1 aa3b d6d4 3b39
00000300: 919b 4b3d fdf7 74b9 1b42 8d39 56c1 d23e
00000310: 2b6c 4d39 ca2f 4f34 1673 c239 ae7b 9a3a
00000320: 6733 ca3b b8e5 58bc 9ae1 393e a3ba 1b38
00000330: 0f9f 92ba e826 5d3c 1b6b 4ebc 63e2 863f
00000340: 026c 2538 eccf 3cbf 5b4b 343a f1ab 5ebb
00000350: aac4 443b d2a8 843b a69a 993c dac8 04b8
00000360: 9885 3737 02bf 4eba fd0f 593f 04fb 353b
00000370: 69b2 383f 1e27 afbf 56b9 0dbc c756 5c3e
00000380: 0445 583f 029d 063a 790d c63c 482f 503f
00000390: 794e 1536 3e3f 9438 78cf a43c 6636 b03d
000003a0: ccb2 9c38 b4ad 0d3b a7b0 a638 ec72 7636
000003b0: d021 6dbb 45ab c5b7 5742 dc36 9960 a739
000003c0: 718a d739 62a0 1e3d 5b49 70bc c954 8037
000003d0: 1d09 a136 513d 2cbb e6b8 803f 208b ee39
000003e0: 0c8b a136 79e4 8a38 2421 8b39 3c01 3dbf
000003f0: 02f9 d2b7 d0e3 983b 9d5c 2dbb 08a8 973b
0.028371798 -0.10484382 1.2264055e-05 0.13775654 -0.0059456127 -0.89488685 -0.75830305 -0.00030361625
0.0025616025 -0.0015002016 -0.025707358 -0.62376165 0.00027441888 -0.1078344 -1.1303121e-05 5.8196947e-05
-1.1724057 -0.6665499 0.030851902 -0.000745063 -0.00013950457 -0.018915752 -0.2874801 -0.8773618
0.00051013427 -0.01585739 -0.56234217 0.00013326788 0.00076944183 -0.0020911994 0.01918818 2.0254274e-05
-0.0018085943 -6.445749e-06 0.00033518663 -0.6538883 0.00015861451 3.334967e-05 -0.0012550532 0.00052363065
-0.03203324 -0.0067161354 1.8910792e-05 1.3325208e-05 0.019057836 -0.52313954 -0.027421098 6.9985363e-06
-0.00026812757 0.0026715333 -0.61592156 2.3873385e-05 -0.0020660667 -0.001501256 0.0024520063 0.06468176
-0.0010046458 1.8293844e-05 -1.0749439 -1.2645265 -1.061957 -0.048787113 0.00025290402 -0.00018557547
-0.00042773614 -0.0004575658 -0.63869625 0.07744023 -0.06333656 -0.00019280994 -0.031278193 0.023122922
0.011257407 -0.71240467 -0.0011970006 0.021201234 -0.0019448182 0.0002532511 -0.7173491 -0.61031413
-0.7396765 8.786137e-06 0.0006852261 -0.00057364523 0.1670593 0.021567471 -0.99279463 -0.0013211968
-0.90676147 -1.4122838 -0.0050857174 -0.00093902904 -0.4949038 -0.4868759 -2.2730885e-05 -2.8337552e-06
-0.9015903 0.028197436 0.0012223094 -0.47314063 -0.0003188333 -0.00038035426 -0.019865403 9.458133e-05
-2.9222065e-06 -0.0003182035 0.00052365236 -0.040780686 -0.72271127 1.4517712e-05 1.6802049e-05 0.042321194
0.13459077 -0.63987505 0.00039661082 -0.00019858341 0.00061423273 -0.048621807 -0.0002495068 -0.03252413
0.0022929173 0.008742295 -0.74791515 -0.5810439 2.8576998e-05 -0.048006546 -0.19922838 -0.00088617863
0.13966416 0.00018172147 -4.183725e-07 0.00029621398 0.0061681815 0.0077008256 0.058886178 0.49846658
8.810947e-06 0.26692912 -0.10941809 0.06701254 0.036469925 -0.0008929134 0.00064392184 0.8372153
0.026957387 1.1476392 1.184881 0.07022877 -2.3246395e-05 -1.9419802e-05 -0.0015826758 -0.7857852
-0.015867539 0.6496862 0.7551406 0.04963016 -0.31628266 -0.0020118104 0.0010748117 -0.17587759
-0.026227426 -1.5446503e-05 0.0002265398 -0.0028750054 0.5202485 -0.00017969757 0.006616199 0.0018418445
-0.0004081414 0.04834918 5.353811e-06 -0.0004918757 0.00019959186 0.847394 1.2767198 1.3531878
1.389291e-05 -0.000859805 -0.3700694 0.30620515 0.1306434 7.843026e-06 0.0001392265 0.0002765058
-0.99791694 -0.00016377948 -0.019049374 0.59074444 0.05255645 -0.10034497 0.0052148937 0.00017912997
0.049708907 -0.00023362036 0.00026942868 0.4116313 0.00019590619 1.9295763e-07 0.0003708831 0.0011786127
0.0061706784 -0.013238363 0.18152466 3.71287e-05 -0.0011186319 0.0134980455 -0.012598778 1.0537838
3.9439656e-05 -0.73754764 0.0006877684 -0.0033976997 0.0030024447 0.0040484453 0.0187505 -3.165831e-05
1.0938755e-05 -0.0007886739 0.8479002 0.0027768025 0.7214723 -1.3683813 -0.008650145 0.21517478
0.8448031 0.00051350903 0.024176346 0.81322145 2.2248407e-06 7.06897e-05 0.02011846 0.08604126
7.471963e-05 0.0021618428 7.948401e-05 3.672375e-06 -0.0036183484 -2.3563984e-05 6.564234e-06 0.00031924693
0.00041111142 0.03872717 -0.014665927 1.529827e-05 4.799235e-06 -0.0026281665 1.0056427 0.00045498554
4.814361e-06 6.622909e-05 0.00026536838 -0.7383001 -2.5149904e-05 0.0046658292 -0.0026452907 0.004628185

gats.0.bias f4 [67]
00000000: 0bf2 8dbd df74 e13b 5217 6138 0b63 b9ba
00000010: fb97 163d 1f7c 52bd 9d37 3cbe 3de6 b2b6
00000020: e6fc b4bc 464f 4abd d6b2 cebc 6f91 23bd
00000030: 325f b8bd f2df 1fbe 3bec 5db8 fd83 fcb9
00000040: 6483 b0bc 7dd0 71bc 4168 dcbc 72ab 49bd
00000050: c8e5 c3bd c558 ccbd 4ac8 f1bc bf2b 8fbd
00000060: 340b f6bb 762f 19be 5bc1 24be 946a b5b8
00000070: e624 12ba ccf4 13bd bb62 8939 922f f6b8
00000080: d2bd ca3b 1762 4aba 7879 b4b8 b34a d6bd
00000090: bf8c c0b9 189f 83b8 2d93 2cba 4108 52bd
000000a0: 8adb 05bc 802b f3bd d09a 0a39 9811 51b9
000000b0: 7dba bbbd 26f6 7f3c 5af9 dcbd 6697 6eb9
000000c0: f445 fdb9 b00b 05bb 874c 02be b35b 46bb
000000d0: c34b febd 7cad 8ebd 720c f9bc 0b61 5ebd
000000e0: ccfe bdbc 5696 96b9 cc8a bcbd 4e8b 95bc
000000f0: 4fe7 8ebb 95ee 1fbc 31dd 93b9 6e6b d3b9
00000100: cad9 c3ba 91e7 b6b4 5f3f afbd
-0.06930932 0.006880387 5.36659e-05 -0.0014143897 0.036766034 -0.051387902 -0.1838059 -5.3316166e-06
-0.022093248 -0.049392007 -0.02523176 -0.03993362 -0.09002532 -0.15612772 -5.2910513e-05 -0.00048163524
-0.021547027 -0.01475918 -0.02690518 -0.04923577 -0.09565312 -0.09977869 -0.02951445 -0.06990766
-0.0075086597 -0.14959511 -0.16089384 -8.650604e-05 -0.00055749563 -0.03612213 0.00026204236 -0.00011739055
0.006187179 -0.0007720305 -8.605694e-05 -0.104634665 -0.00036725958 -6.2762e-05 -0.000658321 -0.051277403
-0.008170018 -0.11873531 0.00013218378 -0.00019938347 -0.09166429 0.015622651 -0.107897475 -0.00022753849
-0.0004830804 -0.0020301156 -0.12724505 -0.003026706 -0.12416794 -0.06966683 -0.030401442 -0.054291766
-0.023192786 -0.00028722238 -0.09206161 -0.018254902 -0.00436107 -0.009761472 -0.00028202825 -0.00040325098
-0.0014942226 -3.4068628e-07 -0.08557009

gats.0.lin_l.weight f4 [335, 67]
00000000: f071 0080 50a3 0080 cf62 d8bd 48f0 e8bc
00000010: da74 06ba 2c8b 0000 6b98 053f 1308 bdba
00000020: cb9b 0000 8192 0000 fc28 303d 967b 0080
00000030: 6c92 0000 eb89 0080 3b91 0000 9595 0000
00000040: 0794 0000 d2a1 0080 5ab0 173e 5d4b 09be
00000050: c28d 0000 0db8 b6bd 5193 0080 506b 4a3f
00000060: c259 20bc d5ba cd3b 27b0 8a3b c281 bf3e
00000070: 4177 6e3e a6b6 8e39 378f 0000 5613 6abe
00000080: 5074 26bd 5655 c4bb 4e1f b83a bdfe cfba
00000090: 4922 8abb 2054 543c 1b8b 0000 e788 0000
000000a0: 2139 ffbd 875f 61b8 47df bf3b 05d9 8abc
000000b0: 5895 0000 1b29 b737 8cbd 30b8 70a3 a3be
000000c0: a45d 0080 b3b1 0080 f675 0080 0594 0080
000000d0: 2fb1 0080 d0aa 0080 eba7 0080 3871 0080
000000e0: d26f 0000 8ba4 0000 4394 0000 9bf6 5bbe
000000f0: e77c 47bd a598 0000 9495 0000 348c 0000
00000100: 36a4 0000 61b2 0000 a344 06bc 3c7b 0000
00000110: cf0a 0080 19f4 9bbd 1a6c 0e3b 20d6 acb8
00000120: 904f 0080 17d4 fdba a2df a03e 05a5 0000
00000130: 6d9b 0000 b6ec 5dbc 6d5d 0000 cc99 0000
00000140: 1c92 0000 4799 0080 1c9f 0080 39a2 0080
00000150: aa8a 0000 b0fc db3e 86c6 7abd f09b 0000
00000160: f112 20bd cb5b 0080 5d80 97bc fcb1 c3bb
00000170: 632f d0bb 40b9 433e 5aca d1bd a943 c3bd
00000180: bc2d 96b9 5c98 0080 f588 f8bd 0e59 8e3b
00000190: e58e 26be aa58 aa3e 3336 0b3e 7aa5 cebb
000001a0: 8f2e 113b 74af 0000 859c 0000 c475 11bd
000001b0: 8b42 0b3c 373e e83e 8d03 d9bc 699a 0080
000001c0: 3a62 30ba 2f29 c0b6 8c94 7ebc 4593 0000
000001d0: bf99 0000 a89c 0080 1671 0000 719f 0000
000001e0: 0897 0080 88a1 0080 2f92 0080 a28d 0080
000001f0: 4c8a 0080 82a3 0080 c25b 73be 7598 693e
00000200: a627 0000 3765 0080 9693 0000 8d99 0000
00000210: 9aae 0080 8cb5 dc3e 9daa 0000 6e94 0080
00000220: deb2 67b7 0f33 c8b6 fe6f 0000 1883 0000
00000230: 50a9 da35 8df8 6cb6 c099 0000 82af 0000
00000240: 0709 5b37 118f 0000 4491 0000 cd90 0000
00000250: 765c 0080 e19e 0000 924e 0080 a898 0080
00000260: 4076 86b8 1127 6e36 4392 0080 0e3b d3b7
00000270: f902 0080 dcf6 afb7 dc3b 22b7 3d5f ceb4
00000280: 5e52 4ab6 1dc5 4fb8 78b5 63b7 488d 0080
00000290: 6189 0080 f40c d9b5 3d50 0334 9ed3 b1b6
000002a0: e210 32b7 4d28 93b5 9e5f e0b4 a487 bb31
000002b0: 918f 0080 3e68 0000 f1a5 e9b6 1f0f bab5
000002c0: 4f70 1937 3066 14b7 0aa0 0080 f27a 0000
000002d0: c3a1 0000 ec67 4e37 fe6a 0080 12ae 0000
000002e0: 1a60 0080 e26a 0000 e392 0000 6889 0000
000002f0: 9462 0000 7a92 0000 3a8f 0000 0097 0000
00000300: 385a 0080 646e 3939 3784 102f ac71 0000
00000310: d592 0000 16a6 0000 2e6d 0000 0893 0080
00000320: 2367 dab7 3793 0080 0296 0000 1c8a cbbe
00000330: 9998 033e d861 0f3b 2a98 0080 908c a73c
00000340: 9aaf 7d3e 3b95 0080 3d72 0080 7afb 88b9
00000350: 7f95 0000 019a 0080 4490 0000 3d9a 0000
00000360: 015f 0000 5a57 0080 d0a5 0080 349e c9bd
00000370: 35e1 3e3e 88a5 0080 b33d 05be 8765 0080
00000380: 68a1 b33e 8d04 213b 9a5d 44bc 09c6 863e
00000390: e0f1 e8bd 1fa5 9c3d 4d1a f6b9 a388 0080
000003a0: 2144 57be 873c 7c3a 2714 57be ac71 323f
000003b0: d776 9f3e 6188 4ebc e129 5b3d 6f99 0080
000003c0: 116d 0080 5c45 10be 1a10 59bc d3b1 403f
000003d0: 6ef3 14bc 597c 0080 df38 92ba 19a0 bfb7
000003e0: 7f07 33be 4d82 0000 7308 0000 718e 0080
000003f0: 94ab 0000 5196 0000 7d98 0080 0a97 0000
-4.0873e-41 -5.8585e-41 -0.10565721 -0.028434888 -0.00051291066 4.9925e-41 0.52185696 -0.0014421962
5.5888e-41 5.2556e-41 0.043007836 -4.4334e-41 5.2526e-41 -4.9476e-41 5.2099e-41 5.366e-41
5.3102e-41 -5.805e-41 0.14813367 -0.13407655 5.0853e-41 -0.08921824 -5.2847e-41 0.79069996
-0.009787025 0.0062783756 0.004232425 0.37403685 0.2328768 0.00027220434 5.1376e-41 -0.22858939
-0.040638268 -0.005991618 0.0014047415 -0.0015868765 -0.004215513 0.01295951 4.9902e-41 4.9111e-41
-0.12462068 -5.3733147e-05 0.005855474 -0.016949186 5.3574e-41 2.1834441e-05 -4.21382e-05 -0.3196063
-3.3592e-41 -6.3746e-41 -4.2316e-41 -5.31e-41 -6.3561e-41 -6.1276e-41 -6.0238e-41 -4.0615e-41
4.0114e-41 5.9027e-41 5.3186e-41 -0.21480791 -0.0487031 5.4759e-41 5.3659e-41 5.0295e-41
5.8908e-41 6.399e-41 -0.008195075 4.4208e-41 -3.877e-42 -0.07614917 0.0021731914 -8.241483e-05
-2.8542e-41 -0.0019365576 0.31420618 5.9198e-41 5.5756e-41 -0.013545206 3.3515e-41 5.5172e-41
5.2414e-41 -5.4986e-41 -5.7078e-41 -5.8195e-41 4.9743e-41 0.42966223 -0.061224483 5.594e-41
-0.039080564 -3.2929e-41 -0.018493826 -0.005972145 -0.006353305 0.19113636 -0.102436736 -0.095343895
-0.00028644304 -5.4656e-41 -0.121354975 0.0043441122 -0.16265447 0.3327077 0.13594894 -0.0063063474
0.0022152995 6.2941e-41 5.6149e-41 -0.0355127 0.008499752 0.45359966 -0.026490951 -5.5392e-41
-0.0006728504 -5.7268403e-06 -0.015538346 5.283e-41 5.5154e-41 -5.6198e-41 4.0568e-41 5.7197e-41
-5.418e-41 -5.7946e-41 -5.2441e-41 -5.0808e-41 -4.9612e-41 -5.8656e-41 -0.23765472 0.22812064
1.4223e-41 -3.6309e-41 5.2944e-41 5.5084e-41 -6.2635e-41 0.4310726 6.1205e-41 -5.3247e-41
-1.3810319e-05 -5.9664085e-06 4.0175e-41 4.7028e-41 1.6291542e-06 -3.5311416e-06 5.5155e-41 6.296e-41
1.3055519e-05 5.1323e-41 5.2111e-41 5.1945e-41 -3.3169e-41 5.6995e-41 -2.8186e-41 -5.4763e-41
-6.411644e-05 3.5487503e-06 -5.2469e-41 -2.518066e-05 -1.066e-42 -2.0976579e-05 -9.66989e-06 -3.8439785e-07
-3.014829e-06 -4.9536222e-05 -1.3572506e-05 -5.0682e-41 -4.9282e-41 -1.617153e-06 1.2229516e-07 -5.2996465e-06
-1.0613558e-05 -1.0964083e-06 -4.1792822e-07 5.457837e-09 -5.1502e-41 3.7395e-41 -6.9632592e-06 -1.3862481e-06
9.1456595e-06 -8.84528e-06 -5.7411e-41 4.4104e-41 5.8029e-41 1.2302753e-05 -3.8382e-41 6.2445e-41
-3.4475e-41 3.8342e-41 5.2693e-41 4.9292e-41 3.5363e-41 5.2546e-41 5.138e-41 5.4169e-41
-3.2364e-41 0.00017684099 1.3143696e-10 4.0778e-41 5.2673e-41 5.958e-41 3.9166e-41 -5.2745e-41
-2.6035652e-05 -5.2811e-41 5.3813e-41 -0.39753807 0.1285118 0.0021878388 -5.4586e-41 0.020452768
0.24774018 -5.3534e-41 -4.0981e-41 -0.00026127306 5.3629e-41 -5.5246e-41 5.1753e-41 5.533e-41
3.4081e-41 -3.1336e-41 -5.9482e-41 -0.09844628 0.18640597 -5.9381e-41 -0.13011818 -3.6421e-41
0.3508408 0.0024569363 -0.011985207 0.26322964 -0.11374259 0.07648682 -0.00046940372 -4.9016e-41
-0.21022083 0.00096220564 -0.21003781 0.697047 0.31145355 -0.012605757 0.053506736 -5.5042e-41
-3.9126e-41 -0.14088959 -0.013248468 0.7527134 -0.009091241 -4.4608e-41 -0.0011155865 -2.2843526e-05
-0.17483328 4.6743e-41 3.031e-42 -5.1098e-41 6.155e-41 5.3923e-41 -5.4702e-41 5.4183e-41

gats.0.lin_l.bias f4 [335]
00000000: 5346 a7bd 8c70 22bd 2d37 9eb8 3ca0 8c3d
00000010: 7e36 80bd 5362 dc3d 1095 86bd 1f72 4038
00000020: 5388 313d 426a 29bc 651b 043d 79e6 12be
00000030: 2428 aebc 313e 99bd b68a f8b9 5387 13ba
00000040: 58a0 0bbe 07f1 173d 6a5a 8abc 05ee d1bd
00000050: 9542 3ebb e4dd b93b b063 9e3c ae34 20be
00000060: 864c edbb 5fcc c3bd f221 263d 29ec 95b9
00000070: 6b33 62b7 720b 7fbc d279 053d d7f6 9c36
00000080: 7045 eb39 5982 2336 36c4 95b9 a86a 50bd
00000090: 1e9e bbb7 0b3b 99b9 7d8f d9ba 4e84 0dbc
000000a0: 3f11 d3bd c82a 10be 18f1 35b9 1292 42b9
000000b0: 80cb 57bd 0720 af3c 92bb 08bd 4eba 81b8
000000c0: a3b5 7cb9 ed6f 30bb 95ef a7bd e119 2538
000000d0: 8335 0bbd 6e7c 32bc bd6a bdbd 1dd3 0a3d
000000e0: 499a 92bb 6ef8 89ba 6fc5 a1bd 8c09 23be
000000f0: 9a1b 1bbe d8c5 11bc 9c02 3bb9 d27f bbb9
00000100: cd93 90b9 6f4c 59b9 c7ca 153d 474e a2bd
00000110: dcf0 b4bd 5c4d e936 858a 7c3d 5348 973d
00000120: b87b ccbd 7045 f5bc a6c8 c738 e1b1 eb3c
00000130: 3014 23bc e7de 9bbb 1685 74bd 023e 903d
00000140: c46b 4cbd 9298 a6b9 3924 9137 2fb2 ff3a
00000150: 0fd7 ba3b f067 b73c 7897 5b3d eaf7 6fbb
00000160: 4c0b 993d f789 29bc cd72 073b b109 8fbb
00000170: 4a64 60bd 41c3 e13d 491d 89b9 54b8 39b9
00000180: a891 7a3d 01df 8fbd 2059 3739 8466 adbd
00000190: 3f43 ca37 d970 7bb8 cdeb afbd b206 42b9
000001a0: 0668 6fb9 1f7f 9fb8 d433 12bc 2fb4 97bd
000001b0: dfc4 6dbc dcab 1fb9 50f4 10b9 38e5 e2bd
000001c0: caf3 4ebb 56d5 5dbc eb66 85b7 a39f 93b9
000001d0: 6fe1 a6ba 0585 d2bd e06c b838 f53f cf39
000001e0: e099 0fbc 7870 b1bd 0970 24bc 4f13 843c
000001f0: d39d 60ba b8ca b2bc 3f1b df3c 6678 6b3a
00000200: 9f73 413d 36de 4ab9 f3f7 90b9 d110 1c39
00000210: 339c b539 584e 74bd 9e28 ab3c 571b 24bd
00000220: 9a02 55b9 0fb7 72bd 6449 f43c 869d 28bd
00000230: 34e4 02be fac4 d938 58e2 4a3d 16c6 ff3c
00000240: ad2a 04bd 1c76 933d f41e e9bc 5500 86bd
00000250: ab21 8ab9 c139 d8b9 3c9b a739 91ff 713d
00000260: 4053 9b3b ae30 94bb d9f2 423d 1388 29bd
00000270: 9356 203d c1c5 47ba c768 b0bb 426e a0bc
00000280: e9b2 dcbd fb50 96b9 83c0 60b9 13f5 b83c
00000290: 2e2e ed3c 287a 5838 ffb1 453b 2a87 27b9
000002a0: 5f18 7cb9 295a 08bd dea7 d3b8 0bec 36b9
000002b0: 730c adb9 6c56 d83c 5996 573d 4d1d 973c
000002c0: 8955 2db9 76eb 43b9 333e 0fbb 766e 333b
000002d0: 3245 ebbd f023 1337 0838 eeb9 a240 eaba
000002e0: 1355 1c3d 5cb6 8638 5879 34bd a6db f73c
000002f0: 58df c23b 60a2 ba3d e69e 60ba 5713 61ba
00000300: aa92 37bd 08ea 85ba ac4d 1dba 33f9 c63d
00000310: 5488 58b9 39a1 b9b9 6ec5 b337 537a ed39
00000320: 1207 dd3c 5a0b 05be 148b 063d d705 46b9
00000330: 268a b63b 651a 76bd 9247 273d 59b1 e63d
00000340: 9f17 b538 317a 8d3c fdbd 20bc 8a42 0cbd
00000350: 1b42 05bc 7e68 fabc 2a1a b1bd ec52 c5b9
00000360: bdfd c3b9 70de e037 f0fc 9e3d 2a8c 9d3c
00000370: b61d eabb ca1a c23c c742 10be 5a15 fbbc
00000380: 9e88 913d fb58 5ebb 3bcf 20be 5954 113d
00000390: d5e9 95b9 a51c b7b8 5453 b0bd f1e0 8ebd
000003a0: c528 cd38 5dee 8c3a 91eb b238 3ecd 85b9
000003b0: 3936 cabc 9dd5 c636 ae6f 6fb9 d71a 62b9
000003c0: e3a8 28bc d4b5 903c a028 a7bd 14a7 82b9
000003d0: 22a0 b8b9 4321 cbbc e671 953d b40c 85bc
000003e0: fd01 1eb8 79b6 beb9 ba4e 19bb 1c79 dabd
000003f0: a392 1fb9 f279 f5bc 6d8e bebc fbbe d93c
-0.0816771 -0.039658114 -7.5443044e-05 0.068665 -0.062603936 0.10760941 -0.065714 4.588265e-05
0.0433429 -0.010340275 0.032252688 -0.14345731 -0.021259375 -0.07482565 -0.00047405594 -0.000562777
-0.13635385 0.037095096 -0.016888816 -0.10250477 -0.0029031385 0.0056722034 0.019334644 -0.15645096
-0.0072417883 -0.09560465 0.040559717 -0.00028595448 -1.3482621e-05 -0.015566694 0.03258688 4.6778982e-06
0.00044874428 2.4364765e-06 -0.00028565683 -0.050882965 -2.2365766e-05 -0.00029226425 -0.0016598549 -0.008637501
-0.10306024 -0.1407882 -0.0001735132 -0.00018555697 -0.052684307 0.021377577 -0.033382006 -6.185901e-05
-0.00024100258 -0.0026922182 -0.081999935 3.9363167e-05 -0.03398658 -0.010893924 -0.09248874 0.03389274
-0.0044739586 -0.0010526308 -0.078989856 -0.1592161 -0.15147248 -0.008897267 -0.00017834682 -0.00035762653
-0.0002757594 -0.00020723206 0.036570337 -0.079250865 -0.08835003 6.952947e-06 0.06165554 0.073868416
-0.09984535 -0.029940337 9.526433e-05 0.028771343 -0.009953544 -0.0047567966 -0.059697233 0.07043077
-0.04990746 -0.0003177566 1.7302214e-05 0.0019508059 0.0057019065 0.022388428 0.05361125 -0.0036616274
0.07472858 -0.010347835 0.0020667792 -0.004365169 -0.054783143 0.1102357 -0.00026152495 -0.00017711642
0.061174065 -0.070249565 0.00017485442 -0.08466819 2.411159e-05 -5.994816e-05 -0.08589897 -0.00018503776
-0.00022831568 -7.605389e-05 -0.00892349 -0.07407414 -0.01451227 -0.00015227444 -0.00013823924 -0.11078876
-0.0031578415 -0.013539633 -1.590276e-05 -0.00028156964 -0.0012731979 -0.10279278 8.794083e-05 0.00039529768
-0.008764714 -0.0866403 -0.010036477 0.016122488 -0.00085684395 -0.02182518 0.027234672 0.00089824793
0.047229405 -0.00019347001 -0.00027650557 0.00014883584 0.00034639388 -0.059645027 0.020893391 -0.040065136
-0.00020314232 -0.05925661 0.029820152 -0.04116585 -0.12782365 0.00010384056 0.049532264 0.031222384
-0.03226726 0.07200262 -0.028457142 -0.06543032 -0.00026346496 -0.0004124176 0.0003196838 0.059081618
0.004740149 -0.0045224046 0.04759488 -0.041389536 0.039145064 -0.0007620715 -0.005383584 -0.019583825
-0.10776312 -0.00028670565 -0.00021434021 0.022577798 0.028952684 5.161218e-05 0.0030165908 -0.00015976714
-0.00024041672 -0.03328911 -0.00010092532 -0.00017444805 -0.00033006407 0.026408397 0.052633617 0.018446589
-0.0001653043 -0.00018684365 -0.0021857142 0.0027379072 -0.11487807 8.77025e-06 -0.00045436644 -0.0017872045
0.03816707 6.423585e-05 -0.044061035 0.030256104 0.005947035 0.09113002 -0.00085685996 -0.00085859507
-0.044817604 -0.0010216841 -0.0006000649 0.097155 -0.00020650151 -0.0003540607 2.1430398e-05 0.000452953
0.02698091 -0.12992612 0.03284748 -0.00018884927 0.005570668 -0.060083766 0.04083974 0.11264295
8.635152e-05 0.01727018 -0.009810922 -0.034243144 -0.008133437 -0.030567404 -0.086475685 -0.0003763655
-0.00037382348 2.6806461e-05 0.07763088 0.019231874 -0.007144655 0.023694415 -0.14087974 -0.03064983
0.07106136 -0.0033927548 -0.15704052 0.03548083 -0.00028593713 -8.7314555e-05 -0.086096436 -0.06976498
9.782756e-05 0.001075219 8.531579e-05 -0.00025520654 -0.024684059 5.9257277e-06 -0.0002283442 -0.00021563038
-0.010294172 0.017664827 -0.081620455 -0.00024920015 -0.00035214523 -0.024796134 0.07297115 -0.016241409
-3.7671987e-05 -0.00036375577 -0.0023392872 -0.10667631 -0.00015218048 -0.029965375 -0.023261273 0.026580324

gats.0.lin_r.weight f4 [335, 67]
00000000: d261 0080 e48b 0080 278a 363c 10b8 8936
00000010: 2c34 f136 b184 0080 2a55 4abb 8d93 0080
00000020: 8b8f 0000 c58d 0080 de5b 90ba 362d 0080
00000030: a096 0080 149b 0080 1291 0080 2d9a 0000
00000040: d6a0 0000 a69a 0080 b896 dfbb 7bb1 34bb
00000050: 5a6a 0080 f2c8 b9ba 0287 0000 f80a d839
00000060: f12e deba 2a27 d73a 7b26 d9bb 2c55 c6b9
00000070: 3036 d3b9 b9ba 43b6 1195 0080 075f 073a
00000080: 068d 323b a3ef 17bb 5a25 da37 00d5 1f3a
00000090: 36a0 f139 7761 5414 5e8e 0080 ce9a 0000
000000a0: a335 e53b d8a0 ea3a 131e f338 4ab4 76b9
000000b0: 7c90 0000 6d68 e4b7 e188 0080 434d dd37
000000c0: dd54 0080 4f8e 0080 e58d 0000 598e 0000
000000d0: ec3b 0080 ec9d 0080 6b99 0080 298f 0080
000000e0: 6c4a 0080 0a9d 0080 e77d 0000 dbbd 31ba
000000f0: 3431 cbb6 f8b2 0080 fa99 0000 6a87 0000
00000100: 0b98 0080 bc8d 0080 e7cf 71b8 f095 0000
00000110: 3e94 0000 2b3e 6b3b a1f6 d037 4af5 5e32
00000120: 6b96 0000 6485 beb6 58ff 1abb 1a95 0080
00000130: de9e 0000 289d 0080 4d69 0000 626d 0000
00000140: d7a0 0080 8350 0000 6686 0000 1a7c 0080
00000150: 0b9b 0080 c936 a6ba 17a0 1e3d 678c 0080
00000160: 33e0 c239 b243 0080 e66a 0fbb f04f 8a3b
00000170: 3029 f2b9 92e4 0b3d 005f 03bd 4adf deb7
00000180: 45a6 1c36 2294 0000 692e e4bb 1634 1f3a
00000190: 89e4 1cbc 7d80 d7b8 7aa0 09ba 2901 be36
000001a0: 4c21 5494 878c 0080 748b 0080 9394 d6b9
000001b0: 4507 bf3b 6f76 0cba 70c7 8eb8 655a 0000
000001c0: 0948 12b5 3654 0080 9c1c 9f37 6cac 0080
000001d0: dd59 0080 d60f 0000 4695 0000 1995 0000
000001e0: e498 0080 6ea1 0080 62ae 0000 f3b0 0080
000001f0: b951 0000 0495 0000 cccb 8d3b 3211 aa39
00000200: 0389 0080 f593 0000 8190 0080 8b73 0080
00000210: 7a47 0080 422f 913a f56a 0000 8b8f 0000
00000220: b0bc 02b6 7662 07b5 e319 0000 1551 0080
00000230: 8fce ee34 eef3 1d36 2192 0080 219d 0080
00000240: f391 0080 358e 0000 1185 0000 60a0 0000
00000250: 427d 0000 3a8a 0080 078f 0000 f86b 0000
00000260: 920c 9335 2ecb a3b5 538a 0080 a06c 0000
00000270: b098 0080 9e93 d4aa 4725 42b2 a6a3 0000
00000280: 4875 1bb7 18d9 83ad 110a 6ab5 184b 0080
00000290: 1d8a 0080 9798 3436 86f9 de23 7583 9eb4
000002a0: 9f02 0000 9e10 b8b5 342c 2418 d389 0000
000002b0: c250 0000 e9b1 0000 8687 07b8 411f 2336
000002c0: 5089 e795 419a 0080 2382 0000 9c1a 0000
000002d0: 458f 0080 e45f 0080 529a 0080 9097 0080
000002e0: be5d 0080 3831 0080 b391 0000 71aa 0000
000002f0: 8495 0000 6297 0080 35a5 0000 dc96 0080
00000300: eb95 0000 2d16 18b6 0137 0000 7090 0080
00000310: 0593 0000 3d9a 0080 7db2 0000 b8ab 0080
00000320: 10fd 23b7 f598 0080 218e 0080 46e1 863d
00000330: 6de2 26ba 9945 6937 ee99 0080 39f9 41bc
00000340: 56fc 713a dd8d 0080 d493 0080 617e 0000
00000350: 7bb2 0080 2f96 0080 0190 0080 be6d 0080
00000360: 7392 0000 8b9a 0000 5392 0080 8425 c6bc
00000370: bf51 8f3c 755b 0000 17eb d8bb e26b 0000
00000380: 77d9 85bb 1bc6 9c3b 8957 323a 737b 21be
00000390: e753 f5ba 4c84 2cba 3afc 3cb7 bb5c 0080
000003a0: 4288 3c3c d496 8bb9 a635 8f3c 09d6 fcb6
000003b0: 92df 513b 3011 da39 3016 e537 3351 0080
000003c0: 3b8c 0080 c8d6 a53d cf00 81b9 789d ca39
000003d0: a967 1cba 52ae 0080 8c28 e837 263e 3cb3
000003e0: 4079 433b 448f 0080 41b2 0080 07a5 0080
000003f0: 7a8d 0080 1e51 0080 5194 0000 8ba1 0080
-3.5091e-41 -5.0183e-41 0.0111413365 4.104346e-06 7.1884333e-06 -4.7601e-41 -0.0030873516 -5.2931e-41
5.1494e-41 -5.0857e-41 -0.0011013707 -1.6219e-41 -5.4034e-41 -5.5632e-41 -5.2041e-41 5.5308e-41
5.7697e-41 -5.5477e-41 -0.006823387 -0.0027571607 -3.8152e-41 -0.0014174266 4.8432e-41 0.00041206903
-0.0016951245 0.001641487 -0.0066269017 -0.0003782896 -0.0004028543 -2.9165951e-06 -5.3475e-41 0.00051640015
0.00272447 -0.0023183606 2.6005018e-05 0.0006097108 0.00046086469 1.0722486e-26 -5.1072e-41 5.5533e-41
0.0069949194 0.0017900718 0.00011592745 -0.00023527551 5.1831e-41 -2.7228345e-05 -4.9103e-41 2.638123e-05
-3.0443e-41 -5.1051e-41 5.0902e-41 5.1065e-41 -2.1496e-41 -5.6652e-41 -5.5036e-41 -5.1356e-41
-2.6698e-41 -5.6335e-41 4.5165e-41 -0.0006780305 -6.0555994e-06 -6.4202e-41 5.5236e-41 4.8577e-41
-5.4543e-41 -5.0845e-41 -5.76525e-05 5.3787e-41 5.3179e-41 0.003589521 2.4910378e-05 1.2977873e-08
5.396e-41 -5.67797e-06 -0.0023650732 -5.3488e-41 5.6991e-41 -5.6377e-41 3.7775e-41 3.9239e-41
-5.7698e-41 2.8882e-41 4.8213e-41 -4.4519e-41 -5.5619e-41 -0.0012681122 0.038726892 -5.0367e-41
0.00037169605 -2.4285e-41 -0.0021883785 0.004220955 -0.00046188524 0.03415353 -0.03207302 -2.656844e-05
2.3342593e-06 5.314e-41 -0.0069635403 0.000607313 -0.009575971 -0.00010275932 -0.0005250048 5.6625763e-06
-1.07098314e-26 -5.0412e-41 -5.0026e-41 -0.00040927957 0.005829724 -0.0005358224 -6.808236e-05 3.2427e-41
-5.4494063e-07 -3.0209e-41 1.89676e-05 -6.1853e-41 -3.2237e-41 5.681e-42 5.3549e-41 5.3486e-41
-5.4847e-41 -5.791e-41 6.2557e-41 -6.3477e-41 2.9317e-41 5.3457e-41 0.004327273 0.00032437738
-4.915e-41 5.3077e-41 -5.1838e-41 -4.1449e-41 -2.5641e-41 0.0011076706 3.8369e-41 5.1494e-41
-1.948134e-06 -5.04347e-07 9.286e-42 -2.9087e-41 4.4481246e-07 2.3536809e-06 -5.2421e-41 -5.6367e-41
-5.2357e-41 5.1014e-41 4.7735e-41 5.7532e-41 4.4934e-41 -4.9586e-41 5.1309e-41 3.8732e-41
1.0956012e-06 -1.220358e-06 -4.9621e-41 3.8967e-41 -5.4774e-41 -3.7761195e-13 -1.1300762e-08 5.8706e-41
-9.266027e-06 -1.4989385e-11 -8.718644e-07 -2.6939e-41 -4.9546e-41 2.691091e-06 2.4174966e-17 -2.952544e-07
9.4e-43 -1.3713905e-06 2.121882e-24 4.9442e-41 2.897e-41 6.3822e-41 -3.2312724e-05 2.4307085e-06
-9.35168e-26 -5.5336e-41 4.6684e-41 9.546e-42 -5.1395e-41 -3.4399e-41 -5.536e-41 -5.437e-41
-3.3628e-41 -1.7656e-41 5.2267e-41 6.1143e-41 5.3636e-41 -5.4306e-41 5.9265e-41 -5.4118e-41
5.378e-41 -2.2662673e-06 1.9732e-41 -5.1814e-41 5.274e-41 -5.533e-41 6.403e-41 -6.1601e-41
-9.774478e-06 -5.487e-41 -5.0986e-41 0.06585936 -0.00063661375 1.3904087e-05 -5.522e-41 -0.0118392045
0.00092310214 -5.0891e-41 -5.3031e-41 4.5336e-41 -6.4027e-41 -5.3876e-41 -5.1659e-41 -3.9368e-41
5.2536e-41 5.544e-41 -5.2491e-41 -0.02418781 0.017495034 3.2809e-41 -0.006619822 3.8701e-41
-0.0040847617 0.004784358 0.0006803205 -0.15769748 -0.0018717021 -0.0006580993 -1.1264399e-05 -3.3265e-41
0.011507096 -0.00026624522 0.017481636 -7.535102e-06 0.0032024127 0.00041593006 2.730926e-05 -2.9129e-41
-5.0305e-41 0.08097607 -0.000246054 0.00038645766 -0.00059663743 -6.2534e-41 2.7675436e-05 -4.3828685e-08
0.002982691 -5.1394e-41 -6.3945e-41 -5.92e-41 -5.0752e-41 -2.91e-41 5.3206e-41 -5.795e-41

gats.0.lin_r.bias f4 [335]
00000000: 5652 f5bb d932 263c cc86 4eb8 e094 3d3c
00000010: 5b7e e0ba ac47 4d3e 4f84 013e 39dc de39
00000020: 2bd1 1eba 8f3a f339 8358 f9bc 4ddf b83d
00000030: 44dc 1db9 071a 323d 9daf e5b7 32ce 3237
00000040: 953f 853d 5f80 093e 50a2 91ba ff72 55ba
00000050: 01e8 d7b9 ddd1 a13a a6a2 2b3e 3fae a43d
00000060: cd98 c7b9 fea8 79bb d4a4 8a3d fe48 ec38
00000070: b1c8 9b39 12c6 f639 26bb 5abc 7100 aeb7
00000080: b494 f939 45f4 9038 c033 a939 15f5 523d
00000090: a640 c138 8919 6bb7 c189 65ba 3d6c 0f38
000000a0: 30c3 893c 191f 1eba e5b3 dbb7 651f 4c37
000000b0: 8690 b6ba 58ed 963e 4465 d53b e8fc 6338
000000c0: d5b3 3238 6535 053a b6d0 423d 1b8e 5e38
000000d0: be96 60ba 0a57 ca39 21b4 9dbb 3e3e 0cbc
000000e0: 6af7 21b8 f521 41b7 5d29 123d 8d45 a73d
000000f0: 8bca b33d e92c 14bd 3ce4 2739 957c 3539
00000100: 3642 9e39 14b0 a7b9 7cf5 a83d b50f 56bc
00000110: a43e 113d f7f8 1f39 43f0 06bc 53aa 7c3c
00000120: a077 1e3b 6319 643d 15ef d239 d3e9 683c
00000130: 2d30 c739 8a6a 27b8 1a1e a93d a494 883d
00000140: 1c4f 123e 268e 89b7 cbfd 173a 6a5c d7b9
00000150: 1299 a53c d811 2a3a 3c9b 443e bfea 173a
00000160: c4fe f13d 8fa7 973e e842 83ba b80e 4eb9
00000170: 5ba1 dd3d 6cb0 813d 10d8 0537 6e8e a337
00000180: c675 d23d f935 893c e847 2b3a fdc5 b53d
00000190: c4cd c138 8090 8539 c6cd b5b9 d46d 4d37
000001a0: b2dd feb6 2d3c adb8 fb69 40b7 76bf 603a
000001b0: 1031 bf3d cec9 26b8 675b 86b4 8032 503c
000001c0: 035a a3bb 1bc0 b33d 3ccd 6ab9 ac68 e038
000001d0: fddf fbb9 3488 863c f030 84b8 e947 d73b
000001e0: 672d a53a 0f46 dbb8 602c 823e f513 c63d
000001f0: a229 fdb7 601a 073c 3edf a43c d1c6 83b9
00000200: ce99 f7bc aad3 60b8 2be1 7836 65bb beb8
00000210: 8b79 663b 1804 9fbb c21f a4bc ec7d 553d
00000220: f3a9 1fb7 6645 bf3c 11da 4c3d a73a 303c
00000230: 9cba 433c c4c1 203a 133b 15ba 325a 6b3d
00000240: a8c1 19bb 32a8 9c3d 1163 dd3d fc7a 883c
00000250: dbd6 d4b7 5de8 8eb7 de0d e339 c7c0 153b
00000260: 5ed1 b3ba d0cd b83d 9fc8 4e3d bbed 35bc
00000270: b3b9 b73d cb06 1c39 ff5f 9337 d4e8 b33d
00000280: 23b6 043c dffd 4836 8eb4 72b8 a074 16b9
00000290: 2d95 073d 35bd 1cb5 dcb6 7239 4292 f339
000002a0: 79cf 2239 d2b3 7ebb 347c b9b7 2a36 d839
000002b0: 490a 5a35 0d1a 6d3d 41ee b63d 8734 073e
000002c0: 266d 3f36 51bc 513a 49c1 f43b c7b5 32bc
000002d0: d0af 113c dbf4 0eb8 9dbf 8e38 91a0 80b6
000002e0: 407f 393e 914a 0db9 3bd7 b33a a0d6 313d
000002f0: dd5b 95bb 6b57 72bc beca 15ba d8b5 87b5
00000300: a603 973c 5d45 ae38 343c f6b9 f283 f3bc
00000310: fb49 a9b8 faf7 a2b6 6383 a0b9 af69 a9b9
00000320: f1c2 24bc 7c1f 87bb 2f57 46bd 30ca b5b7
00000330: 0831 30bc 9513 18bb 4130 0e3c bb52 f73d
00000340: 1044 a9b8 4719 853e bf3e ceb8 a836 8cbc
00000350: 34b4 543a d6ac 133a 93cf 623b 0d6c 63b7
00000360: 2441 1db8 4764 1f39 9f34 a43d 8ae7 c03a
00000370: 16c9 953d 34fe 553e 3bf0 b0bb 0fa1 993c
00000380: 953a ae3d 471d fab9 03cb 6ebb 8f24 993d
00000390: 1fae 8a37 8673 dd37 edf3 14bb a694 30bc
000003a0: c96a e838 21e5 8c37 3df5 a0b8 a3d4 89b7
000003b0: 10ac e3b9 5abe a238 6680 f6b6 5db7 7239
000003c0: f193 8d37 38b5 4abc c539 cdbb cf93 ebb5
000003d0: 2ce4 efb6 a8dc da38 781c ee3d 3e72 44bb
000003e0: bcae 9eb7 1b3c 72b8 4664 fbb9 4c9b cd3c
000003f0: 2bfc e838 3725 20bb 334b 20b9 5109 4abc
-0.007486622 0.010143959 -4.9239767e-05 0.011571139 -0.0017127501 0.20046872 0.12648128 0.00042507218
-0.000605839 0.000463922 -0.030437713 0.09026966 -0.00015054742 0.043481853 -2.7380704e-05 1.0657635e-05
0.06506268 0.13427876 -0.0011110995 -0.0008142441 -0.00041180852 0.0012345869 0.16761264 0.08041047
-0.00038070083 -0.0038095112 0.0676972 0.00011266953 0.0002971343 0.0004706835 -0.013350284 -2.0742622e-05
0.00047603773 6.911954e-05 0.0003227275 0.05150326 9.214999e-05 -1.4013037e-05 -0.00087561837 3.419466e-05
0.016816705 -0.00060318556 -2.6190604e-05 1.2166657e-05 -0.0013928569 0.29477954 0.006512316 5.4356555e-05
4.260599e-05 0.0005081504 0.047562324 5.306127e-05 -0.0008567384 0.00038593292 -0.004812733 -0.008559762
-3.8615814e-05 -1.1511603e-05 0.03568398 0.08167563 0.087788664 -0.036175642 0.00016011385 0.00017307916
0.0003018544 -0.0003198391 0.082499474 -0.013065268 0.03546013 0.00015256168 -0.008235994 0.015421468
0.0024180189 0.055688273 0.0004023245 0.014215904 0.00037992132 -3.9915125e-05 0.082576945 0.06668976
0.1428799 -1.6397866e-05 0.0005798011 -0.0004107685 0.020214591 0.0006487644 0.19199842 0.0005795173
0.11816171 0.29620025 -0.0010014446 -0.00019651174 0.10821792 0.06332478 7.977724e-06 1.9497438e-05
0.1027637 0.016749369 0.0006533847 0.08875654 9.241284e-05 0.00025475398 -0.00034676323 1.22445235e-05
-7.5955986e-06 -8.2604914e-05 -1.1468767e-05 0.0008573452 0.0933553 -3.976543e-05 -2.502595e-07 0.012707353
-0.0049850955 0.087768756 -0.00022392435 0.00010700649 -0.00048041335 0.016422369 -6.303366e-05 0.0065698517
0.0012602032 -0.00010455783 0.2542448 0.09671775 -3.0179337e-05 0.008246034 0.020125981 -0.00025134397
-0.030224707 -5.360289e-05 3.7085945e-06 -9.094811e-05 0.003516766 -0.004852783 -0.020034675 0.05212204
-9.516708e-06 0.023348521 0.05001265 0.010756171 0.011946347 0.0006132389 -0.00056927017 0.057459064
-0.0023461375 0.07649268 0.10809911 0.016660206 -2.537242e-05 -1.7035922e-05 0.00043307146 0.00228505
-0.0013719012 0.090236306 0.050484296 -0.011104043 0.08970966 0.0001487985 1.7568467e-05 0.08784643
0.008100065 2.9950095e-06 -5.786545e-05 -0.00014348561 0.03310125 -5.838986e-07 0.00023147039 0.00046457542
0.00015526814 -0.0038864505 -2.2111555e-05 0.00041239086 8.1226295e-07 0.057886172 0.08932162 0.13203631
2.852475e-06 0.00080007786 0.0074693304 -0.010907597 0.008892015 -3.4083478e-05 6.8067784e-05 -3.8333897e-06
0.18114948 -0.00013474586 0.001372076 0.043417573 -0.00455807 -0.01479135 -0.000571411 -1.0111207e-06
0.018434357 8.3098865e-05 -0.0004696563 -0.029726002 -8.072328e-05 -4.8568445e-06 -0.0003061547 -0.00032312932
-0.010056243 -0.0041236263 -0.04842299 -2.1671032e-05 -0.010753877 -0.0023205031 0.008678497 0.120763265
-8.0712256e-05 0.25995848 -9.834533e-05 -0.017115906 0.00081140106 0.00056333595 0.0034608587 -1.3555412e-05
-3.7492384e-05 0.00015200778 0.08017849 0.0014717442 0.07313745 0.20897752 -0.0053997315 0.018753557
0.085072674 -0.0004770553 -0.0036436922 0.07477676 1.6531963e-05 2.6399048e-05 -0.00227284 -0.010777628
0.00011082512 1.6795997e-05 -7.675074e-05 -1.643069e-05 -0.0004342501 7.760218e-05 -7.346319e-06 0.00023147227
1.68774e-05 -0.0123723075 -0.00626299 -1.7551882e-06 -7.1493178e-06 0.000104361505 0.11626524 -0.002997532
-1.8916435e-05 -5.7753274e-05 -0.0004794916 0.025098465 0.00011109592 -0.0024436244 -0.00015286803 -0.012331323

gats.0.lin_edge.weight f4 [335, 1]
00000000: 2e6f d43a 18f3 2c3c 69af 77b8 ab78 fc3c
00000010: d308 14bb dfc1 363f 06aa 493f e07c 97b8
00000020: 34ce 04bb 2b70 1739 5f18 0abd 8673 213f
00000030: ad50 9038 ce3d 943d 5816 1db8 1e4a 47b7
00000040: 3449 7c3f b32d 023f 1088 e5bb 4791 e1ba
00000050: 8ed0 e1b7 8dce afbb 6a31 913e 38c2 453f
00000060: a328 27ba f314 933b d445 063f 029b 3739
00000070: ebbb 0aba b166 2e3a 2ddc 3b3b 5063 fcb7
00000080: 6dc5 533b 925d 16b8 f886 bab9 7a08 283f
00000090: cabd 0639 ecb2 a037 620b 193b 5a66 1439
000000a0: 4803 0e3c fe50 cdb8 3502 2cb8 532a b737
000000b0: fbea a53b b49d e03e 41e9 b5ba 8ecd 2338
000000c0: a98a b637 c654 b0ba 28f2 183f d76e 8338
000000d0: 56c0 a4b9 ed26 1b39 0143 d8bb c2aa 3cbd
000000e0: b61f e638 a472 56b7 a949 5c3f dae9 823f
000000f0: 8a4c 643f 8c8a 3abd 7257 beb8 4fea 6238
00000100: da36 7ab9 8f6b 0f37 a2a0 1e3f 98cc 723c
00000110: d825 8e3c 2774 9c39 e18d adbc 665d e43b
00000120: e7a2 743b b773 173f 09b3 503a fa60 873b
00000130: 0e6d 133a 3d62 e1b8 98f4 2e3f 3911 0b3f
00000140: 24de 093f 2fbd ccb7 3411 7b38 46a9 51b9
00000150: f2fc 0d3c 1351 1abc 2e99 3e3f 2350 0d3a
00000160: 740c 363f 4dd7 823f 3bb3 cc39 bde3 1f38
00000170: e96e c23e 8fa4 ea3e 3f4e efb6 a870 0938
00000180: d951 333f 001b 593c cb70 51ba 87a7 ec3e
00000190: 2615 c039 f881 023a d91b 263b 1e8c 99b7
000001a0: 89bb 3ab7 1063 f3b5 3607 d8b8 aa50 af3b
000001b0: 4780 103f d29a 66b8 8f4a c7b6 2561 823c
000001c0: 4251 2d3d cb62 143f 160a 8bb9 0d8f 1f38
000001d0: b2be 35ba a122 bf3c 687b a6b8 4d4a ae3c
000001e0: 23a8 b2ba f74a 47ba 7619 0c3f b914 003f
000001f0: d0cb 1eb8 2541 ab3c b942 703e 4877 133a
00000200: bab4 73bc 03fb a8b8 f705 9236 64bd d0b9
00000210: e725 dbba 3150 c4b7 a71a adbc 8015 f63d
00000220: 61bb 9c36 921c 073c 3d97 a33d 68ac 8fbc
00000230: 3c66 ca3a 3184 553a 8f42 8eba 88b5 6c3e
00000240: 7c5a 8fbc c065 983e a75b b03e 0f4d 453b
00000250: 6146 b1b7 ba92 47b8 2b24 9e3a 7806 4c3e
00000260: f2c9 073c 18f7 263e f4c9 4c3e c158 7cbc
00000270: 4626 363e 8b86 393a acdb a7b9 4714 3c3c
00000280: 7de2 f23b 41a5 39b7 82ef fab8 f781 0d3b
00000290: 6b53 a43d 0956 3ab8 40d0 c5ba b8ff 4bba
000002a0: 5193 ce39 928a 82b9 df5b 91b8 eba7 443a
000002b0: fe16 8db8 9630 773e 5bc2 ac3e 0526 9c3e
000002c0: 6979 78b6 62c4 6d3a 012a ed3d 2326 af3c
000002d0: 6a81 78bc 9a79 1438 6bb2 88b8 458f 0db9
000002e0: e698 2b3e be31 d7b7 a110 823b dc03 173e
000002f0: 97ed c1bc adbc f83c 216b cdb9 1081 a0b8
00000300: 5686 953b bbd4 c9b8 1807 64b8 35e8 08bc
00000310: 76be 33b9 1768 9bb7 773e 06ba adac bdba
00000320: b5fa 1cbc 7e91 a5ba cf84 253d b9ff 2db8
00000330: 9cda 15bd 5571 beba 90fa 093c 569f 1d3e
00000340: 8117 5537 62f3 113e 95ee b536 cd4d 36bd
00000350: b62a 2c3a b241 7f39 98e5 5d39 b034 4ab7
00000360: 7b08 71b8 3fce ed39 2690 073e 373d d8b9
00000370: af1a 093e 6740 753e 7401 32bb b522 c93c
00000380: d7fa 0a3e 9d0b 77b9 46a3 c7bb 2826 2e3e
00000390: ee28 a637 ba35 b4b8 24c2 85ba c1c6 9b3c
000003a0: cec0 4939 04da 81b8 5bb6 40b9 6aba 99b7
000003b0: 7dec a639 c51e 6338 70e3 adb7 d453 4bb9
000003c0: 648d 86b8 43bc 283a 67e8 c9ba 75bc c7b6
000003d0: b7a2 43b7 e3d3 a939 0c84 373e fedf a0ba
000003e0: 02a0 d1b7 4439 28b8 f9e0 12ba 2870 cf3e
000003f0: 2dbb 5039 7d1d 27bb 5133 e939 0e97 1dbd
0.001620745 0.010556005 -5.9052752e-05 0.030819258 -0.0022588267 0.71389574 0.7877506 -7.223501e-05
-0.0020264508 0.00014442268 -0.03371465 0.630669 6.881482e-05 0.07238351 -3.7452526e-05 -1.1878581e-05
0.985492 0.5085098 -0.0070047453 -0.0017209434 -2.6919206e-05 -0.005365199 0.28358012 0.7724948
-0.00063766 0.0044885813 0.524503 0.00017509985 -0.0005292284 0.00066528755 0.002866517 -3.0086987e-05
0.003231372 -3.584993e-05 -0.00035577244 0.65637934 0.00012849938 1.9156803e-05 0.0023352732 0.00014152509
0.0086677745 -9.790248e-05 -4.101005e-05 2.1835009e-05 0.0050634122 0.43870318 -0.0013878719 3.9053666e-05
2.176066e-05 -0.0013452999 0.597445 6.267212e-05 -0.0003142382 0.00014796453 -0.0065997844 -0.046061285
0.00010973161 -1.2782086e-05 0.86049896 1.0227616 0.8917929 -0.045542285 -9.076194e-05 5.4100816e-05
-0.00023862292 8.548507e-06 0.61963856 0.014819287 0.01735203 0.0002984118 -0.021185817 0.006969142
0.0037328543 0.5916094 0.00079612486 0.0041314336 0.00056238554 -0.000107471344 0.6834197 0.54323155
0.53854585 -2.440679e-05 5.9859085e-05 -0.00019994852 0.008666264 -0.009418744 0.74452484 0.00053906644
0.7111275 1.0221955 0.0003904345 3.8120652e-05 0.37975243 0.45828673 -7.131864e-06 3.2768265e-05
0.70046765 0.013251066 -0.0007989525 0.46221563 0.0003663685 0.00049784733 0.0025346188 -1.8304268e-05
-1.1130128e-05 -1.8133742e-06 -0.00010301026 0.005350192 0.56445736 -5.498046e-05 -5.939342e-06 0.015915463
0.04231382 0.57963246 -0.0002651966 3.804178e-05 -0.0006933018 0.023331942 -7.938483e-05 0.021275664
-0.0013630431 -0.0007602418 0.5472635 0.5003162 -3.785995e-05 0.020905087 0.23462953 0.0005625379
-0.014874632 -8.057619e-05 4.3518335e-06 -0.0003981396 -0.001671967 -2.3402363e-05 -0.021130873 0.120158195
4.670976e-06 0.008246558 0.07987831 -0.017538264 0.0015441845 0.0008145003 -0.0010853576 0.23116124
-0.017499201 0.2976513 0.34444925 0.0030105745 -2.1132817e-05 -4.7581947e-05 0.0012065222 0.19924343
0.008287894 0.16305196 0.19998914 -0.01540202 0.17788038 0.00070772384 -0.0003201639 0.011479444
0.0074122534 -1.10653355e-05 -0.00011965541 0.0021592358 0.08023723 -4.4425982e-05 -0.001509197 -0.00077819405
0.0003940114 -0.00024898775 -6.931251e-05 0.00075018284 -6.7276866e-05 0.24139628 0.3374203 0.30497757
-3.702555e-06 0.0009070096 0.11580277 0.02138049 -0.0151675735 3.53992e-05 -6.518218e-05 -0.0001350018
0.16757545 -2.565316e-05 0.0039692675 0.14747566 -0.023672862 0.030363405 -0.00039180464 -7.653434e-05
0.004563133 -9.624051e-05 -5.4366043e-05 -0.008356144 -0.00017141722 -1.852591e-05 -0.00051210023 -0.0014471017
-0.009581258 -0.0012631861 0.04040986 -4.1484574e-05 -0.036585435 -0.0014529625 0.008421555 0.15392813
1.2701262e-05 0.14253 5.421995e-06 -0.04450779 0.0006567644 0.00024343168 0.00021161733 -1.20524055e-05
-5.7466776e-05 0.00045357828 0.13238582 -0.0004124434 0.13389085 0.23950349 -0.002716151 0.024552682
0.1357225 -0.00023560082 -0.0060924618 0.17006743 1.9807801e-05 -8.593076e-05 -0.0010204953 0.019015672
0.00019240679 -6.191808e-05 -0.0001837848 -1.8325827e-05 0.00031838185 5.4149674e-05 -2.0729116e-05 -0.00019390817
-6.415954e-05 0.00064367446 -0.0015404344 -5.9526014e-06 -1.1660791e-05 0.0003239206 0.17921466 -0.0012273786
-2.4989251e-05 -4.0107654e-05 -0.00056029815 0.40515256 0.00019906154 -0.0025499754 0.00044479457 -0.038474135

gats.1.att f4 [1, 5, 67]
00000000: 4ec3 98b2 2769 ebb6 d8ca c4b2 61d6 bf31
00000010: 0afa 41b2 a542 a4b2 b540 b0b1 7638 00b4
00000020: 7766 a7b0 afc7 4ab2 76c3 dbb2 07a5 aab2
00000030: 2d3d dd30 6bec 0ab2 69b8 45b2 29c4 7832
00000040: 2351 7b33 63df d332 7aeb bb31 a89b ec31
00000050: 77ad 95b3 f0d4 37b2 b93d 2f30 9907 20b2
00000060: 45be 8eb2 732c 1ab3 75b7 e8b3 a82e c02e
00000070: b0b9 dfb2 564b 01b1 ed5c ba32 1f9f 1635
00000080: f7f1 7eb2 370b 91b2 1c84 50b1 1cff 51b6
00000090: cd84 83b6 35df 3db4 da1b f5b2 4b29 9633
000000a0: 7526 f8b4 9ae7 37b4 a457 69b2 8ce6 3db6
000000b0: d951 22b2 1c7a 4233 e259 59b2 917d 67b2
000000c0: fa0d 33b1 2a51 a4b0 1f8e a732 bac6 6834
000000d0: 6590 7f35 e617 71b2 c4c1 0a35 da1a 05b1
000000e0: 80f5 8332 cd74 93b2 b74c b3b5 48af f7b3
000000f0: f380 8433 e896 6f32 4d32 a1b1 2fb5 ffb3
00000100: fc65 6d31 f19d c2b0 7a29 a4b2 57ee 98b2
00000110: e46f ebb6 c8f2 c4b2 4def bf31 9add 41b2
00000120: b27c a4b2 801b b1b1 794b ffb3 659d a4b0
00000130: c47a 4bb2 49d2 dbb2 3db9 aab2 a140 db30
00000140: 88f1 0ab2 7454 46b2 390a 7732 7f16 7a33
00000150: 0b61 d332 4399 b931 6804 eb31 9679 95b3
00000160: e4fd 38b2 fa08 2f30 6c17 20b2 4884 8eb2
00000170: fb8c 1ab3 dfd0 e8b3 ebb1 0c2f 7976 dfb2
00000180: 75ed 01b1 bb72 ba32 e09e 1635 0ff0 7eb2
00000190: 3d85 91b2 b9c4 50b1 d20f 52b6 6f93 83b6
000001a0: 6ef6 3db4 7729 f5b2 6cf8 9533 7b1e f8b4
000001b0: 5215 38b4 107a 69b2 17b5 3db6 d234 22b2
000001c0: 279a 4233 a339 59b2 e867 67b2 284d 33b1
000001d0: 61f4 a3b0 3488 a732 5fbe 6834 9686 7f35
000001e0: eb17 71b2 b0dd 0a35 3e93 05b1 271f 8432
000001f0: 5e6b 93b2 2f66 b3b5 a0e8 f7b3 418a 8433
00000200: 034b 7132 3204 a0b1 fa9f ffb3 bebd 6d31
00000210: be4d c5b0 5656 a3b2 b08d 98b2 ee70 ebb6
00000220: abdd c4b2 52c6 bf31 49da 41b2 f964 a4b2
00000230: aa3d b0b1 035d 00b4 3875 b1b0 ff26 4bb2
00000240: 49bb dbb2 ba80 aab2 0d82 de30 0614 0bb2
00000250: e209 46b2 c8fb 7832 114e 7b33 a15f d332
00000260: 1b93 b931 d239 ec31 ac40 95b3 11d4 38b2
00000270: 9520 2e30 c00c 20b2 7299 8eb2 1a21 1ab3
00000280: aadb e8b3 e26d 042f d629 dfb2 e355 00b1
00000290: f592 b932 f1ca 1635 a1f0 7eb2 640d 91b2
000002a0: c427 50b1 bb3f 52b6 c29f 83b6 f0e7 3db4
000002b0: 2812 f7b2 79ee 9533 4339 f8b4 bbfb 37b4
000002c0: 35a0 69b2 e931 3eb6 401a 23b2 d746 4233
000002d0: f44a 59b2 cbbc 67b2 8924 34b1 feaa a6b0
000002e0: 0593 a732 8977 6834 eb18 7f35 8510 71b2
000002f0: 6cb4 0a35 1d76 04b1 fa04 8432 edb5 93b2
00000300: 8491 b3b5 cb79 f7b3 0885 8433 72d3 6e32
00000310: 7ec9 9fb1 9130 00b4 4410 6d31 3ec6 c7b0
00000320: 2a41 a4b2 49d7 98b2 ed8d ebb6 e1c2 c4b2
00000330: 7bdf bf31 93ce 41b2 ffe9 a3b2 eb0d b1b1
00000340: 6022 00b4 c48a a2b0 dc8a 4ab2 ecaf dbb2
00000350: 4487 aab2 4297 db30 ddfc 0bb2 f7fc 44b2
00000360: 989e 7632 30bc 7a33 55ac d332 3ca7 b931
00000370: 9603 ed31 df6d 95b3 9c3c 38b2 7b9a 2e30
00000380: a517 20b2 b87a 8eb2 cbac 19b3 97cd e8b3
00000390: b1db 062f 9bb6 dfb2 f846 01b1 243a ba32
000003a0: e685 1635 a0f2 7eb2 3527 91b2 af39 50b1
000003b0: ed64 52b6 f7a8 83b6 e6c2 3db4 11e9 f5b2
000003c0: 89e9 9533 c727 f8b4 9641 38b4 b4ee 68b2
000003d0: 6f16 3eb6 5e94 22b2 af3d 4233 137a 59b2
000003e0: 50bd 67b2 4e99 32b1 d8ef a7b0 a264 a732
000003f0: c26a 6834 c348 7f35 7706 71b2 20a0 0a35
-1.7783943e-08 -7.015787e-06 -2.2909646e-08 5.5832037e-09 -1.1290931e-08 -1.912242e-08 -5.1296305e-09 -1.194147e-07
-1.2179971e-09 -1.180335e-08 -2.558384e-08 -1.986565e-08 1.6097254e-09 -8.086412e-09 -1.1508839e-08 1.4480102e-08
5.8514285e-08 2.4665217e-08 5.469187e-09 6.8862e-09 -6.969906e-08 -1.0700418e-08 6.375234e-10 -9.314953e-09
-1.66175e-08 -3.5896345e-08 -1.08367125e-07 8.739437e-11 -2.6045058e-08 -1.8814794e-09 2.1695508e-08 5.6110906e-07
-1.4839762e-08 -1.6885322e-08 -3.034308e-09 -3.129192e-06 -3.9195643e-06 -1.7683199e-07 -2.853442e-08 6.9924305e-08
-4.622158e-07 -1.7127459e-07 -1.3582312e-08 -2.829739e-06 -9.448251e-09 4.5280203e-08 -1.2651499e-08 -1.347452e-08
-2.6055873e-09 -1.1955639e-09 1.9505988e-08 2.167898e-07 9.5205024e-07 -1.403348e-08 5.169097e-07 -1.936931e-09
1.5362048e-08 -1.7166167e-08 -1.3358866e-06 -1.1533717e-07 6.170185e-08 1.3945943e-08 -4.6914352e-09 -1.190732e-07
3.454601e-09 -1.4160247e-09 -1.9110974e-08 -1.7803513e-08 -7.0165715e-06 -2.2927807e-08 5.586037e-09 -1.1284465e-08
-1.9148818e-08 -5.1545044e-09 -1.1888091e-07 -1.1977305e-09 -1.1844069e-08 -2.5590582e-08 -1.9874841e-08 1.5952716e-09
-8.087575e-09 -1.1544319e-08 1.4379617e-08 5.822812e-08 2.4607763e-08 5.4016325e-09 6.839901e-09 -6.9604695e-08
-1.0767938e-08 6.3677386e-10 -9.318551e-09 -1.659113e-08 -3.598414e-08 -1.0841335e-07 1.2796135e-10 -2.6014492e-08
-1.890695e-09 2.1705423e-08 5.611055e-07 -1.4839329e-08 -1.6940811e-08 -3.0379808e-09 -3.1301647e-06 -3.9212678e-06
-1.7691647e-07 -2.854061e-08 6.983541e-08 -4.6215777e-07 -1.7144092e-07 -1.3590139e-08 -2.8268603e-06 -9.441651e-09
4.5309346e-08 -1.26441675e-08 -1.3469595e-08 -2.6091787e-09 -1.1929268e-09 1.9503297e-08 2.167594e-07 9.519075e-07
-1.4033485e-08 5.1731604e-07 -1.9437745e-09 1.5380989e-08 -1.7161877e-08 -1.3366279e-06 -1.1544148e-07 6.171877e-08
1.4045102e-08 -4.65709e-09 -1.19034624e-07 3.4595895e-09 -1.4355732e-09 -1.9014958e-08 -1.7759561e-08 -7.0166925e-06
-2.2918206e-08 5.581378e-09 -1.1283711e-08 -1.913803e-08 -5.1292846e-09 -1.1954766e-07 -1.291176e-09 -1.1825022e-08
-2.5580123e-08 -1.9849143e-08 1.6189589e-09 -8.095418e-09 -1.1527364e-08 1.4492748e-08 5.8511493e-08 2.460712e-08
5.4009326e-09 6.8750774e-09 -6.950117e-08 -1.0758428e-08 6.3347133e-10 -9.316125e-09 -1.6600755e-08 -3.5886025e-08
-1.08432985e-07 1.2044368e-10 -2.5979642e-08 -1.8675272e-09 2.1603663e-08 5.6174673e-07 -1.48394586e-08 -1.6886311e-08
-3.0290588e-09 -3.1329535e-06 -3.9227025e-06 -1.7686375e-07 -2.8762841e-08 6.981731e-08 -4.6235263e-07 -1.7134782e-07
-1.3598812e-08 -2.8341258e-06 -9.493817e-09 4.5233573e-08 -1.2648105e-08 -1.3488896e-08 -2.6214215e-09 -1.2126689e-09
1.9508215e-08 2.165017e-07 9.5031163e-07 -1.4031802e-08 5.1671555e-07 -1.9275668e-09 1.5369086e-08 -1.7195783e-08
-1.337889e-06 -1.1523988e-07 6.170927e-08 1.39015e-08 -4.650416e-09 -1.1938597e-07 3.4497285e-09 -1.45355e-09
-1.9121746e-08 -1.779303e-08 -7.020068e-06 -2.2906024e-08 5.5842384e-09 -1.1281048e-08 -1.9082107e-08 -5.1529603e-09
-1.1933435e-07 -1.1826491e-09 -1.17895205e-08 -2.5574955e-08 -1.9852116e-08 1.5977337e-09 -8.148359e-09 -1.1466219e-08
1.4355145e-08 5.8378816e-08 2.4642e-08 5.403221e-09 6.8980155e-09 -6.9583386e-08 -1.0723991e-08 6.352036e-10
-9.318602e-09 -1.6586782e-08 -3.5780243e-08 -1.08407384e-07 1.2265279e-10 -2.6043656e-08 -1.8812312e-09 2.167969e-08
5.60742e-07 -1.4839912e-08 -1.6898051e-08 -3.0300773e-09 -3.1351185e-06 -3.9237743e-06 -1.76729e-07 -2.862774e-08
6.980833e-08 -4.6222542e-07 -1.7160195e-07 -1.3558452e-08 -2.8325264e-06 -9.463376e-09 4.5225246e-08 -1.2658819e-08
-1.3489014e-08 -2.5989553e-09 -1.2219017e-09 1.9487121e-08 2.1645522e-07 9.5100785e-07 -1.4029516e-08 5.164202e-07

gats.1.bias f4 [67]
00000000: a87e 16ba f318 21ba a2b4 75b8 666f b9b8
00000010: 4fd4 c2b8 eebb 4ab9 7c5f aeb8 3013 503a
00000020: 950a 4bba abe0 6a38 01bf 4339 9b21 a6b9
00000030: 6e09 ec38 ae58 98b9 de9a f7b8 ee2a d1b9
00000040: 6217 4fbb d224 61b8 f4eb 45b8 24d8 8db9
00000050: f2e5 b1b7 52c3 17ba db97 c737 d638 d6b8
00000060: 8428 2db9 3c63 abb9 a8d8 bcb9 3948 07b9
00000070: 3b77 8ab8 b753 d3b9 57ee b8b9 87bb 8c39
00000080: 47ba 56b9 9759 71b9 c542 8637 d776 a4ba
00000090: 3e3f 11ba 504f 5637 4f39 3f3a e130 bc39
000000a0: 2c9a 89b8 aa95 a139 6fe4 7438 b6fc 50ba
000000b0: 39c2 87b9 104e 4f38 8371 5bb9 eb9b 63b9
000000c0: 8f4e 7f38 cba9 47b9 8e1b acb9 5aba f539
000000d0: 35e2 59b8 c753 8eb9 af65 29b9 66c6 9938
000000e0: 37a4 a8b9 362d 62ba ca18 12b9 2693 d836
000000f0: 70ed f0b9 d451 073a a4b0 2bb9 8018 8139
00000100: 67a8 bab8 1f23 0e36 42ca 73b9
-0.0005740919 -0.00061453803 -5.858078e-05 -8.842237e-05 -9.2901864e-05 -0.0001933423 -8.314752e-05 0.00079374295
-0.00077454123 5.5999186e-05 0.00018667804 -0.00031687025 0.00011255113 -0.0002905777 -0.00011806724 -0.00039895572
-0.003159963 -5.3678472e-05 -4.718821e-05 -0.00027054653 -2.120712e-05 -0.0005789298 2.3793362e-05 -0.00010214902
-0.00016513659 -0.00032689597 -0.00036019576 -0.00012901508 -6.602561e-05 -0.0004030743 -0.00035272792 0.000268426
-0.00020478024 -0.00023016926 1.6005137e-05 -0.0012547624 -0.0005540735 1.277386e-05 0.00072946114 0.00035894572
-6.561386e-05 0.0003081982 5.838688e-05 -0.0007972227 -0.00025893914 4.9425347e-05 -0.00020927754 -0.00021706491
6.08699e-05 -0.00019041372 -0.00032826926 0.00046868884 -5.1947503e-05 -0.0002714677 -0.00016154976 7.332563e-05
-0.00032165807 -0.0008627953 -0.0001393288 6.454432e-06 -0.00045953272 0.00051620346 -0.00016373635 0.0002462305
-8.9005385e-05 2.1180092e-06 -0.00023249633
