inference/SymEx/model_checkpoints/SymEx_model_9.pt (torch, 503011 bytes, 21 tensors)

gats.0.att f4 [1, 5, 67]
00000000: b1c4 613e 8024 99bc 34b6 9d39 6501 8e3f
00000010: d7ae 733b 4f20 5eb8 5576 8239 dd45 5e3f
00000020: 245a 393b 7242 e33e 8f0c 533f 38da 1d3a
00000030: 609e b439 da5e 7cba bb07 8939 d6be 6c3d
00000040: 12ef 863c 84e0 07b8 4346 19ba 7e90 8c39
00000050: 735d c43b e7ce 2c3f 9c35 3b3c 0232 6c38
00000060: 8ef7 97bb 5833 27bb b012 473d 6eec 183f
00000070: 64a7 ebb9 8494 e0b3 99f5 663f 3067 8939
00000080: d4d9 0839 8126 f0b9 2c4c be3b fa74 8ebc
00000090: 0fd0 e837 4cdb 7e3a c5ba 22b9 843f b5b9
000000a0: aef1 b53f 8bfb 913c f010 ceb9 948d 8a3b
000000b0: d3ca d53a cc5f 513f 9ea0 58b7 7135 823e
000000c0: 73d2 2239 1624 643b d9b7 d9b7 8245 0239
000000d0: 2d0d 87ba 2909 983d c282 623c a98e 793f
000000e0: 8dc0 efbb 1301 3bbc aa97 64bd c4e5 02b9
000000f0: 0106 ab3c f9bb 9339 0f58 5cb5 0c3a 1e3a
00000100: dd78 773b b2b3 323d 6d76 9337 667b 903f
00000110: b88e acbc 39ce c839 404a ea3d e221 943f
00000120: 44f5 713a 143b e338 c3a5 c3bb a66e eebb
00000130: a0f5 243f b825 1d3f b82d 4e39 ba3a ee3a
00000140: 3bdb 4ebc ea4b 093b e5df ba3d 5049 4dbc
00000150: 8935 443a f190 88b8 a778 b639 5b55 893f
00000160: 6155 c4bb 7b03 3dbb a135 16ba 32c1 a53b
00000170: 43e0 733f 3c27 a13d 68c5 bd3b e79e 9dbf
00000180: dcfb 00b8 86fb e93b c644 3b39 85f5 bf37
00000190: 6d38 a639 3901 de3d f2a9 eebd 6909 ccb6
000001a0: a410 e238 0c26 e2b8 943c 8e3e 1c64 f73e
000001b0: e943 843f 0a35 92ba 5c64 cb3e ab64 b4ba
000001c0: 7325 45be f316 0138 e099 bcbb 9844 033a
000001d0: 4dac 033e 7712 bab9 bf62 e337 332a 8eb9
000001e0: 48bb 893c f6d7 88bc 9bef 97bf 301a fdbd
000001f0: 628b 19be 4956 1ebd ac4b 72ba 524b fdbe
00000200: c6e0 b737 401e 4e35 0c17 113e 82bc 58bc
00000210: 939b e8be 9b77 35ba acc9 04bf 62f7 993d
00000220: 7624 263a a87a a03f 79f7 dcbb 06e6 0539
00000230: 382b 7b38 692f 803a 4f38 58bb 5205 d13e
00000240: 9d4b 4f3f d5ec e5b8 7dce bb3a 937d 06ba
00000250: 861e 0b3a 6d21 443e 58ae 39bf d4b6 b339
00000260: 5282 4e3a 2642 7b37 27d1 6ebf 0cd6 95bb
00000270: 0b65 65bf b541 0d3a a69e 95bb 2d9f d539
00000280: fc21 4b3d 865a 813b d7d4 a135 58d9 7d37
00000290: 50f6 8b3b 5317 86b7 9271 78b8 8ef5 3f3e
000002a0: 394b f0bb 388d 6c3c f482 15b8 bfed 8cbf
000002b0: 5dd1 7838 2559 9e3c 459d 0ebf 54b6 3ebb
000002c0: 5996 a03a 93c4 7e3f 1b19 593f 3926 e33b
000002d0: 411c 2eb8 e807 f9bb d7dc dc38 f8fa a83b
000002e0: ec94 c4b9 6f31 a6b9 6b8b e23a 141f 6c3d
000002f0: 4c1e fcbc c74b 0239 142e d9bc bf35 6b3c
00000300: dc18 b53d c35d ffbd 61ea 2b3e 6d27 1cb8
00000310: 009a 8337 569a 743f 7e87 173f 896b 3b3f
00000320: 9968 8c35 a4a0 033a 92c8 9f3e feac 21b9
00000330: 7ca9 17bf 87f0 573d f176 0eb9 3898 8dbf
00000340: 5c46 12be 49ef 40bc 1066 9bbc 500b 193f
00000350: 0cba c339 d2e4 3db9 9abb 72bb 39dd 9e39
00000360: 9adc bebd b7fc 6cbf 10ac 14b9 ad21 2c3a
00000370: 49c5 dbb8 c3be 9f38 9a2a 44bf 2432 89bc
00000380: 15c0 8b39 732c 11bd d734 3b3f 7add f9be
00000390: e38b 63bb 5f33 6f38 ab01 9c36 1c03 9dbb
000003a0: a6e2 0dbf ebb2 9e36 9980 8f38 b058 fcbe
000003b0: 736b dbbd 1602 dd35 b81a ffb9 f2e8 59bf
000003c0: 01c8 22be 4f34 9fbf 264b ab3d 9826 793a
000003d0: 54dc 7bbe e5e0 0dba be6e 9abd caa4 8c37
000003e0: 3cb0 22bf 91a7 273f 82d2 df3c 5c30 9239
000003f0: 6f84 2239 cf60 923a 6076 d9bd 29af 3bba
0.22047688 -0.018694162 0.00030081125 1.1094176 0.003718307 -5.2959014e-05 0.00024883696 0.8682535
0.0028282488 0.4438663 0.8244104 0.0006021592 0.00034450274 -0.0009627171 0.00026136436 0.057799183
0.01647142 -3.2395605e-05 -0.00058469566 0.00026810536 0.0059925853 0.6750321 0.011426356 5.6313358e-05
-0.004637665 -0.002551278 0.048601806 0.59735763 -0.0004494741 -1.0457828e-07 0.902185 0.00026207557
0.00013051118 -0.00045805055 0.0058074202 -0.017389763 2.775344e-05 0.0009722009 -0.00015519101 -0.00034570333
1.421438 0.01782014 -0.00039304 0.004228303 0.0016311057 0.817868 -1.2912e-05 0.25431398
0.00015527922 0.0034811548 -2.5954027e-05 0.0001242366 -0.0010303609 0.07423622 0.01382512 0.9748331
-0.007316655 -0.01141383 -0.0558087 -0.0001248336 0.020876886 0.00028178075 -8.208453e-07 0.00060358713
0.003776125 0.043628402 1.7578912e-05 1.1287658 -0.021064147 0.0003830062 0.11439943 1.157284
0.0009229968 0.00010835208 -0.005970688 -0.007276374 0.64437294 0.6138568 0.00019662722 0.0018175461
-0.012625511 0.002094979 0.09124736 -0.012529686 0.0007484784 -6.511983e-05 0.00034803638 1.0729173
-0.0059916233 -0.0028841186 -0.0005730037 0.005058431 0.9526407 0.078688115 0.005791355 -1.2314118
-3.075214e-05 0.0071405796 0.0001785933 2.2883303e-05 0.00031704028 0.10840077 -0.11653508 -6.0807693e-06
0.00010779619 -0.000107836066 0.27780592 0.48318565 1.0333225 -0.0011154723 0.39725006 -0.0013762912
-0.19252567 3.077737e-05 -0.005755648 0.00050074747 0.12858696 -0.00035490442 2.7106491e-05 -0.0002711579
0.016812935 -0.01670454 -1.1869997 -0.123585105 -0.14994577 -0.038656507 -0.00092428434 -0.49471527
2.1919968e-05 7.6785e-07 0.14168948 -0.0132285375 -0.45431194 -0.00069224247 -0.51870227 0.07517888
0.00063378306 1.2537432 -0.006743368 0.00012769559 5.9883314e-05 0.0009779754 -0.0032992547 0.40824372
0.8097475 -0.00010963684 0.0014328506 -0.00051304064 0.00053069775 0.19153376 -0.7253165 0.00034277758
0.00078776956 1.4976167e-05 -0.9328789 -0.0045726355 -0.89607304 0.0005388514 -0.0045660315 0.0004074512
0.049592957 0.003947559 1.2057379e-06 1.5130579e-05 0.004271306 -1.5984906e-05 -5.923358e-05 0.18746015
-0.007333186 0.014437966 -3.5646328e-05 -1.1010054 5.9322792e-05 0.019329617 -0.55708724 -0.0029100375
0.0012251838 0.995187 0.8480393 0.0069320467 -4.1511146e-05 -0.0075998195 0.00010531552 0.005156871
-0.0003749499 -0.00031698818 0.0017283981 0.057646826 -0.030776165 0.00012425995 -0.02651123 0.014356076
0.08842632 -0.124690555 0.16788627 -3.7230016e-05 1.5688129e-05 0.95548 0.5919112 0.7321096
1.0461255e-06 0.0005021191 0.3120771 -0.00015418601 -0.5924299 0.05271962 -0.00013586484 -1.1062078
-0.14284652 -0.0117758 -0.018969566 0.59782887 0.00037331914 -0.00018109687 -0.0037038089 0.00030300932
-0.0931942 -0.9257311 -0.00014178478 0.00065662974 -0.00010479481 7.617243e-05 -0.76627505 -0.016747542
0.00026655258 -0.03544278 0.731275 -0.48801786 -0.003472083 5.7029883e-05 4.6493565e-06 -0.0047916304
-0.55423963 4.7295957e-06 6.8427245e-05 -0.49286413 -0.10713854 1.646639e-06 -0.00048657297 -0.8512107
-0.15896608 -1.2437838 0.08363943 0.0009504347 -0.24595767 -0.0005412235 -0.07540654 1.6766036e-05
-0.6355016 0.6549006 0.027322058 0.0002788332 0.0001549886 0.0011167767 -0.10618281 -0.0007159585

gats.0.bias f4 [67]
00000000: 246c 87bd 292a 4ebd 02e4 9539 7886 f73c
00000010: fe2e 2bbe dab0 95b9 7442 33bc 1c8a bbbd
00000020: e743 69bd 71c2 a7bc 3ae2 f93c 73cc 103a
00000030: 725a 663a 51a4 3fbd d2a2 3138 70b5 6abd
00000040: 43c0 d1bd f587 2638 9c7e 9fbd 7a79 f4ba
00000050: 9b08 ecbd 21af 3dbd 3047 66bd 444b d1bc
00000060: f819 2fbd 9681 a5bd f4b7 72bc 296c 07bd
00000070: e4c5 ccbc 86a0 15ba d085 4cbd dadf 193c
00000080: 2d06 61b8 b5d3 babd 172d 0bbd 88a4 53bd
00000090: dc94 18b9 c1ec 0ebd 40a1 99bc 4d52 9b3c
000000a0: 8dbb dabd 00d0 36bd 41a8 61bd 8215 07be
000000b0: 7a5b 92bd affa 56bd 9284 bdb6 0886 a9bd
000000c0: 1e74 93bc 6238 d5bd f6b0 43b9 ab3f 2d3a
000000d0: d4e5 d0bd 6f71 3cbd 2ac1 81bd ad45 4bbd
000000e0: d3e0 9abd 434a 01bd b11c 32bc f81f b1bd
000000f0: 014e 93bb a69a 9abc 4754 3b38 8cad 16bd
00000100: 3f8e b1bd b7e3 80bd 1453 61b7
-0.06612423 -0.050333176 0.00028589374 0.030215487 -0.16717145 -0.0002855126 -0.010941137 -0.09157202
-0.056949522 -0.02047846 0.030503381 0.00055236294 0.0008787281 -0.046787564 4.2351727e-05 -0.05730194
-0.10241749 3.9704104e-05 -0.07787821 -0.0018651925 -0.11525079 -0.046309594 -0.056220233 -0.025548585
-0.042749375 -0.08081357 -0.014814366 -0.033062134 -0.024996705 -0.0005707819 -0.0499323 0.009391749
-5.3649932e-05 -0.09122411 -0.033978548 -0.05167058 -0.00014551304 -0.034893755 -0.018753648 0.018960143
-0.10680304 -0.044631958 -0.0550921 -0.13191798 -0.07146354 -0.052485164 -5.648072e-06 -0.082775176
-0.017999705 -0.10411145 -0.00018662572 0.00066089135 -0.10200086 -0.046006616 -0.06335671 -0.049626995
-0.07562413 -0.031564962 -0.010871098 -0.08648676 -0.004495383 -0.01887257 4.4662764e-05 -0.0367866
-0.086697094 -0.06293433 -1.3430388e-05

gats.0.lin_l.weight f4 [335, 67]
00000000: fb33 0000 f75c 0000 1ec3 56bd 8788 2a3d
00000010: 2380 6dba 6b2e 0080 bb84 debd 1dbc 0d3d
00000020: c5ae 0080 3977 0080 d9e1 63bd f76a 0000
00000030: 2166 0000 a064 0080 8b72 0000 8567 0000
00000040: 9331 0080 c364 0000 823d 6cbd c889 773d
00000050: 8623 0080 59af e2bd 076e 0000 db66 e23c
00000060: 5fb0 ae3c 867e 263d 23d0 643d 9bca 033c
00000070: 12e2 fe3b 2cc5 ebbc c572 0000 73c8 b1bd
00000080: f74a 1d3d b1c5 083e 4a3f 79bb 020e 0dbc
00000090: 4d2d e63b a1fa 74bb 866b 0000 7e64 0000
000000a0: 7978 9dbd fc0f 02bd c094 ef3d 11ea 203d
000000b0: e764 0000 6f2b 20b8 a727 1ab4 3f77 f8bc
000000c0: 345a 0000 fd59 0000 9c3a 0000 d345 0000
000000d0: 9c4d 0000 bd71 0080 495f 0080 3164 0000
000000e0: 926c 0000 b071 0080 965e 0080 c023 c93c
000000f0: 970c 3f3c c37c 0000 906c 0080 229a 0080
00000100: ce5e 0000 ebaf 0080 ca14 313d 7e93 0000
00000110: 4a6b 0080 3bcd 54bd 867a 25bb d463 adb9
00000120: 2572 0080 6fb5 e0bc 21c6 1abe c45b 0000
00000130: 7b3e 0080 f29e 24bd 7061 0080 04b3 0000
00000140: 062e 0080 c49f 0000 d661 0000 0362 0000
00000150: 183b 0080 3f73 2f3d 24a9 153e 958d 0080
00000160: 34a2 40bd 9713 0000 1a2f 993e 7051 b0bd
00000170: 9f31 90bd 0f2a 9cbe 1387 573d 803a c93e
00000180: 0499 143d c65e 0000 bbcd 65bb 2418 74bd
00000190: d992 0bbe bd12 583b 421c cebb d6de 6d3c
000001a0: 0033 8dbb 6f5c 0080 4c6c 0000 9c2e bb3d
000001b0: acb2 883e fd82 553e fc15 06be 41a7 0000
000001c0: e7ea 90ba 0e9e 3217 5a99 253d 384c 0080
000001d0: 976f 0080 7232 0080 6f71 0000 e285 0080
000001e0: d159 0080 ffb2 0000 0268 0080 2260 0000
000001f0: 0563 0080 855a 0080 7330 c93e 110e 36bc
00000200: 8da4 0080 fc62 0080 4856 0080 7ea6 0000
00000210: fa6a 0000 de5d 313a 5184 0080 fc5a 0000
00000220: ba56 343a 836e df3b 8b3d 6d36 a542 0000
00000230: 859c 9038 570b 95b9 5669 0080 f230 0000
00000240: fd38 3d39 fea2 0080 e5a6 0000 5389 0000
00000250: 7863 0080 0c71 0080 ae6b 0000 ab65 0000
00000260: 4c4d ad3a 0b4e 94b8 b9b2 0000 e2fb 5438
00000270: f15a 0000 2de0 8eb8 671e f5b7 e2a8 beb8
00000280: cfb9 38ba 212c c038 1594 a5b8 b998 58b6
00000290: 2d8d 0000 3e8d f536 0fb6 4a38 f83a 17bb
000002a0: 1860 d5b8 a90b cf3b 2ba9 6037 52ff 67b7
000002b0: 0a5f 0080 9e47 0000 48e1 48b8 1602 ce37
000002c0: f9b1 ad38 1520 003a 8b73 0000 5860 8e35
000002d0: 1541 0080 257b 8ab5 9967 0000 e12d 0080
000002e0: 9760 0080 c664 0000 7c6f 0000 9aa4 0000
000002f0: d027 0000 8764 0080 6b67 0080 e5b2 0000
00000300: 5072 0080 88e7 bb3a 2f49 bbb6 a25c 0000
00000310: 5aac 0080 7449 0080 196b 0000 466a 0080
00000320: 1c3b ef38 b0a5 0000 6b46 0000 a8f1 12be
00000330: b9df e43e 57a6 a7bc cc7c 0080 2544 dfbe
00000340: c43d e8bd 6ca0 0080 a867 0080 523b a8be
00000350: 1866 0080 cf88 0080 1e5f 0000 211f 0080
00000360: 6d72 0000 545e 0000 3460 0000 ab28 32be
00000370: 1e51 be3e 3991 0080 1cba 03bf 9774 0080
00000380: b5e6 4abc 6a7e 40bd 6025 553f 3010 3f3e
00000390: b4be ddbd 10f2 a93e 0bdf 1fbe e94f 0080
000003a0: 7f1f bcbe 3d0a 853d fe1d 473f 6c82 64ba
000003b0: 48ed 1a3e 476c a13d c40b 9bbc 9c95 0000
000003c0: 1263 0080 31d7 bcbe 8103 58be 6f6a e43e
000003d0: 5d18 463e 0570 0080 b0d7 6ebb e76c 1338
000003e0: e725 26be cda1 0080 566a 0080 9f59 0000
000003f0: faaf 0000 a62e 0000 e15e 0000 2c66 0000
1.8647e-41 3.335e-41 -0.052432172 0.04163411 -0.00090599264 -1.6652e-41 -0.1086516 0.034603227
-6.2695e-41 -4.2769e-41 -0.055635307 3.8372e-41 3.6637e-41 -3.6097e-41 4.109e-41 3.7136e-41
-1.7784e-41 3.6146e-41 -0.057675846 0.060434133 -1.2743e-41 -0.11068601 3.947e-41 0.027636936
0.021324335 0.040648006 0.055862557 0.00804391 0.0077784145 -0.028780542 4.1172e-41 -0.08680811
0.03840157 0.13356663 -0.0038032108 -0.008609297 0.0070244432 -0.0037380832 3.8572e-41 3.605e-41
-0.07688994 -0.031753525 0.11698294 0.039285723 3.6197e-41 -3.8187423e-05 -1.4356793e-07 -0.030330298
3.2359e-41 3.2282e-41 2.1025e-41 2.5048e-41 2.7841e-41 -4.0802e-41 -3.4182e-41 3.5942e-41
3.8948e-41 -4.0783e-41 -3.3931e-41 0.02455318 0.0116607165 4.4756e-41 -3.8945e-41 -5.5292e-41
3.401e-41 -6.3107e-41 0.043232717 5.291e-41 -3.8488e-41 -0.051953536 -0.0025250032 -0.0003307151
-4.0947e-41 -0.027430264 -0.15114643 3.292e-41 -2.2414e-41 -0.040190645 -3.4954e-41 6.4219e-41
-1.651e-41 5.7313e-41 3.5097e-41 3.516e-41 -2.1199e-41 0.042834517 0.14615303 -5.079e-41
-0.04702969 7.028e-42 0.29918748 -0.08609283 -0.070407145 -0.30500838 0.05261905 0.39302444
0.03627874 3.3998e-41 -0.0035065252 -0.059593335 -0.13630237 0.0032970153 -0.0062899897 0.01451846
-0.004309058 -3.3159e-41 3.885e-41 0.091397494 0.26698816 0.2085075 -0.13094324 6e-41
-0.0011056334 5.7714395e-25 0.04042945 -2.7342e-41 -4.0031e-41 -1.8096e-41 4.0692e-41 -4.8028e-41
-3.222e-41 6.4212e-41 -3.7311e-41 3.4486e-41 -3.5522e-41 -3.2472e-41 0.39294776 -0.011111752
-5.903e-41 -3.5509e-41 -3.0952e-41 5.9726e-41 3.8376e-41 0.00067660015 -4.7466e-41 3.2639e-41
0.00068793783 0.006818594 3.5351575e-06 2.3908e-41 6.895609e-05 -0.00028427943 -3.7787e-41 1.7558e-41
0.00018045674 -5.847e-41 5.987e-41 4.9263e-41 -3.5683e-41 -4.0554e-41 3.8628e-41 3.6472e-41
0.0013221889 -7.0717266e-05 6.4114e-41 5.0779323e-05 3.2624e-41 -6.812844e-05 -2.9220433e-05 -9.091363e-05
-0.00070467306 9.163493e-05 -7.8953955e-05 -3.2275404e-06 5.0644e-41 7.3180117e-06 4.833011e-05 -0.002307592
-0.0001017453 0.0063185287 1.3390828e-05 -1.3828119e-05 -3.4094e-41 2.5691e-41 -4.7893525e-05 2.4558085e-05
8.282433e-05 0.0004887593 4.1449e-41 1.0607864e-06 -2.3347e-41 -1.0317641e-06 3.7164e-41 -1.6458e-41
-3.465e-41 3.615e-41 3.9993e-41 5.9048e-41 1.4282e-41 -3.6062e-41 -3.71e-41 6.4175e-41
-4.1008e-41 0.001433597 -5.581554e-06 3.323e-41 -6.1828e-41 -2.635e-41 3.842e-41 -3.8124e-41
0.00011407418 5.9437e-41 2.5261e-41 -0.14349997 0.44701937 -0.02046506 -4.4769e-41 -0.43606678
-0.11339906 -5.7549e-41 -3.7185e-41 -0.32857758 -3.6624e-41 -4.9078e-41 3.4122e-41 -1.1167e-41
4.1048e-41 3.3839e-41 3.4511e-41 -0.17398326 0.37171263 -5.2096e-41 -0.51455855 -4.1825e-41
-0.012384106 -0.046995558 0.83260155 0.18658519 -0.10827389 0.33192492 -0.15612428 -2.8666e-41
-0.3674278 0.064960934 0.7778014 -0.0008716944 0.15129578 0.078819804 -0.018926509 5.367e-41
-3.554e-41 -0.36882928 -0.21095087 0.44612452 0.19345231 -4.0185e-41 -0.0036444478 3.5148954e-05
-0.16225396 -5.8043e-41 -3.8146e-41 3.215e-41 6.3128e-41 1.6734e-41 3.4036e-41 3.6652e-41

gats.0.lin_l.bias f4 [335]
00000000: ca23 55bc f8d6 e4bd b93c 6fba fc74 0f3e
00000010: 6fc6 3abd 5373 09b9 ca5f 69ba 8445 32bd
00000020: 4081 c3ba 4cf9 dc39 bb59 a63d d9b9 6738
00000030: 398e 2dba 4c13 3abc dff7 7bba 9b11 ea3c
00000040: 6520 57bd cbb7 2db9 c667 6ebc baff 3839
00000050: 78cd 9abb ad89 8abb 7367 a7bd bbce 2438
00000060: ecd1 6abd 6a4c fabb 7223 7a3d 0022 67bc
00000070: 5f32 5bbc 6134 cab9 4d17 f538 981b 193b
00000080: cbbf 2237 b083 403c 97ff bfbd 1d68 d7bd
00000090: 61a6 03b9 d4c3 19bb 2e51 873a d56d bf3d
000000a0: 15b2 023d 5d84 2fbd 1f98 32bc a8aa 17be
000000b0: 8744 debc ad8b e4bc 5773 59b8 272f 183d
000000c0: 5299 053a b0d8 d8bd 6670 8039 1796 2d3a
000000d0: 3382 b3bc a097 02be 08b7 59bd b4b6 b03c
000000e0: 2cad eb3b 8544 5cbd 0b1e 31bc 96d5 03be
000000f0: 0f06 9fbd 3d7e 1c3a ae32 d8b8 613d 983c
00000100: cb90 b4bd f47b 8ebc f275 76b8 4732 5f3d
00000110: 6d2c f23c a850 5fba ec6f 69bd 8bd3 9c3d
00000120: 0437 02ba 53bd 3eba 6f1f c23b 1261 a9bd
00000130: afd6 823d e9b9 f13d fc93 af39 311e 21ba
00000140: 626e 59bd f3ff 8a3a c675 c0bd ece3 a8bd
00000150: dfb8 38ba b852 63bc b0dc 2739 84d1 8a3d
00000160: f0d1 adbc c879 d6bc e44c a3b9 094f 4e3d
00000170: 8cee b23d c0e1 cc3c c5c0 b6bb 65be 91bd
00000180: def1 bab9 0929 f7bb 8608 a33a f05e 29b8
00000190: f86a 19bc 56f1 aa3c a107 89bc 9501 e3b8
000001a0: 78f2 9db9 79ab 30b9 b019 653d c046 533d
000001b0: aa57 853c 96fe 25bc a3d0 ebbd 182c a2bc
000001c0: 1f48 b0bc 19de f9b7 b6d6 febd 5149 5c3a
000001d0: 597f 3ebc 8347 7e38 38dd a839 135d b6bc
000001e0: ec7c 183c 6110 373d c729 29bb 10ef a2bd
000001f0: bc06 a6bd 8588 a4bd 2b54 c4bd 788e 6d3c
00000200: e618 67ba 455d 19b9 4b2b aabd 7f85 e43c
00000210: f623 5c3c fd28 e7b8 0669 6dbd f8b1 c4bd
00000220: db0a 20ba 04db f33c ca79 93bd e112 80b9
00000230: 5856 59ba eb6c fabd 0e40 c0bd 4db9 c93d
00000240: 252c bb3d 5dd7 67b8 4a68 92ba 7d9b a8bd
00000250: 3696 51b9 4885 42bd 7526 c0bd bae2 edb9
00000260: c2ac 77bc 493f 03ba 46dc 353d 686c 023d
00000270: b8a8 753d f198 b639 95c1 553d d3fa e2bb
00000280: 0a76 adbd 57e9 bdbb a294 2ebc 6dfb e8b9
00000290: 128c 00bc 9d84 d13a 2171 6ab8 8376 62bc
000002a0: 2f4e 29bd 57fd 35bc 06c9 18b9 e5ca 193d
000002b0: 5aa6 3f3a 2d04 e8bc d09f 233d f1bf 4f3d
000002c0: 88b2 27bc 186c b93d 0aba 063e de9d 74bd
000002d0: ef9c bab7 e9b2 5fbd 359f 2238 0671 c8bd
000002e0: 3af2 7338 3593 ae39 0ceb ccbc 992e 4f3c
000002f0: ac4b 68bc d5e6 c43b ea98 ddbd 1d97 0c3d
00000300: e2ee fabc a76e 31bc 21a8 473d ae89 e7b9
00000310: b64e aeb8 cd8b 023e e132 d63d 93b9 34bd
00000320: 9c3d 5bb8 cf1b edbb 9365 a23d 945f c039
00000330: 21c9 b83d c02d 07be a815 a7b9 860a 09be
00000340: 0e58 1cbe 6a34 25bd ec64 923d d306 ff3c
00000350: 7fda 6538 416c a8ba 10fb f3bd 93ec 06bb
00000360: 63c1 363d 3f89 91bd 2982 08ba d11d 71bc
00000370: 1d7b bfba 77f9 1fbc 0658 25be e5c7 fdbc
00000380: ca2f 42ba 98be 7fbc af45 02bd 74e2 04bd
00000390: 95a7 c0bb 3ed2 4fbc cdf8 00ba 1946 efbb
000003a0: 5a7e 24be 7249 94b8 8c53 88bc 2f0e 6bbd
000003b0: a37d c83c c8fb 31b9 0e64 92ba 3ff4 f2bd
000003c0: b4a6 c13d 639e d4bd 8edc ebbd b5f2 3abc
000003d0: ce50 8e3c f5e1 bfbc 7ff4 a7bc 622f 5bb8
000003e0: 0031 81bd 52c2 19bd 7442 98bd 6a44 1839
000003f0: 6190 5bb8 6d4c c6bc d6ab 89bc 1c7b e5bc
-0.013009021 -0.111738145 -0.0009126175 0.1400947 -0.045599397 -0.000131083 -0.00089025183 -0.043523327
-0.0014915839 0.0004214741 0.081225835 5.5247776e-05 -0.0006620619 -0.01135714 -0.0009611826 0.028572848
-0.05252113 -0.00016567034 -0.014551109 0.00017642873 -0.004724201 -0.004227838 -0.08174028 3.929318e-05
-0.057329103 -0.007638504 0.06106896 -0.014107227 -0.013378709 -0.00038567468 0.000116868505 0.0023362394
9.700608e-06 0.011750147 -0.09374922 -0.10517905 -0.00012555115 -0.002346267 0.0010323876 0.09347121
0.031908114 -0.04285084 -0.010900526 -0.14811194 -0.027132286 -0.027898634 -5.184425e-05 0.037154343
0.0005096394 -0.10588205 0.00024497806 0.00066217914 -0.02191267 -0.12753153 -0.053153068 0.021571495
0.0071922746 -0.053776283 -0.010810385 -0.12874445 -0.077648275 0.00059697387 -0.000103091224 0.018583955
-0.088166796 -0.01739309 -5.8760816e-05 0.054491308 0.0295622 -0.00085187936 -0.056991503 0.07657536
-0.00049673044 -0.00072761363 0.0059241573 -0.08270468 0.06388604 0.11803038 0.00033488858 -0.00061461615
-0.053083785 0.0010604843 -0.093974635 -0.08246598 -0.0007046591 -0.013874702 0.00016008574 0.06778243
-0.02121827 -0.026181117 -0.0003114707 0.050368343 0.087369055 0.02500999 -0.005577179 -0.07116393
-0.0003565689 -0.0075427336 0.0012438453 -4.0381157e-05 -0.009363882 0.020867031 -0.01672727 -0.00010824498
-0.00030126027 -0.00016848547 0.0559327 0.051581144 0.016277153 -0.010131499 -0.11514404 -0.019796416
-0.021518765 -2.9786535e-05 -0.124432966 0.0008403259 -0.011627042 6.062492e-05 0.00032208278 -0.022261178
0.009307127 0.044693355 -0.0025812255 -0.07955754 -0.08106753 -0.080338515 -0.09586366 0.014499299
-0.0008815661 -0.00014625963 -0.08309039 0.027895687 0.013436308 -0.00011022573 -0.057961486 -0.09604257
-0.0006105133 0.02976752 -0.07200964 -0.00024428128 -0.0008290759 -0.12227806 -0.093872175 0.098497964
0.09139279 -5.5275264e-05 -0.0011169997 -0.08232782 -0.00019987751 -0.04749039 -0.09382335 -0.00045373087
-0.015116872 -0.00050066836 0.044399522 0.031841666 0.059975356 0.00034827695 0.052186567 -0.0069268732
-0.0846978 -0.0057956385 -0.010655554 -0.00044437815 -0.007845895 0.0015984956 -5.5895307e-05 -0.013822201
-0.041334327 -0.011107764 -0.00014570737 0.03754701 0.000731086 -0.028322304 0.03994733 0.05072016
-0.010235436 0.0905382 0.13156906 -0.059720866 -2.2246006e-05 -0.05461398 3.8772083e-05 -0.097871825
5.8161306e-05 0.00033297544 -0.025014423 0.012645387 -0.014178198 0.0060089626 -0.10820182 0.0343238
-0.030631486 -0.010829604 0.048744325 -0.00044162333 -8.3116276e-05 0.12748642 0.10458923 -0.04412229
-5.2271047e-05 -0.007235981 0.0792953 0.00036692305 0.09022737 -0.13201046 -0.00031868857 -0.1338292
-0.15267965 -0.04033319 0.071481556 0.031131184 5.4801345e-05 -0.0012849645 -0.11913121 -0.0020587787
0.04461802 -0.07106256 -0.00052073837 -0.014716581 -0.0014608834 -0.009764067 -0.1614686 -0.030979106
-0.0007407634 -0.015609406 -0.031804737 -0.032442525 -0.0058793523 -0.012684403 -0.00049198867 -0.0073020575
-0.16063824 -7.07087e-05 -0.0166414 -0.057386573 0.02447397 -0.00016973831 -0.0011168735 -0.118629925
0.09455624 -0.10381772 -0.11516677 -0.011410405 0.017372515 -0.023423174 -0.020502327 -5.2257798e-05
-0.06308174 -0.037538834 -0.0743455 0.00014521336 -5.2348132e-05 -0.024206365 -0.01680557 -0.028012805

gats.0.lin_r.weight f4 [335, 67]
00000000: 6fa3 0080 a59f 0080 f5ef 133c 0cc0 ae39
00000010: 4cb3 edb7 5c6c 0000 55e8 aa3b 03a4 0080
00000020: b75e 0000 0563 0080 8c42 0080 e361 0000
00000030: 0d5f 0080 3170 0080 015a 0000 cd62 0080
00000040: 9661 0000 5e17 0080 193c b0ba ad4e cc3b
00000050: 0c6d 0080 cd46 a2bc 0466 0080 8722 b13b
00000060: cf15 393a 00b5 a4b8 8a16 8c39 6694 9cb8
00000070: 66d8 c9bb 4f3e a3b7 1771 0000 8672 d1ba
00000080: 6ba8 ddb6 dfc4 273a dd3c adb8 2e31 a9ba
00000090: 71ae 85b6 4980 4cb6 8650 0080 736b 0000
000000a0: 7c65 21ba 7292 02b9 0b4f b5ba 8139 2d38
000000b0: 7fb2 0080 a3fa bb35 4971 0080 0a59 4d37
000000c0: b863 0080 7164 0000 6066 0080 de54 0000
000000d0: 902d 0000 e38c 0080 4069 0080 f161 0000
000000e0: 5a1a 0000 5e5d 0080 2f3f 0080 b46e 98b9
000000f0: 2d9b 3d39 dd40 0080 1c65 0080 2f66 0080
00000100: 246c 0000 1769 0000 402d b3b8 358f 0000
00000110: cdad 0080 8a65 883b e00a dbb7 b044 12b6
00000120: 0bb2 0080 d47a aabb 177c 51b6 d80e 0000
00000130: 4d61 0000 b867 0080 a761 0080 a164 0000
00000140: cc96 0080 b16a 0080 3c66 0080 a96b 0000
00000150: a074 0080 3805 9ab9 8f02 60ba 309f 0080
00000160: adca 2a3b 9981 0000 7291 e6ba f7fb 583b
00000170: 6d56 833a fdaa e7ba b076 833a 0b54 e93a
00000180: db27 cfb7 7364 0000 1a42 d6bb 8d87 2fb8
00000190: 220e fcb7 1db5 87b7 d4a5 63b7 4c12 a2b9
000001a0: 50b4 30b8 2a5f 0000 ee8e 0080 6909 d8b9
000001b0: 4124 44bb 2b98 f7ba 5eac f2b7 b765 0000
000001c0: d660 8e35 f386 0080 24ff 55b9 6f61 0080
000001d0: ab6b 0080 356a 0000 6c52 0000 0fab 0080
000001e0: 8d92 0000 ad6c 0080 6730 0080 6564 0080
000001f0: fc2b 0080 f56c 0000 1ee3 6f39 90b1 e6b8
00000200: 3a6c 0080 9642 0080 496b 0080 926a 0080
00000210: f965 0000 6ebd 65b7 cb68 0080 636b 0000
00000220: d1ff 8439 472c 5137 830b 0000 f144 0080
00000230: 1dae deb7 e890 50b6 7ca7 0000 2e85 0000
00000240: e345 0000 6f67 0080 9e35 0000 9646 0080
00000250: 4e60 0000 9d68 0000 fc1e 0080 c375 0080
00000260: 1311 32b6 f15b 8538 5d93 0080 ee67 ffb6
00000270: 9a3d 0080 f15c e137 de22 0538 f7be f637
00000280: 9ad6 1c38 6957 3937 58ad b9b8 4385 2292
00000290: 4a48 0000 636d 24b6 f899 0000 9d45 4637
000002a0: bb29 9136 cc4d 4fb8 b537 9f33 c688 36b4
000002b0: ff6b 0000 6069 0000 7772 9138 7a50 3a38
000002c0: 9e08 1837 ae08 ca35 a52b 0000 2f5f 0000
000002d0: 1d6c 0080 0251 a9b6 cd72 0080 b060 0080
000002e0: d653 0000 0d4d 0080 ecaf 0000 8041 0080
000002f0: 8992 0000 fa61 0000 465c 0080 9f6b 0000
00000300: 2464 0080 dbc6 8eb5 2080 8b37 4d65 0000
00000310: 8a71 0080 da3d 0080 bd3b 0000 685c 0080
00000320: e4df 47b8 ce6a 0000 8867 0080 e254 5eb9
00000330: 8b35 4639 35d4 c2b8 a65b 0080 d0eb ed37
00000340: 7d35 0080 ab65 0000 eda9 0080 8574 0080
00000350: 1d6b 0000 be67 0000 9363 0080 60a2 0080
00000360: 5960 0000 331b 0000 8362 0080 b036 b23c
00000370: 6222 633c 3893 0080 e532 85bd 425e 0080
00000380: 21e8 fa3a ed35 b63b 85df 6935 7ca2 30ba
00000390: fd36 c63b 6f24 d83a 7ea2 9037 2068 0000
000003a0: 9683 ebb9 5e07 5ab7 d77a 353b cdf9 9e36
000003b0: d279 4abb af56 78b7 d33d 0a38 b268 0080
000003c0: 4761 0000 e0d9 0bbb 946c a3bb 62bf c7ba
000003d0: b964 4739 7b63 0000 8f10 f0b6 a34f 0000
000003e0: 508d 1138 3f68 0000 ba62 0080 511b 0000
000003f0: cd64 0000 ee5f 0080 4c0c 0000 f071 0080
-5.8629e-41 -5.727e-41 0.009029378 0.00033330952 -2.8336093e-05 3.8872e-41 0.0052156844 -5.8836e-41
3.3977e-41 -3.5522e-41 -2.3873e-41 3.5115e-41 -3.4098e-41 -4.0247e-41 3.2287e-41 -3.5443e-41
3.5007e-41 -8.383e-42 -0.0013445645 0.006234965 -3.9119e-41 -0.019809151 -3.6596e-41 0.0054057273
0.00070604397 -7.853843e-05 0.00026719674 -7.466301e-05 -0.00615983 -1.9460129e-05 4.0569e-41 -0.0015979565
-6.6059197e-06 0.00063998805 -8.2606195e-05 -0.0012908333 -3.9840165e-06 -3.047304e-06 -2.8886e-41 3.8546e-41
-0.0006156785 -0.00012452321 -0.0013832761 4.129997e-05 -6.4032e-41 1.4005531e-06 -4.0639e-41 1.2239683e-05
-3.5772e-41 3.6032e-41 -3.6725e-41 3.0445e-41 1.6345e-41 -5.054e-41 -3.7757e-41 3.5135e-41
9.453e-42 -3.3494e-41 -2.2666e-41 -0.0002907418 0.00018082252 -2.3269e-41 -3.6271e-41 -3.6657e-41
3.8794e-41 3.7699e-41 -8.5438136e-05 5.1373e-41 -6.2348e-41 0.004162495 -2.6111898e-05 -2.1795677e-06
-6.387e-41 -0.0052026305 -3.1215657e-06 5.325e-42 3.4905e-41 -3.7207e-41 -3.5031e-41 3.6099e-41
-5.4096e-41 -3.8274e-41 -3.6675e-41 3.8621e-41 -4.1837e-41 -0.00029377057 -0.0008545303 -5.7106e-41
0.0026060746 4.6491e-41 -0.0017590954 0.0033109167 0.0010020264 -0.001767486 0.0010029878 0.0017801536
-2.4694882e-05 3.6034e-41 -0.0065386416 -4.1849493e-05 -3.0047322e-05 -1.6177592e-05 -1.3568864e-05 -0.0003091268
-4.21296e-05 3.4138e-41 -5.1274e-41 -0.00041205742 -0.0029928836 -0.0018889954 -2.8928913e-05 3.6488e-41
1.0608007e-06 -4.841e-41 -0.0002040831 -3.4953e-41 -3.8624e-41 3.81e-41 2.9567e-41 -6.1364e-41
5.2573e-41 -3.8986e-41 -1.7363e-41 -3.6015e-41 -1.5779e-41 3.9086e-41 0.00022877424 -0.00011000328
-3.8824e-41 -2.3887e-41 -3.8487e-41 -3.823e-41 3.6581e-41 -1.3693569e-05 -3.7593e-41 3.8523e-41
0.000253676 1.246768e-05 4.13e-42 -2.4732e-41 -2.654554e-05 -3.1078762e-06 6.0082e-41 4.7776e-41
2.507e-41 -3.7105e-41 1.9234e-41 -2.5321e-41 3.4548e-41 3.7528e-41 -1.1115e-41 -4.2245e-41
-2.6534005e-06 6.3590596e-05 -5.2864e-41 -7.611691e-06 -2.2098e-41 2.686537e-05 3.1742144e-05 2.941441e-05
3.739316e-05 1.1047211e-05 -8.853775e-05 -5.1282444e-28 2.5932e-41 -2.4501576e-06 5.5234e-41 1.1817928e-05
4.326195e-06 -4.94251e-05 7.4141475e-08 -1.6999829e-07 3.8742e-41 3.7801e-41 6.9354595e-05 4.4420805e-05
9.061912e-06 1.5052699e-06 1.5657e-41 3.4145e-41 -3.8784e-41 -5.046023e-06 -4.1183e-41 -3.4685e-41
3.0075e-41 -2.764e-41 6.3109e-41 -2.3497e-41 5.2567e-41 3.5147e-41 -3.3101e-41 3.8607e-41
-3.5924e-41 -1.0637699e-06 1.6629754e-05 3.634e-41 -4.073e-41 -2.2188e-41 2.143e-41 -3.3149e-41
-4.765381e-05 3.8314e-41 -3.714e-41 -0.00021203191 0.00018902698 -9.2901675e-05 -3.2877e-41 2.836241e-05
-1.9188e-41 3.6472e-41 -6.0958e-41 -4.18e-41 3.8425e-41 3.7216e-41 -3.572e-41 -5.8249e-41
3.4563e-41 9.757e-42 -3.534e-41 0.021754593 0.013863178 -5.2812e-41 -0.06503848 -3.3813e-41
0.0019142666 0.0055606277 8.712453e-07 -0.0006738079 0.0060490356 0.001649035 1.7241804e-05 3.7353e-41
-0.00044920732 -1.2995528e-05 0.0027691626 4.7378476e-06 -0.0030895364 -1.48021345e-05 3.2959342e-05 -3.7558e-41
3.4897e-41 -0.002133958 -0.0049873088 -0.0015239532 0.00019015641 3.5687e-41 -7.154485e-06 2.8568e-41
3.47023e-05 3.7396e-41 -3.5416e-41 9.799e-42 3.616e-41 -3.4413e-41 4.411e-42 -4.0873e-41

gats.0.lin_r.bias f4 [335]
00000000: 2062 303c 4e76 c6bb 14fd 9239 819d 113d
00000010: 4fcb 6f3a 9760 e5b7 16b6 3438 0846 963d
00000020: 85ff 113b 9e8a 8a3d 0e0d 143d f45c d739
00000030: 4f74 0e38 17bb 0fbc 645c f038 9bfd afbd
00000040: ed3a a23b 7e6d 36b8 5912 6138 9603 1539
00000050: 33f2 3b3b 8672 4b3d a503 df39 418e ccb8
00000060: bcb7 8fbb 87f1 f939 bc1e a2bb f5b7 f33c
00000070: fbc8 32b8 beb0 7037 a0bb 683d d2a2 c237
00000080: ba5a b1b8 f49a 4039 95b2 013b 6955 ccbb
00000090: 5ba7 10b7 990a 61b9 1e95 abb6 bb03 eabb
000000a0: ebef d03d 317f 493b 78ac 5d37 b9e2 b239
000000b0: cdba 7539 0de4 7f3d f0a5 52b7 39c4 fc3b
000000c0: 07e1 da37 5820 173a f6fd 63b7 5abe 4136
000000d0: d41f 69b8 b8ad 643c cf0a d83b 66fb 5c3d
000000e0: 7e58 e0bb 59bc dcbb 5743 303d c91f be37
000000f0: 503b 61bc a066 6038 bcaa 4337 c086 c7ba
00000100: f656 7f3a 8fd4 debb 1058 abb8 4cb4 4e3e
00000110: 3142 1bbc 8dba 8239 58bc 583c 59e4 563e
00000120: daf2 45ba 71af 4639 57eb ae3b d96e cbba
00000130: 550a 023e b408 f23d 0493 76b8 fd96 e8b8
00000140: b13a 5dbc 82d5 4a3a 9559 d93b 6c94 09bb
00000150: 3158 c139 d639 9636 2b4d ea38 74ff 263e
00000160: 5528 1bbb 9336 c7ba e718 a7b9 4e7f 45bb
00000170: 4a25 103e 3947 653b 8241 2a3b 79d2 e53d
00000180: 9354 9db5 c8ab 403b 6c9b 29b9 647d 19b8
00000190: 98d5 c337 74aa 6b3b 562b 883c 7d92 9ab7
000001a0: 81c9 03b8 063f 82b8 adcc 80bc b30a 883d
000001b0: c572 af3e be94 8a3a cc03 283e 6d18 b839
000001c0: ccf6 cb3d 2973 f8b6 c9ab 3fbc fe32 b638
000001d0: 12d0 0e3d fa82 9738 fbaa 1cb9 42a7 b5b7
000001e0: 76c8 983a 42b9 6b3b ad75 bf3d 3bf6 723c
000001f0: a680 4bbc 293d 223c e90d fa38 3845 313e
00000200: 9c70 adb8 bab8 37b7 f727 e73c c929 0e3c
00000210: 972b e6bc 7e16 9c39 e1e6 5d3d 3530 123d
00000220: 4f5b 9439 c20a d93e 8bcb d2ba f211 13b8
00000230: dcfb 35b8 6226 25ba 27e1 93bb f2b7 153e
00000240: 9f01 af3e 3cab 2437 f5e7 db38 c4a3 26bb
00000250: 34c1 b138 d387 fd3d efcf 43bd 939f 5639
00000260: 3087 afb8 ac46 df36 5da3 ba3d 2bc8 c3ba
00000270: 28bc bf3d 9da7 6338 02cc a1bb d877 bab9
00000280: a508 4dba 7953 6e3a b6db 2db6 7afa cfb7
00000290: ddc7 833a 39bd 95b8 b1ad de38 67e5 df3d
000002a0: 1c61 c7bb 27a2 003b 11a1 cdb6 4882 b83d
000002b0: fbdb 36b8 3e63 64bc 868f 3d3d a247 93ba
000002c0: 3bcc 9837 ce9b 9a3e 8f89 793e 2f68 a3bb
000002d0: 47f4 4c38 ceda 1ebc f515 9238 6c37 b6ba
000002e0: cac6 7039 2bf9 4d39 2c72 b8b8 2370 5a3c
000002f0: 2263 24bc 6311 a338 0650 17bc dcbf 8ebc
00000300: c651 013d f60f 9e3c f54b efbc adf2 b0b8
00000310: 6a94 feb6 34f6 933e 1c66 493e 1ab1 533e
00000320: 8823 53b8 fa98 2f39 285b fe3d ed8a 5cb9
00000330: 6742 be3c ef32 ed3b 5bf5 2638 9546 933d
00000340: e5a9 dd3c e14e 0abb d36d e73a d116 513e
00000350: 2727 a539 5a9f beb8 e5d7 08bc b4e9 df38
00000360: 0479 143d f401 37bc 6afb 46b7 5177 24b4
00000370: f5a2 4038 e990 e7b8 411b c1bc a286 483a
00000380: ba5a 9cb9 1d92 95bc e9bc 5c3e 6f14 09bd
00000390: f451 243a ab7b 0bb6 3579 d837 20c2 893a
000003a0: 104f dd3d cb31 9cb7 b00b 2938 f9f3 d93d
000003b0: 45f0 4abd 56c7 be35 c28b 30b9 d415 913d
000003c0: 4ad9 6fbd f153 683d 460c c6bc 7904 a3b6
000003d0: 3535 8c3d 50f5 fa37 1a5c ac3b 570f 0cb8
000003e0: da87 923d 6dd5 be3d 9a26 8d3b 142e 66b8
000003f0: dce8 e238 ec55 10b8 05d4 02bc f544 ae39
0.010765582 -0.0060565835 0.00028035848 0.035550598 0.0009147422 -2.7343905e-05 4.3084925e-05 0.07337576
0.0022277546 0.067647204 0.036145262 0.0004107725 3.396376e-05 -0.008772633 0.00011461301 -0.08593293
0.004950872 -4.3494154e-05 5.3661268e-05 0.00014211083 0.0028678298 0.049669765 0.0004253659 -9.753975e-05
-0.0043859165 0.00047672933 -0.0049475115 0.029750803 -4.2625685e-05 1.4346266e-05 0.05681956 2.3202421e-05
-8.456917e-05 0.00018368271 0.001979028 -0.0062357676 -8.622034e-06 -0.0002146162 -5.1135567e-06 -0.007141558
0.10202011 0.0030745978 1.32127825e-05 0.00034119727 0.0002343461 0.062473346 -1.2555611e-05 0.0077138213
2.6092412e-05 0.00057650125 -1.3589384e-05 2.887004e-06 -5.558117e-05 0.013957433 0.0065930854 0.05395069
-0.0068464866 -0.00673632 0.04303297 2.2664566e-05 -0.013747051 5.350134e-05 1.1662658e-05 -0.0015222654
0.0009740436 -0.0068002413 -8.170318e-05 0.20185965 -0.0094762305 0.00024934523 0.013228498 0.20985545
-0.00075511413 0.00018948108 0.0053381133 -0.0015520706 0.12699254 0.11818066 -5.878789e-05 -0.00011090746
-0.013502763 0.00077375036 0.0066329935 -0.0020993007 0.00036877536 4.4770813e-06 0.00011172363 0.16308385
-0.0023675163 -0.001519876 -0.00031871276 -0.0030135694 0.14076725 0.003498508 0.0025978987 0.11221785
-1.1722026e-06 0.0029399265 -0.00016174995 -3.659482e-05 2.3345274e-05 0.0035959752 0.016622227 -1.8426445e-05
-3.14205e-05 -6.210622e-05 -0.015722597 0.06642666 0.3426725 0.0010572893 0.16407698 0.00035113413
0.09959182 -7.4043824e-06 -0.011698672 8.687934e-05 0.0348664 7.2246374e-05 -0.00014941015 -2.1654767e-05
0.0011656422 0.0035968577 0.09348617 0.014829214 -0.012420809 0.009902277 0.0001192352 0.17311561
-8.270258e-05 -1.095066e-05 0.028217299 0.008676955 -0.028096957 0.00029771397 0.05417526 0.035690505
0.0002829679 0.4239102 -0.0016082389 -3.5064244e-05 -4.3388325e-05 -0.000629997 -0.0045129242 0.14620951
0.34180924 9.81503e-06 0.00010485939 -0.0025427202 8.4760046e-05 0.12379422 -0.047805723 0.00020468076
-8.369831e-05 6.654145e-06 0.0911319 -0.0014936974 0.0936206 5.427712e-05 -0.0049376497 -0.00035565975
-0.00078214175 0.0009091418 -2.5906897e-06 -2.479296e-05 0.0010054071 -7.140119e-05 0.000106181375 0.10932427
-0.0060845744 0.00196279 -6.1282267e-06 0.09009224 -4.3597054e-05 -0.013939677 0.046279453 -0.0011236558
1.8214914e-05 0.30196995 0.2436888 -0.004986785 4.886489e-05 -0.009695722 6.965912e-05 -0.0013902015
0.00022962238 0.00019643146 -8.79507e-05 0.0133324 -0.010033401 7.775684e-05 -0.009235388 -0.01742547
0.031572126 0.01929472 -0.029211024 -8.437536e-05 -7.5870676e-06 0.28898776 0.19667858 0.20673028
-5.033941e-05 0.00016746289 0.124197304 -0.00021032589 0.023225022 0.007238738 3.980599e-05 0.07191197
0.027058551 -0.0021104144 0.0017656632 0.2041886 0.00031500423 -9.0895875e-05 -0.0083522545 0.00010676999
0.036248222 -0.011169899 -1.1860257e-05 -1.5317097e-07 4.5928133e-05 -0.0001104193 -0.023572566 0.00076494564
-0.00029822235 -0.018258149 0.21556439 -0.033466753 0.00062683155 -2.0784598e-06 2.5805648e-05 0.0010510124
0.108060956 -1.8619836e-05 4.0303625e-05 0.10642237 -0.049545545 1.4214118e-06 -0.00016836732 0.070842415
-0.058556832 0.056720678 -0.024175774 -4.8582992e-06 0.06846086 2.9916555e-05 0.005260003 -3.3392887e-05
0.07154818 0.093180515 0.00430758 -5.4879187e-05 0.00010819893 -3.4412296e-05 -0.00798512 0.00033239243

gats.0.lin_edge.weight f4 [335, 1]
00000000: 4e87 2b3e 1aca 4ebb f822 6f39 126b e83e
00000010: e7d0 0c3a bc03 23b7 ddd8 a536 a164 ca3e
00000020: b510 d23a 3207 7d3e 220c e43e c504 013a
00000030: dab0 f537 1371 c2bc c250 3038 8163 a13d
00000040: 7c43 bd3a b012 92b8 eb77 9b38 52a9 1838
00000050: 3565 de3a 5ca1 a93e 50a9 b43a 48ad c1b8
00000060: 769f 05bb 2bd0 1e3a ada4 383b 3113 a03e
00000070: ca00 8336 9712 c137 313c ca3e abe3 a9b7
00000080: 3c61 3fb8 b416 0339 1e2f ea3a e366 53bb
00000090: ec84 a7b7 c522 25b9 f13f 4638 c912 92bc
000000a0: 0847 093f eea2 85ba fb43 9a38 d8a6 d4b8
000000b0: 34fd 8bb7 bec0 ca3e 3309 b5b7 a6db e53d
000000c0: 397e 47b8 c165 093a 03df 49b8 6f62 c7b7
000000d0: 4d3c 9c37 1867 823b f74d 213b 65e1 d73e
000000e0: 0264 d9bb 8801 2fbb 4514 66ba 97af 8737
000000f0: 4071 a5ba 9619 af37 340f b837 da7f bfbb
00000100: 11af 8539 7cb6 f3bb b59a e5b8 0447 a13d
00000110: dcd7 e3bb e9c9 13b8 6e42 05bc 5c81 653d
00000120: afe3 d838 bd71 09b7 7a7a a73b 05c4 2bba
00000130: d018 943d 17d2 2e3c baf8 b6b9 a982 3ab9
00000140: eae6 18bd 8b8d 653a 8770 bb3d 015c 133a
00000150: ad50 b6b8 91c9 4738 67ce 95b9 1cd4 bb3d
00000160: 3e75 e3b9 7dfd e6b9 8a65 e9b8 0bdb a2bb
00000170: c109 563d 7423 efbc 8913 2b3a 3ae0 ae3e
00000180: 5324 b037 ed35 633a efb0 93b9 6c5d 54b8
00000190: 79a6 4db9 5509 4ebc 2ae4 00bd c39e 00b8
000001a0: 1d8d 3fb9 3b0d 9f38 db87 d13d 7948 003d
000001b0: 052d eabc f59e 4d3a e7bc bb3d f98a 373a
000001c0: 3d08 ce3d ec76 13b8 ad7c bdbc d169 0cb9
000001d0: a894 053c a7b3 0b3a 568a 53b9 86b7 4539
000001e0: 2de1 babb 7b25 6b3c c07e 993e 4def f83c
000001f0: f222 31bd 6978 bf38 2dde d439 e943 563e
00000200: 1714 6fb8 1968 6eb7 533d 5c3d cce5 e03b
00000210: d9c0 e83d 3256 873a e469 ed3e 846e c3bc
00000220: f251 15b8 7752 44be 020f 44b7 00bf 4bb8
00000230: f830 01b9 e078 b0b9 1553 9fba 4408 1fbe
00000240: 113b 40be 008d c138 0c70 0139 ba44 14bc
00000250: 6c1e beb8 0c92 91bd 8959 043f 3d71 4338
00000260: 50b4 58b8 4a52 5f35 bf1c 093f a703 093b
00000270: 3885 083f a50f c139 b706 9fbb 81fe 84b6
00000280: 48b1 f2bb b4c3 3e3a 3e9f 1938 008b 01b8
00000290: fb6f 493a 1e82 b2b8 f399 ef38 d632 9abd
000002a0: 924e ffb9 5c6b 2fbc 0ebe d837 9f7a 1c3f
000002b0: df49 cbb6 9afc edbc 054b dd3e 88b0 8e38
000002c0: af34 1739 1995 49be 3f80 84be fcbe 72bb
000002d0: 686c 7b38 c05b 9cbc 86ff f4b7 3cf6 68ba
000002e0: 2fac ec39 b063 6238 91cc 3139 802f 0bbd
000002f0: f402 953b efbf fbb7 ae9c 093c ebb2 89bc
00000300: 20ee d9bc 6ad7 313e 93bc 1fbd 6596 81b8
00000310: 6209 da37 dc42 4bbe d96d 6dbe 1e60 713a
00000320: c6a1 0bb8 c740 b0b8 1e11 373d 9139 2ab9
00000330: ae80 cf3e f463 8dbb 6954 da37 5c54 273f
00000340: 0639 9fbd 3321 6dba 4191 01bd d94c af3d
00000350: 16f5 8339 0f0f adb8 7e69 59bc 9ac2 2438
00000360: a011 afbd e709 3a3f 3e8b 7f36 df4e 89b7
00000370: a859 3138 dfa9 0db9 9d33 2c3f 819f 903a
00000380: af78 6cb9 7bd7 98bc 183e bbbe 57a2 ea3e
00000390: 8007 a5b9 f842 d3b7 9cb1 40b6 b841 b3b9
000003a0: da7f e53e 5078 1bb7 8f87 6db7 ad32 163f
000003b0: 56ff dabd 9050 01b7 facc 09b9 1d0a 0c3f
000003c0: 7ea6 31be e656 293f 5ccd b6bc 09d5 29b8
000003d0: 5a07 3a3e bfd1 9138 8d05 23ba fb28 6ab7
000003e0: a843 26bd fbd2 b6be 6cc7 13bb bd3a c2b8
000003f0: 5e6d 5e39 7867 02b8 c5ab 5abd fce8 b638
0.16750833 -0.0031553567 0.00022805843 0.45394188 0.0005371705 -9.716427e-06 4.9426294e-06 0.395299
0.0016026708 0.24709776 0.44540507 0.000492167 2.9288629e-05 -0.023735559 4.203688e-05 0.07880307
0.0014439668 -6.965303e-05 7.4133124e-05 3.6397316e-05 0.0016967418 0.3313092 0.0013783369 -9.235233e-05
-0.0020389236 0.0006058241 0.0028174326 0.31264642 3.904196e-06 2.301605e-05 0.39499047 -2.0252386e-05
-4.5628505e-05 0.00012501591 0.0017866825 -0.003225737 -1.9969848e-05 -0.00015748579 4.726643e-05 -0.017831223
0.5362401 -0.0010195652 7.3559546e-05 -0.00010140025 -1.6687998e-05 0.39600176 -2.1581165e-05 0.11223535
-4.756285e-05 0.0005241298 -4.812983e-05 -2.3768485e-05 1.8624729e-05 0.003979575 0.002461312 0.4216415
-0.0066342363 -0.0026703794 -0.0008776824 1.617502e-05 -0.0012622252 2.087354e-05 2.1941589e-05 -0.0058440985
0.0002549817 -0.0074375253 -0.00010948387 0.07874873 -0.0069532227 -3.5235575e-05 -0.008133514 0.05603157
0.00010342092 -8.192318e-06 0.005111036 -0.00065523415 0.07231295 0.0106702065 -0.0003489906 -0.00017787017
-0.03732959 0.0008756748 0.09152322 0.00056213146 -8.693463e-05 4.763302e-05 -0.00028573276 0.09171316
-0.00043384166 -0.00044057882 -0.00011129219 -0.0049699596 0.052255396 -0.02919171 0.0006526043 0.34155446
2.099775e-05 0.00086673984 -0.0002816985 -5.0631745e-05 -0.0001961234 -0.012575467 -0.031467594 -3.0665436e-05
-0.00018267748 7.584175e-05 0.102309905 0.031319115 -0.02858592 0.0007843816 0.0916689 0.00070016045
0.10060165 -3.5158286e-05 -0.02313074 -0.0001339086 0.008153118 0.00053291995 -0.00020174062 0.00018855752
-0.0057031126 0.014352198 0.29979515 0.030387545 -0.043246217 9.130018e-05 0.00040601325 0.20924343
-5.700075e-05 -1.4210143e-05 0.05376942 0.0068633314 0.11364908 0.0010325371 0.4636985 -0.023856409
-3.5600686e-05 -0.19172083 -1.1686005e-05 -4.8576854e-05 -0.00012320641 -0.00033659395 -0.0012155498 -0.15530497
-0.18772532 9.2292204e-05 0.0001234414 -0.009049589 -9.0655725e-05 -0.07107934 0.5169912 4.6597084e-05
-5.1666342e-05 8.319372e-07 0.5355949 0.0020906718 0.53328276 0.00036823485 -0.0048530954 -3.9635347e-06
-0.0074063875 0.0007277087 3.662635e-05 -3.088545e-05 0.0007684228 -8.5119376e-05 0.00011425083 -0.075292274
-0.0004869593 -0.010706749 2.5837708e-05 0.61124605 -6.058471e-06 -0.029051114 0.43221298 6.803969e-05
0.00014420108 -0.19685782 -0.25879094 -0.0037040105 5.9944025e-05 -0.019086719 -2.9206054e-05 -0.00088867894
0.00045141715 5.397544e-05 0.00016956242 -0.033980846 0.004547471 -3.0010908e-05 0.008399172 -0.016808948
-0.026602805 0.1736733 -0.038998198 -6.1792125e-05 2.5991994e-05 -0.19849724 -0.23186435 0.0009207743
-3.3290846e-05 -8.4044e-05 0.04469406 -0.00016233909 0.40527862 -0.004314894 2.6026932e-05 0.653631
-0.07774548 -0.00090457796 -0.031632666 0.085595794 0.0002516887 -8.252088e-05 -0.01326978 3.9281884e-05
-0.085482836 0.7267136 3.807901e-06 -1.63684e-05 4.2283587e-05 -0.0001351009 0.67266256 0.0011033864
-0.00022551672 -0.018657437 -0.3657081 0.4582698 -0.0003147684 -2.5184345e-05 -2.8713612e-06 -0.00034190505
0.44824106 -9.266732e-06 -1.4157863e-05 0.58671075 -0.10693233 -7.707757e-06 -0.00013141698 0.5470293
-0.17348668 0.6614822 -0.02231472 -4.0491144e-05 0.18166867 6.953207e-05 -0.00062187837 -1.3957028e-05
-0.040591866 -0.3570784 -0.0022549285 -9.261582e-05 0.00021212312 -3.1090778e-05 -0.05338647 8.721833e-05

gats.1.att f4 [1, 5, 67]
00000000: f3e0 cab2 076f 03b1 fb0e 9730 4e65 4bb4
00000010: 5f46 9fb0 2f01 52b1 c61b 5c33 0f79 40b2
00000020: ea92 84b1 d5a8 5fb1 7b4f 07b5 9320 4830
00000030: 66c6 ac2f 5a01 8330 41c9 0bb4 cf9e 2c35
00000040: 34c0 9ab1 7b2d e931 ecdb 8831 d2f8 6bb2
00000050: bfd6 0731 8b83 4f35 9c62 88b1 8bdb 05b2
00000060: aed4 bf32 7a76 4c35 9eb5 c835 d354 54b1
00000070: f619 c4b0 3170 f835 d100 10b2 8381 5e36
00000080: 1d76 dc31 539c e535 d3ad ee30 a9ce 0035
00000090: 38f4 7baf 99e5 58b1 6f1e bb31 4592 92b1
000000a0: 5710 e730 124e a432 0775 56b1 ef1b 9434
000000b0: 18cd 00b2 5f3c a3b0 3326 8d35 e618 30b2
000000c0: fdd2 01b1 26b2 a9b2 7e20 bf2f 8369 d634
000000d0: 1a78 4f30 2f03 dd30 a7f8 13b1 c023 4c36
000000e0: 65fe e7b0 a538 4531 26af 85b1 e8d4 adb3
000000f0: abae 25b1 e574 bdae e7f4 9fb1 2fab 3a31
00000100: 9ffe 77b1 d231 d9b0 895b f22f c416 cbb2
00000110: 42f6 01b1 9c3b 9430 4774 4bb4 0655 9fb0
00000120: 37fa 4eb1 1506 5c33 34a5 3fb2 59d8 83b1
00000130: 9670 5fb1 6032 07b5 ad23 4830 12bf ac2f
00000140: f910 8330 80d6 0bb4 798b 2c35 f0bf 9ab1
00000150: 6368 ec31 a5c6 8831 c7dd 6bb2 df5c 0831
00000160: fe81 4f35 2766 88b1 c6c4 05b2 aecc bf32
00000170: eb62 4c35 91be c835 4953 54b1 990f c4b0
00000180: 3bf7 f735 5a10 11b2 0b91 5e36 f716 dc31
00000190: 0896 e535 ef46 ee30 15d8 0035 196f 7baf
000001a0: c236 58b1 7b4c bb31 9c8b 92b1 d623 e730
000001b0: 8f5d a432 ec7f 56b1 4518 9434 8759 00b2
000001c0: 92cb a2b0 ede0 8c35 9b0f 30b2 bfc4 01b1
000001d0: 45e1 a9b2 c16f cd2f dd39 d634 43c1 5030
000001e0: 6a59 dd30 99fa 13b1 c7fb 4b36 35e8 e7b0
000001f0: 0d3f 4531 1baf 85b1 3429 aeb3 08ad 25b1
00000200: 082a b9ae 81f5 9fb1 96fb 3931 2313 78b1
00000210: 0020 d9b0 842e f22f c020 cbb2 1f7a 03b1
00000220: 952e 9530 7c50 4bb4 ab6c 9fb0 d3c0 4eb1
00000230: a919 5c33 aa48 3fb2 6bdf 83b1 16b3 5fb1
00000240: cf4c 07b5 440b 4830 44c5 ac2f 941c 8330
00000250: 46d8 0bb4 dad0 2c35 a9c4 9ab1 87d0 e831
00000260: 3fcf 8831 9e0f 6cb2 bad6 0731 7c86 4f35
00000270: a06c 88b1 4c30 06b2 84da bf32 0271 4c35
00000280: e2bc c835 4c6c 54b1 ff54 c3b0 f266 f835
00000290: 92c6 10b2 2e51 5e36 4846 dc31 db96 e535
000002a0: 7e2b ee30 a1ca 0035 5bd0 7faf 12ea 56b1
000002b0: 84e1 ba31 96cd 92b1 0950 e730 ff40 a432
000002c0: 7772 56b1 ea20 9434 414f 02b2 a613 a3b0
000002d0: 9e10 8d35 e411 30b2 09d6 01b1 9bee a9b2
000002e0: e655 d22f 3ab8 d634 0aae 4f30 2d3b dd30
000002f0: 8603 14b1 c322 4c36 5804 e8b0 863a 4531
00000300: 22b1 85b1 32c7 adb3 68ac 25b1 7dae bdae
00000310: 3700 a0b1 a685 3a31 3efa 78b1 6534 d9b0
00000320: 2a8a f22f ed32 cbb2 82c9 00b1 a46f 9230
00000330: 0a74 4bb4 9660 9fb0 5a8c 51b1 16fc 5b33
00000340: 62b0 3fb2 12e1 83b1 0787 5fb1 ff2a 07b5
00000350: e43d 4830 43b8 ac2f e436 8330 e9e7 0bb4
00000360: ca84 2c35 44bd 9ab1 b6d9 ea31 33d3 8831
00000370: 8908 6cb2 de96 0831 3c79 4f35 ac4c 88b1
00000380: bb17 09b2 efc6 bf32 5768 4c35 c8b0 c835
00000390: 5f53 54b1 d1a4 c9b0 76ce f735 d994 10b2
000003a0: 7a2a 5e36 6bcf db31 7d82 e535 654e f030
000003b0: fcc9 0035 38a2 7faf 45bf 57b1 0684 bb31
000003c0: 9f81 92b1 9d59 e730 7545 a432 7747 56b1
000003d0: f411 9434 87f4 00b2 2ec9 a2b0 c22a 8d35
000003e0: 9511 30b2 90b3 01b1 c91d aab2 ff19 c02f
000003f0: 9a8e d634 9944 5030 616e dd30 08fc 13b1
-2.361819e-08 -1.912612e-09 1.0990954e-09 -1.8942703e-07 -1.1588773e-09 -3.0559695e-09 5.1248e-08 -1.1203396e-08
-3.858408e-09 -3.254674e-09 -5.040708e-07 7.2805867e-10 3.1427588e-10 9.531889e-10 -1.30186e-07 6.430609e-07
-4.503841e-09 6.786363e-09 3.983123e-09 -1.37353755e-08 1.9767155e-09 7.730493e-07 -3.9693315e-09 -7.791537e-09
2.2332042e-08 7.616833e-07 1.4954019e-06 -3.0898277e-09 -1.4268255e-09 1.8510092e-06 -8.382089e-09 3.3155964e-06
6.4162706e-09 1.7107326e-06 1.7366183e-09 4.7984446e-07 -2.2915081e-10 -3.1562648e-09 5.445876e-09 -4.265788e-09
1.6812106e-09 1.9127615e-08 -3.120762e-09 2.7587473e-07 -7.4972135e-09 -1.1876969e-09 1.0516436e-06 -1.025021e-08
-1.8891904e-09 -1.9755202e-08 3.4765785e-10 3.9937376e-07 7.5476836e-10 1.6080771e-09 -2.1532658e-09 3.0419178e-06
-1.6879765e-09 2.8699472e-09 -3.8907215e-09 -8.094668e-08 -2.4109947e-09 -8.6154896e-11 -4.655351e-09 2.716387e-09
-3.6087966e-09 -1.5802988e-09 4.4084583e-10 -2.3642663e-08 -1.8911952e-09 1.0785359e-09 -1.894815e-07 -1.1592938e-09
-3.0119176e-09 5.1228273e-08 -1.1155226e-08 -3.8371977e-09 -3.2514769e-09 -5.0364724e-07 7.2810274e-10 3.142238e-10
9.536328e-10 -1.3023418e-07 6.427795e-07 -4.5038107e-09 6.8803714e-09 3.980704e-09 -1.3729227e-08 1.9843396e-09
7.730267e-07 -3.9697343e-09 -7.78636e-09 2.2328404e-08 7.6139867e-07 1.4956623e-06 -3.0897402e-09 -1.426531e-09
1.8474888e-06 -8.443829e-09 3.3165004e-06 6.4054535e-09 1.7105494e-06 1.733694e-09 4.7998157e-07 -2.2867787e-10
-3.1463263e-09 5.451111e-09 -4.265031e-09 1.6817647e-09 1.9134658e-08 -3.1213814e-09 2.7584807e-07 -7.470937e-09
-1.184491e-09 1.0496275e-06 -1.0248097e-08 -1.8883808e-09 -1.977663e-08 3.736869e-10 3.9902707e-07 7.59446e-10
1.6105279e-09 -2.1533764e-09 3.039591e-06 -1.6873459e-09 2.8703113e-09 -3.8907166e-09 -8.110001e-08 -2.4109017e-09
-8.420292e-11 -4.6554196e-09 2.7064053e-09 -3.6099628e-09 -1.5797923e-09 4.4052595e-10 -2.3647203e-08 -1.9132427e-09
1.0854416e-09 -1.8935128e-07 -1.1599658e-09 -3.0086553e-09 5.124608e-08 -1.1134185e-08 -3.8380015e-09 -3.255257e-09
-5.040319e-07 7.2775586e-10 3.1426783e-10 9.539627e-10 -1.3024064e-07 6.437891e-07 -4.5043476e-09 6.7757955e-09
3.981682e-09 -1.3740559e-08 1.9767143e-09 7.730921e-07 -3.97047e-09 -7.810808e-09 2.2334696e-08 7.616037e-07
1.4956133e-06 -3.091162e-09 -1.4212275e-09 1.8507401e-06 -8.427053e-09 3.312783e-06 6.4108328e-09 1.7105734e-06
1.732914e-09 4.797858e-07 -2.3266138e-10 -3.1274152e-09 5.4389506e-09 -4.2725317e-09 1.683021e-09 1.912167e-08
-3.1206164e-09 2.7591096e-07 -7.585016e-09 -1.1865395e-09 1.0510155e-06 -1.0248616e-08 -1.8893636e-09 -1.9782695e-08
3.8259812e-10 3.999465e-07 7.5553486e-10 1.6096685e-09 -2.1538837e-09 3.0418603e-06 -1.6881456e-09 2.870054e-09
-3.890947e-09 -8.092174e-08 -2.4108662e-09 -8.62572e-11 -4.6566373e-09 2.7142533e-09 -3.6230996e-09 -1.5803719e-09
4.4117715e-10 -2.3655469e-08 -1.8740995e-09 1.0654628e-09 -1.8948063e-07 -1.1596224e-09 -3.0493283e-09 5.1219182e-08
-1.1157768e-08 -3.8381893e-09 -3.2527525e-09 -5.0353987e-07 7.284753e-10 3.1417544e-10 9.547105e-10 -1.3029752e-07
6.4268227e-07 -4.503507e-09 6.835047e-09 3.9821315e-09 -1.3738949e-08 1.9876363e-09 7.728993e-07 -3.9668375e-09
-7.979845e-09 2.2325791e-08 7.6147757e-07 1.4952611e-06 -3.0897451e-09 -1.4671518e-09 1.8463022e-06 -8.415747e-09
3.3105302e-06 6.3973196e-09 1.7099807e-06 1.7484579e-09 4.797764e-07 -2.3249747e-10 -3.1395342e-09 5.4574256e-09
-4.2638955e-09 1.6832932e-09 1.9123698e-08 -3.1181722e-09 2.758021e-07 -7.50618e-09 -1.184423e-09 1.0517763e-06
-1.0248546e-08 -1.887404e-09 -1.980415e-08 3.4943068e-10 3.9964362e-07 7.576744e-10 1.6111238e-09 -2.1534579e-09

gats.1.bias f4 [67]
00000000: c07a 1e38 1144 01ba dc48 2237 7b8f 2f37
00000010: b85e 9b37 4068 1c39 3ddd c837 23d6 63b9
00000020: a4e5 32b9 96a5 2c38 f44c 553a 3c27 ec37
00000030: b051 7037 021c 7a38 5ede ceb9 4183 6b3a
00000040: 9871 d637 d996 2539 63dc 0eb7 f294 dcb7
00000050: 76a3 2339 0a98 2439 8936 8538 06c3 0aba
00000060: ef82 8bb8 ede1 b837 6427 84b9 2319 0038
00000070: ebe5 beb8 849d adb9 358b 23ba d5ca 4abb
00000080: 7d52 ddb9 abe3 fcb9 263f 8538 aaba 4cb9
00000090: 5ed2 0237 9754 37ba 4321 9aba dc38 0239
000000a0: 18ed 79b7 4546 3037 804a f238 0033 d738
000000b0: c72b 29ba d9f3 7438 4f0b 8bb9 3e5c 1537
000000c0: 5a48 8638 ee59 d9ba a612 7cba 8aab 55b9
000000d0: 19e7 8038 b1df 50b7 6332 5338 fec5 43ba
000000e0: a842 4238 a070 7438 d4ec 0938 cc77 46ba
000000f0: 5dc4 ce37 489f 8738 f906 b637 1201 1139
00000100: c107 24b8 1cfa 8135 f8a2 0338
3.7784455e-05 -0.0004931102 9.672916e-06 1.04642195e-05 1.8521547e-05 0.00014916155 2.394488e-05 -0.00021728179
-0.0001706095 4.116221e-05 0.0008136772 2.8151662e-05 1.4324134e-05 5.963073e-05 -0.00039457058 0.0008984097
2.5563684e-05 0.00015791821 -8.515172e-06 -2.6295402e-05 0.00015605785 0.00015696898 6.352092e-05 -0.0005293343
-6.652425e-05 2.2039714e-05 -0.0002520635 3.054099e-05 -9.1027316e-05 -0.0003311449 -0.00062387 -0.0030943651
-0.00042213863 -0.0004823481 6.3536965e-05 -0.00019524494 7.797584e-06 -0.0006993501 -0.001175918 0.00012418948
-1.4896759e-05 1.0506778e-05 0.00011553336 0.000102614984 -0.0006453362 5.8401234e-05 -0.00026520572 8.902569e-06
6.4030944e-05 -0.0016582587 -0.0009615816 -0.00020377166 6.146561e-05 -1.2449848e-05 5.0353246e-05 -0.0007468163
4.6315283e-05 5.8279024e-05 3.288391e-05 -0.0007570952 2.4648552e-05 6.46697e-05 2.1699338e-05 0.00013828676
-3.910787e-05 9.68404e-07 3.138461e-05
