inference/SymEx/model_checkpoints/SymEx_model_8.pt (torch, 503011 bytes, 21 tensors)

gats.0.att f4 [1, 5, 67]
0	0x3f65b76b	0.89733
1	0x3ad79b9b	0.0016449572
2	0x3e7d5c22	0.24742177
3	0x388b85cf	6.65296e-05
4	0xb9c4b7ab	-0.00037520877
5	0x398ab600	0.00026457012
6	0xb91cce73	-0.00014954228
7	0xb97c807b	-0.00024080455
8	0x3cb043d6	0.021516722
9	0x3ca13ad8	0.01968138
10	0x3ace3540	0.0015732422
11	0xbec891df	-0.3917379
12	0x3ab0c552	0.001348654
13	0xba33d7e8	-0.00068604806
14	0xb925dd0a	-0.0001581797
15	0xb940bd6f	-0.00018381116
16	0xbcb3795b	-0.021908453
17	0xb72d6e76	-1.0337322e-05
18	0x3f4e451d	0.8057421
19	0xbadad0d5	-0.0016694317
20	0xb9355c6a	-0.00017295932
21	0x3ac3b0e3	0.0014930036
22	0x3b127978	0.0022350233
23	0xbd66fe32	-0.056394763
24	0x38e86533	0.00011081472
25	0xb664fd56	-3.4122108e-06
26	0xbf8e0bbb	-1.109733
27	0x3bb59d43	0.0055424287
28	0xba405f59	-0.00073384267
29	0x3e2ac37d	0.16676135
30	0xbd21ab87	-0.03947022
31	0x39bbe172	0.0003583539
32	0xb9ac8020	-0.00032901857
33	0xbca9a37e	-0.020707842
34	0xbcb8c386	-0.02255417
35	0xb9de5ce6	-0.00042412354
36	0x3e4a4f2d	0.19756766
37	0xb9f5f72b	-0.00046914196
38	0x37bfb8ae	2.2854972e-05
39	0x37bbe266	2.2397562e-05
40	0xbf34d9e5	-0.7064498
41	0x3d70d97d	0.058801163
42	0xbe84baa5	-0.25923648
43	0x3f09096c	0.5353
44	0xbb92d2a1	-0.0044806753
45	0x3e4853e1	0.19563247
46	0xbb59aa43	-0.0033213056
47	0x38e1a030	0.00010758673
48	0x37352598	1.0797194e-05
49	0x3f02f8d6	0.51160944
50	0xba8acb53	-0.001058916
51	0x37e52296	2.7315033e-05
52	0x3a4a3f03	0.0007715078
53	0xbbbe88db	-0.0058146543
54	0x3f212df4	0.62960744
55	0xbc8fc858	-0.017551586
56	0xbf7588ff	-0.95912164
57	0xba0de822	-0.00054133136
58	0xb86b103a	-5.604348e-05
59	0x392076bf	0.00015303025
60	0xbf9c1fee	-1.2197244
61	0x38849bc9	6.323268e-05
62	0x38329401	4.2576346e-05
63	0xbf793499	-0.9734588
64	0x3f8e2ad7	1.1106824
65	0x3889bf1d	6.568267e-05
66	0xba2c4aa5	-0.0006572402
67	0xbfb03c93	-1.3768486
68	0xbb6f76cd	-0.0036539317
69	0x3f052b28	0.52018976
70	0x38456a13	4.706725e-05
71	0x3b475c3e	0.003041997
72	0xbf99554f	-1.1979159
73	0x3eed5695	0.4635512
74	0x3f1721dc	0.5903604
75	0x3c372b75	0.011179795
76	0x3d6cbc85	0.057796974
77	0x3a53d74f	0.0008081095
78	0xb924fbe1	-0.00015734091
79	0x398ad214	0.00026477932
80	0x385595b7	5.092259e-05
81	0x3885793b	6.364515e-05
82	0x383def4a	4.5283967e-05
83	0xbce6243e	-0.028093453
84	0x3f62d48a	0.8860556
85	0x3db1f263	0.0868881
86	0x3a2c2155	0.0006566246
87	0x3f0df54e	0.5545243
88	0xbf060113	-0.5234539
89	0xbbf5fe03	-0.007507087
90	0xbe99e6e2	-0.30058962
91	0x39809381	0.00024523961
92	0xb958531d	-0.00020630327
93	0x3f9f043a	1.2423165
94	0xbc099eb1	-0.008399651
95	0x382dad61	4.1407886e-05
96	0xbdfaca89	-0.12245662
97	0xbf75ff98	-0.9609313
98	0xbfb20c0e	-1.3909929
99	0xb95b6ea0	-0.00020926679
100	0xbf73206d	-0.9497135
101	0xbf29c588	-0.66317034
102	0x3ed43bd8	0.41451907
103	0x3c98bd66	0.018645
104	0xba2a4b8a	-0.00064962415
105	0xb8c90063	-9.584499e-05
106	0x36f6f1bb	7.3595124e-06
107	0x3f523e9d	0.8212679
108	0xbf6db2a7	-0.92850727
109	0xbbcbfa7e	-0.0062249294
110	0x3db13477	0.08652585
111	0xbea1213f	-0.31470677
112	0x3f8bd17b	1.0923303
113	0xbb37da0e	-0.0028053555
114	0x395fcdae	0.00021343559
115	0xb9f5c48a	-0.00046876475
116	0x3f32f7f4	0.69909596
117	0x39cf2cb7	0.00039515432
118	0x391532a2	0.0001422861
119	0x3a5bb30e	0.0008380868
120	0xbf5c6c3b	-0.86102647
121	0x3e2531cf	0.16132282
122	0xbf066d9e	-0.5251101
123	0xbaf91dd4	-0.0019006082
124	0x3f576b94	0.84148526
125	0xbf8ce6d7	-1.1007947
126	0x390e9e99	0.00013601258
127	0x3a723699	0.0009239703
128	0xb8b4651a	-8.6019005e-05
129	0xb501f6c3	-4.841533e-07
130	0xbf1d82e4	-0.6152785
131	0x3eda3178	0.42615867
132	0x3b09d33e	0.0021030451
133	0x38ed2046	0.00011307052
134	0xbb713725	-0.003680655
135	0xb927bca3	-0.00015996634
136	0x3f687c49	0.90814644
137	0x38a538c5	7.878387e-05
138	0xbf9aeeb1	-1.2104093
139	0xbf2bccd0	-0.67109394
140	0xb9dc253e	-0.00041989418
141	0xb90f267c	-0.00013651879
142	0xbce0f136	-0.027458768
143	0xbf916f54	-1.13621
144	0x3eaa9e55	0.33323923
145	0x3f9cd5b9	1.2252723
146	0xbac3dc6f	-0.0014943014
147	0xb81bd1d9	-3.7150316e-05
148	0xba23318c	-0.00062253396
149	0xb9a097a1	-0.0003063055
150	0xbebb6a22	-0.3660441
151	0x3958c94a	0.00020674351
152	0x3f077068	0.52905893
153	0xba6d5b12	-0.0009054403
154	0xba9b5369	-0.001185042
155	0x3ac46c4a	0.0014985886
156	0x3e46d5ec	0.19417542
157	0xbf05d95b	-0.52284783
158	0x395cfef5	0.00021075814
159	0x38abcffb	8.192655e-05
160	0x3a3e2799	0.00072538253
161	0x3db337d3	0.08750882
162	0xba20e4fc	-0.0006137637
163	0xbc0fa043	-0.008766237
164	0xbd019eef	-0.03164571
165	0x3aa27834	0.0012395442
166	0x38e6e212	0.000110093635
167	0xbcb0e9d0	-0.021595865
168	0xbd8bea1a	-0.06831761
169	0xb9fb0f28	-0.00047885743
170	0x38b29294	8.515004e-05
171	0x382d3f85	4.130557e-05
172	0xb7c2e27b	-2.3232065e-05
173	0xb80cdf8f	-3.3586806e-05
174	0xbb62400d	-0.003452304
175	0x3aef9b95	0.001828062
176	0x3b0b09e3	0.002121561
177	0x3ebfbad8	0.37447238
178	0xbc86c090	-0.016449243
179	0xbc631006	-0.013858801
180	0xbb094138	-0.0020943414
181	0xb824c018	-3.927955e-05
182	0xb9d7eb9a	-0.00041183532
183	0x3de9aac3	0.11409523
184	0xb7214218	-9.6117365e-06
185	0xba4c7798	-0.0007799803
186	0xba487e5b	-0.0007648223
187	0xbcc56132	-0.024094198
188	0x3eec78af	0.46185824
189	0xbe4bf166	-0.19916305
190	0xbf97883d	-1.1838452
191	0xbafec943	-0.0019438643
192	0x3b347eea	0.0027541467
193	0x398a707a	0.00026405213
194	0x39009f85	0.00012266457
195	0x38b34be8	8.549524e-05
196	0xb88f7f15	-6.842442e-05
197	0xbf6b8527	-0.9200005
198	0x3f63fe06	0.89059484
199	0x38f601c6	0.000117305244
200	0xb85088e4	-4.9718554e-05
201	0xba77649a	-0.0009437293
202	0x39924607	0.00027899464
203	0xbd399082	-0.04530383
204	0x392f48a1	0.00016716357
205	0x382fabf8	4.188341e-05
206	0x3a5582bf	0.0008144788
207	0x39714e25	0.00023012662
208	0x3a32d1d9	0.0006821431
209	0xbb701724	-0.0036634887
210	0x3bbd3795	0.005774448
211	0x3ed21c80	0.4103737
212	0xb9a7c1f3	-0.00031997226
213	0xbf2fb5ff	-0.6863708
214	0xb9b7fafa	-0.00035091472
215	0x39b9d274	0.0003544275
216	0xb980b4d3	-0.00024548787
217	0xbd03159c	-0.03200303
218	0x3a32a5db	0.00068148755
219	0xbd22a25c	-0.03970562
220	0x38c83c2a	9.5479496e-05
221	0xba0a8c39	-0.0005285177
222	0xbf4859d2	-0.78262055
223	0xbb71fa8f	-0.0036923026
224	0x3e9b5fb0	0.3034644
225	0x3b3c658d	0.0028747052
226	0x38d5a14a	0.00010186674
227	0xbad16c26	-0.0015977665
228	0xbf54583f	-0.8294715
229	0x3a3f0ca3	0.0007287955
230	0xbba0ce4e	-0.004907406
231	0xbccab41a	-0.024744082
232	0xba22d223	-0.00062111224
233	0xb72379bf	-9.743903e-06
234	0xbb7d0863	-0.0038609735
235	0xbbd497a5	-0.006487804
236	0xba8c563a	-0.001070685
237	0xbf37d50f	-0.71809477
238	0xba99cd24	-0.001173411
239	0xbb602169	-0.0034199602
240	0xb9865128	-0.00025618938
241	0xbf533a09	-0.8251043
242	0xb9940899	-0.00028235166
243	0x3f0599b8	0.5218768
244	0xbd8549e8	-0.06508237
245	0x3e75499c	0.23953861
246	0x3d4f1f3a	0.05056689
247	0xbf431007	-0.7619633
248	0xb718503e	-9.078589e-06
249	0xba269b8c	-0.0006355576
250	0xbc563faf	-0.013076707
251	0x39e2a143	0.00043226228
252	0xba457c2e	-0.0007533458
253	0xbf90f13a	-1.1323617
254	0xbd515b6a	-0.05111257
255	0xbdc07827	-0.09397917

gats.0.bias f4 [67]
0	0xbd8d448b	-0.06897839
1	0xb90bc461	-0.0001332923
2	0xbca9fcc4	-0.02075041
3	0xba8146c9	-0.0009863015
4	0xbd755a76	-0.059900723
5	0xbd653153	-0.055955242
6	0xbca3c0a1	-0.019989314
7	0xbc1870bb	-0.009304221
8	0xbc11fd10	-0.008910432
9	0xbd4a0f5b	-0.04933105
10	0xbcee9474	-0.029123522
11	0xbde15d53	-0.11004128
12	0x3bc5865d	0.0060279802
13	0xb9bcb096	-0.0003598972
14	0x39a2e1ef	0.00031067381
15	0xbcf29bda	-0.029615331
16	0xbc649d8f	-0.0139535805
17	0xbceedd23	-0.02915818
18	0xbb4d6264	-0.0031339163
19	0xbb3dbc2f	-0.0028951277
20	0x3b664d67	0.003514135
21	0xbc3af79b	-0.011411573
22	0xbd34604b	-0.044037145
23	0xbd161212	-0.036638327
24	0xbb9431bc	-0.0045225304
25	0xba624cb6	-0.00086326466
26	0xbdc007ef	-0.09376513
27	0xbd7c1402	-0.06154252
28	0xbcfca054	-0.03083817
29	0xbcb132fd	-0.021630758
30	0xbc88626a	-0.01664849
31	0xbce416ab	-0.02784284
32	0xb9cf0329	-0.0003948447
33	0xbca81f47	-0.020522727
34	0xbd17aef0	-0.037032068
35	0xbad23fc7	-0.0016040736
36	0xbd5fdb67	-0.054652598
37	0xbbc2a84c	-0.0059404727
38	0xb9abe6d1	-0.00032787633
39	0x39b0cae9	0.00033720516
40	0xbd0a216a	-0.033723272
41	0xbd83910a	-0.064241484
42	0x3b942b14	0.004521737
43	0xbc86f4e1	-0.01647419
44	0xbd98fce5	-0.07470111
45	0x3d076d01	0.03306294
46	0xbd725624	-0.05916418
47	0xbb60d4bc	-0.0034306487
48	0x3885d669	6.381871e-05
49	0x3c371e58	0.011176668
50	0xb8646630	-5.4454606e-05
51	0xba95b6b4	-0.0011422248
52	0xbc51354d	-0.012769056
53	0xbd6af062	-0.057358153
54	0xbd8cd3e4	-0.068763524
55	0xbd7efd80	-0.062253475
56	0xbdf0db31	-0.117605574
57	0xbd149f91	-0.036284987
58	0xbc7b2182	-0.015327813
59	0x3954e7f5	0.00020304306
60	0xbd24f5d6	-0.04027351
61	0x3953b3da	0.00020189528
62	0xbb70caa1	-0.003674187
63	0xbddb11e2	-0.1069677
64	0x3d832248	0.06403023
65	0x3a31d052	0.00067830563
66	0xbb4c6572	-0.0031188396

gats.0.lin_l.weight f4 [335, 67]
0	0x00006c08	3.8754e-41
1	0x8000cff9	-7.4607e-41
2	0xbdf1a293	-0.11798587
3	0x3e012f80	0.12615776
4	0xbb2b5e2d	-0.0026148662
5	0x8000b98d	-6.6563e-41
6	0xbe17edb1	-0.14836766
7	0xbe3bf54d	-0.18355294
8	0x80002966	-1.4851e-41
9	0x0000c954	7.2223e-41
10	0xbe244521	-0.16041996
11	0x800031f3	-1.7918e-41
12	0x80007f30	-4.5626e-41
13	0x0000b3a5	6.4444e-41
14	0x0000be9f	6.8382e-41
15	0x000089a5	4.9378e-41
16	0x8000ce53	-7.4015e-41
17	0x8000acfe	-6.2058e-41
18	0x3c1fb4d8	0.009747706
19	0x3f3250f6	0.69654787
20	0x00000338	1.155e-42
21	0xbe4c5a59	-0.1995634
22	0x80007677	-4.2497e-41
23	0xbcc46a5c	-0.023976497
24	0xbe00cd22	-0.12578252
25	0xbc7d93d6	-0.015477141
26	0xbdbc0c2e	-0.091820106
27	0xbda75a3b	-0.08171507
28	0x3d10b387	0.03532746
29	0xbaea0161	-0.0017853194
30	0x00008cee	5.0556e-41
31	0xbe0f6908	-0.1400491
32	0xbc1f8361	-0.009735913
33	0x3eacfe04	0.3378755
34	0xbb3710a7	-0.002793351
35	0x3e841433	0.2579666
36	0xbbd0d811	-0.0063734134
37	0xbc444ff7	-0.011981956
38	0x8000cb1e	-7.2865e-41
39	0x00005b9d	3.2865e-41
40	0xbd59623b	-0.053072196
41	0x3ed99189	0.42493847
42	0x3ed1406a	0.40869457
43	0x3e38ab68	0.18034136
44	0x00008aab	4.9745e-41
45	0xba1f33d8	-0.0006073094
46	0xb949f589	-0.00019260323
47	0x3b71afe5	0.0036878523
48	0x80002e1f	-1.6545e-41
49	0x0000d2c1	7.5604e-41
50	0x8000498f	-2.6388e-41
51	0x0000b430	6.4639e-41
52	0x8000d002	-7.4619e-41
53	0x0000d1cf	7.5265e-41
54	0x8000cf72	-7.4417e-41
55	0x80006a31	-3.8094e-41
56	0x00008cdb	5.053e-41
57	0x80001a94	-9.534e-42
58	0x80001982	-9.15e-42
59	0xbe044d40	-0.12920094
60	0xbc67ab29	-0.014139929
61	0x0000c437	7.0389e-41
62	0x8000b48e	-6.4771e-41
63	0x8000c98a	-7.2299e-41
64	0x8000bc76	-6.7607e-41
65	0x000036dc	1.968e-41
66	0x3e836b3a	0.25667745
67	0x00009ea2	5.6907e-41
68	0x800019aa	-9.207e-42
69	0xb8591cd9	-5.1763698e-05
70	0xb9ceb824	-0.00039428577
71	0xb8808c68	-6.129668e-05
72	0x800083fe	-4.735e-41
73	0xbaa41410	-0.0012518186
74	0x3abbd484	0.0014330302
75	0x80008f06	-5.1307e-41
76	0x8000a4a5	-5.9063e-41
77	0xb964aa73	-0.00021807272
78	0x00003a09	2.0819e-41
79	0x8000892a	-4.9205e-41
80	0x80004405	-2.4401e-41
81	0x8000ba20	-6.6769e-41
82	0x80002685	-1.3818e-41
83	0x8000ad96	-6.2271e-41
84	0x80000531	-1.862e-42
85	0x3b89769e	0.0041950485
86	0xb89e502b	-7.5489595e-05
87	0x80000aac	-3.828e-42
88	0xb98457ce	-0.00025242422
89	0x80004426	-2.4447e-41
90	0xbb0f0410	-0.002182249
91	0xb90beffa	-0.00013345471
92	0xb8dce384	-0.000105327956
93	0x398d7236	0.0002697871
94	0x38a130e6	7.686186e-05
95	0x3a4e2b3e	0.000786472
96	0xb91a3e0f	-0.00014709703
97	0x00008c34	5.0295e-41
98	0xb9b4bd59	-0.0003447335
99	0x3923adb0	0.00015609595
100	0xba970ead	-0.001152476
101	0xb84ec546	-4.9297953e-05
102	0x3a41222d	0.00073674583
103	0xb7d8d9dd	-2.5850657e-05
104	0xb81c114e	-3.7209415e-05
105	0x8000954a	-5.3555e-41
106	0x800074b7	-4.187e-41
107	0xb9995104	-0.00029242795
108	0xbae38d35	-0.0017360809
109	0xbad24711	-0.0016042908
110	0xba63fa63	-0.00086966733
111	0x80001a19	-9.362e-42
112	0x38b38416	8.559988e-05
113	0x0000bc05	6.7449e-41
114	0xb8ecb573	-0.000112871545
115	0x00003128	1.7634e-41
116	0x80000133	-4.3e-43
117	0x80005f6e	-3.4234e-41
118	0x0000b9bb	6.6628e-41
119	0x0000d254	7.5452e-41
120	0x0000b16f	6.3651e-41
121	0x80002df4	-1.6485e-41
122	0x000079f7	4.3753e-41
123	0x80000df4	-5.005e-42
124	0x0000261b	1.367e-41
125	0x00006fc9	4.0101e-41
126	0x3a9fdc0a	0.0012196314
127	0x38ae3f5b	8.3087674e-05
128	0x0000cc37	7.3258e-41
129	0x80008afe	-4.9861e-41
130	0x0000ccc5	7.3457e-41
131	0x80005b4d	-3.2753e-41
132	0x0000ba7f	6.6902e-41
133	0xbb96596f	-0.004588298
134	0x0000d210	7.5356e-41
135	0x800055d4	-3.079e-41
136	0xbe220e09	-0.15825666
137	0xbcc57f42	-0.024108533
138	0xbc0ead26	-0.008708274
139	0x0000cd3c	7.3624e-41
140	0x3c1a206d	0.009407145
141	0xbe120aea	-0.14261976
142	0x00009a2f	5.531e-41
143	0x0000be20	6.8204e-41
144	0x3ae46410	0.001742484
145	0x0000070b	2.527e-42
146	0x00001173	6.26e-42
147	0x8000cc6b	-7.3331e-41
148	0x00005480	3.0313e-41
149	0x80005278	-2.9584e-41
150	0x80003402	-1.8657e-41
151	0x8000a9e2	-6.0942e-41
152	0x3d332069	0.04373208
153	0x3ec1020d	0.37696877
154	0x0000bb73	6.7244e-41
155	0xbc69c289	-0.014267572
156	0x8000ba10	-6.6747e-41
157	0x3f23c07f	0.639656
158	0xbce2e806	-0.027698528
159	0x3ce1f938	0.027584657
160	0xbd74a190	-0.05972439
161	0xbd53c1f8	-0.051698655
162	0x3ef482c2	0.4775601
163	0xb694085f	-4.4117182e-06
164	0x0000778e	4.2888e-41
165	0x3adf42d2	0.0017033464
166	0xbbb8a049	-0.005634342
167	0xbea7a463	-0.32742605
168	0xbb0dcc46	-0.002163665
169	0x3e97f850	0.29681635
170	0x3c822958	0.015888855
171	0x3d1cad18	0.038251013
172	0x80007182	-4.0719e-41
173	0x00001aa7	9.561e-42
174	0xbc32aba1	-0.010905177
175	0x3e8f6d88	0.28013253
176	0x3f56f6d3	0.83970374
177	0xbebcbd40	-0.36863136
178	0x0000bd36	6.7876e-41
179	0x3af6e86b	0.0018837576
180	0x3a138de2	0.0005628747
181	0xbac3913f	-0.0014920606
182	0x000091e6	5.2338e-41
183	0x8000aae9	-6.1311e-41
184	0x0000d2f6	7.5679e-41
185	0x80009f14	-5.7066e-41
186	0x80008f5f	-5.1432e-41
187	0x8000aa8b	-6.1179e-41
188	0x000012db	6.764e-42
189	0x0000bd67	6.7945e-41
190	0x0000b916	6.6396e-41
191	0x800067cd	-3.7237e-41
192	0x0000befc	6.8512e-41
193	0xbd66f88a	-0.05638937
194	0x3bb36f53	0.0054759174
195	0x8000d0e2	-7.4933e-41
196	0x8000af4f	-6.2889e-41
197	0x00004406	2.4402e-41
198	0x0000ca52	7.2579e-41
199	0x800051f9	-2.9406e-41
200	0xbdd0ebd3	-0.1020123
201	0x0000bb57	6.7205e-41
202	0x0000585c	3.1697e-41
203	0x38d6a03e	0.000102341626
204	0xb9805041	-0.00024473856
205	0x30ce1a1b	1.4995892e-09
206	0x0000b583	6.5114e-41
207	0xb86817fe	-5.5335455e-05
208	0x39136dea	0.00014059959
209	0x0000c3dd	7.0263e-41
210	0x0000bdb6	6.8055e-41
211	0x390d1ba3	0.00013457103
212	0x00008c55	5.0342e-41
213	0x8000ceb6	-7.4154e-41
214	0x8000c501	-7.0672e-41
215	0x00005f59	3.4204e-41
216	0x0000ba9b	6.6941e-41
217	0x800054a1	-3.0359e-41
218	0x0000d226	7.5387e-41
219	0x392676cd	0.0001587525
220	0xb9574a60	-0.00020531705
221	0x8000abee	-6.1677e-41
222	0xb8de9636	-0.00010613764
223	0x00007a0f	4.3786e-41
224	0xb9804902	-0.00024468458
225	0xb8a45ff2	-7.8380006e-05
226	0xb7d1f93b	-2.5030798e-05
227	0xb93cd18c	-0.0001800714
228	0x39e95840	0.00044506975
229	0x39cd1629	0.00039117158
230	0x3843b80c	4.666303e-05
231	0x8000a487	-5.9021e-41
232	0xb96a17fd	-0.00022324915
233	0xb7040f2e	-7.871347e-06
234	0x390d618f	0.00013483151
235	0xb737a399	-1.09457405e-05
236	0xb8365989	-4.3475568e-05
237	0xb6fbc0b7	-7.502818e-06
238	0xb6d4942e	-6.3353427e-06
239	0x8000c80a	-7.176e-41
240	0x8000735f	-4.1387e-41
241	0xb889f612	-6.578503e-05
242	0x3a1fc58b	0.0006094805
243	0xb8aa65ec	-8.125216e-05
244	0x39c60d3a	0.00037775357
245	0x00009b5c	5.5732e-41
246	0x87a4fa11	-2.4822953e-34
247	0x0000b8f4	6.6349e-41
248	0x37a15956	1.9234296e-05
249	0x80007dd0	-4.5133e-41
250	0x0000d293	7.554e-41
251	0x8000ba77	-6.6891e-41
252	0x000044fb	2.4746e-41
253	0x8000b7fa	-6.5998e-41
254	0x00007338	4.1333e-41
255	0x00006d45	3.9199e-41

gats.0.lin_l.bias f4 [335]
0	0xbcfd8557	-0.03094737
1	0xbb15e7b7	-0.0022873709
2	0xbd068088	-0.03283742
3	0xba70419a	-0.0009165049
4	0xbc5c2b92	-0.013438122
5	0xbbff5a88	-0.0077927746
6	0xbbabb902	-0.0052405605
7	0xbbb1fa85	-0.0054314756
8	0xbd1ab2e4	-0.03776826
9	0x3c1619b7	0.009161404
10	0x3af145e3	0.0018407669
11	0x3d46488c	0.04840903
12	0xbadede26	-0.0017003461
13	0xbaa8c53c	-0.0012876163
14	0xba572965	-0.00082077674
15	0xbc1b0c84	-0.009463433
16	0xbc680edd	-0.0141637
17	0xbbbf6546	-0.00584093
18	0x3d6239f2	0.055231042
19	0xbb549d7b	-0.0032442498
20	0xbb656747	-0.0035004185
21	0xbad594b7	-0.0016294931
22	0x3d7dba93	0.06194551
23	0xbdb88d8d	-0.09011374
24	0xbb997ba6	-0.0046839295
25	0xbb0194fb	-0.0019772637
26	0x3da29ffa	0.07940669
27	0xbcfb12ac	-0.030648552
28	0xbbeb4796	-0.0071801646
29	0xbd88d5e8	-0.066814244
30	0xbd50edbd	-0.051007975
31	0xbb79e1ef	-0.0038129052
32	0xb9b82628	-0.00035123643
33	0xbd7a0778	-0.06104228
34	0xbdef29e3	-0.11677911
35	0xbb16de6f	-0.0023020764
36	0x3b5530b6	0.0032530255
37	0xbafccb67	-0.0019286693
38	0xba913822	-0.0011079351
39	0xba7fa970	-0.0009752726
40	0xbd7cd18e	-0.061723284
41	0xbd0cdcba	-0.03439019
42	0x3d4b28f0	0.049599588
43	0xbd8ddf57	-0.06927364
44	0xbd3d12b0	-0.0461604
45	0x3d14c5f5	0.0363216
46	0xbc835ae5	-0.016034553
47	0xbb72263c	-0.003694906
48	0xb6010f19	-1.9231286e-06
49	0xbb97427a	-0.004616079
50	0xba4189f9	-0.0007382925
51	0xba220879	-0.0006181072
52	0xbbeb2aca	-0.0071767317
53	0xbd8767e5	-0.06611613
54	0x3ce32fc8	0.027732745
55	0x3c084f9c	0.008319762
56	0xbd8a6b83	-0.067587875
57	0xbc226f06	-0.009914165
58	0xbabc28eb	-0.0014355456
59	0xbad6151b	-0.0016333194
60	0x3c8260b4	0.015915252
61	0xbaea0150	-0.0017853174
62	0xbb555d81	-0.0032556953
63	0xbd61d0d7	-0.055130806
64	0x3de8863b	0.113537274
65	0xba16a23f	-0.00057462225
66	0xbbbece48	-0.0058229305
67	0xbdcc18a3	-0.099656366
68	0xbaba8bff	-0.0014232396
69	0x3c8c5af2	0.01713321
70	0xba85fe0f	-0.001022281
71	0xbc585c34	-0.013205577
72	0xbe0406d1	-0.12893225
73	0xbd0187f2	-0.03162379
74	0xbe22af7b	-0.15887253
75	0xbca268b9	-0.019825326
76	0xbd8bd192	-0.06827082
77	0x38e34ad5	0.00010838142
78	0xbd8aef32	-0.06783904
79	0xba83e9ff	-0.0010064243
80	0xba86b4a5	-0.0010277225
81	0xbac4e7ab	-0.0015022656
82	0xbc15ba57	-0.009138665
83	0xbdfc6f14	-0.12325874
84	0xbd8c9a4c	-0.06865367
85	0x3dcc7440	0.099831104
86	0xbb486e8b	-0.0030583467
87	0xbe4fcd69	-0.20293202
88	0xbdb247d5	-0.08705107
89	0xbdca9744	-0.09892133
90	0xbdccb392	-0.09995188
91	0xbbb75109	-0.005594377
92	0xbaa2e3a0	-0.0012427457
93	0x3d87f295	0.06638066
94	0xbd4984c6	-0.04919889
95	0xbbbb991b	-0.0057250387
96	0x3c51c746	0.012803858
97	0xbb85d928	-0.004084725
98	0xbde65d15	-0.11248223
99	0xb9afeb40	-0.00033553876
100	0xbbb92d26	-0.005651134
101	0xbd350f11	-0.04420382
102	0xbe14c6dc	-0.14528984
103	0xbd9253dd	-0.07144902
104	0xbb0abee0	-0.00211709
105	0xba19a508	-0.00058610784
106	0xbaa3aaf4	-0.0012486861
107	0xbc861f94	-0.01637248
108	0xbd18b195	-0.03727873
109	0xbdb24dde	-0.08706258
110	0x3c8bf811	0.01708606
111	0xbe0bdcaf	-0.13658403
112	0x3d32effb	0.043685894
113	0xbc735924	-0.014852796
114	0xbb634bfc	-0.0034682741
115	0x394a776f	0.00019308714
116	0x3ddadba8	0.10686427
117	0xbaebd171	-0.0017991496
118	0xba8397f3	-0.0010039791
119	0xbbffc696	-0.0078056557
120	0xbdc3b41a	-0.09555836
121	0x3c539c5a	0.012915695
122	0xbdf9933b	-0.12186285
123	0xbdd7bad1	-0.10533679
124	0xbd6782fb	-0.056521397
125	0xbe16b710	-0.1471827
126	0xbabbd8fb	-0.0014331633
127	0xbc0a223c	-0.008431014
128	0xbab1e639	-0.001357264
129	0xbb557d85	-0.0032576036
130	0xbe28a26a	-0.16468206
131	0xbb2614de	-0.0025342028
132	0xbb7eb0bc	-0.0038862666
133	0xbb8df6b6	-0.0043323888
134	0xbcbf3aee	-0.02334353
135	0xbb6218a0	-0.003449954
136	0x3def4258	0.11682576
137	0xba4ae4de	-0.00077397923
138	0x3d9e8284	0.07739738
139	0x3d782368	0.06058064
140	0xbba74bc3	-0.005105467
141	0xbba9704d	-0.005170858
142	0x3c1bcbc7	0.0095090335
143	0x3e071db2	0.13194922
144	0x3c32ae79	0.010905855
145	0x3e36e5d9	0.17861117
146	0xbb6d819b	-0.003624058
147	0xba898673	-0.001049234
148	0xba8cd219	-0.0010743766
149	0xbc1622e3	-0.009163591
150	0xbd10ff04	-0.03539945
151	0xbbd2c01c	-0.0064315926
152	0x3d84a063	0.06475904
153	0xbb6ce6f8	-0.003614841
154	0xbb78ef1c	-0.0037984317
155	0x39071452	0.00012882173
156	0xbca514aa	-0.020151455
157	0x3dc07f49	0.09399278
158	0xbb901c94	-0.004397938
159	0xbadc6cb3	-0.0016817063
160	0xbd35ca97	-0.044382658
161	0xbd3fe2f3	-0.046847295
162	0xbbe01c84	-0.006839337
163	0xbd321e7f	-0.043486115
164	0xbdd478b7	-0.10374587
165	0xbb808be5	-0.0039229267
166	0xba1a7e2a	-0.00058934337
167	0xbd652761	-0.055945758
168	0x3cc7de13	0.024397885
169	0xbb15d80b	-0.0022864367
170	0xbcda9e64	-0.026686855
171	0xbb288346	-0.002571301
172	0xba4a29da	-0.0007711925
173	0xbacd7514	-0.0015675151
174	0xbabb10b3	-0.0014271945
175	0xba2369d2	-0.0006233725
176	0xbd609337	-0.054827895
177	0xbcf7cb2a	-0.030248243
178	0xbd7dfefe	-0.062010758
179	0x3dfa4063	0.12219312
180	0xbc8edb36	-0.017438512
181	0xbb7aa2c6	-0.0038243993
182	0xb8efa7fe	-0.00011427699
183	0x3c663848	0.014051504
184	0xb9899761	-0.00026243462
185	0xbae18e6d	-0.0017208584
186	0xbc26073d	-0.010133562
187	0xbcce29d8	-0.025166437
188	0x3b86f97c	0.0041190963
189	0xbc265d10	-0.010154024
190	0x3d06855e	0.032842033
191	0xbc22638e	-0.009911431
192	0xbb4fd18a	-0.0031710588
193	0xbadce09c	-0.0016851607
194	0xbc14d28d	-0.009083402
195	0xbb409388	-0.002938481
196	0xbb664db0	-0.003514152
197	0x3d9a681d	0.07539389
198	0x3d82d714	0.06388679
199	0xb99dad0c	-0.00030074304
200	0xbbd018f0	-0.006350629
201	0xbdbebb10	-0.09313023
202	0xbb4843fc	-0.00305581
203	0x399ce9e0	0.0002992889
204	0xba7e22f9	-0.00096945424
205	0xbc5978ae	-0.013273401
206	0xbbe4a4be	-0.0069776466
207	0xbbaf9ef3	-0.0053595244
208	0xbb9fb0ba	-0.0048733624
209	0xbd94fc49	-0.07274682
210	0xbd74b553	-0.059743237
211	0xbbf0cbda	-0.0073485197
212	0xbd34ea9c	-0.044169053
213	0xbe03b383	-0.12861447
214	0xba93fcf2	-0.0011290594
215	0xba2f884d	-0.00066960306
216	0xbc15bc2f	-0.009139105
217	0xbdbae8ec	-0.091264576
218	0xbbafa4eb	-0.005360236
219	0x3d6f23dd	0.05838381
220	0xbb8c6af0	-0.004285209
221	0xbb752770	-0.003740754
222	0xbc791c3c	-0.0152044855
223	0xbd85a0b3	-0.065247916
224	0x3dc4912d	0.095980026
225	0xbbb4c41f	-0.0055165435
226	0xbad17ca1	-0.0015982577
227	0xbd48665a	-0.048925735
228	0x3dac31fa	0.0840797
229	0xbbdb1ade	-0.0066865524
230	0xbb024573	-0.001987782
231	0x3d42af1f	0.04753029
232	0xbb286860	-0.0025696978
233	0xb9860f06	-0.00025569665
234	0x3d81d716	0.063398525
235	0xbd18fdfb	-0.03735159
236	0xbb219eb3	-0.0024661242
237	0x3c3da3b6	0.011574676
238	0xbad79219	-0.0016446739
239	0xba83df6e	-0.0010061094
240	0xba91ab4b	-0.0011113671
241	0xbd269286	-0.04066708
242	0x38ed3476	0.00011310812
243	0x3e3152fd	0.17316814
244	0x3d0bf5ac	0.034169838
245	0x3db402d5	0.08789603
246	0xbd27d130	-0.04097098
247	0x3cb58e87	0.022162689
248	0xbb9a0a00	-0.004700899
249	0x39773e05	0.0002357886
250	0xbd41b6ed	-0.047293592
251	0xbadf38ba	-0.0017030456
252	0xba9519dd	-0.0011375506
253	0xbd8134a0	-0.063088655
254	0xbd14a227	-0.036287453
255	0xbdff8b2e	-0.12477718

gats.0.lin_r.weight f4 [335, 67]
0	0x00008278	4.6803e-41
1	0x0000d14c	7.5082e-41
2	0xbd6555ed	-0.05599015
3	0x3b7769b7	0.003775222
4	0x3816b74c	3.5933495e-05
5	0x800061bd	-3.5062e-41
6	0x3d310e88	0.04322675
7	0x8000370a	-1.9744e-41
8	0x00003fb4	2.2852e-41
9	0x8000c458	-7.0435e-41
10	0x8000d0ff	-7.4974e-41
11	0x00003933	2.0519e-41
12	0x0000b851	6.612e-41
13	0x0000cd73	7.3701e-41
14	0x800028ef	-1.4684e-41
15	0x8000ce4c	-7.4005e-41
16	0x00009834	5.46e-41
17	0x80006657	-3.6713e-41
18	0x3cb17ee6	0.021666955
19	0x3c7eef6e	0.015560014
20	0x00009770	5.4326e-41
21	0xbc5eccfb	-0.013598676
22	0x0000bc17	6.7474e-41
23	0xbc9380ff	-0.018005846
24	0x3c9c4334	0.019075014
25	0xbd3683f8	-0.04455945
26	0xbd846a5a	-0.064655975
27	0xbc728622	-0.014802488
28	0x3c6e8bab	0.014559667
29	0x36955c28	4.4512744e-06
30	0x0000bad1	6.7017e-41
31	0xbc3292c5	-0.01089925
32	0xbb1d5100	-0.0024004579
33	0x3c2e9c13	0.010657328
34	0xb7861c5b	-1.5987249e-05
35	0x3bec4fd9	0.007211667
36	0xbc587ac2	-0.0132128615
37	0x3941176f	0.00018414644
38	0x00006029	3.4496e-41
39	0x000005d9	2.098e-42
40	0xbd8261b7	-0.06366294
41	0xbca78b65	-0.02045221
42	0x3c07ffff	0.00830078
43	0x3b974f9f	0.004617646
44	0x00000574	1.956e-42
45	0xb97e8d8f	-0.00024276062
46	0x240ad98e	3.0108256e-17
47	0x38aacde6	8.144583e-05
48	0x00008fdb	5.1606e-41
49	0x00006155	3.4916e-41
50	0x8000afc6	-6.3056e-41
51	0x80000a86	-3.775e-42
52	0x000046d3	2.5407e-41
53	0x000053bd	3.004e-41
54	0x8000bd20	-6.7845e-41
55	0x0000c639	7.1109e-41
56	0x0000aace	6.1273e-41
57	0x000044ad	2.4636e-41
58	0x80009a98	-5.5458e-41
59	0xbc90f488	-0.017694727
60	0x3bdc6f9a	0.006727171
61	0x8000b494	-6.4779e-41
62	0x8000b81c	-6.6046e-41
63	0x0000af85	6.2965e-41
64	0x000033e3	1.8613e-41
65	0x0000ad11	6.2085e-41
66	0xba8f7b6b	-0.0010946816
67	0x8000894f	-4.9257e-41
68	0x0000ad9a	6.2277e-41
69	0xba7045f7	-0.0009165699
70	0xb935338d	-0.0001728071
71	0x80009c0b	-5.5978e-41
72	0x0000bacd	6.7011e-41
73	0x3aa5e26e	0.0012655982
74	0x1b1b0198	1.2821814e-22
75	0x8000452e	-2.4817e-41
76	0x0000ce8e	7.4098e-41
77	0x279b6f8e	4.314209e-15
78	0x8000bff9	-6.8867e-41
79	0x00007262	4.1033e-41
80	0x00008952	4.9261e-41
81	0x000068d4	3.7605e-41
82	0x00002990	1.491e-41
83	0x80007621	-4.2377e-41
84	0x80007208	-4.0907e-41
85	0x382326c1	3.889832e-05
86	0xb9151c1e	-0.00014220222
87	0x00001328	6.872e-42
88	0x39589fab	0.00020658846
89	0x80003136	-1.7654e-41
90	0x3a9bb942	0.0011880773
91	0xb8bf7687	-9.129667e-05
92	0xb8a63bbf	-7.9266254e-05
93	0x3a1f09b8	0.0006066817
94	0xb93765dd	-0.00017490187
95	0x37220ab0	9.658441e-06
96	0x8002cf7b	-2.58101e-40
97	0x8000149b	-7.392e-42
98	0xb98fe4a2	-0.0002744543
99	0xb33442e2	-4.1970345e-08
100	0xb94b148a	-0.0001936724
101	0x38f66c66	0.00011750385
102	0xb8465755	-4.7288213e-05
103	0x34a328f1	3.0390905e-07
104	0x000061fa	3.5147e-41
105	0x800061e5	-3.5118e-41
106	0x00004651	2.5225e-41
107	0xba4b02b6	-0.00077442394
108	0xb7b729b6	-2.1834723e-05
109	0xb90956e9	-0.00013097715
110	0xb7cd40b4	-2.4468034e-05
111	0x8000c6a8	-7.1264e-41
112	0x80008959	-4.9271e-41
113	0x8000bea3	-6.8388e-41
114	0x3802c9a8	3.1182222e-05
115	0x00008aee	4.9839e-41
116	0x80005460	-3.0268e-41
117	0x00008ad3	4.9801e-41
118	0x0000b9b4	6.6618e-41
119	0x00000443	1.529e-42
120	0x0000c25e	6.9726e-41
121	0x00009903	5.489e-41
122	0x0000b7ae	6.5892e-41
123	0x80004301	-2.4036e-41
124	0x00006c7d	3.8918e-41
125	0x000088e5	4.9109e-41
126	0x36d2006d	6.2585373e-06
127	0x3a0d7895	0.0005396691
128	0x8000bb5e	-6.7215e-41
129	0x80004624	-2.5162e-41
130	0x0000653b	3.6315e-41
131	0x00000b95	4.155e-42
132	0x0000b88c	6.6203e-41
133	0x3ae110cc	0.0017171144
134	0x000040a7	2.3193e-41
135	0x0000cb13	7.285e-41
136	0xbcbc850e	-0.023012664
137	0x3b859634	0.0040767435
138	0xb7e8d264	-2.7754526e-05
139	0x8000580b	-3.1584e-41
140	0x3c49ce90	0.012317315
141	0x8000be16	-6.819e-41
142	0x8000a2b5	-5.8368e-41
143	0x800088c6	-4.9065e-41
144	0x00008c1a	5.0259e-41
145	0x00007a87	4.3955e-41
146	0x000098c1	5.4798e-41
147	0x800067e0	-3.7263e-41
148	0x0000bc95	6.765e-41
149	0x00000814	2.898e-42
150	0x00007816	4.3079e-41
151	0x0000b81f	6.605e-41
152	0x3bbb8196	0.005722235
153	0xbc05f98d	-0.008177173
154	0x0000c4b6	7.0567e-41
155	0xbbb1591c	-0.005412234
156	0x00008d29	5.0639e-41
157	0xbbcc9a55	-0.0062439837
158	0x3b9be446	0.004757437
159	0xbae64e06	-0.001757086
160	0xbcbf2af2	-0.023335908
161	0x3c3e3d42	0.011611285
162	0x3aeeff1d	0.0018233989
163	0xb853a794	-5.046239e-05
164	0x8000b9ff	-6.6723e-41
165	0xbd3b10bd	-0.04567026
166	0x3a9bef4b	0.0011896876
167	0xbcaf1359	-0.02137153
168	0x3bf47b4b	0.0074609867
169	0x3d09d285	0.033648033
170	0xb9310230	-0.0001688085
171	0x3925b7b3	0.0001580406
172	0x0000d6b0	7.7015e-41
173	0x0000d2bb	7.5596e-41
174	0xbc4c8f73	-0.012485373
175	0xbd259369	-0.040423784
176	0xbc307e7a	-0.010772342
177	0x3d42c9a8	0.047555596
178	0x000091cd	5.2303e-41
179	0x3981be83	0.0002474674
180	0x00006def	3.9437e-41
181	0x37d4000a	2.5272388e-05
182	0x8000d131	-7.5044e-41
183	0x8000ccaf	-7.3427e-41
184	0x0000ab14	6.1371e-41
185	0x00001234	6.53e-42
186	0x80008c02	-5.0225e-41
187	0x80009281	-5.2556e-41
188	0x0000d2b5	7.5587e-41
189	0x80000621	-2.199e-42
190	0x00007e40	4.529e-41
191	0x00000aee	3.921e-42
192	0x0000d174	7.5138e-41
193	0x3b0a3511	0.002108876
194	0x3b79d7e4	0.0038123066
195	0x0000a00c	5.7414e-41
196	0x000054cc	3.042e-41
197	0x000037ef	2.0065e-41
198	0x8000a478	-5.9e-41
199	0x0000d2a3	7.5562e-41
200	0xba803f17	-0.0009784427
201	0x8000cfbc	-7.4521e-41
202	0x0000d190	7.5177e-41
203	0xb7ccc53d	-2.4410541e-05
204	0xb912113d	-0.00013930067
205	0x00008f4c	5.1405e-41
206	0x00007857	4.317e-41
207	0x39b0d95c	0.0003373128
208	0x1e265c24	8.807021e-21
209	0x0000bafc	6.7077e-41
210	0x000081c1	4.6547e-41
211	0x0000c82c	7.1808e-41
212	0x00008c14	5.025e-41
213	0x8000ce0f	-7.392e-41
214	0x80008981	-4.9327e-41
215	0x0000693a	3.7748e-41
216	0x0000790a	4.342e-41
217	0x00003759	1.9855e-41
218	0x80009ca2	-5.6189e-41
219	0x3746a10e	1.1839218e-05
220	0x39685336	0.00022156243
221	0x0000a355	5.8592e-41
222	0xb5c26d85	-1.4486001e-06
223	0x0000567d	3.1026e-41
224	0xb8f8fe6a	-0.0001187295
225	0xb9392de0	-0.00017660065
226	0xb7af26e3	-2.0879734e-05
227	0xb7d057c8	-2.4836409e-05
228	0xb5e51564	-1.7068055e-06
229	0xb81993dd	-3.661575e-05
230	0x8000239b	-1.2773e-41
231	0x0000c806	7.1755e-41
232	0xb96654f9	-0.00021966164
233	0x1c1140b6	4.806011e-22
234	0xb6d06fc7	-6.2118957e-06
235	0x248e3d82	6.168688e-17
236	0xb836dae1	-4.359603e-05
237	0xa92f4474	-3.891718e-14
238	0x00005857	3.169e-41
239	0x0000bee5	6.848e-41
240	0x0000b588	6.5121e-41
241	0xb80ad681	-3.3101536e-05
242	0x37f54bb3	2.9241526e-05
243	0x3885aa15	6.3736145e-05
244	0x387f25c0	6.0831895e-05
245	0x80001693	-8.098e-42
246	0x0000a92d	6.0689e-41
247	0x8000c491	-7.0515e-41
248	0x3711323a	8.654368e-06
249	0x0000d291	7.5537e-41
250	0x00005637	3.0928e-41
251	0x00008b3e	4.995e-41
252	0x80003494	-1.8861e-41
253	0x00003431	1.8723e-41
254	0x000080a8	4.6153e-41
255	0x800088d1	-4.908e-41

gats.0.lin_r.bias f4 [335]
0	0x3cda224d	0.026627684
1	0x3975685f	0.00023403902
2	0x3a4f98d3	0.0007919196
3	0x39abb05b	0.00032747057
4	0x3930d949	0.00016865613
5	0xb893a0b9	-7.039443e-05
6	0x38697b38	5.5666285e-05
7	0x39244a23	0.00015667877
8	0x3c197c2d	0.009367985
9	0xbbee052e	-0.007263801
10	0xbb039686	-0.0020078733
11	0x3d78d807	0.060752895
12	0x3acd1054	0.0015645125
13	0x395abccc	0.00020860432
14	0x395b4664	0.0002091169
15	0x3882da49	6.239542e-05
16	0x3b2737a7	0.002551535
17	0xb9648990	-0.0002179502
18	0x3d77abfd	0.060466755
19	0x3a0d1a8f	0.00053826807
20	0x39878435	0.00025847708
21	0xba2ca48c	-0.00065857987
22	0x3a8de532	0.0010825752
23	0xbbe8c44b	-0.007103478
24	0x392baae1	0.00016371488
25	0x39083008	0.00012987864
26	0x3e4a4ebd	0.19756599
27	0xbbb5eff6	-0.005552287
28	0xb9f2e89f	-0.00046331153
29	0x3d1f7684	0.038931385
30	0xbc5c08be	-0.013429819
31	0xb87c2d1c	-6.0123493e-05
32	0x3957b6ec	0.00020572142
33	0xbb6b0ed7	-0.0035867
34	0xbc024b42	-0.007952513
35	0xba3b9ca4	-0.0007156825
36	0xbcbf9f55	-0.023391405
37	0xb8558ce4	-5.0914372e-05
38	0x36c066b7	5.7340035e-06
39	0xb9453c6d	-0.00018809894
40	0x3ce17199	0.027519988
41	0x3c7fdd60	0.015616745
42	0x3d4c9961	0.04995096
43	0x3d8829b9	0.06648583
44	0xbb8254a9	-0.0039773774
45	0x3bf96a02	0.007611514
46	0x3a102fdc	0.00055002957
47	0xb8ddf72f	-0.00010584143
48	0xb9dfaddc	-0.0004266341
49	0xbd1b47d8	-0.037910312
50	0x3a1fd7d4	0.00060975295
51	0xb985a00c	-0.0002548698
52	0xb967a29b	-0.00022090452
53	0xbb94472d	-0.0045250864
54	0x3c43d72e	0.011953158
55	0x3c87d043	0.0165788
56	0x3de45a56	0.11150043
57	0x38f5e4c2	0.0001172512
58	0xb99bc2d2	-0.00029709056
59	0xb93403a1	-0.0001716749
60	0x3e2a45d5	0.16628201
61	0xb8a184cd	-7.701814e-05
62	0x3814089f	3.529398e-05
63	0x3d4f467f	0.05060434
64	0x3e1b4fee	0.1516721
65	0xb8c80811	-9.538246e-05
66	0xb6a6c39b	-4.969957e-06
67	0x3dc18320	0.09448838
68	0x3b3f00d8	0.002914479
69	0x3d7a30c7	0.061081674
70	0xb8685565	-5.539264e-05
71	0xba3f8589	-0.000730597
72	0xbc434331	-0.011917875
73	0x3d1aac25	0.037761826
74	0xbcb48a8b	-0.022038719
75	0xbc174862	-0.009233566
76	0x3cc3d3c8	0.023904696
77	0xbad30dfe	-0.0016102192
78	0xbb150dc3	-0.0022743798
79	0xb9a454a7	-0.00031343588
80	0xb8385d90	-4.3956155e-05
81	0x3686bf74	4.0157993e-06
82	0xb8b9ae6b	-8.853975e-05
83	0xbd43b54e	-0.047780327
84	0x3d9f95d4	0.07792249
85	0xbd6a18e0	-0.05715263
86	0xb817fa56	-3.623435e-05
87	0x3a1a1713	0.0005878072
88	0x3d1d6d66	0.03843441
89	0xba641d1e	-0.00087018486
90	0xbd63c163	-0.05560435
91	0x3892c173	6.997855e-05
92	0xb90db9dc	-0.00013516046
93	0x3d49101c	0.04908763
94	0xb9310fca	-0.00016885917
95	0xb96bc5eb	-0.00022485077
96	0xbc9e7c0e	-0.019346263
97	0x3e07459d	0.13210149
98	0x3d1db1b5	0.038499553
99	0xb9ae1474	-0.00033203105
100	0x3e61dae7	0.22056161
101	0x3e844628	0.25834775
102	0xbd864d7d	-0.065577485
103	0xbab9c02d	-0.0014171653
104	0xb89e6a2b	-7.5538024e-05
105	0x39902f9a	0.00027501286
106	0xb8ebac36	-0.0001123775
107	0x3cc09ac8	0.023511305
108	0x3e58bcde	0.21165797
109	0xbc80280c	-0.015644096
110	0xbbde935f	-0.0067924703
111	0x3d398d7c	0.045300946
112	0x3c45c7f3	0.012071597
113	0x3a07877f	0.0005170032
114	0xb9209ab4	-0.0001531642
115	0x3a403a1a	0.00073328766
116	0xbc8274c3	-0.015924817
117	0xba400df5	-0.00073262985
118	0xb96a28d5	-0.0002233119
119	0xbbf1f856	-0.0073843403
120	0x3e824f3c	0.25451076
121	0x3d3a3337	0.045459
122	0x3db5bd8a	0.08874042
123	0xbc0da226	-0.008644616
124	0x3d7ccdbc	0.06171964
125	0xbaf4598d	-0.0018642411
126	0x37a92aa5	2.0166228e-05
127	0x37604788	1.3368095e-05
128	0xb902a226	-0.00012458171
129	0x37f8b2e2	2.9647203e-05
130	0x3d969ec1	0.07354499
131	0x3d4d0e3d	0.050062407
132	0xb9a31e1e	-0.00031112222
133	0xb89dae3a	-7.5187956e-05
134	0xbb6025ea	-0.0034202286
135	0x3815adcb	3.5686226e-05
136	0x3e28a732	0.1647003
137	0xb958672d	-0.00020637801
138	0x3e37a2c6	0.17933187
139	0x3dcfdb3c	0.101492375
140	0x38a97c5f	8.081714e-05
141	0xb8e22c37	-0.000107847554
142	0x3ca64424	0.020296164
143	0x3e6f4f03	0.23369984
144	0x3d2e232f	0.042514022
145	0x3dffbc3b	0.12487074
146	0xbaa44a83	-0.0012534413
147	0xb9fac835	-0.00047832882
148	0xb83d9da3	-4.5207922e-05
149	0xb9362639	-0.00017371112
150	0x3e436c32	0.19084242
151	0x3af52a94	0.0018704706
152	0x3bb83de8	0.005622614
153	0xba8d8aef	-0.0010798852
154	0x38fa330b	0.000119304364
155	0xbaa0b2b8	-0.0012260294
156	0x3d4b160b	0.04958157
157	0x3de266f1	0.11054791
158	0xb928c1a0	-0.0001609386
159	0xb7467cfc	-1.183082e-05
160	0xba578de6	-0.00082227436
161	0xbaa96f2d	-0.001292681
162	0xb96b4087	-0.00022435385
163	0x3b233220	0.0024901703
164	0xbb1ff501	-0.0024407508
165	0xb8d4f1bc	-0.00010153974
166	0xba24a18d	-0.00062801765
167	0xbb23c5f0	-0.0024989806
168	0x3d1c295e	0.03812539
169	0xb927cafb	-0.00016001977
170	0xbab88f1b	-0.0014080735
171	0x3a0d49d4	0.00053897244
172	0xb88757eb	-6.4536776e-05
173	0x388364cd	6.2653424e-05
174	0x3b77dfba	0.003782256
175	0x3b304fc9	0.0026903024
176	0xbc6a222d	-0.014290375
177	0x3d21b308	0.039477378
178	0xbbb7dcf2	-0.0056110555
179	0x3bbfdcf6	0.005855198
180	0xba5a64cd	-0.00083310605
181	0xb896a72b	-7.183695e-05
182	0x398c3fb3	0.0002675034
183	0x3a9c81d8	0.0011940552
184	0xb9fa7fa5	-0.00047778818
185	0x397e0fbd	0.0002422919
186	0xbbc9692a	-0.0061465697
187	0xbc22bfc8	-0.0099334195
188	0x3d33926b	0.043840807
189	0x3d85aaf3	0.065267466
190	0x3e6c6761	0.23086311
191	0xb9483e98	-0.00019096804
192	0xb9fdf462	-0.00048438
193	0xb9246710	-0.00015678653
194	0xb6f0beb8	-7.17476e-06
195	0x38397348	4.42148e-05
196	0x38d6b236	0.000102375096
197	0x3e2c0baa	0.16801324
198	0x3d9cd45e	0.07657693
199	0xb8fe05d1	-0.00012112747
200	0xb9462c94	-0.00018899358
201	0xbb1a3ff2	-0.002353665
202	0xb7eebdc8	-2.8460185e-05
203	0x3c461fdf	0.01209256
204	0xb87c169f	-6.010255e-05
205	0x3716240e	8.949091e-06
206	0xb973812d	-0.00023222408
207	0xb85bba83	-5.238737e-05
208	0x378409ca	1.5740185e-05
209	0xbb5ad047	-0.0033388303
210	0xbaab7ddc	-0.0013083774
211	0x3e32c8f9	0.17459477
212	0xba0be69b	-0.0005336792
213	0x3da1509d	0.07876704
214	0x38e7f7a9	0.00011061069
215	0x38ba84be	8.893896e-05
216	0x383a3882	4.4398483e-05
217	0x3a49f43d	0.0007703936
218	0x3813ff16	3.52851e-05
219	0xbd0e04ad	-0.034672428
220	0xb794bfc6	-1.7732276e-05
221	0x38f3a3d1	0.00011617656
222	0x3d155b0d	0.036463786
223	0xbab2b079	-0.0013632915
224	0x3e1ee5aa	0.15517297
225	0xba818998	-0.0009882925
226	0xb8ef61ed	-0.00011414648
227	0xba1c83fd	-0.00059705955
228	0x3d8b727b	0.06808945
229	0xb81b34c1	-3.700401e-05
230	0xbc07160d	-0.008245003
231	0x3b62abb0	0.0034587197
232	0x38fd2c67	0.00012072251
233	0xb97e49db	-0.00024250841
234	0xbbcfd725	-0.006342786
235	0xba85f11b	-0.001021895
236	0x392aad64	0.00016277056
237	0xbc6ce56d	-0.014458996
238	0x3b154f14	0.002278273
239	0xb97bf43b	-0.00024028208
240	0x38b22ab5	8.495656e-05
241	0x3d546993	0.051858496
242	0xb83cfad7	-4.5056306e-05
243	0x3e5c0068	0.2148453
244	0x3a7fa12d	0.0009751495
245	0x3da535ea	0.08066924
246	0xbd3f8119	-0.046753976
247	0x3d65c762	0.05609835
248	0xb88f88b6	-6.844236e-05
249	0x3a42372f	0.00074087357
250	0xbce563ac	-0.028001629
251	0xb9a299e1	-0.00031013697
252	0xb914fb6d	-0.00014208043
253	0x3e12dd34	0.14342195
254	0x3c854fdb	0.01627343
255	0x3cd8b1e2	0.026452009

gats.0.lin_edge.weight f4 [335, 1]
0	0x3e6bd621	0.23030902
1	0x3aeb9c47	0.0017975651
2	0x3dd5e007	0.104431204
3	0x39a60687	0.0003166685
4	0x38bab7eb	8.9034285e-05
5	0xb65cbba6	-3.289178e-06
6	0x38062c36	3.1989264e-05
7	0x39d7a7d0	0.00041133026
8	0x3bdbfe1c	0.006713642
9	0xbbdefd1b	-0.006805075
10	0xbb0dd7b1	-0.0021643455
11	0x3ddcd84f	0.10783445
12	0x3a6c7656	0.0009020319
13	0x39abff8b	0.00032806056
14	0x3a481ce2	0.00076336984
15	0x3889e9d4	6.576223e-05
16	0xbc335c61	-0.010947318
17	0xb95efcc0	-0.00021265727
18	0x3df3995f	0.118944876
19	0xba0f0775	-0.0005456128
20	0x39d079c3	0.0003976357
21	0xba3f5e0a	-0.00073000847
22	0xbb03d1c9	-0.0020114055
23	0xbcb3b4df	-0.021936832
24	0xb81ae06e	-3.6925478e-05
25	0x3994a6a8	0.00028352928
26	0x3e802456	0.25027722
27	0xbb5d295f	-0.0033746583
28	0xba21df71	-0.0006174958
29	0x3bd408e7	0.006470788
30	0xbd02a611	-0.031896655
31	0xb8a97ae4	-8.081438e-05
32	0x39cfa41d	0.0003960439
33	0xbadbb370	-0.001676185
34	0x3adb80ad	0.0016746722
35	0xba313a4c	-0.0006760701
36	0xbbaf0ec8	-0.0053423382
37	0x39fa931a	0.00047793315
38	0x38335a8d	4.2761258e-05
39	0xb9b02931	-0.00033600026
40	0x3e83e516	0.25760716
41	0xbb8fa83f	-0.00438407
42	0x3de03013	0.109466694
43	0x3c8ac9e7	0.016941978
44	0xbb336b1d	-0.0027377077
45	0xbcaa07e7	-0.020755721
46	0x3a4972d5	0.0007684653
47	0xb9373ccc	-0.00017474889
48	0xb91c80ad	-0.00014925255
49	0x3df33ae2	0.118764654
50	0x39b140d0	0.0003380836
51	0xb98bc721	-0.0002666051
52	0x375c7eda	1.3142557e-05
53	0xbb67bc43	-0.0035360015
54	0x3e7ce804	0.24697882
55	0x3c6d4eb9	0.014484101
56	0x3ec2072a	0.3789609
57	0x3982a63a	0.0002491938
58	0xb9ab8e01	-0.00032721463
59	0xb95edf26	-0.00021254699
60	0x3e7149b8	0.23563278
61	0x36ac4708	5.1342686e-06
62	0xb84f30e6	-4.9398186e-05
63	0x3eca4929	0.39508942
64	0x3de6b278	0.11264509
65	0xb830413c	-4.2022424e-05
66	0x3984accc	0.00025305746
67	0x3eadd496	0.33951253
68	0x38520b6e	5.0078546e-05
69	0x3eab0cd8	0.33408237
70	0x36c5dc0a	5.8966734e-06
71	0x395cc819	0.00021055377
72	0x3e903433	0.28164825
73	0x3e8c53c5	0.2740766
74	0x3ef4386f	0.47699305
75	0xbc07fd79	-0.008300179
76	0x3d0e1825	0.034690995
77	0xba87dfcd	-0.001036638
78	0xba586633	-0.0008254975
79	0x39580722	0.00020602022
80	0x37362a63	1.0857914e-05
81	0xb8b6b76a	-8.7126e-05
82	0xb99101d8	-0.0002765793
83	0xbd823bb2	-0.06359042
84	0x3efb915a	0.49134332
85	0xbc8a91e0	-0.016915262
86	0x379b8aef	1.8542136e-05
87	0x3ef124b7	0.47098324
88	0x3e53450e	0.20631811
89	0xba545e5c	-0.0008101219
90	0xbe8babf1	-0.27279618
91	0x38e298a4	0.00010804951
92	0x39af7ca5	0.00033471468
93	0x3f0dff82	0.55468
94	0x3890e4fa	6.909105e-05
95	0xb9637f98	-0.0002169594
96	0xbdff299d	-0.12459109
97	0xbf09d535	-0.53840953
98	0x3ebba070	0.36645842
99	0x3850ba2e	4.9764458e-05
100	0xbd92a002	-0.07159425
101	0xbde17f3e	-0.11010598
102	0x3eb6f93b	0.35737023
103	0x3bb835d3	0.0056216507
104	0x39b2f10b	0.00034130397
105	0x39ef5149	0.00045646194
106	0x36a842b7	5.014557e-06
107	0x3ee5e56d	0.449016
108	0xbe982861	-0.29718307
109	0xbcbb8f72	-0.022895548
110	0xbc8ff840	-0.01757443
111	0xbd7f4b2f	-0.06232756
112	0x3f0b0c29	0.5431543
113	0xb8e8436f	-0.000110751826
114	0xb9869497	-0.0002566918
115	0xb879864c	-5.94913e-05
116	0x3ec6721d	0.38758937
117	0xba5c26b9	-0.0008398104
118	0xb95abd8d	-0.00020860713
119	0xbbe67270	-0.007032685
120	0xbec571be	-0.3856334
121	0x3def00a2	0.116700426
122	0xbed384e3	-0.41312322
123	0xbb36e947	-0.002791004
124	0x3ef3fb97	0.47652885
125	0x3e974179	0.2954214
126	0x3897afc7	7.232982e-05
127	0x3917dde5	0.00014483144
128	0x388d39a0	6.7341374e-05
129	0x38401075	4.5791694e-05
130	0x3e84179b	0.2579926
131	0x3ea6f94e	0.3261208
132	0x3b13a933	0.002253127
133	0xb8f561d1	-0.0001170073
134	0xbb81a970	-0.003956966
135	0xb8588f67	-5.1631967e-05
136	0x3d0ccff6	0.034378015
137	0x397fa3d3	0.00024379724
138	0x3e2f2a40	0.17105961
139	0x3d751938	0.059838504
140	0xb901d988	-0.00012383435
141	0xb6975379	-4.509868e-06
142	0x3c7bae5d	0.015361396
143	0x3ea9a599	0.33134153
144	0x3d13bc5c	0.036068305
145	0x3d9ff335	0.0781006
146	0xbb1143b8	-0.0022165608
147	0x3a69b56c	0.00089152786
148	0xb9c42a49	-0.00037415538
149	0xb93d16ea	-0.00018032981
150	0x3dcf810e	0.10132037
151	0x3b0140a3	0.0019722364
152	0x3d2c1718	0.04201421
153	0xb9b63a54	-0.00034757203
154	0xba09a391	-0.00052505085
155	0xba7aa6a4	-0.00095615746
156	0x3ccbabd3	0.024862206
157	0x3d8dc79e	0.069228396
158	0xb88ebee2	-6.806642e-05
159	0x39496990	0.00019208179
160	0xb8e121f7	-0.000107351625
161	0xbbb29196	-0.005449484
162	0xba0b4f6a	-0.0005314263
163	0x3b9139f7	0.004431959
164	0xbb0ede16	-0.0021799854
165	0xb7360365	-1.0848836e-05
166	0xba5ab179	-0.00083424855
167	0xbbe93373	-0.007116729
168	0x3d352a00	0.044229507
169	0xb9c22823	-0.00037032468
170	0xbab7d836	-0.0014026228
171	0x3a519fb3	0.00079965143
172	0xb7ef53e1	-2.853008e-05
173	0xb8089e17	-3.257216e-05
174	0x3b7c9efc	0.003854691
175	0x3b47d823	0.0030493818
176	0xbcddda19	-0.027081536
177	0x3d9edf2c	0.077574104
178	0xbb55c445	-0.0032618206
179	0x3badd2b3	0.0053046583
180	0xb91f22b4	-0.0001517635
181	0x39354df7	0.0001729055
182	0xb870de45	-5.7427464e-05
183	0xba85a028	-0.0010194825
184	0xb95af729	-0.00020882174
185	0x39b2c85b	0.00034100082
186	0xbb4db293	-0.0031386956
187	0xbbfe57af	-0.0077619175
188	0x3dff5c5b	0.12468787
189	0x3d971345	0.07376722
190	0x3e38a002	0.18029788
191	0xba5274bf	-0.0008028261
192	0x38ee4613	0.00011361777
193	0x398a8ebc	0.00026427757
194	0xb81f1ab0	-3.793341e-05
195	0xb6a6a071	-4.9658634e-06
196	0x388a1039	6.5833745e-05
197	0x3db65bdd	0.0890424
198	0x3e7d8557	0.24757896
199	0x384d38e9	4.892881e-05
200	0xb975d093	-0.0002344272
201	0x3a7ce31d	0.00096468796
202	0x3981ea00	0.0002477914
203	0x3c5178b9	0.01278513
204	0x392f3452	0.00016708791
205	0x37ff53c4	3.0437375e-05
206	0x387f3f9a	6.085597e-05
207	0xb90f7c59	-0.00013683866
208	0x38f5bb47	0.000117173935
209	0x3a7da611	0.000967593
210	0xbb362a24	-0.0027796114
211	0xbeb9b6fb	-0.36272416
212	0xb9014cda	-0.00012331028
213	0x3f320887	0.6954426
214	0xb89d9186	-7.513449e-05
215	0x39196a83	0.00014630896
216	0xb9d40926	-0.00040442607
217	0x39baf4f0	0.00035659177
218	0xb7c44892	-2.3398814e-05
219	0xbd5ee942	-0.05442167
220	0xb8a539f5	-7.8786084e-05
221	0x3a344b68	0.00068776915
222	0x3f536a6a	0.8258425
223	0x3b56e4e4	0.0032790238
224	0xbe7802be	-0.24219796
225	0x3a495785	0.0007680583
226	0xb68ec6d8	-4.2550782e-06
227	0xb96e3662	-0.00022717708
228	0x3f5adedd	0.8549631
229	0x390421ad	0.00012601046
230	0xba79f3bb	-0.0009534915
231	0x3a818561	0.0009881669
232	0x37820335	1.5498701e-05
233	0xb915ebfd	-0.0001429766
234	0xb9fad4de	-0.00047842314
235	0x3a36c146	0.0006971549
236	0xb982772e	-0.00024884328
237	0x3f3a8295	0.728555
238	0x3ba6716b	0.0050794384
239	0xba51e682	-0.00080070656
240	0xb8bf2573	-9.114565e-05
241	0x3f63cf8c	0.88988566
242	0xb9bb4be6	-0.00035723968
243	0xbe65b255	-0.2243131
244	0x3cb7a595	0.022417823
245	0xbe7dd802	-0.24789432
246	0xbdcba836	-0.09944193
247	0x3f533b8c	0.82512736
248	0xb72e2c1f	-1.0381481e-05
249	0x387fd531	6.0995288e-05
250	0xbd7f0bf2	-0.06226725
251	0x384f5f39	4.944133e-05
252	0xb946e245	-0.00018967043
253	0x3f9529a0	1.1653328
254	0x3c972d74	0.01845429
255	0x3d081fff	0.03323364
