inference/SymEx/model_checkpoints/SymEx_model_4.pt (torch, 503011 bytes, 21 tensors)

gats.0.att f4 [1, 5, 67]
-0.7228255 0.005377893 0.59898657 0.26521748 -0.00027855704 0.057666622 0.0276792 0.2630173
0.22669591 0.13751414 0.17386596 0.020640524 0.58643293 0.015573564 0.39385012 0.0699546
5.1750976e-05 -0.0001953015 0.24969752 -0.17524247 -0.43247727 0.2863964 -0.9434603 0.0001640538
-0.004977519 -0.00024663733 -0.015608962 0.04120069 0.3603259 0.0074177673 -0.00010148045 0.007557769
9.2023736e-05 0.23559242 0.10748886 0.20040368 0.08296765 0.1128516 0.027680457 -0.0011528924
0.20637305 0.21894568 0.117914215 0.25857654 0.008541344 -0.001763519 -0.47666293 -0.002555017
-0.14982617 0.5512468 0.38078362 0.058270376 -0.0064049214 0.24621622 0.54560196 0.37093696
0.49911267 0.00017276651 -1.0464617 0.05911338 0.13335627 0.06664441 0.6326341 0.2644763
-0.00024834153 -0.779781 -0.0001161525 -0.39415768 -0.67490697 -0.3285287 -0.64858943 -0.000206258
-0.4461436 0.35776603 0.095677234 -0.036389265 0.05244213 0.11163416 -0.01243513 0.026027948
0.054739486 -0.42038327 -0.006393155 0.038598 0.024058182 -0.43021223 0.35194746 0.012458586
0.27193022 -0.72890365 0.0015605518 -0.030007217 0.005501049 0.039596654 -0.03067478 -0.12889743
-0.18503012 -0.58172965 -0.46520486 0.032925114 0.14242655 0.268289 0.06661308 -0.24448583
0.06659052 -0.058100376 -0.54742455 -0.099288695 0.045881495 0.029834703 0.34134278 0.011852889
-0.027282076 -0.03397739 -0.027852522 -0.39217615 0.00899896 -0.45868567 6.1611354e-05 0.030122373
-0.02364795 0.16725466 0.3492663 0.039143756 -0.64989984 -0.027925774 0.2929156 0.07514076
0.061690774 0.44063511 0.014566054 0.013562599 -1.1771673 -0.03557955 0.5008966 -0.00020656576
0.602641 0.4477304 -0.95299745 0.38086295 -0.09472449 -0.029231384 -0.071583875 -0.010552737
-0.015880765 0.009852246 0.47485545 -1.111746 -0.6238664 0.005674608 -2.04708e-05 0.00042090853
-0.0023484018 0.27815807 0.41171435 0.8563754 -0.18512633 -0.299337 -0.01411281 0.00023466724
-0.10227922 -0.43670455 0.39442486 -0.0024844513 0.00025908943 0.0010235413 -0.00057476584 0.18881503
-0.40762737 0.039919894 0.12795122 0.07064357 0.2615867 0.03042978 -0.6612001 -0.26909766
0.09396877 -0.5766243 0.015003061 0.0014278457 0.53932726 0.24815385 0.31426024 0.21971354
0.003036982 -0.94114935 0.039243486 0.24996038 0.7119148 -0.50964606 0.51327735 0.0001665229
-0.0058206418 0.9800305 -0.9950731 -0.022219641 -0.6361298 0.1927302 -0.68750554 0.81175596
0.00020778587 -0.508093 -0.39191213 -0.85726935 -1.0955198 -0.030705962 0.056583736 0.05465464
0.06825491 0.17202206 -0.03443836 -0.07240139 -0.015786318 0.14965546 0.20284474 -0.04206466
-0.024085557 -0.047703348 -0.58805245 -0.016838983 -0.7953334 0.027934195 -0.8212127 0.07591187
-0.040503953 -0.25063822 -0.38872942 -0.5492918 -0.054970995 0.23448569 -0.28252974 -0.05036566
0.049911845 0.04771591 0.061144024 0.017162079 -0.28611055 0.062286887 -0.29754192 0.101406105
0.04913044 -0.017253034 -0.10618957 -0.3087683 -0.29488546 0.043148693 -0.35654366 -0.39517343
-0.6645035 0.20408782 0.1944834 -0.53876567 -0.021992998 -0.009798238 -0.013575598 0.04381746
00000000: 180b 39bf 0939 b03b 2f57 193f 96ca 873e
00000010: 4b0b 92b9 d633 6c3d 7dbf e23c 34aa 863e
00000020: f922 683e 82d0 0c3e eb09 323e 5116 a93c
00000030: 7820 163f 4328 7f3c b9a6 c93e 5b44 8f3d
00000040: 300f 5938 d9c9 4cb9 b5b0 7f3e c372 33be
00000050: a96d ddbe 8da2 923e 9d86 71bf db05 2c39
00000060: 751a a3bb 1a4f 81b9 bbbc 7fbc 0ec2 283d
00000070: a37c b83e be10 f33b e7d1 d4b8 29a7 f73b
00000080: defc c038 243f 713e 1f23 dc3d 9f36 4d3e
00000090: f1ea a93d bd1e e73d 20c2 e23c a61c 97ba
000000a0: 7553 533e 4c33 603e 027d f13d 2564 843e
000000b0: fef0 0b3c e125 e7ba 2a0d f4be 1272 27bb
000000c0: 086c 19be 831e 0d3f 12f6 c23e ebac 6e3d
000000d0: 60e0 d1bb 1b20 7c3e 92ac 0b3f 73eb bd3e
000000e0: b28b ff3e a828 3539 75f2 85bf df20 723d
000000f0: 8c8e 083e dd7c 883d 4ff4 213f 7069 873e
00000100: d633 82b9 ba9f 47bf e696 f3b8 09cf c9be
00000110: b4c6 2cbf ea34 a8be f509 26bf f646 58b9
00000120: ef6c e4be 1c2d b73e 6df2 c33d e90c 15bd
00000130: 8fcd 563d 73a0 e43d b7bc 4bbc 9038 d53c
00000140: 8336 603d 7a3c d7be ac7d d1bb f018 1e3d
00000150: aa15 c53c c744 dcbe 7532 b43e 191f 4c3c
00000160: 703a 8b3e 6e99 3abf 6e8b cc3a b2d1 f5bc
00000170: 2542 b43b 1a30 223d ad49 fbbc b0fd 03be
00000180: 8978 3dbe 3cec 14bf 552f eebe 7cdc 063d
00000190: 44d8 113e 2d5d 893e 706c 883d 7e5a 7abe
000001a0: 9c60 883d a9fa 6dbd 0424 0cbf df57 cbbd
000001b0: 3cee 3b3d e867 f43c 7bc4 ae3e 9f32 423c
000001c0: a97e dfbc e02b 0bbd f92a e4bc 50cb c8be
000001d0: 6070 133c d9d8 eabe 5835 8138 32c3 f63c
000001e0: 58b9 c1bc ce44 2b3e 08d3 b23e 3455 203d
000001f0: d65f 26bf 98c4 e4bc 09f9 953e 66e3 993d
00000200: 77af 7c3d ed9a e13e 75a6 6e3c aa35 5e3c
00000210: 6bad 96bf ddbb 11bd c23a 003f 9399 58b9
00000220: ae46 1a3f eb3c e53e a4f7 73bf 7800 c33e
00000230: eafe c1bd a876 efbc 919a 92bd 63e5 2cbc
00000240: 6118 82bc 516b 213c 4120 f33e b14d 8ebf
00000250: b5b5 1fbf 10f2 b93b b5b8 abb7 63ad dc39
00000260: a5e7 19bb bc6a 8e3e 39cc d23e 6b3b 5b3f
00000270: c291 3dbe b342 99be 6a39 67bc 0211 7639
00000280: c577 d1bd bd97 dfbe 0ef2 c93e 2dd2 22bb
00000290: 65d6 8739 5928 863a e2ab 16ba ba58 413e
000002a0: 89b4 d0be 0b83 233d a505 033e 93ad 903d
000002b0: b1ee 853e e047 f93c 6944 29bf 2bc7 89be
000002c0: b372 c03d a69d 13bf 66cf 753c 8d26 bb3a
000002d0: 5a11 0a3f 0b1c 7e3e b8e6 a03e 96fc 603e
000002e0: 1a08 473b 2aef 70bf c7bd 203d 9df5 7f3e
000002f0: 0c40 363f 2a78 02bf 2566 033f a79c 2e39
00000300: 15bb bebb 47e3 7a3f 1cbd 7ebf f705 b6bc
00000310: 67d9 22bf 115b 453e 5d00 30bf 3dcf 4f3f
00000320: 18e1 5939 6212 02bf b5a8 c8be 0176 5bbf
00000330: fe39 8cbf 128b fbbc 59c4 673d 8bdd 5f3d
00000340: 3bc9 8b3d 8d26 303e 3d0f 0dbd 2e47 94bd
00000350: 4f52 81bc 483f 193e 88b6 4f3e fe4b 2cbd
00000360: 134f c5bc 9664 43bd 9b8a 16bf e8f1 89bc
00000370: f89a 4bbf 41d6 e43c ff3a 52bf af77 9b3d
00000380: 79e7 25bd a753 80be 8b07 c7be 639e 0cbf
00000390: 4429 61bd 041d 703e bda7 90be 394c 4ebd
000003a0: 5d70 4c3d c271 433d 2872 7a3d 7d97 8c3c
000003b0: 157d 92be 8920 7f3d 6a57 98be 01ae cf3d
000003c0: 003d 493d 3c56 8dbc eb79 d9bd e116 9ebe
000003d0: 3afb 96be afbc 303d e48c b6be 2c54 cabe
000003e0: e71c 2abf 66fc 503e a826 473e 8cec 09bf
000003f0: a92a b4bc ca88 20bc 2f6c 5ebc f079 333d

gats.0.bias f4 [67]
0.015937677 0.01141168 0.020051552 -0.06950722 -0.028040111 -0.06749767 -0.046552308 -0.055086214
-0.0075252517 -0.027513979 -0.07006501 -0.047557242 0.061364125 -0.03742183 -0.008733597 -0.0731781
-0.00070230424 -0.025938619 -0.047787845 -0.033265047 -0.042743605 -0.049650162 -0.045740284 -0.0076345843
-0.043377236 -0.010413134 -0.086120196 -0.045684583 0.04756144 -0.015656976 -0.0019908238 0.00704257
-0.0013046232 -0.042956445 -0.059189994 -0.06439888 -0.03146978 -0.022118602 -0.0721139 0.06335202
-0.026064442 -0.062889464 -0.032087967 -0.10125865 0.0065290825 -0.042581912 -0.010236658 -0.059426803
0.02943466 -0.07540134 -0.0611175 -0.042698655 -0.029748427 -0.06427619 -0.061277803 -0.101190254
-0.042065058 0.007102984 -0.060944643 -0.036922757 -0.08952636 -0.05076818 -0.037849005 -0.036794234
-0.003539016 -0.0023275036 -2.8276922e-05
00000000: bb8f 823c 0ef8 3a3c 2743 a43c cd59 8ebd
00000010: 60b4 e5bc 383c 8abd a2ad 3ebd 15a2 61bd
00000020: 6396 f6bb ff64 e1bc 3e7e 8fbd 62cb 42bd
00000030: f358 7b3d a247 19bd 5c17 0fbc 66de 95bd
00000040: d71a 38ba 3a7d d4bc 30bd 43bd ee40 08bd
00000050: eb13 2fbd f85d 4bbd 2a5a 3bbd 892b fabb
00000060: 54ac 31bd d99b 2abc c95f b0bd c21f 3bbd
00000070: c9cf 423d 0f43 80bc 7b78 02bb 5cc5 e63b
00000080: e4ff aaba 19f3 2fbd 3571 72bd 8fe3 83bd
00000090: 75e6 00bd 1232 b5bc 74b0 93bd b4be 813d
000000a0: 1985 d5bc 31cc 80bd ac6e 03bd b260 cfbd
000000b0: eaf1 d53b 5f6a 2ebd a8b7 27bc 8569 73bd
000000c0: f520 f13c 056c 9abd 5856 7abd c9e4 2ebd
000000d0: f9b2 f3bc 3ca3 83bd 6ffe 7abd d63c cfbd
000000e0: 694c 2cbd 26c0 e83b 17a1 79bd 513c 17bd
000000f0: 9959 b7bd 4cf2 4fbd 8f07 1bbd 8db5 16bd
00000100: d6ee 67bb 0889 18bb 3a34 edb7

gats.0.lin_l.weight f4 [335, 67]
-5.515e-41 -2.7419e-41 -0.1445419 -0.10066443 0.0017720303 -5.1529e-41 -0.16671953 -0.13063878
1.3623e-41 5.6083e-41 -0.029907854 4.3587e-41 -5.7677e-41 -1.6982e-41 3.0496e-41 2.6064e-41
4.0744e-41 -5.5197e-41 0.25461018 0.122462 4.7256e-41 0.19897406 5.249e-41 -0.09606983
0.25174546 -0.060319822 0.0041604834 0.43971694 0.09332015 -0.037186213 1.1959e-41 -0.5000728
-0.011480136 -0.117642075 0.16680259 -0.216923 -0.015544785 -0.016561663 -1.2193e-41 -6.645e-42
0.39672798 0.21293135 0.12530194 0.053934127 -4.6495e-41 0.0005309808 8.004998e-06 -0.14071852
-4.828e-41 -4.4259e-41 4.2705e-41 -5.3076e-41 -6.3016e-41 -1.2781e-41 -6.516e-42 -5.7023e-41
1.1363e-41 4.5038e-41 -5.1948e-41 0.3058995 0.1619505 -4.7318e-41 -4.648e-42 -2.3781e-41
3.7863e-41 5.1922e-41 -0.24213424 -5.7141e-41 4.1851e-41 0.0030276752 0.00073336833 -1.23046475e-05
4.7852e-41 -0.00095108943 -0.011855283 -5.5941e-41 1.0047e-41 8.9822664e-05 -4.7706e-41 -5.8714e-41
4.722e-41 5.2636e-41 -5.2783e-41 5.7857e-41 -5.6746e-41 -0.0018926059 0.033081967 -5.5597e-41
-0.0032120165 5.768e-41 -0.030020392 0.0030932399 0.0006047445 -0.002732655 0.0090078255 0.009107312
0.002305467 -4.7301e-41 0.004640594 0.00020811449 0.021121193 0.009422142 0.0171319 -0.00039975115
0.00012498912 -2.6643e-41 4.2164e-41 0.0018393617 -0.0075354017 0.003218068 7.7714554e-05 2.3536e-41
9.074921e-06 -3.6348297e-07 0.022734057 -5.115e-41 6.3007e-41 4.1352e-41 -5.0253e-41 2.1273e-41
5.4007e-41 4.4473e-41 3.9549e-41 -1.0067e-41 -2.2897e-41 3.4779e-41 -0.0027545025 -0.00041395891
5.3674e-41 1.0779e-41 -5.1484e-41 -1.0119e-41 -5.4285e-41 0.0013113774 2.328e-41 -5.5035e-41
-0.14072204 0.30522224 -0.005375322 5.3773e-41 -0.29270974 -0.0792563 -1.0878e-41 5.7102e-41
-0.047844518 -2.1831e-41 3.016e-41 -4.8512e-41 3.4745e-41 2.3546e-41 5.115e-41 8.085e-42
-0.26647025 0.22356835 -5.6945e-41 -0.12432489 1.2577e-41 0.620559 -0.06833354 0.11896898
-0.013341392 -0.062805675 0.62840956 -0.026348557 5.7184e-41 -0.28741828 0.029386187 0.093547486
0.032025974 0.24163343 -0.005216038 0.0020728295 4.7435e-41 4.5754e-41 -0.19005582 0.45752144
0.44109854 -0.10194275 -1.1589e-41 -0.00012511337 1.9943961e-06 0.089222245 2.6452e-41 5.4572e-41
2.7306e-41 -3.0667e-41 5.7393e-41 4.7173e-41 5.7382e-41 3.9871e-41 5.5787e-41 -5.796e-41
-2.7198e-41 -0.15351076 -0.08429167 5.8279e-41 2.52e-41 -5.1523e-41 5.6656e-41 -4.5353e-41
0.31251237 5.5325e-41 2.9804e-41 -0.0383767 0.016734464 -0.0012044826 -5.1866e-41 0.0284245
0.003995458 -5.876e-41 -5.5514e-41 -0.015262398 4.711e-41 -4.3394e-41 -6.2341e-41 -4.7325e-41
2.7296e-41 -1.7785e-41 -5.45e-42 -0.10937098 -0.047925662 5.52e-41 -0.009801095 5.3017e-41
0.0184191 -0.024830494 0.012865757 -0.016869469 -0.016506303 0.33886677 -0.002925013 -3.9594e-41
0.06344322 0.010480537 0.025398474 -0.021309288 0.027164841 -0.0042152484 0.0019100965 6.893e-42
-5.2885e-41 -0.07777532 0.2833549 0.12807275 -0.021332074 5.1007e-41 2.5805291e-05 -1.9073254e-06
0.0892894 -8.355e-42 -4.9242e-41 -3.21e-42 -4.7287e-41 3.9511e-41 -4.8041e-41 -1.0335e-41
00000000: bc99 0080 6f4c 0080 cb02 14be 2729 cebd
00000010: 7843 e83a a48f 0080 86b8 2abe 2cc6 05be
00000020: fa25 0000 569c 0000 5101 f5bc 8179 0000
00000030: c8a0 0080 572f 0080 0355 0000 a848 0000
00000040: 9471 0000 de99 0080 445c 823e 5bcd fa3d
00000050: bb83 0000 dbbf 4b3e 5292 0000 42c0 c4bd
00000060: c8e4 803e eb11 77bd aa54 883b 9422 e13e
00000070: a31e bf3d 9250 18bd 5621 0000 c504 00bf
00000080: 2e17 3cbc 54ee f0bd 4cce 2a3e 1021 5ebe
00000090: 8eaf 7ebc 53ac 87bc fd21 0080 8612 0080
000000a0: ee1f cb3e ad0a 5a3e 274f 003e 08ea 5c3d
000000b0: 9c81 0080 8531 0b3a 344d 0637 8418 10be
000000c0: 9686 0080 607b 0080 0b77 0000 f493 0080
000000d0: aaaf 0080 a123 0080 2a12 0080 f59e 0080
000000e0: ad1f 0000 8c7d 0000 cf90 0080 dc9e 9c3e
000000f0: 5ad6 253e e783 0080 f50c 0080 4b42 0080
00000100: 8c69 0000 bd90 0000 0af2 77be 499f 0080
00000110: aa74 0000 f66b 463b 843f 403a 0f70 4eb7
00000120: 6485 0000 8852 79ba a93c 42bc f19b 0080
00000130: 021c 0000 2d5f bc38 fc84 0080 aca3 0080
00000140: a183 0000 ba92 0000 2393 0080 48a1 0000
00000150: 2f9e 0080 5111 f8ba f580 073d fb9a 0080
00000160: b280 52bb caa0 0000 53ed f5bc f4b7 4a3b
00000170: b787 1e3a 5816 33bb 8f95 133c d636 153c
00000180: 5117 173b db83 0080 2010 983b 4f39 5a39
00000190: 5a06 ad3c 545f 1a3c 3358 8c3c b195 d1b9
000001a0: 830f 0339 454a 0080 8975 0000 bd16 f13a
000001b0: 88eb f6bb 39e6 523b affa a238 9c41 0000
000001c0: 7d40 1837 b824 c3b4 c63c ba3c 968e 0080
000001d0: a3af 0000 4673 0000 168c 0080 4d3b 0000
000001e0: 8d96 0000 f97b 0000 3f6e 0000 101c 0080
000001f0: d43f 0080 f360 0000 e284 34bb a008 d9b9
00000200: 9f95 0000 0c1e 0000 848f 0080 351c 0080
00000210: 5397 0080 86e2 ab3a e540 0000 6a99 0080
00000220: 7019 10be 1746 9c3e 7823 b0bb e695 0000
00000230: 0dde 95be 2151 a2bd 531e 0080 2d9f 0000
00000240: 9df8 43bd db3c 0080 1354 0000 3b87 0080
00000250: db60 0000 a341 0000 968e 0000 8a16 0000
00000260: ca6e 88be 1aef 643e bd9e 0080 0c9e febd
00000270: 0f23 0000 f4dc 1e3f 74f2 8bbd 02a6 f33d
00000280: db95 5abc 43a0 80bd 73df 203f eed8 d7bc
00000290: 689f 0000 7d28 93be 4dbb f03c d395 bf3d
000002a0: ab2d 033d c16e 773e 4ceb aabb 4fd8 073b
000002b0: 3b84 0000 8b7f 0000 fe9d 42be 4040 ea3e
000002c0: abd7 e13e 5cc7 d0bd 4e20 0080 dd30 03b9
000002d0: 77d7 0536 27ba b63d bd49 0000 2098 0000
000002e0: 1e4c 0000 7d55 0080 fd9f 0000 8083 0000
000002f0: f59f 0000 256f 0000 839b 0000 92a1 0080
00000300: d14b 0080 ed31 1dbe 1ca1 acbd 75a2 0000
00000310: 3f46 0000 a08f 0080 ef9d 0000 6d7e 0080
00000320: 9f01 a03e 399a 0000 1553 0000 e330 1dbd
00000330: b716 893c bbdf 9dba 9590 0080 7fda e83c
00000340: 55ec 823b cda3 0080 c09a 0080 230f 7abc
00000350: 5383 0000 f778 0080 c8ad 0080 ec83 0080
00000360: 174c 0000 9431 0080 310f 0080 e4fd dfbd
00000370: b34d 44bd e099 0000 c694 20bc ca93 0000
00000380: a7e3 963c 5269 cbbc e5ca 523c d731 8abc
00000390: 3a38 87bc f27f ad3e 93b1 3fbb 5f6e 0080
000003a0: 85ee 813d 8fb6 2b3c 7610 d03c d190 aebc
000003b0: cd88 de3c 1120 8abb 345c fa3a 3713 0000
000003c0: 6c93 0080 ab48 9fbd e513 913e 8125 033e
000003d0: 9ac0 aebc 308e 0000 7178 d837 34ff ffb5
000003e0: 5cdd b63d 4a17 0080 4489 0080 f308 0080
000003f0: d183 0080 246e 0000 eb85 0080 cf1c 0080

gats.0.lin_l.bias f4 [335]
-0.05926267 0.0010958535 0.16783649 0.10503779 0.0033141552 -0.019200714 0.0028740724 0.004521693
-0.070150144 -0.025929792 -0.048814666 -0.01004226 0.12351024 -0.086669 0.10284263 -0.020648647
-0.0010619896 0.002149942 0.0439684 0.05125292 0.034278695 -0.08453134 0.004374435 0.0009437141
-0.12071517 -0.004144206 -0.13700257 -0.054973193 0.013664683 -0.0068692965 -0.0039310763 -0.0016784741
-0.0013576013 -0.12261974 -0.15965535 0.043101262 0.033006787 -0.0031589794 -0.17583281 0.099272676
-0.09721763 -0.13938884 0.029870274 -0.007880936 0.038805585 -0.06294195 -0.09530224 -0.04586178
0.012556215 0.030605458 0.0008014588 0.034231946 -0.08729167 -0.031222086 0.018579386 0.0599392
-0.11566884 0.0002605981 -0.005496877 -0.09763998 -0.060059708 0.008481674 0.0040314943 -0.03545911
0.0032592101 -0.034022193 -0.0018819093 0.021558253 -0.11754673 0.004723931 -0.1079537 -0.00029436752
-0.036973946 0.035637934 0.021617675 0.017520385 0.062728405 -0.1085023 0.022590302 -0.04600831
-0.042670503 -0.0107232 -0.119719975 0.0013338504 0.0019099574 -0.042827692 0.0071815616 -0.03612891
-0.084933914 -0.068319544 -0.0006141518 -0.109140016 -0.0038635086 -0.10329739 -0.11919021 0.12105356
-0.00059820473 -0.024615897 -0.04377502 0.0014077738 -0.0013351407 -0.092762865 -0.11782353 0.022511084
0.068298474 -0.108357824 0.14412461 -0.07927386 -0.023336357 -0.09737515 -0.02224204 0.048934855
-0.045424256 -0.076516606 -0.11563717 0.1087673 -0.06139585 0.026828278 -0.0027682937 -0.049125187
-0.11402644 0.048558347 0.002447866 -0.07402436 -0.116723284 -0.07810676 -0.07199726 -0.054198857
-0.12530749 0.12373237 0.026146173 0.0035471048 -0.06984746 -0.0003812786 0.09025103 0.005424577
-0.041243233 -0.08675859 -0.013135569 0.016820284 -0.13112529 -0.06338082 -0.05201353 -0.061290625
-0.10845605 -0.027883697 -0.027217485 0.07024938 0.054463256 -0.012455519 -0.0011635355 0.0008963434
-0.11158528 0.036709 0.03856608 0.0576407 -0.03409271 -0.00459046 -0.0059713074 -0.0028320553
-0.02792497 0.045468 -0.010298749 -0.0072336593 0.0004681188 -0.0048332848 -0.0013298141 -0.09285483
-0.04730127 -0.14863072 -0.10784746 -0.0757415 -0.050402824 0.09205369 0.12267731 -0.021805301
-0.039044075 0.016642282 -0.032258976 0.0022285166 -0.015304499 0.01916168 -0.006266052 0.044079613
-0.009891354 -0.022581931 -0.06451397 0.0068154256 -0.042426962 -0.02287639 -0.06986753 -0.00058514683
-0.080465585 -0.00333479 0.003055662 -0.09633054 -0.022921998 -0.10553465 -0.033332713 0.06696309
-0.0019207749 -0.017760007 -0.008696412 -0.055618163 -0.05969289 0.002166078 -0.07403289 -0.03960885
-0.073527314 -0.034740407 -0.053896483 -0.113526754 -0.066725306 0.05140377 0.04965214 -0.08507758
-0.0554255 -0.00019315505 0.033856023 0.050522726 -0.017122569 -0.027103791 -0.05128528 -0.06408043
0.00149343 -0.06439408 0.0015995724 0.001388579 -0.022370268 0.046542518 -0.0038891414 0.003567538
0.0016334563 0.006077816 0.009540436 -0.0056978967 -0.03935214 -0.059662547 0.04458563 0.04741243
-0.052570894 0.0777574 0.03664554 -0.020646699 -0.019844092 0.009508205 0.022608632 0.025854267
0.03727812 0.026227044 0.023104064 0.030401003 0.0022728026 0.017426314 -0.06053375 0.01554508
00000000: 6abd 72bd bea2 8f3a 54dd 2b3e 0e1e d73d
00000010: 4c32 593b d14a 9dbc ef5a 3c3b b62a 943b
00000020: e1aa 8fbd b76a d4bc e3f1 47bd 4b88 24bc
00000030: f0f2 fc3d 847f b1bd 289f d23d 5a27 a9bc
00000040: 7532 8bba 0be6 0c3b 3618 343d 95ee 513d
00000050: d167 0c3d c41e adbd 6c57 8f3b 9563 773a
00000060: 8439 f7bd 1fcc 87bb 674a 0cbe 922b 61bd
00000070: d6e1 5f3c d617 e1bb 42d0 80bb 3f00 dcba
00000080: 8af1 b1ba 0f20 fbbd b17c 23be f38a 303d
00000090: 2032 073d e106 4fbb 840d 34be 794f cb3d
000000a0: 091a c7bd f3bb 0ebe 81b2 f43c 0b1f 01bc
000000b0: 9bf2 1e3d b6e7 80bd d22d c3bd 90d9 3bbd
000000c0: 95b8 4d3c 4cb8 fa3c fd18 523a cc36 0c3d
000000d0: fac5 b2bd 76c5 ffbc cc33 983c ce82 753d
000000e0: c9e3 ecbd e3a0 8839 251f b4bb 78f7 c7bd
000000f0: 2b01 76bd b8f6 0a3c a01a 843b 923d 11bd
00000100: 7998 553b db5a 0bbd 66aa f6ba ef9a b03c
00000110: 57bc f0bd 35cb 9a3b d416 ddbd 5755 9ab9
00000120: fe71 17bd 15f9 113d 8d17 b13c e986 8f3c
00000130: c077 803d 7436 debd 4c0f b93c 3673 3cbd
00000140: 44c7 2ebd 5cb0 2fbc bf2f f5bd 98d4 ae3a
00000150: 8957 fa3a 176c 2fbd 4e53 eb3b e8fb 13bd
00000160: d5f1 adbd 1eeb 8bbd 08ff 20ba cd84 dfbd
00000170: eb32 7dbb 958d d3bd ff19 f4bd eeea f73d
00000180: d7d0 1cba 47a7 c9bc 6f4d 33bd 0d85 b83a
00000190: e3ff aeba 75fa bdbd 774d f1bd 2a69 b83c
000001a0: 12e0 8b3d b5ea ddbd 6795 133e 555a a2bd
000001b0: e32b bfbc 9f6c c7bd f034 b6bc ea6f 483d
000001c0: c90e 3abd bdb4 9cbd 2ed3 ecbd 64c1 de3d
000001d0: 377a 7bbd fac6 db3c 436c 35bb 7e37 49bd
000001e0: b286 e9bd 1ee5 463d 606c 203b 159a 97bd
000001f0: 9e0c efbd 70f6 9fbd 4d73 93bd 9fff 5dbd
00000200: 9b50 00be 6667 fd3d 8030 d63c 8b76 683b
00000210: 2f0c 8fbd 59e6 c7b9 88d5 b83d a6c0 b13b
00000220: aaee 28bd 7dae b1bd 9236 57bc b1ca 893c
00000230: b545 06be cecd 81bd 240c 55bd e10b 7bbd
00000240: 351e debd 5a6c e4bc 34f7 debc e8de 8f3d
00000250: dd14 5f3d 3c12 4cbc c681 98ba 96f8 6a3a
00000260: d386 e4bd 2d5c 163d 77f7 1d3d a818 6c3d
00000270: cca4 0bbd 926b 96bb f5aa c3bb 019a 39bb
00000280: e8c2 e4bc a73c 3a3d 16bc 28bc 5508 edbb
00000290: d76d f539 8860 9ebb 284d aeba ac2a bebd
000002a0: fabe 41bd a732 18be 21df dcbd 5c1e 9bbd
000002b0: 3173 4ebd a586 bc3d 3e3e fb3d 08a1 b2bc
000002c0: aeec 1fbd 6555 883c fd21 04bd 4e0c 123b
000002d0: b9bf 7abc f5f8 9c3c 7453 cdbb d38c 343d
000002e0: 580f 22bc befd b8bc e61f 84bd ef53 df3b
000002f0: e5c7 2dbd 4467 bbbc b516 8fbd 8a64 19ba
00000300: 24cb a4bd 7e8c 5abb 8041 483b f248 c5bd
00000310: eac6 bbbc 8d22 d8bd e287 08bd f223 893d
00000320: 83c2 fbba 6f7d 91bc 657b 0ebc dfcf 63bd
00000330: 8880 74bd c2f4 0d3b 8e9e 97bd e43c 22bd
00000340: 7d95 96bd f54b 0ebd 8fc2 5cbd b780 e8bd
00000350: 47a7 88bd c28c 523d 0b60 4b3d 273d aebd
00000360: d905 63bd aa89 4ab9 9dac 0a3d ebf0 4e3d
00000370: a144 8cbc c508 debc 8410 52bd 9a3c 83bd
00000380: 32bf c33a 0be1 83bd bea8 d13a fb00 b63a
00000390: da41 b7bc 5ea3 3e3d f7e0 7ebb 5bcd 693b
000003a0: b319 d63a 6a28 c73b 7d4f 1c3c 6cb5 babb
000003b0: b62f 21bd b760 74bd 6c9f 363d 8933 423d
000003c0: 9454 57bd 463f 9f3d a219 163d 4423 a9bc
000003d0: 1490 a2bc 4dc8 1b3c bd35 b93c 54cc d33c
000003e0: f1b0 183d 19da d63c bc44 bd3c 860b f93c
000003f0: 4df3 143b a1c1 8e3c 3df2 77bd cbb0 7e3c

gats.0.lin_r.weight f4 [335, 67]
-4.2548e-41 1.288e-42 0.088623196 -0.010143422 0.0011767652 5.1184e-41 -0.08718532 0.0038105054
3.9909e-41 -4.9513e-41 0.032111228 5.346e-41 -5.4565e-41 -4.317e-42 -3.8812e-41 4.8136e-41
2.9063e-41 6.442e-42 0.090239994 0.085392594 1.8654e-41 -0.01812784 1.354e-42 -0.023032323
0.24567361 0.0062842635 -0.023109604 0.073806584 -0.20508139 -6.586323e-06 1.5888e-41 0.12652613
-0.004550235 -0.06520916 0.02822813 0.00043981383 0.003449901 -0.007673218 -5.217e-42 5.571e-41
0.005251702 0.09263518 -0.22990912 -0.120893314 -2.2834e-41 -5.6556844e-05 3.3616752e-07 -0.09363547
-5.5194e-41 -4.6303e-41 2.946e-41 6.0713e-41 -3.3452e-41 5.1711e-41 5.729e-42 -2.7833e-41
5.316e-41 -3.1412e-41 -4.7434e-41 0.012584071 0.0015366959 9.43e-43 -4.1432e-41 3.005e-41
-4.2262e-41 -3.6609e-41 0.00021336613 1.2572e-41 -2.2686e-41 7.2897106e-05 1.47137725e-05 -2.8209765e-06
-5.7574e-41 4.4166343e-05 -4.749749e-06 4.878e-41 4.1647e-41 1.7449e-41 -3.9596e-41 5.8126e-41
2.7552e-41 5.7079e-41 -1.6849e-41 2.9231e-41 2.2718e-41 0.000100374884 0.00046652945 -3.949e-42
-7.826478e-06 5.5608e-41 9.557098e-05 0.0012612363 0.00041881448 -4.360124e-05 0.00025087688 1.0898977e-05
-7.4653435e-06 -5.742e-41 0.0006553986 1.2389954e-05 0.00038812138 1.0038584e-06 -8.560731e-06 -3.2771368e-05
5.297482e-06 -4.5336e-41 2.6648e-41 5.626246e-05 -0.0005522557 -9.320586e-06 -0.0004381297 4.6201e-41
7.1384835e-07 -2.687417e-08 -8.1365615e-06 5.5151e-41 5.6628e-41 -1.3363e-41 -1.5731e-41 5.1248e-41
-1.1842e-41 3.8288e-41 4.7442e-41 -4.1733e-41 -6.1265e-41 -4.7333e-41 -0.00090762734 0.00015402124
5.1205e-41 -6.0107e-41 -4.7622e-41 -2.733e-42 -4.6997e-41 0.0012831682 -5.1758e-41 -2.4545e-41
0.06143644 -0.00084685156 -0.00011468851 2.3662e-41 -0.095538005 -1.7687e-41 3.8816e-41 -5.4596e-41
-4.5388e-41 2.031e-41 -1.211e-42 -3.7888e-41 1.7e-44 -5.1615e-41 -1.0008e-41 4.3963e-41
0.007562798 0.0016135987 -5.6542e-41 3.3567e-41 5.7163e-41 0.02197965 9.570432e-05 -2.2208544e-05
0.0002283872 -0.0976124 0.030026354 1.0363695e-05 5.3518e-41 -0.09677989 -0.00092684047 0.0038373251
4.1977662e-05 -1.7913499e-05 8.267903e-06 -1.9178824e-05 4.874e-42 6.2314e-41 5.683453e-05 -0.00029810256
0.06074422 -3.1634176e-05 -4.886e-41 2.090015e-06 2.4229766e-06 0.074912846 5.3332e-41 -5.7425e-41
8.464e-42 -1.26e-43 -5.4555e-41 -5.0388e-41 3.1431e-41 6.0934e-41 -4.7486e-41 -1.1635e-41
-2.5491e-41 -0.011392645 -0.0021678116 -4.9427e-41 1.8081e-41 1.2331e-41 5.3004e-41 5.5762e-41
0.012752105 1.1848e-41 -2.42e-43 0.008453451 -0.0001231482 3.2598734e-07 3.1267e-41 0.001061095
-5.5419e-41 -5.5109e-41 2.855e-41 6.2746e-41 -9.993e-42 -5.6055e-41 -2.9426e-41 -5.1285e-41
1.6852e-41 1.2578e-41 -3.2758e-41 0.0037556835 -0.0030229704 4.5352e-41 5.407e-41 -5.5142e-41
-0.0008547125 8.226064e-06 -0.00018216623 0.00029262216 -0.0001989271 -6.298004e-05 -1.3376158e-05 4.6429e-41
0.0011390946 -3.0553804e-06 -9.596922e-05 6.0776288e-06 5.2149276e-06 4.1807863e-05 2.7191629e-05 6.0851e-41
5.3567e-41 -5.3193187e-05 9.2507726e-05 1.571903e-05 0.0006795336 -5.2054e-41 -6.212692e-08 4.3448516e-09
-4.4319886e-06 -5.27e-42 -6.1956e-41 -4.7818e-41 5.0817e-41 -5.745e-42 4.3758e-41 4.6624e-41
00000000: 9b76 0080 9703 0000 1480 b53d 9830 26bc
00000010: b03d 9a3a ae8e 0000 388e b2bd acb9 793b
00000020: 406f 0000 068a 0080 1087 033d 0695 0000
00000030: 1b98 0080 090c 0080 316c 0080 2f86 0000
00000040: 0451 0000 f511 0000 bfcf b83d 50e2 ae3d
00000050: 0034 0000 d680 94bc c603 0000 48ae bcbc
00000060: dd91 7b3e 39ec cd3b 5a50 bdbc e827 973d
00000070: db00 52be 1500 ddb6 4a2c 0000 1190 013e
00000080: 231a 95bb 618c 85bd ae3e e73c d096 e639
00000090: bc17 623b 9e6f fbbb 8b0e 0080 4c9b 0000
000000a0: 7816 ac3b 83b7 bd3d 4c6d 6bbe ea96 f7bd
000000b0: a73f 0080 7337 6db8 837a b434 f4c3 bfbd
000000c0: dc99 0080 1381 0080 1f52 0000 3ea9 0000
000000d0: 405d 0080 2690 0000 f80f 0000 964d 0080
000000e0: 3094 0000 9057 0080 3a84 0080 6b2d 4e3c
000000f0: f56a c93a a102 0000 7f73 0080 c453 0000
00000100: cf75 0080 0d66 0080 09bb 5f39 0c23 0000
00000110: 3d3f 0080 56e0 9838 2cdb 7637 0250 3db6
00000120: 7ea0 0080 403f 3938 0960 9fb6 fb87 0000
00000130: 1874 0000 a430 0000 616e 0080 08a2 0000
00000140: ce4c 0000 1d9f 0000 f82e 0080 7c51 0000
00000150: 543f 0000 5b80 d238 8698 f439 020b 0080
00000160: 784e 03b7 039b 0000 476d c838 1150 a53a
00000170: 5494 db39 7ae0 36b8 2088 8339 c0da 3637
00000180: d07e fab6 10a0 0080 0ecf 2b3a 72de 4f37
00000190: c57c cb39 50bc 8635 0fa0 0fb7 fd73 09b8
000001a0: 06c1 b136 617e 0080 494a 0000 5bfb 6b38
000001b0: 41c5 10ba 9d5f 1cb7 c6b4 e5b9 ca80 0000
000001c0: 499f 3f35 edd8 e6b2 4482 08b7 bd99 0000
000001d0: db9d 0000 4025 0080 da2b 0080 dc8e 0000
000001e0: 0321 0080 bb6a 0000 4084 0000 5674 0080
000001f0: c8aa 0080 f283 0080 d7ed 6dba c380 2139
00000200: bd8e 0000 8ea7 0080 c084 0080 9e07 0080
00000210: 0283 0080 fb2f a83a 4890 0080 6c44 0080
00000220: c7a4 7b3d 3fff 5dba ed84 f0b8 f641 0000
00000230: 6ea9 c3bd 4e31 0080 346c 0000 3198 0080
00000240: 867e 0080 9e38 0000 6003 0080 9e69 0080
00000250: 0c00 0000 e28f 0080 e61b 0080 8d7a 0000
00000260: 59d1 f73b 637f d33a 9e9d 0080 925d 0000
00000270: 599f 0000 ab0e b43c deb4 c838 7c4c bab7
00000280: 397b 6f39 03e9 c7bd d4f9 f53c bbdf 2d37
00000290: 3095 0000 8934 c6bd 36f7 72ba a27b 7b3b
000002a0: 2c11 3038 f244 96b7 5fb6 0a37 36e2 a0b7
000002b0: 960d 0000 b5ad 0000 9d61 6e38 a64a 9cb9
000002c0: eece 783d f0ae 04b8 3488 0080 2f42 0c36
000002d0: 6c9a 2236 e86b 993d ab94 0000 14a0 0080
000002e0: 9817 0000 5a00 0080 1498 0080 768c 0080
000002f0: 9e57 0000 dca9 0000 5f84 0080 6f20 0080
00000300: 0f47 0080 37a8 3abc d811 0ebb c889 0080
00000310: 6732 0000 6022 0000 c193 0000 719b 0000
00000320: 34ee 503c 0721 0000 ad00 0080 5880 0a3c
00000330: 5821 01b9 5c03 af34 2957 0000 7114 8b3a
00000340: 7c9a 0080 9f99 0080 964f 0000 e9ae 0000
00000350: db1b 0080 429c 0080 0752 0080 f68e 0080
00000360: fa2e 0000 1023 0000 515b 0080 ea21 763b
00000370: 071d 46bb 6c7e 0000 ba96 0000 b799 0080
00000380: c90e 60ba ad02 0a37 e003 3fb9 156b 9939
00000390: 1697 50b9 2714 84b8 296a 60b7 6d81 0000
000003a0: ac4d 953a 090b 4db6 1543 c9b8 6fee cb36
000003b0: e3fb ae36 da5a 2f38 9419 e437 a1a9 0000
000003c0: 5395 0000 c01b 5fb8 b500 c238 5cdc 8337
000003d0: ba22 323a 1b91 0080 a36a 85b3 b849 9531
000003e0: 7eb6 94b6 b10e 0080 b5ac 0080 4c85 0080
000003f0: a88d 0000 0410 0080 fb79 0000 f881 0000

gats.0.lin_r.bias f4 [335]
0.114561014 0.0023847907 0.19100748 0.1046971 -0.0001080869 0.011109582 -0.0025240683 0.081487425
0.039032996 0.04084769 0.045791805 0.005061473 0.13385028 0.003890807 0.099726275 0.014307285
-3.1485077e-05 2.0357745e-06 0.10332436 0.04631984 -0.00090820313 0.07293313 0.21246111 -8.1183956e-05
0.0009993413 0.0001252724 0.002903533 -0.00092080026 0.06875878 0.0041779475 0.00011133497 0.0022584272
6.095709e-06 0.1098553 0.024964355 0.10995745 0.032687705 0.060809154 0.002174011 -0.0005319608
0.053391628 0.09615728 -0.012530554 0.07547243 -0.0029542248 1.6330931e-06 0.04302643 7.02215e-05
0.11887441 0.14951243 0.14772858 0.017952083 0.0010704983 0.05298976 0.14275745 0.08515492
0.123262316 -1.6698657e-05 0.13561368 -0.011350653 0.025933204 -0.0025426452 0.19945434 0.14739649
-0.00012380761 0.20765172 -1.847956e-05 0.01990828 0.025025295 0.06204596 -0.0345891 -7.892916e-05
0.023407672 0.085017234 0.0051069804 0.040642004 0.019195491 0.019897992 0.017081367 -0.022089627
0.013356899 0.11330617 8.296445e-05 0.008317393 0.00478648 0.041147582 0.19243114 -0.003625226
0.04580607 0.0003722184 -0.00011044334 0.011456208 0.0003042474 0.019118173 0.01180118 -0.0810439
0.019947058 0.049322218 0.04712752 0.0049720714 0.01319349 0.16414927 0.015171937 -0.017174222
-0.038998194 0.016702464 -0.027449964 0.03693782 -0.028587358 0.012419492 0.15251133 0.0065925065
0.010447831 -0.011776286 0.01081983 0.04771582 -0.0049117547 0.053532213 -7.5288813e-06 0.016396236
-0.0032259317 0.017909354 0.11474325 -0.0017871105 0.026169473 -0.009873979 0.04016361 0.021783862
0.028580623 0.14990501 0.00650749 0.0017568294 0.16887888 0.002264625 0.01269668 4.084996e-06
0.021189686 0.05326358 0.101711385 -0.016456155 -0.043767393 -0.015990764 -0.027230093 -0.0054921396
-0.008062324 -0.002110538 0.007887739 0.23209897 0.21210435 -0.0014742377 -2.4258903e-05 -5.195745e-05
-0.0002621397 -0.0018835304 -0.013235022 0.12931477 0.012741988 0.07997067 -0.0043469854 8.3643055e-05
-0.0073422473 0.12666452 -0.017627865 0.0003564247 0.00012225294 -0.00061869266 0.00040495323 0.032114204
0.17691553 -0.00629127 0.024433523 0.014842329 -0.013660713 -0.035921108 0.21078739 0.094060674
0.0060559004 0.1629512 -0.0011644191 -0.00038612788 0.083481364 -0.0015634856 -0.062136997 0.016094645
-0.001453649 0.1290565 -0.0010415615 0.010878652 0.12096469 0.06469778 0.066287056 -3.0061174e-05
-0.0018583296 0.12788227 0.23800598 -0.005570799 0.16298643 0.0842877 0.10695984 0.13004263
3.1809384e-05 0.13526063 0.019795168 0.17957334 0.10049241 0.001153049 0.04031167 0.035625894
0.028268706 0.031330813 0.022575274 0.046615157 -0.0002566427 -0.01906876 0.027533114 0.017430631
3.4887187e-05 0.0041545676 0.059190247 -0.028230388 0.11695529 0.0145566985 0.04093909 0.018112062
0.0022357902 0.10233718 0.055008154 0.13275035 0.022918317 0.086646065 0.025683409 0.0036577086
0.008746688 0.01182213 0.012450204 0.01111558 0.039321866 0.034955535 0.05085701 0.028978385
-0.013489637 -0.023701798 0.01649667 0.018881131 0.062874086 0.028676234 0.035839178 0.0105518615
0.079736695 0.061997887 0.053641524 0.07136863 1.877415e-05 -0.022842327 -0.00020643602 0.02547953
00000000: f79e ea3d 264a 1c3b 7797 433e 6f6b d63d
00000010: b6ac e2b8 f704 363c d76a 25bb e1e2 a63d
00000020: 10e1 1f3d e84f 273d 3090 3b3d b7da a53b
00000030: 0c10 093e e9fc 7e3b 4a3d cc3d 1a69 6a3c
00000040: d80e 04b8 579e 0836 b99b d33d dfb9 3d3d
00000050: 7b14 6eba f75d 953d 688f 593e 4e41 aab8
00000060: 54fc 823a 8e5b 0339 3349 3e3b dc61 71ba
00000070: 67d1 8c3d 2ae7 883b 827c e938 1f02 143b
00000080: be89 cc36 d1fb e03d 0c82 cc3c 5f31 e13d
00000090: 8be3 053d 0513 793d da79 0e3b 4973 0bba
000000a0: 2eb1 5a3d 1cee c43d f44c 4dbc 4a91 9a3d
000000b0: ab9b 41bb a730 db35 7b3c 303d e143 9338
000000c0: 6d74 f33d c919 193e 2946 173e 3f10 933c
000000d0: f64f 8c3a ca0b 593d 022f 123e b465 ae3d
000000e0: f470 fc3d 1814 8cb7 50de 0a3e 17f8 39bc
000000f0: df71 d43c 82a2 26bb c23d 4c3e 1bef 163e
00000100: 5ad2 01b9 a7a2 543e 8e04 9bb7 b016 a33c
00000110: d901 cd3c e823 7e3d 4dad 0dbd c586 a5b8
00000120: 72c1 bf3c 841d ae3d 7558 a73b 3b78 263d
00000130: dd3f 9d3c 1d01 a33c 39ee 8b3c 4ef5 b4bc
00000140: e5d6 5a3c 110d e83d 33fd ad38 ad45 083c
00000150: e8d7 9c3b 5e8a 283d ab0c 453e 3395 6dbb
00000160: 259f 3b3d 4f26 c339 d19d e7b8 d2b2 3b3c
00000170: 6583 9f39 b79d 9c3c bd59 413c 58fa a5bd
00000180: 0368 a33c 1806 4a3d c908 413d c2ec a23b
00000190: 8229 583c bf16 283e b793 783c f4b0 8cbc
000001a0: 92bc 1fbd 9bd3 883c bfde e0bc 1d4c 173d
000001b0: 0930 eabc 207b 4b3c ee2b 1c3e f405 d83b
000001c0: 612d 2b3c 53f1 40bc a845 313c aa71 433d
000001d0: c9f2 a0bb 9844 5b3d 99a0 fcb6 6651 863c
000001e0: 276a 53bb a3b6 923c 82fe ea3d 7a3d eaba
000001f0: 5d61 d63c 78c6 21bc 9982 243d 1274 b23c
00000200: e921 ea3c b380 193e c83c d53b 6a45 e63a
00000210: 96ee 2c3e 1a6a 143b bc05 503c d911 8936
00000220: fe95 ad3c e92a 5a3d 0f4e d03d 0fcf 86bc
00000230: 7045 33bd 10ff 82bc a511 dfbc 68f7 b3bb
00000240: d617 04bc f450 0abb 933b 013c 5aab 6d3e
00000250: e231 593e 353b c1ba 997f cbb7 e3ec 59b8
00000260: cc6f 89b9 cbe0 f6ba b5d7 58bc 176b 043e
00000270: c5c3 503c aac7 a33d 2871 8ebb 8669 af38
00000280: 3c97 f0bb 58b4 013e 5068 90bc 83de ba39
00000290: 0631 0039 c32f 22ba e74f d439 2f8a 033d
000002a0: 5829 353e ff26 cebb d028 c83c 3d2d 733c
000002b0: 2fd1 5fbc 0322 13bd a6d8 573e e2a2 c03d
000002c0: 9370 c63b aedc 263e 6c9f 98ba 3571 cab9
000002d0: 47f8 aa3d dfed ccba 5d83 7ebd ebd8 833c
000002e0: 5e88 beba 6327 043e 0185 88ba 603c 323c
000002f0: 56bc f73d 4580 843d 82c1 873d e12b fcb7
00000300: 3293 f3ba 92f3 023e d7b7 733e 408b b6bb
00000310: eae5 263e 089f ac3d c30d db3d e529 053e
00000320: 116b 0538 c381 0a3e 7a29 a23c 13e2 373e
00000330: f7ce cd3d e721 973a da1d 253d 75ec 113d
00000340: c693 e73c bd54 003d c8ef b83c 89ef 3e3d
00000350: 008e 86b9 1736 9cbc 208d e13c afca 8e3c
00000360: d553 1238 0a23 883b 7971 723d 6a43 e7bc
00000370: 4186 ef3d 387f 6e3c bfaf 273d bf5f 943c
00000380: 5686 123b 2896 d13d 3b50 613d b5ef 073e
00000390: 32bf bb3c 7e73 b13d 0366 d23c 2bb6 6f3b
000003a0: 454e 0f3c 9bb1 413c f1fb 4b3c 1f1e 363c
000003b0: f70f 213d 892d 0f3d 714f 503d 1464 ed3c
000003c0: a303 5dbc 462a c2bc 0624 873c 9aac 9a3c
000003d0: 21c4 803d 6cea ea3c 1acc 123d b7e1 2c3c
000003e0: fe4c a33d 7ff1 7d3d 37b7 5b3d b729 923d
000003f0: 2e7d 9d37 d51f bbbc bf76 58b9 73ba d03c

gats.0.lin_edge.weight f4 [335, 1]
0.3701054 0.00033862147 -0.14643954 -0.13510746 0.00014708562 -0.008578584 -0.0065756585 -0.036165375
-0.008950665 -0.033226382 -0.015279926 -0.00616001 -0.051957794 0.00057621906 -0.14992702 -0.0061911573
1.2220488e-06 2.6426753e-05 -0.08137492 0.2012512 0.34825987 -0.01479354 0.44619063 -8.7825385e-05
0.0009890996 4.8030386e-05 0.003978646 -0.01947773 -0.028829364 -0.0013625772 6.309579e-05 -0.0007067212
-8.5512365e-06 0.0072990204 -0.0058739707 -0.074391566 -0.02023201 -0.02306214 -0.003057741 -0.0008360498
-0.05465968 0.031136932 -0.033099774 -0.09848114 -0.0064673214 0.00010853612 0.42223626 0.000179484
0.1682363 -0.08340331 -0.16792807 -0.038596775 0.0018393305 -0.0028818734 -0.086046 -0.07900936
0.014447248 -5.3540403e-05 0.57987064 -0.010046524 -0.006208128 -0.017115738 -0.0744523 -0.111456074
0.00011505516 0.503892 8.44606e-06 0.41866103 0.56253165 0.27549356 0.539774 -0.00017879914
0.39999667 -0.17214355 0.007582282 0.06369214 0.034126747 0.04101389 -0.01053666 -0.005626937
0.037725113 0.38710597 -0.0015022821 0.0105676735 0.005475386 0.40571326 -0.05676133 0.0017420141
0.020640748 0.5746512 0.0013728045 -0.0066231145 0.0013860345 0.006348395 -0.00684739 0.11804251
0.188862 0.49629137 0.3777334 0.005740387 0.029131547 -0.007371116 0.049087584 0.2235308
0.009614863 -0.030392723 0.44003668 0.043469563 0.041197717 -0.00020989466 -0.11495439 0.0042725215
-0.005868533 -0.0024932204 -0.0061329436 0.4184604 -0.000246571 0.4457683 7.993675e-08 0.0062023504
-0.02817582 0.024908625 -0.13815872 0.020301757 0.5638309 -0.012312715 0.0077807033 0.05529978
0.054143548 -0.20593174 0.011124942 0.0032087134 0.7766898 -0.0072951107 0.08045138 -5.6423713e-05
0.22831425 0.091568455 0.043673687 0.1244741 -0.05729152 -0.013806499 -0.031644326 -0.007818232
-0.0070384005 0.00057999534 0.2187764 -0.03689334 0.0908122 0.00053417083 -2.9023084e-05 5.1436036e-05
-0.0016109814 0.1076446 0.11045356 0.16981141 0.12994748 0.033085864 -0.003845074 0.00019187776
-0.03167219 -0.08218738 0.17269193 -0.00075565395 6.646478e-05 7.016154e-05 0.000110572444 0.07976458
0.04678871 -0.0032625166 0.04343105 0.023689603 0.09733338 -0.012076224 -0.011124182 0.039200544
0.025336582 -0.036206953 -0.0011783484 0.0009009515 0.13793826 0.09102957 0.16027792 0.064905114
0.0015985915 0.050570533 0.007243223 0.088255815 0.24466532 0.030220348 0.20752874 -5.576142e-05
-0.00010538916 0.21712568 -0.035049427 -0.0068155727 0.03168991 0.07592558 0.0022764232 0.1864389
0.00011860928 0.5085717 0.3168087 0.7554373 0.8995428 -0.0013776956 -0.0039081965 -0.004434709
-0.006020225 -0.021339646 0.0038344741 0.0023499057 0.0016875067 -0.03620077 -0.05001812 0.0048762495
0.002602696 -0.00035806844 0.4999335 0.010596614 0.7949025 -0.0018852208 0.7144069 -0.004351454
-0.001863074 0.2079632 0.3272082 0.5519464 0.0069449865 -0.06889806 0.20765942 -0.0017691655
-0.0036297124 -0.0037297208 -0.007326025 -0.0015730012 0.28308165 -0.01207353 0.2480338 -0.113816544
-0.00019531224 -0.001019127 0.012824018 0.32645422 0.28066614 -0.0047826194 0.3201695 0.3725288
0.5751673 -0.06119146 -0.13616084 0.4465818 0.00029577897 0.03600074 0.0012461706 -0.0019369358
00000000: 747e bd3e 0189 b139 3ff4 15be 9c59 0abe
00000010: ff3a 1a39 308d 0cbc 9f78 d7bb 2522 14bd
00000020: cfa5 12bc 6318 08bd a858 7abc e9d9 c9bb
00000030: b2d1 54bd 680d 173a 7886 19be 31df cabb
00000040: 4705 a435 05af dd37 e5a7 a6bd cb14 4e3e
00000050: 1e4f b23e 9b60 72bc 1973 e43e e52e b8b8
00000060: ada4 813a 3c74 4938 4d5f 823b c38f 9fbc
00000070: 8f2b ecbc 8198 b2ba 4b52 8438 4243 39ba
00000080: 4877 0fb7 9f2c ef3b 707a c0bb 9b5a 98bd
00000090: 9abd a5bc d0ec bcbc 6264 48bb 5a2a 5bba
000000a0: d4e2 5fbd e112 ff3c a193 07bd 7bb0 c9bd
000000b0: d3eb d3bb e39d e338 5a2f d83e df33 3c39
000000c0: 2346 2c3e 5bcf aabd 56f5 2bbe a717 1ebd
000000d0: b115 f13a d0dd 3cbb e338 b0bd a9cf a1bd
000000e0: 26b4 6c3c 9290 60b8 6772 143f 2d9a 24bc
000000f0: 8d6d cbbb 4e36 8cbc 737a 98bd 1543 e4bd
00000100: c549 f138 11ff 003f 8db3 0d37 bd5a d63e
00000110: 1302 103f 7e0d 8d3e a12e 0a3f 077c 3bb9
00000120: 5dcc cc3e 6646 30be cb74 f83b 0671 823d
00000130: 7dc8 0b3d 2efe 273d f5a1 2cbc 2b62 b8bb
00000140: a685 1a3d c132 c63e 39e8 c4ba 0924 2d3c
00000150: de6a b33b a6b9 cf3e 927e 68bd 4b54 e43a
00000160: c916 a93c 571c 133f adef b33a b606 d9bb
00000170: 9aab b53a 3206 d03b 1260 e0bb 45c0 f13d
00000180: 0a65 413e e719 fe3e 4666 c13e db19 bc3b
00000190: 48a5 ee3c 6789 f1bb 1010 493d 42e5 643e
000001a0: a987 1d3c 29fa f8bc 7d4c e13e 240d 323d
000001b0: f0be 283d 2b17 5cb9 356d ebbd 8200 8c3b
000001c0: d34c c0bb 4c65 23bb dcf6 c8bb 7140 d63e
000001d0: 3346 81b9 be3b e43e b1a9 ab33 163d cb3b
000001e0: fad0 e6bc 2c0d cc3c 7b79 0dbe df4f a63c
000001f0: 3957 103f 45bb 49bc 45f5 fe3b 0682 623d
00000200: a0c5 5d3d c5df 52be 6445 363c 4749 523b
00000210: 25d5 463f d30b efbb b1c3 a43d 80a8 6cb8
00000220: 36cb 693e 3e88 bb3d 2ee3 323d 47ec fe3d
00000230: 83aa 6abd a734 62bc 7b9d 01bd 0b18 00bc
00000240: 62a2 e6bb d40a 183a ec06 603e 791d 17bd
00000250: bffb b93d 9907 0c3a 9976 f3b7 06bd 5738
00000260: 9127 d3ba c674 dc3d 7a35 e23d 0be3 2d3e
00000270: f410 053e 0b85 073d a3fd 7bbb cb32 4939
00000280: b3ba 01bd db51 a8bd 27d6 303e 1417 46ba
00000290: 0263 8b38 b123 9338 21e3 e738 9d5b a33d
000002a0: 85a5 3f3d f2cf 55bb c2e4 313d b310 c23c
000002b0: b956 c73d 5bdb 45bc 3342 36bc c090 203d
000002c0: aa8e cf3c be4d 14bd d072 9aba d52d 6c3a
000002d0: b03f 0d3e b66d ba3d e51f 243e f9ec 843d
000002e0: d487 d13a 0c23 4f3d 8f58 ed3b 77bf b43d
000002f0: 8c89 7a3e aa90 f73c 6a82 543e 5ee1 69b8
00000300: 6004 ddb8 3256 5e3e fd8f 0fbd 2b55 dfbb
00000310: 47cd 013d df7e 9b3d 0b30 153b d7e9 3e3e
00000320: dfbd f838 c131 023f c034 a23e 5764 413f
00000330: 7048 663f cb93 b4ba 5410 80bb 0951 91bb
00000340: 4f45 c5bb 7bd0 aebc cd4b 7b3b e000 1a3b
00000350: 542f dd3a 4247 14bd cddf 4cbd f2c8 9f3b
00000360: fe91 2a3b 22bb bbb9 49f7 ff3e 6c9d 2d3c
00000370: bb7e 4b3f 8319 f7ba 5fe3 363f a496 8ebb
00000380: 6432 f4ba 4ef4 543e d587 a73e 5c4c 0d3f
00000390: c592 e33b 6d1a 8dbd aca4 543e 58e3 e7ba
000003a0: 78e0 6dbb 556e 74bb 270f f0bb 292d ceba
000003b0: 14f0 903e 0ed0 45bc 93fc 7d3e a618 e9bd
000003c0: bbcc 4cb9 3a94 85ba d41b 523c 0225 a73e
000003d0: 79b3 8f3e 85b7 9cbb 42ed a33e 18bc be3e
000003e0: 2a3e 133f e5a3 7abd bf6d 0bbe 5fa6 e43e
000003f0: c812 9b39 8375 133d 8c56 a33a c8e0 fdba

gats.1.att f4 [1, 5, 67]
4.1341455e-08 -2.713393e-22 -3.6639296e-11 1.5078488e-06 4.0086765e-05 -5.7875275e-07 9.492279e-09 0.00012095891
1.7005657e-05 -2.9308913e-08 -4.0062337e-06 -7.0863553e-06 3.5310705e-08 2.617572e-07 5.1186116e-06 6.065067e-11
-3.503063e-07 2.5548954e-06 -2.9920955e-08 1.166055e-08 4.313856e-05 3.4578986e-06 -5.163897e-07 -2.00989e-05
-5.92372e-06 -3.7734524e-06 1.232385e-07 2.72773e-07 -6.089778e-09 5.6412255e-06 -7.9508663e-07 3.7036438e-07
3.211926e-07 -2.541053e-07 4.797736e-08 5.2889604e-09 2.7555422e-09 4.3714226e-06 -7.259259e-09 -4.0625157e-09
0.00011702442 0.00016670785 8.102706e-28 -1.0298909e-08 -3.555324e-08 2.3144526e-06 -7.759502e-06 -9.906926e-07
-2.1155069e-09 5.953759e-05 2.2048243e-06 2.0279032e-05 2.6255773e-06 4.303873e-06 2.8856534e-06 0.0064051785
-0.00022598193 4.6056768e-05 1.9015305e-07 -4.4191265e-07 1.9930776e-06 -4.9798597e-08 -1.2568927e-07 8.586976e-05
3.0607058e-05 3.3561463e-07 -6.602388e-06 4.1381732e-08 -2.722219e-22 -3.674786e-11 1.5084303e-06 4.0120805e-05
-5.8039205e-07 9.518481e-09 0.000121339246 1.7060334e-05 -2.9111874e-08 -4.0206783e-06 -7.1157738e-06 3.3960283e-08
2.6147393e-07 5.116081e-06 6.062833e-11 -3.5376266e-07 2.5569532e-06 -2.9711996e-08 1.11816405e-08 4.3189273e-05
3.4652344e-06 -5.1635215e-07 -2.0146686e-05 -5.827236e-06 -3.77031e-06 1.2308386e-07 2.7989273e-07 -5.2817626e-09
5.6434487e-06 -7.990207e-07 3.560995e-07 3.198744e-07 -2.5485687e-07 4.802997e-08 5.483994e-09 3.0117702e-09
4.3768323e-06 -5.723971e-09 -4.070752e-09 0.00011728945 0.00016702758 8.14223e-28 -9.917935e-09 -3.5427473e-08
2.3253244e-06 -7.757779e-06 -9.887107e-07 -2.119632e-09 5.9562324e-05 2.2112522e-06 2.0300571e-05 2.6269931e-06
4.3079976e-06 2.8847842e-06 0.006253573 -0.00022673806 4.6087167e-05 1.8818497e-07 -4.4299063e-07 1.994117e-06
-5.0640207e-08 -1.2530892e-07 8.6028376e-05 3.0607276e-05 3.3424274e-07 -6.5919808e-06 4.14148e-08 -2.572614e-22
-3.695225e-11 1.520365e-06 4.0284358e-05 -5.814033e-07 9.5404955e-09 0.00012130491 1.7074562e-05 -2.3791586e-08
-4.011743e-06 -7.12078e-06 3.273734e-08 2.6362034e-07 5.1259312e-06 6.036434e-11 -3.5596244e-07 2.5535724e-06
-3.0660466e-08 6.1653496e-09 4.317761e-05 3.4611144e-06 -5.1681985e-07 -2.0127845e-05 -5.8066676e-06 -3.7509083e-06
1.2310072e-07 2.7905796e-07 -4.6505244e-09 5.6441204e-06 -8.018241e-07 3.8647624e-07 4.4767266e-06 -2.537065e-07
4.771446e-08 5.4361045e-09 3.2490866e-09 4.372402e-06 -5.428834e-09 -4.065348e-09 0.00011739616 0.00016727163
8.109329e-28 -1.3264171e-08 -3.5584108e-08 2.33546e-06 -7.769792e-06 -9.851874e-07 -2.1186306e-09 5.9828515e-05
2.2137535e-06 2.0328922e-05 2.6253929e-06 4.299867e-06 2.890424e-06 0.0060110255 -0.00022814181 4.6149675e-05
1.7946897e-07 -4.4307242e-07 1.9939416e-06 -4.8816737e-08 -1.2630011e-07 8.605944e-05 3.0658357e-05 3.3611107e-07
-6.5403274e-06 4.1366285e-08 -2.6998624e-22 -3.652885e-11 1.5041609e-06 3.9995444e-05 -5.7588517e-07 9.455234e-09
0.00012053235 1.688682e-05 -2.5411598e-08 -4.008008e-06 -7.079766e-06 3.484788e-08 2.6243703e-07 5.115681e-06
6.065146e-11 -3.4792328e-07 2.549593e-06 -3.004561e-08 1.0849742e-08 4.3043674e-05 3.4542527e-06 -5.152406e-07
-2.0040246e-05 -5.7993007e-06 -3.7775346e-06 1.1947222e-07 2.6826885e-07 -5.196613e-09 5.6305844e-06 -7.95213e-07
3.7343236e-07 3.1045633e-07 -2.5418893e-07 4.7931252e-08 5.390389e-09 2.4450018e-09 4.362753e-06 -9.840036e-09
-4.0508032e-09 0.00011675352 0.00016614716 6.035707e-28 -1.0808889e-08 -3.5427814e-08 2.3064397e-06 -7.740446e-06
-9.900743e-07 -2.1089217e-09 5.9431375e-05 2.1978205e-06 2.0230167e-05 2.621923e-06 4.2957217e-06 2.8837553e-06
00000000: 698f 3133 b903 a49b 2e24 21ae 4a61 ca35
00000010: d622 2838 965b 1bb5 7c13 2332 52ab fd38
00000020: 5fa7 8e37 fbc2 fbb2 496d 86b6 54c7 edb6
00000030: 88a8 1733 a387 8c34 8ac0 ab36 4b5f 852e
00000040: bb11 bcb4 c574 2b36 7082 00b3 a453 4832
00000050: adef 3438 3f0e 6836 089e 0ab5 0f9a a8b7
00000060: 5ec4 c6b6 6b3b 7db6 8a53 0434 a371 9234
00000070: 413e d1b1 c249 bd36 f06d 55b5 7ed6 c634
00000080: 6070 ac34 f76b 88b4 aa0f 4e33 30ba b531
00000090: 035c 3d31 3cae 9236 1e6d f9b1 4496 8bb1
000000a0: 026b f538 4cce 2e39 7b64 8012 15ef 30b2
000000b0: 33b3 18b3 fe51 1b36 cf2e 02b7 f0f7 84b5
000000c0: 6460 11b1 00b8 7938 98f6 1336 e41c aa37
000000d0: 1333 3036 fd69 9036 26a7 4136 88e2 d13b
000000e0: 90f5 6cb9 142d 4138 df2c 4c34 0340 edb4
000000f0: d0c0 0536 23e2 55b3 34f5 06b4 fa14 b438
00000100: 1460 0038 862e b434 158a ddb6 b2bb 3133
00000110: 4c8c a49b 6a9e 21ae 4575 ca35 6347 2838
00000120: 3dcc 1bb5 b986 2332 8377 fe38 ca1c 8f37
00000130: b011 fab2 5de9 86b6 08c4 eeb6 badb 1133
00000140: b460 8c34 cdaa ab36 b752 852e c5ec bdb4
00000150: 1f98 2b36 5f39 ffb2 6019 4032 2126 3538
00000160: 468c 6836 739b 0ab5 ae00 a9b7 9387 c3b6
00000170: 6f05 7db6 0929 0434 2a44 9634 e07a b5b1
00000180: db5c bd36 497c 56b5 f12d bf34 34bb ab34
00000190: 43d3 88b4 8349 4e33 b96d bc31 9ff7 4e31
000001a0: b4dc 9236 95ac c4b1 b7de 8bb1 4bf9 f538
000001b0: 2024 2f39 cf04 8112 8a63 2ab2 eb28 18b3
000001c0: c50c 1c36 6827 02b7 d7b3 84b5 f6a8 11b1
000001d0: 8fd2 7938 0665 1436 254b aa37 664b 3036
000001e0: 6b8d 9036 3798 4136 c6ea cc3b 89c0 6db9
000001f0: b84d 4138 e40f 4a34 2bd4 edb4 abd2 0536
00000200: 7f7f 59b3 a78c 06b4 226a b438 5060 0038
00000210: f971 b334 af30 ddb6 0ee0 3133 4681 9b9b
00000220: 8984 22ae 580f cc35 00f7 2838 bb11 1cb5
00000230: 8be7 2332 1465 fe38 583b 8f37 405e ccb2
00000240: 9c9c 86b6 09ef eeb6 169b 0c33 b487 8d34
00000250: 6aff ab36 1abe 842e 1b1b bfb4 0a5e 2b36
00000260: 8aaf 03b3 fdd6 d331 9b19 3538 7e45 6836
00000270: 97bb 0ab5 38d8 a8b7 e5d6 c2b6 1db8 7bb6
00000280: ab2d 0434 6fd1 9534 72ca 9fb1 a062 bd36
00000290: ef3c 57b5 e47c cf34 ca36 9636 2835 88b4
000002a0: 9bee 4c33 7bc8 ba31 8946 5f31 a6b6 9236
000002b0: 8788 bab1 2eaf 8bb1 9532 f638 a365 2f39
000002c0: 597f 8012 71e0 63b2 24d5 18b3 e6ba 1c36
000002d0: 015b 02b7 c83a 84b5 5897 11b1 61f0 7a38
000002e0: ff8f 1436 0788 aa37 e82f 3036 9447 9036
000002f0: 1bf9 4136 23f8 c43b 5a39 6fb9 d690 4138
00000300: 0eb4 4034 69df edb4 a8cf 0536 92aa 51b3
00000310: 1c9d 07b4 cf7a b438 2997 0038 c172 b434
00000320: fc74 dbb6 b6aa 3133 5932 a39b d4a7 20ae
00000330: 93e2 c935 c8c0 2738 8796 1ab5 8f70 2232
00000340: 50c6 fc38 2ba8 8d37 b248 dab2 877c 86b6
00000350: ba8e edb6 a6ab 1533 12e5 8c34 5da7 ab36
00000360: bd5f 852e 36ca bab4 ad19 2b36 7f0b 01b3
00000370: ac65 3a32 cb89 3438 9ccf 6736 104f 0ab5
00000380: 1a1c a8b7 9d97 c2b6 8d81 7db6 4648 0034
00000390: 9706 9034 e48d b2b1 5aee bc36 9f76 55b5
000003a0: 277c c834 cbac a634 7677 88b4 f8dc 4d33
000003b0: 5d36 b931 ed04 2831 c363 9236 f00c 29b2
000003c0: 3e2f 8bb1 92d9 f438 ca37 2e39 7947 3f12
000003d0: ffb1 39b2 4b29 18b3 55c8 1a36 f6dc 01b7
000003e0: b2e2 84b5 8bec 10b1 f445 7938 457e 1336
000003f0: f4b3 a937 4bf4 2f36 f823 9036 8a86 4136

gats.1.bias f4 [67]
-9.750243e-05 -5.2511116e-17 -1.43447405e-05 -0.00016178246 0.0012704975 -0.00018586969 5.3474804e-07 -0.00047053216
-0.00013861556 6.269899e-05 0.0002513308 -5.8285486e-06 6.761721e-05 5.55986e-05 3.1057738e-05 -1.2372315e-05
-9.395248e-05 5.326219e-05 1.8371153e-05 -0.0001405449 -0.00019740265 -1.4824054e-05 -0.00015411268 0.00032677097
-0.00027455797 0.00027912937 4.1452233e-05 8.8182824e-05 5.9269228e-06 4.3590127e-05 -0.00016875075 5.6243178e-05
-0.010894687 -0.00011602906 1.45187e-05 -5.584101e-05 8.479195e-07 0.00019992057 -0.00035618574 -5.197227e-07
0.00110915 -0.00029520117 -9.920697e-22 -0.00017554904 7.2146804e-06 0.00024385587 4.4670924e-05 2.7654043e-05
-4.8453387e-07 0.0009830922 2.0852909e-05 -2.547041e-05 9.458291e-05 2.7844091e-05 7.474037e-05 -0.026595162
-0.00067067984 0.00036649496 1.1466073e-05 -0.000374629 0.00013503016 3.77799e-05 -0.00033294782 -0.0005671297
0.0008333678 7.98874e-05 0.00012642726
00000000: 387a ccb8 2f2a 72a4 31aa 70b7 26a4 29b9
00000010: d286 a63a 04e6 42b9 9b8b 0f35 c2b1 f6b9
00000020: 5559 11b9 447d 8338 0dc5 8339 da92 c3b6
00000030: b7cd 8d38 8b32 6938 fe43 0238 b092 4fb7
00000040: 5b08 c5b8 d765 5f38 c01b 9a37 3c5f 13b9
00000050: dffd 4eb9 d4b4 78b7 4f99 21b9 7552 ab39
00000060: 8cf2 8fb9 1c58 9239 ffdc 2d38 cbee b838
00000070: e1df c636 8bd4 3638 aff2 30b9 a7e6 6b38
00000080: a17f 32bc a154 f3b8 5795 7337 d436 6ab8
00000090: 969c 6335 c5a1 5139 71be bab9 1283 0bb5
000000a0: e660 913a 3bc5 9ab9 d6ea 959c 9613 38b9
000000b0: a215 f236 90b3 7f39 0a5d 3b38 9bfa e737
000000c0: ea10 02b5 1adb 803a 48ed ae37 4aa9 d5b7
000000d0: d05a c638 bb92 e937 eebd 9c38 19de d9bc
000000e0: 90d0 2fba 1f26 c039 695e 4037 da69 c4b9
000000f0: e296 0d39 dc75 1e38 808f aeb9 6eab 14ba
00000100: 5e76 5a3a 3989 a738 8f91 0439
