inference/SymEx/model_checkpoints/SymEx_model_6.pt (torch, 503011 bytes, 21 tensors)

gats.0.att f4 [1, 5, 67]
00000000: ad3e 31bb f029 3a3f 1305 91ba 57a8 843f
00000010: 017e 94b9 15bd 78b9 dbc5 bd3a 8c0e 913c
00000020: 61a9 6e3f e8d7 a03f fd14 9db9 153f 88b8
00000030: 2125 01bf 7fd0 39bf bdc1 083b 0956 edb7
00000040: 972a 0ab9 a27f fb3e 5fba 463a 621d aa38
00000050: ba32 683a e6ab 40bd c990 23bf 1132 5239
00000060: 2b21 e83e e8bd 8e3a efa9 ab3a 5e24 313f
00000070: 399e b4b9 3579 223b fafc df38 f1da 883e
00000080: a910 1539 612a d5b7 4925 b1b8 3b74 1537
00000090: baff b339 b365 ac3f 8152 c738 17ef 9e3f
000000a0: ba21 a7b7 37c3 09b9 e80b 203f 0294 03bf
000000b0: 624a 79b9 6753 ad3f 7bbb 9f38 5792 e638
000000c0: 5197 3dbd ea34 8439 0e4a 0b3a 91a6 4c3c
000000d0: 1a1d 37bc da59 0039 8e41 d638 037e b039
000000e0: 329f 103d 9f5a 1b3f 27ea 5fb9 ae88 82b9
000000f0: ca0b 2039 d989 f73d 71ce c139 9e24 1abf
00000100: 1cf8 9339 9701 7abc f4a0 cc39 9621 72ba
00000110: befc 613c 7696 47ba feba 6ebf e8b5 1a3c
00000120: 4651 6fb8 d9d7 f239 02b7 613f f103 b7bc
00000130: 840c 343e 4384 32b8 8398 82b7 fbaa 4bbc
00000140: b608 633b cca7 ccba c8dc ab3a d4e3 21b9
00000150: ce88 80bc fa39 67ba b635 75b9 a051 adba
00000160: e28d 113f 7c68 9b3e 97a0 0fb9 29bc 933f
00000170: a24e 853f e32b 22ba fa05 3dba a9f0 dab7
00000180: f5ab b03a 47e1 2238 caf2 623e 9220 0b3a
00000190: 9031 82b8 2f65 cd38 6f3e 5439 19e7 bebb
000001a0: 5f3c c73a 86e0 f538 6d79 2b3a f2a4 153a
000001b0: 1979 093a a0b4 803b b800 3f3f 7674 3038
000001c0: 92ae 533d 47a6 b3b8 bbed 1a3b b494 7bb9
000001d0: b981 02b9 884d 78b8 e2f5 c83a 0352 06bf
000001e0: 56fb 8339 a9df b1b8 e0c9 fb38 d144 75bb
000001f0: e92f 293a 04ce 8039 5d05 3b38 3667 d537
00000200: 2317 32bc 893d 9338 0f78 053a 9e9e 3039
00000210: 5345 363b e6cf 823a 918d bf3f 4fca 633d
00000220: 8c5b 1a3b 89b0 a23f 288e 9a3e 1be4 f837
00000230: 17ae 2f38 9576 2f3d 7de3 323d 9608 a93c
00000240: b1b5 cc37 2a89 0739 77f0 4b3d 77a8 7d3d
00000250: d6f1 0b3b c020 673a 0344 fab8 3608 1e3e
00000260: f2e5 5f39 a962 a0be 2f46 ec39 0ba1 b4bd
00000270: 3d0c 3a3f 5c9f 3cb9 d42d b83e 0816 d93a
00000280: ac4f 8ebf de69 863d 843f 1638 3686 7d3b
00000290: c4d4 80b8 9713 5039 7f3b 5c38 e357 8e3b
000002a0: 596a 25b7 9152 dbb7 1fef caba 7f62 9abf
000002b0: f92f bd38 0e8c 96bf 0aa0 93bf 8921 3139
000002c0: fbfc ba3a 95fd ee3c 49fa c5b8 29c6 dabc
000002d0: 6dcc 8b38 dbaf 15ba 1bcc 273d 26f9 d23b
000002e0: f865 dc39 5bb1 703d be3e 0dbf 2aa7 f038
000002f0: 2f81 a5b8 ae5e 8838 385e 5ebf a769 573a
00000300: 1456 dd39 65c9 3fb9 df87 b3b8 20ca d73c
00000310: 34c9 adb7 481a cc39 66c1 c2b9 3f4d 4d3e
00000320: 60ec 513a d546 6dba 740d a83e aa71 f4b9
00000330: 8f1a ea3d 5358 fb3e d834 44ba 75cc 31b9
00000340: a0f4 c53c d078 64bc 53e0 bc39 eb82 0f38
00000350: 02fa 5cb9 d8d1 f33e e29f 4abf ba4b f83f
00000360: 6310 933a ae76 c6b9 815b b23c f746 fdba
00000370: 95d8 e4b9 41c4 29ba 4200 9fbe f78f 12be
00000380: ac03 89ba 6933 d63a 0319 d63f d43e 83bd
00000390: 74a4 7a3f fdf4 0c3a f867 9e3a 6fc7 19b7
000003a0: 777e bfb7 79f2 ac3e 0985 0eb8 6620 0d39
000003b0: c04d 1c3a efe1 9abb 4382 3b3b 8230 56b9
000003c0: dd60 ca3c 1bd1 4a38 022b 3c3f 36b0 453b
000003d0: 4374 5cbc 2fe3 2aba 86e2 933e 6f76 dcb8
000003e0: ad86 8db8 b8f0 3dbd bd0d 7d3a 7b85 dd39
000003f0: 3f1c 82bf 0eb5 29bf e040 323a 6750 a5b8
-0.0027045414 0.7272024 -0.0011064134 1.0363873 -0.0002832264 -0.00023721562 0.0014478521 0.017707132
0.932272 1.2565889 -0.0002996101 -6.496735e-05 -0.5044728 -0.72583765 0.002086743 -2.8292665e-05
-0.00013176572 0.49120814 0.0007580872 8.111705e-05 0.00088576565 -0.047038935 -0.638928 0.00020045812
0.45337805 0.0010890337 0.0013096909 0.69196117 -0.0003445016 0.0024791483 0.00010680589 0.2672954
0.00014215954 -2.5411313e-05 -8.4469626e-05 8.908154e-06 0.00034332072 1.3468536 9.504427e-05 1.2416714
-1.9923657e-05 -0.00013138061 0.6251817 -0.51397717 -0.000237742 1.3541077 7.616632e-05 0.000109945126
-0.046286885 0.00025216426 0.0005313464 0.012490884 -0.011176372 0.00012240504 0.00010216526 0.00033663222
0.03530807 0.6068515 -0.00021354166 -0.00024897367 0.00015263181 0.12086839 0.0003696564 -0.60212123
0.0002822288 -0.015259168 0.00039029832 -0.0009236572 0.013793169 -0.0007613668 -0.9325408 0.009442784
-5.7057732e-05 0.00046318656 0.8816987 -0.022340747 0.175829 -4.2561685e-05 -1.5568226e-05 -0.012430902
0.0034642643 -0.0015613972 0.0013112063 -0.00015439029 -0.015690234 -0.000882059 -0.0002338503 -0.0013223179
0.5685712 0.30353153 -0.00013697367 1.1541797 1.0414622 -0.0006186349 -0.00072106684 -2.6099691e-05
0.0013478982 3.8833616e-05 0.22162929 0.00053072826 -6.208115e-05 9.794009e-05 0.00020241154 -0.005825889
0.0015200487 0.00011724331 0.0006541226 0.00057084777 0.000524418 0.003927782 0.7461047 4.2070133e-05
0.051680155 -8.566357e-05 0.0023640234 -0.00023992622 -0.00012446092 -5.9200014e-05 0.0015332068 -0.5246889
0.00025173527 -8.481678e-05 0.00012006215 -0.003742505 0.00064539775 0.00024567556 4.458927e-05 2.543964e-05
-0.010869774 7.020968e-05 0.00050914375 0.00016843757 0.0027812317 0.0009980171 1.4965078 0.05561286
0.0023553101 1.2710124 0.30186582 2.9670124e-05 4.1885385e-05 0.042837698 0.04367398 0.020633977
2.4403302e-05 0.00012925701 0.049789872 0.06192824 0.0021353862 0.0008816831 -0.00011933597 0.1543282
0.00021352599 -0.31325272 0.0004506572 -0.08819779 0.72674924 -0.00017988443 0.35972464 0.0016562352
-1.1118064 0.06563161 3.582194e-05 0.0038684732 -6.143146e-05 0.00019843724 5.2507497e-05 0.004343973
-9.859527e-06 -2.6145282e-05 -0.0015482641 -1.2061309 9.021158e-05 -1.1761491 -1.1533215 0.00016892528
0.0014266068 0.029173652 -9.440311e-05 -0.026705818 6.666114e-05 -0.00057101034 0.040966135 0.006438392
0.00042037643 0.05876289 -0.5517386 0.000114752285 -7.8918754e-05 6.502621e-05 -0.86862516 0.00082173425
0.00042216538 -0.00018290205 -8.560693e-05 0.026341498 -2.07169e-05 0.00038929493 -0.00037146657 0.20048998
0.000800794 -0.00090513873 0.32822764 -0.00046623993 0.11430847 0.49090824 -0.0007484681 -0.00016956202
0.024164498 -0.01394482 0.0003602529 3.4215784e-05 -0.0002107397 0.47621036 -0.7915021 1.939811
0.0011220094 -0.00037853926 0.021772148 -0.0019323517 -0.00043648915 -0.00064760825 -0.31054884 -0.1431273
-0.0010453365 0.0016342226 1.6726383 -0.06408468 0.97907186 0.0005377082 0.0012085428 -9.165945e-06
-2.2827864e-05 0.33778742 -3.3979337e-05 0.00013458877 0.00059625134 -0.0047266404 0.0028611578 -0.00020426701
0.024704391 4.8355298e-05 0.73503125 0.0030164844 -0.013455453 -0.00065188383 0.2888376 -0.000105124775
-6.748489e-05 -0.046372145 0.0009653231 0.00042251855 -1.016487 -0.6629189 0.0006799828 -7.882789e-05

gats.0.bias f4 [67]
00000000: beb1 91bd e74d 99bd 52e3 35bb fd65 c4bc
00000010: e884 483d 12ff 7c39 a07f ac39 d55b cabd
00000020: 0923 95bd 5f0e 9dbd a71f 11bb 98b1 b0ba
00000030: 43d4 15be 1f6e 91bd 1207 d5bd b7ed fabb
00000040: 7c72 feb9 2e99 05be 3de0 163b 36ec b3bd
00000050: 39ec 42bd 02ad 60bd 283f 5abd 526a 94b8
00000060: aca6 83bc e909 1fbe 7fa8 c7bc eac4 2b3b
00000070: 48a6 9bba 97ba 55bc 7b57 edb9 bd5d 84bd
00000080: ea5f b8bc f352 6fba 9e94 343a ee3b 3f38
00000090: 9ced 083a d8d3 bebd a000 60bb a9fb 02be
000000a0: c3b6 06bd 5a58 3dbd 9f28 b1bd 5536 7cbd
000000b0: 9bab 22b8 f18b 38be 0a73 6a39 da9e 16ba
000000c0: 0e70 95bd f200 06bb 0919 e5ba e15f bcbd
000000d0: 4fbe 94bd ea1f 123a 9685 acb8 7238 08b7
000000e0: 489e fabd e485 2bbd b727 f938 2939 36ba
000000f0: 5ca0 12bb 264e 80bd 107f 4fbb 264a edbc
00000100: 687b 8cba fbe3 b0bd 4969 c8bb
-0.0711398 -0.07485562 -0.0027753902 -0.023974413 0.048954874 0.00024127614 0.00032901485 -0.09880797
-0.07282073 -0.07668757 -0.002214411 -0.0013480661 -0.14631753 -0.07101082 -0.10401739 -0.0076577323
-0.00048531953 -0.13046715 0.002302184 -0.08785288 -0.04758856 -0.054852493 -0.053282887 -7.076994e-05
-0.016070686 -0.15531124 -0.024372337 0.00262099 -0.0011875117 -0.013044975 -0.0004526934 -0.06463192
-0.022506673 -0.0009129487 0.0006888601 4.5593762e-05 0.0005223395 -0.0931775 -0.003418006 -0.12791313
-0.03288914 -0.046226837 -0.08650326 -0.061575253 -3.878363e-05 -0.18022133 0.00022358834 -0.00057457166
-0.07296763 -0.002044734 -0.0017478775 -0.09197975 -0.07262861 0.00055742136 -8.2264814e-05 -8.119374e-06
-0.12237221 -0.041875735 0.00011880643 -0.00069512666 -0.0022373414 -0.06264906 -0.0031661429 -0.02896602
-0.001071793 -0.08637234 -0.0061160666

gats.0.lin_l.weight f4 [335, 67]
00000000: 204c 0000 2042 0080 1073 163b a13b 2439
00000010: 7b5f 53b9 0b82 0000 b7d2 21b9 7351 213a
00000020: 5840 0000 0142 0000 aad7 0cb9 2caa 0080
00000030: a69a 0080 ed82 0000 1c4e 0000 8d0f 0000
00000040: c5a3 0080 5c99 0080 9a7c a33b 1612 853b
00000050: f274 0000 a449 be3b acac 0000 8b47 83bb
00000060: a8e8 d1ba b71d 5439 fa35 85bb c739 8dba
00000070: 9209 513c 8888 c0b9 028c 0000 eb94 093a
00000080: 0755 ac39 1be3 633b 0bde cdb9 a6f5 0339
00000090: a459 ae38 9943 e038 04cb 0080 ea81 0080
000000a0: c04d fe39 678c 95b9 5665 ddbb 5bbb c5ba
000000b0: 5760 0000 a481 0000 1360 0080 66e6 bebb
000000c0: 4ba0 0000 d13d 0080 cb97 0000 6622 0000
000000d0: 0e5f 0080 908c 0080 1f3f 0080 2ca1 0080
000000e0: 44ac 0000 600d 0080 4d79 0080 5ff1 31bb
000000f0: c87e e8b9 9f22 0000 cfb3 0080 1ec8 0000
00000100: 4e5c 0080 aa7f 0080 7021 11ba c208 0000
00000110: afc7 0000 529a cbbc 47f3 933d 9d38 5abb
00000120: 93c2 0080 3cd6 45be ccdf 953c 7fc2 0000
00000130: 1563 0000 2eca bdbd 98ac 0080 433b 0000
00000140: d451 0080 6ead 0000 6aa6 0080 b89f 0080
00000150: f388 0080 71ea 5fbe 5618 e9bd f881 0080
00000160: 8375 64be bc9a 0080 2c9a 213e c788 20bc
00000170: 36ca 92bb e635 2c3e 88e5 483c 533b 163e
00000180: f16c c8bc 62c6 0080 aa8a 1cbc 7daf f83c
00000190: 94a2 5a3f 7b62 14be cb4f 9abe a5cc bb3b
000001a0: e9b9 9cbb 3aa1 0080 ce4f 0080 3689 2fbe
000001b0: 861b 2cbd b752 e63d b56e 2b3e 99a1 0080
000001c0: 47c7 8dba c877 c835 be26 933d d4c8 0000
000001d0: a3af 0080 2652 0000 885d 0000 e76e 0080
000001e0: 049c 0080 92c8 0000 3216 0000 d82c 0080
000001f0: 9d72 0080 714a 0080 d1c1 58be 31c0 d53c
00000200: dd30 0080 4f54 0000 da3a 0080 8eca 0080
00000210: 0e94 0000 3f6a 3f3e 8e51 0080 f5be 0000
00000220: 3211 903a f7d0 50b9 8c78 e338 b150 0000
00000230: 04b2 ce39 448c 15b9 2464 0080 9da2 0080
00000240: 5cf1 4d39 ca9c 0080 8e8d 0080 d339 0080
00000250: 8dad 0080 6f80 0000 e045 0000 1065 0000
00000260: 62bf 1639 0826 6b39 c45d 0080 73e8 c0b8
00000270: e802 0080 3351 38b9 a3b1 9c37 6ee5 7038
00000280: 4c15 de37 b450 d6b9 98dd bf3b 06ad 84b8
00000290: 3aaa 0000 6257 2dba b939 0539 8098 a8b9
000002a0: fe89 a5b9 cffb 5839 4b68 bbb8 e42c 4d37
000002b0: c8a4 0000 6b3e 0000 9902 8eb8 fc08 3438
000002c0: bfbd 5339 5d7f 5c39 de5e 0000 b57b 0080
000002d0: 7dca 0080 c6c4 82b8 1cc4 0000 504e 0080
000002e0: b242 0080 e57a 0080 e0c9 0080 4c95 0080
000002f0: 7d4b 0080 fbc3 0080 306f 0080 096c 0000
00000300: fb35 0080 276a 9938 a802 a638 617d 0000
00000310: a700 0000 3a1d 0080 5f4b 0000 b67a 0080
00000320: 99f9 a6b9 1aa3 0080 07a5 0000 904c 24be
00000330: 4a86 c63e 911c a2bd 5e99 0000 39de 84be
00000340: 91fe 33bd 3290 0000 7224 0080 6aae 6bbe
00000350: 8d12 0000 5f5b 0000 5474 0000 0953 0080
00000360: 9064 0080 d6ad 0080 603a 0080 b671 a1be
00000370: bcbc 3bbe 6811 0000 a61b 8fbe 6e77 0000
00000380: 465f 083f 6bf3 86bd ced9 bbbc 32ad 4b3e
00000390: 306e 86bb e127 1e3e 7101 19bd 7141 0000
000003a0: 9a10 23be 2207 643d 3e27 8c3f 65f0 66be
000003b0: a756 11bf a57d 833c ab44 85bc b220 0000
000003c0: b951 0080 e60f 63be 9235 a4bd d469 a43e
000003d0: 12b1 53bc b068 0080 4b60 25bb 3376 19b8
000003e0: fb54 ac3e e121 0080 9848 0000 0acb 0080
000003f0: 21b5 0000 f78e 0080 348c 0080 0477 0000
2.7309e-41 -2.3721e-41 0.0022956766 0.00015662472 -0.00020158097 4.665e-41 -0.00015432654 0.00061537995
2.3082e-41 2.3678e-41 -0.00013431782 -6.1046e-41 -5.5477e-41 4.6967e-41 2.802e-41 5.579e-42
-5.875e-41 -5.5015e-41 0.004989219 0.004060994 4.1952e-41 0.0058071185 6.1943e-41 -0.0040063313
-0.0016014772 0.00020228965 -0.0040652724 -0.0010774665 0.012758629 -0.00036722817 5.0225e-41 0.0005248326
0.00032869747 0.0034772817 -0.00039266082 0.00012584645 8.3136634e-05 0.000106937434 -7.2828e-41 -4.6604e-41
0.00048504584 -0.00028524103 -0.006756465 -0.0015085744 3.456e-41 4.6506e-41 -3.4465e-41 -0.0058258055
5.7502e-41 -2.2176e-41 5.4453e-41 1.234e-41 -3.4099e-41 -5.0424e-41 -2.2644e-41 -5.7818e-41
6.1797e-41 -4.798e-42 -4.3515e-41 -0.0027151925 -0.00044344948 1.242e-41 -6.4503e-41 7.1789e-41
-3.3113e-41 -4.5797e-41 -0.00055362936 3.142e-42 7.1633e-41 -0.02485386 0.07224136 -0.0033297904
-6.98e-41 -0.19320005 0.018295191 6.9772e-41 3.5544e-41 -0.09267078 -6.1915e-41 2.1259e-41
-2.9354e-41 6.2215e-41 -5.9698e-41 -5.7296e-41 -4.9128e-41 -0.21866776 -0.11381595 -4.6624e-41
-0.22310452 -5.5508e-41 0.15781468 -0.009798235 -0.004479672 0.16817436 0.012261756 0.14671068
-0.02446601 -7.1166e-41 -0.009554544 0.030357117 0.85404325 -0.14490692 -0.30139002 0.0057311826
-0.0047829044 -5.7837e-41 -2.8629e-41 -0.17142186 -0.042018436 0.11246245 0.1674145 -5.797e-41
-0.0010816836 1.4936022e-06 0.07185124 7.2044e-41 -6.3007e-41 2.947e-41 3.3553e-41 -3.9784e-41
-5.5968e-41 7.1951e-41 7.962e-42 -1.6087e-41 -4.1115e-41 -2.6705e-41 -0.21167685 0.02609262
-1.7529e-41 3.0244e-41 -2.1112e-41 -7.2663e-41 5.3112e-41 0.18692873 -2.9256e-41 6.8502e-41
0.0010991453 -0.00019914271 0.00010846657 2.8947e-41 0.00039424014 -0.00014262 -3.5924e-41 -5.8335e-41
0.00019640237 -5.6245e-41 -5.078e-41 -2.0743e-41 -6.2258e-41 4.6073e-41 2.5066e-41 3.6254e-41
0.0001437641 0.00022425514 -3.3637e-41 -9.1985705e-05 -1.043e-42 -0.00017577856 1.8679368e-05 5.7434132e-05
2.647438e-05 -0.0004087739 0.0058552735 -6.3264786e-05 6.1066e-41 -0.00066124473 0.00012705372 -0.00032157078
-0.00031574065 0.00020693171 -8.936281e-05 1.2229404e-05 5.9112e-41 2.2391e-41 -6.7715715e-05 4.292371e-05
0.00020193214 0.00021028281 3.4032e-41 -4.4378e-41 -7.2639e-41 -6.235535e-05 7.0351e-41 -2.8093e-41
-2.3926e-41 -4.4086e-41 -7.2419e-41 -5.3558e-41 -2.708e-41 -7.0305e-41 -3.9887e-41 3.8756e-41
-1.9365e-41 7.315381e-05 7.9159916e-05 4.4977e-41 2.34e-43 -1.0485e-41 2.7038e-41 -4.402e-41
-0.00031847952 -5.851e-41 5.92e-41 -0.16044831 0.3877433 -0.07915605 5.5018e-41 -0.25950792
-0.043943945 5.1728e-41 -1.3074e-41 -0.23015752 6.655e-42 3.2778e-41 4.173e-41 -2.9787e-41
-3.6075e-41 -6.236e-41 -2.0941e-41 -0.31532067 -0.18333715 6.244e-42 -0.27950782 4.2843e-41
0.53270376 -0.06589397 -0.022931006 0.19890288 -0.004102491 0.154449 -0.03735489 2.3476e-41
-0.15924302 0.055670865 1.0949476 -0.2255264 -0.56772846 0.016051123 -0.016268095 1.1729e-41
-2.9317e-41 -0.22174034 -0.0801803 0.3211199 -0.012920635 -3.7555e-41 -0.0025234397 -3.6588124e-05
0.33658585 -1.2153e-41 2.6042e-41 -7.2837e-41 6.4977e-41 -5.1286e-41 -5.0295e-41 4.2695e-41

gats.0.lin_l.bias f4 [335]
00000000: d3da 40bc 7e46 ad3d e773 c7ba ed6b 2e3d
00000010: 9e05 ff3c 447e 65ba e77b 38bb bdbe 02be
00000020: 4874 74bd d086 953d ef31 3fbb 7e5b ebb9
00000030: e4e5 923d bf1f 1bbd 9e66 e2bc 8bbf 353b
00000040: 8889 8cba 6799 873c e664 91ba 5387 7f3a
00000050: bd43 87ba f7c1 ecbc 4eb6 e83c 09a4 24ba
00000060: d088 473d 6c9c d3bc ec44 38bc 6ac4 653c
00000070: 74b0 5d39 63ac 35bb fd1b 26ba 8a90 92bc
00000080: ddc6 a2bb ceb6 beba c480 ccba f188 f8b9
00000090: 760a c4ba 4397 3d3e bfbc 30bb b076 713e
000000a0: f512 85bb c51a 52bc 4b78 903d 3ff1 493c
000000b0: 0454 47ba bf2f 5f3e 8523 35ba 1f43 fdba
000000c0: a0b9 67bd 8fb4 25bb dd9e 13b5 87d6 a6bd
000000d0: 9e5f e5bd ed08 db38 9a27 1dba 62c9 b1ba
000000e0: a7eb 56bd 8088 843d e6a8 4eba bc8e c2b8
000000f0: 1951 10bb 0f61 ddbc 4d27 11bb 3316 7f3c
00000100: 9e09 03bb 041e cebd 915d d1bb 6b8b 49bc
00000110: e261 bdbc 3633 6bbb acda ab3d ec28 a93d
00000120: da25 38ba 43e9 22ba 31bd b93c 49d8 9abd
00000130: 9034 92bd 5e9d caba 4ee7 42ba a6c1 d3bd
00000140: 51a6 f8bd cd88 ccbc f0fd 7f3b 9b61 75ba
00000150: 170c 2ebe 35ca 8339 2d07 513b 63b2 8cba
00000160: d3b2 1d3c 2366 913a cb48 cdb9 733e bb3c
00000170: ab8d db3d c1b2 14bc 7514 47bd 954a d239
00000180: c5b4 f9ba 5728 35ba 49d6 dd3c 274c b2bb
00000190: 1831 cbba a1b6 b6ba bad7 b9b9 b48e abba
000001a0: 3ec8 50bc 013b 1abb bde6 7dbc fa48 d6bb
000001b0: fbde 4cbc 5f37 323b f1d6 2a3d f93d 28ba
000001c0: 9e41 07be 5cd4 2aba 38c2 25bb 7375 6ebd
000001d0: f100 1abb 1294 c5b9 e938 98bd 70b2 f33c
000001e0: d5ad a539 ff2f 32b9 6ca0 bfb9 6038 e4bc
000001f0: 782b 49bb b13c 75ba 0f93 8ab8 e95a 08bb
00000200: e1af c63d 597d 15bb ec06 a5bb 5fc8 46bb
00000210: 76d7 f9bd c5e9 d5bb 1473 ff3d 9c53 1cbe
00000220: ac01 33bb a2b0 e93d 7fb1 8a3c a8ce 39ba
00000230: 3f41 4eba ed35 8dbd f0d4 ca3b a6e8 d0bc
00000240: 5c61 3ebb cade e9b9 a5bc cebd 2218 c1bc
00000250: 3a20 d3bc 633a 313b e92e 2cba 4d52 973c
00000260: 2abb 5739 6b66 073b 9102 93b9 ea33 303c
00000270: 33ea 8f3d f299 37ba 9297 93bd dc54 f0bc
00000280: 5cdb adbc 1973 43bd b80a 2cb8 f70e d1ba
00000290: b9e0 cdb9 6e77 cabb ea75 a7bb cd0d a539
000002a0: 968c 77ba 5b7f 08ba dc5c 3fba 2d65 c2bc
000002b0: b69d 0bbb d2d7 8d3c 2582 a7bc e5e7 51bc
000002c0: 695b 2b3c 7e6b dbbd edcd 16ba b3e4 01be
000002d0: 0858 a9b9 70bf 3cbb d775 a0bd 5f20 10bb
000002e0: 2755 38b9 1fa2 be3d c767 d03c 57a0 7cb8
000002f0: 60aa 8cb9 e73e c6b9 502d 9c3d ba1f 5cbb
00000300: 32b0 25ba c07b 06ba d27a 1ebb fce1 3fbc
00000310: bddf dfba 73c2 f6bb 7cf9 34bb 610c 9a3c
00000320: 34ff b6bb 6553 42bc 537b 783a fbbb 2ebb
00000330: 6eb7 2abd 6ef0 b9b9 9a40 57b9 a594 9eba
00000340: d937 1bbe 2cd6 d43c d3ae 8abd 40e4 deba
00000350: 73ef 88b9 dc68 0c3d d9ac 7bbc c3e5 193e
00000360: ba6e 4c3b a47c 05ba 2088 92bd a597 4f3a
00000370: e4ba c63b 45c4 013a 354c 9e3c 531a 8dbd
00000380: c218 aaba 20ad 723d eb6d 0f3e a513 4ebd
00000390: 4ebe bf3c c3ff c838 18e9 04bb e30e f8b9
000003a0: 9c9d 5d3b 18a7 333c a2c6 25bb 2dc6 64ba
000003b0: dae1 27ba 9862 d0ba 9013 17bc c7b3 2bbb
000003c0: eaeb a0bd 733a c1bb ce1a 303d f275 9abb
000003d0: 1e40 cfbd a8ee f1b9 08ae 5cbc dae2 30ba
000003e0: c2fa 0cbb 3292 49bd a5e2 08bb 581d deb9
000003f0: dd25 073e e6c7 a63c 90e0 c3b9 f767 21b8
-0.011770922 0.08460711 -0.0015217037 0.042583395 0.031130608 -0.0008754472 -0.0028150023 -0.12768073
-0.059681207 0.07301104 -0.002917405 -0.0004489086 0.071727544 -0.037872072 -0.027636822 0.0027732577
-0.001072214 0.01655264 -0.0011092692 0.0009747643 -0.001031987 -0.028901083 0.028407242 -0.00062805467
0.04871446 -0.025831424 -0.011246901 0.01402388 0.00021141936 -0.0027721159 -0.0006336568 -0.017891187
-0.004967554 -0.001455033 -0.001560234 -0.00047404275 -0.0014956731 0.18514733 -0.002696797 0.23580432
-0.0040610977 -0.012823765 0.07054194 0.012325584 -0.0007603767 0.21795557 -0.0006909895 -0.0019322372
-0.05657351 -0.0025284623 -5.4992944e-07 -0.081463866 -0.11199878 0.00010444396 -0.0005994976 -0.0013564045
-0.05247083 0.06471348 -0.0007883444 -9.277227e-05 -0.0022020994 -0.02702382 -0.002214867 0.015569258
-0.0019994746 -0.10064319 -0.006389328 -0.012301306 -0.023117963 -0.0035888678 0.08391318 0.08259758
-0.00070246833 -0.0006214568 0.022673221 -0.07560784 -0.07138932 -0.0015458276 -0.000743498 -0.1033967
-0.12141097 -0.024967575 0.003906127 -0.00093605526 -0.169968 0.00025136923 0.0031895146 -0.0010734316
0.009625155 0.0011093061 -0.00039154882 0.022856927 0.107203804 -0.009075821 -0.048603494 0.0004010989
-0.0019051066 -0.0006910613 0.027079718 -0.005441207 -0.0015502302 -0.0013939926 -0.00035446679 -0.0013088793
-0.012743054 -0.0023533704 -0.015496907 -0.006539461 -0.012504335 0.0027193648 0.04170889 -0.0006417926
-0.13208625 -0.00065166294 -0.0025292765 -0.058217477 -0.0023499096 -0.0003768509 -0.0743273 0.029748172
0.00031600767 -0.00016993283 -0.00036549882 -0.027858913 -0.0030696075 -0.0009355052 -6.6077446e-05 -0.002080614
0.09701515 -0.0022810309 -0.0050362255 -0.0030331833 -0.12199299 -0.0065281116 0.12473121 -0.1526627
-0.002731423 0.11410643 0.01693034 -0.0007087984 -0.0007867999 -0.06895051 0.006189935 -0.02550156
-0.002904973 -0.00044607214 -0.10094575 -0.023571078 -0.025772203 0.0027042858 -0.00065682695 0.018471861
0.00020573722 0.002066041 -0.00028039937 0.010754565 0.07027092 -0.00070038356 -0.07206644 -0.02933734
-0.021222763 -0.047717188 -4.101798e-05 -0.0015949894 -0.00039268078 -0.006178788 -0.005110492 0.00031481535
-0.0009443251 -0.0005206966 -0.0007299909 -0.023729885 -0.002130372 0.017314825 -0.0204478 -0.012811636
0.010458806 -0.10713862 -0.0005752731 -0.12684898 -0.0003229978 -0.002880063 -0.07834976 -0.002199195
-0.00017579329 0.09308266 0.02544011 -6.023081e-05 -0.0002682982 -0.0003781237 0.0762583 -0.0033588246
-0.00063205056 -0.00051301345 -0.0024182093 -0.011711594 -0.0017080229 -0.0075305044 -0.0027614525 0.01880473
-0.005584622 -0.011860703 0.0009478826 -0.0026662338 -0.04167884 -0.00035465084 -0.00020528064 -0.0012098743
-0.15158023 0.025981031 -0.06771626 -0.001700528 -0.00026118345 0.03427969 -0.015361034 0.15029053
0.0031193928 -0.000509212 -0.0715487 0.000791902 0.0060647596 0.0004950206 0.019323448 -0.068897866
-0.0012977349 0.059247136 0.14006774 -0.050311703 0.023406174 9.5843825e-05 -0.0020280536 -0.00047313338
0.0033815866 0.010965131 -0.0025295396 -0.000872704 -0.0006404199 -0.0015898524 -0.009220973 -0.0026199685
-0.07857497 -0.0058968603 0.042994313 -0.004713767 -0.10119651 -0.00046144915 -0.013469227 -0.00067476707
-0.0021511768 -0.04921169 -0.0020887044 -0.00042365002 0.13198037 0.02035899 -0.0003736061 -3.8482216e-05

gats.0.lin_r.weight f4 [335, 67]
00000000: 58ba 0080 ab45 0000 95bf d4b9 a5cf dab6
00000010: e346 8fb7 b0ab 0000 ed1f 20b8 2a68 0000
00000020: fd57 0000 2f48 0000 74c7 0080 1d83 0000
00000030: f74c 0000 a137 0000 3380 0000 f2a0 0080
00000040: 7131 0080 b781 0000 00a8 bbb8 614b ceb8
00000050: 20a3 0080 4157 c8b5 2a88 0080 1abd 4fb6
00000060: 4d34 21b8 70e5 3238 2af6 4738 8aa7 1039
00000070: 152f 3439 9365 af37 6b89 0000 be01 d1b8
00000080: cd93 c3b8 8298 17b9 9fb9 f134 37d8 34b8
00000090: d40b 76b7 f679 f0b5 c49c 0000 63b0 0080
000000a0: e01f a537 61df 5839 7fbd 9137 0b62 b238
000000b0: 1384 0000 3146 0080 b331 0080 9251 3138
000000c0: 2f8c 0000 433a 0080 b381 0080 6b83 0080
000000d0: 8ebb 0080 3bad 0080 3d8e 0080 2b7f 0000
000000e0: 66c7 0000 b588 0080 263a 0080 18e3 b2b7
000000f0: 2ba9 80b9 c112 0080 7f8b 0080 10c8 0080
00000100: 96c4 0000 3b03 0000 19dc 3f38 861f 0000
00000110: 6770 0000 bf52 fd3a 452f ffb7 87fe 2536
00000120: ebc6 0080 20d8 8e38 933d a0bb 2c30 0080
00000130: 0e60 0080 b45f 0000 185e 0080 77c1 0080
00000140: 4192 0080 6da2 0000 ed6b 0000 02ba 0000
00000150: 7e07 0080 5d9c f53a cb45 6e3b ec6e 0000
00000160: 7615 143c 2d97 0080 afc9 30b9 4c73 79bb
00000170: 66f3 5e39 0ec3 a83b 0ff5 a23b 25fd 03b9
00000180: 4dfd 0538 6d40 0080 3584 29ba e082 9c37
00000190: 714c 003a 817b f2b9 0dc5 ddbc 01b9 1e39
000001a0: 738b 05b8 999b 0000 7632 0000 a48f 8f37
000001b0: 04b7 963b 9a5a 9338 744d 1038 2400 0000
000001c0: 93be 0080 568c 0000 1c7d 0ab8 a9bc 0080
000001d0: 7892 0000 1573 0000 e599 0000 7a9d 0000
000001e0: d8b4 0080 aad0 0000 cd92 0000 8c79 0080
000001f0: 21bd 0000 3007 0000 4fae 35ba 104c 9338
00000200: f221 0000 47a5 0000 6c7f 0000 49af 0080
00000210: 5740 0000 d5f4 c73a 92c0 0000 0f21 0080
00000220: 6855 ceb8 91e5 90b5 9315 f234 3663 0000
00000230: 1576 28b9 55c6 0080 2c73 0000 0831 0080
00000240: b3c6 0000 7184 0080 7a51 0080 d54f 0080
00000250: 93c3 0000 c19c 0080 3d4f 0000 b0ca 0080
00000260: 3fb1 5b39 f82d 7239 3f45 0080 642c 8799
00000270: 44c9 0000 5763 adb8 e5ed 8e36 47c9 16b8
00000280: 0e5b 9db8 6778 64b9 c283 8139 77cd ebb6
00000290: 860c 0080 86ce 91b8 0f1a 01b9 9691 08b9
000002a0: dbbe 2321 a63b 3bb8 9f24 1b8d 989e 5d0d
000002b0: ad78 0000 ef7c 0000 59f0 8eb8 5b60 23b9
000002c0: 790b 6eb7 0c18 4837 001d 0000 f062 0000
000002d0: 578b 0080 6028 4a38 1032 0000 0a51 0080
000002e0: 8161 0000 c91b 0080 562b 0000 d652 0080
000002f0: 3064 0000 f757 0080 ba6d 0080 3d50 0080
00000300: 7e3c 0000 0b89 0db7 2eb3 6838 244f 0080
00000310: dbba 0080 dd75 0000 bec2 0080 6649 0080
00000320: 4574 5638 e262 0000 889d 0080 0834 a83a
00000330: 33e0 8c36 e105 8637 fac8 0080 65ed 88ba
00000340: cbd9 0c3c 2b1e 0000 8049 0080 6175 0080
00000350: 4e02 0000 78a0 0080 5228 0000 4e3f 0080
00000360: 8a9f 0000 04cb 0080 167d 0080 fc94 e53b
00000370: ef6a f63b ca84 0080 2402 ca3b 3501 0000
00000380: 2aea 35b9 7ab7 d0ba bd09 2939 40c3 c13b
00000390: 2fe7 b13c 6db8 6cba 4f29 25b8 9e4b 0000
000003a0: e797 0a3a 1abc 61b8 d96f 1d3a 1ae4 1dba
000003b0: 4395 c03c a77f 4d39 2a21 4fb8 c377 0000
000003c0: 7879 0000 88d6 4a39 9b48 d43c e281 e039
000003d0: b9f3 68b8 a1a3 0080 e5b6 0080 c7a6 0080
000003e0: d333 f138 6a7c 0000 fdbd 0000 8d9d 0000
000003f0: 754f 0000 864c 0080 433e 0000 8d4e 0080
-6.6848e-41 2.4992e-41 -0.0004057853 -6.5210793e-06 -1.7079938e-05 6.159e-41 -3.8176706e-05 3.7367e-41
3.1564e-41 2.5895e-41 -7.155e-41 4.7035e-41 2.761e-41 1.9956e-41 4.5989e-41 -5.7736e-41
-1.7736e-41 4.6533e-41 -8.948147e-05 -9.836886e-05 -5.8518e-41 -1.4926555e-06 -4.8846e-41 -3.0955475e-06
-3.84341e-05 4.2652187e-05 4.7674555e-05 0.00013795323 0.00017183677 2.0908925e-05 4.9296e-41 -9.966221e-05
-9.3258546e-05 -0.00014457296 4.5024805e-07 -4.311671e-05 -1.4665497e-05 -1.7916889e-06 5.6237e-41 -6.3276e-41
1.9684376e-05 0.0002068258 1.7373588e-05 8.505963e-05 4.738e-41 -2.518e-41 -1.7829e-41 4.2276057e-05
5.0288e-41 -2.09e-41 -4.6527e-41 -4.7144e-41 -6.7282e-41 -6.2143e-41 -5.1025e-41 4.5619e-41
7.153e-41 -4.9041e-41 -2.086e-41 -2.1325002e-05 -0.00024540102 -6.728e-42 -5.0042e-41 -7.1769e-41
7.0522e-41 1.159e-42 4.574293e-05 1.1308e-41 4.0322e-41 0.0019327028 -3.042038e-05 2.473507e-06
-7.1358e-41 6.811344e-05 -0.0048901527 -1.7281e-41 -3.4458e-41 3.4332e-41 -3.3754e-41 -6.9402e-41
-5.2466e-41 5.8267e-41 3.8716e-41 6.6727e-41 -2.688e-42 0.0018738616 0.0036357518 3.9791e-41
0.00903832 -5.4232e-41 -0.00016859801 -0.0038063107 0.00021262243 0.0051502055 0.004973061 -0.00012587437
3.1945576e-05 -2.3112e-41 -0.0006466539 1.8657593e-05 0.0004894203 -0.00046249854 -0.0270715 0.00015136974
-3.1839543e-05 5.5818e-41 1.8102e-41 1.7113816e-05 0.004599454 7.026382e-05 3.440441e-05 5e-44
-6.8365e-41 5.0343e-41 -3.301828e-05 -6.7679e-41 5.2543e-41 4.1284e-41 5.5207e-41 5.6492e-41
-6.4875e-41 7.4855e-41 5.2662e-41 -4.3603e-41 6.7847e-41 2.578e-42 -0.0006930576 7.023674e-05
1.2177e-41 5.929e-41 4.571e-41 -6.288e-41 2.3081e-41 0.0015255461 6.9081e-41 -1.1859e-41
-9.8387536e-05 -1.0795649e-06 4.509171e-07 3.559e-41 -0.00016065718 -7.1148e-41 4.1316e-41 -1.7589e-41
7.128e-41 -4.7511e-41 -2.9228e-41 -2.8638e-41 7.0159e-41 -5.6233e-41 2.8425e-41 -7.271e-41
0.00020951497 0.00023096043 -2.4841e-41 -1.3976602e-23 7.22e-41 -8.267786e-05 4.2596243e-06 -3.595024e-05
-7.503304e-05 -0.00021788628 0.00024702965 -7.027465e-06 -4.493e-42 -6.952607e-05 -0.00012312106 -0.00013024206
5.5479143e-19 -4.4639826e-05 -4.7807144e-31 6.8291783e-31 4.329e-41 4.4818e-41 -6.815856e-05 -0.00015580787
-1.4188577e-05 1.1926528e-05 1.0403e-41 3.5492e-41 -4.9986e-41 4.8198155e-05 1.7959e-41 -2.9071e-41
3.4978e-41 -9.967e-42 1.5546e-41 -2.9716e-41 3.594e-41 -3.1556e-41 -3.9362e-41 -2.8784e-41
2.17e-41 -8.436163e-06 5.5479984e-05 -2.839e-41 -6.7031e-41 4.2281e-41 -6.986e-41 -2.633e-41
5.112986e-05 3.5472e-41 -5.6512e-41 0.0012832889 4.1984254e-06 1.5976782e-05 -7.2097e-41 -0.0010446726
0.008596848 1.0822e-41 -2.6367e-41 -4.2108e-41 8.27e-43 -5.7565e-41 1.4464e-41 -2.271e-41
5.7232e-41 -7.2828e-41 -4.4872e-41 0.0070062857 0.0075200717 -4.7636e-41 0.006164806 4.33e-43
-0.00017348738 -0.0015923821 0.00016120724 0.005913168 0.021716682 -0.0009030167 -3.9377537e-05 2.7126e-41
0.00052869174 -5.3819364e-05 0.00060057413 -0.00060230645 0.023508674 0.00019597878 -4.9383532e-05 4.2962e-41
4.3575e-41 0.0001934414 0.025913527 0.0004282138 -5.5540095e-05 -5.8699e-41 -6.561e-41 -5.9828e-41
0.000115014285 4.4631e-41 6.8155e-41 5.6519e-41 2.8504e-41 -2.7451e-41 2.2335e-41 -2.8179e-41

gats.0.lin_r.bias f4 [335]
00000000: 07c2 09ba faa9 043e ab6d 0cb9 8805 6e3e
00000010: ea04 42bb f469 1ab9 0b2b 4a38 6a19 acba
00000020: d8e7 2d3e 2c60 823e ff27 33b7 3fe6 9ab7
00000030: 97ad ec3d 0ebc 0a3e 6a09 373a a3e5 a2ba
00000040: b471 04b9 4cad 293e 6f1b 1435 afea 21ba
00000050: dbf6 f439 2d39 0d3d 08c2 833e 64e0 30b9
00000060: 890f 6b3c 082f cc39 90e7 573a d488 9c3d
00000070: 071f 01b8 5098 883a ac5e edb8 f784 353d
00000080: 74be 7d38 e464 fdb8 9e0b c938 0196 5c37
00000090: db7a 1bba 4b3d 493e e6bf 7a37 2996 213e
000000a0: a7fd b438 3802 2db8 6252 863d 6d23 953d
000000b0: 92b9 12b9 fb25 253e c0c8 c537 4b96 8eb9
000000c0: 38a5 9a3c 7353 4a36 7b13 203a 9788 9fba
000000d0: 3c30 04bc bc47 1cba bd94 c8b8 c744 4fb8
000000e0: 232c 1fb8 5881 c63d 8220 6bb8 1ac5 a3b9
000000f0: 59b6 0438 7371 d83c 8628 61b8 f915 ab3d
00000100: 737c 5f39 56e3 0fbc 2a43 3939 bd80 b639
00000110: c747 f8bb 671f e338 ca02 523e 24af 05bd
00000120: 539a 0d39 7910 9839 d6ad 543e 62a2 55bb
00000130: d1dd 603d c50c 65b9 1396 66b8 7c0c cfb6
00000140: b8c1 8fbb 3c63 d7b8 cfba 71bb b59e 6735
00000150: 44db 27bb 01ae 103a cd4f 1bba f819 1eb9
00000160: aded a73d aa72 843d a9de deb8 7b2a 8a3e
00000170: 5ffb 253e 1136 dd38 f9d3 4bbc cc19 d1b9
00000180: 8de2 52ba 38d6 4ab9 2196 9a3c 8c53 1fb9
00000190: 0498 7e38 31e7 66b8 f3b3 3bb8 2005 143b
000001a0: aaa2 08ba 6292 bf37 721d 1bb9 ffdb 83b9
000001b0: b6af 3bb9 32a9 2abb 15f0 fa3d c190 ae37
000001c0: 479c 753c 9477 0cb9 ab7a b33a 80a8 3b39
000001d0: 8ebc a2b6 e14c d139 75fa 8bba 9716 a43c
000001e0: e2ed e0b9 abc5 2539 3d50 c0b7 6276 6b3b
000001f0: e1c7 a939 2f46 42b9 c001 74b9 1d4c 08b9
00000200: 24e7 263a eef2 b7b8 b033 a9b8 eda6 30b9
00000210: b1df 79bc 207d 033a 54f5 e13e 3f4d 993b
00000220: 31e8 883a 37a4 d73e 5785 0f3d f795 fab7
00000230: 7f32 83b9 4acc 5fbb 05a9 a7bc 7bde b4bc
00000240: 709d 29b9 5771 ec39 2c57 493c 98b9 053c
00000250: 2de8 833a 4cdb 8dba 5b22 8139 24e0 9ebc
00000260: 28fd fbb9 b7d9 e0ba f177 26ba 7a17 1f3d
00000270: db0c a63e 7aa0 7539 7e55 e43c acb4 9537
00000280: 640b 4a3d e8d6 1dbd b124 ab38 dc86 07b8
00000290: 0e18 c9b9 dab0 a5ba bf9f 03b8 6678 0f3b
000002a0: 99a2 37b7 25cd 2638 76b6 003b ce24 d33d
000002b0: f850 a038 57c8 50bc 6683 6c3d 3430 9038
000002c0: 16c4 94ba c462 7f3c de6e 21b9 920a f93a
000002d0: a83d 193a 1368 0dbb bac3 0b3c 018e bfb6
000002e0: a5df a739 119a 9a3a 22a5 d13d e974 243a
000002f0: 98e6 e1b9 5547 c1b8 8b07 2b3b 9d13 0238
00000300: b2ed 0eba 0948 80b9 d29f db37 5ae2 d6bb
00000310: a9df 89b7 6c59 08b8 7510 48b8 ce13 383d
00000320: f7a5 ce39 264b 8a39 c7df d33c d526 ca38
00000330: 05a3 a83c c246 ec3d d6e6 5d3a 910d 1cb9
00000340: 2c9a 483a 5710 e33b 2fde 3bbb d26c b6b9
00000350: d531 e839 237d db3d c237 893e 4df3 953e
00000360: 52ae 2ebb dae9 a6b9 c306 3d3b f3cc bcb9
00000370: 73d5 1bba f989 1fba 9ba6 2f3e 21d3 803d
00000380: 3934 cb39 c715 21bb 87ff 7d3e b108 233c
00000390: a347 e13d 9ed4 6eb9 e8cf 2e39 e2cb 4c39
000003a0: 2d2d fc37 4ba4 233d 136c fbb8 b10d abb6
000003b0: 13b9 53b9 13f4 d0b9 d713 8aba d7b8 9db8
000003c0: ee8d a03a 6914 75b8 8823 c93d 5487 873a
000003d0: 9241 ddba 66d2 6039 066c 3f3d 94ea 90b8
000003e0: f962 fcb9 7ed4 ce3c 15a7 1539 b2ed 163a
000003f0: e8e7 0c3e 7047 213e b099 6c3a 9578 de38
-0.00052550476 0.12955466 -0.00013392295 0.23244298 -0.002960498 -0.00014726055 4.820064e-05 -0.0013130133
0.16982973 0.25463998 -1.0678544e-05 -1.8465447e-05 0.11556547 0.135483 0.0006982299 -0.0012428056
-0.00012630859 0.16570014 5.517422e-07 -0.0006176633 0.00046723228 0.034478355 0.25733972 -0.0001686826
0.014346966 0.00038944953 0.00082361046 0.076432854 -3.0784893e-05 0.0010421369 -0.00011318675 0.04431626
6.0497274e-05 -0.000120827724 9.586591e-05 1.3147947e-05 -0.00059310877 0.19652288 1.4945841e-05 0.15779938
8.630315e-05 -4.124848e-05 0.06558682 0.072821476 -0.00013992775 0.1612777 2.3577712e-05 -0.00027196328
0.01887761 3.014892e-06 0.00061064184 -0.0012171444 -0.008068141 -0.0005961617 -9.564448e-05 -4.94167e-05
-3.794966e-05 0.09692639 -5.605864e-05 -0.00031236635 3.1641077e-05 0.026421284 -5.368192e-05 0.083538
0.00021313298 -0.008782228 0.00017667995 0.00034809663 -0.007576916 0.000108300526 0.20508876 -0.03263773
0.00013504298 0.00029003972 0.20769438 -0.0032598008 0.05489904 -0.00021843899 -5.497604e-05 -6.170534e-06
-0.0043871067 -0.00010270483 -0.0036885028 8.6285155e-07 -0.002561287 0.00055190927 -0.0005924672 -0.00015077728
0.0819963 0.06467183 -0.000106272586 0.26985535 0.16209172 0.00010548172 -0.012440675 -0.00039882807
-0.0008044623 -0.00019344024 0.018870415 -0.00015194545 6.0699895e-05 -5.5051587e-05 -4.4751865e-05 0.0022586063
-0.0005212227 2.283714e-05 -0.00014792921 -0.00025150177 -0.00017899167 -0.002604079 0.12252823 2.0809823e-05
0.014990873 -0.00013395987 0.0013693174 0.00017896481 -4.849927e-06 0.00039920866 -0.00106795 0.020030303
-0.00042901846 0.00015809263 -2.2925547e-05 0.0035928716 0.00032383113 -0.00018527427 -0.00023270305 -0.00012998325
0.000636684 -8.771369e-05 -8.0681755e-05 -0.00016846853 -0.015251086 0.00050158985 0.44132483 0.004678398
0.0010445175 0.42117473 0.035039272 -2.9872155e-05 -0.0002502389 -0.0034148865 -0.020466337 -0.022078743
-0.00016175746 0.00045097872 0.01228885 0.008161925 0.0010063701 -0.0010822802 0.00024630394 -0.019393988
-0.00048063067 -0.0017154728 -0.000635027 0.03884075 0.32431683 0.00023424803 0.027872797 1.7846316e-05
0.04932727 -0.03853503 8.16075e-05 -3.2312106e-05 -0.0003835563 -0.0012641207 -3.138161e-05 0.0021891831
-1.0945508e-05 3.976854e-05 0.0019640005 0.10309754 7.644476e-05 -0.012743077 0.0577425 6.8754336e-05
-0.0011349942 0.015587512 -0.00015395458 0.0019000343 0.00058456743 -0.0021576926 0.008530552 -5.708775e-06
0.0003201935 0.0011795183 0.10236575 0.00062735245 -0.0004308715 -9.216244e-05 0.0026097025 3.101268e-05
-0.00054522895 -0.00024467733 2.6181257e-05 -0.006557745 -1.6435823e-05 -3.2508207e-05 -4.7699043e-05 0.044940762
0.00039415035 0.000263774 0.025863541 9.6393436e-05 0.020585546 0.115369335 0.0008464878 -0.00014882373
0.0007652368 0.006929438 -0.0028666367 -0.00034794823 0.00044287616 0.10717227 0.26800352 0.29287186
-0.0026654196 -0.0003183622 0.0028843142 -0.00036010853 -0.0005944587 -0.0006085928 0.17153399 0.0629027
0.00038758086 -0.002457963 0.24804507 0.009950803 0.10999992 -0.00022776655 0.00016671384 0.00019530908
3.0061778e-05 0.039951604 -0.00011988743 -5.097791e-06 -0.00020191474 -0.000398547 -0.0010534477 -7.5207725e-05
0.001224933 -5.843156e-05 0.0982123 0.0010340014 -0.0016880503 0.00021440684 0.04673388 -6.910149e-05
-0.00048138926 0.025247809 0.0001427199 0.0005757465 0.1376034 0.15749907 0.0009025587 0.00010608245

gats.0.lin_edge.weight f4 [335, 1]
00000000: b14c b6ba 23ed 6b3d 4920 60b9 ff60 8a3d
00000010: ee02 a7bb 930a 1838 9d7e 43b9 bb75 e4bb
00000020: 6e70 ab3d 2922 2b3d aab3 bdb9 621e f5b8
00000030: cc2b aa3d 5068 fd3d 5ed8 7a3a 285d 0abb
00000040: dfce c6b7 3fd2 a03d 05d6 aeb9 df8b 4aba
00000050: aa74 093a f4cd 8e3b a3a9 a73e bbc1 dd39
00000060: c80d ac3d c5bd 753a 1efd 523a 5b8d dc3d
00000070: a4b5 13ba 6035 9b3a 6b91 c5b9 18dd ee3c
00000080: 8dd5 0939 8adf 0eb7 ed73 f438 0ed0 38b8
00000090: 3318 d536 dd46 263d b7df e4b8 0095 243d
000000a0: 148d 9a39 0efd ac37 afe5 e23c 8125 be3d
000000b0: a243 88b8 e26d 033d 7ac8 4f38 6abd 88b8
000000c0: 712b d23b 35d4 8639 55cb 79b9 7154 c0b9
000000d0: 18ff 3abc a3fd 58ba 20b8 3439 d015 4739
000000e0: f144 e23b b2f5 0f3d 3307 1239 48d3 e4b9
000000f0: 6330 1f39 04ca fe3c 304b 8f39 900d 573e
00000100: 8eee e139 16b9 2fbc 3ae5 253a 75c4 003a
00000110: 212b 02bc 4149 9c39 d719 803c 9ab4 82bd
00000120: 5f2e eb38 6633 1438 844f bd3e 29a9 b4bb
00000130: 0818 c23d 361f adb8 8615 a2b8 4d6b bf3a
00000140: c9af 77bb 1054 adb7 2fbb b2bb 111c 2ab8
00000150: 27be 813a 8e0e 203a e9ff e2b9 aaf6 3639
00000160: 5321 8c3e f389 0f3e ac0a e4b7 6e36 e33e
00000170: 311b ca3e 1e12 c039 96a2 11bd ef4e bbb9
00000180: e274 cfba 86b5 89b9 086f d33d 3937 85b9
00000190: 4e87 0039 d6c2 9ab8 1996 8fb9 357c a33b
000001a0: fd8c 89b8 062e 8db7 d0b5 00b9 0df7 d6b9
000001b0: e89b 8fb9 cca9 d4ba 6d67 943e a393 a837
000001c0: 9dfd 273c d0cd 2db9 9a1c 723a 8649 52b8
000001d0: dfb1 e038 c1f8 98b8 5e84 88ba a795 093e
000001e0: d8c6 3dba ad1e 6939 89c1 7eb8 6383 1c3b
000001f0: 1cb0 47b9 7f31 d5b9 c103 a3b9 76ca 3cb9
00000200: 91d3 9b3a 74bb 8db8 956d 6ab9 8a6d 4bb9
00000210: 5746 e0bc 7c85 9439 14b6 c8be 29ac 24bc
00000220: 4867 84b8 9fc1 debe d5cd 313d 27d7 92b8
00000230: 58b5 73b9 f9c8 07bd ae63 7dbc 937b 8dbd
00000240: 28a1 74b9 0ea1 8439 c935 9f3b 29db 9aba
00000250: 4e77 ce39 b84d 06bb 8727 13b9 72b4 42bd
00000260: 01cd 9cb9 d1bd b53e facb 8639 d01a 90bb
00000270: bb9b 77be f4ae ed38 32cf 953d 2792 1639
00000280: b9a3 573f 8c1b d4bd 49d2 a439 bf38 393a
00000290: 6a2f 3ab9 2fff 56bb 39f9 5bb7 27d2 513b
000002a0: b80c 40b8 2d0b b035 42cf e03a 4cf7 563f
000002b0: b550 2a38 2490 523f e81a 513f d4a2 d3b8
000002c0: 16ae 93ba 4569 fc3b af7f df38 a1fc cdba
000002d0: c9d3 a039 f8be b6ba 11e8 8f3b b7ce aebb
000002e0: ce5d 4fb9 22ae d4bc 2b79 cd3e 8b16 7039
000002f0: 2cd7 8038 33fb 56b8 101d 293f 5605 4939
00000300: d28a dd38 46fc dbb8 74e4 85b9 d8eb 7abc
00000310: 99c1 48b9 b62c 4839 b8a6 65b9 ba67 88be
00000320: a90c c536 fe36 8639 db68 96bc 527a 3339
00000330: 6a07 143b 53cd e73d da38 913a ff0a 65b8
00000340: e5e0 1b3b 48c9 153c 9214 0cbc 40e6 bdb9
00000350: 55a8 253a 4269 9e3d 96b4 023d aa19 b53e
00000360: 0996 88bb c698 b5b8 e64c 1f3a c8d2 b13a
00000370: 3a60 c1b9 5854 1c39 9354 243e 016f 9b3d
00000380: e500 fa39 4d71 14bb 12a6 9e3e 3a5f 7e3d
00000390: 54d2 833e 3349 37ba b250 dfb9 9e7f 2939
000003a0: 7f57 9039 87f4 8c3d 85d7 d237 b9c7 b9b8
000003b0: b418 ae38 84ca 293b 1c4b 7db9 afa4 2f39
000003c0: 0785 beba de92 12b6 adf6 2a3e 12b3 8c3a
000003d0: b6c6 133b 17fd 23ba 7124 b23d aa98 bab8
000003e0: f5c8 89b9 6164 dc3c 78a9 d8b9 c4d9 233a
000003f0: 245b 5f3e 3ca2 e83d b214 1039 28f6 1239
-0.0013908354 0.057599198 -0.00021374332 0.06756782 -0.005096785 3.6249472e-05 -0.00018643816 -0.0069720424
0.08371054 0.041780625 -0.0003618275 -0.000116881696 0.08309135 0.12373412 0.00095689844 -0.0021112654
-2.3699771e-05 0.07852601 -0.00033347323 -0.0007726531 0.00052435196 0.0043580476 0.3274661 0.00042296745
0.08401066 0.0009374286 0.00080485817 0.10769149 -0.00056346715 0.0011841469 -0.00037683113 0.02915816
0.00013144892 -8.515906e-06 0.000116564195 -4.4062785e-05 6.350712e-06 0.040594924 -0.00010913557 0.04018116
0.0002947828 2.0621836e-05 0.027697412 0.09284497 -6.497583e-05 0.032087214 4.9539354e-05 -6.5202665e-05
0.00641387 0.00025716578 -0.00023822238 -0.00036684008 -0.011413358 -0.0008277541 0.0001723473 0.00018986245
0.006905191 0.035146423 0.00013926327 -0.00043644966 0.00015181447 0.031102188 0.00027331105 0.21001267
0.0004309308 -0.01072528 0.0006328408 0.0004912087 -0.007944853 0.00029809217 0.015637321 -0.06382103
0.000112143105 3.533382e-05 0.36974728 -0.0055133295 0.0947724 -8.255096e-05 -7.728771e-05 0.0014604122
-0.0037793985 -2.0662352e-05 -0.005454443 -4.0557297e-05 0.0009898589 0.00061056844 -0.00043296747 0.00017448762
0.27369174 0.14017467 -2.7184687e-05 0.44377464 0.3947387 0.00036634592 -0.035555445 -0.0003572623
-0.001582768 -0.00026265922 0.10323912 -0.0002540888 0.00012257436 -7.379583e-05 -0.00027386917 0.004989172
-6.55893e-05 -1.6829941e-05 -0.00012274762 -0.00041001328 -0.00027391245 -0.001622492 0.28985158 2.009591e-05
0.010253337 -0.00016575237 0.00092358293 -5.0136376e-05 0.000107142834 -7.294259e-05 -0.0010415425 0.13435994
-0.0007239408 0.00022232039 -6.0738563e-05 0.0023882024 -0.00019043725 -0.00040663403 -0.0003109258 -0.000180045
0.0011888613 -6.75832e-05 -0.00022356801 -0.00019400395 -0.02737729 0.00028328213 -0.39201415 -0.010050812
-6.313488e-05 -0.43507096 0.043409187 -7.001898e-05 -0.00023241842 -0.033150647 -0.01546566 -0.069083355
-0.00023329689 0.00025296997 0.0048587066 -0.0011814582 0.0003938027 -0.0020493101 -0.00014033738 -0.047535367
-0.00029907378 0.3549638 0.00025710446 -0.0043977275 -0.241805 0.00011333628 0.0731491 0.00014359561
0.84234196 -0.10356817 0.00031437192 0.0007065646 -0.00017756005 -0.003280591 -1.3111444e-05 0.003201613
-4.5788212e-05 1.3116274e-06 0.0017151611 0.83971095 4.0606323e-05 0.8225119 0.8168168 -0.00010091593
-0.0011267092 0.007702979 0.000106572516 -0.0015715548 0.0003067537 -0.0013942411 0.004391678 -0.005334701
-0.00019776003 -0.02596194 0.40131506 0.00022896582 6.1435945e-05 -5.1255523e-05 0.6605997 0.00019170842
0.000105639585 -0.00010489723 -0.00025537948 -0.015315019 -0.00019145607 0.00019090142 -0.0002190125 -0.26641637
5.8725313e-06 0.00025599444 -0.018360546 0.00017116338 0.0022587427 0.11318459 0.0011079565 -5.4608096e-05
0.002378517 0.0091422275 -0.008549826 -0.0003622044 0.0006319334 0.0773492 0.0319105 0.35371143
-0.004168276 -8.659209e-05 0.00060768274 0.0013566846 -0.00036883523 0.0001490874 0.16047888 0.07589532
0.00047684382 -0.002265054 0.30986077 0.062102534 0.25746405 -0.00069918035 -0.00042593997 0.00016164637
0.0002753101 0.068825774 2.513431e-05 -8.858689e-05 8.301568e-05 0.0025908062 -0.0002415594 0.0001675065
-0.0014535495 -2.1841183e-06 0.16695662 0.001073452 0.002254886 -0.000625567 0.08698357 -8.897607e-05
-0.000262804 0.026903333 -0.00041324995 0.0006250406 0.21812111 0.11359069 0.0001374062 0.00014015345

gats.1.att f4 [1, 5, 67]
00000000: 1220 8fb4 def3 ab34 025b 8534 fea1 9937
00000010: d582 f4b4 b76c f2b5 5e4e 3db4 7c33 2237
00000020: c318 dab5 9e49 0a35 af9b fe34 6b82 70b4
00000030: 80a1 e435 d883 b1b4 16cc 5f33 48cb e435
00000040: ec10 a6b3 f7f8 e7b5 5c95 15b7 1372 0635
00000050: 1923 cc33 5e0c 3336 ca7b eeb6 a228 02b7
00000060: c225 1837 3c8e aa37 5296 98b6 6689 11b4
00000070: d5cc 48b6 0a64 ad34 b693 ea36 15ce 5eb5
00000080: 4f2a f334 718e a6b4 b5b5 73b8 36c4 39b6
00000090: 7f76 c4b4 646a adb5 634a e6b4 5a60 1eb3
000000a0: b85a 02b4 c2b3 1737 0bee 8e35 34ff 64b5
000000b0: fe51 ce32 4f4e 24b3 9345 2bb5 dd35 2135
000000c0: c676 c0b4 0596 0637 eae5 2ab5 3bf2 1436
000000d0: fb75 bdb5 5332 6bb3 37c7 e1b7 ed0f 76b6
000000e0: 3b98 ff33 f4be d137 9e4a beb4 1e2f c535
000000f0: 8c46 8931 807a 4a35 e049 5d36 75b8 0eb5
00000100: 5b91 f334 5fd4 b9b4 f8c4 0ab3 aa7f 8fb4
00000110: 192c ac34 3569 8534 fc90 9937 2891 f4b4
00000120: e68a f2b5 f44e 3db4 b02a 2237 58f2 d9b5
00000130: b652 0a35 f9ef fe34 88c2 70b4 b5b4 e435
00000140: db6e b1b4 2f63 5f33 3ccc e435 c73b a6b3
00000150: 41c9 e7b5 e5cd 15b7 5c19 0635 9475 cc33
00000160: b009 3336 9140 eeb6 7796 02b7 304e 1837
00000170: 1d99 aa37 5d6d 98b6 76bb 11b4 81b0 48b6
00000180: 22f2 ac34 3e9c ea36 1020 5fb5 440c f334
00000190: 837c a6b4 ccb7 73b8 2cc1 39b6 8e67 c4b4
000001a0: 7c5c adb5 c2a1 e6b4 3b7c 1eb3 fdca 01b4
000001b0: a315 1837 4ad6 8e35 1215 65b5 2fc9 cf32
000001c0: d04b 26b3 8c5a 2bb5 bf0d 2135 c505 c0b4
000001d0: 14a6 0637 a4f0 2ab5 b8f0 1436 c78b bdb5
000001e0: ba3c 6bb3 9594 e1b7 e835 76b6 98fb ff33
000001f0: 9dc3 d137 a59b beb4 72eb c435 3db9 8e31
00000200: 7087 4a35 3b49 5d36 37b9 0eb5 cb43 f034
00000210: 3dd0 b9b4 e41a 0cb3 1090 8fb4 7df1 ab34
00000220: 7aa0 8534 f7a3 9937 2389 f4b4 2955 f2b5
00000230: 4456 3db4 3f35 2237 94cb d9b5 814e 0a35
00000240: 42cb fe34 de68 70b4 388e e435 0a50 b1b4
00000250: 6013 6133 4eb3 e435 cc64 a6b3 6c94 e7b5
00000260: a5b5 15b7 f445 0635 c871 cc33 8e12 3336
00000270: 3fdd edb6 edce 02b7 c06e 1837 d483 aa37
00000280: 0573 98b6 11ad 11b4 cca6 48b6 6627 b334
00000290: f85c ea36 38e8 5eb5 14c1 f234 0e66 a6b4
000002a0: 66a6 73b8 3fbf 39b6 d7dd c3b4 fb4f adb5
000002b0: 0fc8 e6b4 8c07 1eb3 38cb 01b4 28db 1737
000002c0: a5fd 8e35 0550 65b5 17ce cf32 6bd9 26b3
000002d0: bb56 2bb5 6016 2135 0f67 c0b4 25ab 0637
000002e0: 48da 2ab5 7dc6 1436 f869 bdb5 7504 6cb3
000002f0: 5ca9 e1b7 05e2 75b6 d37a fe33 d299 d137
00000300: 631e beb4 c328 c535 ce2a 8831 e3aa 4a35
00000310: 7549 5d36 d0b4 0eb5 2870 ee34 f41f bab4
00000320: 8fe4 0bb3 8496 8fb4 4b27 ac34 a598 8534
00000330: 5c7e 9937 1cf2 f3b4 8386 f2b5 2d3b 3db4
00000340: 0717 2237 f6b1 d9b5 f146 0a35 347f ff34
00000350: 0e5b 70b4 0515 e435 e556 b1b4 b8c6 5e33
00000360: 0a92 e435 4d35 a6b3 6ca5 e7b5 61c7 15b7
00000370: 3a7f 0635 b37d cc33 97fb 3236 f251 eeb6
00000380: a194 02b7 7963 1837 4faa aa37 f186 98b6
00000390: 55e7 10b4 2190 48b6 1026 d734 7842 ea36
000003a0: 9f67 5eb5 79b4 f234 3511 a7b4 37a9 73b8
000003b0: 78b1 39b6 3a9f c3b4 748e adb5 eda4 e6b4
000003c0: c4c1 1db3 b258 01b4 965b 1737 40db 8e35
000003d0: d584 64b5 5fb1 d032 586e 25b3 393c 2bb5
000003e0: 8edc 2035 e1f6 bfb4 ec81 0637 2ba5 2ab5
000003f0: 93b2 1436 ff91 bdb5 b851 6cb3 426e e1b7
-2.665916e-07 3.202867e-07 2.4839397e-07 1.8314455e-05 -4.5543734e-07 -1.8062045e-06 -1.7630506e-07 9.66794e-06
-1.6249472e-06 5.1516133e-07 4.7424462e-07 -2.2399188e-07 1.7034326e-06 -3.3064748e-07 5.210685e-08 1.7046486e-06
-7.7330554e-08 -1.72833e-06 -8.9158675e-06 5.008489e-07 9.5058745e-08 2.6680277e-06 -7.1073637e-06 -7.758064e-06
9.068697e-06 2.0331812e-05 -4.5474526e-06 -1.3554163e-07 -2.992155e-06 3.229655e-07 6.9909393e-06 -8.3001333e-07
4.529306e-07 -3.102355e-07 -5.8104943e-05 -2.7681358e-06 -3.6594062e-07 -1.2920468e-06 -4.2894962e-07 -3.6874873e-08
-1.2140197e-07 9.0421545e-06 1.0649104e-06 -8.530799e-07 2.4018842e-08 -3.8255447e-08 -6.380371e-07 6.0055555e-07
-3.5849206e-07 8.0219515e-06 -6.3664504e-07 2.2194715e-06 -1.4115934e-06 -5.476097e-08 -2.6914857e-05 -3.6666127e-06
1.19020534e-07 2.5003661e-05 -3.544455e-07 1.4691357e-06 3.995245e-09 7.5429125e-07 3.2974567e-06 -5.316754e-07
4.5368037e-07 -3.4613456e-07 -3.230977e-08 -2.6728713e-07 3.2069582e-07 2.484973e-07 1.8306535e-05 -4.5554157e-07
-1.807083e-06 -1.763072e-07 9.665891e-06 -1.6238291e-06 5.1529366e-07 4.748579e-07 -2.2422512e-07 1.7039916e-06
-3.3049477e-07 5.201144e-08 1.7046764e-06 -7.740851e-08 -1.7269414e-06 -8.929031e-06 4.995579e-07 9.5208776e-08
2.6678717e-06 -7.1004692e-06 -7.783637e-06 9.07811e-06 2.0336878e-05 -4.5426846e-06 -1.3572375e-07 -2.9905061e-06
3.221367e-07 6.9919324e-06 -8.312063e-07 4.5271202e-07 -3.1010504e-07 -5.810689e-05 -2.767959e-06 -3.658319e-07
-1.2916421e-06 -4.2958533e-07 -3.690023e-08 -1.2087908e-07 9.064944e-06 1.0642191e-06 -8.533981e-07 2.418946e-08
-3.8718838e-08 -6.3834227e-07 5.9997177e-07 -3.5766985e-07 8.0256905e-06 -6.3680113e-07 2.2193835e-06 -1.4122278e-06
-5.477043e-08 -2.6891279e-05 -3.6688234e-06 1.19201275e-07 2.5005831e-05 -3.5503504e-07 1.4671662e-06 4.153803e-09
7.544795e-07 3.2974192e-06 -5.3168645e-07 4.475281e-07 -3.4610449e-07 -3.2620747e-08 -2.6740645e-07 3.2026938e-07
2.4889943e-07 1.8315373e-05 -4.5548322e-07 -1.805519e-06 -1.763338e-07 9.66835e-06 -1.6227009e-06 5.1523244e-07
4.7459076e-07 -2.2389892e-07 1.7028715e-06 -3.3027055e-07 5.2404516e-08 1.7039508e-06 -7.748312e-08 -1.7254038e-06
-8.9233845e-06 5.0020685e-07 9.520187e-08 2.6683879e-06 -7.088907e-06 -7.7967825e-06 9.085692e-06 2.0326966e-05
-4.543343e-06 -1.3567139e-07 -2.989941e-06 3.3370014e-07 6.9845664e-06 -8.303937e-07 4.5216495e-07 -3.0994164e-07
-5.8090685e-05 -2.7678468e-06 -3.648299e-07 -1.2912782e-06 -4.29864e-07 -3.6794106e-08 -1.2087992e-07 9.051328e-06
1.0653645e-06 -8.542559e-07 2.419169e-08 -3.8847627e-08 -6.3828674e-07 6.0009734e-07 -3.5837772e-07 8.02687e-06
-6.3647576e-07 2.2169254e-06 -1.4112438e-06 -5.4952086e-08 -2.6900954e-05 -3.6639406e-06 1.1850138e-07 2.498637e-05
-3.5412367e-07 1.4689507e-06 3.9629873e-09 7.5499537e-07 3.2974324e-06 -5.316224e-07 4.441256e-07 -3.466845e-07
-3.2571332e-08 -2.674534e-07 3.2066086e-07 2.4884244e-07 1.8297862e-05 -4.5438435e-07 -1.8069553e-06 -1.7623525e-07
9.661314e-06 -1.6219553e-06 5.151224e-07 4.7590004e-07 -2.2384867e-07 1.6993441e-06 -3.3032043e-07 5.1869137e-08
1.7029827e-06 -7.739673e-08 -1.7258985e-06 -8.927514e-06 5.010403e-07 9.522355e-08 2.6670511e-06 -7.1024924e-06
-7.783209e-06 9.083066e-06 2.0344885e-05 -4.5456623e-06 -1.3495203e-07 -2.9886216e-06 4.0074565e-07 6.9814814e-06
-8.2852233e-07 4.5207324e-07 -3.1118694e-07 -5.809331e-05 -2.7670449e-06 -3.6437433e-07 -1.2930964e-06 -4.2960838e-07
-3.673064e-08 -1.2046328e-07 9.021625e-06 1.0643635e-06 -8.5129915e-07 2.4295046e-08 -3.8517413e-08 -6.37901e-07
5.9925594e-07 -3.575615e-07 8.017272e-06 -6.3570286e-07 2.2157662e-06 -1.4124088e-06 -5.5022355e-08 -2.6873433e-05

gats.1.bias f4 [67]
00000000: 4be4 7c39 727e a938 4851 393a e438 713b
00000010: 0919 c3ba 52ff eaba 1649 8939 8bbc 323a
00000020: e074 65ba 29db 41b9 1b18 7539 5ae2 b5b9
00000030: 07f0 c4b9 4b67 7039 3047 6bbb 7dc0 c6b9
00000040: 5aea 1ab9 d308 dbba 1ba9 bc3a 6588 2cb9
00000050: c42a 6db9 9857 c739 4891 8f3b b1d8 3cbb
00000060: 3959 623a 4d45 493b 4e78 43ba 3b6e c3ba
00000070: 04de 0139 a78b 23bb e572 1dba 9199 b0ba
00000080: 9f19 69ba c6f2 39bb 9c85 85b9 a714 46ba
00000090: ec7b 82ba 341e 0739 27d9 87b9 0ec6 4539
000000a0: e4c2 ebb8 85ba adba c854 e0bb 3b87 cf39
000000b0: 87fb 0c39 e921 d039 932f 44b9 32c3 c1ba
000000c0: 6a46 8239 638c 78b9 95be bfba d8b2 453a
000000d0: 7a67 aa38 4cb2 faba e939 8d3a 47fc c339
000000e0: fba3 44ba 03bb 623b 5b68 c4bb fd61 3339
000000f0: 8091 a5b7 477c efb9 85e3 29b7 9acd d237
00000100: f431 803a 46cb 1c39 10df 1839
0.00024117639 8.0821e-05 0.0007069302 0.003680759 -0.001488478 -0.0017928875 0.0002618513 0.0006818256
-0.00087530725 -0.00018487558 0.00023374001 -0.00034691655 -0.00037562868 0.00022926663 -0.0035900585 -0.00037908918
-0.00014773887 -0.0016711004 0.0014393659 -0.00016454009 -0.00022618013 0.000380215 0.0043813325 -0.0028815682
0.0008634511 0.0030711473 -0.00074565865 -0.001491017 0.00012385106 -0.0024955065 -0.00060061953 -0.0013473501
-0.00088920625 -0.0028373464 -0.00025467284 -0.0007556178 -0.0009955144 0.00012885855 -0.00025910998 0.00018861165
-0.000112419744 -0.001325444 -0.006846044 0.0003958287 0.00013445142 0.00039698117 -0.0001870974 -0.0014782904
0.00024847995 -0.00023703421 -0.0014628941 0.00075416034 8.125506e-05 -0.0019126623 0.0010774705 0.0003738126
-0.00075012416 0.003459633 -0.0059938855 0.00017107274 -1.9737286e-05 -0.00045678226 -1.01261585e-05 2.5129691e-05
0.0009780512 0.00014953045 0.00014578947
