inference/SymEx/model_checkpoints/SymEx_model_2.pt (torch, 503011 bytes, 21 tensors)

gats.0.att f4 [1, 5, 67]
00000000: d64d 1dbb 1436 9339 c9d1 713f 2b9e 253f
00000010: 382e 1bbd 8fae 3239 59d2 5038 e3e0 fd3b
00000020: 391b 0a3c 24ae adbc 483a 3bbc 4b45 37bd
00000030: a5f8 ca3a bc00 02bf 05c9 1bbd 18bd 60ba
00000040: 7bfd 07bf 6d04 0b3c 2f7b 283b 3099 bbbc
00000050: 28ee 2eba 7a02 5ab6 f470 cf39 7e60 1dbb
00000060: bd1c 4a3f 260b b437 128c cab7 b174 f4be
00000070: 88ee 713a efb9 713a fab3 1ebf d548 c4b9
00000080: 440e 1839 8441 4c3b d343 3bbc 33f3 63b4
00000090: a34d a73d c4ad 1136 a3aa de3e a6c7 af3b
000000a0: f380 113b fd2b e5b6 486d 8cbb 706b 21b7
000000b0: 8ee9 42bf bea7 06ba 5165 0cbf ae42 803e
000000c0: f12e 80bb 3b4b 61bf 4e30 40bf cc13 f4be
000000d0: 081d 2a3a bd56 46b8 0f7d c1bc f001 98bc
000000e0: f2b8 afba 3ce3 8dbc ea56 bfba dbcf 0739
000000f0: 2a15 24bf da17 8f3c 5fb7 c9bc 98c4 9f3e
00000100: 9563 2637 0c65 65bf 974a 6cbe 093f bcbe
00000110: 3a2a 0b39 b42b 10ba c171 703d e3d3 9f3b
00000120: 8755 38b9 80d2 0b3d 658b 323f 1a53 523e
00000130: 5ca9 b13d 66ab b53c f93f 98bc 58e2 803c
00000140: 169a 1b3f 397b 5c3d 6733 4c3f f7b4 bfbf
00000150: 39e6 c5bc 0049 6b3a dcef 473d 2525 9f3d
00000160: 021f 0d35 f8df fd38 9c81 4b3f f55f e93c
00000170: 2ed0 9e37 95c9 1cb9 c753 b63e 78a1 c039
00000180: 3126 11bf 4ff6 413f e0de 09b7 5d85 c5b8
00000190: be57 8c3e 2f73 0e3c b71d f536 fe1d e3ba
000001a0: 1717 8cb6 7490 413e 4ffe 1b3d 8d27 ddbe
000001b0: 18e6 1bb7 1bff feba 5789 2ab7 3951 efbb
000001c0: 9eab cdba 0f7b 00bf 2cd6 9a3e 5d79 233d
000001d0: cfdb 273f 6d5f ba3d 88c6 de3e 843f 5f3a
000001e0: 9693 5038 28b3 9e3d b764 143e 834d 43b9
000001f0: 6193 1abc 3a05 613f 52f5 b538 16cb 2e39
00000200: 002c 943d fabf f23c bf80 22bf 27fb 1238
00000210: 103e 42bf c687 0c3f cd24 4b3c 8806 95bf
00000220: 3dd6 66b9 f347 bf3e bbeb 36bc 8996 6938
00000230: a49f a8bb b2b3 383c 709b dc3e f619 c5bb
00000240: 2aca 89bb da10 bdbc 35cc 183f 5df0 88be
00000250: 3d74 85bb dc6e 80bf 93fb 433b 0b21 a8ba
00000260: 1ad5 983e 003e 093f ab53 433e 940a e3b6
00000270: 148d 3e38 68ae 65ba 6447 8e3c 3401 0138
00000280: 1ec7 d2be dbc7 95b9 7464 813a 0c97 4d3f
00000290: d417 2abb f9ec 3db9 ce57 60b6 88f3 cf3a
000002a0: b87e e93e 2106 84b8 b573 c33b dba4 6137
000002b0: edc6 6e3d b000 64bf 18fe 803e cce3 99b7
000002c0: 7ec9 24bb c4be 7eb5 d899 9dbf 23bf 11ba
000002d0: 48c9 903a bae3 833f 6e25 013f 9aca 9e3d
000002e0: 85a2 adba dd38 26be d21f d339 d614 9438
000002f0: a2ea e5bd 60e9 02bc 4a36 02ba c4b6 d5be
00000300: 5d33 e1bb 50f8 7739 202c 69b9 95f9 f63e
00000310: 0a2a a7bc dd86 af3c b248 c237 4fc1 8bbf
00000320: d604 213e b241 8a3e ff35 8b39 60a4 bb3a
00000330: 5200 1b3e 49ba 9bbe 5619 5139 1183 c03c
00000340: 4c96 0bbb ca24 153d 38aa a13c eb74 d33e
00000350: aafd 493f 3933 443f 8eee ab3e 0118 913c
00000360: aff7 133d 452f e9bc c0d6 dd3b 402f 01b9
00000370: 7e4e 76be f10e 903c adaf 4fb6 edce 7abf
00000380: 06b6 9fbf 91f9 163f 23f9 2e37 ca61 6aba
00000390: ebc8 283a 48fd d8b8 12e6 913f dbe6 96ba
000003a0: 9104 bd3c 4b00 71bf d529 343b e5b1 583d
000003b0: c4d7 28b8 24f2 f33b 126d ecb6 5e47 0e3f
000003c0: f85d 1d3f 8b30 653a 3da0 d436 b6bb 6bbb
000003d0: 3cc3 b837 ce1f 123f 9768 f33a 2b6e 81bf
000003e0: c3c0 783f aaa4 c6bb 9e78 e73e c404 f73a
000003f0: 8bc2 563f 933a d838 c8c3 7e38 df18 863f
-0.0024002693 0.00028078316 0.9446073 0.6469447 -0.037885875 0.00017040431 4.9786966e-05 0.007747756
0.008429342 -0.0212012 -0.01142747 -0.044743817 0.0015485479 -0.5078237 -0.038033504 -0.0008573099
-0.53121156 0.008484942 0.0025708189 -0.022900194 -0.0006673061 -3.2485973e-06 0.00039566273 -0.0024013813
0.789501 2.1462864e-05 -2.4145502e-05 -0.47745278 0.00092289643 0.00092211267 -0.6199337 -0.00037438297
0.00014501164 0.003116698 -0.011429745 -2.1229498e-07 0.08169105 2.1707829e-06 0.4348956 0.005364376
0.0022202104 -6.8298527e-06 -0.0042854883 -9.621363e-06 -0.76137626 -0.000513669 -0.54842097 0.25050873
-0.003911846 -0.8800542 -0.7507371 -0.47671354 0.00064893113 -4.728766e-05 -0.023619203 -0.018555611
-0.0013406558 -0.017320268 -0.0014598046 0.00012952035 -0.64094794 0.017467428 -0.024623571 0.31204677
9.917557e-06 -0.8960731 -0.23075329 -0.36766842 0.00013271804 -0.00054996763 0.058702234 0.004877554
-0.00017579469 0.034136295 0.6974395 0.20539513 0.08674881 0.022176456 -0.018585192 0.01573293
0.6078199 0.05382845 0.79765934 -1.4977101 -0.02415763 0.00089754164 0.048812732 0.07770757
5.2571716e-07 0.000121056975 0.79494643 0.028488139 1.8932009e-05 -0.00014952414 0.35610792 0.00036741397
-0.566989 0.7576646 -8.2177285e-06 -9.418533e-05 0.27410692 0.008694454 7.3050282e-06 -0.0017327664
-4.175013e-06 0.1890276 0.038084324 -0.43194237 -9.292293e-06 -0.001945469 -1.01647665e-05 -0.0073033837
-0.0015691405 -0.5018777 0.30241525 0.039910663 0.65569776 0.09100232 0.43510842 0.00085162395
4.9728515e-05 0.07749015 0.14491545 -0.00018625525 -0.009434552 0.878986 8.676447e-05 0.00016669589
0.07234955 0.029632557 -0.634777 3.5043016e-05 -0.7587595 0.54894674 0.012398911 -1.1642618
-0.00022014319 0.3735958 -0.011164601 5.5691726e-05 -0.005145984 0.011273311 0.4308734 -0.0060150577
-0.004205008 -0.023079325 0.59686595 -0.26745883 -0.0040726946 -1.0033832 0.0029904589 -0.001282723
0.29850084 0.5361023 0.19074886 -6.7663586e-06 4.543092e-05 -0.00087616453 0.017368026 3.0757117e-05
-0.4116754 -0.000285684 0.0009871856 0.80308604 -0.0025954144 -0.00018112724 -3.342971e-06 0.0015865425
0.4560449 -6.295392e-05 0.005964721 1.34494285e-05 0.05829518 -0.8906355 0.25193858 -1.8345097e-05
-0.0025144513 -9.4899974e-07 -1.2312574 -0.00055597926 0.0011046315 1.0303872 0.5044774 0.07753487
-0.0013247287 -0.16232629 0.00040268764 7.061071e-05 -0.11226393 -0.007990211 -0.0004967196 -0.41741002
-0.006872578 0.00023648259 -0.0002223705 0.4823729 -0.020405788 0.021426613 2.3160454e-05 -1.0918368
0.15724501 0.27003247 0.00026552376 0.0014315955 0.15136841 -0.30415562 0.00019941232 0.023499997
-0.00212993 0.036412038 0.019734487 0.4130014 0.78902686 0.7664066 0.3358044 0.017711641
0.03612488 -0.028464923 0.006769985 -0.0001232 -0.2405338 0.01758525 -3.094766e-06 -0.97971994
-1.2477424 0.5897456 1.0429215e-05 -0.00089409633 0.00064386305 -0.0001034686 1.1398337 -0.0011512892
0.023073466 -0.9414107 0.0027490754 0.05290403 -4.025527e-05 0.007444637 -7.0460455e-06 0.5557765
0.6147151 0.000874289 6.3367465e-06 -0.0035970039 2.2025422e-05 0.5707978 0.0018570599 -1.0111746
0.9716913 -0.00606211 0.4520921 0.0018846025 0.838906 0.00010310593 6.0740655e-05 1.047634

gats.0.bias f4 [67]
00000000: 756e 46bd 1f36 ecbc 905b 85bd 924b 813c
00000010: babd 4dbd 3a7d 513a 3843 b7bd 5333 dabd
00000020: 7f75 95bd 8f10 dcbd 250c 03be 5fc1 6e3c
00000030: 9f68 99bd 25d9 80bd b51d e8bd 3ad7 87bd
00000040: e3b4 e5bd 390f b0bc 5e64 c33b d313 a5bd
00000050: 55a8 cdbd d8ea 7836 349b 04bc 0719 3cbc
00000060: 171f 75bc 9f03 6d36 3e3a 2ebc d6ae a33c
00000070: 1e45 3e39 91a2 b7bd 2f2b b0bc 5438 39bd
00000080: c8ad 19bc 5ea0 88bd 333c 5cbd 2ff3 75b7
00000090: d390 cabc 71b4 7db8 0cb5 17bd 2c3e 963c
000000a0: c729 90bd cc79 c4b7 c889 8bbb 04fa ebb9
000000b0: 10d7 1bbc 7e2c f5b9 9195 35bd 57fd dabd
000000c0: a709 30bd ebfc 79bd 11b0 40bd 4a76 92bd
000000d0: d723 2739 e3dd 3c38 74dc abbd 4ac5 f5bc
000000e0: 4cc3 c33a 1483 cebc f82f fdbd 6841 7039
000000f0: 9f0c edb9 1cda dfbd b930 ddbc 3c9a 99bd
00000100: ce5f 6738 610a 1eba 7adf e8bc
-0.048445184 -0.0288344 -0.06511605 0.015783105 -0.050229765 0.00079913775 -0.08948368 -0.106543206
-0.07297801 -0.10745346 -0.12797602 0.01457247 -0.07490658 -0.06291417 -0.11333791 -0.06632848
-0.11216142 -0.021491634 0.0059628924 -0.08060422 -0.100418724 3.7091577e-06 -0.008093644 -0.011480576
-0.014961026 3.531786e-06 -0.010634003 0.01998083 0.0001814556 -0.08966554 -0.021504967 -0.045219734
-0.009379812 -0.066712126 -0.053768348 -1.4659759e-05 -0.02472726 -6.048795e-05 -0.037037894 0.018340193
-0.070392184 -2.3421737e-05 -0.004258368 -0.0004500897 -0.009511724 -0.0004676319 -0.04433209 -0.10692852
-0.042977955 -0.061032217 -0.04704291 -0.07151468 0.00015939712 4.502934e-05 -0.083916575 -0.030001301
0.0014935522 -0.025208987 -0.12362665 0.0002291255 -0.00045213566 -0.10930273 -0.027000772 -0.07500121
5.5163917e-05 -0.0006028768 -0.028426874

gats.0.lin_l.weight f4 [335, 67]
00000000: 7fac 0000 414d 0000 dc17 86bc 55db aa3b
00000010: dcf7 afb8 2e99 0080 e8d2 24bc 0e20 8abd
00000020: 3858 0000 b21f 0000 dd40 9f3b 90a6 0000
00000030: 0982 0080 c2a7 0000 b5ae 0000 d65d 0000
00000040: 060f 0000 e5a0 0000 df7f ca3d a183 93bc
00000050: d198 0080 8e26 01bd ae7c 0000 6726 f63a
00000060: 1d85 0d3e 0462 1c39 32b0 0cbe 7e08 b7bd
00000070: 8d01 95b9 a10f 893c bc54 0080 9161 4c3d
00000080: ab69 57bb f50e f5bc 7a09 023b 5ed2 863e
00000090: f3e7 46ba bdb3 31b9 761a 0080 f865 0080
000000a0: ef9d 5d39 5f5e bf3d 4502 c13e 6cae 5bbc
000000b0: 1dae 0080 9689 0337 1842 1fb4 3691 2a3c
000000c0: 29a9 0000 1ea2 0000 420d 0000 f13f 0080
000000d0: 5374 0000 a29f 0080 f218 0000 f999 0000
000000e0: 3dad 0000 a3a2 0000 ebab 0080 bfd3 333e
000000f0: ece2 083b 9f62 0080 41a1 0080 3e6b 0000
00000100: 7e10 0000 fdaf 0000 e080 bb3b 8da4 0080
00000110: 7e4b 0080 fe08 5034 73cf b239 6f15 bd36
00000120: 3e1a 0080 0d11 12ba f0be 7a39 e8af 0000
00000130: 18ab 0000 ff05 fdb8 53ab 0080 4f8b 0080
00000140: 11b0 0000 7d77 0000 a1aa 0080 0e1c 0080
00000150: 224e 0000 f296 59bb 0c63 1bb9 13b0 0080
00000160: 83de 2abc 81a7 0080 8eef a2b8 9d4e b9b9
00000170: 3819 9238 2348 f4b9 e862 0aba 257e fa38
00000180: c985 b1b6 a52b 0000 f6e5 943a 8ab2 9137
00000190: d8af 08b9 8a93 d5b6 cb5a d8b9 a3cd 9536
000001a0: af02 42b4 249c 0080 ea75 0080 e0e2 0f37
000001b0: 1ca6 90b9 65f3 4539 fbb9 ccb9 1187 0080
000001c0: 8ae0 d4b4 45f1 f431 7b7f 2e38 d9ae 0000
000001d0: 75a5 0080 e457 0000 6949 0000 35a5 0000
000001e0: e0ad 0080 ef97 0080 6c79 0000 33a3 0000
000001f0: af42 0080 bea8 0000 7a17 1639 371c f3b8
00000200: b7aa 0000 9d7d 0080 9e9f 0000 2c60 0000
00000210: b794 0080 2538 0f3a 2c5d 0000 5228 0080
00000220: a9a3 86be 1ba8 a4bc 3a2f 4b3b 59ad 0000
00000230: bf18 0bbe bcbd 273d bdaa 0080 1922 0080
00000240: cd34 9cbd 82a4 0080 a2a4 0000 727c 0080
00000250: c856 0080 6181 0080 753f 0000 2cae 0080
00000260: ef90 3fbe 2745 033e 2ca2 0080 f340 e0be
00000270: ce83 0000 8141 a83d 88a0 11be 561d f63d
00000280: 342b f53e 98c8 b23c c2a1 f7bd c616 103c
00000290: e3a8 0000 ec95 3d3e 7a76 7d3e 2c6b 18be
000002a0: 7b28 21be f62d 943d c031 83bd 052c 8fb8
000002b0: 66a8 0080 a484 0000 71cb 59be 59a7 39be
000002c0: 9450 bd3e e86b 043f ba9f 0000 40a1 f1b8
000002d0: 9937 a5b8 e465 cf3b d797 0080 3ca1 0080
000002e0: 81a7 0080 39a2 0000 1fa3 0000 b770 0080
000002f0: 9a7b 0000 cf8e 0000 ada3 0000 bba2 0000
00000300: 9f91 0000 0c02 3abe b950 9e3c 03a4 0080
00000310: e97a 0000 7d5b 0080 e713 0000 baae 0000
00000320: 6799 893e efa8 0080 8a35 0080 f4af 29be
00000330: d1c9 a1bb 4c40 90bc d4a2 0080 2ba4 963d
00000340: 6836 a6be d09a 0000 d87c 0080 fe46 70bd
00000350: 9232 0080 69ac 0080 279e 0080 c879 0080
00000360: 5c81 0080 6779 0080 1270 0000 e0c9 81bd
00000370: 49f3 0f3f 0da9 0080 fd16 b6be 1e75 0080
00000380: 3caa 133e 55e6 c23e da2f 833d 8f87 bb3e
00000390: 0719 febd 8309 c93c ad00 e2bb 9aac 0080
000003a0: bdc4 75bc 21f2 c93a 5e58 ccbc 8674 183c
000003b0: eeeb 2d3f bac9 a83d cd4d debc 1685 0000
000003c0: aeab 0000 238f 1f3e 895b 4f3c 7246 063f
000003d0: b2e8 31bf b4aa 0080 b972 4f3a 35fb 6c38
000003e0: 92eb 17be b0a5 0000 5c31 0000 f4a5 0080
000003f0: 3e48 0000 53a0 0080 fcad 0000 8049 0000
6.188e-41 2.7713e-41 -0.016368799 0.0052141347 -8.390818e-05 -5.495e-41 -0.01006005 -0.06744395
3.1647e-41 1.137e-41 0.004860027 5.9751e-41 -4.6648e-41 6.018e-41 6.2673e-41 3.3662e-41
5.39e-42 5.7718e-41 0.09887671 -0.018007101 -5.482e-41 -0.03153091 4.4727e-41 0.0018779755
0.1382031 0.00014913833 -0.13739088 -0.08937167 -0.0002842065 0.016731085 -3.0397e-41 0.049897734
-0.003286938 -0.029914359 0.0019842074 0.26332372 -0.0007587664 -0.00016946993 -9.492e-42 -3.658e-41
0.00021135037 0.09344172 0.37697044 -0.013408285 -6.246e-41 7.840243e-06 -1.4832074e-07 0.010410598
6.0683e-41 5.8157e-41 4.756e-42 -2.2938e-41 4.1729e-41 -5.7265e-41 8.949e-42 5.5235e-41
6.2146e-41 5.8343e-41 -6.1673e-41 0.17561243 0.002088721 -3.5379e-41 -5.7847e-41 3.8471e-41
5.916e-42 6.3133e-41 0.00572215 -5.903e-41 -2.7081e-41 1.9374781e-07 0.00034105367 5.635134e-06
-9.414e-42 -0.0005571999 0.00023912988 6.3103e-41 6.1377e-41 -0.00012065097 -6.146e-41 -4.9975e-41
6.3161e-41 4.2864e-41 -6.121e-41 -1.0064e-41 2.8029e-41 -0.0033201543 -0.0001481885 -6.3164e-41
-0.0104290275 -6.0089e-41 -7.7693825e-05 -0.0003534452 6.96652e-05 -0.00046593053 -0.00052790204 0.00011944425
-5.2905857e-06 1.5657e-41 0.0011360038 1.7368486e-05 -0.00013035478 -6.3650705e-06 -0.00041266377 4.4644853e-06
-1.8068634e-07 -5.6013e-41 -4.23e-41 8.576288e-06 -0.0002758958 0.00018878056 -0.00039048478 -4.8453e-41
-3.965145e-07 7.128764e-09 4.160356e-05 6.2724e-41 -5.9355e-41 3.1529e-41 2.6335e-41 5.9265e-41
-6.2375e-41 -5.4504e-41 4.3558e-41 5.8545e-41 -2.3922e-41 6.0533e-41 0.0001431386 -0.000115923984
6.1241e-41 -4.5062e-41 5.726e-41 3.45e-41 -5.3349e-41 0.0005463383 3.3424e-41 -1.4464e-41
-0.26296738 -0.02009969 0.003100349 6.2185e-41 -0.13583659 0.04095243 -6.125e-41 -1.2232e-41
-0.076272584 -5.9014e-41 5.9059e-41 -4.4643e-41 -3.1131e-41 -4.6412e-41 2.2764e-41 -6.2481e-41
-0.18707632 0.12819348 -5.8176e-41 -0.43799552 4.7283e-41 0.08215619 -0.14221394 0.12017314
0.47884524 0.021824166 -0.120914 0.008794492 6.0585e-41 0.18514222 0.24752226 -0.14884633
-0.15738098 0.07235329 -0.064059734 -6.826971e-05 -6.041e-41 4.7582e-41 -0.21269013 -0.18130244
0.3697554 0.5172715 5.7299e-41 -0.00011521811 -7.878169e-05 0.006329285 -5.447e-41 -5.784e-41
-6.0089e-41 5.8195e-41 5.8517e-41 -4.0434e-41 4.434e-41 5.123e-41 5.8716e-41 5.8377e-41
5.2239e-41 -0.18164843 0.019325601 -5.8836e-41 4.4092e-41 -3.282e-41 7.14e-42 6.268e-41
0.2687485 -6.0602e-41 -1.9206e-41 -0.16571027 -0.0049373885 -0.017608784 -5.8412e-41 0.07355531
-0.32463384 5.5536e-41 -4.4785e-41 -0.058661453 -1.8141e-41 -6.1849e-41 -5.6734e-41 -4.3687e-41
-4.6405e-41 -4.3551e-41 4.0203e-41 -0.06337333 0.562306 -6.0644e-41 -0.35564414 -4.2014e-41
0.14420408 0.38066354 0.06405611 0.3662686 -0.12407117 0.024540668 -0.006897053 -6.1918e-41
-0.015000519 0.0015407243 -0.02494448 0.009305125 0.67938125 0.08241601 -0.027136708 4.7742e-41
6.1587e-41 0.15581946 0.012656101 0.5245124 -0.6949569 -6.1237e-41 0.00079135183 5.650074e-05
-0.14835957 5.9437e-41 1.7707e-41 -5.9533e-41 2.5916e-41 -5.7513e-41 6.2414e-41 2.6367e-41

gats.0.lin_l.bias f4 [335]
00000000: 74a3 29bd abff e8bb 97ed 023c 5eab 0fbc
00000010: 028e 0cbe cf33 383a 6e99 f0bd e695 2fbd
00000020: 6720 f1bd 9c48 cdbd 523c d1bd 3452 7fbd
00000030: 582d e73b b06d 04bd 7665 5ebc 4953 60bd
00000040: 9e96 04be cf44 80bd 5865 58b8 f9c7 f7bd
00000050: 60a7 a1bd b963 29b7 4201 64bb cc9a 023b
00000060: 60a1 863d 318e e6b8 223e 723a b06b 1cbe
00000070: fc67 6eb9 0427 f1bd a12d 12be a6f9 bebc
00000080: 6086 f8bb 81c6 12bd ca10 c6bc a2bc 77b8
00000090: 2c5b 453c 52d0 0ab9 0910 6dbd e4f7 38ba
000000a0: 6bfb ddbd 3c6c c2b8 bcd8 41bb e13f a4b7
000000b0: 4ba8 b33c 07d6 e53a 46a5 0bbd f151 dbbd
000000c0: 10aa 053d a7bf 16be 9d53 373d 39cb 0d3d
000000d0: 3564 b4b9 bc72 c237 e87e 97bd 9a55 bdbc
000000e0: bca4 f63b fc03 3abd 7058 44bd e594 5139
000000f0: 4f37 6abd a718 92bd 7840 d2bc 626b 0ebd
00000100: 32aa f437 96db 283c efee a3bd 22dc 51bd
00000110: 7a28 bfbb 250c 47bc c529 9f3d 6995 c3bd
00000120: 26c2 7d3a 80a7 cebd 1f61 a23d d361 d6bd
00000130: 6766 b6bd 19a5 06bd cb6f 49bd 7eda 0a3c
00000140: 13d5 99bc a31e 91bc 1062 8d3d 1e39 c83d
00000150: 1c35 d6bd e804 a5b9 92ce 37bd 77d9 f3bd
00000160: ebdd 27b7 dff5 28ba e066 d83d 9a4a ce3c
00000170: 6c6b d5b8 4b0d 2d3b 565c 783d fd08 e4b8
00000180: 9d43 1fbd bb05 a53d 6986 c9bc 5719 81bb
00000190: 2fe1 203d ac3f ea3c 4955 64b8 4c5c 98bd
000001a0: 65a9 e2b8 68fb 123d cf66 b33c dbbd c5ba
000001b0: 66a0 56b8 1c7b b6bb 18a2 b737 4251 3f3d
000001c0: f4b3 183b 900b 21bd 0c58 1ebd 4c6c 263c
000001d0: 46b0 0a3d 592c adbc 9597 f53c d908 31b9
000001e0: 00a2 1d38 f69d 3abd cc7c 88bd 23a7 e93b
000001f0: ccbb c3bd e362 be3d 8205 2f3a c002 deb9
00000200: b656 06bc e58b 9bbc 6bfe a7bc 2a3f a7b6
00000210: 8ee7 df3d 9eae 85bd 9c52 08bd a628 06be
00000220: 88a1 58bc c5a0 dc3d 84c7 2e3c 2acf 253a
00000230: 120e edbd e525 c3bc 3beb 123c efbf a1bd
00000240: 551e 0cbe 5520 8bbd f308 7ebd 921b 343c
00000250: b4ed d3bd 21ec b43d 6b8f d0bd b49e 70bd
00000260: 941f 5abd c17d 3bbd 8e23 a4bd fb4c cbb7
00000270: 92f9 a3b9 f92e 983b 824f 5ebd 35da bdb8
00000280: 938a 32bd 59a6 89ba 5591 a7b7 9074 943d
00000290: 660f 12bb 646e aebb 2b9d 6ebb c520 88bb
000002a0: 1aa1 473d 05d8 71b8 6584 19bd 1123 0db9
000002b0: 91ec 2bbd 57af cfbd 6276 a7bc 8515 9db8
000002c0: ef9b cebb 5f55 7cb6 7c93 603d 8df8 9d3a
000002d0: 611c 20bc 64a0 783d fea2 75bc 3236 a4bd
000002e0: e4b0 5fbd 6ab9 f0bb dc0b 6eb9 4f7b ed37
000002f0: f05c 85bb 1a12 81bd 692c ed3b 0114 c23d
00000300: efbe 21bd 1e85 073a 497f 53ba 8d50 2dbb
00000310: 6388 91bd b8e1 abbd a6b6 bfb7 34d3 6b3b
00000320: 65fa 863b 87a3 3ebb efca a7ba cf2a 3dbc
00000330: 7a80 08bd 5f60 c43c b803 4c3a 7ec3 73bd
00000340: 9a49 02bd 7336 263b 617f fbbd 9c55 a0bd
00000350: 8415 683d 97a1 0abe f522 9bbd b92a 80bd
00000360: 3098 f3bd ef8e a0bc 88e0 b1bd 0593 f1b9
00000370: d27d d73c 4d2f bfbc 0bd5 67b7 67d6 35be
00000380: 8a43 eabd f9e0 84bd 93a9 5ab8 9339 2e3b
00000390: 5f53 323b 04fb 81b9 a1b4 e5bd b752 a3ba
000003a0: 49b4 d93b 996b 88bd 7964 47bd 7bca b83c
000003b0: dc40 a2b8 e175 2abd 1ff6 9bb8 7ae7 063d
000003c0: 641f 75bd 08c6 8abd ac26 a3b8 69c6 41bb
000003d0: 7508 08b8 6f36 f73b 2f1f 163b d271 0cbd
000003e0: 753f 04be 475e a83c 6ad6 98bd 443c a4bd
000003f0: 91d4 e4bc 7996 59b9 8a43 3037 2b46 84bd
-0.041415647 -0.007110556 0.007991216 -0.008768884 -0.13726047 0.0007026763 -0.117480144 -0.042867564
-0.117737584 -0.10023615 -0.10216583 -0.062334254 0.007054966 -0.03233117 -0.013573995 -0.054766927
-0.12948081 -0.06263124 -5.1592797e-05 -0.12098689 -0.078932524 -1.00964035e-05 -0.0034790789 0.0019928692
0.065737486 -0.0001099374 0.0009240826 -0.15275455 -0.00022736186 -0.1177502 -0.14275219 -0.023312401
-0.007584378 -0.03583384 -0.024177928 -5.9065067e-05 0.012045663 -0.00013238311 -0.05787662 -0.00070559816
-0.1083897 -9.270801e-05 -0.0029578647 -1.958007e-05 0.021930834 0.0017535099 -0.034093164 -0.107089885
0.032632887 -0.14721547 0.044757474 0.034617636 -0.00034406935 2.318003e-05 -0.07397252 -0.023112107
0.007526962 -0.045413956 -0.047935903 0.00019987261 -0.057181653 -0.07133608 -0.025665507 -0.034770377
2.916632e-05 0.01030626 -0.08004557 -0.051235326 -0.0058336826 -0.012148892 0.07771639 -0.09549982
0.00096801145 -0.10090542 0.07928681 -0.10467877 -0.089062504 -0.032872293 -0.04917888 0.008474944
-0.01877836 -0.017714804 0.069034696 0.09776519 -0.104593486 -0.00031474908 -0.044874735 -0.119067125
-1.0005645e-05 -0.0006445329 0.10566497 0.025182057 -0.0001017664 0.0026405628 0.060634933 -0.000108735614
-0.03888284 0.080577336 -0.024600225 -0.0039397883 0.03927725 0.028594814 -5.4438864e-05 -0.07439479
-0.00010808072 0.03588429 0.021899609 -0.0015086489 -5.117096e-05 -0.005568875 2.189078e-05 0.046708353
0.002330062 -0.039317667 -0.038658187 0.010157656 0.033859514 -0.02113931 0.029979507 -0.00016883331
3.758259e-05 -0.0455608 -0.06664428 0.00713052 -0.09557304 0.09296205 0.0006676541 -0.0004234519
-0.008199384 -0.018987605 -0.020507058 -4.984341e-06 0.109328374 -0.06527446 -0.033281907 -0.13101444
-0.013222106 0.10772852 0.010667685 0.00063251203 -0.11574949 -0.02382178 0.008967216 -0.078979366
-0.13683446 -0.06793276 -0.062020253 0.010992901 -0.10348073 0.088341005 -0.10183605 -0.0587451
-0.05325277 -0.045774225 -0.08014594 -2.4235333e-05 -0.00031275727 0.0046442715 -0.054275043 -9.0528665e-05
-0.043589186 -0.0010501846 -1.9975627e-05 0.07248795 -0.002228701 -0.005323218 -0.0036409597 -0.004154297
0.048737623 -5.766006e-05 -0.037479777 -0.00013459871 -0.041973654 -0.10140865 -0.020442192 -7.490352e-05
-0.00630521 -3.7600619e-06 0.054828152 0.0012052223 -0.009772391 0.060699835 -0.014992474 -0.080181494
-0.054612055 -0.007346322 -0.00022701867 2.8310022e-05 -0.004069917 -0.06302281 0.00723796 0.09476472
-0.03948873 0.00051696773 -0.0008067978 -0.0026445717 -0.07106092 -0.08392662 -2.2854027e-05 0.0035984041
0.004119205 -0.002908917 -0.0012801568 -0.011545851 -0.03332565 0.023971735 0.00077825366 -0.059512608
-0.031808473 0.0025362044 -0.12280155 -0.07828829 0.056661144 -0.13538204 -0.07575027 -0.06258149
-0.11894262 -0.019599406 -0.08685404 -0.0004607664 0.026305113 -0.023337984 -1.3818276e-05 -0.17757569
-0.11438663 -0.06488223 -5.213318e-05 0.002658461 0.0027210338 -0.0002479182 -0.11216093 -0.0012460564
0.006643806 -0.066611476 -0.048679803 0.022557488 -7.736843e-05 -0.041616324 -7.4368196e-05 0.032935597
-0.05984439 -0.06776053 -7.779649e-05 -0.0029567725 -3.2432803e-05 0.007544331 0.002290677 -0.034288235
-0.12914832 0.020552767 -0.07462771 -0.08019307 -0.02793339 -0.00020750788 1.0506143e-05 -0.06458696

gats.0.lin_r.weight f4 [335, 67]
00000000: b9a8 0080 c937 0000 63a7 0bba ac98 25b8
00000010: 60e6 1e35 7cac 0080 f5bf 033a 2095 58b8
00000020: 9c05 0080 b7a1 0080 d2a4 0000 388d 0080
00000030: 929c 0080 2c63 0080 434c 0080 6940 0000
00000040: f7ad 0000 f90d 0080 dadb 6fb9 7b96 d838
00000050: 8885 0080 62c2 9939 ad9f 0000 7e0e ad39
00000060: ee39 3039 d533 0fb7 714e 1a38 47ee 2eb8
00000070: 7942 8ab8 f5aa a836 5fa1 0000 506d 25ba
00000080: c1d5 5736 4ab0 0bb9 0062 d238 ff99 da39
00000090: e1e4 e835 df49 b4b4 be8b 0080 629e 0080
000000a0: bb6a 2039 ce49 853a 2a2e 4939 1a05 4637
000000b0: d39d 0080 f146 f0b5 6122 c5b1 5b59 8e39
000000c0: cf62 0080 f5a9 0000 927d 0080 7531 0000
000000d0: f27c 0080 cb2c 0000 0a71 0000 e8a2 0080
000000e0: 46a9 0080 9bae 0000 9ead 0080 e881 aab8
000000f0: 7a48 7bb7 dc62 0000 ca8b 0080 516b 0000
00000100: 65a6 0080 636a 0000 1294 c2b8 4eab 0080
00000110: 497c 0000 ba17 d0b7 23fc 4d38 745f 0000
00000120: ad8b 0000 eb62 8e36 bd6d 0080 fc7d 0000
00000130: a3a8 0080 f2a2 0080 6186 0000 48ab 0000
00000140: 7b64 0000 b278 0080 f094 0080 9c5e 0000
00000150: a66e 0000 96b4 4637 5d5c 3537 aca1 0080
00000160: 3dab 0000 4373 0080 dfaa 9037 d463 ec36
00000170: efb1 d6b5 131f 3037 bb2c 3536 c4be c035
00000180: ee64 68b6 dda5 0000 3df4 d737 51a7 5435
00000190: 7bb3 76b8 8eaf 1a36 1458 7fb6 f31d adb5
000001a0: 58a7 0000 419a 0000 7ca1 0080 901a 9336
000001b0: f837 0a38 9720 2e37 f0af 36b5 e89b 0000
000001c0: 56e0 a234 9e30 0080 4b93 03b7 7373 0080
000001d0: d4a2 0000 ac9f 0080 a477 0080 fb4b 0080
000001e0: 1e81 0080 5f70 0080 2ca1 0080 9d36 0080
000001f0: ffac 0080 5289 0080 1f6e 1536 7bf1 1db6
00000200: d298 0000 ba25 0000 5558 0000 8aa2 0080
00000210: 8699 0000 9e1a 0e38 ed6f 0080 0d86 0080
00000220: aa76 963d 2f24 29bc b6ba e1b5 dfa7 0080
00000230: a118 aa3c 13d8 023c ceab 0000 3eaf 0080
00000240: a6ac 0000 afa4 0080 804c 0000 fd3f 0080
00000250: ddaa 0080 fa74 0080 72a7 0000 75ae 0000
00000260: 9a03 43bd f644 adbb cf9f 0080 e5a0 91be
00000270: d24a 0080 77be 8d3c 4aa5 10bc ffe3 3138
00000280: 417f 38bb ba78 0f3c 3ea2 0d3c fdb1 87b7
00000290: 1fa4 0080 a669 a73b 45b8 d5b7 320b 2c3b
000002a0: c9be 0ebc 49a9 753b 38ec cd36 87b9 16b8
000002b0: ab72 0080 d19d 0000 d82b b3bb bff9 53ba
000002c0: 8051 19bc 76b5 06bb ae5b 0000 999d 5c35
000002d0: ad66 da10 3cac 06b8 bba0 0080 b132 0000
000002e0: 93a9 0080 da41 0000 52a5 0000 10a5 0080
000002f0: 4c6f 0080 fbaf 0080 fd66 0080 2baa 0080
00000300: 607f 0080 cdc7 e838 4f81 433b b5a0 0000
00000310: c48e 0080 2ba5 0000 cdaa 0000 4e32 0000
00000320: 6552 9dba 1427 0080 83a9 0000 b9f0 d53d
00000330: ba2d 30bc b90a ac35 5174 0000 adfd 8e3c
00000340: d748 13bb d9a2 0080 9371 0080 5f35 933c
00000350: 737e 0000 039c 0080 36a3 0080 7ca1 0080
00000360: b987 0080 bf85 0080 5ba4 0080 cd79 a3bb
00000370: 0c5d b4bb 81ae 0080 29d2 f0bd da81 0000
00000380: c940 943d 0364 65be 7c59 4dba 946e 673b
00000390: 9827 98bc fabf 91bc c5c5 09bc 3ca9 0000
000003a0: 1fdc 4f3d dd3e fa39 c4e2 28bd e120 60bc
000003b0: f9dd 373d 2c46 0a3c 1c3e 1b3a 17a7 0000
000003c0: 6fa1 0080 1036 2cbe 8ba2 81bd 1f13 e9bc
000003d0: d548 963b 297c 0080 c1cf 03b7 734b 33b7
000003e0: 8799 ba3c 28a9 0000 4fac 0080 229a 0000
000003f0: f2a4 0000 629a 0080 499d 0000 197d 0000
-6.0526e-41 2.0012e-41 -0.0005327372 -3.9481252e-05 5.9194826e-07 -6.1876e-41 0.0005025857 -5.1637297e-05
-2.012e-42 -5.8012e-41 5.9126e-41 -5.066e-41 -5.6167e-41 -3.5576e-41 -2.7358e-41 2.3106e-41
6.2407e-41 -5.012e-42 -0.00022874717 0.00010327712 -4.7902e-41 0.0002932726 5.7281e-41 0.0003300793
0.00016806248 -8.535532e-06 3.6789515e-05 -4.1706746e-05 -6.592734e-05 5.026692e-06 5.7889e-41 -0.00063105393
3.2161918e-06 -0.00013321746 0.00010031834 0.00041694936 1.735196e-06 -3.358136e-07 -5.013e-41 -5.6817e-41
0.00015298549 0.001016909 0.00019186051 1.18029075e-05 -5.6617e-41 -1.790204e-06 -5.737363e-09 0.00027150926
-3.5446e-41 6.0969e-41 -4.5046e-41 1.7742e-41 -4.4822e-41 1.6069e-41 4.0551e-41 -5.844e-41
-6.0724e-41 6.2637e-41 -6.2282e-41 -8.1304286e-05 -1.4977641e-05 3.5464e-41 -5.0147e-41 3.8498e-41
-5.9691e-41 3.8164e-41 -9.278221e-05 -6.1453e-41 4.4585e-41 -2.480658e-05 4.911063e-05 3.4242e-41
5.0106e-41 4.2434453e-06 -3.9367e-41 4.5195e-41 -6.0495e-41 -5.8454e-41 4.8206e-41 6.1444e-41
3.6046e-41 -4.3297e-41 -5.3429e-41 3.394e-41 3.9693e-41 1.1843766e-05 1.0809946e-05 -5.7997e-41
6.1429e-41 -4.1348e-41 1.7245706e-05 7.0449696e-06 -1.5996028e-06 1.04976525e-05 2.6997138e-06 1.4360635e-06
-3.4629443e-06 5.95e-41 2.574373e-05 7.921963e-07 -5.8818125e-05 2.3049975e-06 -3.804923e-06 -1.2898221e-06
6.0032e-41 5.5336e-41 -5.793e-41 4.3840337e-06 3.295389e-05 1.0378796e-05 -6.8056306e-07 5.5929e-41
3.0338077e-07 -1.744e-41 -7.842503e-06 -4.1415e-41 5.8412e-41 -5.728e-41 -4.2919e-41 -2.7257e-41
-4.6319e-41 -4.0311e-41 -5.7818e-41 -1.9592e-41 -6.206e-41 -4.9261e-41 2.226683e-06 -2.3535383e-06
5.4822e-41 1.3534e-41 3.1688e-41 -5.8308e-41 5.5074e-41 3.3880227e-05 -4.0151e-41 -4.8088e-41
0.07346852 -0.010323568 -1.6818146e-06 -6.0221e-41 0.020763697 0.007986086 6.1632e-41 -6.2865e-41
6.1935e-41 -5.9077e-41 2.7443e-41 -2.2955e-41 -6.1294e-41 -4.1963e-41 6.0068e-41 6.2583e-41
-0.047610857 -0.005287762 -5.7329e-41 -0.28443065 -2.684e-41 0.017302735 -0.0088284705 4.2412426e-05
-0.002815202 0.008756811 0.008644639 -1.6176136e-05 -5.8876e-41 0.00510903 -2.5477386e-05 0.002625179
-0.008712479 0.0037484935 6.1369756e-06 -3.5935573e-05 -4.1135e-41 5.6614e-41 -0.005467873 -0.00080862263
-0.00935781 -0.0020554936 3.2888e-41 8.218572e-07 8.6144036e-29 -3.2108495e-05 -5.7659e-41 1.8185e-41
-6.0832e-41 2.3623e-41 5.9306e-41 -5.9213e-41 -3.9926e-41 -6.313e-41 -3.6945e-41 -6.1045e-41
-4.5694e-41 0.00011099838 0.0029831713 5.7651e-41 -5.1215e-41 5.9251e-41 6.1272e-41 1.8046e-41
-0.0012002705 -1.4019e-41 6.081e-41 0.10446305 -0.01075309 1.2818119e-06 4.1726e-41 0.017454946
-0.0022473836 -5.8419e-41 -4.0743e-41 0.017969785 4.5361e-41 -5.5966e-41 -5.8549e-41 -5.793e-41
-4.8688e-41 -4.7979e-41 -5.896e-41 -0.004988885 -0.005504256 -6.26e-41 -0.11758835 4.6582e-41
0.07238919 -0.22401433 -0.00078334636 0.0035313712 -0.018573567 -0.017791737 -0.008408968 6.071e-41
0.050747033 0.00047730553 -0.041231886 -0.013679714 0.044889424 0.008439582 0.0005922036 5.994e-41
-5.7911e-41 -0.16817498 -0.06329831 -0.0284515 0.004586319 -4.454e-41 -7.85658e-06 -1.0686798e-05
0.022778286 6.0682e-41 -6.1813e-41 5.5292e-41 5.9171e-41 -5.5382e-41 5.6423e-41 4.4877e-41

gats.0.lin_r.bias f4 [335]
00000000: 292e 903a 9c39 b738 facd 293e 83ed 43bd
00000010: 8bd5 88bc e0ad 8037 3567 c735 b183 023b
00000020: cbfb 483b a764 863b d511 f2ba ebc9 853c
00000030: a1f3 8f39 75bf 7d3e 9302 1dbc 0b51 2838
00000040: b18b 8d3c bc78 38bc b09c 0b3a 798c 953b
00000050: 7532 8cb8 06b6 4d37 f27f 0bb9 faac b238
00000060: e736 1f3d 3980 21b8 9e05 8e38 ea5f d03d
00000070: 3e84 9e39 13f3 19b9 69c5 ba3d f3d4 fa38
00000080: ff92 1bb8 694e 9b39 4c3c 9b3b ada0 5d36
00000090: 6561 a1bc 4025 8bb6 5ab0 e1bc 8183 7d3a
000000a0: ea82 02ba 1f3d 4837 abc9 8539 96e5 6636
000000b0: 80e8 963d e3c0 1eb9 3147 203d 3ff7 803d
000000c0: fce2 ec3a 7049 fe3c a276 523e 9852 113e
000000d0: 0ada 9239 c33d 24b7 4d0f bb3b 74a2 2cb9
000000e0: bc36 3eb9 738a 7bbb de47 3239 2c5a b6b8
000000f0: f6be 293d 7645 d63a 9e1f e53b 5e38 7a3d
00000100: c333 6038 40ce ed3c deb5 da3b b56b a83d
00000110: e143 9bb8 37ad 0eb9 8cf8 81bc f844 43bb
00000120: 71ed df37 3354 98ba 34a4 d03d a3d1 6d3d
00000130: 8082 613b d431 a8ba 57c3 a5ba 133f 26bb
00000140: abe0 c93d d21e dcbb 7aca 2a3e 3fde aa3e
00000150: 5910 38bc c537 183a c6f2 313c 152b d73a
00000160: 4943 7c35 8e97 5eb8 92a2 f93d 8abf 6ebc
00000170: ca45 53b7 3141 8bb8 0308 313d 5af1 cdb7
00000180: b3e5 223e 4f5f fe3d 966f a137 eb88 b737
00000190: 0c8e 113d f8d4 8ebb 8d5b 9cb6 7b15 aaba
000001a0: e1a9 6b35 adbe 263d d298 4abc 9ad7 863d
000001b0: 1ce1 cf36 b422 3cb8 e636 8337 f56f 44bb
000001c0: ecc9 f7b9 032f 14ba 1c01 bb3d 94bb 753a
000001d0: 8d93 073e eaaf 0c3c 21cd 9a3d 4532 9239
000001e0: 5f2a 85b7 2e97 a63c 8e72 a43d bcec 0737
000001f0: e0e9 a0bb fe7b 133e 2650 8eb7 beaa e9b8
00000200: da54 133c f91b 9d3b 5d15 a53c e365 9eb7
00000210: 76e1 213e 38c9 123e 4bb1 39bb a672 f8bc
00000220: 71cb 7437 209c 07bd e5c0 893b ffcf 74b8
00000230: d027 d5ba 67e6 1a3b b9e8 673d 729e d3ba
00000240: 1714 c9ba a7ff 503b 8688 cb3d 4614 1d3e
00000250: 30ee b1ba c97c 623e 02d1 c1ba d598 35bb
00000260: 987b 943d 4695 fa3d 5ac3 573d 49ae d536
00000270: c864 3db8 2f33 d838 6eba 31bc 924b 1eb7
00000280: cd50 7a3d 25ac 8b38 2973 41b8 57c1 d03d
00000290: 5d7c 903a cc58 4e38 f9ba a8b4 3deb a639
000002a0: f149 143c 0ff9 cc37 8521 a7b8 8a0f cbb7
000002b0: 244e d8bb 3761 b33d 071a 153c da7b f6b6
000002c0: a5de 9839 51c7 0737 18b9 773c 234b aeb6
000002d0: db88 acb9 4151 143e acf1 7f3d 29ac 013d
000002e0: a239 be38 4c47 9f3d 5a90 3638 dfe9 e737
000002f0: e5a0 7f3d 64d2 033a f918 0539 694e a73d
00000300: b082 8739 c68d 1c39 504f 1138 00e7 4b3d
00000310: 6d8a 3b37 db2b 48bb 2571 aab6 d7f1 8b3e
00000320: a6d3 0fbc e840 b3bd d1cb e4b7 03d0 89b8
00000330: 3bf7 09bc 47b9 bd3d d347 30b9 274c e5b9
00000340: 91c4 1339 655c cebb ed6f 31ba 9a16 b6bc
00000350: 46f5 05bd 8de1 86bc 40cb 2c39 b212 7dba
00000360: 9bee b03b dedd 353c 4ab4 6939 3c8c b938
00000370: bf9b b43d 7227 063b b48e e7b5 6115 e43d
00000380: 6d5a 5a3d fe7e 32bd d74e 8d35 5736 0638
00000390: 7cb1 7db7 2606 5db7 8802 4fbd 2593 4639
000003a0: 141f d5ba 2eb5 003e e3be 09b8 9f22 a1bc
000003b0: 6e2a 5538 c119 a4ba b1c7 5bb6 1ad0 27bd
000003c0: 2556 58bd 3dff 0238 c9c7 03b7 28c1 e7b8
000003d0: 2bf0 f4b7 f8e7 71bc 2852 4639 2f07 783d
000003e0: dbb6 6fbc 34c9 153b 61dd 35bd 8a14 7938
000003f0: 8e26 ffbc 37b5 4f38 9f42 d9b7 b481 5e3c
0.0011000085 8.7368506e-05 0.1658248 -0.04783393 -0.016703388 1.5339756e-05 1.4856693e-06 0.001991492
0.0030667658 0.004101354 -0.0018468449 0.016331634 0.00027456603 0.24780066 -0.009583133 4.01298e-05
0.017278524 -0.011259254 0.00053257775 0.004563865 -6.6851186e-05 1.2261333e-05 -0.00013303736 8.519921e-05
0.03887072 -3.8504808e-05 6.772134e-05 0.10174544 0.00030234637 -0.00014681769 0.09119684 0.00011960594
-3.709178e-05 0.00029622324 0.0047374126 3.3025092e-06 -0.019699762 -4.1468593e-06 -0.027549911 0.00096707797
-0.0004978614 1.193516e-05 0.0002551799 3.4406307e-06 0.073685646 -0.0001513991 0.039130393 0.062971584
0.0018073018 0.031040877 0.20553067 0.14191663 0.00028009742 -9.789542e-06 0.005708611 -0.00016463717
-0.00018140202 -0.0038382083 0.00017002175 -8.695232e-05 0.04144188 0.0016347605 0.0069922945 0.061088912
5.345397e-05 0.029029012 0.0066745123 0.082236685 -7.4036194e-05 -0.00013606703 -0.015865587 -0.0029795747
2.6694239e-05 -0.0011621773 0.10187569 0.058061253 0.003441006 -0.0012832233 -0.0012646717 -0.0025367185
0.09857305 -0.0067175413 0.16678801 0.33372685 -0.011234366 0.000580665 0.010861104 0.0016416038
9.397523e-07 -5.307007e-05 0.12189211 -0.014572034 -1.2592829e-05 -6.640179e-05 0.04322053 -2.4550292e-05
0.15907936 0.124205224 1.9244657e-05 2.1879057e-05 0.035535857 -0.004358884 -4.65982e-06 -0.0012976372
8.779153e-07 0.040709186 -0.012365537 0.065840915 6.195287e-06 -4.4855013e-05 1.5641981e-05 -0.0029973958
-0.00047261955 -0.0005652757 0.09131071 0.00093739596 0.1323988 0.008586863 0.075586565 0.00027884744
-1.5874566e-05 0.02033576 0.08029662 8.101746e-06 -0.0049106926 0.14402768 -1.6965041e-05 -0.00011142109
0.008992398 0.0047945944 0.020151788 -1.8882512e-05 0.15808663 0.14334571 -0.0028334435 -0.030328106
1.4590901e-05 -0.033107877 0.004203903 -5.8367845e-05 -0.0016262475 0.0023635866 0.056618426 -0.0016145243
-0.001534107 0.0031890662 0.09938149 0.15339765 -0.0013575014 0.22117914 -0.0014787021 -0.0027709503
0.07250136 0.12235503 0.052676536 6.368184e-06 -4.515497e-05 0.00010309216 -0.010847671 -9.435129e-06
0.061112214 6.660101e-05 -4.6122037e-05 0.10193127 0.0011023391 4.9196926e-05 -3.142848e-07 0.00031837253
0.009050832 2.4434672e-05 -7.969424e-05 -2.4206722e-05 -0.006601112 0.08758777 0.009100444 -7.3457895e-06
0.00029157582 8.093034e-06 0.015119813 -5.194351e-06 -0.00032908362 0.14484121 0.062486336 0.031658325
9.070641e-05 0.07777271 4.352662e-05 2.764625e-05 0.0624093 0.0005028604 0.00012693171 0.081692524
0.00025846576 0.00014930134 3.464456e-05 0.049780846 1.1178298e-05 -0.0030543718 -5.0795666e-06 0.27332947
-0.008778488 -0.08752614 -2.7274627e-05 -6.571414e-05 -0.008420761 0.092638545 -0.00016811425 -0.00043735022
0.00014092239 -0.0062976354 -0.00067686924 -0.022227574 -0.032704614 -0.016464973 0.00016478915 -0.000965397
0.0053995377 0.011100261 0.00022287774 8.847608e-05 0.08818769 0.0020470289 -1.7252373e-06 0.1113689
0.053308893 -0.04357814 1.0528264e-06 3.1998698e-05 -1.5121299e-05 -1.3174058e-05 -0.050539523 0.00018937567
-0.0016259872 0.12569115 -3.2841122e-05 -0.019669829 5.0822673e-05 -0.0012519882 -3.2749779e-06 -0.040969945
-0.05281653 3.1232124e-05 -7.854725e-06 -0.000110509165 -2.9198904e-05 -0.014764778 0.00018913357 0.060553726
-0.0146309985 0.0022855522 -0.044400577 5.9385355e-05 -0.031146314 4.9521415e-05 -2.5899439e-05 0.013580728

gats.0.lin_edge.weight f4 [335, 1]
00000000: 1b89 1f3a abf4 2439 175e 903e 4d91 b13e
00000010: a065 0dba bdd2 80b7 891a 5938 5642 e53a
00000020: 53c7 b8b9 7155 95bb dba8 9cbb dccd cd3b
00000030: 4842 37ba 1e30 193e 98c9 2ebc 3a67 b738
00000040: bb1a 913e 9666 b3bc c197 94b9 8e65 62ba
00000050: 13a3 9eb8 725f c137 020d 5238 3774 2f39
00000060: 00cf 953e 6ca5 33b8 c8d4 0e37 d1fe 623e
00000070: 08df a539 f050 69b9 f03c 8d3e 040b 84b8
00000080: 7241 d9b7 d369 3fb6 708a 063b 40f0 3537
00000090: ede5 a43c c8ea e9b6 4ffb 833e 691d 1139
000000a0: 71d4 30ba 297d 9d37 7ccd b839 d2cb 3637
000000b0: a5dd 323e d0c0 be38 356d 683e 0b82 8e3d
000000c0: 2f88 7239 7d44 eb3e 5852 a1bd 1db9 9fbd
000000d0: fe6c 4439 f47f a0b7 e13c 4fbb 5a8e 8bbb
000000e0: c3ec 2f3a e1ea f7bc fa4c 1638 3840 ac36
000000f0: ad93 8b3e 6ef9 b4bb 8e4a 0eba 1e7d 2a3e
00000100: fbce 3637 e055 743e ad11 b0bd a04f 96bd
00000110: 8de3 c0b8 e481 95b8 5a3b 69bd 4af9 d2ba
00000120: 36e9 8337 ee9d 8539 e210 593d f3c6 743b
00000130: 76ef fc39 5a4f 22b8 a31a 093a edee 6bbb
00000140: 2cd5 913d c126 7b3c 7b6f 983d f61d cf3e
00000150: 3477 cebc b430 d839 806e f43b 48a4 c937
00000160: d312 ec35 1cac 29b8 ab5c 633d 22da 62bd
00000170: 3a06 2cb7 6b91 3fb8 5e40 353c 27bb 84b6
00000180: 0bd3 213e 98ef 5b3d 34db 1538 6189 7837
00000190: a220 f33b 18d1 94bb 9edc 9f36 0e32 85ba
000001a0: c886 6836 1776 913c 3a15 ccbb cf9e 583e
000001b0: e041 2737 566b 3239 13b1 2e38 5034 cbbb
000001c0: 929c 35ba fb0d 0d3e cc71 973c 9167 573b
000001d0: e025 ad3d e837 383a d1ea f03c 8416 3c39
000001e0: 263b 0a37 d2ec 953c 7b87 063d 91fb 8b38
000001f0: 6df5 72bc 7f23 993d 450b ecb7 2d57 17b9
00000200: 0678 22bb 4ab9 54ba 87ac 983e b62c d6b7
00000210: c8cf 5b3e c9d7 033d 4cc7 97bb 467e 053f
00000220: 07b2 c437 2a98 1a3e 6e17 013c e171 7db8
00000230: 8979 54ba 07a9 263b 7232 153e 6e88 74ba
00000240: f4d0 18ba c96b 8a3b 54e1 593e 99cf 433d
00000250: 9c84 263a 9fbd 163e 4d6c 9bb8 801b bfbb
00000260: 9e7a 0a3e 97d0 e73d 8358 c73d 0700 e336
00000270: 5f7d 77b8 429c 21b9 0b5f b0bc 011b 38b7
00000280: 69a7 0a3e 5d9e d437 3764 d838 3290 283e
00000290: 0d93 423a 0192 77b7 d261 0eb6 7c96 2f3a
000002a0: 5189 8c3d 307d 1d37 98bb e839 11b9 01b8
000002b0: a522 bd3c 3a4f bb3e 7b2a d23d fe5f ba36
000002c0: 28c4 5c39 5dc9 5c37 51bb ed3e 4f0b 97b9
000002d0: 71c7 0cb8 8e31 393e 1128 cf3d 9f8b 3e3d
000002e0: 4421 e0b8 84d7 06bb 7f9f 6b39 564c 3f38
000002f0: 62ee 1d3d 5247 c2ba 22bf b5b8 9a6a 7b3c
00000300: 39c1 27ba ba22 4e39 dc48 b437 a1fd 163e
00000310: 09c3 923a 3b14 6c3b b792 3737 41cc cc3d
00000320: 30f6 ad3c 1005 103e 2862 dbb8 b873 e5b9
00000330: a318 d23d 92db ac3d f7aa e2b8 0bcc 07bb
00000340: 136f fa38 6483 4ebb 1b95 0bbb 3499 453e
00000350: 3532 a33e ac6c bb3e 4c66 bc3d aee9 0ebb
00000360: 2769 65ba 6ca7 b83c 343f 68bb 07e1 2739
00000370: 249b ea3d 3bb9 e63a 8317 eab5 7870 a73e
00000380: bbd8 c93e f40a 733e 1d5a 38b8 2248 1c39
00000390: 9e7f 57b9 6270 8c38 6570 0c3f 879d ee38
000003a0: 9353 fcbb ac39 763e 75f4 e9b8 cf6f 8abc
000003b0: 8c72 9738 7831 94b9 bec9 32b5 6e25 403e
000003c0: 8cfc a93e a755 3238 2628 f4b7 8ec9 e738
000003d0: ac9b 00b8 d7ae 483e 757d 3eb9 8901 993e
000003e0: 2cca fb3e e3ec 263b 8b4d 683e 0fbb 29b9
000003f0: 1de1 ae3e 1857 2438 53b5 acb7 c6ed e93e
0.0006085799 0.00015731405 0.28196785 0.34681168 -0.00053938664 -1.5356922e-05 5.1761544e-05 0.0017491083
-0.00035243723 -0.0045573045 -0.0047808713 0.006280644 -0.00069907727 0.14959762 -0.010668181 8.7453474e-05
0.28340706 -0.021899503 -0.00028341825 -0.00086363486 -7.564402e-05 2.3051838e-05 5.0080016e-05 0.00016732594
0.2925949 -4.2830987e-05 8.513402e-06 0.22167517 0.00031637424 -0.00022250763 0.27585554 -6.296302e-05
-2.5898891e-05 -2.8522816e-06 0.0020529293 1.0844378e-05 0.020129168 -6.9712733e-06 0.2577767 0.00013839234
-0.00067455234 1.877414e-05 0.00035248313 1.0895501e-05 0.17467363 9.09582e-05 0.22697909 0.069583975
0.00023129651 0.4595069 -0.07877034 -0.077989794 0.0001873262 -1.913307e-05 -0.003162198 -0.004258913
0.00067110005 -0.030263366 3.5834477e-05 5.1334755e-06 0.27261105 -0.0055228984 -0.00054279796 0.16649291
1.0896237e-05 0.23860884 -0.085971214 -0.07339406 -9.197658e-05 -7.129068e-05 -0.056941368 -0.0016096022
1.5725014e-05 0.00025485404 0.052994616 0.0037350028 0.00048243598 -3.869771e-05 0.00052301044 -0.0036000565
0.071207374 0.015329064 0.07443138 0.40452546 -0.025203325 0.00041235017 0.0074594617 2.4037567e-05
1.7588849e-06 -4.045303e-05 0.055508297 -0.05538381 -1.0253449e-05 -4.567338e-05 0.01106271 -3.955694e-06
0.15803163 0.05369529 3.5728517e-05 1.4813938e-05 0.0074196616 -0.0045415275 4.7642525e-06 -0.0010162012
3.4649147e-06 0.017756505 -0.0062281163 0.2115433 9.969313e-06 0.00017015389 4.1649746e-05 -0.0062013045
-0.0006927933 0.13774864 0.01848688 0.0032868127 0.0845449 0.00070273736 0.029408844 0.00017937465
8.239213e-06 0.018301401 0.032844048 6.6748944e-05 -0.014829022 0.074774735 -2.813864e-05 -0.00014432958
-0.0024790778 -0.00081147684 0.29819128 -2.5531608e-05 0.21465981 0.03218821 -0.0046319123 0.521458
2.3447921e-05 0.15097108 0.007879121 -6.042596e-05 -0.00081052684 0.0025430338 0.14570025 -0.0009328191
-0.0005829476 0.004224275 0.21277362 0.047805402 0.0006352158 0.14720772 -7.4111485e-05 -0.0058321357
0.13523337 0.11319082 0.09733679 6.7651304e-06 -5.900615e-05 -0.00015412367 -0.021529695 -1.0973542e-05
0.13540424 2.5346113e-05 0.00010318349 0.16461256 0.0007422425 -1.4756341e-05 -2.1216588e-06 0.0006698144
0.068621285 9.387077e-06 0.00044390257 -3.0928353e-05 0.023087809 0.36583883 0.10262009 5.554407e-06
0.00021053909 1.3159905e-05 0.46431974 -0.0002880939 -3.3564345e-05 0.1808531 0.10115064 0.04651987
-0.000106873485 -0.0020575235 0.00022470763 4.5609042e-05 0.038557418 -0.001482228 -8.666354e-05 0.01534524
-0.0006399337 0.00019658628 2.14916e-05 0.14745189 0.0011197041 0.00360228 1.094181e-05 0.09999896
0.021235555 0.14064431 -0.00010461017 -0.000437645 0.10258605 0.08440317 -0.000108083645 -0.0020720984
0.00011941618 -0.003151142 -0.002129859 0.19296724 0.31874242 0.36606348 0.09199199 -0.0021806764
-0.00087513257 0.02254077 -0.0035438063 0.0001601019 0.11455372 0.001760281 -1.7441201e-06 0.32702994
0.39423165 0.23734647 -4.3952943e-05 0.00014904191 -0.00020551539 6.696653e-05 0.54859 0.00011378066
-0.0077003925 0.24045438 -0.000111558395 -0.016899018 7.221577e-05 -0.00028265617 -6.660374e-07 0.18764278
0.3320049 4.2518277e-05 -2.9105762e-05 0.00011052481 -3.066256e-05 0.19597946 -0.00018166548 0.29883984
0.49177682 0.0025470785 0.2268583 -0.0001618678 0.34156123 3.918176e-05 -2.0588433e-05 0.4568922

gats.1.att f4 [1, 5, 67]
00000000: f873 5532 adb8 13b0 e3e1 802f b261 e5b3
00000010: 128f 1232 8c0a 22b4 9bae dd2f 0f08 90b4
00000020: 5b78 1935 aef7 c8b0 5873 4335 1e72 7cb0
00000030: d474 2b37 7a85 3535 b8e7 80b4 0e16 a534
00000040: 25ec 8db0 6617 53b4 da70 46b5 eae0 52b0
00000050: 420f 3b37 1699 2d36 99a5 2536 6d30 4ab1
00000060: 8db2 6930 1008 fb34 ce1d b133 c885 0134
00000070: 8d5c c8b2 152b df31 1a90 a1b4 c7dc 72b1
00000080: 7578 75b4 49d0 8aaf ff06 2bb0 0a60 cfb1
00000090: 3405 6a30 b3aa aab4 e3f5 ea34 93b4 eb2f
000000a0: b7bd 092f 38c1 cc30 3b7d 33b0 e530 9533
000000b0: 95d1 e9b3 de0a 0235 0033 b1b3 f07e 6830
000000c0: c578 a2b4 4a42 a1af 3d17 8d31 f75e ba2f
000000d0: 055c 1d37 b771 e934 1361 7fae cfef 35b4
000000e0: 9fc2 87b4 cf78 a7b3 4c3d e936 b6ef 14b3
000000f0: 7edb 13b1 47a9 5134 82a1 94b1 ff39 6735
00000100: 3aaf f1af ed4a 0930 5c0b 8fae ae57 5532
00000110: fd05 14b0 5deb 802f f426 e5b3 7691 1232
00000120: 8322 21b4 7d90 dd2f e0eb 8fb4 dd5c 1935
00000130: ebf9 c8b0 9270 4335 955a 7cb0 6281 2b37
00000140: 90c0 3535 b3d5 80b4 4f04 a534 03d2 8eb0
00000150: 53f2 52b4 df57 46b5 b3ac 52b0 d319 3b37
00000160: 21b9 2d36 03cb 2536 9811 4ab1 fe8f 6930
00000170: c74a fb34 7ae3 b033 9561 0134 4c41 c8b2
00000180: f242 de31 a368 a1b4 0103 74b1 732f 75b4
00000190: 3288 8aaf 50e9 2ab0 f4bb d0b1 69dd 6930
000001a0: bb75 aab4 14d1 ea34 008c eb2f e777 092f
000001b0: 24c1 cc30 0c3f 33b0 f62d 9733 33a7 e9b3
000001c0: f331 0235 b702 b1b3 b3a5 6830 5b5b a2b4
000001d0: 76b6 a4af 4ab4 8c31 ee01 ba2f 236b 1d37
000001e0: bc1e ea34 0a6a 80ae 7ada 35b4 2181 87b4
000001f0: 565d a7b3 414f e936 6ac5 14b3 14d4 13b1
00000200: 39a6 5134 c79a 94b1 112b 6735 fabc f1af
00000210: c93d 0930 84df 8eae 6c7d 5532 bf47 14b0
00000220: 62e7 802f bd25 e5b3 6394 1232 b36f 20b4
00000230: 3496 dd2f 18eb 8fb4 076f 1935 06ec c8b0
00000240: ca7e 4335 d2a9 7cb0 f884 2b37 77e8 3535
00000250: 6bd7 80b4 8bf0 a434 20e4 89b0 d2ef 52b4
00000260: ea46 46b5 e286 52b0 d123 3b37 71b5 2d36
00000270: f4cc 2536 c742 4ab1 0b96 6930 8036 fb34
00000280: 8105 b133 635b 0134 f544 c8b2 8f53 df31
00000290: 0262 a1b4 7c56 72b1 4f26 75b4 8a91 8aaf
000002a0: 13e3 2ab0 c9c8 d0b1 7cdb 6930 aa69 aab4
000002b0: 5ac7 ea34 ce54 eb2f b474 092f 48eb cc30
000002c0: 0266 33b0 4e5d 9833 d8a0 e9b3 ef2c 0235
000002d0: 33fb b0b3 6917 6b30 965a a2b4 43cd a2af
000002e0: 7a8a 8d31 8d45 b92f 806f 1d37 315e ea34
000002f0: 6673 80ae 2fde 35b4 314b 87b4 da5c a7b3
00000300: 5c53 e936 beb1 14b3 e5d5 13b1 3166 5134
00000310: 277d 94b1 8326 6735 11d1 f1af ce2e 0930
00000320: cbbc 8eae 7161 5532 8ed1 13b0 a2d9 802f
00000330: 8b50 e5b3 cb95 1232 3f95 21b4 35a2 dd2f
00000340: ccfe 8fb4 6f70 1935 3505 c9b0 e374 4335
00000350: b45e 7cb0 478c 2b37 8da1 3535 31e3 80b4
00000360: 250b a534 e05e 8db0 b40b 53b4 0f6a 46b5
00000370: d2de 52b0 4a1c 3b37 00a3 2d36 e4b6 2536
00000380: e73c 4ab1 bcb0 6930 faae fa34 e5f4 b033
00000390: 4177 0134 1652 c8b2 0d67 de31 ff7f a1b4
000003a0: c16d 73b1 1160 75b4 3bcc 8aaf 77fa 2ab0
000003b0: 5c2d d0b1 7df6 6930 3794 aab4 fcf3 ea34
000003c0: f3bc eb2f 0e7e 092f 9dbc cc30 0876 30b0
000003d0: e1aa 9633 73c1 e9b3 0a0e 0235 031e b1b3
000003e0: f5fc 6a30 1471 a2b4 9b40 a4af 46c4 8d31
000003f0: ec00 b02f 9169 1d37 c2ee e934 2582 80ae
1.24246e-08 -5.374073e-10 2.3443567e-10 -1.0681414e-07 8.530849e-09 -1.5091263e-07 4.032373e-10 -2.6827954e-07
5.717208e-07 -1.462231e-09 7.281101e-07 -9.1839236e-10 1.0219595e-05 6.762199e-07 -2.4010455e-07 3.0749692e-07
-1.0326217e-09 -1.9659419e-07 -7.392497e-07 -7.6717177e-10 1.1149621e-05 2.5868117e-06 2.4683306e-06 -2.9422396e-09
8.501864e-10 4.675826e-07 8.247626e-08 1.206273e-07 -2.3325152e-08 6.495052e-09 -3.0093435e-07 -3.5341132e-09
-2.2861225e-07 -2.525005e-10 -6.221938e-10 -6.0354113e-09 8.51361e-10 -3.1789168e-07 4.3764803e-07 4.2874557e-10
1.2527478e-10 1.489787e-09 -6.5297784e-10 6.947247e-08 -1.0888031e-07 4.844459e-07 -8.2514816e-08 8.45815e-10
-3.0262723e-07 -2.933283e-10 4.106282e-09 3.390068e-10 9.379354e-06 4.348237e-07 -5.8066506e-11 -1.694418e-07
-2.5287315e-07 -7.7985185e-08 6.951077e-06 -3.467695e-08 -2.1516082e-09 1.9526225e-07 -4.325728e-09 8.61386e-07
-4.396215e-10 4.9946786e-10 -6.504905e-11 1.2418168e-08 -5.3850596e-10 2.34503e-10 -1.0670729e-07 8.5313925e-09
-1.5006849e-07 4.030233e-10 -2.6807447e-07 5.7132075e-07 -1.4622946e-09 7.280697e-07 -9.180579e-10 1.02225185e-05
6.770797e-07 -2.3997345e-07 3.073678e-07 -1.0391549e-09 -1.9645931e-07 -7.388862e-07 -7.6642975e-10 1.1152081e-05
2.5886768e-06 2.4705084e-06 -2.940487e-09 8.496953e-10 4.68068e-07 8.2370164e-08 1.2049561e-07 -2.3312758e-08
6.468661e-09 -3.006472e-07 -3.550838e-09 -2.2834665e-07 -2.5198826e-10 -6.2177197e-10 -6.0749645e-09 8.507955e-10
-3.1750628e-07 4.373802e-07 4.2845727e-10 1.2502675e-10 1.4897847e-09 -6.5209416e-10 7.039846e-08 -1.0880321e-07
4.850146e-07 -8.2426986e-08 8.463658e-10 -3.024132e-07 -2.9961073e-10 4.0950328e-09 3.3834574e-10 9.382874e-06
4.360826e-07 -5.8396024e-11 -1.693642e-07 -2.5239663e-07 -7.793521e-08 6.9531675e-06 -3.4638482e-08 -2.1511868e-09
1.9525113e-07 -4.324963e-09 8.6116876e-07 -4.397192e-10 4.992811e-10 -6.497117e-11 1.2426749e-08 -5.3944044e-10
2.3447472e-10 -1.0670508e-07 8.532058e-09 -1.4941797e-07 4.0306392e-10 -2.680688e-07 5.715851e-07 -1.4618997e-09
7.2827663e-07 -9.1918395e-10 1.02233535e-05 6.7766035e-07 -2.3998595e-07 3.0722398e-07 -1.0032899e-09 -1.964502e-07
-7.386394e-07 -7.6589235e-10 1.1154408e-05 2.5884622e-06 2.4706214e-06 -2.9432827e-09 8.497813e-10 4.6792047e-07
8.243206e-08 1.2047308e-07 -2.3314422e-08 6.4996537e-09 -3.0059897e-07 -3.5264796e-09 -2.283134e-07 -2.5205465e-10
-6.216833e-10 -6.0764234e-09 8.507681e-10 -3.1741848e-07 4.3730944e-07 4.2806508e-10 1.2501539e-10 1.4909824e-09
-6.526478e-10 7.0950236e-08 -1.0879165e-07 4.849416e-07 -8.2413315e-08 8.552577e-10 -3.024076e-07 -2.9613476e-10
4.119383e-09 3.3700723e-10 9.38389e-06 4.365443e-07 -5.841265e-11 -1.6937769e-07 -2.5200418e-07 -7.793433e-08
6.9536454e-06 -3.462059e-08 -2.15129e-09 1.9501819e-07 -4.321595e-09 8.611025e-07 -4.3986195e-10 4.9906823e-10
-6.490949e-11 1.2420387e-08 -5.3776084e-10 2.3437702e-10 -1.0678294e-07 8.5323775e-09 -1.5048589e-07 4.031492e-10
-2.6821215e-07 5.7160554e-07 -1.4626155e-09 7.2813253e-07 -9.1811647e-10 1.0225055e-05 6.766284e-07 -2.400716e-07
3.0741754e-07 -1.0286065e-09 -1.9655164e-07 -7.3915083e-07 -7.67142e-10 1.1152655e-05 2.5873887e-06 2.4693372e-06
-2.9429488e-09 8.501606e-10 4.669344e-07 8.240185e-08 1.2057446e-07 -2.3320393e-08 6.472766e-09 -3.0081716e-07
-3.5423542e-09 -2.2852352e-07 -2.5247168e-10 -6.220157e-10 -6.0587535e-09 8.5115187e-10 -3.1772808e-07 4.3763418e-07
4.2880507e-10 1.2504861e-10 1.4896561e-09 -6.419616e-10 7.016002e-08 -1.0885096e-07 4.8449203e-07 -8.247664e-08
8.548818e-10 -3.0257127e-07 -2.987733e-10 4.125954e-09 3.2014869e-10 9.382508e-06 4.357335e-07 -5.8438844e-11

gats.1.bias f4 [67]
00000000: 12f0 6736 6a0e 0bb8 850b d736 f03b f836
00000010: 9226 8236 37d9 81b9 162a 87b5 cdb9 82b8
00000020: 8bcf eb38 fa39 0637 efdb e738 406b 4f37
00000030: b533 19bb bbc7 8338 4d2c d9b7 c571 293a
00000040: 633f 19b9 e53f 3fb7 48cb 3a3a acaf e5b8
00000050: b64a 0bbb 52d5 f7b9 3064 afba 4bcc 7db9
00000060: 3ff9 80b7 76ad 49b9 49dc 7138 6127 b5bb
00000070: 111d cab9 cc4a cd37 bcea 65b8 2bc3 b1b8
00000080: 2154 83b8 45b7 dfb4 d14c 8ab7 7382 fbba
00000090: c8ea 8237 95ee c038 a080 893a 2258 bd37
000000a0: 1d14 81b7 7afa dcb8 673e 5eb8 652d 1cb2
000000b0: 5f9b 56b8 f94b 8e39 c035 0138 1020 31b8
000000c0: 7c69 c6b8 a9e5 0db8 4d20 8cb8 3017 42b7
000000d0: bbd0 2dba 0a5d 2bb8 c4d8 5d37 c356 8bb8
000000e0: 9a84 6a39 81d6 3f37 c5fd 9eba fa76 7d38
000000f0: 63c3 c4b8 bac4 7a3a d403 d2b9 ce9a 343a
00000100: 8c31 fab7 458c 05b7 c548 8136
3.4561422e-06 -3.3153607e-05 6.4088404e-06 7.3979536e-06 3.878792e-06 -0.00024766635 -1.0070532e-06 -6.233491e-05
0.00011244331 8.000521e-06 0.00011055904 1.2363133e-05 -0.0023376767 6.2837695e-05 -2.5889045e-05 0.00064637914
-0.0001461483 -1.1399364e-05 0.0007125628 -0.00010952292 -0.0021254248 -0.00047270447 -0.0013381299 -0.00024204065
-1.5374853e-05 -0.00019233473 5.7664034e-05 -0.005528376 -0.00038550099 2.4472734e-05 -5.4816468e-05 -8.4763706e-05
-6.262237e-05 -4.1670333e-07 -1.6486652e-05 -0.0019188657 1.5606536e-05 9.199713e-05 0.0010490604 2.2571596e-05
-1.5387364e-05 -0.000105370724 -5.298704e-05 -9.090717e-09 -5.1166277e-05 0.00027140955 3.0806055e-05 -4.222995e-05
-9.461024e-05 -3.3830907e-05 -6.681737e-05 -1.15687e-05 -0.00066305295 -4.0856226e-05 1.3223096e-05 -6.644197e-05
0.00022365377 1.143443e-05 -0.0012130073 6.0430706e-05 -9.382402e-05 0.00095660577 -0.00040057173 0.0006889523
-2.9825394e-05 -7.960077e-06 3.852971e-06
