inference/SymEx/model_checkpoints/SymEx_model_0.pt (torch, 503011 bytes, 21 tensors)

gats.0.att f4 [1, 5, 67]
000000 61 31 34 3f 21 25 27 bf 7b 52 8d be 72 c4 86 bd
       0.70387846 -0.6529103 -0.2760199 -0.06580438
000010 03 db 5a 3b 68 b2 d4 b7 aa 97 55 ba e1 ab a0 be
       0.0033394701 -2.5355446e-05 -0.0008147905 -0.31381133
000020 1f 4d 7b 3b a2 22 f4 3e 56 08 3f b8 70 e9 56 3a
       0.0038345528 0.47682673 -4.5545712e-05 0.0008198237
000030 bd bd 6e 3f 47 34 1a 3f f5 b0 69 3e 9b ce 32 3c
       0.9325827 0.6023602 0.2282141 0.010913516
000040 67 73 ee 3e 4c 08 ce 3b 7c 52 61 3e 0b 40 0d 3f
       0.4657242 0.00628761 0.22004122 0.55175847
000050 6f 2a 09 39 3b 47 03 3f b9 24 67 bc a4 0e a9 3e
       0.00013081146 0.51280564 -0.014107876 0.33018982
000060 78 ee 90 3c f1 cc eb 3e de 5c 22 b9 d8 cb 1d bf
       0.017691836 0.46054795 -0.0001548412 -0.61639166
000070 10 e5 0d 3c f7 b7 8c b9 0e b3 80 bf c0 7a 23 bf
       0.00866057 -0.00026839945 -1.0054643 -0.63859177
000080 e5 70 8c 3b d8 89 2c bb 85 2a db 3c be 9e 0e b9
       0.004285919 -0.0026327278 0.026753673 -0.00013601311
000090 ff 86 f7 be 4b 10 a7 be af e3 43 bf 17 93 22 bf
       -0.4834518 -0.32629618 -0.7651929 -0.6350569
0000a0 37 77 32 bf e2 5b 02 bf c8 e0 cb 3c a4 51 09 3f
       -0.6971316 -0.5092145 0.024887457 0.536402
0000b0 b7 17 3e bf 4e 33 9b 3f 08 f8 a8 ba 43 5d 34 3f
       -0.74254936 1.2125032 -0.0012891302 0.70454806
0000c0 98 4a 34 bb 2c 1a 4e 39 6b aa 84 b9 ac 69 17 3f
       -0.0027510282 0.0001965544 -0.00025303973 0.5914562
0000d0 c0 c6 4b 3e 5a ae 44 b9 68 4c 15 b7 8f 61 e0 3b
       0.19900036 -0.00018756968 -8.898882e-06 0.0068475674
0000e0 9a 43 6b 3e 8f a0 70 3e d4 2d 00 b8 3f cf fe bb
       0.22975007 0.23498748 -3.056026e-05 -0.0077761705
0000f0 8e 85 d8 be 77 6d 37 3f 08 71 fa be 4f 89 72 3b
       -0.42289394 0.71651405 -0.4891436 0.0037008112
000100 93 af 89 bf 69 e1 11 3f 7e 4a 79 3c ad 33 50 3f
       -1.0756706 0.56984574 0.015215514 0.8132885
000110 e6 b3 a9 bc 1e 02 17 3f 51 2e e1 bc 46 e3 87 3f
       -0.020715665 0.58987606 -0.027487906 1.0616233
000120 c5 7e 28 bf 07 5f 7e 3d 2d 40 0d be 0b cb ea 3e
       -0.65818435 0.062102344 -0.13794012 0.45858034
000130 2c f2 64 bc 98 08 ad b9 69 67 04 3f e9 b1 82 3d
       -0.013973754 -0.00033003534 0.5172029 0.0638159
000140 a2 1c cf 3b f7 4e 98 3d 55 26 8e b9 17 b2 f6 bc
       0.006320552 0.07436936 -0.0002711291 -0.030114217
000150 13 d0 ed be 6b 6c 1b 3f 6b c6 4d 3c 15 45 e0 b8
       -0.4644781 0.6071231 0.012559514 -0.0001069402
000160 d8 79 03 be 74 00 0f 3d d7 33 29 3f d9 8d b1 3d
       -0.12839448 0.03491254 0.66094726 0.086696334
000170 bb ca 5e 3f 61 63 ec b6 4d b0 dd 3c bb 90 5e bb
       0.8702809 -7.0449173e-06 0.027061606 -0.0033960778
000180 f5 49 c3 b9 09 78 40 bf 2b ab 9e bc 9c 07 72 3b
       -0.000372484 -0.7518316 -0.019368729 0.0036930805
000190 4e 17 2c 3c c2 76 8c 3d 6b 60 1d bf 97 40 0c bd
       0.010503603 0.06858589 -0.6147525 -0.034241285
0001a0 39 02 02 3e d8 58 c2 be 65 aa 02 bd a7 b9 84 bb
       0.1269616 -0.37958407 -0.031900782 -0.004050452
0001b0 39 8a 92 3e 09 bb da 3c 1c 42 51 3d 38 05 23 bb
       0.2862108 0.026700513 0.051088437 -0.0024874937
0001c0 2d 40 21 bf d1 3a 38 ba e5 dc 21 3e 9f 48 b6 b8
       -0.6298855 -0.00070278073 0.15806921 -8.691963e-05
0001d0 22 0d 3e bf 9c 4f 04 bf 71 09 57 bb ba 8d 06 3d
       -0.7423879 -0.51683974 -0.0032812024 0.032850005
0001e0 44 17 0c b9 18 11 4d b5 bc e0 22 3e 87 a2 6a 3d
       -0.00013360108 -7.6393326e-07 0.15906042 0.057283904
0001f0 b7 d5 cf b9 ac ef 89 b8 48 06 9a bc 3a eb 87 3e
       -0.00039641347 -6.5773114e-05 -0.018801823 0.2654665
000200 3f fe 5e 3c 06 7c 1c 3f d3 39 14 3d b6 01 83 3f
       0.013610422 0.61126745 0.036187958 1.0234897
000210 31 32 bd be ab 03 1b 3f 7e 49 31 3f 50 5b 51 bb
       -0.36952356 0.6055247 0.69252765 -0.0031945296
000220 5f dc f1 3e db 0a 08 bc 08 48 f8 be 0f de 09 3f
       0.47238442 -0.008303369 -0.48492455 0.5385446
000230 6b 88 bb bb bf ae 40 bd 85 18 18 3b 36 b1 1c 3b
       -0.0057230494 -0.04704165 0.0023207974 0.0023909337
000240 de 35 6e ba c8 df 44 3e d5 43 af bc cb e7 54 37
       -0.00090870063 0.19225991 -0.02139465 1.2690153e-05
000250 b5 03 b9 3e f1 b4 ae 3e f4 48 df bb 4b ce 2e 3b
       0.3613564 0.34122422 -0.0068141166 0.0026673253
000260 86 d8 b5 bc 11 19 87 bc 43 47 cf be 5d b2 27 3e
       -0.022197973 -0.016491445 -0.40484056 0.16376634
000270 83 70 c9 3e 12 ce 43 3e 0f 0c 90 3c 9c bc f8 3e
       0.39343652 0.19121578 0.017583875 0.48581398
000280 48 dd d3 be 4c 89 b5 3e 2d d7 ae bb 98 fd b6 be
       -0.41379762 0.35456312 -0.0053357095 -0.35740352
000290 ef af 94 3a c4 2c b3 3e 90 ae 10 3e 12 6a 12 3f
       0.0011343936 0.3499509 0.1412909 0.571931
0002a0 93 84 75 3b 4a 2b 25 ba a7 21 23 3c a3 a1 36 3d
       0.0037463054 -0.0006300701 0.009956754 0.044587743
0002b0 99 4f 29 bf 32 b7 5b bb 12 0c f5 39 ee 65 5c bd
       -0.6613708 -0.003352594 0.00046739035 -0.053808145
0002c0 44 75 80 3d 54 42 5e 3f 3a e8 46 bb d7 21 f8 3e
       0.06272367 0.8681996 -0.003035082 0.48463318
0002d0 3e 1f bd 3e 5c 7d 18 3f cd 3b 00 b9 47 52 be 3e
       0.36937898 0.59566283 -0.00012229309 0.37172148
0002e0 94 24 0a 3f 17 7f 85 3f 4b 90 f3 3d 30 4c 2b b9
       0.53962064 1.042941 0.11892756 -0.00016336213
0002f0 77 99 a3 36 16 76 25 bf c9 16 01 3c c6 04 4b ba
       4.875644e-06 -0.6463331 0.007878968 -0.0007744547
000300 b3 c7 d6 37 56 a4 ff 3d 64 29 d1 3b 04 95 90 3f
       2.560378e-05 0.124825165 0.006383108 1.1295476
000310 9b a7 e6 bc 14 e2 72 3d c0 6a 55 3e 8f 4d 19 ba
       -0.028156092 0.059297636 0.20841503 -0.0005848044
000320 56 9e 81 3f ea 2f 8a be 4e 78 2c b9 4b 54 23 bf
       1.0126445 -0.2698968 -0.00016448015 -0.63800496
000330 64 37 e9 b9 a2 d9 bf b9 9d f8 8a 39 59 cf a0 3e
       -0.00044482492 -0.00036592508 0.00026506642 0.31408194
000340 32 dc 8c bd cf c4 5c 3b c5 3f 91 3b 39 2e 6d bf
       -0.068779364 0.0033686643 0.0044326507 -0.92648655
000350 6c 08 e0 3e 3d 21 72 be 26 0f 8a ba 3b a0 1a be
       0.43756425 -0.23645492 -0.0010533079 -0.15100186
000360 96 42 90 3e f7 dd bc bb d2 12 78 3c cc 7d 20 bb
       0.281758 -0.005763765 0.015141206 -0.0024489043
000370 c1 ae 90 bb 11 9e 4a bf e9 ee 17 3b 03 00 80 3b
       -0.0044153635 -0.7914744 0.0023183173 0.0039062514
000380 b7 54 25 3f d2 39 00 3c 54 70 28 bf df 82 19 b9
       0.6458239 0.007826285 -0.657964 -0.0001463997
000390 76 8a 4a bf ee c7 21 bc 73 6d 6c bf cb 62 54 bf
       -0.79117525 -0.009874327 -0.92354506 -0.82963246
0003a0 4b 43 10 bb 58 19 26 bd 9b cb 20 ba c2 35 72 bd
       -0.0022012766 -0.040551513 -0.0006133855 -0.0591333
0003b0 55 09 f6 3e 6e 13 a4 bb 8f 25 8c bb 21 7d 3f bc
       0.48053995 -0.005007199 -0.0042769383 -0.011687548
0003c0 2a 25 3c 3d a7 37 d1 3e 5f 71 0d bc cb 9b af bc
       0.04593388 0.40862772 -0.008632987 -0.021436593
0003d0 5d 70 26 bf 18 c1 ef bb e7 e7 52 bb 8a a7 57 b9
       -0.650152 -0.0073167197 -0.0032181682 -0.00020566411
0003e0 ab 0b 78 3e a9 5e 83 b8 9b 33 0d 3b 7a 3a b8 bf
       0.24223201 -6.2641986e-05 0.0021545652 -1.4392846
0003f0 91 53 02 3f 70 b7 10 bf c6 a1 77 b9 22 68 1c 38
       0.5090876 -0.56529903 -0.00023616021 3.729028e-05

gats.0.bias f4 [67]
000000 aa f9 56 bc 1c 72 61 bd e5 28 5c bd ff 10 43 bd
       -0.013121048 -0.055040464 -0.053749938 -0.04762363
000010 cc 4f 2a bd 27 33 fb bc 33 b9 be bd ad 7a 2d bd
       -0.041580006 -0.03066404 -0.09312668 -0.04235332
000020 ab 6b f7 bc bb 1a 1a 3d d9 dc b3 bc 4e 2d e9 3b
       -0.030202707 0.03762315 -0.021955894 0.0071159964
000030 3a c3 02 bd 16 c5 9a bc c8 59 e2 3c d5 c5 e0 3b
       -0.031924464 -0.018892806 0.027630702 0.006859521
000040 f6 ad cd bd 9c ae 66 bc 92 08 a9 bd 85 09 be bc
       -0.10042946 -0.014079716 -0.08253588 -0.023197899
000050 2c 36 1f bd 7a c1 49 ba b9 4c 52 bd f5 ab 13 3b
       -0.03887002 -0.0007696372 -0.0513427 0.0022532914
000060 6c 3f f2 3c f6 b8 4f 3c e3 34 a5 bc 7a 8e 33 bd
       0.029571258 0.0126783755 -0.02016682 -0.043837048
000070 35 75 1b bd 46 21 d9 bc b7 ad 84 3c f5 32 49 bd
       -0.037953574 -0.026505124 0.016196115 -0.049120862
000080 26 f9 15 bd 9b 84 8d 3b 25 c2 34 bd 59 8c 2d bd
       -0.03661456 0.0043187863 -0.044130463 -0.042370174
000090 f4 3d 60 bd fd f4 3c bc c1 22 8d 3c cc 5c 46 bd
       -0.054746583 -0.011533019 0.017228486 -0.04842834
0000a0 44 62 8c 3c 2a a6 00 bd e6 fb 94 bd f4 c1 44 3b
       0.0171367 -0.031408466 -0.07274608 0.0030022832
0000b0 b0 06 00 3c 9f b8 1d bd c6 e9 da bc 09 46 5c 3c
       0.007814094 -0.038506147 -0.0267228 0.013444432
0000c0 70 44 d1 39 93 24 70 bc d1 01 10 bd eb 6b 22 3d
       0.00039914576 -0.0146571575 -0.035157982 0.0396537
0000d0 a8 ab aa bc df c8 60 39 46 a8 87 b4 df cd a2 bd
       -0.020833805 0.00021437135 -2.5268145e-07 -0.07949423
0000e0 9f 68 cc bc 72 6a 62 bc 6c 76 f7 38 3d 6b 11 bd
       -0.024952231 -0.013819324 0.000117999356 -0.03550266
0000f0 e1 bd 33 3b 66 c6 32 bd d3 67 9a bd 25 04 03 bc
       0.002742641 -0.04364624 -0.07539334 -0.007996594
000100 85 ab 69 bd dd d7 89 bb 75 7c b8 3b
       -0.05704834 -0.004206641 0.005630071

gats.0.lin_l.weight f4 [335, 67]
000000 c1 05 00 00 8a 8d 00 80 88 42 79 bd 70 6f 15 3d
       2.064e-42 -5.0775e-41 -0.060854465 0.03648323
000010 b9 bc 64 3a 9f a3 00 80 61 83 4d 3d 94 71 b3 bd
       0.00087256316 -5.8696e-41 0.05017412 -0.08761898
000020 49 4c 00 00 97 9f 00 00 8f e4 cd bb 11 48 00 80
       2.7366e-41 5.725e-41 -0.00628335 -2.5853e-41
000030 99 5d 00 00 b5 ae 00 00 3d a3 00 00 1d 42 00 00
       3.3577e-41 6.2673e-41 5.8559e-41 2.3717e-41
000040 d2 ae 00 80 57 56 00 00 e6 6b 81 bd d4 49 7c 3d
       -6.2714e-41 3.0973e-41 -0.06319408 0.061593845
000050 61 41 00 00 13 43 96 be 83 ad 00 80 8b a5 1d 3f
       2.3454e-41 -0.2934805 -6.2244e-41 0.61580724
000060 c6 40 4d bc 50 8f 3c bc 4d d7 ad bd e8 6f 7d be
       -0.01252765 -0.011508778 -0.08488331 -0.2474972
000070 5a 22 19 3f 82 8b 81 3c 0f 50 00 00 85 49 f3 bd
       0.5981804 0.015813593 2.872e-41 -0.11879257
000080 50 a4 7e bd fa 4d 2f 3d 75 3c cb bd d8 b1 35 3e
       -0.06216842 0.042798974 -0.09923641 0.17743623
000090 66 84 7c bc 1c 43 69 ba ab 4e 00 80 86 05 00 80
       -0.015412426 -0.00088982447 -2.8221e-41 -1.981e-42
0000a0 81 f5 22 be 89 c6 10 3d 72 f4 18 3f 60 a6 4e bd
       -0.15913965 0.035345588 0.59747994 -0.050451636
0000b0 8b 30 00 80 ac b3 6a 39 79 5e ec b5 5c 8d 4b 3f
       -1.7414e-41 0.00022382912 -1.7610865e-06 0.7951257
0000c0 cd 55 00 80 49 a6 00 80 9a 69 00 80 ad 26 00 80
       -3.078e-41 -5.9652e-41 -3.7883e-41 -1.3874e-41
0000d0 ef 4e 00 80 62 82 00 80 73 2f 00 80 82 73 00 00
       -2.8316e-41 -4.6773e-41 -1.7022e-41 4.1436e-41
0000e0 20 52 00 00 dc 52 00 00 64 92 00 00 4c aa 8f be
       2.9461e-41 2.9724e-41 5.2515e-41 -0.28059614
0000f0 72 09 89 3d ca 45 00 80 c2 44 00 80 b1 a8 00 00
       0.06691255 -2.5036e-41 -2.4666e-41 6.0515e-41
000100 7e 5a 00 00 b7 64 00 00 68 c3 44 bd 4e 20 00 00
       3.2462e-41 3.613e-41 -0.048037916 1.1589e-41
000110 6f 07 00 80 6a 9a 23 3e 75 01 dc bc ae b2 71 b9
       -2.667e-42 0.15976873 -0.026856164 -0.00023050114
000120 c1 45 00 80 f0 a3 55 bd e8 ce 48 3a c9 0f 00 00
       -2.5023e-41 -0.052158296 0.0007660226 5.663e-42
000130 34 81 00 80 82 f4 0e 3c a0 44 00 00 24 49 00 00
       -4.635e-41 0.008725287 2.4618e-41 2.6238e-41
000140 8c 44 00 00 dc 8f 00 00 99 42 00 00 b6 49 00 00
       2.459e-41 5.1607e-41 2.3891e-41 2.6443e-41
000150 05 40 00 80 62 31 89 3e 0a ed bc 3e 8f 67 00 80
       -2.2966e-41 0.2679549 0.36899596 -3.715e-41
000160 9e b0 78 be 88 4e 00 00 74 9a 15 be ce aa 1a 3d
       -0.24286124 2.8172e-41 -0.146097 0.03776055
000170 9d c7 40 b8 95 95 03 bd 38 9c 49 bd d3 c6 8a bc
       -4.596227e-05 -0.032125074 -0.049221247 -0.01694051
000180 d9 b6 39 bb 3e 5e 00 80 bb da ac 3e 9d 70 6b bd
       -0.0028337745 -3.3808e-41 0.33760628 -0.057480443
000190 78 fc ef 3b c0 95 cb 3c 14 c0 ef bb b4 d2 ec bb
       0.007323798 0.02485168 -0.0073165987 -0.007227266
0001a0 f9 40 dc b9 45 28 00 00 df 3e 00 00 9e d6 6e bd
       -0.00042010078 1.4446e-41 2.2554e-41 -0.058310144
0001b0 e8 07 2f 3d ae 62 9f 3c 77 cb 8f 3c c6 63 00 80
       0.04273215 0.019456234 0.017553074 -3.5792e-41
0001c0 e2 bd fc b7 53 24 56 b6 24 7b 25 3d 24 8d 00 00
       -3.0129162e-05 -3.1909628e-06 0.04040064 5.0632e-41
0001d0 b1 66 00 80 18 8d 00 80 d2 9a 00 00 9f 2f 00 80
       -3.6839e-41 -5.0615e-41 5.5539e-41 -1.7083e-41
0001e0 be a2 00 00 01 99 00 00 8f 23 00 00 2a 1b 00 80
       5.8381e-41 5.4887e-41 1.2756e-41 -9.745e-42
0001f0 31 4e 00 00 ea 04 00 80 b3 75 a1 bd f2 9d b8 ba
       2.805e-41 -1.763e-42 -0.078837775 -0.0014085157
000200 62 45 00 80 3a a7 00 80 4b a3 00 00 39 20 00 80
       -2.489e-41 -5.999e-41 5.8578e-41 -1.156e-41
000210 16 2c 00 80 00 02 d6 bc 1c 8d 00 80 74 72 00 80
       -1.5815e-41 -0.026124 -5.062e-41 -4.1058e-41
000220 47 2f f5 3c 70 b6 78 bc 2d 06 a2 ba 96 14 00 00
       0.02992977 -0.015180215 -0.001236146 7.385e-42
000230 84 1b e1 3e 73 15 64 3d d4 55 00 00 d0 50 00 80
       0.43966305 0.055684518 3.079e-41 -2.899e-41
000240 87 81 67 3c c3 2f 00 00 41 91 00 80 ff 63 00 00
       0.014130003 1.7134e-41 -5.2107e-41 3.5872e-41
000250 47 8f 00 80 9c 44 00 00 e1 7d 00 80 23 01 00 00
       -5.1398e-41 2.4612e-41 -4.5157e-41 4.08e-43
000260 b1 ae 9b 3d 9c 9b 3b 3f 4b 33 00 00 da 94 b4 be
       0.07601679 0.73284316 1.84e-41 -0.35269815
000270 78 46 00 80 83 af 8c be a8 12 c5 bd 26 82 0a bd
       -2.528e-41 -0.27477655 -0.09622699 -0.033815525
000280 ed 89 c6 bd 93 93 20 be 02 88 d6 3e 08 2d f0 bc
       -0.09694276 -0.15681295 0.4190064 -0.029318348
000290 5b 79 00 00 8e 94 90 3d ad 86 00 be c9 c7 56 be
       4.3534e-41 0.070595846 -0.12551375 -0.2097465
0002a0 b1 04 24 3d 2f 8f 6a bd 82 89 9e bc 7d 84 6b 3b
       0.040043537 -0.057265457 -0.019352678 0.0035937123
0002b0 1a a3 00 80 3e a1 00 80 0c d0 b0 3c 67 52 31 be
       -5.851e-41 -5.7843e-41 0.02158358 -0.1731659
0002c0 93 15 06 3f cc 80 e7 bc 12 4f 00 80 f1 00 67 38
       0.5237667 -0.028259657 -2.8365e-41 5.507557e-05
0002d0 b3 b1 fb b6 b4 60 c1 3e 9e 67 00 00 b1 5e 00 80
       -7.50107e-06 0.3776909 3.7171e-41 -3.3969e-41
0002e0 07 71 00 80 7c 45 00 80 70 84 00 00 98 5a 00 80
       -4.0547e-41 -2.4926e-41 4.751e-41 -3.2499e-41
0002f0 89 13 00 00 18 51 00 80 47 94 00 80 71 6e 00 00
       7.008e-42 -2.9091e-41 -5.3192e-41 3.9619e-41
000300 e7 04 00 00 ac 4d 69 be 3a 91 b8 bc b5 ae 00 00
       1.759e-42 -0.22783536 -0.022530187 6.2673e-41
000310 19 31 00 00 d6 02 00 00 1d 7f 00 80 c6 7a 00 80
       1.7613e-41 1.017e-42 -4.56e-41 -4.4043e-41
000320 84 1c 67 3e 69 55 00 80 7b ad 00 00 39 78 d2 3b
       0.22569472 -3.064e-41 6.2233e-41 0.006423023
000330 49 df 57 3b f0 f0 24 b9 a5 4e 00 00 e3 8b ff 3b
       0.0032939485 -0.00015730015 2.8212e-41 0.007798658
000340 15 33 63 3c 7c 49 00 00 50 54 00 80 b0 7e c4 3b
       0.013867159 2.6361e-41 -3.0246e-41 0.0059965476
000350 a6 a2 00 80 59 54 00 80 0d 13 00 80 d0 62 00 80
       -5.8347e-41 -3.0258e-41 -6.834e-42 -3.5447e-41
000360 92 45 00 80 30 3e 00 00 08 0a 00 80 e0 a1 d6 3c
       -2.4957e-41 2.2309e-41 -3.599e-42 0.026200235
000370 83 64 7d 3e 24 43 00 00 40 22 8f bd e1 58 00 80
       0.24745373 2.4086e-41 -0.069889545 -3.1884e-41
000380 a7 78 7c bc a3 b1 16 3b b2 79 a1 ba 0b 86 de ba
       -0.015409625 0.0022994063 -0.0012319593 -0.0016977204
000390 cf e2 e8 bc 5c 7b a5 bc 9e 3b a0 bb 4c 30 00 00
       -0.028428463 -0.020200424 -0.0048899194 1.7326e-41
0003a0 96 69 e8 3c 42 c6 01 3b b9 6d 2d 3c 16 8e 3d 3c
       0.02837066 0.0019802009 0.010585242 0.01156952
0003b0 03 a2 22 bc 02 57 b2 ba 86 63 95 38 02 6b 00 00
       -0.009926322 -0.0013606253 7.123411e-05 3.8387e-41
0003c0 ab 40 00 00 db c6 3a 3c f5 5b 8f bb fa 47 79 bc
       2.3198e-41 0.01139995 -0.004374976 -0.015214914
0003d0 76 ed 03 bc a1 49 00 80 a5 2d 8d b7 c9 5a 91 b5
       -0.008052221 -2.6413e-41 -1.6829765e-05 -1.0829764e-06
0003e0 1f f3 69 bb fb 0f 00 00 30 8d 00 80 83 01 00 00
       -0.003569789 5.733e-42 -5.0649e-41 5.42e-43
0003f0 43 33 00 80 98 68 00 80 72 af 00 00 b3 4c 00 00
       -1.8389e-41 -3.7521e-41 6.2938e-41 2.7514e-41

gats.0.lin_l.bias f4 [335]
000000 fd 4d 0a bd 59 10 d3 bd ab 45 8c 3d d1 64 26 3d
       -0.03376578 -0.103058524 0.068492256 0.04062349
000010 b1 b3 37 3b 35 1f ab bb dc e5 15 bd 2b 3a 8b bd
       0.0028030688 -0.005222226 -0.036596164 -0.06798204
000020 97 dd 4d bb f2 75 15 bd 8a 2f 2e ba 3a 49 65 3c
       -0.0031412595 -0.036489435 -0.0006644657 0.013994509
000030 59 d9 8e bc f4 95 4d bd f9 ff ae bc 26 6a 33 3d
       -0.017437624 -0.050191835 -0.021362292 0.043802403
000040 45 14 cf bd dc 45 71 bc 17 01 76 bd dc 35 c9 3d
       -0.10111288 -0.014726128 -0.060059633 0.09824726
000050 cf 48 9a bb 1d 5b 8d 3d 55 71 74 bd 59 4b 8b bd
       -0.0047083865 0.06902144 -0.059678394 -0.06801481
000060 bb ac 55 bd a1 03 f3 bb 08 70 8e bb 65 0b e4 bb
       -0.05216668 -0.007416204 -0.0043468513 -0.006959366
000070 c4 86 00 3d ff d4 e7 ba 37 bf 44 bd 78 92 30 bd
       0.031378523 -0.0017687379 -0.04803392 -0.043108433
000080 fd 6b 0a bc a0 d9 34 3c 5e b2 0e 3c 5d 62 e2 bb
       -0.008448598 0.011038214 0.008709518 -0.0069086985
000090 2a e5 53 3c cc 80 8f 3c 40 e7 87 3c aa 43 81 3d
       0.012933055 0.01751747 0.01658976 0.06311734
0000a0 77 e1 11 be 57 02 e3 bc 37 af eb bc 21 80 12 3d
       -0.14246164 -0.027711077 -0.028770072 0.035766724
0000b0 91 81 d8 bd fa fb a2 3c 98 d1 81 3b 8b 99 4e 3d
       -0.10571588 0.019895542 0.003961753 0.0504394
0000c0 a2 3b b9 ba e4 19 e6 bb bf d0 3d bc 52 dd 38 3b
       -0.0014132152 -0.0070221294 -0.0115854135 0.002820809
0000d0 6a c2 5c bd b1 3b 94 b9 23 17 35 b8 59 4d 48 bd
       -0.053896345 -0.00028273233 -4.317531e-05 -0.04890189
0000e0 0b 5a 88 3d 22 a4 8e 3c 87 51 7b b7 11 0b f1 bc
       0.06657799 0.017412249 -1.4979748e-05 -0.029424222
0000f0 d6 22 e2 3d 01 21 89 bd c9 22 2a bd 54 3a 8b 3c
       0.11041801 -0.06695748 -0.04153708 0.016995586
000100 ed 63 93 3d 19 b8 f1 bc c5 b9 6d 3d 18 72 17 bd
       0.07196794 -0.02950673 0.05803849 -0.036974043
000110 f5 78 99 bc 28 cf 8f bd d0 f3 dd 3a c3 05 41 3d
       -0.018734435 -0.07021934 0.0016933624 0.047124635
000120 cc 9b 07 3d f3 9f 43 bc 97 8b 37 bc 11 70 02 3d
       0.033107564 -0.01193999 -0.011202714 0.031845156
000130 40 11 ea 3c 49 a3 10 39 5c 7e d8 3d 62 6d b2 bc
       0.028572679 0.00013793739 0.10570976 -0.021780673
000140 92 ea b7 3b 08 f1 97 bd 70 d9 b3 bd 8a e1 0a be
       0.0056126798 -0.0741902 -0.08781707 -0.13562599
000150 0b 17 65 3d 52 ca 88 3a e1 ea 29 bd 3a c0 bd bb
       0.05593018 0.0010436273 -0.041483764 -0.0057907375
000160 cf c3 26 3d 85 0c d5 bb 84 22 3c 3a b6 46 06 3d
       0.04071408 -0.0065017366 0.0007176774 0.03278228
000170 3d 72 39 bc 1a 90 8b bb 19 b6 ed bc 8a 69 8d 3d
       -0.01131874 -0.0042591216 -0.029017495 0.069048956
000180 d7 27 7d ba a0 d9 b9 3b 2b 35 1d bc 81 c0 6e bd
       -0.00096571207 0.005671695 -0.009595196 -0.058289055
000190 9d 11 49 3c 8a 89 9d bd 58 f3 94 3d 15 81 66 bc
       0.012272266 -0.07692249 0.07272977 -0.0140688615
0001a0 44 98 e8 bc 8f a2 d2 bb bb c9 92 3c 20 52 14 3b
       -0.028392918 -0.00642807 0.017918458 0.0022631958
0001b0 d9 c8 40 3d 05 52 f1 3c 1d 35 26 bd 89 9a ae ba
       0.047066543 0.029458055 -0.040577997 -0.0013321202
0001c0 ec 8b 52 3d c7 4d fd 3b 63 00 38 bd 45 75 21 b9
       0.05140297 0.007730219 -0.044922244 -0.00015397843
0001d0 77 ee 25 3d 13 a2 82 3b c6 26 d2 bc e6 c9 5b 3d
       0.04051062 0.003986606 -0.025653254 0.053659342
0001e0 6a f8 51 b9 87 21 3f b7 71 e2 29 bd da 0a e2 bb
       -0.00020024335 -1.1392293e-05 -0.041475717 -0.0068982663
0001f0 d2 db fb 3b 91 23 0c 37 36 9f 0e 3d e0 dd ad bc
       0.0076861167 8.352931e-06 0.034819804 -0.021223962
000200 30 f4 f2 3c c3 54 f5 3c e9 38 ff 3c 65 24 67 3d
       0.029657453 0.029947644 0.031155067 0.056431193
000210 3b 6a 8f bc 8b b3 93 3d 53 58 8b bd e8 44 b0 bb
       -0.01750671 0.072119795 -0.06803956 -0.005379308
000220 b0 d9 fb bc b5 a7 71 bd c0 2c 7a 3d 33 a9 84 3d
       -0.03074345 -0.05899783 0.061077833 0.06477585
000230 15 96 34 be 1d 81 4d bd 37 e7 82 bb 76 09 ca 3d
       -0.17635377 -0.05017196 -0.003994848 0.09865086
000240 3e 77 fd b9 be d8 9c bd fc df 87 3b f4 d3 bf 3b
       -0.00048344763 -0.07658528 0.004146574 0.005854124
000250 9c d0 55 3d 3a be d7 3d 5d ec be bd a5 a0 0a bc
       0.0522009 0.1053433 -0.093224265 -0.008461152
000260 52 b0 04 bd 2d 31 3a bd 7b 24 02 3d ef 3a 05 3c
       -0.032394715 -0.045457054 0.03177307 0.008131727
000270 92 e6 e7 bb 17 0e 84 3d be 9d e5 bc 7f 65 9d bb
       -0.0070770467 0.06448 -0.028029319 -0.004803359
000280 a6 3a 25 3d 09 d8 b2 3d 86 b7 0c be 0f f0 08 3d
       0.040339135 0.08732612 -0.13741884 0.033432063
000290 cf 3d 5b bc ab 0d 8f 3d 27 13 6b 3d 27 1b 12 3d
       -0.013381436 0.06985029 0.057391312 0.035670426
0002a0 63 65 5b bd 41 4a 0f bc bc 18 93 3c d3 20 83 bd
       -0.053563487 -0.008745731 0.01795613 -0.06402745
0002b0 d7 d3 cb 3d d2 e2 e3 bc e4 f0 ed 39 dc 9a 74 3d
       0.099525146 -0.027818117 0.0004538364 0.059717998
0002c0 2f c8 42 bd 49 2e 1b bd e5 c8 b6 ba ba bc 9f 3d
       -0.04755419 -0.037885938 -0.0013945369 0.077996686
0002d0 77 44 22 3d ae 70 db 3b f9 5c d3 b8 bc 88 03 bd
       0.039616074 0.006696782 -0.000100785815 -0.032112822
0002e0 dc dd 84 3d 31 4a 4a bc b8 0e 24 3d 04 e4 95 b9
       0.06487629 -0.01234679 0.0400531 -0.0002858938
0002f0 ca 29 6d 36 79 20 68 bd 02 3e 10 3d 66 7b fa 3b
       3.5340076e-06 -0.056671593 0.035215385 0.007644105
000300 35 0d 44 b7 45 e7 60 bd fd 57 99 bd 81 d0 ed 3d
       -1.1685585e-05 -0.054908056 -0.074874856 0.116120346
000310 01 0a 58 bd dc f6 ad 3c 69 b1 82 3d c7 29 2c 3c
       -0.052743915 0.021235876 0.063814946 0.010508007
000320 c6 d1 ba bc 05 9d 65 3d 75 b7 27 bd f9 0c 2d 3d
       -0.022805106 0.05605795 -0.040946443 0.0422487
000330 56 9e 6d 3a 7e 12 2e 3b ba 53 76 bb ec 74 7d bd
       0.00090644264 0.0026561315 -0.0037586526 -0.061879084
000340 b3 63 28 bc 0f 24 fb bb 44 44 a3 3d b5 8e a9 bd
       -0.010277676 -0.0076642106 0.07972005 -0.08279172
000350 6d 62 db 3d 78 70 88 3c b0 97 0f 3b 9c 94 69 3d
       0.107121326 0.016655192 0.002191048 0.05702649
000360 12 77 b6 3d df 5d 1c bd 3d b0 9a bc 2d ab ad 3c
       0.089094296 -0.03817546 -0.018882865 0.021199787
000370 f8 55 d2 bd 9d 7f 3d bd 42 46 16 bd a4 07 0b be
       -0.102703035 -0.04626428 -0.036688097 -0.13577133
000380 5b 83 d6 3d 5a 89 93 37 d5 62 c6 3c ce 3e 84 bb
       0.10474273 1.7587725e-05 0.024217049 -0.004035807
000390 48 bb 45 3d 9d 68 02 be 73 07 02 be 90 a8 11 3b
       0.04827431 -0.1273522 -0.12698154 0.0022225715
0003a0 6b 42 9f bc 25 9f 8a bd aa af 29 3c f7 1e 07 3c
       -0.01944085 -0.06768636 0.010356823 0.008247129
0003b0 8b f8 72 3c b3 0b d8 bd 8e 60 15 bc 7c 66 63 bd
       0.014829765 -0.105491064 -0.009117259 -0.05551766
0003c0 b4 be bb bd aa 2b ae bc dc 56 c3 3c 19 13 5f bd
       -0.09167233 -0.021261055 0.023845129 -0.054461572
0003d0 62 dc e0 bc ec 98 24 bb 4c 48 29 3c ed 41 99 3b
       -0.027448837 -0.0025115563 0.010332178 0.0046770484
0003e0 e0 17 ac bc 78 9b 4a b9 76 2e 64 bb 1b 56 ad bd
       -0.021007478 -0.00019322138 -0.0034817732 -0.08463689
0003f0 dd 10 26 3c 8a 8d 3b 3d 4e da 8d b9 20 b9 61 b7
       0.010135856 0.04578928 -0.00027056265 -1.3454148e-05

gats.0.lin_r.weight f4 [335, 67]
000000 eb 44 00 80 aa 30 00 80 08 87 ac 38 23 93 6f 39
       -2.4723e-41 -1.7457e-41 8.226751e-05 0.00022847629
000010 1d d8 72 34 8f 63 00 80 48 ea 85 39 15 33 cf bc
       2.2616628e-07 -3.5715e-41 0.0002554229 -0.025292912
000020 ce 11 00 80 63 0d 00 80 f6 11 00 00 b6 44 00 80
       -6.387e-42 -4.802e-42 6.443e-42 -2.4649e-41
000030 0f 48 00 80 06 a6 00 00 0e 70 00 80 91 78 00 80
       -2.585e-41 5.9558e-41 -4.0198e-41 -4.3251e-41
000040 da 08 00 00 aa 9a 00 00 57 51 18 be 53 2f 08 be
       3.175e-42 5.5483e-41 -0.14874779 -0.13299303
000050 be 49 00 80 9a ac 28 be ec 64 00 00 f2 b0 1a bc
       -2.6454e-41 -0.16472092 3.6204e-41 -0.009441601
000060 92 d2 59 3d 9d 86 0f 3b bb db 27 3c d5 d7 03 3e
       0.05317933 0.0021900304 0.010245259 0.12875302
000070 c0 b9 6f bc 56 28 b6 bd 76 43 00 80 f0 86 c1 3d
       -0.014631689 -0.08894412 -2.42e-41 0.094495654
000080 ad 8e 99 3b a9 01 20 3e 32 e3 65 3c fc 20 b4 3c
       0.0046861977 0.15625633 0.014031218 0.021988384
000090 c5 22 ea b9 75 94 5f b9 b7 47 00 80 42 07 00 80
       -0.00044657863 -0.00021322242 -2.5726e-41 -2.604e-42
0000a0 ae 4a 53 bc 1e 5d 12 be 76 23 a8 3d 20 a5 59 3d
       -0.012896223 -0.14293334 0.08209889 0.05313599
0000b0 42 9f 00 00 1c e8 92 38 52 ee ea 35 07 bd 9c 3b
       5.7131e-41 7.005056e-05 1.7503719e-06 0.004783276
0000c0 b2 a1 00 00 63 a2 00 80 eb 4e 00 00 ec 10 00 00
       5.8005e-41 -5.8253e-41 2.831e-41 6.07e-42
0000d0 46 47 00 00 53 5f 00 00 7f 50 00 00 6b 08 00 80
       2.5568e-41 3.4196e-41 2.8877e-41 -3.02e-42
0000e0 55 00 00 00 f3 02 00 00 c3 3f 00 80 d9 6d 5e bd
       1.19e-43 1.058e-42 -2.2873e-41 -0.054303978
0000f0 09 d6 e8 3c bf 90 00 00 94 4f 00 00 93 1f 00 80
       0.028422372 5.1925e-41 2.8547e-41 -1.1327e-41
000100 f4 51 00 00 58 4a 00 00 ef d2 4e 3a 6a 51 00 80
       2.9399e-41 2.667e-41 0.0007889708 -2.9206e-41
000110 3c 0a 00 00 31 91 91 3d 4a 70 ec 3a 5f 5b d5 b5
       3.671e-42 0.07107771 0.0018038836 -1.5896329e-06
000120 7f 42 00 80 b7 e5 a1 3b ee 4d 00 00 42 44 00 80
       -2.3854e-41 0.004940714 2.7956e-41 -2.4486e-41
000130 18 4a 00 00 67 64 00 80 30 5a 00 00 10 46 00 80
       2.658e-41 -3.6018e-41 3.2353e-41 -2.5134e-41
000140 e3 2e 00 00 81 59 00 80 3b 71 00 80 94 40 00 00
       1.682e-41 -3.2108e-41 -4.062e-41 2.3166e-41
000150 5b 30 00 80 1d 6a d8 3d f6 0f 88 3e 01 6d 00 80
       -1.7347e-41 0.105671145 0.26574677 -3.9103e-41
000160 6c 36 56 3e 91 ac 00 00 49 a8 69 3a 15 ae ed bc
       0.20919198 6.1905e-41 0.0008913321 -0.029013673
000170 8e bf 73 b8 db 09 eb 3b ba 0f a5 bc 8e 51 5e bb
       -5.8114114e-05 0.0071728057 -0.0201491 -0.0033923122
000180 34 e8 ba 3d d2 a4 00 00 ef 6d 50 be 31 0e 2a bd
       0.091263205 5.9126e-41 -0.20354436 -0.04151744
000190 6c 12 6e 3b 12 2f 85 3b 9a b4 5b 3b 28 f0 08 39
       0.0036326898 0.004064449 0.0033524395 0.00013059436
0001a0 36 68 f5 39 c9 4f 00 80 34 74 00 80 ef e7 02 3d
       0.00046807685 -2.8622e-41 -4.1686e-41 0.03195947
0001b0 87 a3 07 3d b7 ab d7 bb 67 be 7f bd 6f 15 00 00
       0.033114936 -0.0065817493 -0.06243744 7.689e-42
0001c0 7e 97 60 b7 94 bb 19 b5 60 26 3b 3c 65 4f 00 80
       -1.3386712e-05 -5.7269904e-07 0.0114227235 -2.8481e-41
0001d0 0b 43 00 80 40 4c 00 80 5e 6a 00 80 7c ad 00 80
       -2.405e-41 -2.7353e-41 -3.8157e-41 -6.2234e-41
0001e0 7c 82 00 00 78 58 00 80 f1 55 00 80 27 54 00 80
       4.6809e-41 -3.1737e-41 -3.083e-41 -3.0188e-41
0001f0 59 11 00 80 dd 4d 00 00 fc 4a 12 3d 64 d5 ef b8
       -6.223e-42 2.7932e-41 0.035716042 -0.00011436155
000200 a0 56 00 00 3b 30 00 00 a6 a2 00 80 a3 4e 00 00
       3.1075e-41 1.7302e-41 -5.8347e-41 2.821e-41
000210 7f 73 00 00 1b 78 84 bb 11 36 00 80 3e 4a 00 00
       4.1432e-41 -0.004042638 -1.9395e-41 2.6633e-41
000220 20 28 e5 b8 fb 04 59 38 04 25 21 b4 84 51 00 80
       -0.00010927045 5.174147e-05 -1.500776e-07 -2.9242e-41
000230 a4 6f c4 39 cd 8f 67 3c 60 75 00 80 a0 5e 00 00
       0.00037467212 0.014133406 -4.2106e-41 3.3945e-41
000240 83 4c 00 80 a0 54 00 00 3d 45 00 00 b9 63 00 00
       -2.7447e-41 3.0358e-41 2.4838e-41 3.5774e-41
000250 61 a7 00 00 d0 84 00 80 b1 99 00 80 d7 41 00 00
       6.0044e-41 -4.7644e-41 -5.5134e-41 2.3619e-41
000260 c3 7e 57 bb 0e 79 05 3d eb 45 00 00 c4 09 6a 3d
       -0.0032881952 0.03258615 2.5082e-41 0.05713822
000270 a1 43 00 80 f0 c3 30 3b c1 c2 a1 35 89 fc b6 bb
       -2.426e-41 0.0026972257 1.2052116e-06 -0.0055843038
000280 25 dc a1 3a d5 03 b5 bb 03 36 27 38 30 f7 cf b6
       0.0012348933 -0.0055241385 3.9866205e-05 -6.197857e-06
000290 57 8e 00 80 5b 0d 13 3c 3b bb ce b9 4f f4 2e bb
       -5.1062e-41 0.008975352 -0.0003943088 -0.0026695912
0002a0 56 07 e2 3b 0f 51 11 3c 2a 8b 3c 38 2e a6 9f 39
       0.006897847 0.0088694235 4.49523e-05 0.00030450657
0002b0 80 a5 00 80 58 69 00 00 e7 3f 85 bc 2d b0 4f bb
       -5.937e-41 3.779e-41 -0.016265823 -0.0031690702
0002c0 4b 1a f8 36 fd 17 e8 37 00 7e 00 00 3f d4 ab b6
       7.394037e-06 2.7667726e-05 4.52e-41 -5.120906e-06
0002d0 03 30 c1 32 8e 77 4b b6 bf 45 00 00 a3 54 00 00
       2.248999e-08 -3.0318947e-06 2.502e-41 3.0362e-41
0002e0 eb 47 00 80 f7 83 00 80 fc 43 00 00 ae 82 00 80
       -2.58e-41 -4.734e-41 2.4388e-41 -4.6879e-41
0002f0 2e 1c 00 00 93 5f 00 00 6e a8 00 00 dd 2b 00 00
       1.0109e-41 3.4286e-41 6.0421e-41 1.5735e-41
000300 91 42 00 00 34 e9 82 3a de a8 02 3b fe a1 00 00
       2.388e-41 0.0009987713 0.0019937078 5.8112e-41
000310 08 57 00 80 17 28 00 00 b1 55 00 80 a1 2b 00 80
       -3.1221e-41 1.4382e-41 -3.074e-41 -1.5651e-41
000320 39 95 0d 39 a1 11 00 00 51 13 00 80 cf e7 47 39
       0.00013502398 6.324e-42 -6.93e-42 0.00019064474
000330 2e 68 43 b8 95 16 dd 35 cd 31 00 00 f5 0c b0 39
       -4.6588648e-05 1.6472355e-06 1.7865e-41 0.0003357899
000340 3f 13 00 80 94 5a 00 80 46 4f 00 80 9b 51 00 80
       -6.904e-42 -3.2493e-41 -2.8438e-41 -2.9275e-41
000350 a4 a2 00 00 3e 71 00 00 c6 0f 00 80 97 59 00 00
       5.8344e-41 4.0624e-41 -5.658e-42 3.2139e-41
000360 cc a3 00 00 d8 69 00 00 27 4e 00 80 89 be dc 3b
       5.8759e-41 3.797e-41 -2.8036e-41 0.0067365807
000370 06 78 92 b7 1c 40 00 00 9a a7 e4 3b 41 3e 00 00
       -1.7460447e-05 2.2998e-41 0.0069779875 2.2332e-41
000380 36 ad af 38 b2 9c cd b7 7f 7c 50 b8 88 6a 61 39
       8.376913e-05 -2.4510871e-05 -4.970701e-05 0.00021497358
000390 fb a9 ed 38 73 cf 8f b7 3f be d8 36 9b 44 00 00
       0.00011332702 -1.714353e-05 6.459449e-06 2.4611e-41
0003a0 3d 48 0d 37 88 52 d3 35 f8 29 02 38 7a 7d cd b5
       8.421074e-06 1.5744745e-06 3.10335e-05 -1.5310209e-06
0003b0 d8 64 55 b6 3f ab f4 36 9d 04 c8 36 99 51 00 00
       -3.1798172e-06 7.2917023e-06 5.9610015e-06 2.9272e-41
0003c0 49 6a 00 00 13 28 5f 38 e7 35 9e b7 ad e9 1d 35
       3.8128e-41 5.3204665e-05 -1.8860168e-05 5.88271e-07
0003d0 d4 2f 64 b7 9b 34 00 80 b2 c1 50 b3 05 02 60 b3
       -1.3600995e-05 -1.8871e-41 -4.860494e-08 -5.21559e-08
0003e0 53 4f 9a b6 6b 58 00 80 53 04 00 80 c9 1a 00 00
       -4.598792e-06 -3.1718e-41 -1.551e-42 9.609e-42
0003f0 33 4f 00 00 08 01 00 00 2a 3e 00 00 4a 5f 00 00
       2.8411e-41 3.7e-43 2.23e-41 3.4183e-41

gats.0.lin_r.bias f4 [335]
000000 27 0e 23 3e 0d 45 51 3d ac 54 07 3e 57 f6 3d 3c
       0.15923367 0.051091243 0.13215894 0.0115943765
000010 23 ff cc ba 69 bb d0 b7 b0 1c 2c ba 89 64 d6 3b
       -0.0015640002 -2.4882802e-05 -0.0006565554 0.0065427464
000020 46 2d 75 3a 28 ac 66 3e be b1 f3 b7 55 3e aa ba
       0.00093527546 0.2252661 -2.9050625e-05 -0.0012988547
000030 b7 4f 50 3e 7c aa 87 3e 51 f7 11 ba 53 ef 10 bc
       0.20342909 0.26497257 -0.0005568164 -0.008846122
000040 2e a8 3d 3e 1d 32 41 3a 96 a0 e1 3d f1 00 f3 3d
       0.18521187 0.0007369833 0.110169575 0.11865414
000050 45 b1 ca b7 86 4d 4f 3d 9c 90 72 bb fd 99 8c bd
       -2.4162824e-05 0.05061104 -0.0037012463 -0.068653084
000060 89 d3 65 39 44 8f 97 3d 6b a2 b9 38 35 29 06 3c
       0.00021917945 0.074003726 8.85174e-05 0.008188535
000070 1d cc 16 bc 85 50 ff b8 23 f5 c7 3d a1 a5 72 bb
       -0.009203938 -0.000121743455 0.09763553 -0.0037024992
000080 c8 c1 3c bb 67 dc 3b b7 4b 92 4a bc a7 f7 b5 38
       -0.0028802026 -1.1197385e-05 -0.0123639805 8.6768814e-05
000090 77 a4 20 bd 3a 84 44 bd 7e 50 cc 3d 5e 3b 61 3d
       -0.039219346 -0.047977664 0.0997629 0.054988258
0000a0 fc 59 c7 3d 05 13 30 3d 61 37 34 bc 83 a8 21 3e
       0.0973396 0.04298689 -0.0109995315 0.15786938
0000b0 00 3f a1 3d e7 af 4f 3e f4 eb c5 b9 bf 1b 62 3e
       0.078733444 0.20281945 -0.00037750567 0.22080897
0000c0 cd 0c 99 39 f2 b1 f9 b7 c3 9d e8 b8 57 67 18 3e
       0.0002919197 -2.9765975e-05 -0.000110920075 0.14883171
0000d0 c3 90 0b 3d f6 0d 2e 39 43 de b8 b7 d8 ee b2 bb
       0.034073602 0.00016599134 -2.2038008e-05 -0.0054606013
0000e0 98 c3 bd 3d 1f 5c d9 3d e0 e5 26 38 56 c2 eb bb
       0.09265822 0.10613274 3.9791572e-05 -0.0071947975
0000f0 8d bb d5 3d c7 e8 36 3e 5d 57 c6 3d f6 0b 87 bb
       0.10436163 0.17862235 0.09684632 -0.004121299
000100 7d db 85 3e e5 dc 1d 3e 39 75 ce bb 64 bb 22 3e
       0.2614402 0.15416296 -0.006300595 0.15891796
000110 90 53 0d 3c ef 21 d4 3d d2 94 d8 3b a7 d9 c2 3d
       0.00862588 0.10358035 0.0066095376 0.0951417
000120 bc d5 37 3e 0a 34 41 bb 7b d6 64 3c 7d 51 a9 3c
       0.17952627 -0.002948048 0.013967152 0.02066874
000130 8d cd 19 bd 68 84 e1 38 07 0e 7e 3d 82 60 f0 3b
       -0.037549544 0.00010753499 0.062025096 0.0073357234
000140 f7 f7 b2 3a ad 04 7a 3c 84 2d 8a ba 14 74 2d 3c
       0.0013654222 0.015259904 -0.0010542129 0.010586757
000150 16 47 01 3e f2 f7 83 3d c6 cf b3 3b 81 ae 80 38
       0.12624773 0.06443776 0.005487415 6.1360195e-05
000160 e1 eb be 3d 54 75 d1 bb 1b ec 94 3d 4a 56 76 3b
       0.09322334 -0.0063921604 0.07271596 0.0037588053
000170 c3 91 2f 3e 94 16 0d b8 3a 93 5f bc 5a 88 18 ba
       0.17145447 -3.3638047e-05 -0.013645941 -0.0005818658
000180 8d dc 19 39 bd 33 25 3e c7 bb 12 3c 25 a5 73 bb
       0.00014673379 0.16133018 0.008955902 -0.0037177291
000190 91 4e 8d b9 4b 26 1e bc 18 35 25 3e da 5f 33 3c
       -0.00026952152 -0.009652684 0.16133535 0.010948146
0001a0 7b e6 15 bc 09 c3 e6 3d de 0b 3f 3c c6 cc 6e 3a
       -0.009149189 0.11267669 0.011660544 0.0009109493
0001b0 55 95 f2 3b 7f 56 f5 bc 40 82 b8 3c 9c 7b ae 3a
       0.0074030557 -0.029948471 0.022523046 0.0013311985
0001c0 64 a8 0f 3e 9d 50 af 39 ab 8b fe 3c a1 38 71 38
       0.1402908 0.00033438663 0.031072458 5.7511617e-05
0001d0 52 eb 4c 3e 1d 98 1c 3e 14 8e 35 bd 3a 7d 1f bc
       0.20011643 0.15292402 -0.04432495 -0.009734446
0001e0 96 be 48 38 dc a2 6e 35 b3 0e a0 3c e5 ea 79 bb
       4.7861213e-05 8.88989e-07 0.01953826 -0.0038134393
0001f0 28 a9 d1 39 20 21 19 38 2a d9 cd 3b bc dc 06 3c
       0.00039989618 3.6508893e-05 0.0062819915 0.008231338
000200 84 b0 8c ba 1c bd 42 3d 06 c1 6e 3b e6 8c c6 3d
       -0.0010733758 0.04754363 0.003643097 0.09694843
000210 05 9f 01 3e ab ce 0d 3d dc f9 03 3e aa b7 05 3a
       0.12658317 0.034620922 0.12888283 0.00051009154
000220 1d 6f 19 3e a9 db ad 3a 95 d3 8f 3d e4 12 b5 3d
       0.14983793 0.0013264316 0.07022778 0.08841494
000230 46 58 a2 bb ca f4 6b 3c 6b e6 e8 b9 8a 3f 34 bb
       -0.0049543707 0.014401624 -0.00044422163 -0.0027503693
000240 73 a5 9c 37 9c 3b 2e 3d f3 6d 33 bb bb 85 de b7
       1.8673692e-05 0.042537317 -0.0027378767 -2.6526735e-05
000250 6c 4f 81 3d 2b 8f a6 bc 4a df ac 39 4a 7c 61 3a
       0.06313977 -0.02033194 0.0003297276 0.00086015894
000260 5e a3 ea ba 6e a6 25 3a 59 de 62 3d 07 90 15 3c
       -0.001790147 0.00063190504 0.05538783 0.009128577
000270 b3 ec 9a 3d 8d 45 04 bc d3 c3 78 3b 1b cf 9f 3d
       0.07564678 -0.008073223 0.0037958517 0.07803174
000280 d8 68 5d 3d 89 07 57 3d 36 cb 41 bb 98 2f 81 3d
       0.054055065 0.05249742 -0.0029570586 0.06307906
000290 c9 ce 04 ba a0 dd 52 3d 53 13 83 bc fa 47 2a 3e
       -0.0005066214 0.05148089 -0.016000425 0.1662902
0002a0 00 2e 58 3a 25 15 d1 39 be 52 9c 39 bf a4 92 ba
       0.00082466006 0.0003987934 0.00029816286 -0.0011188014
0002b0 a2 77 87 bb 06 0b dc 39 4e 26 76 38 e2 67 72 bc
       -0.0041341344 0.00041969883 5.8686644e-05 -0.014795275
0002c0 dc 50 57 3c 03 f3 6c 3e c5 56 32 3a 72 6a 84 3d
       0.013141837 0.23139577 0.0006803091 0.06465615
0002d0 b3 b8 4b 3d c0 29 10 3e 0c 91 24 38 1b 99 c8 3d
       0.04973669 0.14078426 3.9235732e-05 0.097948276
0002e0 cb 9b 9d 3d f0 4b 83 3e c1 0f f4 ba da 95 27 b8
       0.07695731 0.25643873 -0.0018620418 -3.9955463e-05
0002f0 ef 9c a5 37 8b a1 0d 3e b2 ad e9 3a 7d a8 3d 3a
       1.974261e-05 0.13831155 0.0017828254 0.00072348845
000300 20 36 2c b7 bd 12 05 ba d2 f6 d3 ba 74 6d 54 3e
       -1.0264601e-05 -0.00050763396 -0.0016171581 0.20744878
000310 b3 36 92 bb 58 63 9c 3b 0d c1 bd 3c 3c 57 aa 39
       -0.004462087 0.004772585 0.023163343 0.0003248992
000320 ff b9 39 3e e2 8b 66 bb a8 8a c7 b8 e6 ef d4 3d
       0.18137358 -0.0035178591 -9.514886e-05 0.103973195
000330 1f 0d 83 b8 d6 b5 ac ba f9 be a6 36 8e de be 3d
       -6.249011e-05 -0.001317675 4.9694177e-06 0.09319793
000340 e8 15 2d bc 23 34 89 39 b9 7d a1 bc 57 de db 3d
       -0.010564305 0.0002616952 -0.01971327 0.10735767
000350 75 3b 57 3d 04 f0 0e 3d 8f 68 eb 38 6c f4 e6 3c
       0.052546937 0.034896865 0.00011225149 0.028192721
000360 74 76 de ba f5 f0 95 bb 15 82 74 bb 0c d7 af ba
       -0.0016972558 -0.0045758435 -0.003730898 -0.0013415529
000370 0b fe 14 bb 14 1d b6 3d 48 38 02 ba 31 c8 4f 3a
       -0.002273443 0.08892265 -0.0004967493 0.0007926254
000380 74 43 7f 3d 2c c4 46 b9 3a d7 9a 3d fa 85 2e 39
       0.062320188 -0.00018955831 0.075605825 0.00016643843
000390 97 bd 55 3a 2e d5 bf bb a4 57 0b 3e e3 d8 a3 3c
       0.0008153556 -0.0058542704 0.13607651 0.02000088
0003a0 b4 86 3b ba bf 6a 36 bc 7a c0 84 37 d3 b6 2e bd
       -0.0007153556 -0.011133849 1.5825255e-05 -0.042654824
0003b0 f9 88 b1 3d 1a 27 b3 b9 b9 1f ae bb f5 e8 69 bc
       0.086687036 -0.00034170673 -0.00531384 -0.014276733
0003c0 fc 57 84 bd 2e 35 a8 3d fc 2a 36 bc 9f b6 d1 bb
       -0.06462094 0.08213268 -0.011118647 -0.006399944
0003d0 87 0b e4 3d 43 e9 6c 3a 44 ff af bb 23 ba 0b 39
       0.11135011 0.0009037444 -0.005371006 0.00013325414
0003e0 3c 84 9c 3d 9d d7 eb 38 36 5b 41 3a c9 23 0a 3e
       0.07642409 0.00011245834 0.0007375957 0.13490213
0003f0 ab 3b ef 3c 44 40 c1 3d 58 5c 8c 38 95 8b d1 37
       0.029203257 0.09436086 6.6929206e-05 2.497974e-05

gats.0.lin_edge.weight f4 [335, 1]
000000 d3 98 70 bd f0 1f e2 3c eb 4b 89 3e 3f 9f 26 3e
       -0.058739495 0.02760312 0.26815733 0.16271685
000010 ce b3 7c ba 8d 64 f7 37 24 e8 74 39 66 17 98 3c
       -0.000963983 2.9491517e-05 0.00023356132 0.018565845
000020 85 5c f9 b8 e3 69 12 3e df 0a 22 37 ce dd 0b 3a
       -0.00011890478 0.14298205 9.658484e-06 0.00053354807
000030 5c 36 e8 be 1d 10 3c bd 4f b8 5d 3d 23 30 f2 ba
       -0.45353973 -0.045913804 0.05413085 -0.0018477481
000040 9b 32 d1 3d b6 87 bb b7 3b 4c 86 3a 21 8b 75 be
       0.1021473 -2.2355332e-05 0.0010246107 -0.23978855
000050 e2 13 92 b7 e8 35 81 3b 82 0c 22 bb 0a 99 8d 3d
       -1.7413815e-05 0.0039431937 -0.0024726694 0.069139555
000060 6b 4c bb 3a fe 20 94 3d a9 71 a7 37 af 29 43 3d
       0.0014289742 0.07232855 1.9960878e-05 0.047647174
000070 4d a3 00 bb 98 b2 6f b9 f1 ff 06 3f 43 da 46 3e
       -0.0019628585 -0.00022859348 0.52734286 0.19419198
000080 d5 e5 f1 b9 75 95 6c 3a 97 ae 86 3a 87 43 27 37
       -0.0004613834 0.00090249564 0.001027542 9.969698e-06
000090 ef de bd 3c 25 e6 6b bd 70 a4 c5 3e d7 f3 b9 3e
       0.023177592 -0.05759253 0.38602018 0.36318848
0000a0 28 52 e3 3e d4 49 36 bb e8 39 fe ba 30 23 0e bd
       0.44398618 -0.0027815 -0.001939592 -0.034701526
0000b0 38 a1 e3 3e d0 97 c2 be 22 73 83 ba 16 20 8e 3c
       0.44458938 -0.3800645 -0.0010028819 0.017349284
0000c0 44 9e 6d 3b ad 4d a6 b7 75 f1 e8 b8 7f 15 bc 3d
       0.0036257664 -1.9824913e-05 -0.00011107597 0.091837876
0000d0 1c ad c9 3d a2 29 95 38 b7 95 aa b4 b8 90 25 bb
       0.09847471 7.1126284e-05 -3.17739e-07 -0.002526326
0000e0 c3 b8 dc bc 81 ba 4b be 63 d3 fd 36 3d 08 94 3a
       -0.02694357 -0.19895364 7.564596e-06 0.0011293959
0000f0 63 94 b3 3e 97 56 c1 be f6 9d 6e 3b d7 65 fc ba
       0.35074148 -0.37761375 0.003641007 -0.0019256425
000100 6b 45 ec 3e 2e 17 8a be 3a 24 96 3b bb 14 70 3e
       0.46146712 -0.2697081 0.0045819553 0.23445408
000110 21 a0 8c bb 3d ea 20 3e c0 f7 d3 bb 77 29 92 3e
       -0.00429155 0.15714355 -0.006468743 0.2854726
000120 14 37 50 bd 4f 7b 0a 3d eb 36 02 3d 3f bb 23 3e
       -0.050833777 0.033809002 0.031790655 0.15989397
000130 13 f7 c4 bd 47 32 13 b9 95 2e 47 3e 3b 34 31 3c
       -0.09617438 -0.00014037742 0.19451363 0.010815675
000140 f6 f6 0c 3b a6 f5 d4 3c 98 49 96 bb 58 c3 d6 bb
       0.0021509505 0.02599604 -0.00458641 -0.0065540485
000150 26 5a 9f bc 70 d9 5c 3e e7 3f fa 3b 1f 40 a7 37
       -0.019452166 0.21567321 0.0076370123 1.993781e-05
000160 c5 f6 ef 36 00 0d 26 3c ca c5 59 3e 9a ab e6 3b
       7.151483e-06 0.010134935 0.21266857 0.0070394995
000170 88 40 b1 3e 8b b9 f9 b7 a7 12 8d 39 8b fc 3c bb
       0.34619546 -2.9769513e-05 0.00026907513 -0.002883705
000180 79 97 70 38 24 89 24 3e 58 15 90 bb 59 78 3b 3a
       5.736153e-05 0.1606794 -0.0043970756 0.0007151417
000190 89 ba 82 3b 9d 92 93 3c a8 db c2 3c 4e a9 8d bb
       0.003989522 0.018014247 0.02378638 -0.004323161
0001a0 84 41 3b 3d c0 e6 ae 3d 26 14 e7 3a 91 f0 a2 ba
       0.045716777 0.08540106 0.0017629906 -0.0012431314
0001b0 98 22 d1 3d a2 a0 53 bb 64 43 9e 3c 89 50 2a 3a
       0.10211676 -0.003229179 0.019319244 0.0006496986
0001c0 52 03 0a 3d 2c 3d 00 b9 5f 65 45 3d 7f 3d 0f b7
       0.033694573 -0.0001222982 0.048192378 -8.537782e-06
0001d0 9d 1f c2 3c 38 04 3f 3d 9f c4 8a bd f6 18 5a 3c
       0.023696715 0.046634883 -0.06775784 0.013311615
0001e0 d1 ea e0 b6 90 e1 6a 36 2f 46 5a 3d 11 33 c6 3b
       -6.7030564e-06 3.5000012e-06 0.05328959 0.006048568
0001f0 2f f8 a8 38 0f bd 84 38 39 11 f1 bb de f2 80 3d
       8.057092e-05 6.3294654e-05 -0.0073567894 0.06296323
000200 20 4b 10 3c a6 9b 48 3e 14 71 35 bb f5 c8 85 3e
       0.008806974 0.19590625 -0.0027685808 0.2612988
000210 a1 fe 9c 3c 46 0c 1d 3e 6f 24 dd bc 13 23 b8 ba
       0.019164385 0.15336713 -0.026994912 -0.0014048539
000220 fd 54 74 bb b8 ed 77 bb 5d 81 c1 3d 70 ed 0c 3d
       -0.0037282102 -0.00378309 0.09448502 0.034406126
000230 75 2a b1 bb 80 6f 98 3c 56 94 10 b9 68 0e b9 38
       -0.0054066726 0.018607855 -0.0001378817 8.824171e-05
000240 ed 90 ea b8 19 ea b3 3d 3c e0 7e bc a0 df 39 b8
       -0.00011184984 0.08784885 -0.015556391 -4.4315704e-05
000250 19 d6 0d bb 8d 46 b4 3c 77 30 6c bb 98 a0 13 3b
       -0.0021642505 0.022006297 -0.003603963 0.0022526141
000260 c0 e0 59 3b 40 08 10 bc 5e 7c 89 3d 46 87 43 3d
       0.0033245534 -0.008791029 0.06713174 0.04773643
000270 be cc a8 3d 64 8e 69 3d 45 70 c5 3a f5 b5 30 bd
       0.082421765 0.05702056 0.0015063366 -0.043142278
000280 82 a4 80 3d e8 a3 7c bc 07 4f b2 bb 06 92 d0 3d
       0.062813774 -0.015419938 -0.0054415497 0.10184102
000290 8c 57 fb b9 b7 d7 a2 bc 57 48 8c 3b 93 6a 0d bd
       -0.00047939678 -0.019878251 0.0042810845 -0.034525465
0002a0 e8 f5 55 3b 55 e1 78 38 ab 1b ce 3b 4a dc 83 3c
       0.0032647792 5.9337664e-05 0.0062899194 0.016096253
0002b0 c7 09 24 3e 95 45 c2 ba ba 99 01 b9 a3 a0 09 bc
       0.16019355 -0.0014821762 -0.00012359666 -0.008400115
0002c0 f1 fb 0d 3d 5c cf 0a bc a8 b9 23 b9 30 ef 84 3d
       0.0346641 -0.00847229 -0.00015614054 0.06490934
0002d0 8c 37 11 3d 5f 26 62 3c 69 51 69 38 71 78 b5 3d
       0.035453364 0.013803094 5.5627348e-05 0.08860863
0002e0 7b 3a 4d 3d 1d c8 4d bc 36 50 5c 3d 27 77 8a b7
       0.0501046 -0.012559918 0.053787433 -1.6506367e-05
0002f0 42 39 cc 37 ea 21 05 3e 9e 81 99 3b a5 ad 55 b8
       2.4345358e-05 0.13001218 0.004684641 -5.0944876e-05
000300 49 ac a6 b6 fc 33 f2 3c eb 2b 86 3b 4f 49 3c bd
       -4.967242e-06 0.029565804 0.004094591 -0.04596835
000310 71 e8 6b bc 18 96 c0 ba 08 b8 18 bd 73 0e 7c 37
       -0.01439868 -0.0014693169 -0.03728488 1.5023735e-05
000320 a1 44 d7 bc 1e 0f c8 3d 6c 62 bf b8 c7 00 eb bd
       -0.026277842 0.097685084 -9.125922e-05 -0.11474758
000330 2f 51 d5 b9 7f 5d 40 ba ac 80 c2 38 c6 ab 5d 3e
       -0.00040687012 -0.0007338151 9.274608e-05 0.21647558
000340 da 93 b9 bc 41 7b 03 3b 3f 11 41 bd 4d a0 71 3e
       -0.022653509 0.0020062479 -0.047135588 0.23596306
000350 d1 0d af 3d 3f 7d 12 3e 7d 60 30 ba 8e 2b e0 bb
       0.08547557 0.1430559 -0.0006728245 -0.0068411296
000360 fe cd 1b 3e a5 64 d5 bb 01 73 e2 3b 6b ab 0c bb
       0.15215299 -0.006512242 0.006910682 -0.0021464478
000370 c0 be 8e bb 6e c9 27 3e 55 9a fc 3a 1c a3 87 3b
       -0.0043562353 0.16385433 0.0019272069 0.004139317
000380 06 dc 0f 3e 2a 46 6d 3c 61 13 0d 3e 9b f3 f5 37
       0.14048776 0.01448206 0.13776924 2.9319714e-05
000390 a3 d4 6f bc 73 66 2f bc 0b 41 61 3e fc a5 8d 3e
       -0.014638099 -0.010705578 0.21997468 0.276657
0003a0 c1 8a fb ba 2d a2 06 bd da 14 04 ba 93 36 6f bd
       -0.0019191132 -0.032869507 -0.00050385075 -0.058401655
0003b0 24 1f 3c 3e c0 62 25 bb 13 b7 15 bc 5e 6b 26 bd
       0.18371254 -0.0025235862 -0.009137887 -0.040629737
0003c0 9c 34 1c bb 07 8b 4a 3e 72 6b 23 bc f5 f4 94 bc
       -0.0023835069 0.19779597 -0.009974347 -0.01818321
0003d0 77 48 70 3e b0 48 01 bb 80 f1 11 bc 71 67 56 ba
       0.23465143 -0.0019727163 -0.008907676 -0.0008178866
0003e0 5e 05 22 3e e5 9d 62 37 99 2a a0 3a d7 8b 96 3e
       0.1582236 1.3507412e-05 0.0012219726 0.29403564
0003f0 75 fd 43 3e 3c 31 fd bc ff a7 ce b6 f9 45 53 38
       0.19139655 -0.030907266 -6.1588357e-06 5.0371487e-05
