inference/SymEx/model_checkpoints/SymEx_model_3.pt (torch, 503011 bytes, 21 tensors)

gats.0.att f4 [1, 5, 67]
-0.7128956 -0.44684803 0.01452699 -0.012830681 -1.1127626 -0.059322402 -0.21846059 0.049539402
0.45548338 0.102526255 -1.1951089 -0.0399222 0.025663275 -0.7193264 -0.37508896 0.024782395
0.066594794 0.48910287 -0.47446436 -0.52690667 -0.4040551 -0.021723261 -0.16718793 0.01166146
-0.014059988 -0.47576037 0.023471396 0.073756166 0.28818578 -0.017528186 0.09859594 0.020082185
0.03309823 -1.0504652 0.15243094 -0.020087117 -0.6023117 -0.0059350086 0.017566498 -0.0044124085
-0.05982577 -0.15588301 0.08489426 0.26720917 0.034040846 -0.66207093 0.044687223 0.00798596
0.014811982 -0.013578985 0.0010743077 -0.031809017 -0.35601225 0.7767761 0.044252515 0.08777469
-0.7913423 -0.015726443 0.08879516 -0.02047065 -0.026005913 -0.002103222 0.026988085 -0.22905518
-0.1934606 -0.8425617 -0.019187529 0.693073 0.31830183 1.0240271e-06 -0.00050785195 -0.79879785
0.00011078563 0.8737363 -0.0016535411 -1.3717737 0.019183645 -1.2166542 0.003632538 0.0053626923
0.45554668 0.5122764 -1.9885507e-05 0.018713431 0.026839549 -0.027752863 0.018389873 0.111804985
3.4337812e-05 -0.38750723 -0.021561334 0.00019636514 0.010346133 -0.00021420042 0.026900936 0.68488026
-0.35366514 0.022157885 0.25508904 0.01002717 -0.4009521 0.005639762 -0.82689834 -0.00046824195
-0.014592458 -0.5543137 -0.0035484054 7.740505e-05 -0.004356713 0.24200916 -0.15924998 -0.0011641096
0.00074786076 0.0043104594 -0.7995872 0.0002303433 0.77278465 -0.033779576 -0.029207194 -0.005292973
-0.057638064 0.15986232 0.0017859685 0.00034334636 -0.000107561216 0.021307144 -0.26037335 -0.0017692515
-0.00014633263 0.2111031 0.000926503 0.298902 0.088505164 3.1237356e-05 0.29146695 0.44554394
-0.0005436664 -0.0022788786 -0.19255944 -2.1467742e-05 0.0066325306 0.019096896 0.02461346 0.04743255
-0.7596277 0.025248637 0.24245724 0.18478152 0.13290888 0.0069220723 0.36515367 0.0049350467
-1.0619581 0.42768365 0.0109119 -0.1327041 -0.11399905 0.017603658 5.1119783e-05 0.0020001053
0.0044894307 -0.22664467 -0.012824747 -0.00035684212 0.044129454 -0.49012464 0.042508736 0.005890323
0.10643812 -0.66176075 0.00012061278 0.18165167 -0.6800133 -0.028616287 -0.019827852 -0.5704999
-0.023417821 0.37301853 0.015387489 -0.033127338 -0.28728902 -0.0076721646 0.01579937 -0.0031178526
0.3010589 0.30502632 0.48044693 -0.03436523 0.016147994 0.001891807 -0.00519006 -0.008622716
-0.89809275 -0.59372306 -0.018690765 -0.5905061 -0.006628409 0.049238395 0.017540833 -0.00606203
0.00015218303 1.0219548 -0.0239013 -0.81248844 -3.8380247e-05 -0.0001397335 0.00029117274 0.011523446
0.18900642 0.0962988 -0.010185097 1.4663024 -0.019444043 -0.027518457 0.72640693 0.67504287
-5.3506225e-05 0.69026405 0.814137 -0.23682882 1.1321114 0.15926738 0.00059797044 -0.18731591
-0.7215714 0.00016682442 -0.5219924 0.00033806908 1.0450226 0.94725746 -0.0002302112 -0.009774739
0.6579807 0.5069389 -0.0045358143 -0.008462491 1.1769326 -0.0003316655 -0.18016969 0.0008880234
-0.07456676 0.4423097 -0.31869453 0.19935831 -0.83062494 -0.00064467936 0.044100765 0.7344609
0.008530656 0.0002607677 -0.0006894499 -0.9503599 -0.009690048 -0.062154908 0.15621129 0.12732857
00000000: 5380 36bf 44c9 e4be 9d02 6e3c c737 52bc
00000010: 016f 8ebf 0cfc 72bd 22b4 5fbe d4e9 4a3d
00000020: 1e35 e93e 49f9 d13d 54f9 98bf 7685 23bd
00000030: ca3b d23c c625 38bf a90b c0be 7304 cb3c
00000040: da62 883d b16b fa3e feec f2be 5be3 06bf
00000050: 4fe0 cebe fbf4 b1bc 5033 2bbe b50f 3f3c
00000060: dd5b 66bc dd96 f3be 1647 c03c 790d 973d
00000070: 168d 933e 4597 8fbc abec c93d 6583 a43c
00000080: 0292 073d a575 86bf db16 1c3e bd8d a4bc
00000090: 1931 1abf 767a c2bb 9ee7 8f3c f795 90bb
000000a0: de0b 75bd cc9f 1fbe 0bdd ad3d a4cf 883e
000000b0: 6a6e 0b3d 7b7d 29bf f309 373d 8bd7 023c
000000c0: f5ad 723c 647a 5ebc c9cf 8c3a 2c4a 02bd
000000d0: 3d47 b6be ccda 463f 2042 353d 37c3 b33d
000000e0: 6995 4abf bed4 80bc 3dda b53d 11b2 a7bc
000000f0: 5a0a d5bc 36d6 09bb 1e16 dd3c 718d 6abe
00000100: 891a 46be 20b2 57bf 2a2f 9dbc 3b6d 313f
00000110: 75f8 a23e 4e71 8935 5e21 05ba 047e 4cbf
00000120: 9555 e838 2fad 5f3f a2bb d8ba 4896 afbf
00000130: 0527 9d3c 53bb 9bbf e00f 6e3b 86b9 af3b
00000140: 6a3d e93e 8c24 033f cdcf a6b7 e94c 993c
00000150: 9dde db3c f959 e3bc 5ca6 963c 03fa e43d
00000160: f205 1038 5967 c6be 65a1 b0bc 5ee7 4d39
00000170: d482 293c fd9a 60b9 5a5f dc3c 5054 2f3f
00000180: 9913 b5be 7484 b53c 089b 823e 0049 243c
00000190: 9849 cdbe c1cd b83b 9caf 53bf 5f7e f5b9
000001a0: 3415 6fbc 81e7 0dbf 5d8c 68bb 8554 a238
000001b0: c2c2 8ebb 40d1 773e 6d12 23be 0995 98ba
000001c0: 160c 443a c13e 8d3b bfb1 4cbf 4f88 7139
000001d0: 37d5 453f 745c 0abd ed43 efbc ad70 adbb
000001e0: e415 6cbd f3b2 233e 2917 ea3a 2b03 b439
000001f0: 7d92 e1b8 528c ae3c a84f 85be 3be6 e7ba
00000200: de70 19b9 692b 583e 90e0 723a af09 993e
00000210: 3242 b53d db04 0338 283b 953e 561e e43e
00000220: d684 0eba 3d59 15bb 4d2e 45be a015 b4b7
00000230: b355 d93b 1871 9c3c 2ba2 c93c a248 423d
00000240: f676 42bf 3bd6 ce3c b646 783e 5e37 3d3e
00000250: 4419 083e 8dd2 e23b 6cf5 ba3e 2cb6 a13b
00000260: 3eee 87bf 5af9 da3e d3c7 323c 95e3 07be
00000270: 5578 e9bd 8c35 903c 7369 5638 3314 033b
00000280: 131c 933b 8a15 68be e31e 52bc 8a16 bbb9
00000290: 16c1 343d 9ef1 fabe a41d 2e3d 9c03 c13b
000002a0: 3bfc d93d 2769 29bf 7ef1 fc38 e502 3a3e
000002b0: 5a15 2ebf b46c eabc 056e a2bc 480c 12bf
000002c0: bbd6 bfbc 49fc be3e cf1b 7c3c 88b0 07bd
000002d0: 8c17 93be c866 fbbb ae6d 813c e354 4cbb
000002e0: 6424 9a3e 692c 9c3e 24fd f53e 8ec2 0cbd
000002f0: cc48 843c 82f6 f73a 6111 aabb 4b46 0dbc
00000300: 68e9 65bf 3cfe 17bf 601d 99bc 682b 17bf
00000310: 2033 d9bb 33ae 493d cbb1 8f3c fea3 c6bb
00000320: 5293 1f39 6acf 823f a9cc c3bc 3eff 4fbf
00000330: 7afa 20b8 6d85 12b9 8ba8 9839 d6cc 3c3c
00000340: e68a 413e 4e38 c53d 65df 26bc ccaf bb3f
00000350: 1d49 9fbc 636e e1bc cef5 393f 9ccf 2c3f
00000360: df6b 60b8 25b5 303f 486b 503f 4183 72be
00000370: 07e9 903f fd16 233e 1ec1 1c3a becf 3fbe
00000380: e7b8 38bf 97ed 2e39 4ba1 05bf dd3e b139
00000390: 4dc3 853f 777f 723f d964 71b9 3a26 20bc
000003a0: 6c71 283f bfc6 013f 2ba1 94bb 43a6 0abc
000003b0: baa5 963f 64e3 adb9 677e 38be 3eca 683a
000003c0: 75b6 98bd 6b76 e23e ee2b a3be 9624 4c3e
000003d0: d6a3 54bf b3ff 28ba 01a3 343d a105 3c3f
000003e0: 2ac4 0b3c a6b7 8839 33bc 34ba c94a 73bf
000003f0: 02c3 1ebc 2596 7ebd daf5 1f3e 6c62 023e

gats.0.bias f4 [67]
0.014026216 -0.039007828 -0.009202853 0.0094294585 -0.06927054 -0.004573507 -0.13207436 0.010093839
-0.113222264 -0.0226019 -0.03657969 -0.07085276 -0.08825923 -0.035161383 0.0025274167 -0.00071683316
-0.12052082 0.041170027 -0.095079005 0.052741516 -0.0014602101 -0.008700753 -0.08850817 -0.05481559
-0.0005126178 -0.019392343 -0.0001329105 -0.05214224 0.028703984 -0.018478358 -0.04386828 -0.0077979364
-0.07657167 -0.0008660477 -0.026641559 -0.054428022 -0.010145356 -0.08835455 0.018397242 -0.047292728
-0.026012162 -0.09535997 -0.0024827786 7.970147e-05 -0.0331142 -0.057263628 -0.01615973 -0.048842426
-0.0006540794 -0.09050454 -0.03509631 -0.070823275 -0.09012565 -0.031810876 -0.025713725 -0.011460203
-0.01853787 -0.028577948 -0.011332294 0.0072878515 -0.0009582503 -0.012117738 0.0076385387 -0.032147136
-0.023809647 -0.027102932 -0.0015191592
00000000: 37ce 653c acc6 1fbd 90c7 16bc 047e 1a3c
00000010: b6dd 8dbd 5bdd 95bb 803e 07be a160 253c
00000020: 13e1 e7bd 9f27 b9bc 96d4 15bd 401b 91bd
00000030: 41c1 b4bd 6205 10bd 04a3 253b dce9 3bba
00000040: 9fd3 f6bd e7a1 283d c8b8 c2bd 7d07 583d
00000050: 8564 bfba 9a8d 0ebc c543 b5bd 5086 60bd
00000060: 3361 06ba b1dc 9ebc e45d 0bb9 1a93 55bd
00000070: 9e24 eb3c ed5f 97bc 3aaf 33bd d585 ffbb
00000080: 9cd1 9cbd 7a07 63ba 663f dabc ebef 5ebd
00000090: b538 26bc 3bf3 b4bd d0b5 963c 05b6 41bd
000000a0: 7517 d5bc 174c c3bd 1db6 22bb 6725 a738
000000b0: c1a2 07bd 448d 6abd 6961 84bc ff0e 48bd
000000c0: 8776 2bba 725a b9bd 26c1 0fbd cb0b 91bd
000000d0: cc93 b8bd 1f4c 02bd 97a5 d2bc 93c3 3bbc
000000e0: bbdc 97bc 4d1c eabc 16ab 39bc eece ee3b
000000f0: 1733 7bba 7a89 46bc b54c fa3b b7ac 03bd
00000100: 730c c3bc f806 debc 861e c7ba

gats.0.lin_l.weight f4 [335, 67]
5.516e-41 -2.6106e-41 0.021653546 -0.14841394 -0.0020971375 3.557e-41 0.2591653 0.04449105
-7.784e-42 1.216e-41 -0.018698677 1.8011e-41 3.4026e-41 5.8364e-41 2.9216e-41 -2.9268e-41
-2.1356e-41 -3.5653e-41 -0.3894634 0.45788258 -2.8395e-41 -0.08280586 -2.7307e-41 -0.11000631
0.1206569 0.08209649 0.24311374 0.23965636 -0.058490112 0.047109235 -3.7349e-41 0.114166826
-0.02949233 0.027429065 0.07291294 0.06407563 0.015323425 0.040745094 4.0994e-41 1.1566e-41
0.0396893 0.0018830347 0.18547367 -0.49072188 -1.8274e-41 -0.0011309193 2.2602246e-06 -0.3578128
-2.4743e-41 -2.993e-41 3.8973e-41 -3.0785e-41 -3.3944e-41 -3.2283e-41 -3.1723e-41 1.1132e-41
-3.0987e-41 -3.2391e-41 -3.3795e-41 0.010770756 0.42582607 -3.1117e-41 3.0042e-41 -3.3648e-41
1.2889e-41 -3.2355e-41 -0.030854816 3.5084e-41 -1.2872e-41 0.16100281 -0.01542175 -0.0056187683
-3.398e-41 0.17421181 0.10242073 -3.09e-42 3.3893e-41 -0.06605265 3.4538e-41 1.3269e-41
-2.284e-41 -3.1836e-41 -4.0216e-41 -4.9236e-41 -5.5255e-41 -0.24456106 0.26252428 -4.1188e-41
-0.045790527 -1.195e-41 0.28341663 0.011911382 -0.008078736 0.010743517 -0.052054435 0.30709755
0.02428 -7.944e-42 0.057933416 -0.054874368 -0.066788964 0.027804952 -0.0005571409 0.019592691
0.008904478 2.7777e-41 3.5592e-41 0.07040293 -0.12166501 0.29113832 -0.26400745 -3.0901e-41
7.5095915e-05 3.1008318e-07 -0.34138224 -3.0143e-41 2.1108e-41 3.4989e-41 -3.0512e-41 -5.1055e-41
3.3969e-41 -3.9141e-41 -1.6737e-41 -3.208e-41 6.2226e-41 -2.9541e-41 0.011050726 -0.0024939056
-4.027e-41 -3.5884e-41 -4.2332e-41 -3.6858e-41 3.1706e-41 0.19261721 1.244e-41 -3.1811e-41
-0.000574061 0.00018186003 1.0435391e-05 -1.6811e-41 -3.7618636e-05 -0.0003516907 3.3512e-41 -6.305e-41
-0.0006309154 2.2959e-41 3.2503e-41 3.088e-41 2.9492e-41 -2.9576e-41 3.4532e-41 3.0976e-41
-0.009263901 -0.0013035767 -5.7061e-41 0.0011096679 -3.1197e-41 0.0033532416 -0.000446678 9.9175915e-05
-0.00037926386 0.00031356592 0.0011790774 -0.0003185235 -3.9861e-41 -0.0017031755 1.6919737e-06 -0.00042680738
-0.00031613582 8.6078995e-05 -0.0004995326 -0.00043334844 3.4305e-41 2.5691e-41 0.0011911156 -0.0013021996
-0.00038967695 0.00053241657 6.0441e-41 -3.4045918e-06 7.243633e-10 0.006558171 3.3058e-41 5.6251e-41
-3.3626e-41 -3.1849e-41 1.809e-41 1.7766e-41 5.8314e-41 -4.6599e-41 1.8078e-41 -1.2459e-41
2.9444e-41 0.00096669584 -0.00019661318 -3.294e-41 -2.8592e-41 1.7452e-41 -3.3525e-41 3.094e-41
-9.460977e-05 -3.2883e-41 2.9139e-41 0.0049469927 -0.00012183267 -4.2128663e-06 1.2424e-41 0.0016901148
7.610009e-05 3.1379e-41 -3.5564e-41 0.00045944648 -3.3076e-41 3.7911e-41 -5.108e-41 3.3946e-41
-3.8013e-41 -4.2557e-41 -2.9052e-41 0.005865789 0.0014245082 -2.908e-41 0.00039353652 2.747e-41
-0.0052505536 0.00040132995 -3.727094e-05 0.00038065106 -0.0008888785 -0.0012122324 0.0003648935 -2.8104e-41
-0.00015732851 8.248958e-05 -0.00047815085 0.00037302263 -9.9698234e-05 0.00046198166 6.273742e-05 -3.0705e-41
4.882e-42 -0.002047897 0.0005606835 0.0007661267 -0.0053371447 3.901e-41 2.455848e-06 -7.3895734e-10
-0.0055904794 -5.8102e-41 1.7268e-41 2.7622e-41 -5.207e-41 -2.9643e-41 1.1809e-41 3.4015e-41
00000000: c399 0000 c648 0080 c762 b13c d3f9 17be
00000010: 2170 09bb 2863 0000 50b1 843e 3f3c 363d
00000020: b315 0080 e621 0000 f82d 99bc 3532 0000
00000030: da5e 0000 b2a2 0000 7151 0000 9651 0080
00000040: 883b 0080 6363 0080 bf67 c7be 966f ea3e
00000050: 274f 0080 1e96 a9bd 1f4c 0080 fd4a e1bd
00000060: f71a f73d 3422 a83d cff2 783e 7a68 753e
00000070: 5493 6fbd 9df5 403d 1d68 0080 4cd0 e93d
00000080: e699 f1bc ebb2 e03c 6153 953d 153a 833d
00000090: 1a0f 7b3c 54e4 263d 4672 0000 3e20 0000
000000a0: 3f91 223d 29d0 f63a cfec 3d3e e63f fbbe
000000b0: f132 0080 5b3b 94ba 5dae 1736 3d33 b7be
000000c0: f944 0080 6f53 0080 a46c 0000 d155 0080
000000d0: 9f5e 0080 fe59 0080 6e58 0080 081f 0000
000000e0: 6156 0080 4b5a 0080 355e 0080 d377 303c
000000f0: e005 da3e be56 0080 bf53 0000 cc5d 0080
00000100: ee23 0000 315a 0080 3dc3 fcbc cd61 0000
00000110: e223 0080 ecdd 243e 82ab 7cbc a51d b8bb
00000120: b95e 0080 9564 323e f6c1 d13d 9d08 0080
00000130: 7b5e 0000 9d46 87bd 4760 0000 fd24 0000
00000140: ab3f 0080 bf58 0080 1b70 0080 4089 0080
00000150: 079a 0080 376e 7abe 9569 863e d172 0080
00000160: d98e 3bbd 5021 0080 fc1b 913e f527 433c
00000170: ad5c 04bc 9405 303c 0837 55bd e43b 9d3e
00000180: dae6 c63c 2516 0080 974b 6d3d f2c3 60bd
00000190: a7c8 88bd 36c7 e33c 180d 12ba da80 a03c
000001a0: 16e4 113c 6e4d 0000 3763 0000 692f 903d
000001b0: 812b f9bd 1510 953e fc2b 87be 2456 0080
000001c0: d07c 9d38 8279 a634 a7c9 aebe 0754 0080
000001d0: d73a 0000 8961 0000 0e55 0080 528e 0080
000001e0: b15e 0000 1c6d 0080 a82e 0080 6d59 0080
000001f0: 76ad 0000 5952 0080 1b0e 353c cb70 23bb
00000200: 4270 0080 0864 0080 0176 0080 bf66 0080
00000210: 6258 0000 723d 453e ad22 0000 ad58 0080
00000220: 957c 16ba aeb1 3e39 aa13 2f37 dd2e 0080
00000230: b4c8 1db8 2063 b8b9 6b5d 0000 c2af 0080
00000240: 0464 25ba 0040 0000 9b5a 0000 1556 0000
00000250: 3652 0000 7252 0080 4360 0000 5956 0000
00000260: 9ec7 17bc c7dc aaba 109f 0080 4772 913a
00000270: f756 0080 0fc2 5b3b 1b30 eab9 aafc cf38
00000280: efd7 c6b9 1b66 a439 468b 9a3a 80ff a6b9
00000290: 1e6f 0080 163d dfba c617 e335 1ec5 dfb9
000002a0: 08bf a5b9 4f85 b438 11f3 02ba 0b33 e3b9
000002b0: a15f 0000 9e47 0000 351f 9c3a 91ae aaba
000002c0: 8e4d ccb9 df91 0b3a 7ca8 0000 717a 64b6
000002d0: 891c 4730 ede5 d63b 275c 0000 ce9c 0000
000002e0: bc5d 0080 c858 0080 6d32 0000 8631 0000
000002f0: 8ea2 0000 e681 0080 6532 0000 bb22 0080
00000300: 1452 0000 dc69 7d3a f329 4eb9 d35b 0080
00000310: b44f 0080 a630 0000 745d 0080 4056 0000
00000320: 3c69 c6b8 aa5b 0080 3a51 0000 621a a23b
00000330: 6b80 ffb8 3f5c 8db6 a222 0000 d886 dd3a
00000340: ed97 9f38 7957 0000 2363 0080 dde1 f039
00000350: 345c 0080 ae69 0000 648e 0080 a15e 0000
00000360: f769 0080 a276 0080 fc50 0080 ce35 c03b
00000370: 90b6 ba3a 1051 0080 9453 ce39 934c 0000
00000380: d60c acbb 9869 d239 5e53 1cb8 1f92 c739
00000390: a003 69ba c5e3 9eba 2d4f bf39 584e 0080
000003a0: 8df8 24b9 42fe ac38 52b0 fab9 4092 c339
000003b0: 1515 d1b8 2136 f239 e591 8338 9855 0080
000003c0: 9c0d 0000 0336 06bb d5fa 123a e4d5 483a
000003d0: 37e3 aebb be6c 0000 26cf 2436 801f 4bb0
000003e0: 5730 b7bb f7a1 0080 2330 0000 004d 0000
000003f0: 2691 0080 a252 0080 eb20 0000 d25e 0000

gats.0.lin_l.bias f4 [335]
0.0551706 0.038769778 0.0016308852 0.00065350666 -0.094306536 -0.004227488 -0.008331559 0.019804671
0.111794546 -0.041809585 -0.032453448 -0.018620575 -0.05440797 0.07665183 0.09919186 0.0036708738
-0.14545268 0.03472246 -0.07505865 0.06910748 0.0066418876 0.0038158584 -0.095769264 -0.110268086
-0.0012139193 0.009126377 0.002886972 -0.067779295 0.02852926 0.002693802 0.004517393 -0.065104105
-0.08295175 0.076684274 -0.009578067 -0.028958872 -0.086223185 -0.16001485 0.012851647 -0.052745324
-0.004853866 -0.040611826 0.09875678 -0.012702605 -0.04043564 -0.012040793 0.036290593 -0.049602453
0.00166967 -0.02972555 0.05768384 0.0026168714 -0.09789742 0.0052025444 -0.0103075355 0.047793694
-0.035449553 -0.0038320834 -0.0061812126 0.006145222 -0.0013374651 0.0045522554 0.083761044 0.033113442
0.029084973 -0.017169816 0.0006073876 -0.024127759 -0.07249837 0.00091350125 -0.00033817496 0.0023110022
-0.0050212042 -0.04474727 -0.0755434 -0.13867857 -0.005969736 -0.062976345 -0.05514613 -0.036912035
-0.06385835 0.07333149 0.0003238719 -0.08674752 0.011443557 -0.030447895 -0.009420809 -0.048796326
0.0020215982 -0.10158967 -0.070194006 -0.00046215128 -0.093133144 -0.00041300544 -0.017627222 0.028072579
-0.05806691 -0.010123414 0.075427696 0.016522862 -0.026421627 -0.052945178 -0.079912305 -0.0007147167
-0.14918472 -0.10769721 0.035130937 -0.0043146065 -0.1358425 -0.082417294 -0.032509014 -0.038041294
-0.07077678 -0.009458565 -0.07045351 0.0015700101 0.041290026 -0.08064377 -0.0015529088 -0.007512978
-0.10013012 -0.059217952 -0.012157926 -0.0015715314 -0.0044253976 -0.016049488 -0.100350864 -0.0024020495
0.0034796502 0.060090773 -0.04150957 0.036158502 -0.021888789 -0.00090588396 0.03621561 0.038748715
-0.0004368899 0.00015374196 0.012387108 -0.0061828694 -0.06306204 0.0021981203 -0.061121084 0.002573078
-0.06443416 -0.063505545 -0.028218867 0.026717551 -0.034928095 6.973267e-05 0.046085216 -0.017901015
-0.11199673 0.12189823 0.07519347 -6.6878994e-05 -0.118788764 -0.050276734 -0.00036358417 0.010613972
-0.0002665143 0.0044809612 0.05598452 0.0015316404 -0.050439294 0.08200784 -0.047226176 0.0008153992
-0.098745 0.01414482 -0.0018354265 0.0059571764 -0.1270081 -0.1432556 -0.0057045477 -0.03291234
-0.003845884 0.10399678 0.019092467 -0.013912118 -0.053213313 -0.005220649 0.00087324774 -0.029838853
0.07661015 0.05789883 0.03437387 0.029482663 -0.059153803 -0.06956495 0.009338085 -0.0046843523
-0.08234179 -0.018198278 -0.001386528 -0.00707678 -0.10006898 0.011103857 -0.08218469 -0.06003423
-0.0008398008 -0.04191569 0.047508463 -0.12707077 0.0004567314 -0.082003094 -0.004281447 -0.042080212
-0.020707494 -0.11030179 -0.013440832 0.106091574 -0.057881005 -0.065423585 0.061635215 0.02194612
0.00029904547 -0.021100232 0.1367318 -0.043455433 0.10846244 0.05514486 0.0033878253 -0.032734506
-0.031245088 -0.00046421803 0.058986995 1.39041285e-05 0.02147259 0.009328942 0.0023469971 -0.0824705
-0.06004875 -0.08950523 -0.056506697 0.022781601 0.0647407 0.00014673277 -0.07077915 0.012032365
0.016093176 -0.017888086 -0.017694963 0.0012341237 -0.07187909 -0.046610255 -0.02994246 0.05396065
-0.053008724 0.0013548773 -0.012979046 -0.05443826 -0.08618643 -0.010992862 0.002110422 -0.054768335
00000000: 91fa 613d 0fcd 1e3d 6dc3 d53a 1750 2b3a
00000010: c923 c1bd bd86 8abb 1781 08bc 683d a23c
00000020: 8af4 e43d 8740 2bbd e8ed 04bd 2d8a 98bc
00000030: e4da 5ebd a2fb 9c3d 1a25 cb3d 0b93 703b
00000040: 8cf1 14be 2339 0e3d 59b8 99bd 3988 8d3d
00000050: 31a4 d93b 7b13 7a3b ad22 c4bd 3cd4 e1bd
00000060: 5f1c 9fba cd86 153c 5a33 3d3b dfcf 8abd
00000070: 32b6 e93c 7f8a 303b a406 943b 4d55 85bd
00000080: 9be2 a9bd a50c 9d3d 53ed 1cbc 283b edbc
00000090: c895 b0bd efda 23be b78f 523c 7b0b 58bd
000000a0: 2e0d 9fbb 9658 26bd ff40 ca3d 961e 50bc
000000b0: d79f 25bd bf46 45bc 72a5 143d f12b 4bbd
000000c0: d4d8 da3a ff82 f3bc e445 6c3d d17f 2b3b
000000d0: 717e c8bd 1b7a aa3b f0e0 28bc 52c3 433d
000000e0: 8d33 11bd b123 7bbb c58b cabb dc5d c93b
000000f0: e24d afba 162b 953b e98a ab3d f6a1 073d
00000100: 9c43 ee3c b7a7 8cbc 1839 1f3a 94a7 c5bc
00000110: 077a 94bd 0878 6f3a 134d b1b9 2f74 173b
00000120: ea88 a4bb ea48 37bd 80b6 9abd c101 0ebe
00000130: c69d c3bb bef9 80bd e9e0 61bd 1331 17bd
00000140: 2bc8 82bd d22e 963d 5acd a939 afa8 b1bd
00000150: c27d 3b3c dd6d f9bc bd59 1abc a8de 47bd
00000160: ca7c 043b 3f0e d0bd e0c1 8fbd e54c f2b9
00000170: 97bc bebd a788 d8b9 f766 90bc 77f8 e53c
00000180: 91d7 6dbd addc 25bc d679 9a3d f45a 873c
00000190: 2b72 d8bc 0bdd 58bd 10a9 a3bd d35b 3bba
000001a0: e1c3 18be 5b90 dcbd 75e5 0f3d 8b61 8dbb
000001b0: 4c1a 0bbe 66ca a8bd 2c28 05bd 30d1 1bbd
000001c0: 6bf3 90bd 19f8 1abc ee49 90bd ccc8 cd3a
000001d0: bb1f 293d 9028 a5bd f98a cbba 6d2f f6bb
000001e0: 0511 cdbd 868e 72bd 0a32 47bc d8fb cdba
000001f0: ed02 91bb 377a 83bc c184 cdbd b46b 1dbb
00000200: d80a 643b be21 763d f005 2abd f01a 143d
00000210: 1e50 b3bc d878 6dba d256 143d f9b6 1e3d
00000220: 5f0e e5b9 cb35 2139 4cf3 4a3c ab99 cabb
00000230: ac26 81bd 570e 103b 1a5a 7abd 16a1 283b
00000240: 0ff6 83bd 320f 82bd 412b e7bc c4de da3c
00000250: c310 0fbd 713d 9238 dac3 3c3d 26a5 92bc
00000260: 8b5e e5bd c7a5 f93d 09ff 993d 6341 8cb8
00000270: 8647 f3bd faee 4dbd 719f beb9 3ae6 2d3c
00000280: f2ba 8bb9 07d5 923b 0650 653d 53c1 c83a
00000290: 6f99 4ebd baf3 a73d 3c70 41bd 84c0 553a
000002a0: d23a cabd adbf 673c b292 f0ba 6b34 c33b
000002b0: 690e 02be 99b1 12be 37ed babb 17cf 06bd
000002c0: 3a0b 7cbb 44fc d43d ce67 9c3c a7ef 63bc
000002d0: 34f6 59bd fa11 abbb aaea 643a 9c70 f4bc
000002e0: c8e5 9c3d 5327 6d3d 9dcb 0c3d a085 f13c
000002f0: 424b 72bd 1278 8ebd c4fe 183c 327f 99bb
00000300: d0a2 a8bd 8e14 95bc 29bc b5ba 55e4 e7bb
00000310: f7f0 ccbd f4ec 353c 7250 a8bd 74e6 75bd
00000320: 1426 5cba c9af 2bbd 3c98 423d d71e 02be
00000330: 7375 ef39 3df1 a7bd 614b 8cbb 4d5c 2cbd
00000340: c3a2 a9bc e8e5 e1bd ef36 5cbc 8a46 d93d
00000350: a214 6dbd cdfc 85bd 3575 7c3d 59c8 b33c
00000360: 34c9 9c39 65da acbc 6c03 0c3e 53fe 31bd
00000370: 8e21 de3d 94df 613d 4706 5e3b 9e14 06bd
00000380: b3f5 ffbc 4a62 f3b9 599c 713d c745 6937
00000390: 49e7 af3c 6bd8 183c 14d0 193b 4be6 a8bd
000003a0: aef5 75bd 854e b7bd 9173 67bd 7ba0 ba3c
000003b0: c696 843d 47dc 1939 a9f4 90bd 6623 453c
000003c0: d6d5 833c 098a 92bc 07f5 90bc 52c2 a13a
000003d0: 5835 93bd 65ea 3ebd e449 f5bc d805 5d3d
000003e0: ad1f 59bd 2396 b13a 11a6 54bc a7fa 5ebd
000003f0: 8382 b0bd 681b 34bc 014f 0a3b c354 60bd

gats.0.lin_r.weight f4 [335, 67]
-1.7271e-41 3.322e-41 -0.000196862 -5.3582942e-05 -1.033026e-06 -5.8745e-41 -5.2678035e-05 2.7659e-41
5.3101e-41 2.84e-41 1.8756e-41 -3.8875e-41 3.2258e-41 4.7992e-41 -3.8815e-41 3.2556e-41
3.41e-41 3.5264e-41 -0.0058935685 -0.06683664 -2.8996e-41 -0.037125666 -6.0383e-41 0.0076434542
0.0024470014 -4.479016e-05 0.0091506 -0.0001474814 -2.6792186e-05 -1.2018722e-05 5.6743e-41 0.028022002
-0.00016536632 0.0016993526 0.049704127 -0.0075103976 -1.2588204e-05 -1.3718522e-06 3.7183e-41 3.4204e-41
0.00032642597 0.057575442 -0.00020778475 0.0066081 -3.5328e-41 -4.6836954e-07 2.044263e-12 0.00023574181
-1.9873e-41 3.2387e-41 3.2946e-41 -3.1016e-41 3.0108e-41 -3.2475e-41 3.292e-41 -3.3883e-41
5.2479e-41 3.2596e-41 -3.2308e-41 0.093338855 -3.0338531e-05 3.234e-41 -6.2227e-41 -3.2296e-41
-3.5976e-41 -3.1762e-41 0.0005917601 -2.8083e-41 5.6727e-41 0.00044775163 -0.0021304842 -1.0688927e-06
-3.4245e-41 -0.00028368263 -0.002028165 1.7163e-41 -1.3301e-41 0.013083406 -1.6849e-41 3.1966e-41
-3.4223e-41 3.2496e-41 1.7478e-41 3.1765e-41 -3.3677e-41 -0.02660499 -0.08336081 2.1269e-41
0.046951704 -4.6679e-41 0.00432765 0.0017867346 -0.005390289 0.0009136773 -0.00023170118 3.8842713e-06
2.3801551e-06 3.5593e-41 0.06181541 -0.00035724728 0.028396973 0.0098014595 -0.002064831 -2.7667229e-05
0.0012569906 3.7685e-41 3.924e-42 0.04945478 -0.074796505 -1.5998918e-05 -0.00011664481 -5.0021e-41
2.3708762e-05 9.507087e-10 -0.0033261625 -3.2184e-41 -3.8708e-41 -3.5551e-41 -4.6831e-41 3.4504e-41
-3.1175e-41 5.827e-41 3.3963e-41 5.5553e-41 2.9223e-41 3.0882e-41 -0.043416813 -0.0020351622
2.8088e-41 -3.1242e-41 3.2583e-41 -9.407e-42 5.8507e-41 0.00019048137 -2.9792e-41 3.2516e-41
0.00033291697 -6.803091e-05 -4.6114727e-07 3.1596e-41 -4.9773835e-06 3.457e-41 3.2618e-41 -3.009e-41
4.6127e-41 -3.6715e-41 -3.4068e-41 3.7928e-41 -4.82e-42 -2.6033e-41 -5.1576e-41 -3.3677e-41
-0.0010463457 0.0057303724 3.2932e-41 0.0006619349 2.2582e-41 -0.00016146712 -3.437541e-05 6.111425e-05
-0.00014688558 0.00010697904 -5.8363735e-06 4.090506e-06 3.4688e-41 0.00013149138 1.0983376e-06 7.7080316e-05
-0.00080285635 0.00018156094 -3.580044e-06 1.2639446e-05 -2.9525e-41 -3.4059e-41 0.00011401967 -0.0003976086
-9.479711e-07 -5.014404e-06 -3.6033e-41 2.8356087e-08 -3.1674e-41 2.8115835e-06 3.5545e-41 -2.8913e-41
2.9857e-41 2.85e-41 3.5086e-41 -3.3694e-41 -2.9855e-41 -4.7203e-41 3.196e-42 3.6867e-41
3.1496e-41 -0.0006506502 0.00035378188 4.5078e-41 2.9757e-41 -6.2354e-41 1.3346e-41 -2.7129e-41
-2.8532204e-05 3.0976e-41 3.0808e-41 -0.00018250762 5.4553466e-06 4.594922e-08 3.1515e-41 0.00014706679
-5.977e-42 2.5941e-41 2.7475e-41 -3.2175e-41 5.8643e-41 -8.912e-42 3.0697e-41 -3.0059e-41
-9.33e-43 3.7709e-41 -3.2373e-41 0.00022494793 0.0041440735 -3.4395e-41 -0.00022647259 3.3512e-41
-0.00033370024 1.0359252e-05 -0.00011429016 -6.13072e-05 4.2586395e-05 0.00037010672 -1.1871525e-05 -5.8423e-41
-0.000791421 1.39317335e-05 -0.00038104432 -6.9887e-07 1.3815522e-06 3.4920344e-05 -6.0871707e-06 4.9373e-41
5.2537e-41 -3.917099e-05 -0.0007202684 0.0006269546 0.00035653348 3.3202e-41 -7.942183e-09 -4.4997e-41
0.00042564058 2.8809e-41 -2.9671e-41 -3.4231e-41 -4.1715e-41 3.2586e-41 3.1093e-41 -3.262e-41
00000000: 2530 0080 9b5c 0000 be6c 4eb9 3fbe 60b8
00000010: 81a6 8ab5 c2a3 0080 9cf2 5cb8 1a4d 0000
00000020: 0694 0000 2b4f 0000 4934 0000 5e6c 0080
00000030: ec59 0000 c885 0000 336c 0080 c15a 0000
00000040: 0f5f 0000 4d62 0000 d61e c1bb a6e1 88bd
00000050: d450 0080 1511 18bd 53a8 0080 f175 fa3b
00000060: df5d 203b 11dd 3bb8 66ec 153c 3da5 1ab9
00000070: c8bf e0b7 05a4 49b7 2d9e 0000 668e e53c
00000080: 2f66 2db9 d0bc de3a 8e96 4b3d c819 f6bb
00000090: ed31 53b7 7c20 b8b5 a767 0000 595f 0000
000000a0: 2724 ab39 3ad4 6b3d cbe0 59b9 c388 d83b
000000b0: 7b62 0080 3874 fbb4 2bda 0f2c 7631 7739
000000c0: 6637 0080 485a 0000 d75b 0000 7656 0080
000000d0: ee53 0000 875a 0080 c45b 0000 745e 0080
000000e0: 4a92 0000 dd5a 0000 105a 0080 7128 bf3d
000000f0: 807f feb7 275a 0000 77ad 0080 075a 0080
00000100: 4964 0080 8a58 0080 5920 1b3a 494e 0080
00000110: 229e 0000 35c0 ea39 989f 0bbb e076 8fb5
00000120: 765f 0080 3dbb 94b9 f6ea 04bb d82f 0000
00000130: 1425 0080 c85b 563c f82e 0080 1c59 0000
00000140: 665f 0080 965a 0000 b930 0000 8c58 0000
00000150: e15d 0080 b5f2 d9bc 13b9 aabd 4a3b 0000
00000160: 6e50 403d 1f82 0080 f6ce 8d3b dd30 ea3a
00000170: 05a1 b0bb d883 6f3a d0f4 72b9 a355 8236
00000180: c1ba 1f36 3863 0000 2832 7d3d eb4c bbb9
00000190: c5a0 e83c 4d96 203c 1e52 07bb ec16 e8b7
000001a0: 9bc1 a43a 0d69 0000 f00a 0000 1891 4a3d
000001b0: e92e 99bd 6a35 86b7 359f f4b8 708b 0080
000001c0: 2ee2 c637 17aa 8230 bffb 59bb b759 0080
000001d0: e76b 0080 1a63 0080 8c82 0080 2f60 0000
000001e0: e756 0080 6fa2 0000 ad5e 0000 dc9a 0000
000001f0: 7651 0000 1656 0000 d4d5 31bd 5b60 05bb
00000200: 4c4e 0000 1757 0080 d45a 0000 391a 0080
00000210: 18a3 0000 f4bb 4739 0c53 0080 a45a 0000
00000220: 5c8b ae39 d1ab 8eb8 9993 f7b4 1458 0000
00000230: 6603 a7b6 5e60 0000 ed5a 0000 e153 0080
00000240: 9580 0000 5966 0080 f85e 0080 ba69 0000
00000250: 700d 0080 9248 0080 c68f 0080 e15d 0080
00000260: 8925 89ba d9c5 bb3b cd5b 0000 b385 2d3a
00000270: f33e 0000 804f 29b9 512e 10b8 772a 8038
00000280: 4c05 1ab9 ef59 e038 11d6 c3b6 2e41 8936
00000290: b260 0000 f3e0 0939 986a 9335 2ea6 a138
000002a0: c776 52ba 6561 3e39 b040 70b6 020e 5437
000002b0: 4e52 0080 f15e 0080 d81d ef38 1f76 d0b9
000002c0: 1478 7eb5 6741 a8b6 7264 0080 b293 f332
000002d0: 4b58 0080 a3ae 3c36 1663 0000 9950 0080
000002e0: 3b53 0000 724f 0000 ce61 0000 ed5d 0080
000002f0: 3953 0080 9583 0080 e908 0000 c566 0000
00000300: cc57 0000 6590 2aba cd7b b939 a97d 0000
00000310: f352 0000 d1ad 0080 3425 0000 a04b 0080
00000320: 7158 efb7 5956 0000 e155 0000 845f 3fb9
00000330: 120d b736 b459 4533 da57 0000 f135 1a39
00000340: a910 0080 5048 0000 974c 0000 b159 0080
00000350: 79a3 0000 d818 0080 9255 0000 cb53 0080
00000360: 9a02 0080 1e69 0000 3e5a 0080 00e0 6b39
00000370: 02cb 873b e15f 0080 4679 6db9 6b5d 0000
00000380: 7df4 aeb9 a6cc 2d37 10af efb8 0d92 80b8
00000390: cb9e 3238 e20a c239 d02b 47b7 dca2 0080
000003a0: 5d77 4fba 57bc 6937 e7c6 c7b9 fb99 3bb5
000003b0: c66d b935 6f77 1238 6640 ccb6 a289 0000
000003c0: 7492 0000 884b 24b8 65d0 3cba 365a 243a
000003d0: 1ded ba39 8e5c 0000 1772 08b2 6f7d 0080
000003e0: 8328 df39 4f50 0000 b652 0080 6c5f 0080
000003f0: 4974 0080 d65a 0000 ad56 0000 ee5a 0080

gats.0.lin_r.bias f4 [335]
0.117903 -0.05858173 0.0019125905 0.00078552566 0.028711705 0.0062960535 0.0004855952 0.019482696
0.19209601 0.014041488 0.13081567 0.018598618 0.0017605441 0.081195176 0.04114742 0.006253952
0.03890382 0.057537578 0.047953628 -0.0037204672 -0.05637238 0.0024955156 0.055413347 0.0071062506
0.0012179202 0.08778365 0.0066188625 0.013366243 0.017139928 0.002095821 -0.016631097 -0.0017524371
0.018267699 0.21261247 0.03508897 0.0034893225 0.021980848 -0.003638353 0.0022112727 -0.0008109448
0.005437785 0.031460453 0.09439324 0.08313999 0.024857352 0.046081997 0.0154303685 -0.0005579545
0.0018367978 0.0003966401 -0.0012509128 0.013485137 0.106993265 0.22297347 0.031505223 0.026667211
0.0330096 0.0028836213 -0.02162693 0.002755995 0.007068772 0.000114669616 0.020495486 -0.038242035
0.048728213 -0.02651949 0.0039980984 0.22890274 0.026511509 1.8333752e-05 -6.410619e-05 0.070130326
3.21109e-05 0.0953325 -0.0010009934 0.11031514 0.0007684004 0.029437175 -0.00019785523 -0.0016663754
0.029015142 -0.030723846 -0.00010208976 0.001911863 -0.011385422 7.409141e-05 -0.00922338 0.019167922
7.856533e-05 0.18066299 -0.005296693 0.00015848117 -0.011699901 -5.4114513e-05 -0.0044878046 -0.090935424
0.048284538 0.0032611734 -0.027904991 -0.0016990884 0.13653044 -0.00026938584 0.0651908 -0.00010712434
-0.0010279295 -0.0024098922 -0.0015869708 1.1359301e-05 -0.008594282 0.053397346 -0.029363101 -0.00052334124
4.390267e-06 -0.0011494235 0.024662517 0.00012586755 0.17695715 0.005845811 -0.0054706503 0.0029242823
-0.003987441 0.049151707 -0.0033391064 -1.3168591e-05 1.8272331e-06 0.003474867 0.035830714 -0.00010997132
7.3873656e-05 0.04904692 -0.00042258343 0.056866553 -0.022656223 -3.4649107e-05 0.22009422 0.25638366
0.00024014218 0.0002071783 0.0059049297 -3.5456692e-06 0.0021854294 -0.051065527 -0.023650285 -0.012376386
0.17135274 -0.016413396 0.13598815 0.18330704 0.06440565 0.0004880656 0.21245235 -0.014457493
0.10606265 0.35781673 0.017010601 0.016182497 0.045408603 -0.038451105 -1.7603214e-05 -0.0011147298
0.0006902645 0.0044882083 -0.01112002 -0.0004791637 -0.0030351144 0.032783773 -0.07839095 0.005593866
-0.050629288 0.12852687 -0.0002961474 0.12186925 0.008998927 0.0039476114 0.0024100963 0.15382591
0.0044354084 0.24656835 -0.024365386 -8.786724e-05 0.062424537 -0.024522593 0.00091008696 0.0008071059
0.110319406 0.20017163 0.30073914 -0.044821028 -0.017052516 0.0005838046 0.000117719355 0.0022393353
0.073523305 0.08375723 -0.0004432548 0.08680956 -0.01603485 -0.015566805 -0.038727622 -0.00287141
4.9413516e-06 0.013497104 0.0077931713 0.063119836 -2.2101336e-05 2.1974172e-05 -4.7795773e-05 -0.0003640948
0.021982811 -0.00060281943 0.000114239185 0.13149472 -0.002282424 -0.008240444 0.04097775 0.08986367
-0.00012643964 0.03068031 -0.05181171 0.031557765 0.03888951 -0.014158215 -0.0007862245 0.035514235
0.015504166 0.00013482838 0.13464727 0.000114687886 0.06585572 -0.032979127 -1.821067e-05 -0.002144777
0.0001296195 0.080315486 -0.0043446375 0.0014516804 0.0911688 -0.00024951095 0.042706687 -0.000928305
0.008576676 0.05850581 0.061963603 -0.0015499907 0.28378665 -0.0003790335 0.008759184 0.01601435
-0.0006633568 7.714357e-05 -0.00017251263 -0.02567231 -0.00050967233 0.021174043 0.03148309 0.012994116
00000000: 2177 f13d 65f3 6fbd e3af fa3a bceb 4d3a
00000010: cf34 eb3c 204f ce3b 7c97 fe39 2d9a 9f3c
00000020: d1b4 443e 450e 663c 8bf4 053e 215c 983c
00000030: 0fc2 e63a a849 a63d 328a 283d f4ed cc3b
00000040: 9d59 1f3d 86ac 6b3d 066b 443d 15d3 73bb
00000050: bae6 66bd ce8b 233b 1bf9 623d 8ddb e83b
00000060: 9fa2 9f3a eac7 b33d 0be3 d83b 16fe 5a3c
00000070: 0969 8c3c 0b5a 093b f03d 88bc 08b2 e5ba
00000080: 24a6 953c 15b7 593e 74b9 0f3d 1ead 643b
00000090: 2e11 b43c 6f71 6ebb 00eb 103b 9695 54ba
000000a0: 722f b23b addc 003d 3e51 c13d 4d45 aa3d
000000b0: a5a1 cb3c 7ac0 3c3d a8cf 7c3c b143 12ba
000000c0: b5c0 f03a 22f4 cf39 abf5 a3ba c4f0 5c3c
000000d0: 491f db3d 2853 643e 9f0b 013d 3275 da3c
000000e0: 1335 073d 23fb 3c3b f62a b1bc ec9d 343b
000000f0: 28a1 e73b c87a f038 26e6 a73c aea3 1cbd
00000100: 3c97 473d 673f d9bc 7b02 833b 7b65 6a3e
00000110: aa2e d93c 6fcb 9937 c070 86b8 7da0 8f3d
00000120: d1ae 0638 b03d c33d c433 83ba e7ec e13d
00000130: 7a6e 493a 3b26 f13c 5c77 4fb9 486a daba
00000140: 2ab1 ed3c 93b0 fbbc 0619 d6b8 7a97 fa3a
00000150: ec89 3abc 8661 9b38 a91d 17bc 0c06 9d3c
00000160: 71c3 a438 b8ff 383e e28f adbb f72d 2639
00000170: f1b0 3fbc 04f9 62b8 6f0e 93bb 5a3c babd
00000180: 02c6 453d 69b9 553b 0299 e4bc f2b3 deba
00000190: a3ce 0b3e 5b3c 8db9 c182 853d f1a7 e0b8
000001a0: 97bb 86ba 48ef 1dbb e701 d0ba d493 3e37
000001b0: 08cf 0cbc 2db7 5a3d e38a f0bc d630 09ba
000001c0: 1b50 9336 41a8 96ba 0c09 ca3c 50fb 0339
000001d0: 4134 353e 388e bf3b 2443 b3bb 51a5 3f3b
000001e0: 14a9 82bb 4d53 493d e9d4 5abb abee 5cb7
000001f0: 403f f535 98ba 633b 3ac3 123d 67a0 e6b8
00000200: 9eec 9a38 6ce5 483d 308e ddb9 e7ec 683d
00000210: 8b99 b9bc 3254 11b8 6160 613e b844 833e
00000220: adce 7b39 003e 5939 247e c13b 22f2 6db6
00000230: 6c39 0f3b 162a 51bd 3ebe c1bc 53c6 4abc
00000240: 1877 2f3e 6375 86bc 7a40 0b3e d7b4 3b3e
00000250: 1ce7 833d 0ee3 ff39 1c8d 593e 1fdf 6cbc
00000260: 6037 d93d c133 b73e d159 8b3c 2891 843c
00000270: 5ffe 393d e87e 1dbd 9daa 93b7 201c 92ba
00000280: def2 343a d211 933b bf30 36bc 4338 fbb9
00000290: c5e8 46bb 4748 063d 6f8b a0bd c04c b73b
000002a0: a860 4fbd 8c9c 033e 3b44 9bb9 9696 f93d
000002b0: 3c70 133c f75a 813b b5f2 1d3b 8a84 1d3e
000002c0: e756 913b 6a7c 7c3e eb99 c7bc 5e45 b8b8
000002d0: dfb0 7f3d 9be3 c8bc e792 6e3a f693 533a
000002e0: 24ef e13d cbf9 4c3e 7bfa 993e 4196 37bd
000002f0: b8b1 8bbc 770a 193a 19e0 f638 d0c1 123b
00000300: 6393 963d e988 ab3d a764 e8b9 36c9 b13d
00000310: 855b 83bc ea0b 7fbc dba0 1ebd 442e 3cbb
00000320: e3cd a536 f522 5d3c dc5d ff3b f944 813d
00000330: 4266 b9b7 2d55 b837 5278 48b8 fae3 beb9
00000340: 4c15 b43c 8706 1eba b293 ef38 8da6 063e
00000350: b894 15bb ed02 07bc 49d8 273d 720a b83d
00000360: e294 04b9 4655 fb3c 8438 54bd b742 013d
00000370: 9b4a 1f3d dcf7 67bc a21a 4eba 6077 113d
00000380: 2f05 7e3c b860 0d39 f9e0 093e 9784 f038
00000390: 5ddf 863d 1f15 07bd 1ec3 98b7 638f 0cbb
000003a0: 78ea 0739 727c a43d 765d 8ebb 5046 be3a
000003b0: b5b6 ba3d cbd0 82b9 35ed 2e3d 7e59 73ba
000003c0: 3085 0c3c caa3 6f3d 8ccd 7d3d 0f29 cbba
000003d0: 7c4c 913e 04b9 c6b9 ae82 0f3c 8730 833c
000003e0: 1fe5 2dba 24c8 a138 82e4 34b9 bc4e d2bc
000003f0: 889b 05ba 3075 ad3c 6af4 003d 46e5 543c

gats.0.lin_edge.weight f4 [335, 1]
0.43565214 0.43293533 -0.0011829737 -0.00064052694 0.7534107 -0.0035483614 0.24602295 -0.0025362785
-0.30025768 -0.0077998447 0.7199202 -0.0014357446 0.0013924119 0.45621806 0.26301837 -0.0018468194
0.0024309207 0.05860229 0.3765159 0.30197906 0.4101225 0.00063315174 0.0010102474 -0.0009024056
-0.0005615353 0.37801433 -0.0009447722 0.0016208554 -0.029071068 0.0007717341 -0.014319896 -0.0022445365
-0.0011841572 0.63165134 -0.011671554 0.0062667816 0.49833605 -0.0021349331 -0.0017740921 4.224449e-05
0.0034291025 -0.0018363165 -0.018024597 -0.021723712 -0.0030996385 0.4887698 -0.0057208105 -0.0026223066
-0.0014704259 0.0010876219 -6.914822e-06 0.0078010964 0.34813985 -0.19310775 -0.0038783113 -0.008355875
0.57267404 -0.0006012344 -0.0006131531 0.0019011853 -0.00062887714 -0.00018859158 -0.0030318615 0.28258014
0.187828 0.6209512 0.001287987 0.178181 0.16880074 3.7642087e-05 -1.76724e-06 0.19000503
2.4438637e-05 0.187879 -0.0014212717 0.37894475 0.0028968118 0.44514096 0.00014211959 -0.0008841902
0.21571262 0.18166076 -5.6327444e-05 0.0044393195 -0.009654214 -0.003231546 -0.030879453 0.016241474
9.100691e-05 -0.10520415 -0.0124581 0.00017556631 -0.008880668 -5.375963e-05 0.007311194 0.31839278
0.07512864 0.0026824193 -0.040440608 0.0020808307 0.11256754 0.002082707 0.30306435 -5.480335e-05
-0.005331823 0.26606718 0.00024982248 3.741287e-05 -0.020014986 0.04604815 -0.1425947 -0.001013746
0.00016479108 -4.7643607e-06 0.30535385 0.00013196049 0.18008433 -0.0039684367 -0.011935509 -0.0028742598
-0.021455098 0.023675367 -0.0058965185 8.853986e-06 5.4295456e-06 0.0056310627 0.15607856 9.867805e-05
-4.0181698e-05 0.06780082 -0.0003091313 0.11424847 -0.015228954 -2.0981242e-05 -0.27654397 -0.35292062
1.9444942e-05 -0.00084878935 0.38191134 3.2437092e-06 0.00053728675 -0.082368106 -0.03972884 -0.009494712
0.7009808 -0.028999869 -0.16175622 -0.041575342 -0.08436996 -0.0004311022 -0.31194413 -0.023515133
0.9689977 -0.20722672 0.0027811574 0.32877207 -0.003537153 -0.056259952 -3.5256922e-05 -0.009293427
-0.00016201893 0.36484537 -0.056600243 -0.0015686842 -0.0015072201 0.62056243 -0.11809352 0.021179711
-0.17286634 0.6776464 -0.00033653437 -0.23920123 0.6381406 0.015475692 -2.5261363e-05 0.6439652
0.015109602 -0.19508484 -0.03589027 0.0019371423 0.33635315 0.0066789524 -0.0019733394 0.0004956532
-0.37148097 -0.32291654 -0.43655685 0.022112424 -0.028931217 -9.049383e-06 0.003709309 0.000121609686
0.820808 0.658596 -0.0016967993 0.6676337 -0.022241414 -0.007898177 -0.058026597 0.0038832235
-7.430846e-05 0.54568946 0.0054936428 0.13518248 -6.0566595e-06 1.4721377e-05 -1.30299095e-05 0.0032484555
0.00078197033 -0.00097039103 -0.0031841449 0.39682186 -0.0049396777 -0.0036031238 0.2699171 0.08965185
0.0001155119 0.31489292 0.32150736 0.12467886 0.36707228 -0.021234807 -0.00013806802 -0.058027193
0.21923465 6.8710615e-05 -0.12355273 6.6370616e-05 0.41492593 0.4331283 0.00019037859 -0.0040211556
0.35314983 0.30720755 -0.0040414073 0.0025067928 0.31691417 -6.5810775e-05 0.05191195 0.00010079405
0.015603701 0.12257167 0.08723621 0.008689017 0.16170107 -0.00070866547 0.014227701 0.33792347
0.0012556327 -5.6825924e-05 7.167567e-06 0.28328782 -0.001091792 0.025855744 0.034624632 0.01365364
00000000: cc0d df3e b3a9 dd3e 030e 9bba 09e9 27ba
00000010: 86df 403f a08b 68bb 71ed 7b3e b137 26bb
00000020: 60bb 99be d795 ffbb b14c 383f 982f bcba
00000030: 9781 b63a 6a95 e93e 58aa 863e fa10 f2ba
00000040: 1550 1f3b f408 703d b1c6 c03e 009d 9a3e
00000050: 94fb d13e 18fa 253a 476a 843a 6a8f 6cba
00000060: ff33 13ba 188b c13e 97aa 77ba e272 d43a
00000070: 7326 eebc 334e 4a3a ff9d 6abc 1319 13bb
00000080: b935 9bba e7b3 213f 0c3a 3fbc 9359 cd3b
00000090: e725 ff3e 3cea 0bbb a788 e8ba ad2f 3138
000000a0: cbba 603b 8fb0 f0ba 52a8 93bc edf5 b1bc
000000b0: 4e23 4bbb 0940 fa3e a375 bbbb 01db 2bbb
000000c0: 4ebb c0ba 898e 8e3a de05 e8b6 57a0 ff3b
000000d0: 633f b23e 0abe 45be 442b 7ebb 14e7 08bc
000000e0: c49a 123f 289c 1dba 02bc 20ba 3131 f93a
000000f0: 3bdb 24ba abc0 45b9 32b2 46bb 58ae 903e
00000100: fc55 403e a8f6 1e3f acd1 a83a 1475 363e
00000110: 1ada 2c3e e2e1 1d38 e731 edb5 ae90 423e
00000120: 9301 cd37 5a63 403e f749 baba 0c05 c23e
00000130: 70d8 3d3b 84e9 e33e f005 1539 00c9 67ba
00000140: c5e3 5c3e 4705 3a3e 2241 6cb8 b677 913b
00000150: b52c 1ebc 58c8 53bb e8f6 fcbc d70c 853c
00000160: f6da be38 4675 d7bd 0f1d 4cbc 3918 3839
00000170: 3980 11bc f77b 61b8 be92 ef3b 6104 a33e
00000180: 0bdd 993d 87cb 2f3b 0da5 25bd 8c5e 083b
00000190: cf89 e63d 067e 083b 402b 9b3e a6dc 65b8
000001a0: 93b6 aebb f539 883e 9bfa 8239 c3eb 1c38
000001b0: 78f6 a3bc fc9c 3c3d 5804 12be acdf 84ba
000001c0: c5cb 2c39 8cdd 9fb6 5757 9c3e e05e 0a39
000001d0: 0768 383e a909 82bb 278d 43bc 145e 3cbb
000001e0: 9ac2 afbc d8f2 c13c 9537 c1bb 958b 1437
000001f0: 712f b636 c784 b83b 0fd3 1f3e 60f1 ce38
00000200: c588 28b8 28db 8a3d e712 a2b9 1afb e93d
00000210: dd82 79bc e000 b0b7 2c97 8dbe 03b2 b4be
00000220: b21d a337 4a81 5eba e289 c33e 80ae 5936
00000230: b4d8 0c3a 9cb0 a8bd b5ba 22bd b58f 1bbc
00000240: 7a73 333f 2291 edbc 6ca3 25be e84a 2abd
00000250: 28ca acbd 8f05 e2b9 24b7 9fbe cfa2 c0bc
00000260: 3c10 783f 3e33 54be 1444 363b d054 a83e
00000270: 94cf 67bb d670 66bd d5e0 13b8 7543 18bc
00000280: a0e3 29b9 03cd ba3e a8d5 67bd 4f9c cdba
00000290: ea8d c5ba 2edd 1e3f 04db f1bd 1381 ad3c
000002a0: e003 31be 3c7a 2d3f e170 b0b9 2bf1 74be
000002b0: 2f5d 233f c28d 7d3c 5de8 d3b7 e7da 243f
000002c0: 448e 773c 52c4 47be ad01 13bd b6e7 fd3a
000002d0: 7b36 ac3e 1ddb da3b 2453 01bb b9ee 013a
000002e0: c132 bebe 5155 a5be 6184 dfbe 1d25 b53c
000002f0: 2901 edbc ced2 17b7 e117 733b b408 ff38
00000300: 7920 523f bf99 283f 2367 deba 0bea 2a3f
00000310: a033 b6bc 5b67 01bc 4cad 6dbd ae7d 7e3b
00000320: 0dd6 9bb8 4eb2 0b3f 0404 b43b 476d 0a3e
00000330: 4f3a cbb6 d5fb 7637 099b 5ab7 0ae4 543b
00000340: 24fd 4c3a d761 7eba 16ad 50bb 3c2c cb3e
00000350: 05dd a1bb 6322 6cbb 9332 8a3e 649b b73d
00000360: fb3e f238 a539 a13e 9d9c a43e a157 ff3d
00000370: e6f0 bb3e 9ef4 adbc 5ac6 10b9 ecad 6dbd
00000380: 0c7f 603e bb18 9038 3709 fdbd 7430 8b38
00000390: 2c71 d43e fec2 dd3e 5da0 4739 e6c3 83bb
000003a0: 0ed0 b43e 4f4a 9d3e c86d 84bb 0149 243b
000003b0: 9342 a23e e403 8ab8 a0a1 543d 6561 d338
000003c0: aaa6 7f3c db06 fb3d e6a8 b23d 615c 0e3c
000003d0: f794 253e bcc5 39ba 4e1b 693c 4e04 ad3e
000003e0: 0b94 a43a 5f58 6eb8 ef80 f036 1a0b 913e
000003f0: 761a 8fba 6dcf d33c 8fd2 0d3d 84b3 5f3c

gats.1.att f4 [1, 5, 67]
-1.7362302e-10 1.3835142e-09 -1.8304595e-10 6.3917064e-08 1.0299899e-09 1.356644e-07 -3.7322654e-12 5.637627e-10
-2.4436809e-12 2.9513641e-08 -3.75053e-09 1.3168587e-07 3.7627654e-08 2.0215214e-09 4.5244068e-08 1.2458351e-11
8.907429e-09 7.104476e-08 9.642819e-09 2.5789527e-07 7.446147e-12 -7.0181516e-10 2.4031516e-10 -2.8099443e-09
-9.760914e-11 1.3270198e-09 2.5480076e-13 1.1493731e-07 -1.91976e-09 -1.5767649e-08 -2.0261055e-09 -4.738483e-08
7.5720075e-10 -3.578663e-09 -2.2660264e-07 -4.0234575e-08 2.1084546e-11 2.8845706e-10 -3.6174188e-09 6.622269e-08
-1.2640243e-07 -2.4182327e-09 1.3730288e-08 2.4864824e-10 -1.339965e-09 -1.4347427e-09 -1.5937182e-08 -7.5592223e-20
7.4999576e-11 2.322627e-09 -1.6415443e-18 5.0891418e-12 1.939511e-20 -4.1833234e-10 3.710592e-07 -7.276626e-13
6.46458e-09 -3.1238936e-10 -1.0718976e-06 3.8185664e-24 -8.2225874e-08 1.5980271e-11 -2.609441e-09 -1.9982897e-10
-4.5534396e-10 1.5538332e-10 3.3624087e-08 -1.7470039e-10 1.3853555e-09 -1.8314494e-10 6.392997e-08 1.0367371e-09
1.357376e-07 -3.7330963e-12 5.644584e-10 -2.4430978e-12 2.9510758e-08 -3.753783e-09 1.3178554e-07 3.7649446e-08
2.0251347e-09 4.5259043e-08 1.246719e-11 8.908127e-09 7.108019e-08 9.642436e-09 2.5795515e-07 7.444928e-12
-7.026329e-10 2.4034072e-10 -2.812758e-09 -9.7623507e-11 1.331907e-09 2.5488604e-13 1.1503125e-07 -1.918976e-09
-1.5783298e-08 -2.0266042e-09 -4.741867e-08 7.6238316e-10 -3.5773051e-09 -2.2695399e-07 -4.0268205e-08 2.109262e-11
2.873594e-10 -3.6197945e-09 6.624619e-08 -1.2661161e-07 -2.412205e-09 1.37464005e-08 2.486919e-10 -1.3408316e-09
-1.4222812e-09 -1.6429993e-08 -7.562472e-20 7.47115e-11 2.3238007e-09 -1.642431e-18 5.1440727e-12 1.9566316e-20
-4.189506e-10 3.7116294e-07 -7.2806604e-13 6.4853345e-09 -3.1240413e-10 -1.0718614e-06 3.8143535e-24 -8.2231175e-08
1.6010346e-11 -2.6101719e-09 -1.9992004e-10 -4.5478177e-10 1.5635873e-10 3.3645303e-08 -1.7532875e-10 1.3898073e-09
-1.8360308e-10 6.39589e-08 1.0405644e-09 1.3585189e-07 -3.7345188e-12 5.6413424e-10 -2.4344834e-12 2.9527708e-08
-3.756797e-09 1.320572e-07 3.767001e-08 2.0276207e-09 4.52931e-08 1.2470525e-11 8.911803e-09 7.114504e-08
9.645231e-09 2.5861135e-07 7.429168e-12 -7.029647e-10 2.4004404e-10 -2.81569e-09 -9.78163e-11 1.3292917e-09
2.550738e-13 1.1506946e-07 -1.9175683e-09 -1.5832596e-08 -2.0289281e-09 -4.74501e-08 7.55212e-10 -3.5856156e-09
-2.2634937e-07 -4.0302545e-08 2.1038095e-11 2.8854777e-10 -3.6233556e-09 6.6293495e-08 -1.2645943e-07 -2.4148412e-09
1.3774783e-08 2.4831712e-10 -1.342465e-09 -1.4002983e-09 -1.6574052e-08 -7.5565805e-20 7.4190834e-11 2.3268887e-09
-1.6482648e-18 5.0050407e-12 1.9913283e-20 -4.2079978e-10 3.7156968e-07 -7.2882206e-13 6.5117924e-09 -3.1285355e-10
-1.0714118e-06 3.826513e-24 -8.214093e-08 1.5902148e-11 -2.6109597e-09 -2.0087108e-10 -4.5880288e-10 1.5735867e-10
3.367976e-08 -1.753682e-10 1.3952407e-09 -1.8331357e-10 6.3961785e-08 1.0447577e-09 1.3589612e-07 -3.7356216e-12
5.6402794e-10 -2.4274545e-12 2.9535075e-08 -3.7565893e-09 1.3220229e-07 3.7683805e-08 2.0279123e-09 4.5313698e-08
1.247053e-11 8.912684e-09 7.11685e-08 9.6450155e-09 2.581825e-07 7.424906e-12 -7.0254447e-10 2.4001298e-10
-2.8151703e-09 -9.781181e-11 1.3295015e-09 2.5504729e-13 1.1492806e-07 -1.9170265e-09 -1.5877399e-08 -2.029844e-09
-4.748214e-08 7.616701e-10 -3.5771295e-09 -2.2620479e-07 -4.0331386e-08 2.10308e-11 2.8901406e-10 -3.6228753e-09
6.631127e-08 -1.2633679e-07 -2.4146114e-09 1.3781349e-08 2.4834682e-10 -1.3431289e-09 -1.3981236e-09 -1.6792978e-08
-7.557062e-20 7.429668e-11 2.3281979e-09 -1.6500165e-18 4.9850853e-12 1.996328e-20 -4.2021395e-10 3.7177472e-07
00000000: 89e6 3eaf 1426 be30 db42 49af c742 8933
00000010: 8c8f 8d30 25ab 1134 4251 83ac 46f7 1a30
00000020: 71f5 2bac 2f85 fd32 03de 80b1 8965 0d34
00000030: 0b9c 2133 fbea 0a31 6152 4233 6d2b 5b2d
00000040: 4907 1932 4591 9833 91a9 2532 db74 8a34
00000050: 77fe 022d dae9 40b0 5a1d 842f 1019 41b1
00000060: 10a5 d6ae 5c62 b630 a970 8f2a 74d3 f633
00000070: c6ec 03b1 6d71 87b2 a03b 0bb1 2c84 4bb3
00000080: 4423 5030 81ec 75b1 0f50 73b4 62ce 2cb3
00000090: 2d76 b92d b994 9e2f 4e96 78b1 4f36 8e33
000000a0: 3cb9 07b4 002e 26b1 72e2 6b32 21b2 882f
000000b0: d429 b8b0 8530 c5b0 3ce6 88b2 b27c b29f
000000c0: 02ed a42e 169c 1f31 ca3f f2a1 ea0e b32c
000000d0: 802e b71e 0bfb e5af fd35 c734 9ed1 4cab
000000e0: 0c1f de31 e5bc abaf 1fde 8fb5 40b9 9318
000000f0: 2794 b0b3 5f90 8c2d c651 33b1 dbb6 5baf
00000100: f753 faaf 84d8 2a2f 136a 1033 ca15 40af
00000110: dd66 be30 b85e 49af df49 8933 f27c 8e30
00000120: 44bf 1134 be58 83ac 3b28 1b30 f0ea 2bac
00000130: d87e fd32 a0fa 80b1 ef80 0d34 01b4 2133
00000140: 8c2a 0b31 d862 4233 3b53 5b2d 5b0a 1932
00000150: bfa4 9833 e2a7 2532 167d 8a34 faf8 022d
00000160: 6523 41b0 f320 842f 904a 41b1 26ad d6ae
00000170: 500e b730 f37c 8f2a 1907 f733 fcde 03b1
00000180: d793 87b2 6644 0bb1 61a9 4bb3 f28f 5130
00000190: 9ed4 75b1 a3b0 73b4 5cf3 2cb3 5c88 b92d
000001a0: 3dfa 9d2f 19c0 78b1 3a43 8e33 bcf2 07b4
000001b0: f6c3 25b1 4f29 6c32 46b8 882f 5148 b8b0
000001c0: 127a c3b0 f021 8db2 5790 b29f d64a a42e
000001d0: bcb0 1f31 4a61 f2a1 b0fd b42c 73cc b81e
000001e0: 0e52 e6af 3f44 c734 b0ee 4cab 9bd5 de31
000001f0: f9be abaf e1dc 8fb5 878f 9318 1197 b0b3
00000200: 18d4 8c2d a15e 33b1 7dd0 5baf d804 faaf
00000210: 12eb 2b2f 6781 1033 a8c6 40af 7f03 bf30
00000220: acdf 49af c759 8933 9b03 8f30 afde 1134
00000230: 8e65 83ac 6b11 1b30 c14f 2bac 1ea4 fd32
00000240: 2315 81b1 9bcb 0d34 9dca 2133 4856 0b31
00000250: 4a88 4233 4062 5b2d 861a 1932 66c8 9833
00000260: 2db4 2532 46d7 8a34 00b2 022d be3a 41b0
00000270: 32f7 832f 247e 41b1 ae19 d7ae 4bb2 b630
00000280: 0298 8f2a 1b1c f733 38c6 03b1 3f00 88b2
00000290: 486d 0bb1 f0cb 4bb3 5297 4f30 d166 76b1
000002a0: 710a 73b4 1e19 2db3 940d b92d 7da1 9e2f
000002b0: bffe 78b1 3c5d 8e33 e7c8 07b4 56f2 25b1
000002c0: 23a6 6c32 8783 882f ca81 b8b0 9e74 c0b0
000002d0: ba5e 8eb2 ba6c b29f ba25 a32e 0fe7 1f31
000002e0: af3d f3a1 6619 b02c 5d13 bc1e 4e56 e7af
000002f0: 267c c734 2a25 4dab 55be df31 39fe abaf
00000300: 6ecd 8fb5 f307 9418 7465 b0b3 74e0 8b2d
00000310: 7d6c 33b1 2fdc 5caf c43a fcaf 8704 2d2f
00000320: 4aa7 1033 c3d1 40af abc2 bf30 2f8e 49af
00000330: 5d5b 8933 2597 8f30 d7ea 1134 7d6f 83ac
00000340: f009 1b30 22d1 2aac 51b4 fd32 4f13 81b1
00000350: 7df3 0d34 c8d9 2133 695b 0b31 f09e 4233
00000360: 4662 5b2d 661e 1932 4cd5 9833 3ab3 2532
00000370: 559c 8a34 ce9e 022d 2c1d 41b0 d3f2 832f
00000380: 0075 41b1 2717 d7ae adb9 b630 3094 8f2a
00000390: 5fce f633 b0bc 03b1 c562 88b2 657d 0bb1
000003a0: 2aef 4bb3 c55d 5130 87d1 75b1 b3e2 72b4
000003b0: d438 2db3 27fd b82d 1de3 9e2f 4cf6 78b1
000003c0: 0267 8e33 31a7 07b4 4bee 25b1 04c3 6c32
000003d0: b587 882f 2699 b8b0 1a28 c0b0 2640 90b2
000003e0: a36f b29f 5061 a32e 17fe 1f31 dc7f f3a1
000003f0: a865 af2c 408c bc1e db03 e7af 5498 c734

gats.1.bias f4 [67]
-0.00018057079 -7.875796e-06 -0.0004764143 -7.929315e-05 9.503517e-05 -0.00029858237 -1.7509872e-05 -0.00034037643
-2.3337388e-05 1.8624587e-05 -0.00021033981 -0.00033685338 1.4823767e-05 4.561886e-05 -8.3399995e-05 -1.4362702e-05
-0.0017036081 -1.4141361e-05 -1.08639415e-05 0.001365073 -2.0875357e-05 1.9054796e-05 -1.35611945e-05 -0.00017586496
-3.233347e-05 -0.00069451233 -1.0237444e-05 0.00017331511 1.6241765e-05 0.00018582019 -0.0008168327 0.0001456079
-0.0003005719 -0.0010255674 -0.0015008177 0.00011373051 -3.959935e-06 4.044878e-06 -0.00063655013 -2.4506311e-05
-3.343281e-05 -0.00043763066 6.636141e-05 -0.00013048215 -0.00034451223 9.590071e-05 0.0023352457 -1.8979302e-12
-0.00018433962 -9.92775e-07 -1.8650581e-10 -3.9220253e-05 -1.3698906e-11 -0.0010030906 -0.00046931286 -9.621203e-06
7.054284e-05 -0.00043596115 -0.0004534345 -2.5480845e-15 -9.7672346e-05 -4.639246e-05 -0.0011561853 0.00010391769
-0.00086528494 -0.00019795234 -6.859087e-07
00000000: 9a57 3db9 4922 04b7 3fc7 f9b9 304a a6b8
00000010: 9e4d c738 0c8b 9cb9 2ae2 92b7 8d74 b2b9
00000020: a9c4 c3b7 ff3b 9c37 aa8e 5cb9 b29b b0b9
00000030: 98b3 7837 e156 3f38 08e7 aeb8 56f7 70b7
00000040: 9a4b dfba af40 6db7 4644 36b7 40ec b23a
00000050: 7d1d afb7 ddd7 9f37 e384 63b7 6468 38b9
00000060: cd9d 07b8 ef0f 36ba 7dc1 2bb7 ecbb 3539
00000070: ed3e 8837 bad8 4239 b720 56ba 53ae 1839
00000080: 1496 9db9 556c 86ba 16b7 c4ba 9a82 ee38
00000090: 95df 84b6 3db9 8736 28de 26ba e792 cdb7
000000a0: 353a 0cb8 cb71 e5b9 832b 8b38 09d2 08b9
000000b0: a69f b4b9 4d1e c938 ec0a 193b 128e 05ac
000000c0: 4a4b 41b9 7d3f 85b5 b810 4daf 6d80 24b8
000000d0: 63fe 70ad 237a 83ba 1b0e f6b9 c16a 21b7
000000e0: 66f0 9338 b791 e4b9 f3ba edb9 dd9b 37a7
000000f0: 71d5 ccb8 8695 42b8 248b 97ba 63ee d938
00000100: 4ad4 62ba 6d91 4fb9 491f 38b5
