inference/SymEx/model_checkpoints/SymEx_model_5.pt (torch, 503011 bytes, 21 tensors)

gats.0.att f4 [1, 5, 67]
000000 7b 50 32 b7 34 ad 07 3b a3 c3 95 3e 86 20 80 bb
       -1.0628365e-05 0.0020702602 0.2925082 -0.003910127
000010 40 6b 83 b7 62 4a 88 bf 7a 09 6c 3e 6e a4 a9 3c
       -1.566636e-05 -1.06477 0.2305049 0.020708289
000020 35 4e 98 3c a4 c7 a3 38 50 81 d8 3b 40 88 b8 bb
       0.01859198 7.809632e-05 0.006607212 -0.0056314766
000030 58 53 28 3e ba 60 f7 36 50 40 2d bf 2f 1f 66 3d
       0.16438043 7.372434e-06 -0.6767626 0.056182083
000040 87 90 ac 36 90 6e 4d 3f 48 06 28 3c 13 fd 0d bd
       5.1428246e-06 0.8024683 0.010255404 -0.03466518
000050 a5 eb 02 3e fa 50 b5 be e7 a0 05 3d 27 8f 18 3f
       0.12785204 -0.35413343 0.03262415 0.59593433
000060 a6 a3 af 37 7c a2 52 bf 8b 0d 01 bd f4 fb 1c 3f
       2.093783e-05 -0.8227918 -0.031507056 0.6132195
000070 ed c5 b6 bc 90 dc 2a 36 0c 0d 29 3e 9e 14 18 3f
       -0.022311175 2.5460358e-06 0.16508883 0.5940646
000080 80 28 05 b8 95 49 92 3e 45 46 c4 38 5c 59 5c 39
       -3.174739e-05 0.28571764 9.359097e-05 0.00021014124
000090 75 17 ac 36 91 59 49 3a a7 42 18 3f a1 57 f0 b6
       5.12873e-06 0.0007680888 0.59476703 -7.1627587e-06
0000a0 84 6e 6d ba b1 f8 59 bf f1 b3 07 3e fa fd cf 3e
       -0.00090573006 -0.851451 0.13252236 0.40623456
0000b0 90 eb 63 38 5e 1e 69 b6 24 08 a9 3d 48 55 f3 3a
       5.4340402e-05 -3.4737382e-06 0.08253506 0.0018564845
0000c0 64 3a 93 38 18 d9 4b 3c 07 b5 ba b8 a8 31 a2 3d
       7.020382e-05 0.012441896 -8.90289e-05 0.079196274
0000d0 46 f3 ca b7 d4 1d 2d 3f 49 12 63 3b 81 c1 ae 3a
       -2.419356e-05 0.6762364 0.003464835 0.0013332815
0000e0 e1 e7 d9 3c a4 4d 62 3f 84 ff e3 35 06 b2 ca 38
       0.026599826 0.8839972 1.6987183e-06 9.66527e-05
0000f0 fa db 23 3f 79 83 b1 bb 4b 49 32 38 46 65 38 3e
       0.6400753 -0.005417284 4.2506766e-05 0.18007383
000100 4e 6a 43 bf 25 33 e0 3b 72 c6 1c 3d 4b dd 47 37
       -0.76334083 0.0068420344 0.03827519 1.1912848e-05
000110 de 29 19 38 e1 78 c9 be 9f d5 04 3c dd 53 af b7
       3.6517034e-05 -0.39350036 0.008107572 -2.0900678e-05
000120 aa cd 1b bf 6c 2f 5d 3b 1b 37 84 bc 55 c0 38 bc
       -0.60860693 0.003375019 -0.016139558 -0.011276324
000130 29 0e 80 ba 4b ef 4a 3b 0c e6 b1 3c 0b 87 18 bf
       -0.0009769845 0.0030965384 0.02171614 -0.5958106
000140 ca f9 62 b6 31 b6 11 bf 5f af 18 bd 34 e4 ec b5
       -3.382202e-06 -0.5691863 -0.037276622 -1.7649786e-06
000150 54 a7 d8 bd 4a c9 81 bf 7a e0 31 bf 7f e7 2c 3e
       -0.1057879 -1.0139554 -0.6948315 0.16885184
000160 1e 43 9e bc 7b ad 7b 3f aa d2 51 3b 42 fc 4f 38
       -0.019319113 0.98311585 0.0032016435 4.958758e-05
000170 8b 0f 4a bb 55 99 13 bf 65 c2 36 3f 60 3a 75 bc
       -0.0030832018 -0.5765584 0.7139037 -0.014967531
000180 4c 6e 56 34 a5 83 bf 3d 76 d0 b6 bb 38 8c dd 34
       1.9970429e-07 0.09351281 -0.0055790497 4.126648e-07
000190 14 8a 8d 3d e0 07 28 b8 5a 73 cb bf 85 2d d3 36
       0.06911102 -4.0061655e-05 -1.5894578 6.293589e-06
0001a0 61 bb 7a 3e 84 10 d1 be 54 c8 b0 37 3a 59 84 bf
       0.24485542 -0.40832913 2.107412e-05 -1.033973
0001b0 bf 87 21 bc 3f fa a0 bf e9 bc 28 3b 56 0c 4b 36
       -0.009859025 -1.2576369 0.0025747365 3.0256538e-06
0001c0 ab 7c 52 36 64 f2 0a be 48 f5 85 bf a8 c3 6e 38
       3.1365005e-06 -0.13569027 -1.0465479 5.692584e-05
0001d0 a9 5a 15 3c 19 33 72 be ef 08 a8 bb 75 89 a2 37
       0.009115853 -0.23652305 -0.005128018 1.9375913e-05
0001e0 f9 cc 1c 3e 28 41 c5 3b 8f 04 ee ba 14 6f d5 bd
       0.15312566 0.00601973 -0.0018159318 -0.10421577
0001f0 21 c9 e2 bc 80 2d a9 b6 cc 53 15 b9 8d c2 b9 bc
       -0.027683796 -5.0418894e-06 -0.00014240964 -0.022675777
000200 ab dd 95 3c 3a 81 2f b7 8f 8c d0 3b 8c 43 1e bb
       0.018294176 -1.0460901e-05 0.006364412 -0.0024149148
000210 d3 5b 9b 3b 6a 12 04 be 3b 9b 75 b6 69 b8 70 b9
       0.004741171 -0.1289765 -3.65982e-06 -0.00022956882
000220 01 4d 9b 3a c3 8a 36 bd 28 89 41 b9 f7 8b 80 3a
       0.001184851 -0.044565927 -0.00018457009 0.0009807338
000230 3e 82 21 3f d9 55 24 3c 86 a7 ba 3b fb ae c1 b9
       0.6308936 0.010030233 0.00569624 -0.000369422
000240 68 ba 2d 3f d2 55 43 bf cc 7a f9 b8 6b e6 66 b6
       0.6786256 -0.76302826 -0.00011896118 -3.4406792e-06
000250 9c 9d 78 3c d7 c5 53 3b 44 36 f3 b6 97 56 5d bc
       0.015174296 0.0032313967 -7.2482817e-06 -0.013509414
000260 ed bc 98 bb 0b 39 90 3e 2b a9 74 3e 88 07 4a bf
       -0.0046611936 0.2816852 0.23892657 -0.7891774
000270 1f 63 d9 3c dc cd 4a 39 8b 93 e6 b7 85 95 ee 3b
       0.026536522 0.0001934091 -2.7486842e-05 0.0072810077
000280 86 31 46 3c e3 c8 3c 3f 9d 6c b8 bb ed 41 0e b7
       0.012096768 0.7374403 -0.005628182 -8.479209e-06
000290 f0 c4 32 3e 53 b4 1d 3f e5 eb 16 ba 78 da 44 3e
       0.17457938 0.6160328 -0.0005757197 0.19223964
0002a0 26 06 9b b7 f3 29 83 38 68 3e 37 b6 4f 50 95 b8
       -1.8480303e-05 6.2543804e-05 -2.730545e-06 -7.119832e-05
0002b0 20 1f 4f 3f 03 36 cc b7 dc 47 49 bf 50 ec 36 3c
       0.8090687 -2.4343846e-05 -0.78625274 0.01116474
0002c0 43 72 ad bb 6a 08 31 bf a8 69 eb be e2 16 32 36
       -0.005293162 -0.69153464 -0.45979047 2.6537386e-06
0002d0 a9 53 0f bb a0 b8 5d 3a 7a 2d c0 38 7a c6 77 3f
       -0.0021869934 0.0008457992 9.163744e-05 0.96787226
0002e0 17 1f 07 b9 07 8e c2 bb 9d d9 be 38 fb b9 00 3e
       -0.00012886185 -0.005937341 9.10044e-05 0.12570946
0002f0 e5 b4 87 bc 17 0f 6a b7 aa a6 f1 3b 50 5f 9d 3d
       -0.01656575 -1.3951e-05 0.007374604 0.07684195
000300 6b 1b f1 36 ef 70 06 b9 66 44 9f bb 71 b4 38 3d
       7.1855516e-06 -0.00012821307 -0.0048604487 0.045093957
000310 9e d9 05 37 41 7d 5f 3f 0e 80 56 bf 97 70 b8 b9
       7.978086e-06 0.873005 -0.83789146 -0.000351791
000320 1a eb 29 bc a1 15 c2 37 4b 53 03 bf 75 10 00 3e
       -0.010370994 2.3136674e-05 -0.5129897 0.12506278
000330 90 3d 9b bf 62 e6 02 38 50 9a 8a 39 00 7a 2c 3c
       -1.2128162 3.1208976e-05 0.00026436383 0.010527134
000340 a2 64 a1 3e da c2 cc 3d f3 4a b5 b9 01 9b 7a bf
       0.3152209 0.099981025 -0.00034578852 -0.9789277
000350 52 01 33 bf 1a 23 5b 3f 6c ff 72 38 a7 80 05 bf
       -0.6992389 0.85600436 5.7935176e-05 -0.5214943
000360 cb 32 29 3f 3a ac 87 38 2f 64 dc 3d 6e 6d ec bd
       0.6609313 6.469381e-05 0.10761296 -0.115443096
000370 bc da 83 3d 76 3f 8b 3d 5a 8b 01 3f 3f da 29 3f
       0.06438205 0.067992136 0.5060326 0.6634864
000380 1f 1c e9 be 73 5e 6f b8 79 85 f2 3b 83 78 61 3f
       -0.45529267 -5.7070003e-05 0.007401165 0.8807451
000390 8a 63 3c 3f ce 72 88 bc 36 0d 69 b8 e5 e8 b5 3e
       0.73589385 -0.016656306 -5.5563833e-05 0.35529247
0003a0 cf eb 83 3f 07 5c f0 b7 15 e6 12 3d b8 89 cb b8
       1.0306338 -2.8653083e-05 0.035863955 -9.7054464e-05
0003b0 e9 a8 96 b9 91 4e 41 37 36 8b 2c 3b e0 54 8b bf
       -0.00028736077 1.1521989e-05 0.0026328093 -1.0885277
0003c0 ae 11 86 b8 9f 52 48 3d 01 3b 27 3d cc 3c e8 be
       -6.392911e-05 0.04890692 0.040827755 -0.45358884
0003d0 67 07 82 bf b5 82 e3 39 53 bb 78 37 9d 8e a7 be
       -1.0158509 0.00043394198 1.4825567e-05 -0.32725993
0003e0 78 a0 62 bf e8 2e 82 38 37 85 7b ba 75 f5 2d b7
       -0.88526106 6.20762e-05 -0.00095947407 -1.03687535e-05
0003f0 40 00 a7 3d a4 31 63 35 4a 02 2b be 92 23 7c bc
       0.081543446 8.4636326e-07 -0.16700092 -0.01538934

gats.0.bias f4 [67]
000000 e1 37 cb 37 86 6d 1c bd 59 4d 04 be 39 6d 81 bd
       2.4225506e-05 -0.038190387 -0.12920131 -0.06319661
000010 3c af dc 38 2f 86 fb bc e4 4f 0e be 33 a3 ad bd
       0.000105230574 -0.030703632 -0.13897663 -0.084783934
000020 4f 04 f3 bd cb 3b 95 ba f0 1b 52 bd 27 5d 7c bd
       -0.11866056 -0.0011385618 -0.051296175 -0.061612274
000030 35 16 80 bd 94 44 2b 36 c6 38 ab bc 33 5f d1 bd
       -0.06254236 2.5520903e-06 -0.020901095 -0.10223236
000040 4c 47 3e 39 d1 27 b6 bd 9f c7 0b bc 3e 00 6a bc
       0.00018146372 -0.08894313 -0.00853148 -0.014282284
000050 f7 74 f9 bc 9e ee 86 bd 06 5a 2d bd 1d 08 19 bd
       -0.030451281 -0.06588481 -0.04232218 -0.037361253
000060 88 72 40 b9 53 70 50 3c 98 da 2f bd 18 2e 37 3c
       -0.00018353213 0.012722093 -0.042933077 0.011180423
000070 ea 7d 53 bd 6f 61 e2 b7 3b 72 b9 bc 36 45 78 3b
       -0.051633753 -2.698667e-05 -0.022637477 0.003788305
000080 71 96 14 39 ca c5 99 ba c9 74 a5 38 3e 67 4c 3c
       0.00014170424 -0.0011731919 7.889566e-05 0.012475787
000090 4d 1c 1d 38 78 f6 be bc fa cf f8 bc 9b 3c e8 38
       3.7458074e-05 -0.023310885 -0.030372608 0.00011073911
0000a0 18 c9 81 bd fc e1 25 bd 3c d1 92 bc ce f5 d5 bd
       -0.06337184 -0.04049872 -0.017922036 -0.10447274
0000b0 bb c0 dc bc 69 4f 39 b8 f2 fd 49 3c ec 69 96 bc
       -0.02694737 -4.4181394e-05 0.012328612 -0.018361054
0000c0 03 89 5f b7 7c d4 23 bd d9 6c 03 3c 0a e2 5d bd
       -1.3323736e-05 -0.039997563 0.008021557 -0.054170646
0000d0 20 25 f1 38 00 c7 d5 3c 2c d5 0e bd 22 09 ec bb
       0.000114986906 0.026095867 -0.034871265 -0.007203237
0000e0 af 16 a8 bd 31 91 ae bd d4 a5 12 38 bd 6f 88 bc
       -0.082074516 -0.08523787 3.4963552e-05 -0.016654843
0000f0 5f a0 3a bd 48 f3 1b bd 1f f6 d3 37 b2 cf 15 bd
       -0.045563098 -0.038073808 2.526777e-05 -0.036575027
000100 8a 86 60 bd 1a ba e3 bc 20 2d db bd
       -0.054815806 -0.027798701 -0.10701966

gats.0.lin_l.weight f4 [335, 67]
000000 9b 80 00 00 6d 7f 00 80 78 12 36 b8 44 e3 f6 b7
       4.6135e-41 -4.5712e-41 -4.340938e-05 -2.9431314e-05
000010 b2 2c 51 ae 95 85 00 80 0d 7f 50 38 97 30 12 36
       -4.7560796e-11 -4.792e-41 4.970939e-05 2.1783978e-06
000020 f2 ae 00 80 08 62 00 80 89 bf 24 b7 2c 5e 00 00
       -6.2759e-41 -3.5167e-41 -9.819757e-06 3.3783e-41
000030 67 4f 00 00 66 5f 00 00 6c 9e 00 80 f8 86 00 80
       2.8484e-41 3.4223e-41 -5.6831e-41 -4.8418e-41
000040 c6 59 00 00 43 56 00 00 86 01 1e b8 a1 1b b2 38
       3.2205e-41 3.0945e-41 -3.7671554e-05 8.492848e-05
000050 10 0e 00 80 1b d5 90 b8 87 01 00 80 56 48 04 37
       -5.045e-42 -6.906149e-05 -5.48e-43 7.884655e-06
000060 af 13 6c b8 96 f3 3d b8 b5 28 39 38 41 07 de b8
       -5.6285116e-05 -4.528797e-05 4.414535e-05 -0.00010587136
000070 d5 e1 88 b8 6f 55 85 34 d0 4f 00 00 0b 3d bb b8
       -6.52705e-05 2.4835342e-07 2.8631e-41 -8.928225e-05
000080 e1 9d 35 b7 b5 3b af b8 46 d7 82 b3 e6 14 6a 38
       -1.08252e-05 -8.3557716e-05 -6.092755e-08 5.580941e-05
000090 94 10 44 b7 98 89 8b b5 fc 8e 00 80 22 b3 00 80
       -1.168637e-05 -1.0396352e-06 -5.1293e-41 -6.4261e-41
0000a0 04 96 b0 b8 05 b9 06 b9 22 9f 07 39 73 28 02 b9
       -8.4202766e-05 -0.00012848161 0.00012933885 -0.00012412835
0000b0 a7 36 00 00 68 25 bc 33 67 47 00 80 ba cc 8c 35
       1.9606e-41 8.7612364e-08 -2.5614e-41 1.0490396e-06
0000c0 27 65 00 80 f0 0c 00 00 5d 93 00 80 c2 5a 00 80
       -3.6287e-41 4.641e-42 -5.2864e-41 -3.2558e-41
0000d0 d7 53 00 00 cf 45 00 80 50 13 00 00 99 4c 00 00
       3.0076e-41 -2.5043e-41 6.928e-42 2.7478e-41
0000e0 fb 28 00 00 2a 33 00 80 a6 ae 00 00 83 18 08 b8
       1.4701e-41 -1.8354e-41 6.2652e-41 -3.2447755e-05
0000f0 f9 6d c7 38 3d 56 00 80 a0 02 00 80 82 75 00 80
       9.5095435e-05 -3.0936e-41 -9.42e-43 -4.2154e-41
000100 9e 8e 00 00 45 4b 00 00 81 71 84 37 10 87 00 00
       5.1161e-41 2.7002e-41 1.578848e-05 4.8451e-41
000110 79 12 00 80 c4 5e 72 3c 56 18 9c 38 bc ad a4 b7
       -6.627e-42 0.014793102 7.4431926e-05 -1.9631225e-05
000120 76 32 00 00 64 5b a0 bb 79 7b c7 ba 1d 33 00 00
       1.8102e-41 -0.004893707 -0.0015219293 1.8336e-41
000130 0d 61 00 80 9f 4d c2 39 82 59 00 00 8a 55 00 80
       -3.4815e-41 0.00037060396 3.211e-41 -3.0686e-41
000140 c8 a2 00 00 43 38 00 80 3d 59 00 00 42 7f 00 00
       5.8395e-41 -2.0183e-41 3.2013e-41 4.5652e-41
000150 f1 70 00 80 ba 17 0f 3d 17 77 03 bc be 7d 00 80
       -4.0516e-41 0.034934737 -0.008023999 -4.5108e-41
000160 6e df 7c ba 56 58 00 80 37 f2 b0 39 e0 04 0a bb
       -0.0009646331 -3.1689e-41 0.000337498 -0.0021060035
000170 e2 80 69 39 77 a8 1e 3b ab 88 a8 3a f8 bc 82 b9
       0.00022268624 0.00242093 0.0012858113 -0.00024936325
000180 15 e6 6d b8 16 89 00 00 71 0c 18 b8 75 b6 3c b9
       -5.6719484e-05 4.9177e-41 -3.625121e-05 -0.00017997048
000190 87 81 41 b9 92 43 82 b8 69 f7 9d 3c 38 88 e3 37
       -0.00018454167 -6.211469e-05 0.019283013 2.712394e-05
0001a0 f0 a8 09 b8 0b 58 00 00 44 46 00 00 e0 a8 30 38
       -3.282068e-05 3.1584e-41 2.5207e-41 4.2118947e-05
0001b0 8d b4 28 bc 29 6d d6 b9 9a 12 c1 ba 10 31 00 80
       -0.010296953 -0.0004089859 -0.0014730275 -1.76e-41
0001c0 fb 38 fd 37 27 e6 2d 24 26 75 4d b8 1d 97 00 80
       3.0186484e-05 3.7708342e-17 -4.898491e-05 -5.4209e-41
0001d0 2b 8e 00 00 70 19 00 00 a4 a9 00 80 4f 99 00 00
       5.1e-41 9.125e-42 -6.0856e-41 5.4997e-41
0001e0 dc 45 00 00 43 53 00 00 57 9e 00 00 2f 53 00 00
       2.5061e-41 2.9869e-41 5.6802e-41 2.984e-41
0001f0 97 4b 00 80 ee 7d 00 80 ce 22 08 bb df 7a 26 ba
       -2.7117e-41 -4.5175e-41 -0.0020772698 -0.00063507067
000200 56 58 00 00 f1 4e 00 80 60 ab 00 80 5e 8e 00 80
       3.1689e-41 -2.8319e-41 -6.1478e-41 -5.1072e-41
000210 64 aa 00 80 1b c1 c5 38 58 51 00 00 b3 78 00 00
       -6.1125e-41 9.429661e-05 2.918e-41 4.3299e-41
000220 81 57 06 be 0c 59 f6 3a 8c 86 2e 3b 66 86 00 00
       -0.13119318 0.0018794849 0.002663049 4.8213e-41
000230 b2 c4 2a 3f 39 3f 70 bd e4 1e 00 80 eb 75 00 80
       0.66706383 -0.058654044 -1.1081e-41 -4.2301e-41
000240 1e 29 40 3a 1c 90 00 80 35 48 00 80 6b 59 00 00
       0.00073303457 -5.1697e-41 -2.5903e-41 3.2077e-41
000250 71 b2 00 80 63 5a 00 80 01 4d 00 00 55 68 00 00
       -6.4013e-41 -3.2425e-41 2.7624e-41 3.7427e-41
000260 c5 b9 8e bd 79 ac b4 3c a1 59 00 00 ad e3 cc bd
       -0.069690265 0.022054898 3.2153e-41 -0.10004363
000270 fb 59 00 80 63 21 b2 3b 23 eb 73 bc 34 8d 13 3d
       -3.2279e-41 0.005436109 -0.014887604 0.036023334
000280 28 c8 17 bd 06 8f 95 bc f4 4b 98 bd ea 09 d2 3a
       -0.03705612 -0.018256675 -0.07436362 0.0016024683
000290 37 af 00 00 d6 7a aa bd 30 e3 6d 3c cb cb c7 3d
       6.2855e-41 -0.0832421 0.014519498 0.09755667
0002a0 3a 9d b3 bc 55 bd 98 3d 11 70 73 3c a3 e5 37 bb
       -0.021925557 0.07457987 0.014858262 -0.0028060458
0002b0 7d 8a 00 00 09 5a 00 80 ca c3 55 bd a0 9e aa 3d
       4.968e-41 -3.2299e-41 -0.052188672 0.083310366
0002c0 94 9e 05 bc 1d 2a 48 3d aa 54 00 80 e7 30 df 39
       -0.008155484 0.048868287 -3.0372e-41 0.0004257031
0002d0 0d 81 39 b8 eb 81 d6 3b 3b 34 00 00 d5 b2 00 00
       -4.4227625e-05 0.006546249 1.8737e-41 6.4153e-41
0002e0 8c 8a 00 00 b7 5f 00 80 5d a2 00 00 5b aa 00 80
       4.9701e-41 -3.4336e-41 5.8245e-41 -6.1112e-41
0002f0 33 56 00 80 5b 6f 00 00 a0 40 00 80 6c 6f 00 80
       -3.0922e-41 3.9947e-41 -2.3183e-41 -3.997e-41
000300 ff 77 00 00 6e 2a 43 bc 5c 9d 99 bc 42 5d 00 80
       4.3046e-41 -0.0119119715 -0.018751793 -3.3455e-41
000310 b8 17 00 00 55 56 00 00 78 81 00 00 5c 53 00 80
       8.509e-42 3.097e-41 4.6445e-41 -2.9904e-41
000320 6a 30 8c 3d 66 35 00 00 d7 95 00 00 87 bf 34 3c
       0.06845172 1.9156e-41 5.3752e-41 0.011031992
000330 b7 85 10 bd 2f 33 ae 39 71 58 00 00 a0 89 85 3e
       -0.03528377 0.00033226 3.1727e-41 0.26081562
000340 92 53 d2 b9 82 9c 00 00 3e 57 00 80 f1 cc 47 3d
       -0.00040116586 5.6144e-41 -3.1297e-41 0.04877943
000350 ed 7e 00 00 ad ac 00 80 5f 59 00 00 8e 75 00 00
       4.5532e-41 -6.1944e-41 3.206e-41 4.217e-41
000360 48 28 00 00 6b 9f 00 80 96 58 00 00 00 9b 71 3d
       1.445e-41 -5.7188e-41 3.1779e-41 0.05898571
000370 8b 62 04 bd e6 91 00 00 55 83 69 3c b7 52 00 80
       -0.03232054 5.2338e-41 0.014252503 -2.9672e-41
000380 f5 50 93 bc 2d cb eb 3a 7f 5a 79 bb c6 5d 54 bb
       -0.01798294 0.0017989628 -0.0038048325 -0.0032404526
000390 57 47 12 bc 77 54 fa 3a 34 a7 09 39 fa 62 00 80
       -0.008928142 0.0019098659 0.00013127626 -3.5506e-41
0003a0 fb 5b 2c bb 65 85 15 b9 b4 99 47 bc 87 92 3e 39
       -0.0026299942 -0.0001425944 -0.012182642 0.00018174398
0003b0 91 3d 51 bc 16 74 1b ba 30 51 f8 b9 2c 3b 00 00
       -0.012771026 -0.0005930079 -0.00047362735 2.1227e-41
0003c0 39 5e 00 00 24 a4 ec ba b1 d2 0e bd 51 f7 f2 3b
       3.3801e-41 -0.0018054289 -0.0348689 0.0074147363
0003d0 71 0a 64 3c c5 45 00 00 13 7e 0a b9 d5 d1 a2 34
       0.013918505 2.5029e-41 -0.00013207672 3.0327524e-07
0003e0 0d 3c d7 38 c2 7f 00 00 5e 99 00 00 08 5b 00 00
       0.00010263184 4.5831e-41 5.5018e-41 3.2656e-41
0003f0 d1 56 00 80 40 5a 00 80 61 59 00 00 d0 80 00 80
       -3.1144e-41 -3.2376e-41 3.2063e-41 -4.6209e-41

gats.0.lin_l.bias f4 [335]
000000 bf f9 a3 b8 76 bd 5f bb c9 a3 89 3d 96 d4 2b 3c
       -7.8189645e-05 -0.0034140027 0.06720693 0.010487696
000010 e8 7a 06 b9 6f 79 84 3d 55 5b 33 3d fd a9 a4 bd
       -0.00012825022 0.06468474 0.043788273 -0.08040235
000020 1b 8b 81 bd 44 c0 eb ba 4f fb be bb 9d 64 06 be
       -0.063253604 -0.0017986377 -0.005828298 -0.13124318
000030 0b 0c a8 bd d0 b9 b2 b8 88 44 35 3d 1d bf ea bd
       -0.08205422 -8.522312e-05 0.04425481 -0.11462233
000040 6b 14 6f 37 e4 17 aa 3d 3d f6 9f bb bf b7 0b bc
       1.4250264e-05 0.08305338 -0.004881649 -0.008527695
000050 e6 eb bd 3b 3b 3e 3f 3c 24 84 a3 bc 65 37 1b 3d
       0.0057959436 0.011672552 -0.01996047 0.037894625
000060 fb 65 64 b8 e5 3a a4 bd be 3c bc bd ba b9 80 bb
       -5.4454413e-05 -0.08019046 -0.09191273 -0.0039283903
000070 04 74 76 bc 3a 8f 69 b8 b6 73 6e bc 5f fe 3b bc
       -0.015042309 -5.568492e-05 -0.014553955 -0.011474221
000080 d4 17 68 b9 5f a4 b3 3d de 8e 90 b8 be 70 97 3b
       -0.00022134121 0.08771586 -6.893066e-05 0.004621594
000090 70 f1 9f b8 1c ad 47 bb 57 6c 62 bd 17 b4 d0 b3
       -7.626682e-05 -0.0030468171 -0.055279102 -9.718513e-08
0000a0 16 e9 eb bd bd 1a 48 bd 93 81 91 bc 42 2d 5e 3d
       -0.11519067 -0.048853625 -0.017761981 0.05424238
0000b0 f8 9d ee b9 fe 53 6f b8 2c a0 c3 bc 3d 50 ae 3a
       -0.00045512593 -5.7060264e-05 -0.023880087 0.0013299059
0000c0 b1 b2 f8 b7 ad 24 11 bc ca 49 de 3a a0 30 46 bc
       -2.9647113e-05 -0.008858842 0.0016959247 -0.012096554
0000d0 95 e0 51 b7 62 40 7a 3d c4 69 09 3d 61 0d d4 ba
       -1.250966e-05 0.061096556 0.03354813 -0.0016178304
0000e0 bd f9 cd bd 93 cb ad 3d 70 b5 55 38 6f 3a cf bb
       -0.100573994 0.08486094 5.0952134e-05 -0.0063241045
0000f0 11 05 a0 bc 5c 9f 1f bd 56 f4 ae b8 37 ab 81 3d
       -0.019533666 -0.038970336 -8.342478e-05 0.06331485
000100 7f b5 24 bd ee 16 cb ba 85 07 09 be 55 d6 e4 b8
       -0.04021215 -0.0015494504 -0.13381775 -0.0001091181
000110 9e 9d 5b bb f0 f1 00 3d 01 d2 58 bd 82 60 09 b9
       -0.0033510695 0.03148073 -0.05293465 -0.0001310129
000120 6e 98 cd bd a2 a5 5b bd e8 2c 5c bd 58 63 21 be
       -0.10038839 -0.053624757 -0.053753763 -0.15760553
000130 99 17 06 bb d5 ba e8 bb 66 4d e1 bd a0 6d bc bd
       -0.0020460843 -0.0071023502 -0.11001091 -0.09200597
000140 ec c7 87 b8 c1 7b af bd f1 ea 6f bd 69 4d e7 36
       -6.47454e-05 -0.08568526 -0.058573667 6.893348e-06
000150 a1 43 c1 bd 38 9a 0f be b9 23 36 3d fb 8f c7 bd
       -0.09436727 -0.14023674 0.04446766 -0.09744259
000160 ac 7e 0e bd 69 53 b0 bc dd c6 44 3b 40 bb 8b b8
       -0.034788772 -0.021524148 0.0030025758 -6.6629145e-05
000170 97 22 f7 3b d2 7f 86 bc 3c 90 fd 3d 4b 1a 52 bd
       0.007541965 -0.016418371 0.12381026 -0.051294606
000180 58 74 96 b7 c0 f4 2e bd 57 6d 37 3c c6 5f 66 b9
       -1.793557e-05 -0.04271388 0.011195502 -0.00021970188
000190 df fe 13 3d b4 83 45 b9 97 72 4f be 19 82 a5 b8
       0.036131736 -0.00018836447 -0.20258556 -7.892046e-05
0001a0 8d 7e 3b bc ab 5d 27 3d ef 16 f4 b7 f5 a9 41 bd
       -0.011443746 0.040860813 -2.9097746e-05 -0.047281224
0001b0 a3 57 cb bd 41 da 5d 3c 5c 32 0d bd e0 15 cc b9
       -0.09928825 0.013540805 -0.034471855 -0.0003892621
0001c0 a2 3e 97 b8 7d 7a 15 bd db 2d 42 be ee d0 e3 b8
       -7.211907e-05 -0.036493767 -0.18962805 -0.0001086312
0001d0 39 64 44 bc 51 0e ba bd 80 69 b8 bc 6a ff ae b6
       -0.011986786 -0.09084762 -0.022511244 -5.215338e-06
0001e0 82 4d 17 3e ba 89 a1 3c 78 cd de ba d1 34 f0 bb
       0.1477566 0.019718993 -0.001699849 -0.007330515
0001f0 74 95 87 bd af 61 9e 38 12 91 fb bb f4 e4 e4 bc
       -0.06620303 7.552222e-05 -0.007677206 -0.027941205
000200 1f 8a 23 bd ce c0 a6 b8 ab b7 b1 3c 74 db b3 bc
       -0.039926644 -7.9514095e-05 0.021694025 -0.02195523
000210 40 54 94 bb 9f 5f d1 bc b3 36 ae b8 bb 96 dc bb
       -0.004526645 -0.025558291 -8.307155e-05 -0.0067318357
000220 e8 81 ac bd c5 20 9a bd b0 2c f8 b8 8d ed 05 3a
       -0.08423215 -0.075257815 -0.00011833885 0.0005108945
000230 9c 65 95 bb e0 c6 01 bd c7 82 ad bd da b0 c6 ba
       -0.004559232 -0.031683803 -0.084722094 -0.0015158907
000240 3c 12 0a bd 37 20 51 bc e7 2a 83 bd 70 62 94 b8
       -0.033708796 -0.012764028 -0.06404667 -7.075525e-05
000250 f9 3e c2 bd ad 53 ab bd 38 52 db b7 4a 8d 6c bd
       -0.09484667 -0.08365569 -2.614512e-05 -0.05775193
000260 24 0c 20 bd b0 e9 84 bc 82 2c 09 bd 65 9a 37 3d
       -0.03907408 -0.016224712 -0.03348971 0.044824976
000270 58 43 10 3c d6 79 a5 3b e1 68 3d b8 ec a4 51 3c
       0.0088051185 0.0050499244 -4.5158788e-05 0.012795668
000280 a1 0c 07 3c 1d cd b9 3d d5 33 21 bd 7c 69 87 b8
       0.008242757 0.090723254 -0.03935607 -6.4569496e-05
000290 a2 18 7c 3d 5a 0e 1d bc 68 4d 04 ba e3 11 5b bd
       0.06154693 -0.009585941 -0.0005046935 -0.053483855
0002a0 c3 75 06 b9 b4 88 56 3b a2 5b a8 b8 e1 cd 61 bb
       -0.00012823105 0.003273529 -8.027932e-05 -0.0034454989
0002b0 ed 93 d8 3c fe 2a 0f 38 ff 86 99 3d 43 94 1b bb
       0.026437724 3.4133896e-05 0.074964516 -0.0023739494
0002c0 fe cf 65 bd 0e b2 42 bd fa d5 92 bc f1 13 8c b8
       -0.05610656 -0.047533087 -0.017924298 -6.6794346e-05
0002d0 92 20 c9 bc 8c 2d 1b bb ac 51 da b7 c4 fe 09 bd
       -0.024551664 -0.002367827 -2.6025657e-05 -0.03369023
0002e0 9a c8 0e 3b 33 de 5a bd 83 4a a3 37 c7 64 aa bd
       0.0021787048 -0.053434562 1.9465811e-05 -0.08320003
0002f0 a2 77 21 3c 6c 3d 1e bb ba c6 82 bd 23 5f 67 bd
       0.009855183 -0.0024145497 -0.0638556 -0.056487214
000300 4f 19 b5 38 ca 43 c6 bb 7b e4 80 3c 8c 6d 69 bd
       8.635467e-05 -0.0060505616 0.015733948 -0.056989238
000310 79 7a fb b8 f4 45 88 bb 92 c3 4b 3d ee 4f 74 bb
       -0.00011991425 -0.0041587297 0.049747057 -0.0037279087
000320 2d 49 f8 bd c9 ab 65 b8 56 35 3f 3d 8e 46 c4 bd
       -0.12123332 -5.4757842e-05 0.046681724 -0.0958377
000330 f8 eb f8 3c eb 16 e8 b8 79 66 34 3b 12 26 4c bd
       0.030385956 -0.00011066891 0.0027526899 -0.049840994
000340 1a 29 34 3d f1 32 60 bd 8a ed 8e ba 0d c4 44 3d
       0.04398451 -0.05473608 -0.0010904532 0.04803853
000350 fb a4 da bc 62 3d ef 3b 18 68 36 b8 61 fd d0 bb
       -0.026689997 0.0073010186 -4.3489126e-05 -0.0063778614
000360 19 40 9e 3d af 44 4d 37 a1 84 70 bd fa 39 8c 3c
       0.077270694 1.2234944e-05 -0.058720235 0.01711749
000370 9a 26 4c bd 8d 30 ea 3b 70 f7 17 bb b8 56 90 3c
       -0.0498415 0.007146901 -0.0023188256 0.017619476
000380 3a 37 e4 bd d1 39 b7 b8 11 9e 59 3c d0 08 6a bc
       -0.11143346 -8.736889e-05 0.013282315 -0.014284328
000390 57 9a 04 3e 8d b2 bc bc 51 a2 06 b7 d0 78 40 3c
       0.12949501 -0.023034358 -8.024815e-06 0.011747554
0003a0 25 43 0e 3e d9 1d 73 b7 c1 f2 fd bc f3 1f 04 b9
       0.13892801 -1.4490878e-05 -0.030999543 -0.00012600403
0003b0 21 70 5c 3b dd 2d 8c b8 77 63 61 bb 89 76 43 3c
       0.003363617 -6.684263e-05 -0.003439156 0.011930116
0003c0 43 00 8e 37 a0 e5 88 bc 6d a8 c6 3c fd fa 97 bd
       1.6927841e-05 -0.016711056 0.024250234 -0.07420919
0003d0 79 c4 89 3d 68 3d e1 b9 2d 5e cd b7 de f8 8f bd
       0.06726927 -0.00042961095 -2.4481758e-05 -0.070298895
0003e0 4a c7 b8 3d c7 b7 9b b8 72 43 d9 bb ba 2c 8c 3a
       0.09022386 -7.425207e-05 -0.0066303546 0.0010694482
0003f0 3b ac d4 bc 2f 6b 46 38 5f 85 ba bd be ac e4 39
       -0.025961032 4.73067e-05 -0.0910747 0.00043616252

gats.0.lin_r.weight f4 [335, 67]
000000 e3 8b 00 00 c6 a1 00 00 c3 e9 42 36 62 11 82 34
       5.0182e-41 5.8033e-41 2.904432e-06 2.4227035e-07
000010 c3 43 00 80 9f 15 00 00 09 99 d9 b1 d7 4c 00 80
       -2.4308e-41 7.756e-42 -6.3329293e-09 -2.7565e-41
000020 c9 2f 00 80 93 b2 00 80 f9 03 28 b4 21 9c 00 00
       -1.7142e-41 -6.406e-41 -1.5647664e-07 5.6008e-41
000030 94 57 00 00 f1 4e 00 80 a4 a1 00 00 6b 35 00 80
       3.1417e-41 -2.8319e-41 5.7986e-41 -1.9163e-41
000040 67 78 00 00 7a 6a 00 80 18 ac c1 b1 33 49 6e b4
       4.3192e-41 -3.8197e-41 -5.636604e-09 -2.2192107e-07
000050 b2 1a 00 80 75 54 85 2c ee a3 00 00 5e cc 25 37
       -9.576e-42 3.789464e-12 5.8807e-41 9.882349e-06
000060 9f 78 b3 b3 88 84 cf b1 33 84 1d 36 16 72 0f ad
       -8.357278e-08 -6.03956e-09 2.3471773e-06 -8.153941e-12
000070 04 a8 37 36 65 87 00 00 cb 43 00 80 50 0a eb b6
       2.7366923e-06 4.857e-41 -2.432e-41 -7.0047463e-06
000080 5e 17 12 b2 9a ff e0 b5 c0 1a a1 b5 e3 04 b5 b5
       -8.503632e-09 -1.676369e-06 -1.200322e-06 -1.3486973e-06
000090 59 26 a9 9d 65 01 ef a3 05 76 00 00 cc 9d 00 00
       -4.477358e-21 -2.5913023e-17 4.2337e-41 5.6607e-41
0000a0 4a 56 73 b5 d0 68 41 b6 5c c9 7a b6 0f 9a 1c ac
       -9.065012e-07 -2.882025e-06 -3.737011e-06 -2.2254453e-12
0000b0 94 05 00 00 8f 52 00 80 bd 77 00 80 17 a6 13 2d
       2.001e-42 -2.9616e-41 -4.2954e-41 8.392862e-12
0000c0 f2 87 00 00 5a 82 00 80 c4 95 00 80 32 8f 00 00
       4.8768e-41 -4.6761e-41 -5.3726e-41 5.1369e-41
0000d0 8e 58 00 00 6a 9e 00 80 d6 6e 00 00 20 4e 00 00
       3.1767e-41 -5.6828e-41 3.976e-41 2.8026e-41
0000e0 ca ae 00 80 2c 51 00 00 67 29 00 80 7e 49 d3 2f
       -6.2703e-41 2.9119e-41 -1.4852e-41 3.8432896e-10
0000f0 bf b2 ad ab c4 4f 00 80 19 76 00 80 69 4a 00 80
       -1.2342001e-12 -2.8615e-41 -4.2365e-41 -2.6693e-41
000100 49 a0 00 80 27 11 00 80 fe d5 39 36 84 84 00 80
       -5.75e-41 -6.153e-42 2.7691708e-06 -4.7538e-41
000110 48 59 00 00 8d d7 36 3a d9 e4 ab b7 eb 86 00 00
       3.2028e-41 0.00069748686 -2.0491354e-05 4.84e-41
000120 1d 39 00 00 a6 6f c2 b8 e6 14 00 80 e0 84 00 00
       2.0488e-41 -9.271437e-05 -7.497e-42 4.7667e-41
000130 48 85 00 80 ca 52 00 00 aa 47 00 00 46 5c 00 80
       -4.7812e-41 2.9699e-41 2.5708e-41 -3.3101e-41
000140 7b aa 00 00 77 5e 00 00 a0 56 00 80 34 5a 00 00
       6.1157e-41 3.3888e-41 -3.1075e-41 3.2359e-41
000150 19 a8 00 00 c3 04 db 39 29 c9 79 b7 6c 6d 00 80
       6.0302e-41 0.00041774483 -1.4888393e-05 -3.9253e-41
000160 98 30 d6 37 5d 59 00 80 2a 51 3c b7 3c b0 99 b8
       2.5533416e-05 -3.2058e-41 -1.1224571e-05 -7.328435e-05
000170 b3 89 59 38 7b 21 04 b8 14 28 0f b8 10 ec f8 b6
       5.1865074e-05 -3.1502434e-05 -3.4131182e-05 -7.4184572e-06
000180 6b 68 7f b4 43 6e 00 00 bc be 15 38 a3 49 c1 37
       -2.3786713e-07 3.9554e-41 3.5702004e-05 2.3041683e-05
000190 0c 02 17 39 c5 9a 05 b7 c5 e9 99 39 02 bd 38 36
       0.00014401245 -7.963453e-06 0.00029356606 2.7528154e-06
0001a0 98 ca 1c 38 03 a0 00 00 e3 59 00 80 2f 8e f9 b7
       3.738198e-05 5.7401e-41 -3.2245e-41 -2.9749322e-05
0001b0 6c c0 76 38 8f 5e 3b b9 30 29 22 b6 dd 61 00 80
       5.8830177e-05 -0.00017868936 -2.4163855e-06 -3.5107e-41
0001c0 80 18 bc 9b 53 2a 00 80 78 d8 4b 36 6b 3d 00 80
       -3.1117824e-22 -1.5183e-41 3.0375359e-06 -2.2033e-41
0001d0 d3 ab 00 00 a9 b0 00 00 9c b1 00 80 6e 46 00 80
       6.1639e-41 6.3374e-41 -6.3714e-41 -2.5265e-41
0001e0 17 58 00 00 cf 40 00 80 75 5e 00 80 b0 55 00 00
       3.16e-41 -2.3249e-41 -3.3885e-41 3.0739e-41
0001f0 26 55 00 80 44 2a 00 00 1b f9 89 ba ce e2 52 b8
       -3.0546e-41 1.5162e-41 -0.001052651 -5.027913e-05
000200 06 81 00 00 87 57 00 00 bf 4b 00 80 e4 0a 00 80
       4.6285e-41 3.1399e-41 -2.7173e-41 -3.907e-42
000210 23 1c 00 80 65 6e f2 b8 7b 75 00 80 97 52 00 00
       -1.0094e-41 -0.00011560022 -4.2144e-41 2.9628e-41
000220 ed 58 71 3b 9c 03 5d 3b f7 48 f8 36 2b 55 00 00
       0.0036826686 0.0033724075 7.39947e-06 3.0553e-41
000230 fb 05 01 3c df 50 00 00 5b 55 00 00 cb 55 00 00
       0.007874961 2.9011e-41 3.062e-41 3.0777e-41
000240 d0 ae 00 00 24 61 00 80 63 76 00 80 8e 99 00 00
       6.2711e-41 -3.4847e-41 -4.2469e-41 5.5085e-41
000250 cd 4f 00 00 82 71 00 00 e5 56 00 80 76 78 00 80
       2.8627e-41 4.0719e-41 -3.1172e-41 -4.3213e-41
000260 c5 7d 59 bb 8c d4 b5 b6 39 69 00 00 7c a9 00 00
       -0.0033186537 -5.418964e-06 3.7747e-41 6.08e-41
000270 e7 60 00 00 29 65 7a 37 a3 63 58 38 d8 7a 81 38
       3.4762e-41 1.4924714e-05 5.1591207e-05 6.174081e-05
000280 3c 08 cd 38 70 b4 49 b9 92 01 7e 3b a2 3a c6 b7
       9.7766955e-05 -0.00019236072 0.003875826 -2.3630742e-05
000290 89 69 00 80 38 3c fb b9 98 1d fe b7 1a 39 9b 38
       -3.7859e-41 -0.00047919317 -3.029294e-05 7.401612e-05
0002a0 e9 77 7f b7 db 9b f3 36 f2 cf 95 37 0f df cc b6
       -1.5227103e-05 7.2601083e-06 1.7859016e-05 -6.105641e-06
0002b0 4e a9 00 80 cd 57 00 80 81 df 42 38 e1 17 37 b6
       -6.0735e-41 -3.1497e-41 4.646136e-05 -2.7283024e-06
0002c0 91 0b ad 3c 7b 1a 08 b9 f4 61 00 80 4d b9 29 34
       0.02112368 -0.00012979835 -3.5139e-41 1.5806764e-07
0002d0 9e e5 2d a4 02 eb 34 37 58 a3 00 00 e1 56 00 00
       -3.770789e-17 1.0783553e-05 5.8597e-41 3.1166e-41
0002e0 07 52 00 00 8f 5c 00 80 55 ac 00 00 95 20 00 80
       2.9426e-41 -3.3204e-41 6.1821e-41 -1.1688e-41
0002f0 13 6f 00 80 5b 2c 00 80 95 54 00 80 73 b0 00 80
       -3.9846e-41 -1.5912e-41 -3.0342e-41 -6.3298e-41
000300 0b af 00 00 d3 96 39 39 6a c5 bd b8 f9 ac 00 00
       6.2794e-41 0.00017699161 -9.0489935e-05 6.2051e-41
000310 df af 00 80 8b 8f 00 80 15 7f 00 80 a3 5d 00 00
       -6.309e-41 -5.1494e-41 -4.5588e-41 3.359e-41
000320 d2 61 21 b8 0a 20 00 00 ae 6e 00 80 54 e9 e8 38
       -3.8476494e-05 1.1493e-41 -3.9704e-41 0.00011106083
000330 cd d2 a6 37 95 ef 08 36 2f 5c 00 00 b9 01 54 39
       1.9886904e-05 2.0405034e-06 3.3069e-41 0.00020218537
000340 e8 9d 00 80 d2 6e 00 80 ee 59 00 00 c1 4e 00 00
       -5.6646e-41 -3.9755e-41 3.226e-41 2.8252e-41
000350 8e 41 00 00 ff 5b 00 80 10 b2 00 80 f0 7e 00 00
       2.3517e-41 -3.3002e-41 -6.3877e-41 4.5537e-41
000360 43 54 00 00 4f 48 00 00 a1 59 00 80 2e 78 7a b9
       3.0227e-41 2.594e-41 -3.2153e-41 -0.00023886628
000370 dd 52 27 39 45 46 00 00 b1 c0 5a 38 5e 51 00 80
       0.0001595723 2.5208e-41 5.2154708e-05 -2.9189e-41
000380 f9 87 65 b9 ef c7 62 b9 cd cf 30 b9 37 a5 9c b9
       -0.00021889796 -0.0002162752 -0.0001686208 -0.00029877733
000390 48 a1 b9 38 7a fe 70 38 05 c1 7f 36 bd 54 00 80
       8.8515284e-05 5.745746e-05 3.8110313e-06 -3.0398e-41
0003a0 c4 f9 4a 3a 10 56 86 b8 1e a2 7e 39 fc ac bf b7
       0.00077429065 -6.405648e-05 0.00024283721 -2.2849526e-05
0003b0 45 8c 90 39 de 35 83 38 c7 7e 49 37 8d 10 00 00
       0.0002757033 6.2566e-05 1.2010051e-05 5.937e-42
0003c0 d3 a5 00 00 af f1 cb 37 86 30 84 b9 52 93 b3 39
       5.9487e-41 2.4312028e-05 -0.00025213155 0.00034251303
0003d0 ec 8e 8c b8 5d 40 00 00 53 cb bf af 5c 03 00 00
       -6.7023415e-05 2.3089e-41 -3.4887168e-10 1.205e-42
0003e0 0e 5f 98 b8 d3 89 00 80 c5 ae 00 80 7c 86 00 00
       -7.26563e-05 -4.9442e-41 -6.2695e-41 4.8244e-41
0003f0 1e 4a 00 00 78 7f 00 80 ab 9e 00 00 8b 8d 00 80
       2.6588e-41 -4.5727e-41 5.692e-41 -5.0776e-41

gats.0.lin_r.bias f4 [335]
000000 d5 5d 9e 37 c5 86 9e 39 ae 6d 24 3d e7 a4 dd 39
       1.8878762e-05 0.0003023652 0.04014366 0.00042275267
000010 3a 97 7a 38 9b e4 d4 3d 12 34 70 3c ab 93 99 bb
       5.9745485e-05 0.103951655 0.014660852 -0.004686793
000020 61 ae 91 bb 6f db e1 37 39 16 0f 3b 62 70 f5 ba
       -0.0044458364 2.6924272e-05 0.0021833314 -0.0018725509
000030 84 66 3c 3d dc ce e8 36 75 37 53 3e 98 5b b7 bc
       0.045996204 6.9382204e-06 0.20626624 -0.022382542
000040 e4 cf 30 b8 31 8b 1f 3e ea 24 e7 bb 8a b4 50 3c
       -4.2155283e-05 0.15580441 -0.007053961 0.012738356
000050 34 a3 db bc 77 d4 0f 3e 62 00 23 bb 34 da e0 3d
       -0.02681122 0.14045893 -0.0024872054 0.10979119
000060 fd 24 8e 37 74 50 b0 3d 34 90 1b 3c eb 57 7b 3d
       1.6944943e-05 0.08609095 0.00949483 0.061363142
000070 fa 5e 89 3b 03 79 bf b5 62 f8 08 3d ef 91 3f 3c
       0.0041922303 -1.4265828e-06 0.03344 0.011692508
000080 af 18 2d b6 d6 a8 78 b9 b7 8b 99 b7 91 84 29 b9
       -2.5793377e-06 -0.0002371402 -1.8304081e-05 -0.00016166481
000090 7d c6 8c b7 68 43 2e 37 10 e4 42 3e 93 c9 36 b8
       -1.6781729e-05 1.0386902e-05 0.19032311 -4.3579912e-05
0000a0 83 67 58 b9 50 b9 fa 3c 0f 8e 00 bc 3b 0c 83 3d
       -0.00020637926 0.030605942 -0.007846369 0.06398817
0000b0 ae 97 bf b8 79 b5 b6 b7 85 b7 79 bc 53 ed 07 bb
       -9.135842e-05 -2.1780595e-05 -0.015241508 -0.0020740821
0000c0 30 5a b2 38 d7 f6 3c 3b ab 6d e5 b8 3a 66 a3 bc
       8.5045e-05 0.0028833651 -0.00010939998 -0.019946206
0000d0 15 2d 92 b7 89 e3 c9 3d 6b 94 0a bb 9d 54 83 3a
       -1.742555e-05 0.09857852 -0.0021145593 0.0010019724
0000e0 f1 eb 92 bb 08 e6 0a 3e 79 92 20 37 5a c8 2f 38
       -0.004483693 0.13564312 9.5708465e-06 4.1909843e-05
0000f0 b7 98 b1 3d 89 c9 5e ba 24 33 75 b7 bb 09 14 bd
       0.08671706 -0.0008498659 -1.4615045e-05 -0.036142092
000100 22 80 81 3d 74 2c 9e 3a 2f 7d af bb 1e ec 96 b7
       0.063232675 0.0012067691 -0.005355499 -1.7991344e-05
000110 71 88 e9 37 d9 19 6f 3d f6 2f 87 b9 73 b1 00 37
       2.78393e-05 0.05837426 -0.0002578494 7.67071e-06
000120 9d 12 07 bc 84 70 00 bb f5 4c 33 bb 1c 1f 04 bb
       -0.008244184 -0.0019598315 -0.0027359102 -0.0020160144
000130 6f d9 db 38 11 67 2d 3b 50 bb cb bb 87 c9 6d 3e
       0.00010483234 0.0026459137 -0.0062173977 0.23221408
000140 3a ac b0 b5 65 b7 cf bc 45 81 a4 bb d1 83 8b b7
       -1.3163146e-06 -0.025356004 -0.005020293 -1.6631473e-05
000150 1b 90 47 bd 1b ad e3 3d 29 b0 a8 3e d4 7d 36 bc
       -0.048721414 0.111170016 0.329469 -0.011138398
000160 c5 3e 03 ba 73 9f 59 3e a0 81 8f ba ed 1e 41 b4
       -0.0005006607 0.21252231 -0.0010948665 -1.7985776e-07
000170 bb 8e bb b9 fa e9 88 3e b8 a1 df 3d d5 26 8f 3a
       -0.00035773762 0.2674101 0.10919517 0.0010921607
000180 d0 a7 d8 37 29 d2 02 3d 68 41 a1 bc 49 04 29 b8
       2.582735e-05 0.031938706 -0.019684508 -4.029673e-05
000190 55 3c 9a bc b7 ab 6f b8 19 f5 01 bd 1f 27 d6 b5
       -0.018827597 -5.7141962e-05 -0.031727884 -1.5955628e-06
0001a0 f9 f6 85 3c 54 14 2a 3d 69 d8 91 b8 3d cb c2 ba
       0.016353117 0.041523293 -6.954448e-05 -0.0014861595
0001b0 1a 75 85 ba 2a 0e 4a 3e 80 8c 0a ba ad 2d 3b b6
       -0.0010181994 0.19731966 -0.00052852184 -2.7891758e-06
0001c0 73 f0 7e b7 d8 7c a0 bd c4 32 1f 3b 8f 41 9b 36
       -1.5195564e-05 -0.07836312 0.0024291733 4.626992e-06
0001d0 4e 68 49 3b 6f 8c 10 bc e6 ed 42 bb d2 35 58 b8
       0.0030732336 -0.0088225445 -0.002974385 -5.1548537e-05
0001e0 f4 e3 50 bd 24 35 d2 3a a7 45 93 b9 60 a9 f0 3c
       -0.050998643 0.0016037566 -0.0002808992 0.02937764
0001f0 89 7f 3a bd 43 cf 3e b7 1f 20 1b b8 00 0d 80 bd
       -0.045531783 -1.1373139e-05 -3.6984795e-05 -0.062524796
000200 0a 7d a3 3b 9d 1b 11 b6 cc b3 a8 b9 8f 17 ad 3a
       0.004989271 -2.1622757e-06 -0.00032177416 0.0013205874
000210 ba df d5 3a c1 dd 00 3b 7f 6c 3d b7 4a 59 0d ba
       0.0016317286 0.0019663426 -1.1290539e-05 -0.0005392028
000220 b3 42 45 39 8e 8e 5b 3c bb 27 19 39 e1 29 a7 39
       0.00018812231 0.013400687 0.00014606018 0.00031883924
000230 3e 20 a0 3d 97 b5 b8 b8 cf 43 2f 3a 94 f5 19 39
       0.0781865 -8.8076275e-05 0.00066858245 0.00014682702
000240 0c 7f c0 3d 9d 06 77 3e 9c 5e 14 ba 1b 3e 6a b7
       0.09399232 0.24123617 -0.000565985 -1.3961947e-05
000250 94 7d a5 bb 49 39 af 39 08 3e b6 b7 00 20 dc b8
       -0.0050503705 0.00033421282 -2.1724976e-05 -0.00010496378
000260 18 b8 3e b9 15 25 d6 bd f1 d5 42 bc 98 13 6b 3e
       -0.00018188392 -0.104562916 -0.011891828 0.22956693
000270 89 fe 0c bc ca 10 bf b6 a9 88 15 35 e4 3b 65 3a
       -0.008605608 -5.694198e-06 5.570569e-07 0.0008744581
000280 6b 74 b8 bc 03 44 5f bd 3e 74 9c b9 c0 a5 c8 b7
       -0.02251645 -0.05450822 -0.00029841246 -2.3919041e-05
000290 2d 9f d1 bc ef 2e f6 bd 0f 35 ca 39 01 bd 92 3d
       -0.025588596 -0.120206706 0.00038567974 0.07164956
0002a0 33 1f 4f b8 be 7d 1b 37 b6 2f 03 37 77 e4 5a 38
       -4.9381702e-05 9.267997e-06 7.819317e-06 5.2188025e-05
0002b0 48 2f 4c 3d 40 e9 54 38 35 21 ce 3d 54 35 91 bb
       0.04984978 5.076197e-05 0.100649275 -0.004431406
0002c0 2a 42 47 bb 4b df f6 3d 30 2e b0 3d 36 53 23 b5
       -0.0030404427 0.120543085 0.086025596 -6.084332e-07
0002d0 b9 ee e3 3a f9 58 8c ba 97 72 30 36 43 2d f5 3d
       0.001738987 -0.0010707668 2.6292744e-06 0.119715236
0002e0 e0 be 3e 38 58 02 82 bb 29 68 f8 37 04 a4 61 39
       4.5477296e-05 -0.0039675646 2.9612407e-05 0.00021518773
0002f0 f6 88 02 bc 46 bf 55 b9 dc 9d 24 3a ea 1c 81 3b
       -0.007967224 -0.00020384518 0.00062796264 0.0039402144
000300 97 91 02 38 41 59 92 38 e3 26 22 bb 02 fe 79 3c
       3.1130006e-05 6.978447e-05 -0.0024742417 0.015258314
000310 52 97 71 b7 5a c9 9e 3d 1e 9e 17 3e 32 8f 25 b9
       -1.4399951e-05 0.077532485 0.1480641 -0.0001578897
000320 bc fc 53 ba 38 72 9a b7 2b 1e 5e 3d 3b 15 53 3d
       -0.00080866716 -1.8411418e-05 0.05422799 0.05153392
000330 f2 9f 08 3e 79 39 42 b7 24 2a 7b b9 ac 16 3c 3a
       0.13342264 -1.15766825e-05 -0.00023952924 0.0007175009
000340 5f c2 d1 3d bf e8 a8 3c 6d 59 b9 37 07 83 81 3d
       0.102421515 0.020618794 2.209536e-05 0.063238196
000350 f4 18 7f bd 70 2c 2d 3e ae 50 5b 38 62 ab d1 3c
       -0.062279657 0.16911483 5.2288808e-05 0.025594417
000360 b8 3d 4d 3e df 9e a9 36 23 51 c0 3b 70 92 0b bd
       0.20043075 5.0550875e-06 0.0058690473 -0.0340752
000370 9b 93 da bc 10 99 02 bd 71 c7 58 3e 98 9c 8f 3e
       -0.026681712 -0.031884253 0.21169831 0.2804916
000380 0b 48 9e 3c 16 1f 3e 38 2e 48 8f ba ff 20 cc 3e
       0.019321462 4.532848e-05 -0.0010931545 0.39868924
000390 3f 3b 05 3e fb a4 68 39 33 5f cc 38 ac 31 1b 3e
       0.13010882 0.00022186704 9.74521e-05 0.15155667
0003a0 89 1d 90 3e 66 f8 b6 b8 3e 16 73 bc a8 c3 86 b5
       0.28147534 -8.724704e-05 -0.014836846 -1.0040721e-06
0003b0 f9 27 44 38 10 de 42 37 cc 60 e3 39 0a 44 02 3e
       4.676727e-05 1.1615004e-05 0.00043368933 0.12721267
0003c0 27 c8 8c 38 bb af a0 3b f9 41 bd bc 2b 8c 0c 3e
       6.7130015e-05 0.004903761 -0.023102747 0.13725345
0003d0 f3 84 5f 3d 03 e4 c7 39 f7 fc 43 38 02 d1 05 3e
       0.05457015 0.0003812612 4.6727215e-05 0.13068011
0003e0 3f c2 8c 3d 2c 66 26 37 5c cf a5 38 01 73 14 37
       0.06872987 9.91816e-06 7.906437e-05 8.848264e-06
0003f0 b3 be a4 3c 54 03 95 b8 88 61 52 bd 7c ce 06 bb
       0.020110464 -7.1054936e-05 -0.051362544 -0.0020569852

gats.0.lin_edge.weight f4 [335, 1]
000000 61 35 61 36 77 c7 87 39 9f c2 e2 3c d9 2b 31 ba
       3.3558683e-06 0.0002589782 0.027680693 -0.0006758548
000010 c0 6a b7 38 ff cf b2 3e 6b d2 43 3b 02 37 8d bb
       8.746004e-05 0.34924313 0.0029880058 -0.004309536
000020 eb be 8b bb 47 07 4a 35 86 4c 3c ba 66 86 ea b8
       -0.0042647026 7.5261454e-07 -0.0007183034 -0.00011183023
000030 7d 50 7d 3d b0 3f 83 36 0d f1 94 3e 7b 7d 4b bc
       0.061844338 3.9115184e-06 0.29090157 -0.012420054
000040 0a 3e 55 b8 f1 cf 71 3d 22 dc 06 bc 39 1e 6c 3b
       -5.0840936e-05 0.0590362 -0.008231195 0.0036028756
000050 a9 5a 7f ba 18 d0 0c 3e 3f 26 8c bb 41 e1 0a 3d
       -0.00097409874 0.13751256 -0.00427702 0.033906225
000060 db 61 12 b8 00 1a bf 3e dc 01 53 3b 40 0c da 3d
       -3.4900248e-05 0.37324524 0.0032197153 0.10646868
000070 96 f9 97 3b fb b1 b4 b6 20 53 a7 bc 0b 1e ac 3d
       0.0046379073 -5.3851377e-06 -0.02042538 0.08404168
000080 c2 dc a1 b7 e9 ac ff bc 91 d9 1c 38 66 33 a6 b9
       -1.9295494e-05 -0.03121038 3.7395923e-05 -0.00031700282
000090 9e 24 af b7 d9 76 78 b9 b8 e9 f0 bd 3f b0 d1 b7
       -2.0878677e-05 -0.00023695397 -0.11763328 -2.4996812e-05
0000a0 b0 06 00 3a 84 7c dc 3e 21 5d 0d bd c8 66 a8 bc
       0.0004883809 0.43063748 -0.034512643 -0.020556822
0000b0 36 eb 8f b8 42 b5 9b b7 3b 54 07 3d f3 d5 42 bb
       -6.862583e-05 -1.8561845e-05 0.033039313 -0.0029729574
0000c0 fb d2 b1 37 80 84 f0 b9 60 c7 b0 38 ff 31 05 bd
       2.119829e-05 -0.00045875087 8.4294705e-05 -0.032518383
0000d0 49 fd 50 b8 8a 34 2e 3d 75 aa 44 bb 8a 42 a7 b7
       -4.9826955e-05 0.042530574 -0.0030008827 -1.9938936e-05
0000e0 e5 b3 83 bb b6 f9 c8 bb f5 42 e5 36 b9 a0 81 37
       -0.004019248 -0.0061332835 6.8325267e-06 1.545284e-05
0000f0 13 2c 09 3e 88 91 67 3a 9a 30 0e 37 2e 58 07 bd
       0.13395719 0.00088336365 8.4751755e-06 -0.03304308
000100 04 40 a9 3e e7 99 e7 ba e7 0c 9a bb bd 29 ee 36
       0.33056653 -0.0017669768 -0.004701245 7.0978117e-06
000110 f4 84 25 38 18 29 d7 3d 99 12 b0 3a 9d ef 1b b8
       3.9462888e-05 0.10505885 0.0013433277 -3.7178037e-05
000120 0d 95 95 3e 23 41 a4 ba a3 4f 1f bc 36 21 d4 bb
       0.2921528 -0.0012531619 -0.009723577 -0.0064736856
000130 f6 45 0e 39 22 00 c4 39 07 0e 21 3b b8 c4 6b be
       0.00013568238 0.00037384132 0.0024575011 -0.23024261
000140 84 5b e9 b6 fc d8 b3 3e af 7a ed bc 60 34 26 b8
       -6.954595e-06 0.35126483 -0.028989164 -3.9626262e-05
000150 00 6c 9c bd 77 08 d4 3e ab 3e 4c bd 69 d6 be 3c
       -0.07637787 0.41412708 -0.049864452 0.023295598
000160 2c 46 93 bc 74 31 12 3e 51 dc d8 ba 50 4b ca 37
       -0.017977796 0.14276677 -0.0016545152 2.4115347e-05
000170 a5 38 5e 3a 3e 28 56 be 9c 9f 08 3e 88 f1 16 39
       0.00084770686 -0.20913789 0.13342136 0.00014395092
000180 7c 84 a7 37 9d ec ff 3b 3f 66 88 bc c4 f5 41 b7
       1.9969644e-05 0.007810189 -0.016650317 -1.1560918e-05
000190 1a 08 ae bc f5 19 c6 b7 2b 38 1f 3f d2 07 42 b7
       -0.021244098 -2.3615527e-05 0.6219508 -1.1565122e-05
0001a0 f9 cc 80 3d d9 65 86 3e c5 94 53 38 23 d4 00 3f
       0.062890954 0.2624958 5.0444873e-05 0.50323695
0001b0 6e 6d c8 3a b3 8d a8 3e 5d a1 47 ba d9 c5 94 37
       0.0015291402 0.32920608 -0.00076152926 1.7735105e-05
0001c0 6e 78 78 b6 83 39 04 be 9f 21 c3 3e a0 96 ef 37
       -3.702498e-06 -0.12912564 0.38111588 2.856116e-05
0001d0 2a 4b 91 3a 75 e8 0c 3e 25 c3 75 3b f7 ea 33 b8
       0.0011085023 0.1376055 0.0037500348 -4.2895754e-05
0001e0 6a 2c da 3c a0 5a da b9 42 49 47 ba 08 2a e2 ba
       0.026632506 -0.0004164772 -0.0007602164 -0.0017254958
0001f0 b1 7f 81 3c fa 80 4f 37 8b c5 d2 b7 87 62 c7 bc
       0.015807958 1.2368191e-05 -2.5125939e-05 -0.024338974
000200 90 92 d1 3b ef e2 47 36 34 45 08 39 64 fa a9 39
       0.0063956454 2.9785404e-06 0.00012995751 0.00032420747
000210 f2 71 2a 3a 6a 5a b3 bd 58 19 88 b7 5d d4 c7 b9
       0.00065019645 -0.087574795 -1.6224265e-05 -0.0003811446
000220 2f a5 d8 38 51 67 f8 3b 6a b1 60 b7 1e f8 35 3a
       0.000103304505 0.0075806757 -1.3392748e-05 0.00069415744
000230 43 bd c5 3e da 70 26 b9 d0 1e b4 39 d1 14 b7 38
       0.38620958 -0.00015873034 0.00034355232 8.729997e-05
000240 c3 25 98 3e a7 29 39 bd 2f aa 09 bb 98 b3 c6 b7
       0.2971631 -0.04520574 -0.0021005978 -2.368707e-05
000250 c4 00 0f bb d9 fd 76 b9 52 ea b5 b7 b5 15 86 ba
       -0.0021820525 -0.00023554954 -2.1685995e-05 -0.0010229858
000260 0c 73 a7 ba 56 58 59 3e c0 d4 17 3d b3 f5 0d 3d
       -0.0012775376 0.21225104 0.03706813 0.034658145
000270 1a 18 f7 3b a7 43 4f 38 88 6b 9c 37 44 86 45 3b
       0.007540715 4.9415652e-05 1.8646722e-05 0.0030139843
000280 8e 53 c7 bb bd ed c6 3e 93 01 62 b9 df 87 08 b8
       -0.0060829585 0.38853255 -0.00021553626 -3.2551467e-05
000290 14 2a 2d 3d b0 23 76 3e ce 27 d1 39 90 55 19 3e
       0.042276457 0.24037051 0.00039893243 0.14974046
0002a0 e8 81 0b b8 7d 81 77 b7 33 5c a7 35 eb 4e b6 b6
       -3.3261167e-05 -1.4752496e-05 1.2469303e-06 -5.43321e-06
0002b0 ec 88 a0 3e 98 77 32 b7 2f ac af 3d 95 e3 68 ba
       0.31354463 -1.0637472e-05 0.08577763 -0.000888401
0002c0 14 cd 73 bb b6 1b 20 3c 9a fe ba 3d 20 22 c3 b5
       -0.0037201094 0.009772232 0.09130593 -1.4538564e-06
0002d0 68 53 a7 3a 81 ce b0 b9 72 1a f1 38 8f 4e d6 3e
       0.0012765946 -0.00033723193 0.00011496701 0.4185681
0002e0 a8 34 a2 b8 67 0b a6 bb d0 51 7c 38 fc 86 9e 3d
       -7.73457e-05 -0.0050672772 6.0157676e-05 0.0774059
0002f0 dd 11 12 bc 9e a7 b2 b8 45 83 d8 39 f7 56 73 3c
       -0.008915392 -8.5189226e-05 0.00041296534 0.014852277
000300 5f fe 65 38 a7 3c 06 38 3c a6 65 bb 26 ce 74 3c
       5.4834756e-05 3.2004576e-05 -0.003504171 0.014941728
000310 28 d6 89 37 86 46 c7 3e 70 7a dd bd 84 42 ca b8
       1.6431397e-05 0.38920993 -0.10814369 -9.6445e-05
000320 e8 64 f8 b9 eb bf c2 37 bb 6e cf 3e d9 bb 3e 3c
       -0.00047377427 2.3215971e-05 0.40514168 0.011641466
000330 4a 2b 41 3f 24 05 7c b7 f9 7b 1e 39 da 0b a0 3a
       0.7545668 -1.5021567e-05 0.00015114238 0.0012210563
000340 80 97 09 be dc 0a 8a 3c e1 c5 a5 b8 5c f5 23 3f
       -0.13436699 0.016850881 -7.904671e-05 0.64046264
000350 fb 20 a8 3e 21 ae 0b be c4 90 97 38 50 8e fe 3e
       0.32837662 -0.13640644 7.227206e-05 0.4971795
000360 b9 33 15 be dd f9 a8 37 6f 8b 7a 3b 93 4d 1e bd
       -0.14570512 2.0143512e-05 0.0038230082 -0.0386482
000370 8c 63 9b 3c e6 bd b2 3b 8f ee ad bd 04 31 da bd
       0.018968366 0.0054547666 -0.08492767 -0.1065388
000380 9e 75 bd 3e c1 de 9f b8 ce 60 df 3a 72 5e a0 bd
       0.37003797 -7.623202e-05 0.00170424 -0.07830514
000390 91 5f 22 be 46 ce db 39 cc f1 09 b8 75 1e ce bd
       -0.15856768 0.0004192462 -3.2888536e-05 -0.10064403
0003a0 35 62 9e be 20 3b 12 b8 af 52 03 3c 14 00 47 b8
       -0.309343 -3.4864177e-05 0.008015319 -4.744537e-05
0003b0 b2 e3 0e b9 6c 7b ca b5 0b 90 a1 39 f7 d4 33 3f
       -0.00013626998 -1.5086093e-06 0.00030815633 0.70246834
0003c0 bf 4a e3 b7 c0 21 79 bb 9d 0b dc bb 69 cd d4 3e
       -2.7095315e-05 -0.0038014501 -0.0067152516 0.41562966
0003d0 86 63 27 3f 66 15 af 39 59 43 b7 37 dd f8 53 3e
       0.65386236 0.00033394544 2.1846661e-05 0.20700403
0003e0 c7 fc 16 3f 81 e2 c9 38 e6 f4 69 b9 f8 49 e4 38
       0.5897946 9.6266165e-05 -0.00022311843 0.00010885665
0003f0 f2 31 62 39 04 c8 17 36 2c 55 cc bc 77 86 b6 b9
       0.00021571646 2.2617178e-06 -0.024942957 -0.0003481393
